checkpoints/2025-05-30-16-01-12/last_epoch.pth (torch, 675371 bytes, 9 tensors)

encoder.0.weight f4 [64, 3, 3, 3]
000000 fa 53 c0 bd d8 9f 3c be c0 2a 82 bc 46 96 10 be
       -0.09391017 -0.1842035 -0.015889525 -0.14119825
000010 c9 49 2b 3e 75 1d 1e 3e 11 cf 59 3c 7f c7 96 3d
       0.16727366 0.15440924 0.013293997 0.073622696
000020 0a 5a 26 3e 35 45 24 be 6e 3e 12 3e c8 d3 ef bd
       0.16245285 -0.16042025 0.14281628 -0.11710316
000030 09 f1 2b 3e 6c 2c 0e 3e 87 4e a7 3d 40 a0 19 3e
       0.16791166 0.13884133 0.08169275 0.15002537
000040 4c 60 f2 3d a3 5f 8f 3d 8e f6 27 be 23 5e c6 3d
       0.118347734 0.07000663 -0.16402647 0.09685924
000050 8a ef 01 be d0 48 76 3d ac fc 62 bd 79 0a 70 bd
       -0.12689033 0.060128033 -0.055416748 -0.058603738
000060 72 fe 26 bb 96 67 c9 bd d1 54 43 be ab fd 01 3e
       -0.002548125 -0.098342106 -0.19075324 0.12694423
000070 c6 8e 0e be 1f 69 15 be b8 08 e3 bd 6f a2 81 39
       -0.13921651 -0.14590882 -0.11085647 0.0002472582
000080 8c fb fa 3d 68 d9 aa bd 89 35 14 3d dd 58 07 bd
       0.1225501 -0.08342248 0.036183868 -0.03304373
000090 fc 22 4b bc f7 80 38 be 74 65 20 3e 6d a9 f7 3c
       -0.012398478 -0.18017946 0.15663701 0.030232156
0000a0 16 8d a2 3d a5 9c 3e 3e 5a c6 be 3d d8 b4 91 3d
       0.07937066 0.18614443 0.09315176 0.07114571
0000b0 66 05 14 3e fb d5 b7 3d 1e 5a 13 3e dc f1 a3 3d
       0.14455184 0.089763604 0.14389846 0.080051154
0000c0 7a 5e a9 bd 01 1b ab ba d5 e9 23 3e 30 8d b8 3c
       -0.08269973 -0.0013054312 0.16007169 0.022528261
0000d0 20 cb 34 bd b5 cc 11 bd 26 90 1a 3e dc 41 03 3e
       -0.044139028 -0.035595614 0.15094051 0.12818092
0000e0 5f 52 c7 bd 26 c2 2c be 58 47 0b be 4c b1 0f 3d
       -0.09732508 -0.16870937 -0.13601434 0.035081193
0000f0 da 77 3d 3b 03 8b 24 be f7 16 0d 3c aa d7 bf 3d
       0.0028910548 -0.16068654 0.008611432 0.093673065
000100 b8 fd eb 3d 06 56 e8 bd 1b 0c 39 be 65 ed c2 3d
       0.115230024 -0.11344533 -0.18071024 0.09517936
000110 12 14 fa bd 29 c8 19 3e dd 49 3c bd 16 57 cc bc
       -0.12210859 0.15017761 -0.04596888 -0.02494387
000120 b0 97 69 bc d7 8f 22 3e d3 e7 2b be bd 9c 21 be
       -0.0142573565 0.15875183 -0.16787653 -0.15782447
000130 52 d0 ad 3d 85 77 22 3e 33 ed 43 bd 7b ed b8 bc
       0.084869996 0.15865906 -0.047833633 -0.022574177
000140 26 28 34 3d 14 21 eb bd 7f 74 b3 bd ac 1f 15 be
       0.0439836 -0.114809185 -0.08762454 -0.14562863
000150 97 e0 c9 bd 7e 09 19 3e 27 e7 38 3d 5e 4a 0f 3e
       -0.0985729 0.14945027 0.04514232 0.13993213
000160 d1 c3 23 be dd 88 3d 3e bf 30 2a 3e aa b3 10 be
       -0.15992667 0.1850924 0.16620158 -0.14131036
000170 53 78 dc bd c2 90 d6 bd 25 00 db 3d a4 6e 3c bd
       -0.107651375 -0.10476829 0.10693387 -0.046003953
000180 4f 7e 8d 3d 37 d1 da 3c 5c bc 2c 3d 73 8e 37 3e
       0.06908857 0.02671109 0.04217182 0.17925434
000190 31 b4 22 bb bd 53 d7 3c 0c bd 00 3e 2a 8a 24 be
       -0.002482664 0.026285047 0.12572116 -0.1606833
0001a0 ca 51 e6 3c 91 b2 42 bc 92 6c 20 bc 9e 0c b7 3d
       0.028115172 -0.011883394 -0.00979151 0.089379534
0001b0 36 3c 3d 3d 9e 77 0a 3c 2e 43 e1 3d 4c 89 52 bd
       0.0462 0.0084513705 0.10999142 -0.051400468
0001c0 db ee 0e bc 6d 5e c0 bd 4a e9 09 be ed 44 58 3d
       -0.00872394 -0.0939301 -0.13467899 0.052800108
0001d0 34 6c 64 bd fc c9 e3 3d 9e 10 91 bd 31 ef 09 be
       -0.055767253 0.1112251 -0.070832476 -0.1347015
0001e0 e1 ff 31 be 9e 96 01 3e 85 3f 28 3e da e2 43 be
       -0.17382766 0.12655112 0.16430481 -0.19129506
0001f0 96 a5 0a 3e 68 39 ac bd 5e 8f 88 bb dd 3f 25 3e
       0.13539729 -0.08409387 -0.0041674813 0.16137643
000200 13 08 db bc 8d 9f 8a bc 5f 3a 39 bc 03 b5 2d bd
       -0.026737249 -0.016921783 -0.011305421 -0.042408954
000210 16 dd 27 be 6e 79 01 be 60 79 3c 3e 6b ba 8d 3d
       -0.16392931 -0.12643978 0.18405676 0.06920322
000220 ba db 0c 3d 73 42 94 bd a9 29 13 bd 76 59 d7 bd
       0.034389235 -0.07239237 -0.035928402 -0.1051511
000230 12 fd 2a be 50 06 02 3d 97 60 9a b9 ed 01 23 3e
       -0.16698101 0.0317443 -0.00029445134 0.15918703
000240 50 82 de 3d 86 37 16 be f9 d1 e3 3d 23 5f 2c 3e
       0.10864699 -0.14669618 0.111240335 0.16833167
000250 5e 15 03 bd 95 b3 5e 3c 75 ec 01 be 03 99 04 3e
       -0.0320028 0.01359262 -0.12687857 0.12948994
000260 92 5e a9 bc d7 94 0c 3e a2 ed 45 bd 63 84 81 bd
       -0.020674977 0.13728653 -0.048322327 -0.06324079
000270 32 16 08 3e d4 71 f3 3d 0e 8f 17 3e 84 47 bb 3d
       0.13289717 0.11886945 0.14800665 0.091445
000280 d5 20 cc 3d 58 e1 2f 3e f7 2a 00 3c 82 2f 2b 3e
       0.099672 0.17175806 0.007822744 0.16717342
000290 6e 83 31 be c9 fa 28 3d 75 dc cb bd 7d 21 4c 3d
       -0.17335293 0.041254792 -0.09954158 0.049836624
0002a0 f1 ef c7 3c d0 e0 f5 3a cc 69 b7 3b 5a 6d 20 be
       0.024406405 0.0018759016 0.005597329 -0.15666714
0002b0 06 98 e2 3d c2 c0 7b bd f8 1b d6 bd 46 e2 02 3e
       0.110641524 -0.061463125 -0.10454553 0.12781629
0002c0 46 7b 75 bd 9f 02 b3 3d 8b 51 22 bd 56 9f 29 ba
       -0.059932016 0.08740734 -0.039628547 -0.0006470581
0002d0 1a 69 64 bd 05 0d d5 bc 5a 56 0f 3e f9 32 ce 3d
       -0.055764295 -0.026007185 0.13997784 0.10068316
0002e0 13 46 e7 bd 54 18 e3 3d 09 f6 23 be 34 c1 22 3d
       -0.112926625 0.110886246 -0.16011824 0.039735034
0002f0 b4 11 04 3e 47 14 81 bd 7e f8 65 bd fd f0 09 bc
       0.12897378 -0.06302696 -0.056145184 -0.0084192725
000300 eb 13 d5 3c b0 15 27 bd f1 63 2d be 33 0a e6 3d
       0.026010474 -0.040792167 -0.16932656 0.11232414
000310 e9 b9 dd 3c 94 57 3e 3e 5b 9f 21 3e 61 be 05 3e
       0.027066188 0.18588096 0.15783446 0.13060905
000320 97 ae a2 3d db 3d 25 3e 2e b8 11 3e d7 26 0c 3e
       0.079434566 0.16136877 0.14230415 0.13686691
000330 93 c2 0d 3a db 0e c1 3d 13 7e 23 3e f5 62 e5 3d
       0.0005407717 0.094266616 0.15966062 0.11200515
000340 0e df 4b 3d 18 53 1f be 79 5d 0c be 9a 63 07 3e
       0.04977327 -0.15559042 -0.13707532 0.13221589
000350 da 21 1a 3d 6b a5 f9 3c 80 5a 8f bd a1 dd dc bd
       0.03762994 0.030474385 -0.069996834 -0.1078446
000360 42 9e 28 bd 84 51 3c be 2d 6d 1e bd d6 ba ba bd
       -0.04116655 -0.1839047 -0.038678337 -0.091176674
000370 24 d8 ca bd e8 bf 9b bc c5 39 3f bd e0 57 c4 bd
       -0.09904507 -0.019012406 -0.046685953 -0.09587073
000380 46 19 b1 bd db df 0c bd 6e 61 b7 3d c3 36 d0 bd
       -0.08647399 -0.034393173 0.0895413 -0.10166695
000390 8f 0c 87 bd 8c 82 46 3d 27 cd 60 3d 21 4a ce bd
       -0.06594192 0.048464343 0.05488315 -0.10072733
0003a0 0f 82 42 3e 05 b9 33 3e 6a 29 bf bc b2 25 0b bd
       0.18994926 0.17551048 -0.023335177 -0.033971496
0003b0 c7 d9 ed bc d1 75 9e bd 3f fb a8 bc 7f a7 3c be
       -0.029034508 -0.077373154 -0.020627616 -0.1842327
0003c0 c4 b3 1d be f7 32 97 bd ca 0a 3e 3e 47 5d ec 3b
       -0.15400606 -0.07382768 0.18558803 0.007213268
0003d0 8c 20 30 be a1 a3 90 bd 7f 5b 39 3e 2b 32 b7 bd
       -0.17199916 -0.0706246 0.18101309 -0.08945116
0003e0 08 70 18 3e 6c 61 3f 3e 88 c3 04 be e8 3f ef 3d
       0.14886487 0.18689507 -0.12965214 0.11682111
0003f0 3c 98 21 bc 43 8f db bd 15 d5 a6 bb 05 28 c5 3d
       -0.009862956 -0.107206844 -0.0050913193 0.09626774

encoder.0.bias f4 [64]
000000 c0 33 8b bd 25 2e ff bb 6c 45 01 3e 23 a0 00 3e
       -0.0679698 -0.0077874833 0.12624139 0.12561087
000010 97 c7 1b 3e 65 2c 30 be 13 97 28 3c be a9 16 3e
       0.15212856 -0.17204435 0.010289925 0.14713189
000020 43 e9 21 3e 29 56 dc 3d e3 26 ca 3d 75 62 bf 3d
       0.15811639 0.10758621 0.09870698 0.09344951
000030 47 28 38 3e 27 36 e1 3c 2e 47 8b bc f6 1e a9 3d
       0.17984115 0.027491642 -0.017001715 0.082578585
000040 d5 69 da bd 8e bc 39 be a3 33 0a be 6f 66 de 3d
       -0.10664717 -0.18138334 -0.1349626 0.108593814
000050 5a df 8e 3d 57 24 a8 3d ef b7 3f be 03 d0 17 3e
       0.06976195 0.08210056 -0.18722509 0.14825444
000060 de 34 15 be a8 19 42 3e 81 f3 15 be a7 9f 87 3c
       -0.14570948 0.189551 -0.1464367 0.01655562
000070 be da 35 3e 7b 52 09 bd f1 65 1b 3d 1c 5f 00 3e
       0.17759225 -0.033525925 0.037939016 0.12536281
000080 70 a3 a1 bd 4d 07 5e 3d 1c b7 06 3d c0 29 d3 3d
       -0.07892501 0.05420618 0.03288947 0.103106976
000090 69 21 da 3d 5a d3 2f 3e 78 13 9a bd c5 5a 29 3e
       0.10650904 0.17170468 -0.075232446 0.16538532
0000a0 f5 a5 33 3e 35 a3 32 3e 0f 0a 5c 3d 43 16 06 be
       0.17543776 0.17445071 0.05372053 -0.1309443
0000b0 e1 13 dc 3d 3c 28 3c 3e f3 ae a2 bd 14 11 1f be
       0.10745979 0.18374723 -0.07943525 -0.15533859
0000c0 50 44 9e bc 0c 8e 35 3e e3 d9 2c be 14 2b 32 3d
       -0.019319683 0.17729968 -0.16879992 0.043498114
0000d0 4f 75 d6 3d eb ec 58 bc 2f 16 37 be 48 dd 2f 3e
       0.104715936 -0.013240079 -0.17879556 0.17174256
0000e0 b2 fb e7 3d 1f 5d 0e be 36 c3 1b 3e 7f 8c 20 be
       0.11327304 -0.1390271 0.15211186 -0.15678595
0000f0 99 f9 12 3e 3d f1 0c 3e bb f0 82 bd fb 85 37 be
       0.14353026 0.137639 -0.06393572 -0.17922203

encoder.3.weight f4 [128, 64, 3, 3]
000000 40 51 5f 3c a9 bc a1 3c 1f f0 cd bc 4e 9c 71 bc
       0.013630211 0.01974328 -0.025138913 -0.014746739
000010 25 6b 0f bd 24 f8 0b 3d 58 49 ca bc d4 86 81 3b
       -0.03501429 0.034172192 -0.024693176 0.0039528403
000020 ad 7b ed 3c 38 86 1a bc 04 5d 64 bc 75 53 23 bc
       0.028989637 -0.009431414 -0.013938192 -0.009968628
000030 6a e2 e9 3a 73 35 be 3c 31 4b eb bc eb 92 60 bc
       0.0017843966 0.023218846 -0.028722377 -0.013706903
000040 40 2d e9 3a 74 90 a1 bc 2a 76 1c 3d d1 f6 1e 3d
       0.0017789975 -0.0197222 0.038198628 0.0388096
000050 76 aa 00 bc 12 27 ff bb 00 20 c1 3c b3 fb 19 bb
       -0.007853141 -0.00778664 0.02357483 -0.0023495972
000060 1e e9 a0 ba a5 d9 af 3c a6 fb 0b bd ef c8 21 bd
       -0.0012276506 0.021466086 -0.034175538 -0.039498266
000070 20 58 af bc 95 a8 86 bc df 44 11 bd 6b 81 24 3d
       -0.021404326 -0.016437808 -0.03546607 0.040162485
000080 37 78 dd ba 12 47 ed 3b 17 72 66 bb ed 60 19 bd
       -0.0016896789 0.0072411383 -0.0035163218 -0.03744595
000090 47 94 a3 bc 11 09 95 3b d9 e3 cb bc 76 ce f1 3c
       -0.019968165 0.0045482 -0.02488892 0.029517394
0000a0 ff 1c f7 3c ed 3d 06 3c 10 33 bc 3c cd f0 a3 3a
       0.030165194 0.008193475 0.022973567 0.0012507677
0000b0 a1 cc 0a 3d 7a 04 98 3a f7 29 e9 bc 8b 63 02 3d
       0.033886556 0.0011598014 -0.028462393 0.031833213
0000c0 7d 29 24 bd af cc d0 3c 93 26 21 3d 8b a3 3b 3c
       -0.04007863 0.025488226 0.039343428 0.011452566
0000d0 ca 07 e0 3c a1 4a ff 3c 4b a8 11 bd 5e 32 2e 3d
       0.027347464 0.031163516 -0.035560887 0.042528503
0000e0 dd d4 b8 3c 4a 3e 0c 3c d9 88 47 3c 45 38 11 bd
       0.022562439 0.008559773 0.012178623 -0.035454053
0000f0 62 d5 2e 3d 14 31 44 ba 58 3a 14 3b d0 59 8a bc
       0.042683966 -0.000748412 0.0022617783 -0.016888529
000100 1d 7a 07 3b 24 99 90 3c dc c0 7d 3c d5 5b d3 bc
       0.002067215 0.017651148 0.015487876 -0.025800625
000110 bb c5 d3 bb 10 e7 03 3d d7 ea 9b 3b 8f 47 5b bc
       -0.0064627803 0.03220278 0.0047582197 -0.01338376
000120 25 1c f0 3c bd 20 41 3c 98 37 62 3c bb 86 c7 3b
       0.029310295 0.011787591 0.0138072 0.006089059
000130 94 0d cd bb 06 89 69 3a 33 03 fd b9 49 35 e8 3c
       -0.006257722 0.0008908663 -0.00048258304 0.02834572
000140 e2 46 ff 3c b0 9b ed bb e9 af 21 bd c9 c1 0d 3a
       0.03116173 -0.0072512254 -0.0394744 0.00054075994
000150 8a 5b 70 3a b6 5c 0b 3c ec 0a 19 bd 1b 89 2d 3d
       0.0009168914 0.008505991 -0.03736393 0.042367082
000160 0b 00 ad 3b 6d 0e 81 bc 48 7e 4f bc 1d 56 b3 bc
       0.005279546 -0.015753949 -0.012664385 -0.021891648
000170 79 9e 87 3b 55 f2 6a bc 9f d7 1f bc 5b b5 c3 bc
       0.0041387645 -0.014340003 -0.009755998 -0.023890188
000180 6a 81 1c bd 9a 06 fc bc be 77 b9 3c 7e 45 18 3d
       -0.038209356 -0.030764867 0.022640105 0.037175648
000190 df 3b 91 38 48 29 8b bc 13 17 9e 3c 6c ae 4f bc
       6.925291e-05 -0.016987458 0.019298112 -0.012675863
0001a0 0a 8a ba 3b ba 1c d1 bb aa ef f8 bc 41 33 1a bd
       0.005692725 -0.0063815983 -0.030387718 -0.037646536
0001b0 4a 8e 51 3c 74 f4 02 bc 64 f4 ad bc 13 f2 1d 3d
       0.012790272 -0.0079928525 -0.021234699 0.038560938
0001c0 4a 92 ed bc 16 30 8f bc 8e 6b 17 bd bb f1 bd 3b
       -0.02900042 -0.017478984 -0.036967807 0.005796639
0001d0 8a f6 1d 3d 04 dd b2 3c 1f 22 c3 bc d1 25 78 3b
       0.038565196 0.021833904 -0.023819981 0.0037864337
0001e0 85 eb bf 3c e9 72 ae 3c 46 88 9b bc 49 71 b7 bc
       0.023427734 0.021295028 -0.018985879 -0.022392886
0001f0 0b 6f 73 3c 13 15 0e 3d 2d ce 18 3d 7b 29 a3 3b
       0.014858018 0.034688067 0.037306 0.00497931
000200 5d 7a 54 bc ec 61 e5 bb 1c 9b 47 3c 11 b9 5a bc
       -0.012968627 -0.0070001986 0.012182977 -0.013349787
000210 fd 17 e2 3c d9 a3 21 3d 11 c4 a7 3c 6c 73 c7 bc
       0.02759933 0.039462898 0.020479234 -0.02434703
000220 a4 28 b0 bc e5 d6 f7 3c c9 97 35 3c 6c 6d 88 bc
       -0.021503754 0.030253837 0.011083552 -0.016653739
000230 37 10 9d 3c cd f2 da bb b0 e8 0d 3d d0 04 41 39
       0.01917277 -0.006681776 0.034645736 0.00018407707
000240 6d 39 17 bd 5b ea 2c 3d 0d c3 c8 3c 9e 31 22 bc
       -0.03692 0.042215686 0.02450707 -0.009899525
000250 bc e4 5a bc c1 10 c9 bc bf 45 9d 3b 08 59 5d bc
       -0.013360199 -0.024544122 0.004799574 -0.013509996
000260 19 1a 28 3d f0 da da bc 31 b3 b2 3c 4a 1d cf bb
       0.041040514 -0.026715726 0.02181396 -0.00632063
000270 87 5f e0 3c 7f c1 36 bc b4 5f bf 3c 03 44 62 bc
       0.027389301 -0.0111545315 0.023361064 -0.013810161
000280 56 3e 9e 3c 5b fd c1 3b fb 4c 08 3d fd 99 07 bd
       0.019316833 0.005920095 0.03327654 -0.03310584
000290 5f 14 f3 3b 3c 75 fa bb 88 77 e7 bc 5c 02 22 bd
       0.0074182 -0.00764337 -0.02825524 -0.03955303
0002a0 65 68 9a bb a6 f8 b1 bc 30 f9 32 bc 82 6d 1c bd
       -0.004712152 -0.02172501 -0.010923669 -0.038190372
0002b0 c4 e7 e8 bc ff 14 e9 3c 31 4f 05 bd 4d 61 92 bc
       -0.028430827 0.028452395 -0.032546226 -0.017868662
0002c0 5a c6 e2 3b 07 98 71 3c c7 ad 3d bc f3 e8 23 3c
       0.006920618 0.014745719 -0.011577076 0.01000427
0002d0 ab 0f 01 bd 7e a5 1d 3d 33 2f 8e 3b f4 a5 29 bc
       -0.031509083 0.038487904 0.0043391227 -0.010354508
0002e0 32 e9 26 3b 2a ab 27 3d 0d 9a 28 3c ff 92 13 bd
       0.0025468585 0.04093472 0.010290635 -0.03602886
0002f0 bd 63 23 3c 28 7d cc bc 2b a9 2d 3d cf f8 e4 bc
       0.00997251 -0.024962023 0.04239766 -0.027950672
000300 fc b9 f5 bb c5 08 95 3b 5c 87 1c 3b 47 1e 12 3b
       -0.0074989777 0.0045481646 0.0023884391 0.0022295879
000310 d6 3b 82 bc e5 0e 27 3d 60 55 1d bd 07 a4 e7 bb
       -0.015897673 0.04078569 -0.038411498 -0.007069114
000320 fd b4 0d bc 74 5f d0 bc e6 ac f3 3c 8f 34 04 b9
       -0.008649108 -0.02543614 0.02974553 -0.0001260808
000330 70 3f b5 3c ba e1 fd ba b8 ed 98 3c 08 cd 90 bc
       0.022124976 -0.001936964 0.01866804 -0.017675892
000340 d6 56 b6 bc 02 15 55 3c f1 d7 e2 bc ad 80 a0 bc
       -0.022258203 0.013005497 -0.02769086 -0.019592607
000350 97 96 55 bc 6f 90 a4 bc ab 44 47 bc 50 f3 f5 3c
       -0.013036392 -0.020088403 -0.012162368 0.030023247
000360 f8 f5 e4 bc 52 17 96 bc 78 5d b5 bc 6b 52 4e bc
       -0.027949318 -0.018321667 -0.022139296 -0.012592892
000370 3e 4a 0f bc a9 66 74 bc d3 c3 5d 3c c4 10 0a 3d
       -0.008745728 -0.014917054 0.013535458 0.033707395
000380 46 40 0a 3c ee 70 05 bd 54 2f e6 bb 97 fe 07 3d
       0.008438176 -0.0325784 -0.007024685 0.03320178
000390 b8 76 1f ba 83 2f 45 bc d8 5d be bc ac b8 23 bd
       -0.0006083059 -0.012035253 -0.023238108 -0.03997104
0003a0 ad f9 23 3b ab 90 2d 3c fc 75 5e 3c 2f ad 84 bc
       0.0025020645 0.010593574 0.013577934 -0.016195862
0003b0 cc 5b 0b 3c 5e b0 c0 bc c0 f3 06 3d 1a 98 68 3b
       0.008505773 -0.023521598 0.032947302 0.003549105
0003c0 c7 d5 45 3c f6 9e 14 3d 2d 88 ee bc 2c fc 2c 3d
       0.012074894 0.03628441 -0.029117668 0.042232677
0003d0 f1 5b 9f bc 04 24 01 3d d3 3d c6 3c f5 40 68 3c
       -0.01945302 0.031528488 0.024199402 0.014175643
0003e0 8b 87 8e bc e2 14 7c 3c 7f 9a 2b bc cc 64 03 3d
       -0.017398616 0.015385838 -0.010473846 0.03207855
0003f0 6a 3a f7 3c 41 3a ce bc 5e f8 bd bc 18 41 b0 bc
       0.030179221 -0.025174262 -0.02318972 -0.021515414

encoder.3.bias f4 [128]
000000 36 94 0a 3d ab 23 22 bc eb f6 29 3d 47 88 91 3b
       0.03383275 -0.009896199 0.041495245 0.0044412944
000010 29 69 0b 3d 80 e1 69 bc 94 5b cb b6 82 88 8d 3c
       0.034035835 -0.014274955 -6.0605325e-06 0.017277006
000020 cf 33 f0 3c 1d 48 11 bd 14 7e 7f bc 3f cb 22 3d
       0.02932158 -0.035469163 -0.015594024 0.03974461
000030 da 9a 1d bd b5 34 08 bd 17 04 3e bc 8d 26 ba bc
       -0.038477756 -0.03325339 -0.011597655 -0.02272346
000040 ba 08 0d bd 56 9c f5 bb b5 ff 17 bc fe 5f 20 bb
       -0.03443215 -0.0074954433 -0.009277274 -0.0024471278
000050 b7 96 35 bc 20 70 b9 3c a0 3b 88 3c ef 1d ff bc
       -0.0110832965 0.022636473 0.016629994 -0.031142203
000060 3a 62 c0 bc 54 64 e5 3c c6 69 a6 bc af 82 3e 3c
       -0.023484338 0.028001942 -0.020314109 0.011627837
000070 26 ab 76 bc 73 a5 1f bd 50 e3 de 3c 65 8c 04 3d
       -0.015055453 -0.038976144 0.027208 0.032360453
000080 ac f0 41 3c 5f ef 0b 3c 9a 21 ec bc f5 94 db 39
       0.011837166 0.008540957 -0.028824616 0.00041881917
000090 07 e3 81 3c 8f d0 7a 3c 24 7e 7e 3c 62 73 c8 ba
       0.015855325 0.015308513 0.015533004 -0.0015293176
0000a0 30 07 2c 3d 4b be a6 bc c5 fd b1 3b 7e 50 40 3c
       0.041999042 -0.02035441 0.005431863 0.011737941
0000b0 0b ab 37 bc ec 5e 14 bd 67 78 06 bd 05 b9 03 bd
       -0.011210213 -0.036223337 -0.03282967 -0.03215887
0000c0 98 27 26 bb 2f 18 c0 bc 9b 13 a4 bc cb 3f ac bc
       -0.002535319 -0.023449032 -0.02002888 -0.021026513
0000d0 52 b9 1c bc 0b b0 41 bc 5a 62 49 3c 63 41 0e bd
       -0.009565668 -0.011821757 0.012291515 -0.034730326
0000e0 b4 57 a5 bc 96 7c 20 3c af d5 26 bd 7d b1 97 3c
       -0.020183422 0.009795329 -0.04073113 0.01851725
0000f0 df 09 a0 3b f8 69 d7 3b 55 31 35 3c d2 17 ce bc
       0.004883989 0.0065739118 0.011059125 -0.025157843
000100 e1 19 e6 bc 98 f2 3d bc 2c b0 01 bc 6b a8 ba b9
       -0.028088512 -0.011593483 -0.007915538 -0.00035602166
000110 a4 a7 48 3c fb f7 db 3c 59 a9 7b 3c 5c 66 d1 3c
       0.012247 0.026851645 0.0153602 0.025561504
000120 c1 db fa 3c 67 5a d7 3b 97 ec 10 3d 5c d1 5b bb
       0.030622365 0.006572056 0.03538188 -0.0033541536
000130 76 00 1a bb cb ea ea b9 1d 61 01 bd 82 6d 40 3c
       -0.002349881 -0.00044806892 -0.031586755 0.011744859
000140 8f 2f e7 bb 82 04 19 bd d3 15 2a bc c4 a3 54 bc
       -0.00705523 -0.037357815 -0.01038118 -0.012978498
000150 c0 77 22 3b f2 af 07 bd 4f c9 58 3c a5 99 48 bc
       0.0024790615 -0.03312678 0.013231589 -0.012243663
000160 21 0f 27 bd 6b 36 e5 3c 36 74 20 3d 72 db 85 bb
       -0.040785912 0.02798005 0.039173327 -0.004084998
000170 17 43 f3 3c 39 89 22 3d 00 4a 85 ba 03 db 9b 3c
       0.029695077 0.039681647 -0.0010169148 0.019025331
000180 f7 c5 85 3c af a7 38 bc 08 58 e3 bc d1 d6 d3 3c
       0.016329749 -0.011270448 -0.027751938 0.025859268
000190 74 78 17 bd a9 ee c4 bc 42 94 06 3c 7c af 9a bc
       -0.036980107 -0.024039583 0.008214058 -0.018882506
0001a0 2b 77 0d 3d 07 ed 19 bd e7 d1 e9 3c 45 5b 5a bc
       0.034537476 -0.037579563 0.028542472 -0.013327424
0001b0 80 ca 40 3c 7d b8 da 3c a9 78 88 3c 8c bc 0c bc
       0.01176703 0.026699299 0.016659098 -0.008589875
0001c0 f8 2f 0a 3d 58 52 06 bd 96 bd c0 bc f3 95 06 3c
       0.033737153 -0.032793373 -0.023527902 0.008214462
0001d0 84 16 55 bb 3c bc c9 3c 9c 20 8d bc 2f 4d 1a bd
       -0.003251464 0.02462589 -0.017227463 -0.037671264
0001e0 d3 c9 34 bc f3 59 fc bc bf d2 3b 3c c4 44 75 3c
       -0.011034447 -0.03080461 0.01146382 0.014970008
0001f0 1e b7 9e bb 3a 0b ec bc e6 9b 1a bd 76 ea 0c 3c
       -0.0048436066 -0.028813947 -0.037746333 0.008600822

decoder.0.weight f4 [64, 128, 3, 3]
000000 fa 9c 8a bc fc e4 60 3a 3f dd fa 3b d4 88 e5 3c
       -0.016920555 0.0008579043 0.007655769 0.028019346
000010 ef e2 be 3c f9 73 bb 3c 8b 61 d2 3c 50 84 a2 bb
       0.02330157 0.022882449 0.025681278 -0.0049596205
000020 80 98 15 3b fc ce db 3c 41 a5 ce bc e4 85 45 3c
       0.0022826493 0.026832096 -0.025225284 0.012055848
000030 a3 42 4a bc 7e b5 7c bb a0 3c e1 3c 77 db b1 bc
       -0.012344989 -0.0038560326 0.027494729 -0.021711094
000040 80 eb 4a 3c 1c e3 a5 bc 3d 68 af 3c 42 0e a7 3b
       0.012385249 -0.020249896 0.02141201 0.005098135
000050 f5 11 88 3c 05 9f 18 3c e5 e8 e2 bc fd 0f 6a bb
       0.016610125 0.009315257 -0.027698943 -0.0035715096
000060 ce c9 4e 3b 3d e1 bd 3c ee 28 e0 3a 08 ab af ba
       0.003155339 0.023178691 0.0017102042 -0.0013402412
000070 4d 9a 6c 39 d4 40 4d bc ae c8 6d bc b1 d2 03 bc
       0.00022564195 -0.012527663 -0.014513178 -0.008045838
000080 33 34 d1 bc 83 62 8e 3c 9e 82 21 3c f7 0f eb ba
       -0.025537586 0.017380958 0.009857802 -0.0017933835
000090 ef 89 c8 bc 2c 98 b1 bc 49 ff df 3c b3 12 4b bb
       -0.024479834 -0.021679007 0.02734341 -0.0030986487
0000a0 2a cc e3 bc 45 8e 53 3c 4f 9e f7 3c be 49 48 bb
       -0.027807314 0.012912338 0.030226855 -0.0030561532
0000b0 d8 ab a1 3c 06 5c 14 bc 73 cf 27 3c 83 05 e7 bb
       0.019735262 -0.009055143 0.010242331 -0.0070502176
0000c0 d7 b6 63 bc ee 8d 37 3c bb 3c d8 bb a6 2c 91 3c
       -0.013898573 0.011203272 -0.0065990365 0.017721485
0000d0 42 aa 82 bc 50 e8 f9 bb 88 65 bb bc 82 37 b2 3b
       -0.015950326 -0.0076265708 -0.022875562 0.005438746
0000e0 9e 2d 79 3c 85 a1 d4 3c f3 f2 f7 3a 11 38 bb 3c
       0.01520863 0.025955925 0.0018917009 0.022853883
0000f0 8d 08 11 3c 45 e4 f3 3b 22 32 da 3a ca df d2 bc
       0.008852136 0.0074429833 0.0016647021 -0.025741477
000100 b6 55 6f 3c 10 c0 e4 3b 0e ad c4 bc 35 2c dd 3c
       0.014607837 0.0069809034 -0.0240083 0.026998619
000110 6b 7e c1 3c d1 50 64 3c 3d bd e3 3c 38 4c b3 bc
       0.023619851 0.013935284 0.027800197 -0.02188693
000120 01 7d bc 3c a8 a0 e3 bc 59 b5 16 3c 38 93 80 bb
       0.023008825 -0.027786568 0.00919851 -0.0039238
000130 bd b1 de 3c bc c1 aa 3b 0b 32 ef 3b f5 b4 ab 3b
       0.027184362 0.005211083 0.0072996668 0.0052400776
000140 67 8c f0 3c bf 6c 8a bc 67 36 1f 3b 27 ce 9b 3b
       0.029363824 -0.016897557 0.00242939 0.0047548
000150 2e 3b af 3c b3 3c fb 3b bc 81 a2 3a b9 74 4b 3b
       0.021390524 0.007667148 0.0012398283 0.0031044914
000160 3e b1 a4 3c be f0 7d bc a6 1a c6 bc b7 60 80 3c
       0.020104047 -0.015499292 -0.024182629 0.015671117
000170 22 ef e3 3c a9 39 13 38 6a 59 80 bc b8 ca b9 bb
       0.027823988 3.510123e-05 -0.015667636 -0.005669918
000180 99 59 df bc a5 44 2e bc d1 e4 d9 bc 43 8b 89 3c
       -0.027264403 -0.010636483 -0.026598366 0.016790038
000190 cb d1 74 3b 49 51 7d 3b a7 49 c5 3c 37 93 c9 bc
       0.0037356492 0.0038653186 0.024082972 -0.02460633
0001a0 e9 76 92 bc 0b 15 1c 3c 41 de 7b 3c 21 a9 20 3c
       -0.017878966 0.009526501 0.015372814 0.0098059485
0001b0 11 4a b0 bc f0 16 bf bc d9 7f 6b 3c 07 b8 58 bc
       -0.021519693 -0.023326367 0.014373743 -0.013227469
0001c0 6c dd b7 3c e0 db 79 bc de f6 f6 3c 9e 64 98 3c
       0.02244445 -0.015250176 0.030147012 0.018602666
0001d0 e8 e9 c9 bb 88 96 94 bc c8 64 be bc b3 ba e6 3c
       -0.006161917 -0.018138185 -0.023241416 0.028165197
0001e0 d3 6d 72 bc 75 2e b2 3c 62 58 3f 3a 4c c0 74 3c
       -0.014796692 0.021750668 0.0007299242 0.014938425
0001f0 21 86 ca 3b 36 78 91 3a 56 50 d7 3c 3b 51 a7 3b
       0.00618054 0.0011098448 0.026283424 0.005106119
000200 22 e1 5a bc 4e 51 f8 3c c4 51 8c 3c 3d 6e 69 bc
       -0.01335934 0.030312207 0.017128833 -0.014247474
000210 0c 3d a3 bc d5 af 93 bb f9 14 ac 3b dc 0b a6 bc
       -0.01992657 -0.004507045 0.0052515236 -0.020269327
000220 36 07 d8 3c d4 fb a0 bc bb 67 fc b7 0e 2a 32 bb
       0.026370626 -0.019651331 -3.0089044e-05 -0.002718571
000230 46 e1 de 3c 91 4b a2 bb 1b e1 0f 3c 3b be 1d 3c
       0.027207028 -0.004952856 0.008781697 0.009627874
000240 d5 20 36 3c 31 d5 05 3b 31 da af 3c b7 5f dc 3c
       0.011116226 0.0020421261 0.021466346 0.02690111
000250 ab fa 25 bc 4d ea 95 3c 25 c6 38 bb 94 8b a6 bb
       -0.010130565 0.0183002 -0.0028194275 -0.005082557
000260 f9 56 45 3b 19 d4 6b 3c 53 5f 84 bc 1e a2 ea bb
       0.0030111654 0.01439383 -0.016158735 -0.007160439
000270 73 c4 7f bc de 05 53 bc ff 64 91 bc 79 b4 29 3b
       -0.015610802 -0.012879817 -0.017748354 0.0025894924
000280 4f fb 35 bc aa 5c b2 bc 11 c1 bb 3b a2 c2 8e bc
       -0.01110728 -0.021772701 0.0057298024 -0.017426793
000290 9b 19 3b 3c 5f 2c 0f b9 39 f5 16 bc 57 21 4c bb
       0.011419679 -0.00013654072 -0.009213739 -0.0031147802
0002a0 8c 65 5f 3c d0 6a c9 3c 2a 5b 7f bb d1 be e1 bc
       0.0136350505 0.024587065 -0.003896425 -0.027556809
0002b0 0f 74 71 ba 22 90 1a 3c d7 7d a1 3b 3b 95 b0 bc
       -0.00092107145 0.009433778 0.0049283314 -0.021555534
0002c0 7e 1c 15 3b ff 99 d6 3c b1 60 9e bb b3 53 44 bb
       0.0022752578 0.026196478 -0.004833304 -0.0029957115
0002d0 20 bf d2 3c c4 77 0e bc b5 34 ce 3c 7d b7 7b bc
       0.025725901 -0.008695547 0.025171617 -0.015363571
0002e0 d4 c0 da bb 5e d1 3b bb dd c3 b4 3c cb 3b cd 3c
       -0.006675819 -0.0028658728 0.022066051 0.025052926
0002f0 42 c3 6a 3c b7 7e 4b 3b 15 2a 9b bc 0f 69 c7 3c
       0.01432878 0.003105087 -0.018940965 0.024342088
000300 b9 06 34 bb db 09 b6 bc 05 ca b7 3c 6a fd 3c bc
       -0.0027469827 -0.022221496 0.022435198 -0.011535028
000310 2d b7 63 bc 4b 4e 83 3b 72 e3 6e bc 77 f2 8b 3c
       -0.013898653 0.004007136 -0.014580594 0.01708339
000320 17 b5 12 3c 62 9d 69 bc cd c6 a3 3c e1 a5 c5 bc
       0.008954308 -0.014258714 0.019992257 -0.024126949
000330 10 d9 a1 bc c1 1b a0 bc 89 ed 60 3c c3 3e cd 3c
       -0.019756824 -0.019544484 0.013728508 0.025054341
000340 61 cf 8c bc 6d 59 72 ba 73 40 ad 3c 1b 11 9f 3c
       -0.01718873 -0.0009244893 0.021148896 0.019417336
000350 2e 8c d5 bc 16 46 60 3b 6a c1 d4 3c f1 6d 64 bc
       -0.02606782 0.0034221462 0.025971133 -0.013942228
000360 d1 3c b8 3c 15 96 9c bc 10 d4 e4 3a 8b 62 9a 3c
       0.022489937 -0.019114533 0.0017458219 0.018845817
000370 86 20 3e 3b 52 40 9d 3b d5 08 bf 3c c8 de 22 bc
       0.0029011085 0.0047989273 0.023319641 -0.0099408105
000380 85 46 c8 3b 59 ca e0 bc c4 33 e2 bc 44 fb e0 3b
       0.006111922 -0.027440237 -0.027612574 0.0068658907
000390 75 8c c0 3c 51 8f ca bc ee 76 25 3b 88 3a 57 bb
       0.023504475 -0.024726542 0.002524789 -0.0032841284
0003a0 06 83 4e 3c ed ad 6b bc c7 70 f5 bb fb 6a 0d bc
       0.012604481 -0.014384729 -0.0074902507 -0.008631463
0003b0 ed 87 c4 bc f7 04 ab 3c 3c e8 a2 3c a6 0f 0b 3b
       -0.023990596 0.02087639 0.019886129 0.0021219044
0003c0 b2 79 a2 bc 50 98 e7 3c e6 b5 3e 3a 66 7f b2 bc
       -0.01983342 0.02827087 0.000727503 -0.021789264
0003d0 b2 fd a0 bc 4c a3 ae bc 35 6a 81 b8 1d 89 0c bc
       -0.019652221 -0.0213181 -6.170982e-05 -0.008577612
0003e0 13 6b 19 3b af 70 98 3c 4b 06 46 bc 4f 7c 0f bb
       0.0023409768 0.01860842 -0.012086461 -0.0021894162
0003f0 d0 91 f1 3c 72 e3 da 3c c3 26 3f bc 48 05 8e 3a
       0.029488474 0.026719783 -0.011666956 0.0010835314

decoder.0.bias f4 [64]
000000 6b f1 be bc c6 66 e2 ba f8 38 cf 3b 8f a0 db bb
       -0.023308476 -0.001727306 0.00632393 -0.0067024897
000010 c9 75 91 bc 55 df 99 bc ac e1 7f 39 38 29 a8 3b
       -0.01775636 -0.01878325 0.00024402764 0.005131867
000020 8b 60 c3 3c b0 0b aa 3c fa 93 30 bb 8b be 45 bc
       0.023849746 0.020757526 -0.002694367 -0.012069355
000030 68 90 c3 3a 6d 3d 19 bb f8 10 4e ba 7e e7 2c bb
       0.0014920356 -0.002338256 -0.0007860805 -0.0026383097
000040 ad 47 9b 3c f3 90 a5 3a 6f d0 fa 3b 47 c5 3d 3c
       0.018955076 0.0012631699 0.0076542418 0.011582679
000050 37 60 68 bc 51 5e b8 39 23 be ad 3c 10 ed 06 3c
       -0.014183096 0.00035165486 0.021208828 0.008235231
000060 12 fe 5b bc 67 f9 9e 3a 3e 87 8f bc 33 ab 57 bc
       -0.013427274 0.0012128771 -0.017520543 -0.013163376
000070 b4 51 92 bc b6 59 50 3b 18 f0 88 bc 34 78 d7 3a
       -0.017861225 0.0031791753 -0.016716048 0.0016439022
000080 3e 50 06 ba d5 3b 86 bc 4c 12 94 bc 6c 8c a2 bc
       -0.00051236514 -0.016385952 -0.01807513 -0.019842349
000090 ed 16 60 3b 3d 5c a8 bc 60 dd 1b bc 5e c2 bb bc
       0.0034193352 -0.020551795 -0.009513229 -0.02291983
0000a0 24 31 a4 3c 1a 9d 53 3c 5f 32 c1 3c 1f 0a a1 3c
       0.020042963 0.012915874 0.02358359 0.019658146
0000b0 7b 9e de 3c fe 53 62 bb fe 5f b5 3c 3c c5 dd 3c
       0.027175179 -0.0034534927 0.0221405 0.027071588
0000c0 e3 51 99 3c ce dd c8 39 13 62 22 3c f6 b7 e8 3c
       0.018715804 0.0003831223 0.009911078 0.028408032
0000d0 ee fc 1d 3c 72 c7 8a ba b8 46 25 3b 0d c5 ef bb
       0.009642823 -0.0010588004 0.0025219154 -0.0073171915
0000e0 59 fd 9f 3c 03 de 27 3c 07 71 8c bc c5 93 c7 bc
       0.019529985 0.010245803 -0.01714374 -0.024362454
0000f0 a7 7f ad bc ce a1 1c bb 2f 6c c6 3b ab d9 a5 3c
       -0.021179033 -0.0023900154 0.006055377 0.020245394

decoder.3.weight f4 [32, 64, 3, 3]
000000 dd 5e 07 bd f0 5f 63 bc 05 74 9f bc 25 d5 de bc
       -0.033049453 -0.013877854 -0.019464502 -0.027201245
000010 3c f2 03 3d a6 67 8b 3c ee 1a 16 bd 7a dd ea bc
       0.032213435 0.017017197 -0.036646776 -0.028670061
000020 99 c6 2b 3c 36 52 04 3d 2f 3b 06 bd b8 89 0a bc
       0.010484361 0.032304965 -0.032771286 -0.008455686
000030 d8 73 02 3d 4e 5c 08 bd 07 5c c7 bc 1b 05 88 3c
       0.03184876 -0.033291154 -0.024335874 0.016603997
000040 e7 5b fc 3c 12 d6 02 bd 8e a8 11 3d 94 ae 59 bc
       0.030805541 -0.031942435 0.035561137 -0.013286252
000050 2a 0f ac bc 56 cd 86 37 6e e1 89 bb 55 b7 c7 bb
       -0.021003325 1.6069662e-05 -0.0042077815 -0.006094853
000060 70 66 5e 3c 4e ab d5 3c f4 15 e7 3c b5 f8 96 3c
       0.013574228 0.026082661 0.02820871 0.01842914
000070 dd 9f 7c bc b2 ff b2 3c 8c 21 43 bc 18 33 97 3c
       -0.015418974 0.02185044 -0.011909854 0.01845698
000080 e1 8c ff 3c 08 5c 25 3d 92 2b 14 bd 4f bf 1f 3b
       0.031195106 0.04037097 -0.036174364 0.0024375503
000090 08 bd ec bc 78 c5 e1 bb 20 0a bf bc 5c ee 0b bd
       -0.02889873 -0.006889995 -0.023320258 -0.034162864
0000a0 77 ac 23 3d a5 6e b8 bc d1 51 a9 bc 91 1c e8 bb
       0.039959397 -0.022513697 -0.020668896 -0.0070834835
0000b0 d3 76 8f 3c a9 bf b1 bc 9d 07 71 bc fe 0b b5 3c
       0.017512714 -0.021697836 -0.014711288 0.022100445
0000c0 9d 6e 64 bc 36 01 0f bc 18 95 e4 bc 73 22 49 bc
       -0.013942388 -0.008728316 -0.027903125 -0.01227628
0000d0 fd 0f 9a 3c 3d 56 57 bc d6 55 18 3b db 75 f7 3b
       0.018806452 -0.013143119 0.0023244522 0.0075518913
0000e0 35 50 0b 3c 3a ba 04 bd 0d e9 14 3d b2 99 42 bb
       0.00850301 -0.032404162 0.036355067 -0.002969366
0000f0 81 95 d8 3c d7 0a fa bb 28 35 51 bc 68 a9 bd 3c
       0.026438477 -0.0076306867 -0.012769021 0.023152068
000100 cd 87 20 bc 84 1d fa 3c d6 62 6b 3c 93 e4 6b bb
       -0.009798002 0.030531652 0.014366826 -0.0035994395
000110 21 0c 1c bc 74 22 16 bc 03 05 bf bc b9 ae 8b bb
       -0.009524376 -0.009163488 -0.02331782 -0.004262772
000120 68 ec 00 bd 11 50 df 3c a7 9f 1d bd 29 b7 1d 3c
       -0.031475455 0.027259858 -0.038482334 0.009626188
000130 18 63 16 bd 8b d1 ca bc 8b 0c 48 3a f9 6f 25 bd
       -0.036715597 -0.024758121 0.00076312636 -0.04038999
000140 9d 12 02 3d a3 f0 ad bc 40 2b 06 3d 61 d1 ea 3a
       0.031756032 -0.021232909 0.03275609 0.0017915183
000150 c5 fc fb bc e8 a1 2e bc 4d 00 05 bd f1 40 20 bc
       -0.030760178 -0.010658719 -0.03247099 -0.009781108
000160 95 0e 0c bd e7 d5 67 3b ec 64 18 bd b8 40 21 bd
       -0.034193594 0.0035375298 -0.03720562 -0.03936836
000170 fe 43 bb 3c 06 59 ca bc 2a ce fd 3c c5 b1 78 3c
       0.02285957 -0.024700653 0.030982096 0.015179102
000180 d6 75 9b bc 1d 18 3d 3b df 90 ae 3c 7a 9b 9d 3c
       -0.018977087 0.0028853484 0.021309314 0.019239176
000190 8f 35 1a bd 3a f8 0c bc e6 a0 41 bc d5 fc a3 bc
       -0.037648734 -0.008604104 -0.011818146 -0.02001802
0001a0 31 cc b3 bc 2e aa 0f 3c cb db 9c 3c 09 00 d7 3c
       -0.021947952 0.008768601 0.019147774 0.026245134
0001b0 38 3d 2f bc c2 dc f7 3a a9 6e 02 3d 32 dd 93 bb
       -0.010695748 0.0018910395 0.031843815 -0.0045124525
0001c0 bb cd 17 bd 19 aa 7a bc 64 27 c2 bc 92 d4 0a 3d
       -0.037061434 -0.0152993435 -0.023700424 0.03389413
0001d0 2d 89 da ba 2c bb 43 ba 06 9b d7 3c c0 9a 43 bc
       -0.0016672962 -0.00074665505 0.026319038 -0.011938751
0001e0 70 d9 25 bd ac de 0d 3d 5c 82 13 bd 9f 85 f2 3c
       -0.040490568 0.034636185 -0.036012992 0.029604731
0001f0 21 7f c8 3c 4c 1e c9 3c 23 2d 0c 3d f4 20 29 bd
       0.024474682 0.02455058 0.034222733 -0.041291192
000200 05 a4 e1 3c 82 13 84 3c b4 04 0d bc 8e 0c ea 3c
       0.02754403 0.016122583 -0.008607078 0.02857044
000210 e4 b8 36 3c 58 9d e7 bc 60 24 d2 3a 07 72 19 3d
       0.01115248 -0.02827327 0.0016032569 0.03746226
000220 5b b5 b5 3c e4 06 d8 3c 7e 86 15 3d 17 eb 0a bd
       0.022181204 0.026370473 0.036505215 -0.033915605
000230 dd db c9 3c 54 50 4a bc 12 e2 e2 3b b5 7b 4d 3c
       0.024640972 -0.012348253 0.0069239223 0.012541701
000240 e5 4b 4b bc a3 b5 01 3d 48 f4 e6 bc 30 80 16 bd
       -0.012408231 0.031667363 -0.028192654 -0.036743343
000250 b4 3d a0 3c d4 cd 88 bc 09 ce 18 3d 61 a8 9d 3a
       0.019560672 -0.016699709 0.037305865 0.001202833
000260 44 fc 69 3c 81 8d c4 3c 84 a1 dc 39 bd 80 c5 3c
       0.014281336 0.023993256 0.00042082008 0.024109239
000270 f7 87 08 bd 02 23 de 3c a1 54 ef bc 2f f9 a4 3c
       -0.03333279 0.027116302 -0.029215159 0.020138351
000280 08 cf e5 3b e1 4b de bc 9b e8 39 bc c9 89 ea 3b
       0.0070132054 -0.027135791 -0.011346961 0.0071575386
000290 e5 cd 65 3c bd cd 15 3d fc b6 15 bd 29 45 c6 3b
       0.01402614 0.03657316 -0.03655146 0.006050725
0002a0 f5 0d ce 3c bd fe e5 3b cc 88 0d bd 25 95 eb bb
       0.02515314 0.0070188926 -0.034554288 -0.0071894103
0002b0 d0 38 8a bc 96 79 6d 3b cc 08 a7 3c 7d cb 04 3d
       -0.016872793 0.00362358 0.020389937 0.032420624
0002c0 74 4e bc 3c 5e c1 0b 3d 89 76 44 3b 07 23 b5 bc
       0.022986628 0.034119956 0.002997788 -0.022111429
0002d0 39 7b 1e bb 9e 89 38 ba 6e 07 5d 3a 68 b4 b2 bc
       -0.0024182333 -0.00070395495 0.0008431588 -0.02181454
0002e0 96 92 21 bd b8 70 45 3c 26 8f b1 3c c0 9c e5 bb
       -0.039446436 0.0120508 0.021674704 -0.0070072114
0002f0 e8 02 e3 3c 68 07 29 bd 7d f7 34 bb 8d d0 4a 3c
       0.027711347 -0.04126683 -0.0027613335 0.012378824
000300 7b f7 61 bb 19 f7 76 3b 98 eb c3 bc b9 dd 96 3b
       -0.0034479785 0.0037683903 -0.02391605 0.004604068
000310 c6 ef e4 3b a7 0a 0c bd ef bb 83 3c 46 a3 f5 3c
       0.006986591 -0.034189846 0.016080825 0.029985081
000320 b8 4f 16 bd c3 6a 14 bd e5 77 fe 3a 9e 08 ce bc
       -0.03669712 -0.03623463 0.0019414393 -0.025150593
000330 81 b7 6a 3c 16 c7 68 bc 89 c1 18 bd 49 e4 24 bd
       0.014325977 -0.014207622 -0.037293945 -0.040256772
000340 3c ab 11 3d e2 ad fc 3c fa 03 28 bd ee d0 db 3c
       0.035563692 0.030844633 -0.041019417 0.026833024
000350 7e 37 d1 3b 1b ec c1 3a b2 3e 12 3d 5a 52 04 3d
       0.006384789 0.0014795096 0.035704322 0.0323051
000360 7c 2d 0b 3d d9 ff 00 3d be 0c 0e bd 13 09 fb 3c
       0.033978924 0.031493995 -0.03468012 0.030643975
000370 92 e0 25 bd 12 ce 00 3d 88 34 79 bc 1c 7e 47 3a
       -0.04049737 0.031446524 -0.015210278 0.00076100393
000380 59 62 21 3d c9 ec e0 bb bf c4 33 3b 38 6e d7 3c
       0.039400432 -0.0068641645 0.0027430502 0.026297674
000390 f4 81 23 bd 0a 16 11 3d 57 65 1a 3c bc a9 1f bc
       -0.039918855 0.03542141 0.009423575 -0.009745058
0003a0 f6 0c b2 bc 21 64 8b 3c 24 7d 1e bc f6 a5 cc 3c
       -0.021734696 0.017015519 -0.009673391 0.02498148
0003b0 30 b4 26 bc 8e 0a 01 bd 73 14 22 3d d4 38 f2 3c
       -0.010174796 -0.031504206 0.039570283 0.029568113
0003c0 fd cc 05 3d 3a 1c 0e bd de 6d 53 3b 2e 51 e7 3c
       0.032666195 -0.034694888 0.003226153 0.028236952
0003d0 8c c0 fb bc ca d6 06 3d 39 23 39 bc c9 67 e1 bc
       -0.030731462 0.032919683 -0.011299902 -0.027515309
0003e0 27 99 a3 3c 02 d7 17 bd 2f f8 9f bc ef 07 7b bc
       0.01997049 -0.03707028 -0.019527523 -0.015321716
0003f0 44 08 56 3c 3b 33 dc bc d7 2b 5f 3c 93 d1 2b bd
       0.013063494 -0.026879897 0.013621292 -0.041947912

decoder.3.bias f4 [32]
000000 37 55 26 bd cf 15 b3 bc 6c 55 ac 3c af e2 d9 b9
       -0.04060861 -0.021860985 0.021036826 -0.00041558358
000010 4e fb 04 3c 12 df d9 bb 23 95 2a 3c df 74 9e bb
       0.008116556 -0.0066489065 0.0104115335 -0.0048357095
000020 0b a2 fe 3c e7 16 06 3d 9c c8 f5 bc 83 07 5d ba
       0.031083127 0.032736685 -0.030002885 -0.00084316
000030 98 5a bd 3c 07 8c a4 3a 34 90 fa 3c 88 6d 2d 3c
       0.023114488 0.0012553938 0.03058634 0.010585196
000040 c4 79 d4 3c 0c 6a 81 3c 20 05 9e 3a e1 36 1a 3d
       0.025936969 0.015797637 0.0012055971 0.037649993
000050 8d 09 ec bc 3d 97 db bc 9f 5a 24 bd 60 96 de ba
       -0.028813148 -0.026805514 -0.040125486 -0.0016982071
000060 f7 52 25 bd 84 30 25 3d bc ca 39 3c 8f 66 6a bc
       -0.040362325 0.04032947 0.01133984 -0.014306678
000070 e7 bd 85 3c f6 ba 1d bd 43 90 22 3c 2f c9 03 3d
       0.016325904 -0.038508378 0.00992209 0.032174286

decoder.6.weight f4 [1, 32, 1, 1]
000000 d6 5b 8e 3d 52 b7 15 3e 03 aa 05 3e 92 b8 2e be
       0.0695111 0.14620712 0.13053136 -0.17062595
000010 79 aa 07 3e 90 9f 41 bd a9 4d ce bd 74 62 d0 bd
       0.13248624 -0.04727131 -0.10073406 -0.101750284
000020 cd 6f 17 3e 87 d6 0d 3e fa 4c f4 bd d8 23 a2 bc
       0.14788742 0.13851367 -0.119287446 -0.019792482
000030 52 70 29 3e e5 91 8e 3c 7a a6 b8 3c c2 94 35 be
       0.16546753 0.017403552 0.02254032 -0.17732528
000040 c1 e9 c5 3c d3 ae f6 bc ab 60 da 3d c0 4e 80 3d
       0.024159314 -0.03011266 0.10662969 0.0626502
000050 d7 95 b6 3d f9 d8 1a be 55 35 91 bd 16 88 d9 3d
       0.089152984 -0.15121831 -0.070902504 0.106216595
000060 73 c3 af bd 57 a9 8f 3c e5 b9 73 bd 52 00 00 be
       -0.08582201 0.017536802 -0.059503455 -0.12500122
000070 d0 38 c0 3d 01 6f 30 3d 8a 1b 8a 3d 52 f0 b1 bd
       0.09385836 0.04307461 0.06743534 -0.086884156
