checkpoints/2025-05-30-17-49-39/last_epoch.pth (torch, 675371 bytes, 9 tensors)

encoder.0.weight f4 [64, 3, 3, 3]
000000 6e ad 35 3e f9 99 bb bd 50 19 2e bd 0c d7 12 3e
       0.1774194 -0.09160227 -0.04250461 0.14339846
000010 6a e1 18 be 28 74 a7 bd ec 19 29 be 7a 48 18 be
       -0.14929739 -0.08176452 -0.16513795 -0.14871398
000020 1b e1 5f 3d a5 b1 1f 3e d0 69 90 3d 57 21 d9 bd
       0.054658037 0.1559511 0.07051432 -0.10602062
000030 a4 ba 7c 3d 7a 72 05 be 64 e3 0c 3e ad 2d fa 39
       0.061701432 -0.1303195 0.13758618 0.00047717747
000040 84 df a3 bd 70 c0 cf bd 7e 1c 3b 3e 17 b1 9d bc
       -0.080016166 -0.101441264 0.18272588 -0.019249482
000050 e4 3d 43 3e 39 61 0f 3e 37 d1 56 3d 63 e0 3e be
       0.19066578 0.14001931 0.052445617 -0.18640284
000060 87 5f 97 bd 93 74 f5 3d f7 46 16 3e ee fb 16 be
       -0.07391267 0.119851254 0.14675508 -0.14744541
000070 5d 93 98 3c fa f8 73 bc 43 1c f5 bd 79 53 ce bd
       0.018624956 -0.014890904 -0.11968281 -0.10074515
000080 ec b3 36 3e ed f9 f9 3d 71 8e b2 ba 98 29 b0 3d
       0.17842072 0.12205873 -0.0013622773 0.086016834
000090 aa b3 d4 3d 93 27 09 3e 69 a4 09 be 87 b5 0c be
       0.10385831 0.13394003 -0.13441624 -0.13741122
0000a0 c3 4e 75 bd 7a c0 2e 3e 8a c7 91 bd 12 3e 37 be
       -0.059889566 0.17065611 -0.07118137 -0.17894772
0000b0 02 76 db bd b7 e7 c6 bd 9c 23 c8 bd 14 06 98 3c
       -0.107158676 -0.09712165 -0.09772417 0.018557586
0000c0 90 df 3e be 7b 6a 1d bc bc 09 12 be 64 8a 2c be
       -0.1863997 -0.009607906 -0.14261526 -0.16849667
0000d0 46 2e 0f 3e 0c 12 04 be 28 19 1b be e3 ff b2 bd
       0.13982496 -0.1289751 -0.15146315 -0.08740213
0000e0 55 c6 b6 bc 2b 0f 36 bd ab df 8b bd 0b 4e 08 be
       -0.022311369 -0.04444806 -0.06829771 -0.13311021
0000f0 8a 47 a1 3d b1 5e 06 be f2 eb e9 bd 33 33 0c 3e
       0.07874973 -0.1312206 -0.11421956 0.13691406
000100 9c 89 a5 bd 44 b7 1f be e4 e2 17 3e 11 be 26 be
       -0.080828875 -0.15597254 0.14832646 -0.16283442
000110 f8 2e dd 3d c4 c5 3d be 04 2d 20 3e c0 1c ca 3d
       0.10799974 -0.18532473 0.15642172 0.09868765
000120 78 66 ec 3d c4 13 ff bd a0 81 0e be 5d f3 7a 3d
       0.11542982 -0.12454942 -0.13916636 0.061267246
000130 3a 8f 03 bc ba 23 1f 3e b8 ca 21 bd 32 e0 16 bd
       -0.008029753 0.15540972 -0.03949997 -0.036834903
000140 79 02 ec 3d e7 60 42 be 81 30 d8 3c e9 e3 24 be
       0.11523909 -0.18982278 0.026390316 -0.16102566
000150 ce b3 0f be a0 f7 c3 bd a4 78 24 be 53 30 1c be
       -0.14033434 -0.09568715 -0.16061646 -0.15252809
000160 01 60 7c bd 51 5f 5d bd 43 a6 f6 3d 8b e0 f5 bd
       -0.061614994 -0.05404598 0.12043431 -0.12005719
000170 bf bd 34 be 43 7b 18 be 16 0d ca 3d 4f fb 14 be
       -0.17650507 -0.1489077 0.09865777 -0.14548992
000180 77 37 c6 3d a8 4d 6c bd 9a 5c 89 bd 99 02 8b bd
       0.09678548 -0.057691246 -0.067071155 -0.06787605
000190 46 70 2a be f1 aa 24 be 1f 41 c7 bd b7 52 e4 3b
       -0.16644391 -0.16080834 -0.09729218 0.006967868
0001a0 5b f9 40 3e 32 c4 de 3d 6c 73 9f 3d e6 f4 5b 3d
       0.18845122 0.10877265 0.07785687 0.05370035
0001b0 da f1 f4 bd 7c 70 8b bc 1b 52 32 3e b1 91 26 3e
       -0.11960192 -0.01702141 0.17414133 0.16266514
0001c0 5f 5c b9 bc c9 d4 3c 3e 86 96 fa bd 0a c6 1b 3b
       -0.022627054 0.18440546 -0.12235741 0.0023769164
0001d0 12 c1 2e bd 9a 8c b0 3b c7 c1 7a 3c 38 33 6d 3d
       -0.042664595 0.0053878548 0.015304989 0.057910174
0001e0 d7 fe 29 3e 4c ec ad bd a0 f6 b1 bd a4 19 bd 3d
       0.1660112 -0.08492336 -0.08689618 0.09233406
0001f0 ed 02 95 3d 7c dc 93 3c ee f3 29 3d ca ba 0f be
       0.07275949 0.018049471 0.041492395 -0.14036098
000200 53 8d 2e be 9c 29 18 bd 5e fd be 3d dc 4a 41 be
       -0.17046098 -0.037149057 0.0932567 -0.18876213
000210 13 ef 0c 3d 2a f9 cd 3d 8a 1d 22 be b3 d3 ab bd
       0.034407686 0.1005729 -0.15831581 -0.08389988
000220 a7 91 1e 3d 74 86 cb 3d 97 17 25 3e 31 bb 46 bd
       0.038713124 0.09937754 0.1612228 -0.048518363
000230 1d 1f e9 bd 73 ee 69 3d 90 63 99 bd e6 48 d7 3c
       -0.113828875 0.05711217 -0.07489693 0.026279878
000240 e2 91 a1 3b ab 54 f4 bd 07 65 2d 3d 7d 76 44 3d
       0.0049307207 -0.11930212 0.042332675 0.04796456
000250 1e b4 71 bd 40 cf d9 bd 4a 90 9a bd 2d 1f a2 3d
       -0.059009664 -0.10635233 -0.07547052 0.079161026
000260 80 81 48 bd c1 2e e4 3d 98 c2 a5 3c e0 77 39 3e
       -0.048951626 0.1114173 0.020234391 0.18112135
000270 4c b4 22 3e 16 45 3b bd d4 80 88 3d 99 98 02 3e
       0.1588909 -0.045720182 0.06665197 0.12753524
000280 53 39 66 bd bd 09 87 39 7e b0 13 3e d5 74 87 3d
       -0.056207012 0.00025756462 0.14422795 0.06614081
000290 f7 91 2d bd c9 09 a6 3c 48 3e a4 3d 2b 5a ef bc
       -0.04237553 0.020268338 0.08019692 -0.0292178
0002a0 f9 0f 3d 3e d8 d2 dd 3d bb 64 20 be 1b f5 ea 3d
       0.18463124 0.10831231 -0.15663426 0.114725314
0002b0 92 9a 13 3e b0 25 3a 3e 4e 49 c2 3c 8f 56 e2 3d
       0.14414433 0.18178439 0.023716595 0.11051666
0002c0 b9 f2 14 3c ab 2f aa 3d 4a 28 aa 3d b3 b9 fb bd
       0.009091073 0.08309873 0.08308466 -0.12291279
0002d0 ed 7a 4f bd fc da f3 3b 08 2e 3c 3d aa 47 35 be
       -0.05065434 0.0074418765 0.045942336 -0.17703119
0002e0 47 2a 2a bd 11 30 29 3e 75 0c 85 bd cd 79 5b bd
       -0.041544225 0.16522242 -0.064965166 -0.053582955
0002f0 80 7d 6a 3d b5 05 37 3e 45 25 1f 3d 34 15 b5 3c
       0.057248592 0.17873271 0.038853902 0.022104837
000300 10 8c ce 3c 22 49 63 bd 44 59 4b 3d 9a 88 30 3e
       0.025213271 -0.055489667 0.049645677 0.1723961
000310 23 c1 6a 3d cc 79 a9 bc 1c 96 3e 3e 35 d7 41 3e
       0.057313096 -0.02068796 0.1861195 0.18929751
000320 ae 81 1d be a5 6a 1e 3d 49 57 49 bc ff 64 58 3d
       -0.153815 0.038675923 -0.012288877 0.052830692
000330 ae ab 2a bc c3 0f 0c be 5f 35 df bc fc 02 10 be
       -0.010416908 -0.13677888 -0.027247129 -0.14063638
000340 59 e5 a5 bd 87 f5 29 be 0b e9 71 3d ab a7 08 3e
       -0.08100385 -0.16597567 0.059060138 0.1334521
000350 cf 16 1f 3d 09 18 48 3d b1 e5 aa 3d 89 48 13 3e
       0.03884011 0.048851047 0.083445914 0.14383139
000360 b5 61 26 bd b3 a7 43 be 24 f7 49 3d 3a 26 7b 3c
       -0.040620524 -0.19106941 0.049307957 0.015328938
000370 a8 94 83 bd 8c a1 c7 bc 73 7d 1a be 9a 2c 35 3d
       -0.06424838 -0.024369024 -0.15086918 0.04423199
000380 28 82 3d bd cd e1 31 3e 89 49 3f 3d 14 59 1f 3e
       -0.046266705 0.17371292 0.046700988 0.15561324
000390 0f 4c 15 be db 4a 1f bd c8 e2 16 be 75 ad 9c bd
       -0.14579795 -0.038889747 -0.14734948 -0.07650272
0003a0 a9 8a 62 bd ab 5f 38 be 0a 1e 11 3e 5e 30 df bd
       -0.055308018 -0.18005244 0.14171615 -0.10897897
0003b0 54 90 f5 3c 43 2c 2b be 0d 73 f9 bd 6e 4e 36 3e
       0.029976048 -0.16716103 -0.12180147 0.17803356
0003c0 2b 86 da 39 87 62 74 3c 34 88 f1 3a 0a aa 40 bd
       0.00041680163 0.014916069 0.0018427433 -0.047037162
0003d0 c5 74 3c be 42 87 ba bd d5 5b b0 3d 7d 19 0b 3e
       -0.18403919 -0.0910783 0.086112656 0.13583942
0003e0 7f 5d 1f 3c 67 1e be bd bc a5 c3 bd 80 10 4b bd
       0.009726881 -0.092831425 -0.09553096 -0.049576283
0003f0 8a 73 2c 3d 71 22 1b be 33 de 52 bd b6 2c fc bb
       0.042102374 -0.15149857 -0.051481437 -0.0076957596

encoder.0.bias f4 [64]
000000 2d bb 23 3e 87 8b 99 3d a4 aa 43 3e 45 f4 9d bd
       0.1598937 0.07497316 0.19108063 -0.07712606
000010 99 f7 35 3c b3 e4 d2 3d 97 89 df 3d 2b e9 40 be
       0.011106395 0.10297527 0.10914915 -0.18838947
000020 00 36 dd 3d 7c ba 36 be 9b 0e 2b 3e df 4d 03 3d
       0.10801315 -0.17844576 0.1670479 0.032056686
000030 bf 12 c5 bd 41 87 02 be 8b 10 1b be 78 f2 c6 3d
       -0.09622716 -0.12746908 -0.1514303 0.09714216
000040 0c ed 9b 3d 2e b7 e5 3d 1e 17 1a 3e a1 4c 28 be
       0.076135725 0.112165794 0.15047881 -0.16435482
000050 29 36 2b be f4 8c 0a 3e 11 9c c1 3d 19 fb 3f 3e
       -0.16719879 0.13530332 0.094535954 0.1874813
000060 4b ee 38 3d fc a6 1e be 9b a9 28 3d 26 38 3b be
       0.04514913 -0.15493387 0.041177373 -0.18283138
000070 fd 87 17 bd 98 db 08 be 72 37 05 3e 41 e1 cd 3d
       -0.036994923 -0.13365018 0.13009432 0.100527294
000080 22 18 0f 3e 06 9e 65 3d 1a 5f 0d be da 9d ef 3d
       0.1397405 0.056058906 -0.1380581 0.1170003
000090 ec 5a 2c be cb 7b 26 3e 0d 2b 30 bc 54 e5 a7 bd
       -0.16831559 0.16258161 -0.010752452 -0.08198038
0000a0 97 d8 b0 3d ac a2 e1 bd a0 8c 9e 3d 9a c4 b8 bd
       0.08635061 -0.11017355 0.07741666 -0.09021874
0000b0 b0 bb ac bd b1 fd d0 bd c9 4f 8c bd 0b 4d ad bd
       -0.08434236 -0.10204638 -0.06851155 -0.084619604
0000c0 fe d3 5f 3c b3 96 5f 3b eb 93 20 3e 7c b5 0e 3e
       0.013661383 0.0034116923 0.15681426 0.13936418
0000d0 4f c0 18 3e 75 5d ed 3d da d9 02 3c 60 84 12 bd
       0.1491711 0.11590091 0.00798651 -0.035770774
0000e0 d6 62 ae 3c df 08 2d 3e d0 cf 1b 3e ee d4 ce bd
       0.021287363 0.16897915 0.15215993 -0.10099207
0000f0 52 16 44 be 50 9b 39 be c1 9b 09 3e d6 1c 08 bd
       -0.1914914 -0.18125653 0.13438322 -0.033230625

encoder.3.weight f4 [128, 64, 3, 3]
000000 e1 38 7f 3b c9 a0 24 3c f1 ee 0b 3d 57 d3 d7 bc
       0.0038943815 0.0100481 0.03416342 -0.026345892
000010 7f 71 43 3c 97 5e a8 3c 39 11 19 3d 45 31 f8 ba
       0.011928915 0.020552916 0.03736994 -0.0018935582
000020 65 2c d5 3c 0b 79 a1 bc 0c 30 10 bd 78 cb cf bc
       0.026022146 -0.019711038 -0.03520207 -0.025365576
000030 cd d4 a0 bc 81 f0 10 3d a8 9b 9e bc 0c 3e 83 bc
       -0.019632721 0.035385612 -0.019361332 -0.016020797
000040 26 12 d7 3b 09 a7 10 3d 85 2d ef bc d6 aa 9a bb
       0.0065634428 0.035315547 -0.02919651 -0.0047200723
000050 8d 0c 08 bd 65 52 17 3d 8d 07 25 bd 5d 88 06 bc
       -0.033215094 0.036943812 -0.040290404 -0.0082112225
000060 b4 90 a9 3b 41 68 8e 3b ab cf 13 3d 5e 93 0c bd
       0.0051747207 0.004345924 0.03608672 -0.034320228
000070 4e 46 11 bd 4d 9b a5 3c 52 e5 92 bc 41 51 06 bd
       -0.03546744 0.020215655 -0.017931614 -0.032792334
000080 0b 96 7a bc 05 8b a0 3c c9 e9 25 bc 79 fd d4 bc
       -0.015294562 0.01959754 -0.0101265395 -0.025999771
000090 55 23 9b 3c d1 59 21 bd 8e 0b f6 bb 78 2e 87 bc
       0.018937746 -0.039392296 -0.0075087016 -0.01650165
0000a0 93 01 c0 3c b5 86 c7 bb 78 72 f7 bb c4 cf 4d bc
       0.02343825 -0.0060890564 -0.0075514875 -0.012561742
0000b0 93 32 47 b9 bd b5 38 3b 84 01 a1 3c 27 52 3f 3c
       -0.00018996959 0.0028184496 0.019654043 0.0116773015
0000c0 5a 00 0a bd 31 e6 ce 3c a7 e1 ae 3c f0 09 89 bc
       -0.03369174 0.025256248 0.021347834 -0.016728371
0000d0 66 1b 1c bd 39 59 0b bd 47 2d 51 3c 96 84 31 bc
       -0.038112067 -0.034020636 0.012767143 -0.010834834
0000e0 c0 04 9c 3c 2c 23 ab bb 7c 93 1b 3d cf bc 4f 3c
       0.019045234 -0.0052226987 0.03798245 0.012679293
0000f0 4e 30 e0 3c 45 89 7c bc 8d d9 6b 3c 40 84 02 bd
       0.027366783 -0.015413587 0.01439513 -0.031864405
000100 7c 6f 85 bc e1 01 9e 3c 2d ae d5 bc d5 53 09 bd
       -0.016288511 0.019288005 -0.02608403 -0.033527214
000110 b1 f1 db bc 1d f2 1f 3d 4e e8 4f 3c f7 e6 d6 bc
       -0.026848646 0.039049257 0.012689663 -0.02623318
000120 9c 36 39 bc 0a 9f 80 bc 8c 2e 3c 3c b8 eb ab bc
       -0.011304524 -0.015700836 0.011485707 -0.020986423
000130 a5 52 ce 3c 36 08 08 3d 8d f0 ad 3b a3 8d 2c 3d
       0.025185892 0.033210956 0.005308217 0.042127263
000140 b5 80 dc bc a6 44 bc 3a 34 a2 9e bc c9 19 0e 3d
       -0.026916841 0.001436372 -0.019364454 0.03469256
000150 50 7b 6b 3c c6 ed a3 3c 35 4d 21 3d 5b b2 22 3d
       0.014372662 0.02001084 0.03938027 0.039720874
000160 69 d8 83 3c 1f ce 98 bc 2e 55 da bc 3a 8e 94 3c
       0.016094403 -0.018652974 -0.026651945 0.018134225
000170 dd 52 02 3d ab eb df 3c 97 b7 8a 3c b2 1f 04 bd
       0.031817306 0.027334055 0.016933246 -0.03225679
000180 3c 79 a0 ba a4 f0 be bb 43 2d 04 bd 9e 3f 8a bb
       -0.0012243162 -0.0058270264 -0.032269727 -0.0042190095
000190 6b 47 10 3d e7 b5 0b 3c 96 56 e3 3c 1a 79 ed bc
       0.03522436 0.008527256 0.027751248 -0.02898841
0001a0 93 e2 f7 bc ab c3 f7 3c 55 46 21 3d 0f 59 26 bc
       -0.030259406 0.030244669 0.039373714 -0.010153069
0001b0 05 38 8a bc 5d 00 be bc f5 24 21 bd dc 86 97 bc
       -0.016872415 -0.023193533 -0.039341886 -0.018496923
0001c0 1d 49 26 3d 76 7c 09 3d 17 17 f5 bc 6d 15 2a 3d
       0.04059707 0.03356596 -0.029918237 0.04152434
0001d0 a3 31 82 bb 12 b0 20 bd d6 e7 ed bc 39 b5 23 bc
       -0.0039732023 -0.039230414 -0.029041212 -0.009991937
0001e0 59 d7 10 3d e5 80 fc 3c 8f 17 c7 3c 54 6d 62 bc
       0.03536162 0.03082318 0.024303226 -0.013820011
0001f0 aa dd 3c bc 2a f8 1b 3d cc 03 f4 3a 9b 76 5d bb
       -0.011527458 0.038078465 0.0018616854 -0.0033792618
000200 72 e9 14 bd 2a cc 8b bc c9 b7 6a bc 45 d1 d5 bc
       -0.036355443 -0.017065126 -0.014326044 -0.026100764
000210 66 b8 ae bc ff dd 8d bc 14 0a 0e 3d b8 ba 1b bd
       -0.021328162 -0.01731777 0.03467758 -0.038019866
000220 6a 26 f6 3c 97 a9 be bc 3e 93 1e bd 58 66 d6 bb
       0.030047614 -0.023274226 -0.03871464 -0.006542962
000230 d1 be 7d 3b cf 1f b1 3c 97 b4 e6 bc fe ce a3 bc
       0.0038718472 0.021621613 -0.028162284 -0.019996163
000240 ba de 03 3d 88 6a 9c bb bc 14 9c bc 78 4f 2d 3d
       0.03219483 -0.0047734417 -0.019052856 0.042312115
000250 d6 29 06 3c bb 26 ef 3c 4a bd 95 3c 9f 1a d9 3b
       0.008188685 0.029193273 0.018278737 0.006625488
000260 91 29 11 3d bd 16 81 bc 5e f3 bd 3c d3 57 29 3c
       0.03544003 -0.015757913 0.023187336 0.01033588
000270 1b e5 af bc bd 2d 18 3d 88 c4 07 bc ac 18 ad 3c
       -0.02147155 0.037152994 -0.008286603 0.021129929
000280 42 6a 0d 3d 67 1f f0 bc d1 4b 13 3d 22 38 27 3b
       0.034525163 -0.029311849 0.035960976 0.0025515635
000290 82 9c fb 3c aa 79 20 bc c0 f5 e3 bc b2 d6 27 3d
       0.030714277 -0.009794632 -0.027827144 0.040976234
0002a0 95 5a d2 3c 15 2d 10 bd bc df 80 bc 7a e0 01 bd
       0.025677959 -0.035199244 -0.015731685 -0.03170822
0002b0 60 1b eb bc ef ac 0c ba 7a 07 8e bc 4d 39 d9 bc
       -0.028699577 -0.0005366345 -0.01733755 -0.026516581
0002c0 bc 1a 66 3c 9f a7 3d bc 14 49 be 3c 4d 84 e3 bc
       0.01404446 -0.0115756085 0.023228206 -0.027773047
0002d0 72 22 a2 bc b5 83 01 bd 9f 9b 24 bd f6 cb 20 bc
       -0.019791815 -0.031619746 -0.040187474 -0.009814253
0002e0 f4 1a e8 3c ce db a2 3c 40 b5 fc bb d1 97 21 3d
       0.028333165 0.019880202 -0.0077120364 0.039451424
0002f0 30 5b 01 bd df 94 11 3d 19 14 21 bd c8 3b de bc
       -0.031581104 0.035542365 -0.039325807 -0.027128115
000300 2a 72 05 3d d1 45 f9 3b bd e4 1a bb 8f 24 f0 3b
       0.03257958 0.0076071997 -0.0023634874 0.007328577
000310 41 47 96 3b ce 20 94 3c b2 8e a3 bc e2 8d 13 bd
       0.004586131 0.018082049 -0.019965503 -0.036023982
000320 f8 5e b9 3c 5a b0 e0 3c 08 3c 5c 3b 6d 39 bf 3c
       0.022628292 0.027427841 0.0033605117 0.023342812
000330 1f 5d 96 39 46 a4 e0 bc dc 57 cd bc ff 43 a4 3c
       0.0002867961 -0.027422082 -0.025066309 0.020051954
000340 2d c6 03 3d 71 c4 97 3c 1d 3f ba bc 14 b2 16 bd
       0.032171417 0.018526288 -0.022735173 -0.036790922
000350 59 d7 b5 bb bf bb 7a bc 9d 1c 03 bd 71 c5 21 3d
       -0.005549353 -0.015303551 -0.03200971 0.039494935
000360 67 90 2c 3d 7e 39 16 bd a9 2a b2 3c f1 c3 90 bc
       0.0421299 -0.036675923 0.021748858 -0.017671557
000370 1f 90 ee 3a 85 d4 e9 bc 25 77 05 3c e3 a5 b2 3c
       0.001820091 -0.02854372 0.008146082 0.021807617
000380 4f 3b 33 ba 62 cc 8e 3c ec 2f b6 3b 01 43 b6 3c
       -0.0006837146 0.017431442 0.005559912 0.022248747
000390 9a 80 0a bd 22 ba 0d 3d af 7c 0a 3b 0d bf 05 bd
       -0.03381405 0.03460134 0.0021131446 -0.032652903
0003a0 1a 2f d8 bc 3f 62 e5 3c 2c 48 96 bb 86 d5 bd bb
       -0.026389647 0.028000949 -0.0045862403 -0.0057932762
0003b0 92 1d 0d 3c 02 e6 24 3d b5 b2 d0 bc 1a 77 ec bc
       0.008613007 0.040258415 -0.02547584 -0.028865386
0003c0 42 2e f2 3c 6a 2b 96 3c 52 98 6b bc 05 9e ab bc
       0.029563073 0.018331248 -0.014379578 -0.020949373
0003d0 6d 18 26 bd b8 3c d1 3c d5 fa 23 3d 52 16 2f 3b
       -0.040550638 0.025541648 0.040034134 0.0026716185
0003e0 93 a8 39 bc e9 5d 53 bc d3 5f 86 bc bb 73 32 bc
       -0.011331695 -0.012900808 -0.016403114 -0.01089185
0003f0 24 48 13 bd 0b 54 22 bc c3 3f cf bc db fd 09 3d
       -0.03595747 -0.009907733 -0.025298959 0.03368936

encoder.3.bias f4 [128]
000000 85 8f 15 bd c9 b3 00 3b 90 45 23 3d 33 3b e5 3c
       -0.036513824 0.001963841 0.03986126 0.02798233
000010 e8 de 8f 3c d6 9e a1 3b c2 da f9 3c 8d 96 8c bb
       0.017562345 0.004932265 0.03049982 -0.004290408
000020 cf 0f 80 3c 7a 63 20 bd e5 2e 11 bd e8 30 ce bc
       0.015632538 -0.03915737 -0.035445113 -0.025169805
000030 a0 71 0e 3c 2d 62 d4 bc 64 82 bf bc a7 1e 49 bb
       0.0086940825 -0.02592572 -0.023377605 -0.0030688436
000040 b0 5c b0 3b d6 10 3f bc 9f 4b 58 3c 3a c0 7a bc
       0.005382143 -0.011661729 0.013201623 -0.015304619
000050 2b 98 e9 3b 9a 93 08 bd cc 14 c1 bc 30 5c 0d bd
       0.0071287355 -0.03334389 -0.023569487 -0.034511745
000060 a3 ee 20 bc 3d 93 3f 3c 54 44 0c 3d 42 52 0d 3d
       -0.00982252 0.011692819 0.03424485 0.034502275
000070 64 3e da bc 0e 0e 82 bc 48 30 ee bb 1c a4 a2 bc
       -0.026641078 -0.015875842 -0.007268939 -0.019853644
000080 b0 ae 13 3d 68 8d 50 3c bb f2 ed bc 8b bd c6 3c
       0.036055267 0.012729026 -0.029046407 0.024260303
000090 2e 1d ca 3c 3e bb 3c 3c 85 f6 8e 3c 4e 11 80 bb
       0.024672117 0.011519251 0.017451534 -0.003908313
0000a0 5f 1c 11 3d 2a 75 aa bc 1e 76 c9 bc 1d 9b df bb
       0.035427447 -0.020807821 -0.024592455 -0.006823911
0000b0 c0 e9 c0 bc f5 b5 fe bc 5b 1e 0a bc 43 a9 1e 3c
       -0.02354896 -0.031092623 -0.008430089 0.00968391
0000c0 b6 06 2a bd 5f e1 80 3c 90 1c e7 bb cf a5 8b 3c
       -0.041510306 0.015732465 -0.0070529655 0.017046837
0000d0 1c d3 e5 3c c9 e4 81 bc d7 b4 92 bc 6d 77 ad bc
       0.028054766 -0.015856164 -0.017908497 -0.02117511
0000e0 dd 36 05 bc 0b bc 62 3c 37 77 54 bc 00 2c ba bb
       -0.008130756 0.013838778 -0.012967876 -0.0056815147
0000f0 c3 1f ee bc 0f 6f 4d 3c d0 75 cd bc e9 a2 92 3c
       -0.02906788 0.012538685 -0.025080591 0.017899947
000100 af b3 38 bb 01 83 21 bd f2 ab 0a 3d 07 ea 37 bc
       -0.0028183272 -0.039431576 0.033855386 -0.01122523
000110 0a 6a df bb e8 ce 53 3b d8 9c f6 3c c8 21 be bc
       -0.0068180608 0.003231937 0.030104086 -0.023209468
000120 95 b0 fb 3c 23 dc 29 bd a8 26 41 bc 62 a6 25 3d
       0.03072385 -0.041469704 -0.0117890015 0.04044188
000130 97 1e e6 3c 29 44 fa bc 74 0c b3 bb e5 72 a7 3a
       0.028090758 -0.03055008 -0.005464131 0.001277533
000140 d4 48 c1 bc 60 dd a9 bc e8 38 88 3b 3e 53 e2 bc
       -0.023594297 -0.020735443 0.0041571744 -0.027627584
000150 da 5c 0a bd d1 d8 c8 3c df 14 bc b9 03 97 ce 3c
       -0.033779956 0.024517449 -0.00035873704 0.025218492
000160 bf 26 e2 bc 5c e9 59 3c b1 39 b5 bc 0a 66 26 3d
       -0.027606366 0.013300266 -0.022122236 0.040624656
000170 3a e0 e8 bb 5c 56 9c 3b e6 7b 09 bd 52 92 0e 3d
       -0.007106808 0.004771037 -0.033565424 0.03480751
000180 f6 ce 1e bd 3b 8e 0e bc 42 f1 42 bc 2c 22 e0 bc
       -0.038771592 -0.008700903 -0.011898341 -0.027360044
000190 51 7f ff bc 0f 5f f7 3b fe 55 fc 3c 62 00 9d bc
       -0.031188639 0.0075491737 0.030802723 -0.019165222
0001a0 66 23 ee 3c 92 12 22 bd 7d 08 2e 3c 2f ab e9 3a
       0.029069614 -0.03956849 0.010622141 0.0017827506
0001b0 94 01 1a bc 94 d4 f8 bc b1 58 bc bb 29 bf 10 bd
       -0.00939979 -0.030374803 -0.0057478775 -0.035338555
0001c0 5b ae 93 bc 18 60 9e 3c 86 5c 3d 3c 6c 62 3c bc
       -0.018027475 0.01933293 0.011557704 -0.011498075
0001d0 78 0c 09 3c 78 93 e7 3b 9c 0b 45 3c 08 7b 68 bc
       0.008364789 0.00706714 0.012026694 -0.014189489
0001e0 cb 85 22 3d cc 27 18 3c 62 48 ca 3b c7 d5 b7 3c
       0.039678376 0.009286832 0.0061731795 0.022440804
0001f0 28 f2 9d 3c ff 3c b4 3c f6 95 21 3d 1a f6 3a bc
       0.019280508 0.022001741 0.039449655 -0.011411214

decoder.0.weight f4 [64, 128, 3, 3]
000000 6e 1f a8 bb 29 99 50 ba 2d 9f 44 3c e3 10 e9 bc
       -0.0051307 -0.0007957393 0.012000841 -0.028450435
000010 e2 c0 ad bc 56 2e eb 3c 8b 38 d9 bc a4 f0 cc 3b
       -0.021210138 0.028708618 -0.02651622 0.0062542725
000020 24 e5 54 3c f1 49 c5 3b 74 de e1 3c e5 41 62 bc
       0.0129940845 0.0060207774 0.027571894 -0.013809656
000030 74 73 95 3c 6e c1 48 3b 61 ed 19 bb a1 b3 02 bc
       0.018243529 0.0030632871 -0.0023487436 -0.007977397
000040 b3 63 bf 3b c4 0c 8d bb df fd c3 3b db 51 e2 3c
       0.0058407425 -0.0043045003 0.0059811915 0.027626922
000050 0b 07 cd bc 72 23 18 bc 43 b5 55 3c 5e 77 c8 3c
       -0.025027772 -0.009285795 0.013043704 0.024470981
000060 5a 8a 1e 3c fe 9e 23 3c b0 71 bf bb 78 3e ef 3c
       0.00967654 0.009986637 -0.00584241 0.029204592
000070 77 a2 ca bc ac 99 c8 3c 27 aa 19 bb 2f a6 d7 3c
       -0.024735672 0.024487339 -0.0023447366 0.02632436
000080 e3 7a 97 bb fc f0 df ba d8 76 bb 3c 15 0d e7 3c
       -0.0046228035 -0.0017085369 0.022883818 0.02820448
000090 db cd ad 3b f5 3b c9 3a 6a c1 37 bc 66 40 d0 bb
       0.005304081 0.0015352952 -0.011215547 -0.006355333
0000a0 99 aa 17 bc fe 39 9c bc c0 a8 a8 bc d2 ee 52 bb
       -0.009256982 -0.019070622 -0.020588279 -0.0032185805
0000b0 4e 76 06 3b 69 18 5b bb ef a1 bf bb d6 78 bb 3c
       0.0020517292 -0.0033431298 -0.0058481614 0.022884768
0000c0 8f 2d 1b bc eb 18 18 3c 29 37 29 bc ea d4 37 3b
       -0.009471311 0.009283285 -0.010328093 0.002805049
0000d0 3f bb bb bc cb 57 cc bc b2 ab bc bb 7d f2 a4 bc
       -0.022916434 -0.024944207 -0.0057577724 -0.020135159
0000e0 67 a2 8a 3c aa 43 e4 3c 55 4c e5 bc 29 82 3d 3c
       0.016923143 0.027864296 -0.0279905 0.011566677
0000f0 a4 e3 0f 3c bc c2 21 3b a2 ab dd 3c c2 41 b8 bc
       0.008782301 0.002468272 0.02705938 -0.022492293
000100 9f 82 18 3c 35 03 71 bc 27 7b 82 bc ef bd b2 3b
       0.009308486 -0.014710237 -0.015927864 0.0054547708
000110 0d f0 7b 3c 38 3e c5 bb 81 85 9a bb 62 c0 e2 bb
       0.015377057 -0.00601938 -0.004715622 -0.0069199065
000120 6a 87 cf 3c 9f d6 8b 3b 28 fd 1a 3c 4c ce 8a 3c
       0.025333125 0.004267528 0.009459771 0.016944073
000130 72 dc 7a 3c d5 86 d1 bc 48 bc 62 bc 56 a4 02 bc
       0.015311347 -0.025576988 -0.013838835 -0.007973751
000140 fc a1 96 3c 78 ac d9 3b 6f 09 95 bc 85 46 d7 bc
       0.018387787 0.0066428743 -0.018192975 -0.026278744
000150 71 11 9e 3c 34 12 f0 3b 4f d0 56 3c 3a 34 e1 3b
       0.019295426 0.0073263887 0.013111188 0.006872681
000160 db a5 06 3c 4b 4a b0 bc 13 65 cd bc b9 de c8 3c
       0.008218254 -0.0215198 -0.02507261 0.024520265
000170 4a 60 cb bc c4 67 d6 bc 71 73 a0 3c fa 46 76 bc
       -0.024826188 -0.026172526 0.019586297 -0.015031571
000180 41 d0 e0 3c 4f 5f cf 3c ce 49 e9 3c 54 3e 8f bb
       0.027443053 0.025314001 0.028477576 -0.0043714438
000190 28 81 dd bc 52 4e af bc e8 c3 58 3c ac 77 d2 bb
       -0.027039126 -0.02139965 0.013230301 -0.0064229574
0001a0 43 76 c0 3c 00 4e 7d 3c df 91 eb 3c 30 90 64 bc
       0.023493892 0.015460491 0.02875608 -0.013950393
0001b0 3b 8d 79 3b ee e3 44 3c 91 57 92 3c 76 cd a0 bc
       0.0038078565 0.012017233 0.01786402 -0.019629221
0001c0 b3 e4 1b bb e2 e5 b6 3c 17 50 9e 3b c0 17 35 3c
       -0.0023787438 0.022326414 0.004831325 0.011053026
0001d0 2f fc e5 bc 89 dc 8f bb ba eb 64 3c e4 aa 61 3c
       -0.028074352 -0.0043903035 0.013972217 0.013773654
0001e0 c3 da 3f bc 54 32 4c bc d0 82 56 ba 28 40 1f 3c
       -0.011709872 -0.012463171 -0.0008182945 0.009719886
0001f0 e4 9f d0 bc b8 9b 83 3c 80 17 99 3b e0 fa 3d 3c
       -0.025466867 0.016065463 0.004671991 0.011595458
000200 ba 88 4d 3c 91 70 ca 3b d9 09 4f 3b b5 15 36 bc
       0.012544805 0.0061779697 0.0031591563 -0.011113574
000210 92 fb 88 3c da 24 d8 bb 78 05 08 3b 44 bf a9 ba
       0.01672152 -0.00659619 0.0020755213 -0.0012950678
000220 17 ce 8a bc 3c ae db 3c fb 09 26 bc c5 b8 19 bc
       -0.016943974 0.02681648 -0.0101342155 -0.009382431
000230 2e ad 81 bc 05 b7 94 bc 25 ac 9a bc 63 91 08 bc
       -0.015829649 -0.018153677 -0.018880913 -0.008335444
000240 80 f8 72 3c c7 94 ba 3b 8b f7 ee 3c b2 45 98 3c
       0.014829755 0.005694005 0.029170772 0.01858792
000250 2b cc fc 3b ac c8 1b bc 90 c0 c9 bc 32 6e 59 3c
       0.0077147684 -0.009508293 -0.024627954 0.0132709015
000260 83 01 3f bc cd 9a c5 3c f6 3e b9 3c e2 c7 d4 3c
       -0.011658075 0.024121666 0.02261303 0.025974218
000270 90 dc 54 bc 12 c9 d4 bc 99 81 d9 3c 9a bb e8 bc
       -0.012992039 -0.025974784 0.026551055 -0.028409768
000280 22 7d 9a bc ec a5 96 ba c7 ee 4d 3c 96 fe 4a 3c
       -0.018858496 -0.001149354 0.012569136 0.0123898
000290 83 7e 0d 3b 10 e9 10 3c a5 1c ee 3c 69 45 e2 3c
       0.00215903 0.008844629 0.029066393 0.027620988
0002a0 52 89 9a 3c 8b 6c 86 3c 95 2f c6 3c bd 2d aa 3a
       0.018864308 0.01640918 0.02419261 0.0012983602
0002b0 7a 93 6c 3c e2 7b 08 bb ea 1f c3 3c dc 60 54 bc
       0.014439458 -0.0020825793 0.023818929 -0.012962546
0002c0 da 08 9e 3b a3 40 93 bc a9 6a 8d 3c f4 0b d3 bb
       0.0048228325 -0.017975157 0.017262774 -0.006440634
0002d0 26 44 3e 3c 5a 19 14 bc b9 09 98 bc 3f bb 71 bb
       0.011612928 -0.009039247 -0.018559324 -0.003688529
0002e0 95 46 e4 3c 92 c2 9a bb 5c 79 93 bc 50 cf 6a bc
       0.027865687 -0.0047229016 -0.018002205 -0.014331654
0002f0 aa 1b f4 3c 73 8a 51 bc a0 ce 32 3c 12 49 94 3c
       0.029798348 -0.0127893565 0.010913521 0.018101249
000300 c4 5e 73 3c 67 50 f5 3b c8 2c a5 3b 61 ba a2 3b
       0.014854137 0.0074863913 0.0050407387 0.0049660658
000310 53 66 81 bc 64 d3 ce bb dd 90 1e bc 57 7d 1d 3c
       -0.015795862 -0.006311821 -0.009678093 0.009612403
000320 19 a0 ae 3b 27 53 cf 3c f8 6c 21 3b ef 90 bd b9
       0.0053291437 0.025308205 0.00246316 -0.00036156873
000330 72 1f 80 3c ba a7 c2 3c ad cf 8c bc 86 10 25 3c
       0.015639994 0.023761619 -0.017188871 0.01007474
000340 c4 9f e8 bc cf 49 96 3c 71 b0 b6 bc 4b cb 18 bb
       -0.028396495 0.018345742 -0.02230093 -0.0023314531
000350 da fb 59 bb 11 73 21 bc a9 c6 5a 3c 5c 0d a0 3a
       -0.0033261687 -0.009854094 0.013353028 0.0012211013
000360 0d 5a 1d 3c 38 b5 0c bc 87 98 1d bc b2 00 86 3c
       0.009603989 -0.008588128 -0.009618885 0.016357753
000370 bf f0 24 bc 05 88 cf 3c 02 e5 b9 3c 6b b7 e5 3c
       -0.010067164 0.025333414 0.022692207 0.028041562
000380 cd 43 5e 3c 62 bb b8 bc c8 fd 41 bb 2f dc b4 bc
       0.01356597 -0.022550289 -0.0029600728 -0.022077648
000390 de 7c a4 bc 4b af 8f bc c1 07 bf 3c ab a4 70 bc
       -0.020079073 -0.01753964 0.023319127 -0.014687697
0003a0 22 82 72 bc 02 b4 b4 bc 6f 41 d4 bc 6c 72 a7 bb
       -0.014801534 -0.02205849 -0.025910107 -0.0051100757
0003b0 c3 7b 81 3c 5b fb 2e bc 77 1c 93 3c 0a d5 9c 3c
       0.015806084 -0.010680045 0.017957909 0.019144554
0003c0 11 c1 ce 3b c7 94 7a 3c b7 cc 87 bb 83 73 cf 3c
       0.0063096364 0.01529426 -0.004144277 0.025323635
0003d0 4f 9a e0 3b ca f5 c2 3a ea 55 d8 bb f9 82 1a 3c
       0.0068543325 0.0014874276 -0.0066020386 0.00943064
0003e0 5f 01 3c bc 14 4d 51 3c d0 47 49 bc 3d d3 e6 3c
       -0.011474936 0.0127747245 -0.012285188 0.028176898
0003f0 ec 45 12 3b 04 f1 9b 3c 8a 3f 75 3b 4c a3 9f bc
       0.0022319509 0.019035824 0.0037421905 -0.019487046

decoder.0.bias f4 [64]
000000 c8 69 61 3a a1 75 b9 3b 71 92 9a bb d6 4d 8e bc
       0.00085988315 0.0056597744 -0.004717164 -0.0173711
000010 4d 0f c7 3c 3f 5d 98 3c 46 3f ca 3b ec 76 4d 3c
       0.024299288 0.01859915 0.0061720936 0.01254056
000020 dc 21 95 bc 9a 95 21 bc c6 2d d9 3a 26 6b 68 bc
       -0.018204622 -0.009862328 0.0016569428 -0.014185702
000030 96 e4 77 bb df e5 c9 bb e8 0b de 3c ce f7 e7 bb
       -0.0037825457 -0.006161436 0.027105287 -0.007079101
000040 e2 4a e4 bc 0e 93 d6 bc d4 21 bc 3c cf 02 8b 3c
       -0.027867738 -0.026193168 0.02296535 0.016969113
000050 ff af cd bb 5e 52 e4 3c af 1f a0 3c ca d6 dc 3c
       -0.006277084 0.027871307 0.019546358 0.026957888
000060 54 72 c5 3c d3 7f 5a bb af b9 48 3c aa 83 e6 3c
       0.024102367 -0.003334035 0.012251302 0.028138954
000070 64 d4 26 bb c3 2c 88 3c 14 a9 d5 3b 3e 5c 41 bc
       -0.0025456185 0.016622907 0.0065204 -0.011801777
000080 41 7d 5b bc e1 e3 ca 3b 13 6f 94 3c e2 d3 94 3c
       -0.013396562 0.006191716 0.01811937 0.01816744
000090 49 d9 09 3c 74 0e 0f ba f7 88 82 bc 52 d7 c0 bc
       0.008413621 -0.0005457171 -0.01593445 -0.023540173
0000a0 f0 48 f2 bb 4c 64 a4 3b 10 6a b3 bc 7f 58 86 3b
       -0.0073939487 0.005016839 -0.02190116 0.004099905
0000b0 f4 d9 ec bc 1a 61 47 3b bc 8c ca 3c 8f 1f b1 3c
       -0.028912522 0.0030422867 0.02472531 0.021621494
0000c0 40 fc 71 bc e2 13 a7 bc 15 6e b5 3c 96 78 dd 3c
       -0.014769614 -0.020395223 0.022147218 0.027035039
0000d0 06 9b f1 b9 09 4c c4 bc b0 b7 7e 3c 78 cd 2f 3c
       -0.00046082604 -0.023962038 0.015546724 0.01073014
0000e0 ff bb 9a bc 5c f2 66 3b 44 df 9a bc 22 75 2a bc
       -0.018888472 0.0035239672 -0.01890529 -0.010403903
0000f0 3f 81 73 bc d4 d2 e1 3c c6 1d 8e bb f3 9f 9a bc
       -0.014862358 0.027566351 -0.0043370454 -0.018875098

decoder.3.weight f4 [32, 64, 3, 3]
000000 b1 cf 24 bd b9 59 ab 3c 57 a7 ee bc ed a9 aa bc
       -0.040237132 0.020916807 -0.029132528 -0.02083298
000010 bb a7 ea 3c de e3 1c bd 46 fa 15 3d c1 cd 71 3c
       0.028644433 -0.03830325 0.036615632 0.014758528
000020 ba c1 7d 3c 94 6f 81 3c 70 d1 11 bd f3 f7 20 3d
       0.015488083 0.015800275 -0.035600126 0.039298963
000030 fe 78 27 bc 02 af 6c 3c 63 0b 24 bd fe 35 e6 3c
       -0.010221718 0.014446022 -0.04004992 0.028101917
000040 e1 18 eb b9 ae 5b 1b bd 9c de 6f 3c f3 8a 12 3c
       -0.0004484123 -0.03792923 0.014640477 0.008944261
000050 af b1 49 bc 5a 13 c3 3c fb e2 59 3b 56 fe 20 bd
       -0.0123104295 0.023812938 0.0033246863 -0.039305054
000060 f7 20 07 bd 0b 3a 18 3d 0a 38 07 3d dc 82 6f bc
       -0.032990422 0.03716473 0.033012427 -0.014618602
000070 90 7c ad 3c 4b 3a 14 bc e5 bb c5 bc 43 fc e0 bc
       0.02117756 -0.009047101 -0.024137447 -0.027464038
000080 b6 69 26 bd de 88 03 3d aa 63 02 3d 20 ba 1c bd
       -0.040628158 0.03211295 0.03183333 -0.03826344
000090 b1 15 e2 3c 3c 9c 86 3c c3 95 14 bd fa 4c 0a 3c
       0.027598234 0.01643192 -0.036275636 0.008441204
0000a0 64 9d da 3c 1c 80 d8 bc 78 4a bb bc e5 c1 6a bc
       0.026686378 -0.026428275 -0.022862658 -0.014328455
0000b0 e2 fa 9e bc eb 3e a0 bb da fe db 3c 8b 84 89 bc
       -0.01940674 -0.004890313 0.026854921 -0.016786834
0000c0 a9 96 db 3c 46 36 eb bc 22 d2 48 3b d4 89 d6 bb
       0.026805239 -0.028712403 0.0030642827 -0.006547192
0000d0 0d f4 c0 bc 6f 45 f6 bc 26 02 80 bb 0a d0 7f bc
       -0.023553872 -0.030062405 -0.003906506 -0.015613565
0000e0 05 ca 06 bd 6b 6b 8b 3c 5d eb 4c 3c 2c 13 3c 3c
       -0.032907505 0.017018994 0.012507287 0.01147918
0000f0 16 4b f1 bc a6 46 0c bc c7 1c 18 bd df 41 20 bd
       -0.02945475 -0.008561766 -0.03713682 -0.03912532
000100 41 c9 bc bc 2a 04 14 3d ff 9d e4 bc 9c 56 b5 3c
       -0.023045184 0.036136784 -0.02790737 0.022136025
000110 59 d5 f5 3c 0d 28 e7 bb 1b 60 f8 3c 65 df ba bc
       0.030008959 -0.007054335 0.030319264 -0.022811601
000120 ed e5 23 3d ec c3 2f bc a0 9d ab bc c2 dc 1e 3d
       0.040014196 -0.010727864 -0.020949185 0.03878475
000130 a5 04 d5 bc 78 13 ad bc 5a 38 86 3c d2 05 89 3c
       -0.026003191 -0.021127447 0.016384292 0.016726408
000140 72 49 91 3b 80 d7 e9 39 7b 27 be bc 28 79 ac bb
       0.004433804 0.00044601783 -0.023212185 -0.0052634664
000150 f0 1a 26 bb ac f3 54 bc e0 46 c0 bb da e4 03 3d
       -0.0025345646 -0.012997549 -0.005867824 0.03220067
000160 67 51 ab 3c d2 82 8f bc 4a e1 12 bd 54 ea 06 bd
       0.02091284 -0.017518435 -0.035859384 -0.032938316
000170 d7 86 2c bd 6a f1 79 bc ed 58 6b bc df 3f ba 3b
       -0.04212078 -0.0152553115 -0.014364463 0.0056838836
000180 35 a5 0d 3d 06 9a 16 3d 2d e8 de bc 55 0a 3a bc
       0.03458138 0.036767982 -0.02721032 -0.011355002
000190 55 c4 64 3b d6 9e 16 3d e1 bd 19 bc de 4c ce bc
       0.0034907062 0.03677257 -0.00938365 -0.025183138
0001a0 6c e2 54 3c 1f 27 d8 bc 05 38 0e bd de ae a6 bb
       0.012993436 -0.026385842 -0.034721393 -0.0050867638
0001b0 3d 6f bc bc 8a 3c 28 bd 4a 7e 7c 3c 38 15 e3 ba
       -0.023002261 -0.04107336 0.015410969 -0.0017325049
0001c0 4c 69 fd bc 14 62 c2 3c 13 7a 21 3d a4 ff 24 bd
       -0.030933999 0.023728408 0.03942306 -0.04028286
0001d0 67 a6 a8 ba 78 a4 20 bc 16 0c 5b bb d8 9e 29 bd
       -0.0012866975 -0.009804837 -0.0033423952 -0.04141125
0001e0 80 8f 09 bd f4 82 13 bd 0e 0d 06 bd fb d6 4d 3b
       -0.033584118 -0.03601356 -0.032727294 0.0031408656
0001f0 13 6b 8b bc c1 b6 30 39 c4 50 f4 3c bb b8 05 3a
       -0.01701883 0.00016852749 0.029823668 0.00051010743
000200 82 9f a5 3c 5d 44 05 3a 9f 7d 99 3c cb f8 e8 3b
       0.02021766 0.0005083734 0.018736659 0.0071097366
000210 a9 16 af 3a c5 53 87 bb b6 31 da 3c 0c 77 04 bd
       0.0013358194 -0.004129859 0.026635032 -0.032340094
000220 08 f1 41 3c ab a7 c7 3c de 43 13 bd 8e 59 be bb
       0.0118372515 0.024371943 -0.035953395 -0.0058090156
000230 5b 8f 93 ba 33 ab a7 bc f1 b1 6e 3b 71 7d 16 bd
       -0.0011257933 -0.020467376 0.003642198 -0.036740724
000240 eb 0e d0 bc af fa 6d bc 42 ac 3f 3a 5f 19 a0 bb
       -0.025397738 -0.0145251 0.000731174 -0.004885837
000250 9d b6 b1 3c f1 e6 d1 3c 90 33 0d bd f5 f1 0b 3d
       0.021693522 0.025622817 -0.034473002 0.034166295
000260 af f5 18 3d 59 89 15 3d 4c 71 c8 3c db f8 bc 3b
       0.037343677 0.036507938 0.024468087 0.0057669706
000270 ec a3 b7 3c ae 6b be bc dd 02 d7 bc c6 49 06 bd
       0.022417031 -0.023244705 -0.026246483 -0.0327852
000280 a7 25 74 3c 6e c0 2b bd d5 c5 2c bd ea 89 09 bd
       0.014901555 -0.041931562 -0.042180855 -0.03357879
000290 85 d4 0f 3d 89 07 03 bd 9b b1 bf 3c e9 3a 1d 3d
       0.035114784 -0.031989608 0.023400119 0.03838626
0002a0 87 d1 ed 3c 39 cb 61 bc ee 74 bd 3a 7c 12 16 bd
       0.029030574 -0.013781362 0.0014454403 -0.03663872
0002b0 f4 c3 40 bc 54 8e 4d bc 98 32 be 3c 28 a3 de bc
       -0.011765469 -0.012546141 0.023217484 -0.027177408
0002c0 f1 1e a5 bc 63 f5 f8 3c f8 0c 19 bd 02 be 25 bd
       -0.020156356 0.030390447 -0.037365884 -0.04046441
0002d0 12 d5 1d bb 42 d4 ce 3c 6c bf af 3c c5 98 86 bc
       -0.0024083299 0.025247697 0.021453582 -0.016430268
0002e0 d0 dc 05 bd 7a 73 17 3c 0b 3f 15 bd 47 05 61 38
       -0.032681286 0.00924384 -0.036437076 5.3649095e-05
0002f0 33 d0 c3 bc 98 e2 0b bd 72 fe 04 bd ac 40 f8 3a
       -0.023902988 -0.034151644 -0.03246922 0.0018940172
000300 e8 f0 17 bd e5 10 62 bc 31 48 e8 3b ab c3 0a 3d
       -0.03709498 -0.013797973 0.007088684 0.03387801
000310 aa cc 73 bc 61 71 ae 3c 37 19 2d bd 67 83 cb 3c
       -0.014880339 0.021294298 -0.042260375 0.024842931
000320 82 b9 d9 3b 3f f2 f5 bc 18 f8 b1 bc 43 f8 16 3d
       0.0066444287 -0.030022739 -0.021724746 0.036857855
000330 fa 14 26 bd 39 04 83 3c cc 7f 47 3b cb 69 fe 3c
       -0.04054735 0.015993224 0.0030441163 0.031056305
000340 36 48 01 bd 7d 35 23 3d aa d0 c3 3c f7 3f 82 3c
       -0.031563006 0.039845932 0.02390321 0.015899641
000350 eb 82 04 3d 3e 39 26 3d c9 06 56 3b a5 a3 1c bd
       0.032351416 0.040581934 0.0032657853 -0.038242
000360 7a 2f bd 3c 93 a5 2a bd d0 47 9e bc f2 f0 6f 3c
       0.023093928 -0.04166181 -0.019321352 0.014644848
000370 f7 a9 14 3d 1e 75 25 3d 89 d3 00 3d b8 55 c8 3c
       0.036294904 0.040394895 0.031451736 0.024454936
000380 ec 0f 11 3d a7 64 18 bd 75 0f 13 bd 1f 2e bd 3c
       0.035415575 -0.037205365 -0.035903413 0.023093281
000390 ba ab fa 3c 40 35 43 3b b2 18 58 3c 40 05 1b bd
       0.030599464 0.0029786378 0.013189482 -0.037846804
0003a0 5c 7a 25 3d ba 10 2d bc 85 28 d2 3c 88 6c ee bc
       0.040399894 -0.01056307 0.025654087 -0.029104486
0003b0 e3 51 00 3d 2c 1f 49 3c bd 42 e8 bb 10 0e 11 3c
       0.031328093 0.012275498 -0.007088034 0.00885345
0003c0 c7 bc 1f 3d ee 91 01 3d 19 9c c4 bc 3c b8 13 bd
       0.03899839 0.03163331 -0.024000214 -0.03606437
0003d0 65 5a 18 3d da fa f1 ba cf ec 4d 3c 77 c8 d4 3c
       0.037195582 -0.00184616 0.012568667 0.025974495
0003e0 ca 56 87 bc 7a f2 8c 3c e7 0e 25 bd a2 dc 89 bc
       -0.016520876 0.017205466 -0.040297415 -0.016828839
0003f0 11 f5 b0 3c f6 86 16 3a 1e 0e 09 bd b0 5d ce 3b
       0.021601232 0.00057421566 -0.03346073 0.0062977895

decoder.3.bias f4 [32]
000000 36 c3 5b 3c cf 26 12 3d 2a b1 20 3d f4 15 00 bc
       0.013413241 0.035681542 0.039231457 -0.007817734
000010 6a 69 c1 bc d5 f6 14 3a b9 7e c9 3c d4 36 9c bb
       -0.023609836 0.0005682533 0.024596559 -0.004767278
000020 44 fc 21 3d 3c 19 2d 3c ae 9d dc 3c 8b 4e be bc
       0.03954722 0.010565098 0.026930656 -0.023230812
000030 03 4a 01 bd 61 53 29 bd 4a f9 a0 bc 70 e5 f5 bc
       -0.031564724 -0.041339282 -0.01965012 -0.03001663
000040 5f 56 23 bd 2b 4f b3 b7 31 a6 ec 3c c3 40 c0 bb
       -0.03987729 -2.1375328e-05 0.02888784 -0.005867095
000050 d0 8b 13 3c ba 4d 2e bd 75 10 25 3c 60 4f 8d 3c
       0.009005502 -0.042554595 0.010074724 0.017249763
000060 c2 23 28 3c 6f b3 0e bc d6 27 26 bd e2 77 73 3c
       0.010262432 -0.0087097725 -0.040565334 0.014860125
000070 64 b7 c2 bc 7b b1 66 bc 9a 19 46 bc b9 45 2a bc
       -0.023769088 -0.014080401 -0.012091065 -0.0103926

decoder.6.weight f4 [1, 32, 1, 1]
000000 a1 49 9f 3d 4a 0c 23 be 9f 9d c6 3c c2 ff 23 be
       0.077777155 -0.15922657 0.024245081 -0.16015533
000010 78 02 8f bd 44 63 97 bd 5c 5a e6 3d 2b fc 07 bd
       -0.06982893 -0.0739198 0.112477034 -0.03319947
000020 b2 5d e2 bd d6 f9 3f bc e8 b7 78 bd 73 b7 2f be
       -0.11053027 -0.01171728 -0.06072226 -0.17159824
000030 35 ca 59 bc 3e cb b6 3d c3 f5 de bd b4 97 9a bd
       -0.013292839 0.08925484 -0.10886719 -0.07548466
000040 24 84 ce 3d b3 70 32 3e 7f 4f 16 3e a4 21 e5 3d
       0.100837976 0.17425804 0.14678763 0.11188057
000050 17 89 b7 3d 1e 68 d9 3d 7f 31 67 bc 1e 0b 01 3e
       0.08961695 0.10615562 -0.014110922 0.12601897
000060 a4 27 f7 3c 7a b3 36 bd 46 54 11 be 65 53 86 bd
       0.03017027 -0.044604756 -0.14192304 -0.06558875
000070 22 85 32 3d fe 1e 13 be 21 40 97 bd 60 40 13 be
       0.043583997 -0.14367291 -0.073852785 -0.14380026
