checkpoints/2025-05-30-16-56-49/last_epoch.pth (torch, 675371 bytes, 9 tensors)

encoder.0.weight f4 [64, 3, 3, 3]
000000 22 c3 24 be 73 46 10 3e 84 d9 1d 3b 09 15 15 be
       -0.16090062 0.14089374 0.0024085948 -0.14558806
000010 c7 21 4e bd c2 b9 04 be 91 d0 8f bd 2a 8b 08 3e
       -0.05032518 -0.12961486 -0.07022203 0.13334337
000020 5f c5 9c bd 7b 97 df b7 d6 01 2d 3e e6 d3 0d bc
       -0.07654833 -2.665421e-05 0.16895232 -0.008656478
000030 88 42 03 bd 06 7d 9b bd a7 e3 ae bd b6 13 fe 3c
       -0.03204587 -0.07592206 -0.08539515 0.031015258
000040 f6 68 53 bd f9 4d 6c bc 78 b6 5a 3c 11 7c f1 bd
       -0.05161377 -0.014422887 0.013349168 -0.11791242
000050 de 88 3f be cb c2 50 3d 39 55 e4 bd c2 d6 3f be
       -0.18704554 0.05096702 -0.111490674 -0.18734267
000060 8a 57 7f 3d 7e 5c 36 bd f0 5f a5 3d fa 28 e9 bd
       0.062339343 -0.0445218 0.08074939 -0.11384769
000070 43 12 17 3e 1f 5d 0d be 9e 0d 3f 3e f3 30 c0 bd
       0.1475306 -0.13805054 0.18657538 -0.09384336
000080 6a 89 73 3d 8d 1a d1 3c 40 da e5 3d 4d 5c 2e be
       0.05945722 0.025525356 0.112232685 -0.17027397
000090 e1 6e 3e 3e 49 92 db bd d7 3e ea 3d e1 0d 0b be
       0.18596984 -0.10721261 0.11437767 -0.13579513
0000a0 83 1e 0d be fb 2b 23 be 67 58 0a 3e 3e 86 30 3e
       -0.1378117 -0.15934746 0.13510285 0.1723871
0000b0 b7 ba 30 bd 5b 53 25 be b7 e5 19 3e 84 1c 2d bd
       -0.043146815 -0.16145079 0.15029036 -0.042263523
0000c0 b2 9f c6 bd 80 a7 0a be 60 cb a8 bc 78 30 1e bd
       -0.09698428 -0.13540459 -0.02060479 -0.038620442
0000d0 de aa 1e 3e 90 11 4f bc 83 67 bb 3d e5 a8 e7 3d
       0.15494868 -0.012638465 0.09150603 0.11311511
0000e0 c3 78 05 be 72 98 3e 39 36 14 95 3d b2 20 66 3d
       -0.13034348 0.00018176602 0.072792456 0.056183524
0000f0 f3 98 14 be 6d 65 e2 3d dd ef 31 be 9d 25 36 3c
       -0.1451147 0.11054502 -0.17376657 0.011117366
000100 74 4b d3 bd 69 af 1e 3d 44 65 3e 3e 51 2c 81 3c
       -0.10317126 0.038741503 0.18593317 0.015768202
000110 72 5d af bc 40 e8 38 3e 69 34 d7 bd e5 d7 6e bd
       -0.021406863 0.18057346 -0.10508043 -0.05831136
000120 7b b3 f1 3d 47 cc 1b 3c 16 ac f1 3b 5f a1 41 bd
       0.11801811 0.009509153 0.0073752506 -0.047273036
000130 1d b4 d4 3c ed 02 d3 bd f9 df 1d 3d 3b 82 85 3d
       0.025964791 -0.103032924 0.038543675 0.0651898
000140 41 16 0b 3e 60 ad fa 3c fc e3 ef bd 31 f8 17 be
       0.13582708 0.03060025 -0.117134064 -0.14840771
000150 a9 29 94 3d 45 c4 9b 3d 26 4a 2b be 5a dc 41 3e
       0.072345085 0.07605795 -0.16727504 0.18931714
000160 31 5d d7 bc 98 75 3e 3d db 31 30 be 25 82 04 be
       -0.026289554 0.046498865 -0.17206518 -0.12940271
000170 8f 01 30 3e 67 48 30 be bc fc 03 be e8 12 0d 3e
       0.17188095 -0.1721512 -0.1288938 0.13776743
000180 a4 4b af 3b ed 32 73 3c 4d 38 bb bd 3d e2 8e bd
       0.0053495932 0.014843685 -0.09141598 -0.06976745
000190 e2 81 a3 3d 59 db 42 3e 0f 20 0a 3d 0a 26 b2 bd
       0.079837576 0.19028987 0.03372198 -0.086986616
0001a0 d0 d0 08 be 5b f8 c5 bd 89 97 9d bd af 5a 2e 3d
       -0.13360906 -0.09666511 -0.07694919 0.04256695
0001b0 7a a7 c7 bc 05 89 e6 bd d1 1a be 3d 27 0d d4 bb
       -0.024371851 -0.11256603 0.092824586 -0.0064712944
0001c0 df 20 a6 3d c7 94 b1 bd ab ff 83 3d 16 0e 82 3d
       0.081117384 -0.08670955 0.06445249 0.06350343
0001d0 13 f0 11 be 6b 61 9e ba 17 f9 0c 3e f9 5c 40 bd
       -0.14251737 -0.0012083476 0.13766895 -0.046963666
0001e0 3b 27 f2 bd e3 7b 09 bd fa 37 0b bd 71 40 25 3e
       -0.11823889 -0.033565413 -0.03398893 0.16137864
0001f0 fc 63 42 3e 9e b3 d8 bd 73 14 7b 3c 56 50 1b 3e
       0.18983454 -0.10581134 0.0153247 0.15167364
000200 07 a2 9d bd b3 c8 e3 bd 2e 2b 0c be 72 aa 2c 3c
       -0.0769692 -0.11122265 -0.13688347 0.010538684
000210 5b 9b e4 3d 71 32 26 3e 50 2b 24 3e 94 21 ee bd
       0.11162444 0.1623018 0.16032147 -0.11627498
000220 4b 80 1a 3e 99 6f e1 bd 75 27 84 3c be 07 f1 3d
       0.15088002 -0.11007614 0.016132096 0.11769055
000230 fb bb 43 be d2 7f 06 be 6c ab b7 3d 87 07 34 3e
       -0.19114678 -0.13134697 0.08968243 0.17580996
000240 42 aa 35 3a a3 e6 10 3d 34 74 0f be 27 ab 96 3d
       0.00069299724 0.035376202 -0.14009172 0.073568635
000250 22 6d 1e 3d 9d a0 0e be 61 b8 f2 bd 16 8b 31 bd
       0.038678296 -0.13928457 -0.11851574 -0.043345533
000260 7b 67 1b bd 0e c7 de bc 35 e9 1b 3d 6d d5 ec 3d
       -0.037940484 -0.027194526 0.0380642 0.11564145
000270 7b cc 42 3e 8f f2 02 bc a5 e3 cb 3d 78 a9 49 3d
       0.19023316 -0.007992401 0.09955529 0.049233884
000280 6f 6f d5 3c d0 64 c7 bd 2f bc 17 3e 26 fa be bd
       0.026054112 -0.09736025 0.1481788 -0.09325056
000290 96 d0 e6 bd 0a 8b aa 3c cd 5b db 3d 81 60 31 3e
       -0.11270253 0.020818252 0.10710869 0.1732197
0002a0 58 cf 94 bd a2 b1 31 bd fc ee 3d 3d 4a 2e 16 be
       -0.0726611 -0.043382294 0.04637049 -0.14666095
0002b0 64 31 9b 3a 1b cc 34 be 39 cb 50 3d c4 ab bd bc
       0.0011840281 -0.17655985 0.05097506 -0.023153193
0002c0 af 4f 1c be a0 42 24 be 28 fd 0b 3e 86 2b db 3c
       -0.15264772 -0.1604104 0.1367079 0.026754152
0002d0 48 55 12 bd 4d 57 24 bb 29 b3 fb bd 9a 4b f6 3d
       -0.03572586 -0.002507645 -0.122900315 0.120261386
0002e0 4f 6b ab bd a0 33 2d 3e e0 30 e8 bd 5b 13 0c be
       -0.08370077 0.16914225 -0.11337447 -0.13679259
0002f0 35 cb 92 3d b4 bf 1d 3e 8f ba 2f 3e 71 aa 12 3e
       0.07167665 0.1540516 0.1716101 0.1432283
000300 0f a2 c5 bc ab 18 0e be 33 3d f2 bd 6d bf cb 3c
       -0.024125127 -0.13876598 -0.11828079 0.024871552
000310 e3 0a ec 3d cb c6 28 be 79 08 f5 3c f0 22 6b bd
       0.11525514 -0.16482083 0.029911267 -0.057406366
000320 c1 fe 91 bb 3a 9a 29 3e 3e f6 51 bd 1e 83 02 3e
       -0.004455418 0.16562739 -0.051260225 0.1274533
000330 94 52 85 bc c4 90 e1 3d 29 2e 51 bd 21 19 df 3d
       -0.016274728 0.1101394 -0.051069412 0.10893465
000340 9d 49 00 3e f6 35 0f 3e 66 ff 35 3e 59 5d c4 3d
       0.12528081 0.13985428 0.17773208 0.09588117
000350 dc 96 d9 bd 1a 11 b0 bd 8e a8 c8 3d 98 8d c6 3d
       -0.10624477 -0.08597012 0.09797774 0.096949756
000360 d8 b3 e3 bd 7f e5 29 bd 8d 8d 9c 3d d0 b5 f6 3c
       -0.11118287 -0.04147863 0.07644186 0.030115992
000370 95 9c 6b 3d 8d 6d 1a be 8a 64 2f bd 50 4d ad bd
       0.057522375 -0.15080853 -0.04282049 -0.08462012
000380 04 14 d9 bd a3 33 c0 bd 65 d2 0f be 1a d1 fa bd
       -0.10599521 -0.09384849 -0.14045103 -0.12246914
000390 ad 72 15 3e 4b e0 30 be f1 83 cd 3c 0c 95 0f 3e
       0.14594527 -0.17273061 0.025087329 0.140217
0003a0 e5 70 40 be 24 0f fc 3d a7 71 bd bd 97 16 33 3e
       -0.18793066 0.12307575 -0.09250193 0.17489086
0003b0 f9 17 55 3d 92 1e a9 3d d9 a1 0d 3e 32 1e 97 3d
       0.052024815 0.08257784 0.13831271 0.07378806
0003c0 09 61 b5 bd 3f 01 85 3c 32 bc 73 bd f1 c7 c0 3c
       -0.088563986 0.016235946 -0.05950565 0.02353284
0003d0 85 e8 70 bd 2c bf 6c 3c 93 a3 09 3e f9 02 b3 3d
       -0.058815498 0.014449876 0.13441305 0.08740801
0003e0 9d 1c 26 3d f4 6e b7 bd bc b7 c1 bc 94 f9 15 bd
       0.04055463 -0.089567095 -0.023647182 -0.03661497
0003f0 88 ad 96 3c c9 c6 bf bd 2d c0 0c 3e c3 83 28 3d
       0.018393293 -0.09364087 0.13745184 0.041141283

encoder.0.bias f4 [64]
000000 f4 6b d0 3d 5b 79 22 bd 50 13 d2 3b c1 ec cf 3c
       0.101768404 -0.039666515 0.0064109936 0.025381448
000010 ee 51 b4 bd df 47 c3 3d f4 1e 22 3e cb e6 2d 3d
       -0.08804689 0.09535193 0.1583212 0.04245643
000020 e7 ca 78 3d c9 13 89 3c 7a 71 84 3d b5 a7 4c 3d
       0.060740378 0.016733067 0.064669564 0.049964625
000030 75 b9 69 bd 50 df a5 bd 8d 4e 1b 3e 44 60 ac bd
       -0.05706163 -0.08099234 0.15166683 -0.08416799
000040 c5 a2 84 3d 22 9a c0 bd 8b 88 08 bd 09 2f a0 3d
       0.06476358 -0.094043985 -0.033333343 0.07821471
000050 33 8e 6d 3d 47 a6 f4 bd 92 04 3c bb 69 e3 42 3e
       0.05799694 -0.119457774 -0.0028689248 0.19032063
000060 8e e8 26 3e 65 b0 0e 3d 45 59 f2 bd a8 06 84 3d
       0.1629965 0.03483619 -0.11833433 0.06446582
000070 e9 26 c8 3d 34 0b ec bd 62 6f 32 3e 6d 92 bd 3d
       0.097730465 -0.11525574 0.17425302 0.09256444
000080 54 a6 eb bc bf 25 85 bc 1b 21 80 3d 22 be db bc
       -0.028765835 -0.01625335 0.06256314 -0.02682406
000090 52 0a a4 3c 96 4d 01 be 2b 8f 86 3d 1a b4 80 bd
       0.020024452 -0.12627253 0.06570276 -0.06284352
0000a0 0e 46 d8 bd 1d 1c 20 3d f3 83 3c 3d a9 59 c7 bd
       -0.10560237 0.03908931 0.046024274 -0.09733898
0000b0 e4 3f 1b be 17 96 2f 3e 72 48 11 3e 0a 26 25 bd
       -0.15161091 0.17147098 0.14187792 -0.04031948
0000c0 98 21 2a be 99 13 9b 3d 4d 3a c7 bc b0 f2 43 bc
       -0.16614377 0.07572097 -0.024319792 -0.011959717
0000d0 78 82 35 bd 93 8c 90 bd f9 b6 da bc 8a 9d 77 bc
       -0.044313878 -0.070580624 -0.026698576 -0.015113244
0000e0 63 38 8f bd 4f 9f 2f bd bb cd ba 3d 97 96 a0 bd
       -0.06993177 -0.042876538 0.09121271 -0.07841223
0000f0 a6 19 cb bd 87 8c 35 be 58 c7 df bd b6 7d 84 bd
       -0.099170014 -0.17729388 -0.10926694 -0.0646929

encoder.3.weight f4 [128, 64, 3, 3]
000000 e1 f7 a8 bc 67 5b 13 bd 56 15 4c 3c ec 92 1c bb
       -0.02062601 -0.03597584 0.012456259 -0.0023891283
000010 bd ee fd 3c 05 61 c7 3c 44 b3 05 bd b6 c1 33 bc
       0.030997628 0.024338255 -0.032641664 -0.010971477
000020 d3 c1 ca bc b0 5c 05 3d c3 d1 10 3d a0 9f 81 3c
       -0.024750626 0.032559097 0.035356294 0.015823185
000030 8f b2 8a 3c fd 25 18 3b 36 df b3 3c 42 03 74 bc
       0.016930846 0.0023216002 0.021957021 -0.014893355
000040 40 f1 e0 3b cf 4a fd 3c ac e7 25 3d 55 69 9f 3c
       0.0068646967 0.03091946 0.040504143 0.019459406
000050 ec dd bd bc 02 80 d2 3c 02 ac 04 bd 09 c7 94 bc
       -0.02317711 0.025695805 -0.032390602 -0.018161314
000060 83 05 9a 3c de 08 cd 3c 98 64 15 3d e0 f9 06 3d
       0.018801456 0.025028642 0.036472887 0.032953143
000070 bc 57 0c 3b c8 36 05 3c 58 f3 68 bc 69 67 0d 3b
       0.0021414598 0.008130737 -0.014218174 0.002157653
000080 5a c3 ba bc fc de 6e bc 88 28 cc 38 91 41 a0 3c
       -0.022798229 -0.014579531 9.7350276e-05 0.019562514
000090 6b bd ff 3b 1e 21 dd 3c 42 0a 13 bd b0 07 0a bd
       0.007804563 0.02699333 -0.035898454 -0.033698738
0000a0 0e 35 79 bc 00 50 27 3d 3d 52 f1 3a d2 17 1f 3d
       -0.015210403 0.04084778 0.001841135 0.038841076
0000b0 fb 3b 24 bd 82 f7 6d bc c7 3a 09 bc 84 1c 29 3a
       -0.040096264 -0.0145243425 -0.00837583 0.00064510875
0000c0 d4 8d ce 3c 3a cf 01 3d dd f2 69 3b 47 17 90 3c
       0.025214113 0.031691767 0.0035697736 0.017589225
0000d0 a6 f9 af 3c dc 82 3e ba f1 0c 2b 3d 58 87 03 bd
       0.021481346 -0.00072674244 0.04176039 -0.032111496
0000e0 17 1d 94 3c 7e 52 57 3c 3a 02 66 bc 56 c4 0a 3d
       0.018080277 0.013142226 -0.014038617 0.033878647
0000f0 79 bf 16 3d 4e ca d9 3c d7 40 27 3c d0 5f b0 ba
       0.036803696 0.026585724 0.01020833 -0.0013456289
000100 35 21 d9 bb 46 9a 1d 3d e1 59 d5 bc 54 32 0a bd
       -0.006626273 0.038477205 -0.026043834 -0.033739403
000110 d6 fe dc 3a c8 d2 09 3d 5a a5 a6 3c 67 48 82 bc
       0.0016860615 0.033648282 0.020342518 -0.015903665
000120 81 ec ab 3b c7 05 f6 bc a3 73 3e bc 43 49 0f bc
       0.0052466993 -0.030032052 -0.01162425 -0.008745494
000130 03 fe 02 bc e7 f0 f4 ba f4 78 78 3c 42 07 06 bd
       -0.007995131 -0.0018687517 0.015165556 -0.032721765
000140 33 bc 05 3d 4a b3 0b bd 3d 69 06 3d 12 f1 07 3b
       0.032650184 -0.03410653 0.032815207 0.0020743054
000150 b5 dd 18 3d ca e7 23 bd 84 87 d0 3c 27 de 2d 3c
       0.03732081 -0.040015973 0.025455244 0.010612047
000160 b5 f1 1d bd 87 22 22 3d 17 52 3e 3c eb f5 1e bd
       -0.038560588 0.03958371 0.011616251 -0.038808744
000170 f7 5f 3b 3b f6 ee 58 bc e3 e5 09 bd 01 6e 08 bc
       0.0028591135 -0.0132405665 -0.033666503 -0.008327008
000180 c3 30 0a bd cd 58 1d bd cc 36 bd ba 9c ae d1 bc
       -0.03373791 -0.038414765 -0.0014435886 -0.025595956
000190 c9 bd d5 bc 8b 9f e2 bc c7 b9 da bc 5f e6 e8 3b
       -0.026091473 -0.027663967 -0.026699914 0.0071075405
0001a0 da 5d a2 bc 1c 69 85 39 4d 4e 93 bb 4f 36 9b 3c
       -0.019820143 0.0002544605 -0.004495418 0.018946795
0001b0 1c e0 9b 3c 9d e4 50 3c 58 fe 16 bd e6 a4 11 3d
       0.019027762 0.012749818 -0.036863655 0.03555765
0001c0 28 97 c7 3c a9 0c 15 3d 3d ca 00 bd c3 a4 d7 bc
       0.02436407 0.036389027 -0.03144287 -0.026323682
0001d0 be ae d9 bc 56 4b fd ba 0d 07 cd 3c 9e ca fa 3c
       -0.026572581 -0.001932482 0.025027776 0.030614194
0001e0 9a 19 ce bc 49 db 0f bd d3 78 ae bc b3 f6 21 bc
       -0.025158692 -0.035121236 -0.021297848 -0.009885478
0001f0 ca cb 0c bd 05 53 f0 bb b1 36 1d 3d d8 c2 c0 bc
       -0.034374036 -0.0073341154 0.038382236 -0.023530409
000200 20 80 86 3c 1b bc 54 bc 2b c0 16 3d 08 58 05 bd
       0.016418517 -0.012984301 0.03680436 -0.032554656
000210 fb e2 14 bd 31 3e c2 bb 99 5c 11 3c 8c 3a 93 3c
       -0.036349278 -0.005927824 0.008872175 0.017972253
000220 03 f5 b3 3a 5b b9 0f bd bc 73 e2 3c 74 3e a6 bc
       0.0013729635 -0.035088878 0.027643077 -0.020293452
000230 7c 49 2b 3d 27 5a f5 3c ea fa 3d bc 4d 37 a2 bc
       0.041818127 0.029950215 -0.011595467 -0.01980176
000240 93 c9 9e bc 4b 1c 8f 3c 9e 97 22 3d 7a 22 b1 bc
       -0.019383227 0.017469546 0.039695375 -0.021622885
000250 82 89 9c bc af 9c 46 bb 79 f0 53 3c 06 89 55 3c
       -0.019108538 -0.0030305793 0.012935751 0.013033157
000260 97 e5 55 b9 2f 51 90 bc a8 73 d3 bc 04 48 ed bc
       -0.00020398792 -0.017616836 -0.025811985 -0.028965004
000270 43 17 da 3c 1c 26 28 3d 75 d2 1b bd dc e5 d6 38
       0.02662242 0.04105197 -0.038042504 0.0001024713
000280 ee e7 23 bd 9a 97 dc bc a1 54 a9 bc c8 45 08 3d
       -0.040016107 -0.026927758 -0.020670237 0.033269674
000290 03 fc b6 39 81 b6 0a bd 3b 96 a0 bb 9b 88 8e bc
       0.00034901508 -0.033865456 -0.0049007214 -0.017399123
0002a0 e1 d0 87 bc 25 0f 0d bd 1c f1 57 bc d3 88 66 bc
       -0.016579093 -0.03443827 -0.013180044 -0.014070707
0002b0 35 6a 92 3a 78 52 1c 3d e1 9e 20 bd 23 fb e8 3c
       0.0011170568 0.038164586 -0.03921402 0.028440064
0002c0 39 dc c7 bc 0b 81 36 3a 8e 6f 4d bc 44 f4 e3 bc
       -0.024397003 0.0006961978 -0.012538804 -0.027826436
0002d0 d9 73 b5 3b d9 2c 0f bd c8 64 21 37 01 9f 09 bd
       0.0055374918 -0.03495488 9.619813e-06 -0.033598904
0002e0 dd 10 5f bc c2 40 bb 3c 8e 31 eb bc cf 91 85 bc
       -0.01361486 0.022858027 -0.028710153 -0.016304879
0002f0 28 ea a2 3c 58 45 0d bd 27 92 80 39 f8 94 59 bb
       0.019887045 -0.03448996 0.00024522954 -0.0033200365
000300 88 e9 c4 bc 5b 54 bd 3c c4 09 1d 3d e8 89 dc bc
       -0.024037138 0.023111513 0.03833939 -0.026921228
000310 ce 48 10 bd 67 b3 b3 3a 7f 89 00 bc c0 7e 9b 3c
       -0.035225682 0.0013710082 -0.007845282 0.018981338
000320 90 b7 fa 3c b8 0e 27 3c 5a 28 3f 3c 35 ad 27 39
       0.030605108 0.01019638 0.011667335 0.00015990886
000330 4c 9f 05 3d 51 fd 13 3d ff c1 bb bc 1a 3a 5a 3c
       0.03262262 0.036130253 -0.022919653 0.013319517
000340 2d a4 fe bb 9e 64 0f bd 3a 98 c3 3c 1e a2 90 3b
       -0.007771036 -0.035008065 0.023876298 0.004413857
000350 18 18 eb 3c 5d 46 7f 39 34 c0 0b 3d fe cb 74 bc
       0.028698012 0.00024344907 0.034118846 -0.014941214
000360 24 a5 ca 3c 83 08 82 bc 3e d4 78 bc c5 49 25 3c
       0.024736948 -0.0158732 -0.015187321 0.010088389
000370 02 91 05 3d 3a e9 db bc 57 0d 98 3b d3 52 55 bc
       0.032608993 -0.02684461 0.004640262 -0.013020235
000380 05 03 a7 3c c7 99 1b bc 5e b7 b6 3c 73 50 14 bd
       0.020387182 -0.009497113 0.022304233 -0.036209535
000390 84 ff a7 bb 60 14 0d 3d 24 d9 04 3b 0f 0f 4e 3c
       -0.0051268954 0.03444326 0.0020271027 0.012576832
0003a0 b1 13 7f bc 52 ca 08 bc aa 08 e3 3c 81 d4 17 bd
       -0.01556866 -0.008349018 0.027714092 -0.037067894
0003b0 01 d3 77 3c fe f7 24 3d 9f 74 81 bc de 52 1c 3c
       0.015125991 0.040275566 -0.01580268 0.009541241
0003c0 d2 85 1e 3d 19 3f 03 bd e8 69 c8 bb d8 01 dc bc
       0.03870184 -0.032042596 -0.0061161406 -0.026856348
0003d0 f3 b9 23 3d 5e 9f d0 3c 51 b1 f6 3c 6b 30 0c 3c
       0.039972257 0.025466617 0.030113848 0.008556466
0003e0 69 3b fb bc 4d c7 fc 3c d2 6b 87 3b 69 cd c8 bc
       -0.030667977 0.030856753 0.004132726 -0.02451201
0003f0 2f b9 81 3c 9e 5c 8a 3a ec 7e 11 bd a8 46 14 bb
       0.015835373 0.0010556167 -0.035521433 -0.0022625122

encoder.3.bias f4 [128]
000000 0f 26 1e bd 7b 37 38 bc 68 cc 23 3d b5 bf ed 3c
       -0.038610514 -0.011243696 0.03998986 0.029022077
000010 4b 54 d5 bb 08 11 24 bc e5 a7 ff 3c b3 e3 e3 bc
       -0.0065102926 -0.010013826 0.031207988 -0.027818536
000020 97 58 14 bc 6d 9d ee bc e0 db bf bb b1 99 49 3c
       -0.009054325 -0.0291278 -0.0058550686 0.012304709
000030 bb 9d 04 bc ad e3 f3 3c 1a d5 fa 3c 3a 1b 1f bd
       -0.0080942465 0.02977165 0.030619193 -0.038844325
000040 90 e7 02 3c 88 af d4 3b 9b 22 91 3c 32 fb 11 bc
       0.007989779 0.0064906515 0.017716696 -0.008909987
000050 e3 c3 76 3c 32 d4 19 bd 96 e4 c3 bb af 74 0d bd
       0.0150613515 -0.03755588 -0.0059781773 -0.034535106
000060 15 b8 fe bc 2a 19 c0 bb f0 b8 fa 3c ca ee 2c 3c
       -0.031093637 -0.005862375 0.030605763 0.010554979
000070 21 48 07 3d 76 a5 d6 bc 74 34 8a bc a8 71 e4 3c
       0.03302777 -0.026201945 -0.016870715 0.027886227
000080 cb c7 d2 3c a6 24 99 bb 89 6f a0 bb 82 90 d2 3b
       0.025730034 -0.0046735583 -0.0048961085 0.006425918
000090 67 0e b6 bc f2 38 bd bc a9 15 d4 bc 8c c0 13 3d
       -0.022223664 -0.023098443 -0.025889235 0.0360723
0000a0 f9 27 84 ba 7e c8 12 bd 82 5a 0e 3d 1e b4 ff 3b
       -0.0010082714 -0.035835735 0.034754284 0.007803454
0000b0 b4 79 e2 bc 54 4a 11 3c 4e a2 9a bc 01 14 25 3d
       -0.027645923 0.008867819 -0.018876221 0.04030228
0000c0 dc 3d be bc 09 82 bf 3c f2 95 f8 3c fe e2 91 bc
       -0.023222856 0.023377435 0.030344937 -0.017808434
0000d0 03 4c c9 3b 57 1e 31 3c 1c 85 a8 3c a2 63 d7 3c
       0.0061430945 0.010810456 0.020571284 0.026292626
0000e0 e3 98 6b b9 5f b3 1b 3d cb b3 0c 3d 95 85 27 3d
       -0.00022468301 0.03801286 0.03435115 0.040898878
0000f0 72 06 92 3c 3f a7 aa 3c cb b9 02 bd f0 aa 61 3c
       0.017825339 0.020831702 -0.031915467 0.013773665
000100 ec 41 13 bb a7 4f c0 3c 21 1d b3 3c 80 d5 00 bd
       -0.0022469712 0.023475481 0.021864476 -0.03145361
000110 f7 bd 0a bc fc e3 23 3a 06 0d 03 bd 04 6e 12 bc
       -0.008468143 0.0006251929 -0.031994842 -0.008937363
000120 9b bc 5a bc 41 77 15 bb 5e 68 87 3a f3 c8 b8 bc
       -0.013350631 -0.0022806677 0.0010330786 -0.022556758
000130 6f 9d 26 bd 0f 13 94 bc 0d c1 57 3b f7 91 80 3c
       -0.040677484 -0.018075494 0.0032921464 0.015694601
000140 d1 bd 33 bc 74 b5 1e 3d 1b 47 b5 bc d3 6b 1f 3d
       -0.010970549 0.038747266 -0.022128632 0.03892119
000150 ab 0e bf 3b 0e d0 81 bb ef 4d 11 3c 49 1d 7c bc
       0.005830606 -0.0039615696 0.0088686785 -0.0153878415
000160 82 3e c9 bb 1f 95 d1 3c c9 64 47 bc 97 8b 1c 3d
       -0.0061414847 0.025583802 -0.012170025 0.03821906
000170 d7 12 ad bc cd 3e 1d 3d 53 ee 99 bc a2 02 e8 bc
       -0.021127148 0.03838997 -0.0187904 -0.028321568
000180 a9 2f a2 3c 32 e1 1e bd 98 72 13 bd 19 ea 0a 3d
       0.019798117 -0.03878898 -0.035997957 0.03391466
000190 01 ac 84 bb 9b 56 fc 3c f0 cf ae 3c 1f b9 1f bd
       -0.004048825 0.030803015 0.021339387 -0.038994905
0001a0 a1 6b d5 3b 3e a0 9a 3c bc 98 30 bc 6a 0a 20 bd
       0.0065130745 0.018875238 -0.010778602 -0.03907243
0001b0 e0 f9 94 3c c4 6b 21 3d c7 41 87 3c 6e 2c c0 3c
       0.018185556 0.039409414 0.016510857 0.023458686
0001c0 21 89 9b 3c ce e8 06 3d f3 35 f1 3b 17 fc 13 3d
       0.018986287 0.032936864 0.0073611676 0.036129083
0001d0 20 11 c1 3c 37 ab 02 3d ec a4 e7 3b 44 60 00 bd
       0.023567736 0.031901564 0.0070692208 -0.031341806
0001e0 ef 1a c4 3c 85 41 17 3d 79 4b 0e bd 90 97 1b bc
       0.023938624 0.03692772 -0.034739945 -0.009496585
0001f0 e3 41 cb bc 40 3c 0a bd be bc 5a bc bc 5c 49 bc
       -0.02481169 -0.033748865 -0.013350664 -0.012290176

decoder.0.weight f4 [64, 128, 3, 3]
000000 53 6a a6 bc b1 5a 82 3c 3d 6a f1 3c d7 3f f5 3c
       -0.020314371 0.015912386 0.029469604 0.029937668
000010 66 86 38 bc 69 e5 21 3c 06 cf a4 bc dc e7 2f 3c
       -0.011262512 0.009881356 -0.020118248 0.010736432
000020 e8 29 47 bc 25 f3 cd bc 9f 74 dd bc 76 7d b1 bc
       -0.012155987 -0.025140354 -0.027033148 -0.02166627
000030 f8 a5 79 bc ea 98 ea bb 9a ce 82 3c a2 ee 3f bc
       -0.015237324 -0.007159342 0.015967656 -0.011714609
000040 19 1d ba bb 71 2e 5c 3c dc 75 05 bc 16 d0 55 bc
       -0.0056797382 0.013438807 -0.008145776 -0.0130501
000050 10 52 41 3c 27 32 23 bc 2e 56 95 3c a7 3a d6 3a
       0.01179935 -0.009960688 0.01822957 0.0016344384
000060 49 d9 e8 bc 58 50 bc 3c b0 48 c3 bb 58 69 e0 3c
       -0.028423922 0.02298753 -0.0059595928 0.027393982
000070 87 6b 36 bc 78 34 2a 3c f6 a5 c3 bb 4a 40 b4 bc
       -0.011134035 0.010388486 -0.005970712 -0.022003312
000080 83 e9 d4 3c 18 2c 5e 3c 3b 1f b7 ba b0 c7 a9 3b
       0.025990253 0.013560317 -0.0013971099 0.0051812753
000090 b1 60 56 bb a7 03 b1 bc 3e 1c 60 bc 86 2d 58 3b
       -0.003271144 -0.021608187 -0.013678608 0.0032986118
0000a0 10 e1 cc bc e3 b5 f5 bb 1e f1 57 bc 00 da b1 3c
       -0.025009662 -0.007498489 -0.013180045 0.021710396
0000b0 04 09 47 bb ba 50 2f 3c e4 81 98 bb 5b e5 4d bc
       -0.0030370364 0.010700399 -0.004654156 -0.01256689
0000c0 14 99 89 3c 27 9b d7 b9 a3 28 e6 bc e6 73 b5 bc
       0.016796626 -0.00041123593 -0.028095549 -0.022149991
0000d0 7b 12 e6 3b 21 93 cb 3c ae 7e 31 3b 13 57 ef 39
       0.007021246 0.02485043 0.0027083564 0.00045650508
0000e0 60 e9 31 bc 8a f9 84 bc 47 87 a8 bb a2 b5 d8 bc
       -0.010858864 -0.01623227 -0.0051430794 -0.026453797
0000f0 a7 fa 19 3c 03 6d d3 3c 7b a1 ea 3c c5 0a 78 bc
       0.009398139 0.025808817 0.028641453 -0.015139286
000100 45 c3 9e 3c 1b c1 34 bc 45 df f7 3c 06 95 9c 3c
       0.019380221 -0.011032368 0.03025783 0.019114029
000110 a1 42 0a bb 6f 92 b5 3b 1b 84 1f 3c c1 87 6f bc
       -0.0021096843 0.005541138 0.009736086 -0.014619769
000120 ff 32 eb bb 6b 1b 62 ba 9c 00 77 bc 51 37 b1 3c
       -0.00717771 -0.00086253014 -0.015075829 0.021632822
000130 0d 6c d5 bb 6d 30 a7 bb 39 cc e1 3c af 20 c7 3c
       -0.006513125 -0.0051022083 0.027563201 0.024307577
000140 5b 96 f7 3c f1 1b 5d 3c d8 25 c6 3b ea cf 8e 3b
       0.030223062 0.013495431 0.006046992 0.0043582814
000150 1f 67 76 bb 04 b3 ad 3b d5 fe ea 3c 46 d1 dc 3c
       -0.0037598086 0.0053008813 0.028685967 0.026955258
000160 5a 78 48 3b 3b 9d eb ba 35 a9 45 3c c5 62 95 3b
       0.0030589313 -0.0017975935 0.012064268 0.0045588934
000170 38 b5 8c 3c 1b a9 13 3c c0 ae b6 3a fc fc 7e 3c
       0.017176256 0.009012486 0.0013937578 0.015563246
000180 96 42 2b bc bb b3 91 3b 90 b9 a9 3c 99 83 8f 3b
       -0.010452887 0.0044464744 0.020718366 0.0043797013
000190 5c a6 69 3c 4b de db b9 21 22 cc 3b ac e0 a7 3a
       0.014260855 -0.00041936556 0.0062296544 0.0012808046
0001a0 a3 30 3b bc c3 c5 ed 3c 28 15 e2 3c 62 7e c8 3c
       -0.01142517 0.029024964 0.027597979 0.024474327
0001b0 f1 42 09 3b 98 ee dc bb 98 a4 76 3b 44 69 ea bb
       0.0020944441 -0.00674231 0.0037634727 -0.007153662
0001c0 ce 25 49 bc 09 b9 55 bc 21 c4 dd bc 50 d8 bb bc
       -0.01227708 -0.013044604 -0.02707106 -0.022930294
0001d0 ea 0d bf bc 57 99 97 3b c5 2e f9 3c ea 97 d8 bc
       -0.023322064 0.004626434 0.03041781 -0.026439626
0001e0 fc 50 84 3c e6 be ec 3c d5 c3 69 bc 8c ec 97 3c
       0.016151898 0.028899621 -0.014267881 0.018545412
0001f0 c8 fa c6 3c bb bb 19 bc c3 fb 81 3c d2 ca 43 3c
       0.024289504 -0.009383137 0.01586712 0.011950212
000200 87 1d d6 b9 6b d2 a6 3c 46 5f 8c 3c 49 21 c2 3c
       -0.0004083926 0.020364007 0.017135274 0.023697512
000210 20 58 a5 3c b2 58 80 bc 3d ec 8f 3c 2c e8 8e bb
       0.020183623 -0.015667293 0.017568702 -0.004361173
000220 57 6d d0 bc db 68 06 3c b7 46 a5 39 49 be f7 3c
       -0.025442762 0.00820371 0.0003152394 0.030242102
000230 79 75 3f bc 50 fa 46 3b 00 6f c2 bb a4 e6 8a bc
       -0.0116857225 0.00303616 -0.0059336424 -0.016955681
000240 03 44 68 3c 6c 07 bb bc df e5 a9 3b 53 d6 28 3b
       0.0141763715 -0.022830687 0.0051848735 0.0025762513
000250 5d 04 27 bb ca d0 12 3c 52 f8 02 bc 53 8a e3 bc
       -0.0025484778 0.008960912 -0.0079937745 -0.027775919
000260 85 03 58 3c 05 82 b7 3c 27 51 c4 3c 9d 01 83 3a
       0.013184433 0.022400865 0.023964478 0.0009994988
000270 d3 8c ff 3b 83 c0 e5 3c 3f ca 84 bc 6f b7 f7 ba
       0.00779877 0.028045898 -0.01620972 -0.0018899272
000280 84 f2 a1 3c d9 6e c8 3b 67 91 be 3c a3 3d 88 bc
       0.01976896 0.0061167297 0.023262693 -0.016630953
000290 6f ed 0a bb ab 39 3c 3c ed f8 c0 bc 5b 6d 68 3c
       -0.002119865 0.0114883585 -0.023556197 0.014186229
0002a0 29 7c b4 bc d4 a9 e9 3c 97 73 11 3c 5f 5c 0d bc
       -0.02203186 0.028523363 0.008877656 -0.00862798
0002b0 cc 34 d6 3c 84 f9 2c bc c4 70 f5 3c 62 58 45 bc
       0.026148222 -0.010557536 0.029960997 -0.012044998
0002c0 bd 48 f7 3b 9e b8 dc bc 54 c0 b4 bc 31 9b d8 bc
       0.007546513 -0.026943501 -0.022064365 -0.026441189
0002d0 82 7a df bc bb 26 68 3c ea 57 6a bc 32 20 97 bc
       -0.027280096 0.01416939 -0.014303187 -0.01844797
0002e0 5e 76 af bc 56 92 96 bc ce 80 ec 3b f9 47 b3 3b
       -0.021418747 -0.018380325 0.007217503 0.0054712263
0002f0 69 a0 60 bc d5 ea c7 3c 93 e6 56 3c 5a 66 9b bc
       -0.01371012 0.024403969 0.013116497 -0.018969703
000300 b3 38 e8 3c b9 56 c6 39 24 72 11 3c 0a 39 80 bc
       0.028347349 0.00037830116 0.008877311 -0.015652198
000310 23 95 2c bc 7e 61 e3 b8 ad 63 9d bc 7f 05 fa b9
       -0.010533604 -0.00010842363 -0.019212568 -0.0004768781
000320 14 1e b1 3a 36 53 46 3c 8e d5 d1 3c e5 dd b2 3c
       0.0013512992 0.0121048 0.025614526 0.021834323
000330 15 d8 80 bb 39 7a 3f bb a2 cb 93 bb 75 ea 6f bc
       -0.003932009 -0.0029217137 -0.004510359 -0.014643301
000340 61 e6 60 3c 87 3d f8 3c 1c f2 4e 3b 95 a7 9a 3b
       0.013726802 0.030302776 0.0031577414 0.0047196844
000350 4e d2 b1 bc e8 c7 8e 3b bc a0 f7 3b b8 85 68 bc
       -0.021706726 0.004357327 0.007557003 -0.014192037
000360 3a 1b b3 bc 13 42 bf 3a 05 82 92 bb a0 33 3f bc
       -0.021863569 0.0014591835 -0.004471066 -0.011670023
000370 bf 4d d0 3a 3f 02 f2 39 1f df 38 3c 66 ba d6 bc
       0.0015892311 0.0004615951 0.011283665 -0.026211929
000380 ba 5f be bb 9a f3 e7 bc 70 76 84 3c 94 bc c2 bc
       -0.0058097513 -0.0283144 0.016169757 -0.023771562
000390 f9 77 d3 bc 21 54 53 3c 6b 8c d7 3b d4 e3 e0 bc
       -0.025814043 0.012898476 0.0065780184 -0.027452387
0003a0 72 0c 36 3c 09 48 91 bc 9c f4 b3 bc a2 83 83 bc
       0.011111366 -0.017734544 -0.021967225 -0.016053978
0003b0 ef e9 d1 3c 5b 11 a1 3c 81 5c 86 bc 24 8e 8e ba
       0.025624244 0.019661596 -0.016401531 -0.0010876101
0003c0 8b c0 a8 bc f8 42 b6 bc 37 3a df bb 39 55 84 3b
       -0.020599624 -0.02224873 -0.0068123597 0.0040384796
0003d0 a5 42 ab bc d1 0d 95 bb c2 85 75 3c ab 25 f3 3c
       -0.020905802 -0.004548766 0.014985504 0.029681047
0003e0 bc 56 26 3c b1 9c 02 3b 6f 8a c1 bc ae bd bf bc
       0.010152515 0.001992982 -0.02362558 -0.023405876
0003f0 b3 98 aa bc 92 1d 88 bc 23 a8 22 bc 75 92 ae bc
       -0.020824766 -0.016615663 -0.009927782 -0.02131007

decoder.0.bias f4 [64]
000000 24 6c 9d 3c 69 43 e6 3b 30 41 6f 3c 3a 11 ae 3c
       0.019216605 0.007027079 0.014602944 0.021248449
000010 08 9f 91 3c 40 fb 18 bc 18 92 e7 bb 67 93 cc 3c
       0.017776027 -0.009337246 -0.0070669763 0.02497263
000020 d7 13 a0 3c ae 5b e4 3c 92 03 5c 3c 5f 69 e7 bc
       0.01954071 0.027875748 0.013428586 -0.028248487
000030 98 cd 9d 3c 46 cf 62 3c 2e 46 42 3c ad d2 0b bc
       0.019263074 0.013843363 0.011857552 -0.008534116
000040 db af d7 3b 67 30 8d bb 30 17 66 bb 42 e5 0b 3b
       0.006582243 -0.0043087485 -0.0035109036 0.0021346365
000050 bc c3 30 bb ad bf 92 bc b5 2d a4 bc e2 b3 13 bc
       -0.0026972136 -0.017913664 -0.020041326 -0.009015055
000060 d3 e7 b0 ba 74 8c ca bc c9 e0 4c bb b9 2e 86 bc
       -0.0013496823 -0.024725176 -0.0031261912 -0.016379701
000070 da 7b da 3c 04 1f 98 3c 73 8c 22 3c 1c 6f 7b 3b
       0.026670385 0.018569477 0.009921181 0.0038365787
000080 d5 e9 ca 3b fa 1c 55 bc 81 47 51 bc a5 ff cf bc
       0.0061924257 -0.013007397 -0.0127733955 -0.025390455
000090 9f 1b c5 3c 3f b9 20 3c ea 36 23 b9 26 f5 7e 3c
       0.024061022 0.009809791 -0.00015565348 0.015561378
0000a0 23 e3 ea 3c 75 f0 27 3c 85 00 6e 3c 36 96 8a 3c
       0.02867276 0.0102502005 0.014526491 0.01691733
0000b0 94 93 bd bb 82 a1 96 3b 8c a1 f2 bc 69 f1 78 3c
       -0.005785415 0.00459689 -0.029618047 0.015194275
0000c0 c6 23 c0 bc 97 49 90 bb 4e 6b b5 bb 72 46 81 bc
       -0.023454558 -0.004403304 -0.0055364734 -0.015780661
0000d0 eb 21 b8 3c c0 7b 20 3a 17 29 1f 3c a7 05 e8 bc
       0.02247711 0.0006121956 0.009714386 -0.028323008
0000e0 d6 04 4c bc 9e ac 07 3c b1 38 dc 3c 08 e7 db 3c
       -0.012452325 0.008280901 0.026882501 0.026843563
0000f0 96 d6 e1 3c 47 e2 dc 3c 26 16 55 bc 64 21 34 bc
       0.027568143 0.026963366 -0.013005769 -0.010994289

decoder.3.weight f4 [32, 64, 3, 3]
000000 26 70 fd bc 41 f5 04 3d 7d 8d 82 bb 52 08 83 bc
       -0.030937266 0.032460455 -0.003984152 -0.015995178
000010 83 8f 84 bb 45 14 d3 3c ce fb fa bc 9c 27 0a 3d
       -0.0040454282 0.025766501 -0.030637648 0.03372918
000020 82 7c 9a 3c 87 0a d7 3b b4 61 dd 3c f1 6f 97 3c
       0.018858198 0.0065625343 0.027024128 0.018485995
000030 f7 92 32 3b c5 b5 3d 3c 39 9c a2 bc 10 c4 ca 3c
       0.0027248242 0.011578982 -0.019849883 0.024751693
000040 45 e5 08 3d 59 ea 83 3c 0d 4d ed 3c 30 fd 13 3b
       0.033421773 0.016102957 0.028967405 0.0022581331
000050 2e ec cc bc ea 0e ac 3c 3b ea 94 bc c5 0f 02 3c
       -0.025014963 0.021003205 -0.018178096 0.00793833
000060 55 58 a0 3c 23 ae 15 3d d7 2b 71 ba 4d e6 ca bc
       0.01957337 0.036543023 -0.0009199953 -0.02476802
000070 ef 2f 6f 3c 03 24 a8 3c 1b 47 60 bc 90 04 ea bc
       0.014598831 0.020524984 -0.013688828 -0.028566629
000080 c6 a6 18 bc fd bd 27 bc cd 9d 90 bc 73 93 d7 3c
       -0.009317106 -0.010238168 -0.01765337 0.026315426
000090 ac 03 bf 3b 1a 54 c5 bb 56 8a 6f bc 13 66 c1 3c
       0.005829295 -0.0060219886 -0.014620384 0.023608243
0000a0 72 66 18 3c 4a 2e 17 bd 9a 66 d3 bb 56 8c af bc
       0.009301769 -0.03690938 -0.00645144 -0.021429222
0000b0 dc d7 80 3c 1f 6e 14 3c 69 eb d8 3c e4 a6 76 3c
       0.01572793 0.009059458 0.02647944 0.015054438
0000c0 1b 69 aa bc 92 e0 11 3d 62 e6 e0 3b 4d 50 17 3d
       -0.020802071 0.035614558 0.0068634013 0.036941815
0000d0 38 55 2b 3b 84 f6 04 bd cc ff 74 3c ed 2b e6 bb
       0.0026143324 -0.032461658 0.014953565 -0.0070242793
0000e0 a8 16 cb bc 8e d9 cc 3c d7 71 f6 bc 01 be 2a 3b
       -0.024791077 0.025006082 -0.03008358 0.0026053193
0000f0 75 60 b4 3b e6 1a 08 3d c0 58 02 3d ed c8 0f 3d
       0.0055046626 0.033228777 0.03182292 0.035103727
000100 72 34 93 3b 9c b0 13 3d 8f 3e a8 bb f6 1b 49 bc
       0.004492336 0.0360571 -0.0051344107 -0.012274733
000110 79 8e 7d 3c 11 f6 bd 3c f1 6f 2d bd 89 7a 82 ba
       0.015475863 0.023188623 -0.042343084 -0.0009954731
000120 2f ff c0 3a ab 67 1f 3d 23 04 05 3d 26 94 84 bb
       0.0014724488 0.038917225 0.03247465 -0.004045981
000130 b5 41 04 bd fa db f4 bc 0a e7 c0 3c b1 73 5c bc
       -0.032289226 -0.02989005 0.023547668 -0.013455317
000140 90 b4 c8 bb e3 92 a2 3b 47 5f c5 bc e4 5c ec bb
       -0.0061250404 0.004961358 -0.024093283 -0.007213222
000150 6e 65 27 3c fa 63 be bc 06 19 99 bc c0 f6 07 bd
       0.010217054 -0.023241032 -0.01868869 -0.033194304
000160 e9 ae 19 bc 5c 5f de bc b9 cc ca 3c a7 7d 5c bc
       -0.009380081 -0.02714508 0.024755822 -0.013457692
000170 bf b8 86 3c 2a 87 fe bc d9 89 21 bc cf 6d f7 3c
       0.016445516 -0.03107031 -0.009859526 0.030203728
000180 32 f5 9d bc 4f e2 99 bc ed dd 93 ba b6 0e 04 bb
       -0.019281957 -0.01878467 -0.0011281349 -0.002015037
000190 b2 ee 98 bc fd fe 0e 3b ae a6 d2 3c b0 e8 08 3d
       -0.018668506 0.0021819465 0.025714245 0.033425033
0001a0 21 84 a9 ba 3f 1c 08 3d 1e 4c 0b bc 78 25 26 bd
       -0.0012933054 0.033230063 -0.0085020345 -0.040563077
0001b0 e5 62 25 3d 0c d9 fb bc b3 f2 1f bb 76 51 cb bc
       0.040377516 -0.030743144 -0.0024406135 -0.024819117
0001c0 f7 b9 7a bc 0d 01 c6 bc 7f 4e 8f bb 9d fb fa bc
       -0.015303127 -0.024170423 -0.004373371 -0.030637557
0001d0 fd 85 b6 bc 71 43 da bb 51 74 24 3d 67 17 32 bc
       -0.022280687 -0.0066608717 0.04014999 -0.010869837
0001e0 6f 94 c5 3b cf 23 03 bd 59 d9 97 bc d0 96 1a bc
       0.0060296576 -0.03201657 -0.018536257 -0.009435371
0001f0 ee 19 ce bc c1 00 70 bc 12 14 4a bb 93 ab f3 3c
       -0.025158849 -0.014648617 -0.0030834717 0.029744899
000200 66 93 42 bc 50 0b 55 bc 29 90 43 3b 56 ed 96 bb
       -0.011875963 -0.013003185 0.0029840565 -0.0046059294
000210 3b c4 78 3c 27 85 93 3b 8a ca 10 bd 5d 97 9d 3c
       0.015183504 0.004501957 -0.035349406 0.019237215
000220 9b ec 9b bc 06 71 64 bc 2f 89 16 3d 14 28 29 bd
       -0.01903372 -0.0139429625 0.036751922 -0.041297987
000230 78 82 c0 bc f0 9a d8 3c 39 ac 10 bd 32 e5 73 3c
       -0.023499712 0.026441067 -0.035320494 0.014886187
000240 47 64 28 bd 48 5c a9 bc 57 ca 24 bd 75 17 b1 bc
       -0.041111257 -0.020673886 -0.04023203 -0.02161763
000250 e3 37 1c bb 3e 27 15 bd 2f 24 28 bd ae 19 52 3b
       -0.0023837022 -0.036414377 -0.041050132 0.0032058763
000260 61 93 a4 3c 43 c2 0e 3d 44 66 ce bc 8d 97 10 bd
       0.020089807 0.03485323 -0.025195248 -0.03530078
000270 f3 42 06 bd 56 2f 5c bb 98 7d 1f 3d 99 38 64 bc
       -0.03277869 -0.003359755 0.038938135 -0.01392951
000280 39 13 bf 3b 26 dc 2c 3c 1f c2 1d 3d 50 57 a3 bc
       0.005831149 0.010550534 0.038515206 -0.019939095
000290 f3 5c ae 3c 0d c8 e7 bc 27 c5 bc bc 4e 84 1d bd
       0.021284556 -0.028293634 -0.023043228 -0.038456254
0002a0 48 d6 fd bc 8f ec 08 3d 91 28 01 bd 22 82 a1 3c
       -0.030985966 0.033428725 -0.031532828 0.019715372
0002b0 16 99 24 3d 88 9b 1a bc b4 91 d1 bc 7e c0 c3 bb
       0.040185057 -0.009436496 -0.025582172 -0.0059738746
0002c0 97 54 35 3c 91 d3 aa bc 11 0c bd 3a 9a fb 05 3d
       0.011067531 -0.020852836 0.0014423152 0.03271065
0002d0 95 10 a8 3b 74 77 74 bb 9e 95 26 bd 2c 1a 02 3d
       0.00512893 -0.0037302645 -0.04067003 0.03176324
0002e0 30 d6 ba 3a 45 4c fd ba 7e f1 0f bd 82 d8 8e 3c
       0.0014254507 -0.0019325098 -0.035142414 0.017437223
0002f0 72 b4 6e 3a b2 20 87 bc 32 62 20 3d 9e cf 80 bc
       0.0009105868 -0.016495083 0.039156146 -0.015724
000300 41 69 f4 3a 17 31 b3 3c 52 c5 8e bc 97 21 1f bd
       0.0018647091 0.021873994 -0.017428074 -0.038850393
000310 4c a1 8e 3c 1d b6 9a 3c 42 0d d5 bc 51 2a 2d bc
       0.017410897 0.018885667 -0.026007298 -0.010569171
000320 b9 98 36 bc 33 4b 9b 39 18 6a 5e bc 9f 7c 85 3b
       -0.01114481 0.00029619932 -0.013575099 0.004073694
000330 c4 f5 8c ba f4 41 3e 3c b5 9b 2b bd 2b 9a d6 bc
       -0.0010754396 0.011612404 -0.04189654 -0.02619656
000340 ee c1 71 3b 65 9e e3 3c 90 63 98 bb 48 98 0b bd
       0.0036889273 0.02778549 -0.0046505406 -0.034080774
000350 b2 25 08 3d a0 f5 05 bd 7b 22 91 3c 67 64 1c bd
       0.033239074 -0.03270495 0.017716637 -0.03818169
000360 6d 2e bd 3c a7 55 e6 bc 87 1b d1 bb e3 6a 8f bc
       0.023093427 -0.028117014 -0.0063814553 -0.017507022
000370 b3 2e b0 3c 3d 09 55 3c d4 46 56 bb 9a 46 be bc
       0.021506643 0.013002691 -0.0032696025 -0.023227025
000380 ed 06 27 bd 7b 5e 1f 3d cf 2f 25 3c 0e 90 04 bd
       -0.04077809 0.038908463 0.010082199 -0.032363944
000390 fb 27 14 bd e2 d2 33 bc ec 20 ac 3c 7a 3b 94 3c
       -0.03617094 -0.010975571 0.021011792 0.018094767
0003a0 85 c4 03 3c 5b c1 89 ba c6 34 58 3a e7 f9 69 bc
       0.008042459 -0.0010509895 0.000824761 -0.014280773
0003b0 65 1a 29 bd a4 08 2b 3b 6f 9d 05 3d fb ff 8b bb
       -0.041284937 0.002609768 0.032620843 -0.0042724586
0003c0 50 8b 9c bc 22 4b 22 bd 35 50 00 bd 4d df 09 bd
       -0.019109398 -0.039622433 -0.03132649 -0.03366022
0003d0 f5 27 eb bc dc 9a 78 3c f0 7b e8 3c 60 c5 16 bd
       -0.028705576 0.01517364 0.02837941 -0.036809325
0003e0 3b 45 a1 bc d4 86 0b bd f4 04 d3 bc c2 1b 17 3c
       -0.019686332 -0.03406413 -0.025759198 0.009222927
0003f0 e7 fe de bc b8 76 3c 3b 6f 18 65 3a 35 85 82 bc
       -0.027221156 0.0028757285 0.00087392976 -0.015932659

decoder.3.bias f4 [32]
000000 a0 6b f9 3c 50 de c1 3c 7e 7e c7 bc 13 10 03 bd
       0.030446827 0.023665577 -0.024352308 -0.03199775
000010 9f 30 c8 3c e6 32 a6 3c 1f 13 18 bd d3 10 0b bd
       0.024437247 0.020287942 -0.03712761 -0.03395159
000020 75 38 06 3d eb 62 f4 bb dc d9 34 3c 7e c2 0a bd
       0.032768685 -0.007458081 0.01103827 -0.03387689
000030 a9 41 bf 3c e1 8b 2c 3b ba 28 e6 bc 90 6b 8f 3c
       0.023346739 0.0026328492 -0.028095592 0.017507344
000040 2f 74 8b bc f3 a4 8c 37 ca dc 15 bd 5c 9b 67 3b
       -0.017023174 1.6766111e-05 -0.036587514 0.0035340404
000050 c7 09 17 3d 41 0f 13 bd 10 10 d1 bb eb 4c c9 3c
       0.03687456 -0.03590322 -0.0063800886 0.02457281
000060 4a 9a a4 3b c6 41 20 bd b0 fe f5 3c 9e b0 e3 bc
       0.0050232755 -0.039125226 0.030028671 -0.027794179
000070 3e 97 eb 3c 2d 09 03 3d bc 2a fb 3c 9e 46 27 bd
       0.028758641 0.031991173 0.030660026 -0.04083883

decoder.6.weight f4 [1, 32, 1, 1]
000000 7c ab 02 3e 07 31 1e 3e 14 ac f4 bd 14 a2 b8 3d
       0.12760729 0.1544839 -0.11946884 0.09015289
000010 6f 9c 3a 3c a9 3f 01 be 79 2c 86 3c 04 92 ae 3d
       0.011389836 -0.1262194 0.016378628 0.08523944
000020 a9 39 2c be 4a 2e 1a 3d 31 d4 30 3d cf 1d ed bd
       -0.1681887 0.0376418 0.04317111 -0.11577951
000030 18 04 57 3d c5 06 07 3e 75 49 e1 bd 56 b5 1d 3d
       0.05249414 0.13186176 -0.11000339 0.038503014
000040 68 c2 d3 3d 7c af 1c 3e 5e de 08 be 22 49 1b be
       0.103398144 0.15301317 -0.13366076 -0.15164617
000050 af a6 0d bd 6c 7b 07 3c 14 90 1a be 2d db ad bd
       -0.03458279 0.008269172 -0.15094024 -0.0848907
000060 10 3c 2f bd 73 dd 9e 3d 09 ff 16 be 7d d3 fb 3d
       -0.04278189 0.07757082 -0.14745726 0.122961976
000070 cd 26 e5 3c 04 46 f8 3d a4 5f 05 be 52 2a 0c 3e
       0.027972603 0.121227294 -0.13024765 0.13688019
