checkpoints/2025-05-30-16-10-22/last_epoch.pth (torch, 675371 bytes, 9 tensors)

encoder.0.weight f4 [64, 3, 3, 3]
00000000: fb05 99bd 53ff c1bd 5c86 3a3e 49ca 2fbd
00000010: be8c b2bd a721 553d 56b0 29be 8659 3a3e
00000020: df46 9c3d c300 c83d ffea 8e3d 3910 97bd
00000030: 5900 ebbd e2cc 46bc 89b5 15be a08b 40bc
00000040: 259d 3cbd 99d1 bebc 4eea 36bd ad34 723d
00000050: e200 33be bfa4 29be 5682 b83d 8e0e 22be
00000060: 6da9 32be 9755 103e 052a 00be ad87 a4bd
00000070: 5d81 c53d 6ec6 2d3e 2689 79bd 1ee8 103e
00000080: 9635 0c3e 4af8 c3bc 881c cf3d bce0 dbbd
00000090: 6ff6 bb38 a34b 983d f8fc debd 40d8 a73d
000000a0: 1bfb e53d 5e9e 12be bef3 debd ac7c 3d3c
000000b0: 761d 053e 138e 84bc f05c 36bd 8e13 91bb
000000c0: 61e9 403e a51f 92bd 6076 563c abb9 43be
000000d0: 1918 7abd df9a 093e 946a 86bd 8c2e b13d
000000e0: 30c2 ac3c 12df 7a3b 89e8 183e 0964 74bd
000000f0: 3e66 cb3d 429f 3e3e c13a fbbd 11be e33d
00000100: 096f 2ebe d560 3f3d f879 e6bc a0c3 22bd
00000110: 034e 213e ba12 373e 8df2 77bd fbf8 b53d
00000120: 2a4b cfbd 20d3 c03d 7507 d7bd beb5 b93d
00000130: df9f 043d 6f28 493c 3bd0 773d be95 423b
00000140: fbae 133e 5c20 58bc 9ac8 9fbd fc87 f7bb
00000150: 0253 e0bd cde2 ec3d 2566 0d3e 7ce0 95bd
00000160: a4be 3e3e 5d4d 923d 6fe3 9b3d c5b0 dc3c
00000170: 0089 8fba a808 bebd 5ccc 7dbd 5ae0 5bbc
00000180: 9e70 1abe 1079 4cbd 07be 3b3e 0bc2 d6bd
00000190: e3a8 bfbd 13fb 24be 998a d13d 45cc 0ebd
000001a0: 9303 f7bd d404 303e 8033 1b3e 23cd dfbc
000001b0: 4b4b 2dbe bfc6 d6bd a3e2 03bd ad63 883d
000001c0: ce85 02bd 7c58 87bd 106c bb3d 26f5 eabd
000001d0: 1db8 aabc 8538 04be 2945 29be 37e9 68bc
000001e0: 01d1 98bd 071f f23c 3cc2 a0bd db2f 013e
000001f0: d9a3 463d f744 71bd f3d1 ecbd 004e 11be
00000200: 5f01 cd3c 748b 28bd 3694 a1bd f964 043d
00000210: b62c 38bd 2e2c 34be 955d e73d b1f7 303e
00000220: c2af b0bd 8af3 1d3e eacb a2bd 0fda 1d3d
00000230: 51a3 a2bd 6c90 0a3e a042 233d 2e81 9d3d
00000240: c873 a53d c8ba 423e 1615 013e 3ce9 2a3e
00000250: 816b 98bc d432 f83d 4f7f 2f3e 609a 443e
00000260: 9a76 a9bc 71fa 31be 6f44 173d d19d 98bd
00000270: a30f 4bbd 9b56 1e3e 853e 3d3e 36e7 1bbe
00000280: 5e47 00be 4955 443e 6e05 063e d289 283e
00000290: 6717 ceba 8e9d 263b a198 2d3e 90cb 873c
000002a0: d565 3abe 9c2e 40bd cd8f 773d cf55 1f3e
000002b0: e88a 3437 74ca 19be add6 613d a2e6 513d
000002c0: 1d51 acbd 28a4 dcbd 40f6 163b 395f bd3d
000002d0: a5b3 ba3d 1550 41be 9135 0fbe f77a 6b3d
000002e0: dddb b13d 3c34 9fbd 5ec2 703d 864e 37be
000002f0: c766 1c3d bc84 91bd 1526 cdbd 2b47 35bd
00000300: 309c b93c 1419 bd3c 5899 883c 1168 ea3c
00000310: 693e f1bd 77ed 2cbe fa17 05be c045 6dbd
00000320: c5bb f03d 32fc d53d 9e35 663d c933 97bd
00000330: ada1 273d eaf3 03bd ee9f bcbc 8053 adbd
00000340: a7e7 6abd c0cc 3a3e cd11 39be d6c8 7e3d
00000350: 52b0 fcbd d81c 393d 1986 0f3e 5b28 3d3e
00000360: 394f 2dbe b964 97ba ec9c 4ebd 2bf2 f13d
00000370: 2736 bd3d 30b7 c33c 3fd1 c03d 61f7 813d
00000380: 3468 89bd 8b1c f43d c8ac 2cbe c514 04be
00000390: 4f12 fabd f0c2 1abe 0f32 aabd 3fcb e2bc
000003a0: a902 733c 430b c53d 2dfa e13d 991c 253e
000003b0: 9fde fabd 21ba a3bd d4ed d4bc cbb8 8e3d
000003c0: e93d 3b3e 474b be3d 1d7b 253d 1b38 243d
000003d0: b708 013b 09ba 0d3e 718c 26bd 8776 0cbe
000003e0: e55a 303e 1134 19be e802 afbc d549 0a3e
000003f0: 41e9 c53d 4e8c e53d 6539 3ebe d967 02be
-0.07471844 -0.09472527 0.18215317 -0.042917524 -0.08718251 0.052034047 -0.16571173 0.18198213
0.07630705 0.0976577 0.06978416 -0.07376141 -0.11474676 -0.012133809 -0.14620031 -0.011752039
-0.046048302 -0.023293303 -0.044657044 0.059132267 -0.17480806 -0.16566752 0.090092346 -0.15825865
-0.17447443 0.1409515 -0.12516029 -0.080336906 0.09643815 0.16970226 -0.06092181 0.14151046
0.13692316 -0.023922104 0.10112864 -0.10736224 8.962757e-05 0.074363016 -0.10888094 0.08195543
0.11229535 -0.14318225 -0.10886334 0.011565369 0.1299952 -0.016181028 -0.044522226 -0.00442738
0.18839027 -0.07134942 0.013089746 -0.19113795 -0.061058138 0.13437985 -0.06563297 0.08651456
0.02108869 0.0038279933 0.14932455 -0.059665713 0.099316105 0.1861544 -0.12267066 0.11120237
-0.17034544 0.046723206 -0.028134331 -0.039737344 0.15752415 0.17878237 -0.06053405 0.0888538
-0.10121758 0.09415269 -0.10499469 0.09067868 0.032379027 0.0122777065 0.06050132 0.0029691304
0.14422219 -0.013191309 -0.078019336 -0.0075540524 -0.109533325 0.11566696 0.13808496 -0.073182076
0.18627411 0.07143662 0.07611739 0.026939759 -0.0010950863 -0.09278995 -0.06196247 -0.013420189
-0.15082023 -0.04992014 0.18334208 -0.104862295 -0.093583845 -0.16111402 0.102315135 -0.034862775
-0.120612286 0.17189342 0.15156364 -0.027319496 -0.16923253 -0.104871266 -0.03219856 0.06659637
-0.031865887 -0.06608674 0.09151471 -0.114725396 -0.020839745 -0.12912185 -0.16530289 -0.014215759
-0.07461739 0.02955581 -0.07849547 0.12615912 0.0484961 -0.05890366 -0.11563482 -0.14189911
0.025025068 -0.041148618 -0.07889597 0.032322858 -0.044964515 -0.17594978 0.11297146 0.17281987
-0.08627273 0.15424934 -0.0794905 0.038538035 -0.079413064 0.13531655 0.03985846 0.07690655
0.08078724 0.19016564 0.126057 0.16690534 -0.01860595 0.1211907 0.17138408 0.19199514
-0.020686436 -0.17380692 0.036930498 -0.07451976 -0.04957546 0.15462725 0.1848088 -0.15224919
-0.12527224 0.19173159 0.13088009 0.16458824 -0.0015723527 0.00254235 0.16952755 0.016576558
-0.18202908 -0.04691945 0.060439873 0.15560077 1.0761178e-05 -0.15018636 0.05513637 0.05124534
-0.08413909 -0.10773498 0.002303496 0.09246678 0.09116296 -0.18878205 -0.13985278 0.057490315
0.08684514 -0.07773635 0.058779113 -0.17901048 0.038183954 -0.07105395 -0.10017029 -0.044257324
0.022657484 0.023083247 0.016674682 0.028614076 -0.11779482 -0.1688746 -0.12997428 -0.057927847
0.11754564 0.10448493 0.056203477 -0.07382924 0.04092567 -0.032215036 -0.02302548 -0.08463192
-0.057349827 0.18242168 -0.18073197 0.06220325 -0.12338318 0.045193523 0.14015998 0.18472426
-0.16924752 -0.0011550403 -0.05044262 0.11813768 0.09238844 0.023891062 0.094149105 0.06346012
-0.06709328 0.11919507 -0.16862786 -0.12898548 -0.12210523 -0.15113425 -0.08310329 -0.027684806
0.014832177 0.096212886 0.11034045 0.1612419 -0.12249493 -0.07994486 -0.025992312 0.0696884
0.18285336 0.09291702 0.040400613 0.04009257 0.0019689032 0.13840498 -0.04066128 -0.1371709
0.17222174 -0.14961268 -0.02136369 0.13504727 0.0966363 0.112084016 -0.18576582 -0.12734927

encoder.0.bias f4 [64]
00000000: e62a 7d3c 821e 2b3e 8eae 3ebe 6468 92bd
00000010: 9d48 963d 74a3 32bd 0a2b 0c3d 0ac9 58bd
00000020: 85a5 9bbc fd61 2fbd 5d9b 6cb9 be94 cfbd
00000030: 0736 29be 9b21 e5bd 5b27 f93d 0d3b cb3d
00000040: 4754 ee3d a7f0 833d d5ac ee3d 9652 9ebd
00000050: 899c 67bd 37b5 183e 5e4d f9bd 0dd9 05be
00000060: cf18 093e 1ded 09be 0b96 f8bd d9b7 d83c
00000070: 12a0 debc 5217 273d d767 17be 4ef6 073e
00000080: e199 26be 326a 52ba f38a c5bd bfca 6cbd
00000090: 78b1 063d 3c7d f83d c653 a9bd 9a12 2abc
000000a0: d8db ae3d be12 f73d 6d01 39be fba2 1bbd
000000b0: a62b 96bd 69ee 3d3e 2340 dcbd d36d 603d
000000c0: dc15 22be 30b5 243e f163 863d 672d 95bd
000000d0: c0ae 06be 49be 31be 6dc4 933c 1d9f 6fbd
000000e0: cc9f b4bd 8ba0 373e b16e 183e 2db6 83bd
000000f0: c295 e13d 02c3 27bd 7972 083d d975 1abd
0.015452122 0.16710857 -0.18621275 -0.07148817 0.07338069 -0.043612912 0.034220733 -0.0529261
-0.018999824 -0.04281806 -0.00022564591 -0.10135792 -0.16524516 -0.1118805 0.121657096 0.099233724
0.116371684 0.06442385 0.11654059 -0.07730596 -0.056545768 0.14912878 -0.1217296 -0.1307108
0.1338837 -0.13469358 -0.121379934 0.026454853 -0.027175937 0.040793724 -0.14785706 0.13277552
-0.16269638 -0.00080266886 -0.09645643 -0.05781054 0.03288409 0.121332616 -0.08267932 -0.0103804115
0.085380256 0.12064122 -0.1806695 -0.037997227 -0.07332544 0.18547978 -0.107544206 0.054792237
-0.15828651 0.16084743 0.06562031 -0.072840504 -0.131526 -0.17357744 0.018037999 -0.05850135
-0.08819541 0.17932336 0.14885975 -0.06431232 0.11014892 -0.04095746 0.033312295 -0.037710045

encoder.3.weight f4 [128, 64, 3, 3]
00000000: 7f3e 9abc c956 343c 5592 66bc 719b f93b
00000010: 3fa6 91bc fd19 58bc 5148 263a 5252 8abc
00000020: 6d0d 0e3d 1bd4 e13c 9a4e 24bd 6262 ed3c
00000030: b2b3 c9bc 5119 2ebd 2ee5 03ba 560b 07bc
00000040: 7c80 203d 55a3 03bd bfe6 cf3b c4dd f6bc
00000050: 7537 31bc 534c ca3c a945 ff3c babd ef3a
00000060: 4870 14bd 9847 fd3c 2b8f 27bd 4cee c5bc
00000070: d4d2 ccbc bb90 14bc c60b f1bc 5815 ac3c
00000080: df51 37bc 007b dd3c 850e d13c 4240 aebc
00000090: da05 d53b 9f0e dbbc 0eed f93c 4d04 debc
000000a0: d00f e8bc b2f1 173d b185 2abd 9734 45bc
000000b0: 5ae6 6f3c bc94 23bd 59ce acbc 90c7 d7bc
000000c0: aba9 a2bc 01dd a83c 4443 1abd 0f44 1e3c
000000d0: a732 b03c 1edb 06bd bee5 0b3d 4bce 583c
000000e0: 6fed d1bb 3018 c03c 3b50 03bd 504e 77bc
000000f0: 1482 15bd d083 ed3b 7be4 cfbc e5e3 1c3d
00000100: 1b32 f03c 5629 74bc fe7e a63c 0d61 dc3c
00000110: 0dc4 0d3c f7d9 2bbc 12f4 ec3c f3e8 733c
00000120: ecd1 cdbb 7a20 17bd 5f1d 1c3d 9c0b 91bc
00000130: 9e8b afbc f656 d33c b033 16bc d7a8 1fbd
00000140: fa2b 123b 6351 63bc 73f4 e13c 29be a8bb
00000150: 8e9c fd3c 8fa4 23bd 92b3 ab3c a9b0 d3bc
00000160: fadf 203d fa3b ef3c c323 d2bc 1176 ab3c
00000170: bc26 43bc d957 0ebd 0c2c 54bc abb8 02bd
00000180: d5e6 2bbd 1885 a1bc b823 eabc 503f e9bc
00000190: f88d 08bd 4ab8 81bc b345 75bb 8d8b 84bb
000001a0: 02a0 263c b1f4 14bd 0b2d d33b e66e 00bd
000001b0: 5306 423b 64ee fb3c cf7f 0ebd 3fb0 61bc
000001c0: 5c65 1ebc bc57 0f3c c217 dc3a c42d 693c
000001d0: e6d4 b93b 76cd 2dbd 5f60 cebc 91c8 27bd
000001e0: 42dd 6e3b 5b86 3fbc 978c 1b3d a055 1e3d
000001f0: 99af 0dbd 22d1 2cbd b411 68bc f921 24bd
00000200: 0696 5abc 3615 e8bc ec81 b23c f3ef e3bc
00000210: 3745 36bc 88c0 0dbd da91 1c3d 778f 803c
00000220: e1fd 38bc 80e8 9b3c 9bcf a93c c6f0 33bc
00000230: d084 12bd a8b8 36bc a68d e63a 8f06 8ebc
00000240: 017f 173c b2fe bcbc cc56 b7bc c6e0 a8bc
00000250: c564 e8bc b7d4 acbc 42cf 3ebc 4b1f fa3c
00000260: 2a57 bfbc 19ce eebb 06f2 053d 833c 9dbc
00000270: 3869 5bbb 4148 023d 60be aa3c de50 ea3b
00000280: 48f2 8abc cef9 f23b 3ad0 14bd 690f a5bc
00000290: 2ae3 e83c 46c8 d3ba 716f c4bc a2fc 0fbd
000002a0: 6186 c0bc c36e 8abc 225d 203d 722c febb
000002b0: 5912 2dbd c458 d5bc a711 64bc 7b90 eb3c
000002c0: fb26 cdbb 468a 2539 20f0 853b 2b69 83bc
000002d0: f526 d73c 7560 083d 1aca 0e3d 690e b43c
000002e0: b53e d2bc 6a4f 04bd bbf4 763c 60a0 fd3b
000002f0: 039e 77bc 5e4b 23bc 28a0 95bb f351 f5bc
00000300: 3b05 7f3c 8ad4 68bb 4b6d 9dbc 6e80 523b
00000310: 10d0 723a 88ca 043c dbf4 2cbd ff0a cdbc
00000320: 028d 223d aaac 9cbc 7d68 e3bb 843f 10bc
00000330: bc8e 0fbd a994 afbc 2ac2 df3c 08ae c1bc
00000340: 1109 313c afd7 fe3c 5433 9cbb a046 e8ba
00000350: 33e4 ac3c c41d 93bc a089 c43c 85cc 18bd
00000360: b618 26bd c702 213d ba80 023b dea4 fb3b
00000370: 2e8c b73c cc4c 0fbd 1c17 0f3d 628d 5bbc
00000380: 4480 29bd 5639 e13c 5afc 3fbc 30be 0fbd
00000390: f033 2dbc 93a3 0d3c ccc4 753c 64b2 d7bc
000003a0: fada d8b8 4d7d a8bc eaf6 e23c 0cb8 f4bc
000003b0: e134 c43b 13f4 f13c 7175 4f3c 7a1f 51bc
000003c0: df82 8d3c 1054 413c 9ad9 f1bc f0da 02bd
000003d0: 3561 ab3b 2d78 dc3c a462 203d 1a66 13bd
000003e0: 4cb2 a63b 13b1 8abb 619d 0c3c e371 d0bc
000003f0: 9f5c 313c 2cab b3bb 58c4 a1ba 9169 113b
-0.018828629 0.011007019 -0.014072974 0.007617407 -0.017779468 -0.01318979 0.00063431734 -0.016884957
0.034680773 0.02756696 -0.040114023 0.028977577 -0.024621818 -0.042504612 -0.0005031404 -0.008242449
0.039185032 -0.032138187 0.0063446457 -0.030135043 -0.010816445 0.024694597 0.031161146 0.0018290796
-0.036239892 0.030917928 -0.04090802 -0.02416148 -0.025002874 -0.00906771 -0.02942456 0.021006271
-0.011188953 0.02703619 0.025519619 -0.021270875 0.0065009417 -0.02674037 0.030508544 -0.02710166
-0.028327852 0.037095733 -0.041631404 -0.012036464 0.014642322 -0.039936766 -0.021094488 -0.026340276
-0.019856295 0.020613195 -0.037661806 0.009659781 0.021508528 -0.03292381 0.034154646 0.013232778
-0.006406478 0.023449033 -0.032058936 -0.015094355 -0.036501005 0.0072483793 -0.025377503 0.038303275
0.029320767 -0.014902433 0.020324226 0.026901746 0.008652699 -0.010488979 0.028924976 0.014887082
-0.006281128 -0.036896206 0.038113948 -0.017705731 -0.02142888 0.025798302 -0.009167597 -0.038979378
0.0022304044 -0.013874385 0.027582383 -0.005149622 0.03095844 -0.039951857 0.02095965 -0.025841074
0.0392761 0.029203404 -0.025651818 0.020930322 -0.01191109 -0.034751747 -0.012949955 -0.031914394
-0.041968185 -0.019716784 -0.028581485 -0.028472573 -0.033338517 -0.015834946 -0.0037425577 -0.004044956
0.010169985 -0.03636617 0.0064445785 -0.03135576 0.002960582 0.030753322 -0.034789857 -0.0137749305
-0.009667721 0.008748945 0.0016791748 0.014232103 0.0056711314 -0.04243227 -0.025192438 -0.04096276
0.0036447798 -0.011689748 0.037975874 0.038655877 -0.03459129 -0.042191632 -0.014164377 -0.04007146
-0.013341432 -0.028330427 0.021790467 -0.027824378 -0.011124901 -0.03460744 0.038225032 0.01569341
-0.011290998 0.019031763 0.020728877 -0.010982698 -0.03577119 -0.011152424 0.0017589822 -0.017337112
0.009246589 -0.023070667 -0.022380255 -0.020614993 -0.028368363 -0.021097524 -0.011646094 0.0305325
-0.023356993 -0.0072877523 0.032701515 -0.019193893 -0.0033479463 0.031807188 0.020842731 0.0071507534
-0.016961232 0.007415033 -0.036331393 -0.02014895 0.028428633 -0.0016157709 -0.02397892 -0.03515304
-0.023501577 -0.016898518 0.03915132 -0.007756763 -0.042253826 -0.026043303 -0.013920224 0.028755417
-0.0062607503 0.00015787137 0.004087463 -0.016041359 0.026263693 0.033295114 0.034860708 0.021979528
-0.025664667 -0.032302298 0.015072997 0.0077400655 -0.0151133565 -0.009966699 -0.0045662113 -0.029946303
0.015565212 -0.0035527074 -0.019217154 0.0032120007 0.0009262571 0.008104928 -0.0422257 -0.025029657
0.039685257 -0.019125301 -0.006939946 -0.008804206 -0.03504823 -0.021433191 0.027314264 -0.023642555
0.010805384 0.031108705 -0.004766861 -0.0017721243 0.021104908 -0.01795853 0.023991406 -0.03730442
-0.04055091 0.03930929 0.0019913153 0.007679566 0.02240571 -0.03498535 0.03493415 -0.0134004075
-0.04138209 0.02749316 -0.01171788 -0.035093486 -0.010571465 0.008644956 0.015000533 -0.02633018
-0.0001034047 -0.02056756 0.027705628 -0.029872917 0.005987749 0.029535329 0.012662278 -0.012763852
0.017274318 0.011799827 -0.029522706 -0.031947076 0.005230094 0.026912773 0.03915657 -0.035986044
0.0050871726 -0.0042325347 0.008582444 -0.02544493 0.010825305 -0.0054830518 -0.001234184 0.0022188167

encoder.3.bias f4 [128]
00000000: ffa5 07bd aef4 7e3c df90 1e3d d93e 8f3a
00000010: 823e df3b 47a4 abbc b7dc d3bc a152 f23c
00000020: e46f 903b 61e0 d2bc ef3a c1bc 6ed8 febc
00000030: 1e17 2dbb 150e 3abc acf3 003d 47e3 5abb
00000040: 51c1 a83c ade9 89bc e202 86bc a250 29bc
00000050: fbb9 93bc f6a9 37bc 8509 ee3c 07bb 02bd
00000060: 06b7 60bb 5f42 0fbd dab1 a0bc c23e 063c
00000070: 8d84 9b39 abeb 0cbc b874 233d c1b8 ccbc
00000080: cb8a bc3b c330 e9bc a1a5 013d 38a6 1e3d
00000090: 96cc 0fba 6374 d73c 3c93 993c feaa 103d
000000a0: 1617 07bd a091 163d caf8 afba 758c 06bd
000000b0: c1f5 8c3c 9fe0 4f3c 95e1 f43c f579 14bd
000000c0: f83c 123d 722a ba3c fda3 2cbc 3c12 3dbc
000000d0: 4303 23bd b8c0 1b3d 496b 8e3c e324 6dbc
000000e0: f2f1 e03c ee8c 003c 7a1e 95bc 2966 5fbc
000000f0: 0e40 a4bc e5b2 e73c abe6 d8bc ab2a 29bc
00000100: ab2e 253d b901 643c 6dc0 93bc 7e34 febc
00000110: e66f b8bc ef01 39bc c80e a83c d55c 7bbc
00000120: 1568 11bb 2efe 22bd 5f83 03bd 3f9d 01bd
00000130: 5c4e 0abb 1072 89bc 60a6 d7bb b949 0ebd
00000140: dc4e 393c bc97 a93c 7f0f 65bc 106e 24bd
00000150: cffa ea3c 9f9a 213d 87f6 d93a 3fc4 0dbb
00000160: 32c1 213c 3faa b83c 8bb6 efbc 07a8 133d
00000170: 101b a8bc 77b0 1e3c e71f e1bc 8cff db3c
00000180: 45aa 633c 8277 d1bc 7770 083d 33bd 15bd
00000190: 45b0 e93b f8e7 013d eb66 3bbc 2f98 9dbb
000001a0: 50a3 223d da13 52bc b860 f83c b994 853c
000001b0: b0cc 60bb 12ae a739 8ed0 173d af11 d6bc
000001c0: d2bb a23c 8563 13bd 8183 0b3d 18b3 a0ba
000001d0: 19cf d23c fb42 9539 50e6 a03b c71b 823c
000001e0: 33d7 0b3d d208 13bd 0ed8 1f3c b06b f13c
000001f0: 384c fd3c eb33 1cbd 93b4 de3c 8849 06bd
-0.03311729 0.015561266 0.03871238 0.0010928764 0.0068128714 -0.020952357 -0.025862081 0.029580416
0.0044078697 -0.025741758 -0.023587672 -0.031109061 -0.0026411484 -0.0113558965 0.031482384 -0.0033399628
0.020599993 -0.016835058 -0.016358797 -0.010334166 -0.018033018 -0.011209955 0.029057274 -0.031916644
-0.0034288778 -0.034975406 -0.019616056 0.008193674 0.00029662662 -0.0086011095 0.039906234 -0.024990441
0.00575385 -0.028465634 0.031652097 0.038732737 -0.0005485503 0.026300615 0.018746965 0.03531932
-0.032981 0.036759973 -0.0013425585 -0.032848794 0.017207028 0.012687831 0.029892722 -0.03624912
0.035702676 0.022725318 -0.010537145 -0.011539992 -0.039798032 0.038025588 0.017385142 -0.0144741265
0.027459119 0.0078461 -0.018203009 -0.013635197 -0.020050075 0.028283546 -0.026477179 -0.010325114
0.04032771 0.013916426 -0.018036092 -0.03103089 -0.022514295 -0.011291965 0.02051486 -0.015341957
-0.0022187282 -0.039793186 -0.032107707 -0.031644102 -0.0021103835 -0.016778022 -0.0065811127 -0.034738276
0.011310305 0.020702235 -0.013980745 -0.040144026 0.028684048 0.0394541 0.0016629257 -0.0021631864
0.0098727215 0.022542117 -0.029261848 0.036048915 -0.020520717 0.009685627 -0.027481033 0.026855253
0.013895576 -0.025569681 0.03331038 -0.036557388 0.0071316087 0.031715363 -0.011438112 -0.0048094015
0.03970653 -0.012822116 0.030319557 0.016306268 -0.003430169 0.00031982415 0.037064128 -0.02613148
0.01986495 -0.03598358 0.03406096 -0.0012260405 0.025733517 0.000284694 0.004910268 0.015882386
0.034140777 -0.035897084 0.009756101 0.029470295 0.030920133 -0.03813545 0.027185714 -0.03278497

decoder.0.weight f4 [64, 128, 3, 3]
00000000: ae93 dfbc 1806 b3bc 32cc 68bc 67fe 89bc
00000010: 946c debc 6753 9b3c 005e 673c c9bf 823c
00000020: ee4e 56bc 4f71 8bbc 3785 443c 494f 84bc
00000030: d968 d33c 759a d9ba 36c7 09bc ed5a a03c
00000040: c925 e0bc 0190 afbc a115 7a3c b3c6 3e3c
00000050: 675b 323c 3c1f 9c3c a6c0 413c 39b9 c3bc
00000060: 1458 443c f2b8 a8bc 1796 d8bc fe77 f23b
00000070: 8ee5 ec3c f38e f63c 7ff2 653b ce37 80bc
00000080: 9de6 f13c 3d84 d8bc b7e7 b63c f6db 5d3c
00000090: dab7 403c fa4b 64bc 2cc4 f73c 4eaf 0b3c
000000a0: eb0b d0bb 39d2 ed3c 2d75 cdbc 9c47 9b3c
000000b0: 6f2a af3b f57e 663c 9eec 083c 199a a13c
000000c0: 6e39 4cbc 00e7 c3ba 0e3a 523c 61e9 8f3c
000000d0: a64d c9bc 1107 97bc 8215 8f3c 02bc 78bc
000000e0: 0a65 93bc 5d1a d5b9 6d82 0d3a 8697 b53c
000000f0: 1705 283c cc8a 323b 1337 863c 72b6 18bc
00000100: 20fa 12bb 02c1 95bb 085f 1d3b 24b5 3b3b
00000110: 0bac 9ebc 5dc1 683c 5e55 86bc 7ac8 ae3c
00000120: 2bee 483c cd7b 59bc 737f f53c 0e2b 963c
00000130: 5195 e03b 01fe f33b b1a7 b0bb 43e2 603c
00000140: 7395 66bc bc18 b63c e43b 21bc c005 9a3c
00000150: cead d03c 475f c6bc a3ca cc3b 30ce dfba
00000160: 5915 8d3b 07c4 e43b 79ce 8e3b 734d bc3a
00000170: 8cca f5bb 983d a4bc db98 a9bc 7175 9bbc
00000180: d90a 653b 00ae b33c d7f7 d6bc 7c09 b4bc
00000190: 53b2 5b3a ef71 b8bc daac 38bb 39b1 bbba
000001a0: 86ed b7bc 4720 a53c d356 8a3c 4307 27bb
000001b0: aff4 943c 079a 3b3b 4b88 c33c 9b30 d33c
000001c0: 307e cd3c 169f e73c 576f 1a3b 9f0e 27bc
000001d0: 1ebc da3c 645e 26bc 9567 603c c150 d5bc
000001e0: bf3e b5b9 2305 f23c 1314 8ebb bd47 3fbc
000001f0: 1f2a 8c3c 15e6 84bb d430 cfbb 8b14 e6bc
00000200: 187c c43c 97bf 8b3c 6a07 f1b8 e357 e6bc
00000210: 674c d1bc e5c7 6e3c 8488 cebc 9aea c3bc
00000220: 6208 91bc ba48 15bc a44c c03c b516 c33c
00000230: fe5c 623b ca53 a73b c381 f8bb 930e f73b
00000240: e77d 2abc 8773 e53c 8be6 0f3c 33d4 563a
00000250: 293a d33c f082 973c 693b abbc ed5d 02bc
00000260: fd2f ef3b 3fa5 073c 9eb0 9fba 9a26 d53c
00000270: 3796 ea3c b3bb 8b3c ba38 da3c f811 cf39
00000280: ce63 603b df38 81bb f6cf 1dbc e333 893c
00000290: 748e c63c bb8b f43c 5cc1 5f3c 890d 2abc
000002a0: 4c85 b0bc a854 6e3c b6c2 963b 2052 d2bc
000002b0: f0fe acbc 2053 583c 9291 f73b ac5a cebc
000002c0: d343 5a3b 03e7 e03c d7e8 acbc ee80 823c
000002d0: 4672 96bc ad0e 973c 5640 80bc bc95 59bc
000002e0: d385 e73c eceb ae3b af82 a3bc d411 8e3c
000002f0: c5df f93c 750f 2f3b ca2e 2e3c 069b 923c
00000300: 54e1 e63c dbb5 cd3c 6e19 da3c f52e 123c
00000310: 77ab 6fbc c8f5 a3bc 67fd 6fbc b97f e3bc
00000320: 1c0f 45bc 5ffa 9a3c 17f6 b2bc 9155 8bbc
00000330: 1bb7 903b 90ab 79bc 12c0 fd3b 3bf0 d03b
00000340: 518a 65bc deb2 ef3c 2e24 68bc c963 b53c
00000350: 89eb b3bc 43e7 7b3b 8e37 b13c b551 87bc
00000360: 7d3c 263c 5407 823a 6ec2 4c3c 1381 9e3c
00000370: c479 f93a 56ef eb3c 24c8 ba3c 7b92 013c
00000380: b2e7 f63b 2670 c43b 51a6 aebc 98cd 39bc
00000390: 9c00 933c 67f6 463c 916e 8dbc 83bc d7bc
000003a0: 403d 523c 4a9f d23c 6c2b e5ba 6e77 b23c
000003b0: 537a 60ba a627 52bc 284b 64bc 4a6b 8ebb
000003c0: a523 ee3c f76f 46bc 45e9 09bc 02ef 02bc
000003d0: a366 c33c ce75 d83c 6e25 d43c 0345 21bc
000003e0: 9e03 f7ba cdab a0bc ef9f da3b 4279 5dbc
000003f0: af1b 98bb 8dd1 c33c 0501 9f3c 141e a53a
-0.027292099 -0.021853492 -0.01420884 -0.016844941 -0.027151383 0.018960668 0.014121532 0.01596059
-0.013080342 -0.017021803 0.0119946515 -0.016151087 0.025806831 -0.0016601818 -0.008409312 0.019574607
-0.027361767 -0.021430971 0.015263946 0.011644053 0.01088605 0.019057862 0.011825716 -0.023892032
0.01198389 -0.020596001 -0.026438756 0.007399558 0.028918054 0.03009746 0.0035087166 -0.01565161
0.02952891 -0.026430244 0.022327287 0.013541212 0.011762584 -0.01393413 0.03024491 0.008525683
-0.006349077 0.029030906 -0.025080288 0.018955044 0.0053456347 0.014068355 0.008357195 0.0197268
-0.012464864 -0.0014946163 0.012831224 0.017567338 -0.024573158 -0.018435987 0.01746631 -0.015181543
-0.017992515 -0.00040646168 0.0005398158 0.022166979 0.01025512 0.0027243374 0.016383683 -0.009320842
-0.0022426918 -0.0045701275 0.0024012942 0.0028641904 -0.019369146 0.014206258 -0.016398128 0.021335829
0.012263815 -0.013274145 0.029968 0.018331077 0.0068537374 0.007446051 -0.005391084 0.01372582
-0.014073717 0.022228591 -0.009840939 0.01880157 0.025473502 -0.024215354 0.006249742 -0.0017074998
0.0043055234 0.006981376 0.0043581096 0.0014366343 -0.007500952 -0.020048901 -0.02070277 -0.018976899
0.0034949093 0.021933556 -0.026241226 -0.021977179 0.00083807594 -0.022515265 -0.00281792 -0.0014319784
-0.022452127 0.020156993 0.016887104 -0.0025486506 0.01818308 0.0028625743 0.0238687 0.025780013
0.025084585 0.0282741 0.00235649 -0.010196357 0.02670103 -0.01015434 0.013696571 -0.026039483
-0.0003456976 0.029543465 -0.004335889 -0.011674819 0.017109929 -0.004055748 -0.0063229594 -0.028085968
0.023984954 0.01705913 -0.000114931565 -0.02811808 -0.025549127 0.014574026 -0.02521158 -0.023915578
-0.017704193 -0.009111578 0.023474045 0.023814538 0.003454029 0.005106424 -0.007583828 0.007539579
-0.010405994 0.02800919 0.008782993 0.00081950723 0.025784569 0.018495053 -0.020902352 -0.007956964
0.007299422 0.008279144 -0.0012183373 0.026019383 0.028636081 0.017057275 0.026638377 0.00039495504
0.0034239176 -0.003943547 -0.009632101 0.016748374 0.024237849 0.029851785 0.01365694 -0.010379204
-0.021547936 0.014546551 0.004600848 -0.025673926 -0.021117657 0.013203412 0.007555195 -0.02518972
0.0033304587 0.027453905 -0.02110712 0.01593062 -0.018365037 0.018439615 -0.015655678 -0.013280328
0.028262055 0.0053381827 -0.019959776 0.017342485 0.03050221 0.0026712094 0.010631273 0.017896187
0.028183617 0.02511113 0.026623454 0.008922328 -0.014628283 -0.020014659 -0.014647818 -0.027770864
-0.012027528 0.018918214 -0.02184586 -0.017008575 0.004416359 -0.015238658 0.007743844 0.006376294
-0.014010028 0.029260095 -0.014168782 0.022142308 -0.021962898 0.0038437403 0.021632936 -0.016518453
0.0101462575 0.0009920397 0.0124975275 0.019348657 0.0019033481 0.028800648 0.022800513 0.007908459
0.0075349445 0.0059948144 -0.02131954 -0.011340521 0.017944627 0.012143708 -0.017264636 -0.026335007
0.012831986 0.02571072 -0.0017484254 0.021785464 -0.00085631496 -0.012826836 -0.013933934 -0.004346286
0.029069731 -0.012111655 -0.008417432 -0.007991554 0.023852652 0.026423361 0.025896754 -0.009843114
-0.0018845682 -0.019613171 0.0066718976 -0.01351768 -0.004641972 0.023903633 0.019409666 0.0012597465

decoder.0.bias f4 [64]
00000000: 673b c43b 79b3 ebbb 5032 e33c 5500 d43c
00000010: 3758 c23c 32b7 223c 5584 c7ba e28c c1bc
00000020: 1e8f e2bc 85c9 ac3c 04cd c83c 1b53 643b
00000030: 74b2 debc 535b c7bb 3492 c6bb a19a ccbc
00000040: acd2 eabb e1cb a7ba 9f87 9dbc 4371 9c3c
00000050: aa08 e3bc 52f6 d23c bb43 cebc b0b2 9f3b
00000060: bd8a ae3c 11e5 433c 745d 1ebc 567a 13bb
00000070: 25c0 41bc 8914 d9bc 3db4 09bc 3789 303c
00000080: dc4e e9bb b91c 7d3c e597 44bb 26af 763a
00000090: 4aed d03c c51a a93b f25d d4ba e188 37bb
000000a0: 9442 553a 0704 c5bb 3df1 033c fd08 36bb
000000b0: fbbd 41bb d526 c8bc 8bdf d43c e9ce dfbc
000000c0: 72fb dd3c ee04 e8bc 049d f83c 9142 52bc
000000d0: ad3d 183c 966c b3bb 8007 82bc 9e24 e63c
000000e0: 96b1 803b d560 e63b 1bca adbc 9913 d0bc
000000f0: cf29 6cbc 3954 d3bc 562f cabc b7be c13c
0.0059885266 -0.0071930257 0.027733952 0.025879065 0.023723705 0.0099313725 -0.0015221933 -0.023626748
-0.027656134 0.021092186 0.024511822 0.0034839574 -0.027184702 -0.0060838847 -0.0060599092 -0.024976077
-0.0071662273 -0.001280185 -0.019229708 0.019096976 -0.027714092 0.02575222 -0.02517878 0.004873596
0.02130639 0.011956469 -0.009665836 -0.0022503338 -0.011825596 -0.02649905 -0.008404789 0.010774902
-0.0071199965 0.015448743 -0.0029997763 0.00094102544 0.025503773 0.005160662 -0.0016202314 -0.002800517
0.0008135226 -0.006012443 0.008053121 -0.0027776354 -0.00295627 -0.024432579 0.0259855 -0.027320342
0.027097438 -0.028322663 0.030348308 -0.0128332535 0.009292048 -0.005475591 -0.015872717 0.028093632
0.00392742 0.0070305862 -0.021214535 -0.02539997 -0.014414265 -0.025796996 -0.024680775 0.02365051

decoder.3.weight f4 [32, 64, 3, 3]
00000000: cd83 0e3c 6df0 073d ee51 18bc 405c 5cbc
00000010: 4c39 d6bc 86bb 5fbc 37d9 25bd ad9d b7bc
00000020: d149 92bc d8dd 383b fb9e 263b ff83 813c
00000030: 82a4 1cbd cf2c 0a3b f451 363c 2781 b3bc
00000040: f621 273d 3794 19bd 1fca b3bc 7ff4 f7bc
00000050: 4da5 103d 4cd0 51bc 4297 b9bc e0c4 02bd
00000060: 0d44 a2bc 3b76 c6bc 9cf3 133d 2149 c23c
00000070: d33e 23bc 2f8d 733a 522d 273c 1266 f0bc
00000080: 1330 003b 56ff 553b 3868 e23c 425e f13c
00000090: d069 13bd 6052 473c bb6e 18bd a7b3 bdbb
000000a0: bf26 c0bb fa14 5cbc 7e88 7c3c 5791 ea3c
000000b0: 1d8c a8bc 5270 143c b27a 25bd 12bc e9bc
000000c0: 0a9c 6d3c 55e7 b1bc 0181 94bb 6662 c0ba
000000d0: b120 073d 849f c4bc 7edc 153d 4931 4b3c
000000e0: 4443 0a3d 86d0 c8bc 2bb1 d33a 60e6 1bbd
000000f0: bfe6 cb3c a05e c43c 7ff8 063d 368a 343b
00000100: 1bb4 b13c 9ba7 fbbc 37fd e2bc ac46 af3c
00000110: ef6f cdbc 6650 0bbd a657 c93b fe60 bbbc
00000120: a135 513c 7a12 eebc d58d 203d b4ef 0dbd
00000130: 9f0c a43c 8c53 47bc 8c8b bfbc 1932 643c
00000140: 5e8a 06bd 68c9 58bc 5919 48bc 367a 2e3b
00000150: 14dc edbc a61d 1d3d 01eb 2b3c c032 dcbb
00000160: 554e bdba b467 e0bc 89a7 e6bb 6908 1dbd
00000170: cd2a 613b ee3f 7abb 2395 e53b 3db8 84bc
00000180: 1402 ce3c 5f51 4fbc da90 133d 6194 ab3c
00000190: 1f09 c1bc bbe6 06bd 0fc5 b03c 1572 1dbd
000001a0: 6c85 923b e57d 263d ffd0 77bc 553b a43c
000001b0: af39 66bc f952 e1bc 5c23 d6bb 0f55 38bc
000001c0: 3d81 5bbc 160a 1cbc ff13 9c3c c304 b93c
000001d0: adf2 70bc d0b4 e3bc 16c9 873c a648 21bc
000001e0: 60f8 053c 1d20 61ba cea5 2cbd 1b84 a4bb
000001f0: 6a9c e9bb 4a36 12bd 334f d53c 23c5 49bb
00000200: 0e1c a3bc a739 df3c 1caf 02bd 581a f5bc
00000210: dd8d 863c 5162 af3b a0a9 54bc d2f6 c13b
00000220: 4aef c7bc 99c8 81bc 2cc4 fabc a5ab 1ebd
00000230: 72b4 173d 2579 9439 1c8e c33c cda8 04bd
00000240: 64a3 203d 71b5 1f3c 159d 00bd 4774 74bc
00000250: 1f05 0bbd f21a 7f3c 8ea2 693b ae1a 46bc
00000260: 0f0d f93c a25f 353c e98e 873c 6691 15bb
00000270: f6d2 0fbd ccc7 7abc 057c 80bb 688d d6bc
00000280: fe90 11bd ab89 cdbc 3c14 ccbc 4ec6 09bd
00000290: 98c0 86bb d640 c8bc 1641 e4bc be6d bdbc
000002a0: 5fb0 a43a cdd8 19bd 6f9a 123d a52f a03b
000002b0: e1b2 0d3d bf9b 6cbb 2e04 b03c b41b f83c
000002c0: acc7 203d 425e a53c 1e9a d8bc 55df 12bd
000002d0: bbfa b5bb b69a d239 2f52 803c 1cc5 d8bc
000002e0: 0766 a9bb 0f61 1abd 2280 243d 83df 3f3c
000002f0: 310b 573c 3828 fbbc 70a5 14bc 6ffb 1ebd
00000300: cb0b c7bb 2c86 b73c 3f56 183c 4dc9 d0bc
00000310: a974 ccbc 9bb6 2cbd 6d4c d53c e8a9 9038
00000320: 5e0b c73c 9b02 19bd 5e5d 10bc 5006 03bc
00000330: 6f29 943b 544c 1a3c c1b0 0bbc 0eb5 f9bc
00000340: 7774 043d 326a b63c 7677 37bc 69b2 0c3d
00000350: d700 8bbb 0e67 eb3c 11d5 833b 36dc 09bd
00000360: a937 903c 9de1 143d 0a48 b3bb 7625 2b3c
00000370: 654a edbc c124 6bbc 919a 113a 2726 b0bc
00000380: c962 db3c 3893 89bc f51d cabb 9ea2 32bc
00000390: 9ef5 18bd 941d dfbb e299 65bc 46e5 b73a
000003a0: 11ac 59bc b93c 943b fa77 8a3c ec98 e13b
000003b0: 55f3 213d d60f bfba 5dda d73c e50e dd3c
000003c0: 451a 03bd a781 e93b dcdb 21bd 1a99 153d
000003d0: bf29 30bc e93a 523c 862f 1f3c a785 1e3d
000003e0: f87c a6bc afa8 a1bc 325d 09bd 3356 cb3b
000003f0: c701 0abd 7199 bcbc 9468 0a3d 1341 06bd
0.008698416 0.033188272 -0.009296877 -0.0134497285 -0.026150368 -0.013655549 -0.040490355 -0.022414053
-0.017857464 0.00282084 0.002542435 0.015810011 -0.038242824 0.0021083837 0.011127938 -0.02191217
0.040803872 -0.037494864 -0.021946965 -0.030267952 0.035313893 -0.0128060095 -0.022655133 -0.031926036
-0.01980784 -0.024226299 0.036120996 0.023716511 -0.009963709 0.00092907524 0.010203676 -0.029345546
0.0019559904 0.0032653413 0.027637586 0.029463891 -0.035989583 0.012165636 -0.037214976 -0.0057892385
-0.005863994 -0.013432736 0.015413402 0.028633757 -0.020574624 0.009059982 -0.040400214 -0.028532062
0.014502535 -0.021716753 -0.00453198 -0.0014677763 0.03299016 -0.024001844 0.03658723 0.012401887
0.033755556 -0.024513494 0.0016150823 -0.0380615 0.024890302 0.023970902 0.032951828 0.00275482
0.021692326 -0.030719569 -0.027708633 0.021396004 -0.025077788 -0.03401222 0.0061444817 -0.022873398
0.012769134 -0.029061545 0.03919776 -0.034652427 0.02002555 -0.012165915 -0.02338197 0.01392796
-0.0328468 -0.013231613 -0.012213075 0.0026623136 -0.029035605 0.038358353 0.010493041 -0.006719917
-0.00144429 -0.0273932 -0.0070390147 -0.0383381 0.0034357787 -0.0038185078 0.007006304 -0.016201133
0.025147475 -0.012653678 0.036026813 0.020944776 -0.02356392 -0.032934885 0.02157834 -0.038438875
0.0044714715 0.040647406 -0.015125512 0.020047823 -0.014051839 -0.027505385 -0.006534977 -0.011250748
-0.013397512 -0.009523889 0.019052504 0.022585278 -0.014706296 -0.027796179 0.016575377 -0.009843981
0.008176893 -0.0008587854 -0.04215031 -0.005020631 -0.0071292417 -0.035696305 0.026038742 -0.0030787669
-0.019910838 0.02724917 -0.03190528 -0.029919788 0.016425068 0.0053522964 -0.012979895 0.005919316
-0.024406094 -0.015842723 -0.03061112 -0.03873791 0.03703732 0.0002831902 0.023871474 -0.032387543
0.03921832 0.009747849 -0.031399805 -0.014920301 -0.03394043 0.015570389 0.0035649869 -0.012091322
0.030401735 0.011070164 0.016547637 -0.002282226 -0.035113297 -0.015306424 -0.0039210343 -0.026190475
-0.035538666 -0.02509006 -0.024911992 -0.033636384 -0.0041123144 -0.024444979 -0.027863067 -0.023123618
0.001256477 -0.037560273 0.03579181 0.004888492 0.03459442 -0.0036103574 0.021486368 0.030286647
0.039252922 0.020186547 -0.026440676 -0.035857517 -0.005553571 0.0004016959 0.015664188 -0.026461177
-0.0051696333 -0.03769022 0.04016126 0.011711004 0.013125227 -0.030658826 -0.0090726465 -0.038814005
-0.006074404 0.022402845 0.009297906 -0.025486613 -0.024957972 -0.042166334 0.02603742 6.8981026e-05
0.024297412 -0.037356 -0.008811323 -0.0079971105 0.004521541 0.009417612 -0.008526028 -0.030481841
0.032337632 0.022267435 -0.011197915 0.034349833 -0.0042420435 0.028735664 0.004023202 -0.033657275
0.017604666 0.036347974 -0.005471234 0.010445943 -0.028966138 -0.0143520245 0.0005554343 -0.021502567
0.026780503 -0.016793832 -0.006168122 -0.010903029 -0.037343614 -0.006808946 -0.014013739 0.0014030121
-0.013285653 0.0045238403 0.016902912 0.006884685 0.0395387 -0.0014576863 0.02634924 0.026984641
-0.032007474 0.0071260515 -0.039516315 0.036522962 -0.010752141 0.012831428 0.00971592 0.03870168
-0.020323262 -0.019733755 -0.033536144 0.006205344 -0.0336931 -0.023022385 0.03379114 -0.032776903

decoder.3.bias f4 [32]
00000000: 316d 083a ee04 bbbc 2f88 ea3c 8a73 01bd
00000010: 958c 83bc ab71 303c b06f e3bc 79f9 0ebd
00000020: 2ecb 14bd ea75 a0bc f606 de3c 1cfb 86bc
00000030: 38ac c23c fa91 1fbd f65c c0bc 0b36 16bd
00000040: f675 f3bc 06de 163c 95db 8fbc 4de2 203c
00000050: 4e38 0e3d 6bf2 a93b 901e 813c f899 f53c
00000060: 8eee 26bd 63a3 f5bb f1be b7bc 291d e63c
00000070: d671 03bd 8bab 64bc 117c adbc 86b9 05bd
0.0005204259 -0.0228295 0.02862939 -0.031604327 -0.016058246 0.010769288 -0.027763218 -0.034905884
-0.03632658 -0.019587476 0.027102929 -0.01647716 0.02376376 -0.038957573 -0.023481827 -0.036672633
-0.029719334 0.009208208 -0.01756076 0.009819579 0.034721665 0.005186369 0.015761644 0.029980645
-0.040754847 -0.007496284 -0.022429915 0.028090077 -0.032090984 -0.013956915 -0.021177324 -0.032647632

decoder.6.weight f4 [1, 32, 1, 1]
00000000: 9ae0 183e 7267 d0bd 7119 1bbe 18b6 af3d
00000010: 8be1 833d 7cfe a0bd b323 1f3d 2fe7 9dbd
00000020: 3239 183e 8ee2 533b 72a2 c2bd 3ada b03c
00000030: c2f4 613d 19f4 04be 74cc 6a3d e332 11be
00000040: 5fc8 3ebc b893 4cbd f0c8 f23c 390a a3bd
00000050: b988 04be bc26 8d3d 95b8 303d 1060 93bc
00000060: 59f2 2fbd bdfd 3dbd f771 cfbc 3ca7 cbbd
00000070: ce38 f23d 3594 2a3e b7f0 21be 26ff adbd
0.14929429 -0.10175981 -0.15146424 0.085796535 0.06439503 -0.07861039 0.038852405 -0.077101104
0.14865568 0.0032331082 -0.0950364 0.021588434 0.05516506 -0.12983741 0.057323888 -0.14179568
-0.011644452 -0.049945563 0.02963683 -0.07960934 -0.1294278 0.068921536 0.04314478 -0.017990142
-0.04295573 -0.04638456 -0.025322897 -0.09944007 0.11827241 0.16658099 -0.15814482 -0.08495931
