checkpoints/2025-05-30-16-05-34/last_epoch.pth (torch, 675371 bytes, 9 tensors)

encoder.0.weight f4 [64, 3, 3, 3]
00000000: 9bfe 0cbe b10e 28be f0fc dc3d fff9 03be
00000010: 1c0a 1abd 0bbe 08be b0fe 29be 21a8 52bd
00000020: c626 023e 6cdf edbb 7aad 093e 5c76 163e
00000030: 8296 42be 93fd 1dbc 3cd1 2d3e 0b42 73bc
00000040: c4bb ab3d c667 06bd cbb5 2cbe 29e3 a7bd
00000050: 62de 2e3e bbc0 38bd 90d6 253d 46c2 e53d
00000060: b154 b63d 575d 0039 97f5 033d 5d41 d33d
00000070: 301e 1f3d e123 3fbe 4af4 a23d a8a4 183e
00000080: 3c3d 13be 4c25 99b9 854c 3ebe 05c6 06be
00000090: 7200 1dbe 4c25 26be 8f0c 953d c7b7 9dbd
000000a0: b430 ba3d 5b99 32be c93f 0cbe 6045 c93d
000000b0: 65ba 203d 4398 ba3d 165b 9f3d cb3d f7bc
000000c0: db88 f5bc 5ed4 18be 1946 323e e515 693d
000000d0: b537 263e 32cd b5bd 0140 133d e8fc d4bd
000000e0: 92a4 37be 5f2f a6ba e7b8 b03d a3a9 0f3e
000000f0: 3d70 09be d950 173e dd99 93bd 0473 e63d
00000100: 5a84 9bbd 0666 453e 31ee 2ebe 36c3 2bbe
00000110: 9aa7 35be 19e0 223e 933d 3d3e 9337 2ebe
00000120: 10c4 d7bd 3719 debc e3f2 363e d9d0 08bd
00000130: f531 173e 7f89 bbbd f873 60bd c65d 3bbe
00000140: d8c2 c73c 6a9d e13d 39a5 1bbe 0a19 5c3d
00000150: 0725 e6bd e701 0ebe e974 3cbe 41c3 46bd
00000160: d0ae ce3d b9a9 64bc acbc 453d 2d7f 3e3e
00000170: 7b71 2f3e cb92 17be e091 d43d 0a18 273e
00000180: fb19 c13d e6d7 243e 5d20 8dbd 7990 2c3e
00000190: b0f7 cfbd ccb3 8cbd cae1 1dbe 7bea 1c3e
000001a0: 8491 203d e807 25be 911e b2bc f962 063e
000001b0: 91e9 f93c 31aa 07bd 747b babd 84e4 0abd
000001c0: a25b 2c3e c720 e33c e13d e43d 3652 c5bd
000001d0: ac2c 35be 2560 0a3e e7c7 293e 6a8e f13d
000001e0: 9c62 c8bd 921b dd3d 5804 16bd 1b94 c7bd
000001f0: e0c9 0f3e 3a6d da3d bf8e 883b 8445 243e
00000200: 2bb3 433e f362 283e 8a0b 443e e3e5 adbd
00000210: 204a 96bd c081 00be cdfa bc3d 146f c43d
00000220: 0015 2fbe d04a 01be 6cad 8ebd 8b4d 43be
00000230: acfe 04be 83f1 963d 4525 6b3d 5f6d f13d
00000240: 1df5 bfbc c80d 0dbe 1b5e 45be fcee 0ebe
00000250: 4d53 a7bc ca26 1abe 312f 2a3e 10cf a73b
00000260: 601a e5bc ef15 913c cbb8 32be 4d39 04be
00000270: 9075 3cbc 4dd8 d43c 3578 063e 2973 3dbe
00000280: c1e4 fdbd cf29 05be 75df 183e ea31 94bd
00000290: bf0c 28bd 9df1 3ebe cb20 84bd cd36 f0bd
000002a0: a09b b83d 2df9 aabc f08c f53d 5fcc 4bbd
000002b0: 451d 2bbe 71b9 a5bc eef0 ed3d 3914 b53d
000002c0: ee9b 9f3d a637 51bd c0a6 f9bd f0e5 9bbd
000002d0: de3b 2fbe 9c13 1e3e dccf a23d 9449 5a3d
000002e0: 7426 cebd d1a8 393e 0758 8ebc f0bd 3c3b
000002f0: e47f 6c3d 359c b13d 7703 2ebe 8e41 41be
00000300: 0294 9bbd c221 b53d 2de6 263e 8577 253d
00000310: 4764 0abe 5001 15be c762 f7bd 93c9 afbd
00000320: 35dc 12bd c2ae 0fbe e63a ffbd 095c b339
00000330: 7874 3b3e 5e3e 373e d511 913c c782 d63c
00000340: f8a0 323d 2c3c 29bd 4de9 a93d 4175 423e
00000350: d2de b43d 18af 30be a886 f73d d35e 103d
00000360: fac8 27be 5685 06b9 a759 053e a764 dcbd
00000370: d193 193d 116b 29be 0a3c 963d 0060 7ebd
00000380: 788a eb3d 9c4c 1bbe 8219 063e b1e7 483d
00000390: 59d3 0dbe 79f5 1c3d 6c43 883b 53c2 0dbe
000003a0: 3e73 c1bd 5ccb 11be 752c 1abe 6469 e73d
000003b0: 2d27 beb9 c557 c33d 335b 2bbe a456 cb3d
000003c0: 1532 0cbe a262 e53d 7f60 55bd 6fa5 863d
000003d0: ca30 403e 7b0d 643c 1b32 333b f3e5 16be
000003e0: 258e ef3d 83be d73c 2f26 213e a59e 073d
000003f0: 85db c1bd b27f efbc b68d c7bc e5c6 eabb
-0.13769 -0.16411854 0.107904315 -0.12888335 -0.037607297 -0.13353746 -0.16601062 -0.05142987
0.12710103 -0.0072593 0.13445082 0.14693588 -0.19002727 -0.009642976 0.16974348 -0.014847289
0.08385423 -0.03281381 -0.16866224 -0.08197624 0.1707702 -0.045105677 0.040487826 0.11218695
0.08902872 0.00012241803 0.032216635 0.103152014 0.03884715 -0.1866603 0.07956751 0.14906561
-0.14378828 -0.00029210222 -0.18583877 -0.13161476 -0.15332201 -0.16225165 0.07277786 -0.07701068
0.09091321 -0.17441313 -0.13696207 0.09827685 0.03924026 0.09111073 0.07781045 -0.030180832
-0.029972484 -0.14924762 0.17409553 0.056905646 0.16232188 -0.088770285 0.03594971 -0.103998005
-0.17933872 -0.0012678913 0.08629017 0.14029555 -0.13421722 0.14776935 -0.072070815 0.11252406
-0.075936034 0.192772 -0.1708305 -0.16773686 -0.17739716 0.15905799 0.1848052 -0.17013387
-0.10535443 -0.027111633 0.17866091 -0.033402298 0.14765151 -0.09157085 -0.054798096 -0.1829749
0.0243849 0.110163525 -0.15199746 0.053734817 -0.11237531 -0.13867913 -0.18403973 -0.048526052
0.100919366 -0.013956481 0.048275635 0.18603201 0.17133133 -0.14802091 0.10379386 0.16317764
0.094287835 0.16097984 -0.068909384 0.16851987 -0.101546645 -0.06870231 -0.15418163 0.15323822
0.039201275 -0.16116297 -0.02174309 0.13123693 0.030506881 -0.03312129 -0.09105578 -0.033909336
0.1683183 0.02772559 0.11144615 -0.09634821 -0.17692822 0.13513239 0.16580163 0.117947415
-0.09784433 0.10796274 -0.036625236 -0.09745046 0.14041853 0.106653646 0.0041674073 0.16042143
0.19111316 0.16443996 0.19145027 -0.08491113 -0.07338357 -0.12549496 0.09227524 0.09591499
-0.17097855 -0.12626195 -0.06966671 -0.19072549 -0.12987775 0.073702835 0.05740859 0.11788439
-0.023432309 -0.13774788 -0.1927418 -0.13958353 -0.020425463 -0.1505386 0.16619565 0.0051211193
-0.027966678 0.017710654 -0.17453305 -0.12912484 -0.011502638 0.025982046 0.13131793 -0.18500961
-0.12397147 -0.1300423 0.14928992 -0.07236083 -0.04102778 -0.18646856 -0.06451567 -0.117292024
0.09014058 -0.02087077 0.11989772 -0.04975545 -0.16710384 -0.020230027 0.11618219 0.08841748
0.07793413 -0.05107846 -0.12190008 -0.076122165 -0.17112681 0.15437168 0.07949802 0.053292826
-0.10065928 0.18130805 -0.01737596 0.0028799735 0.057739154 0.08672372 -0.16993509 -0.18872663
-0.075965896 0.088443294 0.16298743 0.040397186 -0.13514815 -0.14551282 -0.12079387 -0.08583369
-0.035854537 -0.14031509 -0.12462406 0.00034210112 0.18306148 0.17894885 0.017708698 0.026185406
0.043610543 -0.04131715 0.08296452 0.18990041 0.08831562 -0.17254293 0.120862305 0.03524668
-0.1638526 -0.00012828907 0.13022481 -0.107613854 0.037494484 -0.16544749 0.0733567 -0.06210327
0.1150102 -0.15165943 0.13095668 0.049049083 -0.13850154 0.03832004 0.004158428 -0.1384366
-0.09445809 -0.14237732 -0.15056022 0.112993985 -0.00036268812 0.09538225 -0.16734008 0.09928635
-0.1369098 0.11200453 -0.05209398 0.06574523 0.18768612 0.01391923 0.0027343098 -0.14736156
0.11697034 0.02633596 0.15737222 0.03311028 -0.09465698 -0.029235695 -0.024359565 -0.0071648234

encoder.0.bias f4 [64]
00000000: 0e24 123d b1a7 b0bc 5384 1a3e e3e2 ccbc
00000010: fd1a 263e 4580 b6bc efb0 ae3c e6a6 16be
00000020: 235c 6bbd ad38 1d3e ee7d 123e 23c4 b23c
00000030: 678d e63d 9cfa d33d 20b4 343e 359a cf3d
00000040: 980d 153e a13b df3d 6939 51bd 0946 c2bd
00000050: 4387 1c3c 34ae 91bc a8a0 3abd c936 303d
00000060: 2647 dcbd 5834 81bd 5715 373d b80f 19be
00000070: 0b8f fa3d 8857 e0bc 3178 083e 8d4e 37be
00000080: 3978 0fbe d0f0 823c c91f d03d cd55 053e
00000090: bf04 373e 299f 8439 470e c8bd 2f3d cb3d
000000a0: 702e 22bd 3f19 893d 5cba 9e3c d253 e2bd
000000b0: 0d7c 403e 78ba c8bd 3f39 9fbd 2540 39be
000000c0: ebba 23be eed3 febb 8416 143d cc46 363e
000000d0: 6dd8 1ebe 38c1 10be 2e1b bdbd ce68 dfbd
000000e0: 6e9a 383e eb7e 9b3a 51a9 033e 9381 f5bb
000000f0: 8512 12be 0b43 25be 11dd 04be 0e35 32be
0.035678916 -0.021564336 0.1508954 -0.025010532 0.16221233 -0.02227796 0.021324603 -0.14712104
-0.057460915 0.15353651 0.14305851 0.02182204 0.11257439 0.10350534 0.17646837 0.101368345
0.14555967 0.10900045 -0.05108014 -0.094860144 0.009553733 -0.017783262 -0.04556337 0.043020997
-0.10755758 -0.06308812 0.044698086 -0.14947402 0.122343145 -0.027385488 0.133271 -0.17901058
-0.14010705 0.015983969 0.101623125 0.13021012 0.17872904 0.00025295586 -0.09768348 0.09923779
-0.039595068 0.066942684 0.019375972 -0.11051144 0.18797322 -0.09801191 -0.07774591 -0.18090875
-0.15989272 -0.007776729 0.036154285 0.17800444 -0.15512247 -0.14136207 -0.092337 -0.10908662
0.1802766 0.0011863386 0.12857558 -0.007492253 -0.14264877 -0.16138856 -0.12974955 -0.17403051

encoder.3.weight f4 [128, 64, 3, 3]
00000000: 224c 7cbb 3ca5 1dbd 9037 923b 373f 803c
00000010: bf55 9d3c a715 833b 851e 0238 a20a f33b
00000020: ca27 f13b 243a 333c 714e 833c a280 363b
00000030: e114 153d 8f53 043d d05f 88bc c3da c83c
00000040: ad73 133d 4448 60bc 22bb 7b3c 4d96 a93b
00000050: 3282 80bc 2880 863c 4ca2 13bd 627c fc3b
00000060: 41f0 833b dd3c 98bc c40b 5fbb c996 363c
00000070: 22c2 0b3d 9b82 72bc 5e55 b6bc 359b 293d
00000080: f943 70bc e747 093d bea7 d4bc 2939 06bd
00000090: 59af 233c 0d6e ffbb 6211 afbc a79e 263c
000000a0: 0648 78bb ce0c 013d a5ee 46bc ffdf b5bb
000000b0: ecf5 463c 32d7 ebbc 9646 883c f290 c73c
000000c0: e63d 98bc dc87 07bc b650 113d b7ca db3c
000000d0: 569f 17bd e601 1d3c dbd3 ac3c d11c 9e3c
000000e0: 4da5 82bb e649 c43c 41ee b1bb 9d70 c5bc
000000f0: bdbb f93c 88e8 0c3b 028b 88bc db58 d5bb
00000100: e91e 05bd 5464 d83c 5bcc 66bc 175f 673c
00000110: fe3d 92bb 71d7 163d a772 90bc 4ef5 86bc
00000120: 4c6f 1e3d c96b 2c3d ee73 f0bb bf85 77ba
00000130: 4bb8 083b e9a0 463b f267 08bd c0d0 f53b
00000140: 792f 23bd dc8c 4a3c 1364 213d 86cc bbbc
00000150: 8072 afbc 03b2 11bd 955f 873c 46d6 3a3b
00000160: 5dc2 1cbc 2f94 75bc 9ecd 1a3d a44a 153c
00000170: ad40 ba3c cbfa 283c d6cf 193d c30c 26bd
00000180: 0304 fbbc 76dd 6dbc 61f8 f1bc bd3f 47bc
00000190: d961 0b3d 631a 5cbc 900c 23bd 3dff 45bc
000001a0: 9f30 883c 994b b43c 3156 b8bc c0a7 f7bc
000001b0: 9620 1b3c 9de6 1ebd 1b6a d8ba e9b7 0b3d
000001c0: 641c 50bc 75f8 06bd a4ef e7bc 0124 7d3b
000001d0: cecb 09bc 73b3 94bc 08e2 f2bc 2cc9 b6bc
000001e0: d2a1 2c3d fca3 f43c 9bd1 e5bc 5996 7ebc
000001f0: 1641 863c 7dbe 48bc b0bf 97bc 3bb0 a8bc
00000200: ad1a 193c cddf 3d3c ea5f cf3b 0d29 ab3c
00000210: 9be3 54bb 598d 24bd 24bd b93c a432 b7bc
00000220: d841 cb3c 6503 c63c 3b00 8bbc 6b3f 123d
00000230: f9a7 9c3c 49e2 233d 8a97 c7bc f223 e03c
00000240: 9bb6 a0bc dbd0 81bb d7ab 1fbd e97d 5bbc
00000250: 7b1c 253d c61c 483b cc69 95bc 3bd5 89bc
00000260: 2df4 243b 9e79 a2bb 325c eb3b 6e4a cdbc
00000270: 8d8c 47bc 8d26 723c a4fa d4bb 00e7 13bd
00000280: ec99 e33c 823a 83bc d87d 19bd 4122 09bd
00000290: 1c8e 2e3c 546d a0bb abc1 8dbc 74b0 12bd
000002a0: 1db6 98bc e83a b3bc 9cd8 69bc 7673 61bc
000002b0: 4db7 a6ba b9c3 54bc e675 b3bc 24a7 dcbb
000002c0: 9c28 fcbb d1fb 043d b637 143d 8d67 7c3c
000002d0: f31b b0bc d58e 25bd 51bd 093d f36f 753b
000002e0: d0f1 54bc aff3 8abc c1f6 1abd 13b1 ca3b
000002f0: 2d86 9d3c 1ac9 b93c 4e85 bd3c 4eb1 b8bc
00000300: 7440 8dbc 921b 1f3d 4182 9d3c a31f edbc
00000310: 091d df3c dce8 0d3d 90e9 943a d2d4 583c
00000320: 062b 0bbd 7117 253d 2614 d33c d033 9fbc
00000330: 2f6c 6dbc 8170 b0bb 5b46 a5bb 702a ba3c
00000340: 544b e3bc cd0f 81bc a19b 07bc 0237 20bd
00000350: 19c2 bcbc aad6 1dbd b736 0f3d f04e 0a3d
00000360: 4f37 dc3c 4e67 ffbb 6f74 0f3d d918 15bd
00000370: 711d 743c 949f 9fbc 068d 02bd c42e e7bc
00000380: bade 213c a86b eb3c 6fd0 233d 0c1d 8d3c
00000390: 795b 15bd 5da7 97bc a87b 103b b7bf 873c
000003a0: becf ee3c 958e 273d 37db 293d e8d3 debc
000003b0: 7cf7 993c 9883 1b3d 37e7 bbbc a575 113d
000003c0: ffe6 553c 70f2 9eb9 c23a f6bb 7832 ee3c
000003d0: 0658 2a3c 13d2 16bd cee8 143d 559e f53c
000003e0: e3c3 123b cdd9 03bd 98a3 98bc 9533 043d
000003f0: 34be 113d 6b6a 4dba a69b 78bb 0c41 0dbd
-0.0038497527 -0.038487658 0.00446219 0.015655143 0.019205926 0.004000384 3.102284e-05 0.007417039
0.0073594796 0.010939155 0.016028615 0.0027847667 0.036396865 0.03230625 -0.01664725 0.024518376
0.03599899 -0.0136891045 0.01536444 0.005175388 -0.015687082 0.016418532 -0.03604345 0.0077052573
0.004026443 -0.01858371 -0.0034034112 0.011144348 0.034120686 -0.014801647 -0.022257503 0.041407783
-0.014664643 0.033515837 -0.025958892 -0.032769356 0.009990537 -0.0077951015 -0.021370593 0.010169662
-0.0037884726 0.031506352 -0.012141858 -0.005550384 0.012143593 -0.028789137 0.01663522 0.024361107
-0.018584203 -0.0082721375 0.035477363 0.02683006 -0.03701719 0.009582972 0.021097114 0.01930085
-0.0039869905 0.023961019 -0.0054300134 -0.02410155 0.030485028 0.0021500904 -0.016667847 -0.0065108365
-0.03250018 0.026415028 -0.014086808 0.014121792 -0.0044629565 0.036826555 -0.017632795 -0.016474392
0.03868036 0.04209498 -0.0073380386 -0.0009442232 0.00208618 0.0030308312 -0.033302255 0.0075016916
-0.039840195 0.012362685 0.03940208 -0.022924673 -0.021416903 -0.035570156 0.01652507 0.0028509065
-0.009567824 -0.014988943 0.037793748 0.009112034 0.022735918 0.0103137 0.037551723 -0.040539514
-0.030641561 -0.014518132 -0.029537382 -0.0121611925 0.03402886 -0.013434025 -0.039806902 -0.012084779
0.016624747 0.022008704 -0.022502037 -0.030231357 0.009468218 -0.03879415 -0.0016511114 0.034110937
-0.012702081 -0.03295179 -0.028312512 0.0038626196 -0.008410407 -0.018151974 -0.029648796 -0.022312723
0.04214651 0.02986335 -0.02805405 -0.015538775 0.016388457 -0.012252447 -0.01852402 -0.020591846
0.009344739 0.011589003 0.0063285725 0.020893598 -0.0032484296 -0.040173862 0.022673197 -0.022363015
0.02481167 0.02417154 -0.016967883 0.03570501 0.019123064 0.040010724 -0.024364252 0.02736089
-0.019618323 -0.003961665 -0.03898224 -0.013396719 0.040310364 0.0030534728 -0.018238924 -0.016825309
0.0025169954 -0.0049583456 0.0071826214 -0.025059905 -0.012179506 0.014779699 -0.0064996053 -0.03610897
0.027783357 -0.01601911 -0.03747353 -0.033479933 0.010653999 -0.0048958454 -0.017304262 -0.03581281
-0.018641526 -0.021878675 -0.014272835 -0.013760438 -0.0012719423 -0.012986117 -0.021906804 -0.006733792
-0.0076952707 0.032466713 0.036185943 0.015405548 -0.021497702 -0.04041942 0.03362781 0.003745076
-0.012997106 -0.0169619 -0.03783298 0.0061856597 0.019229019 0.0226789 0.023134854 -0.022545483
-0.017242648 0.038844652 0.019227149 -0.02894575 0.027235525 0.0346459 0.0011361111 0.013234334
-0.033976577 0.04030556 0.025766443 -0.019433886 -0.014491125 -0.0053845053 -0.0050437874 0.022725314
-0.02774588 -0.015754605 -0.008276851 -0.03911496 -0.023041772 -0.038534798 0.03496429 0.033766687
0.026881842 -0.0077942973 0.03502315 -0.03640065 0.0148995975 -0.019485272 -0.03187277 -0.028220542
0.009879762 0.028737858 0.0399937 0.017225765 -0.03646419 -0.018512422 0.002204636 0.016570909
0.029151794 0.04090746 0.041468825 -0.027200654 0.018794768 0.037967294 -0.0229374 0.035512585
0.013055562 -0.00030316738 -0.0075143287 0.0290768 0.010396963 -0.036821436 0.036354832 0.029982725
0.002239459 -0.032190133 -0.018632695 0.032275755 0.035581782 -0.0007835987 -0.003793457 -0.03448586

encoder.3.bias f4 [128]
00000000: eb11 5a3c a1c7 94bc 7ab9 023d 88a4 ea3c
00000010: c844 07bd 1c15 67b9 505c b7bc 86b3 2cba
00000020: d76e 923c a13c 1f3c 2175 5ebb 90c8 aabc
00000030: 24f5 77bc 3625 d1bb f743 d3bc ea64 11bd
00000040: 389a ec3b 87f8 1e3d be04 b43c 5ee8 42bc
00000050: e9cc 443c 7bbd 1abd 54c8 81bc 1d62 193c
00000060: 18b5 a5b9 8b38 1c3d 756a 94ba 535a 3f3c
00000070: f18b b43c e8ad 803c 4ab3 35bc cce7 0b3d
00000080: 44f6 57bc 9c11 2e3d daa9 aa3b 46f1 1b3d
00000090: bfc9 a13c ee78 0cbd 52ed 1ebd 18fa a3bc
000000a0: 68f0 c23c e87d 9abc d267 c2bc b767 feba
000000b0: 87f8 03bd 74ed b2bc 9b28 8a3c ba41 05bd
000000c0: 1fb3 1b3b 9027 d03b 5895 2c3a 4a51 dbbb
000000d0: 78ba db3c d739 1c3c 503d 2cbd 6270 d7bc
000000e0: b040 86bc 54e7 c23c 92b3 dc3b ec21 c7bc
000000f0: f0fb 17bd 3d02 dd3b 0a3c a6bc b0b4 fe3b
00000100: f4a3 54bc 14c6 0b3b 4092 e4bc ab7c edbc
00000110: da42 bfbc 3fba 08bd 0018 90bc f25c d43c
00000120: 8c20 8ebb 73cb b23c 46d3 1e3c 876d f0bc
00000130: 396f 243d 790d fa3c 6714 dd3c c45f c73c
00000140: b680 60bb ce26 aa3c a694 80bc d694 c4bc
00000150: 8850 f6bc 17ee a9bc eebc c33c 34c4 09bd
00000160: 2359 283d 6dc5 24bd b469 9dbc 2f80 bc3c
00000170: 4684 933c b270 62bb 1b24 1c3d 26fe d0bc
00000180: 7b3b 06bd 85c2 423c 527e e9bc 350b 8bbb
00000190: fb37 9f3a 31f7 fc3c e183 a6bb 2876 8a3c
000001a0: 109e 63bc 051f aebb 8dea 07bd 64e3 f4bc
000001b0: 31aa 00bd d945 f2bc bfb1 873c f340 c5bb
000001c0: 39ba fa3c 688c e7bb d680 9f3b 9b22 71bc
000001d0: 0f5c 253b 3235 0c3d d4ee 8bbc c990 02bd
000001e0: 9cbc c03c 013d 913b 0653 593c 88e0 a5bc
000001f0: c645 23bd 4a23 2a3c 0fc1 2e3c 6db4 ee3c
0.013309936 -0.018161597 0.031915165 0.028642908 -0.03302458 -0.0002203774 -0.022382885 -0.00065880304
0.017875118 0.009719045 -0.0033944326 -0.020847589 -0.01513413 -0.0063826097 -0.025789244 -0.03549663
0.0072205327 0.038811233 0.021974918 -0.011896221 0.012011745 -0.03777836 -0.015842594 0.009361771
-0.00031606178 0.03813986 -0.001132323 0.01167925 0.022039386 0.015707925 -0.011090109 0.034156606
-0.013181273 0.042497262 0.005208236 0.038071893 0.01974952 -0.034295015 -0.038800545 -0.020016715
0.023796275 -0.018858865 -0.023731146 -0.0019409572 -0.032219436 -0.021841742 0.016865065 -0.032533385
0.0023757888 0.0063523725 0.0006583533 -0.00669304 0.026822314 0.0095352745 -0.04205066 -0.026298705
-0.016388267 0.023791946 0.0067352736 -0.024308167 -0.0371055 0.0067446516 -0.0202923 0.0077730045
-0.012978543 0.002132778 -0.027901769 -0.02899011 -0.023347307 -0.033380743 -0.01758957 0.025923226
-0.004337376 0.021825528 0.009693926 -0.029349102 0.040145133 0.030524002 0.026987268 0.024337657
-0.0034256405 0.020770457 -0.015695881 -0.023996752 -0.030067697 -0.020743413 0.0238938 -0.03363438
0.041100632 -0.040227342 -0.019215442 0.023010341 0.018007409 -0.0034552035 0.03812037 -0.025511812
-0.03277157 0.011887197 -0.028502617 -0.0042432793 0.0012147421 0.030879589 -0.005081639 0.016902044
-0.0138926655 -0.0053137564 -0.03318267 -0.029893585 -0.031412307 -0.029574322 0.016564248 -0.0060197054
0.030606376 -0.0070662983 0.0048676534 -0.014717723 0.0025231873 0.03423042 -0.017081656 -0.03187636
0.023527436 0.004432321 0.013264423 -0.020248666 -0.039861463 0.01038439 0.010666146 0.029138768

decoder.0.weight f4 [64, 128, 3, 3]
00000000: b492 b33c bd94 c73c 6fd7 a43b a67a bb3c
00000010: 7c37 803c 471e 723c 752b 98bc 4b7a e63c
00000020: 1397 db3a 5dc9 18bc 13d9 d53c 2117 acba
00000030: 735f d73c f555 c63b 0010 9dbc 70d0 bfbc
00000040: 287d cc3c 8806 77bc 5e37 9bbc 26ef e43c
00000050: 13a8 e2bc 6191 b03c 5256 3d3c b40f b5bc
00000060: 77b2 22bc 1c35 b1bb 6f8c c3bb 5ea0 4bbc
00000070: 6a08 913c d62b adbc 1ca7 943b 8061 893b
00000080: bd52 5cbc 6768 513c bbd3 f23a 1b14 3e3c
00000090: 80ac b0bc 0b5e ecbb ae65 16bb f883 83bb
000000a0: 3054 60bb 7edc 8abb 3942 dd3c ad59 dcbc
000000b0: e221 2dbc 85aa bebc f962 98bc 8e7b 66bc
000000c0: 0cdf e3bb ce12 6a3c f4d5 783c 5580 65bc
000000d0: ea98 6e3c fcd6 b6bc 88c0 51bc 2bf2 d93b
000000e0: f0f5 9fbc 0e32 34bc 9d40 0fbb ab34 ed39
000000f0: 095d d7bb be2d 8ebc 7cc4 a2ba e742 e83b
00000100: e3c0 e33c b6bd ea3c b8b2 dabc 1b9f 4e3c
00000110: 65f6 5ebc f116 b5bb fa6f 183c 1457 b2bc
00000120: 4165 e33c 332a 5e3c f8ca 55bb c145 fb3b
00000130: 65e1 65bc 2529 8a3c 5fc6 c63c 10b5 89bc
00000140: 14a1 cabc 7d38 e53c a9a3 ea3c e9c4 9d3b
00000150: 26a8 44bc 2a3f 703c 898a 37bc f6c6 dabc
00000160: 55e4 b73c cd67 46bc 33d8 7fbc 086b d9bb
00000170: c8a4 31bc f245 18bc 426a 75bc 9fa2 b0bc
00000180: 3dd3 e13c a49f ef3c 431f 353c 3c62 913c
00000190: 4f4d b7bc 61c1 63bc a288 e3b9 d134 83bc
000001a0: 55fe a63b e9af 6a3a 8298 17bc cb23 6f3b
000001b0: a3b7 0fbc 28fe b2ba 1e18 6f3c 27b0 acbc
000001c0: 58c5 513c b325 f4bb 2d8d 0a3c 4494 ea3c
000001d0: 2b6b dfbc cf11 10bb 0435 b0bc 59f9 b83c
000001e0: 933a 0c3b e4e5 25bc 1f7d 98bc 2e0a 37bc
000001f0: 12b3 5cbc a957 25bc 3bf6 fc3b 609e ce3c
00000200: df76 cd3c a582 e83b dff3 84bc da15 84bc
00000210: 0a05 e33c 4318 82bc 5d8e c23b 17c1 e6bc
00000220: a94d 83bc 2d26 e3bc 9471 ca3b 9029 c13c
00000230: 68ab bf3c c873 91bc a8ca 93bc 7707 b2bc
00000240: 7ccd 80ba c7c6 ca3c 785b b8bc 4196 2bbc
00000250: 863d bfbc 4293 993c 0310 8fbc d7ff 34bb
00000260: 6bc2 c6bb cdc1 7b3c e38d c93c 8674 c63c
00000270: fff8 c3bc a455 82bc 9288 bd3c 238e a93c
00000280: 900e 35bc b46f 8dbb 5659 59bc 8712 9f3c
00000290: 650d c4bc 8d48 b6bb 8708 603b 293a eb3c
000002a0: b093 9ebc ac4a 413b 0ff4 cd3c 867c 43bc
000002b0: c17a dcbc 758f e4bb a6ab e8bc 7d53 8d3b
000002c0: f2f9 a43c ffa9 45bc 5792 ae3c 7d37 d2bb
000002d0: 11eb c9bb dac8 a43b 66a0 d3bc c29f f33b
000002e0: ff6d aa3c e234 b6bb 3ee2 52bc 86bb 16bb
000002f0: 1451 ccbb c81d d3bc e3dc a63c bfa9 e73c
00000300: 428b 35bc 6f79 0cbc 0d7c a5bc 3f13 82bc
00000310: bd0c 583c cfeb c53c d45d 79bc e003 c43b
00000320: 5ada 413a 6b53 13bc 5f8c d23c b284 59bc
00000330: 9e97 383c a724 85bc 57de 473b 347d bebc
00000340: 3bfc e53c 08ed ac3c 82c0 9f3c 4762 cdbb
00000350: 310d 13bc 72bd ae3c 746a 683b 2633 54bc
00000360: f574 853c c033 993c 21bc ce3c 9da7 b73b
00000370: 3cc5 65bc 8603 8b3c 0350 8f3c 625c c43c
00000380: 710f f3bb eb66 99bc eb43 44bb b1d6 d93c
00000390: fcfd b9bc 5b00 03bc 62a2 1a37 d212 983c
000003a0: 04c3 61bc cbc9 bcbc faa3 873c fa80 6c3c
000003b0: 6224 4d3c 1ad2 a2bc fc21 213c 40f6 7abb
000003c0: a956 d5bb caf7 db3c 4101 67ba b7a5 1e3c
000003d0: 1f9a ff3b 2b3b 5fbc 4974 de3c 8687 9bbc
000003e0: 8f93 203b a97c abbc b365 a2bc cd10 3f3b
000003f0: eb84 70bc c2e2 df3b 4d54 613c cd4d 283c
0.02192054 0.024362916 0.0050305645 0.022885632 0.015651457 0.0147777265 -0.01857541 0.028134486
0.0016753398 -0.0093253525 0.026104486 -0.0013129452 0.02629063 0.0060527273 -0.019172668 -0.02341482
0.024962023 -0.015077241 -0.0189473 0.027946066 -0.027668035 0.021553697 0.011556225 -0.022102214
-0.009930245 -0.0054079425 -0.0059676687 -0.012428371 0.017704207 -0.021139067 0.0045365226 0.004192531
-0.013447461 0.012781239 0.0018526235 0.011601473 -0.02156663 -0.0072133592 -0.002294879 -0.0040135346
-0.0034229867 -0.0042377105 0.027009116 -0.02689823 -0.01056716 -0.02327467 -0.018601881 -0.014067544
-0.0069540795 0.01428671 0.015187729 -0.0140076475 0.014562825 -0.02231931 -0.012802251 0.006651183
-0.019526452 -0.010998262 -0.002185858 0.00045243403 -0.00657237 -0.017355796 -0.0012418176 0.0070880535
0.027801936 0.028654914 -0.026696548 0.012611176 -0.01360855 -0.0055264165 0.009304041 -0.021770038
0.027758243 0.013559866 -0.00326222 0.0076682274 -0.014030789 0.016865322 0.024264513 -0.01680997
-0.024735011 0.027981037 0.028642492 0.0048147333 -0.01200298 0.014663497 -0.011202463 -0.0267062
0.022447744 -0.012109709 -0.015615511 -0.0066350736 -0.01084251 -0.00929402 -0.014978947 -0.021561919
0.027566547 0.029250927 0.011054817 0.017747037 -0.02237573 -0.013901086 -0.00043398613 -0.016016396
0.0050962367 0.0008952604 -0.009252669 0.003648984 -0.00877181 -0.0013656067 0.014593152 -0.02108009
0.012803398 -0.007450783 0.0084565105 0.028635152 -0.027272781 -0.002198327 -0.021509655 0.022579836
0.0021397218 -0.010125611 -0.01861435 -0.011171861 -0.013470428 -0.010091701 0.0077197826 0.025222003
0.025081096 0.007095652 -0.016229568 -0.0161237 0.027712364 -0.01588071 0.005937381 -0.028168244
-0.016028242 -0.027728165 0.0061780903 0.023579389 0.023397163 -0.017755404 -0.01804097 -0.021732075
-0.0009826864 0.024752988 -0.022504553 -0.010472835 -0.023344766 0.018746976 -0.01746369 -0.0027618313
-0.006065657 0.01536603 0.02460379 0.024225485 -0.023922442 -0.015909977 0.02313641 0.020697659
-0.011050835 -0.0043162946 -0.013265928 0.019418014 -0.023932168 -0.005562848 0.003418477 0.028714256
-0.019357532 0.002949397 0.02514079 -0.011931544 -0.026914002 -0.006975109 -0.02840216 0.004312931
0.020138714 -0.012064456 0.021310015 -0.006415306 -0.0061620553 0.005028826 -0.02583332 0.007434816
0.020804403 -0.0055605033 -0.012871323 -0.0022999956 -0.006235251 -0.025771037 0.020368999 0.028279183
-0.011080565 -0.008573874 -0.020200754 -0.015878318 0.013186631 0.024160294 -0.015220124 0.0059819072
0.00073949026 -0.008992056 0.0257017 -0.013276266 0.011266617 -0.016252829 0.0030497515 -0.02325306
0.028074374 0.021109119 0.019500975 -0.006267819 -0.008975313 0.021330569 0.0035463842 -0.012951648
0.016291121 0.018701434 0.025236191 0.005604698 -0.014024075 0.016969454 0.017494207 0.023969833
-0.0074176122 -0.018725833 -0.0029947709 0.02659163 -0.022704117 -0.00799569 9.216923e-06 0.018563662
-0.0137794055 -0.023045441 0.016557682 0.014435047 0.012520881 -0.019875575 0.009834763 -0.003829375
-0.006510575 0.026851553 -0.00088121375 0.009683064 0.007800355 -0.013624947 0.027155058 -0.018985521
0.0024502014 -0.020933466 -0.019823885 0.00291543 -0.014680128 0.0068324516 0.013753009 0.010272455

decoder.0.bias f4 [64]
00000000: 4d76 523c 025b 1abc 1b6f b03c f731 3c3c
00000010: c95d 2abb b9b8 893c 1450 39ba 7048 fa3b
00000020: 4239 e8bc 3aaf cabb 1b07 1fbb ee04 9d3c
00000030: 30c6 293c 9658 dabc 9f53 8a3c e3a1 b73b
00000040: 34b2 9abc a920 b93c 7499 b5bc afd4 e93c
00000050: b5e0 e2bc 7065 ca3c 74c2 3b3c a835 ed3c
00000060: 8abd 2e3b 2a2f 8c3c 9812 da3c 7e3a 94bc
00000070: 01d2 f0bc bd77 593a 5c30 1f39 4ba3 3ebb
00000080: 7d78 cebc f2b0 00bc e048 d8bc c5c9 6bbc
00000090: b474 ae3c 6c02 833c efc9 edbc e94a e03c
000000a0: e4b7 293c 7de0 a53c 1f58 36bc 4a3f 443c
000000b0: 47ba b63a 11b8 863c 6aac 5abc f2d9 9bbb
000000c0: 3dc3 e73c 08ab 87bc f133 febb 0554 a9bb
000000d0: 1a0c a73b 875c dabb 55af a6bc ebfe bbbb
000000e0: 7366 913b 4fac 9c3c fbc1 e33c 069b 8abb
000000f0: 343b b6bc 3dae 713c db23 60bc 0c27 703c
0.012845588 -0.009421112 0.021537354 0.011486522 -0.0025995842 0.016811715 -0.00070691225 0.0076380298
-0.028347615 -0.0061854394 -0.002426571 0.01916739 0.010362193 -0.02665357 0.016885577 0.005604015
-0.018883802 0.022598581 -0.022167899 0.028543798 -0.02769504 0.024706572 0.011459935 0.02895625
0.0026663267 0.017112333 0.026620194 -0.018094297 -0.029397013 0.00082957355 0.00015181437 -0.002908903
-0.025203938 -0.007854687 -0.026401937 -0.014391367 0.021295883 0.015992366 -0.029026954 0.02737947
0.010358784 0.020248646 -0.011129408 0.01197798 0.0013941013 0.016445192 -0.013346771 -0.0047562057
0.028291339 -0.016561046 -0.0077576567 -0.0051674866 0.005097878 -0.006663862 -0.020347277 -0.0057371757
0.0044372617 0.019125132 0.027802458 -0.004229906 -0.022245027 0.014751014 -0.013680424 0.014657747

decoder.3.weight f4 [32, 64, 3, 3]
00000000: 035f 103d 2d00 37bc 94cb a6bb ac59 13bc
00000010: 37b8 863c 8add 253d 2f76 dbbb fbed 09bc
00000020: 62ed 003d cd16 aabc adf6 febc 5d3c 6b3c
00000030: afaa 3cbc 021d dbbc ed91 3bbc a7a4 dc3c
00000040: 1573 183d 3315 4fbc 5b8d f0bb fa8a 01bd
00000050: 07da 99bc 1d3c 1d3d c6c8 0cbd 1196 043d
00000060: 7904 0dbc c3e7 2fbc 3956 073d 9303 fcbc
00000070: 52d7 c6bc 7ac0 923c 343d f73c c138 86b9
00000080: a5e3 bcbc c863 0b3d c161 95bb 9c81 283c
00000090: aa38 77bc 548c 09bc 5874 28bd 5287 12bc
000000a0: 0d54 65bc 200f 5fb9 fb22 dc3c cf96 1fbd
000000b0: 6b1a ca3c b810 f2bc 05ea edbc 6c04 ee3c
000000c0: fff0 ba3c 4990 b53c d430 dbbc 04f7 02bd
000000d0: 261e ae3c ee01 cbbc da9b 99bc a748 25bd
000000e0: a33b d03c b0c0 133d 559c 06bc ee04 0d3c
000000f0: dea6 f93c 7d4c 743c f0b7 63bc bd95 0bbd
00000100: 8296 993c ec8d a7bc b0aa 8ebc 2ef3 6cbc
00000110: 695b 77bc 8384 153d e128 a73c 8b28 d03a
00000120: 309e 9b3b d0d2 063d 66d5 463c bad9 133d
00000130: 7997 14bd 14d5 9e3b 85e8 e63c da9c 0dbc
00000140: 04ea e3bc d546 00bc 6bc6 7abb 351a 25bb
00000150: 0547 b8bc 2bf5 2cbd 3a4c 733c 5ca8 213d
00000160: e1dc b13c 9bf2 ca3b a76e 26bc 199d 1fbd
00000170: ad76 15bd 525b d439 43a6 17bd 5e6e 103d
00000180: 18dd 9b3c 7311 29bd 02fd e33b aca1 873c
00000190: ce3e 6b3b 6443 2cbd 16fe 083d f0de 0abd
000001a0: 9807 1ebd c76b cabc 706c a13c e412 e0bb
000001b0: afb4 d8bc 40b4 523c 4de1 bfbc fe5f 45bc
000001c0: 49a5 0dbd dcb6 2f3b fa67 fabc f5ee ce3c
000001d0: 8d83 04bd 40b2 dc3b f3b6 c6bb be00 9dbc
000001e0: 3409 17bd 40d9 263c 2c09 3a3a 86df 163d
000001f0: 39a4 e2bc 912b 963c fbbc 60bb 6754 e2bc
00000200: 5d5c 21bd 5160 633b ae0a 163d cc13 123d
00000210: db53 103d ecf9 173d 9259 0c3d a5f0 5b3c
00000220: e3f5 33bc 7e8e ecbc 0d55 d73a d48f 0a3d
00000230: fb1a fe3c 5f5b 8f3c 5e68 963a 14fb 8c3b
00000240: 70c7 e63a efd9 243d 8c55 e23c e165 ab3b
00000250: da23 28bd 3cbe 6bbb fe86 cbbc 6443 3e3c
00000260: e125 28bd 7411 9ebb 6898 1d3d 4f19 a5bc
00000270: 9602 cbbc 5102 1bbc 2999 b6bc d281 71bc
00000280: 57ff c3bc c30e e8bc cacd 02bd 7a47 babc
00000290: 922d ef3b ee27 2b3c 6099 7ebb 9653 ce3c
000002a0: 303d d0bc f56b 29bb f444 a7bc 493f a4bc
000002b0: 8f1f a03b 3fbe aa3b 696e fc3c 210c 7ebb
000002c0: b575 d63c d9dd 28bc b188 1b3d 02d8 9f3c
000002d0: 4126 8e3c 5ade edbb d2ba 9e3a 0bfd 16bd
000002e0: ff32 d73c 0980 b3bc 8bf4 193c 7e34 f43c
000002f0: 5ba0 08bd 7a53 e33c 5cc4 ebba aabc 003d
00000300: 4d53 693c f751 75bc 6332 3abc ed6d 873a
00000310: 4ea2 f03c bdd0 d73c 70ef 83bb e34b 3a39
00000320: 2cdb edbc b419 afbc ba36 76bc 7bb7 60bb
00000330: 8dfe afbc 16f1 0abc e69a 0d3d bd40 c3bc
00000340: c2dd 843a aca4 113c d379 eb3c 024d b83c
00000350: b4b3 11bd 44a7 50bc 9379 01bd 0e29 bb3c
00000360: 1dda cdbc 32ac 88bc a21d d83c 945f d5bc
00000370: 11cc f23c d803 fabb 2c3a 23bd caa7 ff3c
00000380: c2cc c2bb 5431 0dbd ca89 a5bb afd9 843c
00000390: 8184 0cbc 615d 10bd cd93 87bc 2583 2cba
000003a0: 98eb 003c 5ff7 1cbd cbc8 a83c caac 8a3c
000003b0: f3f1 213d 4b38 033d be13 0cbd cb63 f33b
000003c0: 4fe4 443c 5232 dd3b 6f55 c0bc eaac b5bc
000003d0: acd1 b3bb ead4 0fbd 16cf 14bc 4395 f03b
000003e0: 695b 383c 0306 0dbd ce64 bfbc 5d59 72bc
000003f0: 0e36 debb a52e 8cbc c872 243c a033 84bc
0.03524686 -0.0111694755 -0.0050901864 -0.008993547 0.016445262 0.04049448 -0.006697438 -0.008418555
0.031476386 -0.020762825 -0.031123484 0.014357653 -0.0115153035 -0.02674723 -0.011448366 0.026933981
0.037219126 -0.012639332 -0.0073410696 -0.03162668 -0.018780721 0.038387407 -0.03437116 0.032369677
-0.008607023 -0.010736409 0.033041213 -0.030763423 -0.024272595 0.017914046 0.030180551 -0.00025600757
-0.023057768 0.034030706 -0.0045587723 0.0102848075 -0.015089193 -0.008395273 -0.04112658 -0.008943396
-0.01399709 -0.00021272572 0.026872149 -0.03896218 0.0246708 -0.029548988 -0.029042253 0.029054843
0.022819994 0.022163527 -0.026756682 -0.031973854 0.02125461 -0.024781194 -0.018751074 -0.04035249
0.025419062 0.036072433 -0.008215983 0.008607132 0.030475076 0.014910814 -0.013898835 -0.03407835
0.018748526 -0.020453416 -0.017415375 -0.014462275 -0.0150974775 0.036503326 0.020405235 0.0015881223
0.004749082 0.03291589 0.012135839 0.036096312 -0.036277268 0.0048471782 0.028187046 -0.008643353
-0.027821548 -0.007829388 -0.003826524 -0.0025192623 -0.022494802 -0.042225998 0.014849717 0.0394672
0.021711769 0.0061934716 -0.0101582175 -0.03896818 -0.03649013 0.0004050383 -0.037023794 0.035261504
0.019026324 -0.041276406 0.006957651 0.016556583 0.0035895589 -0.042056456 0.03344544 -0.033904016
-0.03858146 -0.024709595 0.019705027 -0.0068381894 -0.026453344 0.012860358 -0.023422861 -0.012046812
-0.034581456 0.0026811874 -0.030567158 0.025260428 -0.03235202 0.0067351162 -0.0060642897 -0.019165393
-0.03687401 0.010183632 0.00070967036 0.036834262 -0.027666198 0.018331321 -0.0034292329 -0.027628137
-0.039394725 0.003469486 0.03663128 0.03566341 0.03523622 0.03710358 0.03426511 0.013424073
-0.010983917 -0.02887654 0.0016428545 0.03382857 0.031018725 0.017499624 0.0011475196 0.004302392
0.0017607044 0.0402469 0.027628683 0.005230651 -0.041049816 -0.0035971543 -0.024844643 0.011612747
-0.04105175 -0.004823858 0.038475424 -0.02015367 -0.024781507 -0.0094610015 -0.02228983 -0.014740424
-0.023925466 -0.028327351 -0.031934537 -0.02273916 0.0072991336 0.010446532 -0.0038848743 0.025186341
-0.025419801 -0.00258517 -0.020418622 -0.020049708 0.0048865746 0.0052106674 0.030814366 -0.0038764554
0.026179174 -0.010306799 0.037972156 0.01951218 0.017352225 -0.0072591724 0.001211012 -0.036862414
0.026269434 -0.021911638 0.0093966825 0.029810186 -0.033356052 0.027749766 -0.0017987597 0.031429924
0.014241052 -0.014973155 -0.011364552 0.0010332443 0.029374268 0.026344651 -0.004026346 0.00017766612
-0.029035173 -0.02137456 -0.015027696 -0.003428905 -0.021483684 -0.008480331 0.03457155 -0.02383458
0.001013689 0.0088893585 0.028744614 0.022497658 -0.03557177 -0.012735192 -0.031610083 0.022846725
-0.025128419 -0.016683672 0.026381318 -0.026046552 0.029638322 -0.0076298527 -0.0398504 0.031207938
-0.005944819 -0.03447087 -0.005051826 0.01621708 -0.008576513 -0.035245303 -0.01654997 -0.00065808214
0.00786867 -0.03832185 0.020603558 0.016928095 0.03953738 0.032036107 -0.034198515 0.0074276677
0.012017324 0.0067503834 -0.023478238 -0.022177178 -0.0054876413 -0.03511516 -0.009082576 0.007342012
0.011252263 -0.03442956 -0.023363497 -0.014791814 -0.006781346 -0.017112086 0.010037132 -0.016137898

decoder.3.bias f4 [32]
00000000: 5ec0 0e3d 79b6 a5bc 643c dfbc 94f1 633b
00000010: 3902 e1bc 0f5a d5bc f730 bcbb acae 07bd
00000020: 79bc 773c 7488 f3bc b7f6 ec3c 5aa3 023d
00000030: c496 f33c 3384 0fbd 84bb 90bc 4790 b4bc
00000040: 141f 5dbb f48a 9c3c 6be2 d43c 9d98 b1bc
00000050: f404 09bc c6cb fd3c c82c 813b 9a6d dabc
00000060: 5790 2c3c cff0 fbbc aefd 35bc b3bd 093d
00000070: 5614 e43c 3e81 523c 4e89 febc bbd3 c9bc
0.034851424 -0.020228611 -0.027250476 0.0034781443 -0.02746688 -0.02604392 -0.0057431418 -0.033125564
0.015120619 -0.029728152 0.028926237 0.031894065 0.029734977 -0.035038184 -0.01766754 -0.022041453
-0.0033740448 0.019109227 0.02598687 -0.021679217 -0.008362997 0.030980956 0.003942106 -0.02666359
0.01053246 -0.030754475 -0.011107845 0.033628177 0.027841728 0.012848197 -0.031071331 -0.024637094

decoder.6.weight f4 [1, 32, 1, 1]
00000000: 876a 063d 313b 1dbe 4e1a e43c 0c9e ab3d
00000010: dfcd 41bd 2051 c93d 824d 223d 206e f8bd
00000020: 488f cabd b653 01bd 0a27 00be feaa 803d
00000030: cab2 41bd 1ce1 193e 7330 a23a 7364 0c3e
00000040: 2fd4 f4bb cd1a 31bd 2cfb 233e eca4 33be
00000050: 562d cfbd f5c8 903c 680f 483c eb04 1dbe
00000060: e92c 803d 6349 5dbd fcf1 293e 2a76 5ebd
00000070: 446a bbbd 5fd5 5b3d b187 bc3d 0611 f13d
0.032816436 -0.15354611 0.027844574 0.083797544 -0.047315475 0.098299265 0.0396247 -0.1213038
-0.0989061 -0.031573974 -0.12514892 0.06282614 -0.047289647 0.15027279 0.0012374058 0.13710193
-0.0074715833 -0.04323845 0.16013783 -0.17543381 -0.10116069 0.017673949 0.012210704 -0.15333907
0.06258566 -0.054025065 0.16596216 -0.05431191 -0.09151128 0.053670283 0.092055686 0.11770825
