checkpoints/2025-05-30-18-03-20/last_epoch.pth (torch, 675371 bytes, 9 tensors)

encoder.0.weight f4 [64, 3, 3, 3]
0.07742329 0.10062948 0.14065257 -0.1661425 -0.01769309 0.07884155 0.06714176 0.1307712
-0.18255804 -0.16799296 0.18112291 -0.003688388 -0.17685509 -0.07077143 -0.045749933 0.08912857
-0.0011136114 -0.050849475 -0.1350038 -0.024510188 -0.13568306 -0.17933595 -0.011450249 -0.035789765
-0.12388868 0.1732863 -0.12920973 -0.123186015 -0.029121023 0.038987514 0.034446746 0.0628253
0.07385512 -0.06890231 -0.11377991 0.11423511 -0.14505857 -0.18593623 0.19053231 0.19071774
-0.058317013 0.15315327 0.11866571 0.12793724 0.03018067 0.17772977 0.13322872 0.1807694
-0.019626487 -0.11556067 -0.04198338 0.071713015 0.013510395 -0.11493088 -0.087854266 0.037093114
0.066198684 -0.112527125 0.17737913 0.008363541 -0.08825984 0.10246865 -0.13458516 -0.07615531
0.15290964 -0.18805405 0.1697589 -0.111078106 0.18970147 -0.01510675 -0.18258795 0.05115665
0.16393246 0.06430635 -0.18645558 0.0034800975 0.038271796 -0.03332843 0.11852546 -0.037625723
-0.012534561 0.12787212 0.06433455 -0.113812186 0.06664459 0.16165152 0.07958049 -0.023987662
-0.1142445 -0.05905141 0.11403271 -0.0022817682 -0.16983777 0.038614936 0.06713439 0.061906613
0.024655683 0.1158783 0.0067025507 0.15062194 -0.10271821 0.012768044 -0.07801965 0.07157591
0.006221285 0.072414145 -0.13552327 0.12173336 0.056600817 -0.0064010224 0.014327185 -0.12313494
-0.11466342 0.18796915 -0.10705101 0.07900244 0.0814233 -0.122961365 0.13429666 -0.05855708
0.15199387 -0.18060112 0.09797354 -0.17404826 -0.11384318 0.11646925 0.123223 0.15428966
-0.11916412 -0.023292005 -0.1373027 0.11798438 0.07862243 -0.1079716 0.13001648 0.04731318
0.08412918 0.14064634 -0.023923496 0.053627957 0.17569433 0.067832105 -0.10762907 0.02300566
0.07715998 -0.07382032 0.06292165 0.043386452 -0.0064920085 0.04540017 0.19061208 -0.116724
0.07657951 -0.07721256 0.124042325 -0.045594905 0.09518367 -0.078713745 -0.15806864 0.09248079
-0.119255506 -0.030314596 -0.18703859 0.14158604 0.18985595 0.025121326 -0.14023845 0.054858167
-0.14386055 0.06987584 0.14775376 0.032526903 0.1224137 -0.10782446 -0.016463984 0.0910785
0.1073997 -0.087159075 -0.101668425 -0.118742704 0.11064317 0.05523283 0.19056633 -0.16023168
-0.12885518 0.12683485 0.08600461 0.09648995 -0.17268987 0.067286424 0.19139285 -0.14860532
-0.16939831 0.0012633713 0.18795657 0.14805765 0.0967243 -0.10689065 -0.0217486 0.060259856
0.16167803 0.10571756 -0.16448548 0.13881755 0.12750281 -0.03880346 0.18401146 0.009803874
-0.04497865 -0.18679267 -0.02356111 0.104377046 -0.07788739 0.0076816734 -0.041723985 0.032947924
-0.014249613 0.01635366 0.1284023 0.078053705 -0.056873634 0.11979669 0.021786906 -0.08292367
-0.15896569 0.012995514 -0.11482762 0.0729781 0.13167606 -0.04749715 -0.095374726 0.16109294
-0.06540302 -0.0076489453 0.10614639 -0.16315207 0.105022594 -0.10422111 -0.069841675 -0.011367782
-0.1917628 -0.0022882973 0.10818998 -0.07457838 -0.114428975 -0.16854276 -0.14021213 0.16223381
0.07466617 -0.049033806 -0.035009213 0.06024561 -0.14935482 -0.031154381 -0.12355052 0.07683024
00000000: 1a90 9e3d d416 ce3d 3a07 103e 4221 2abe
00000010: 19f1 90bc ae77 a13d 9e81 893d e3e8 053e
00000020: 7ff0 3abe 5906 2cbe 4978 393e e2b8 71bb
00000030: 8019 35be 9df0 90bd 4864 3bbd 0a89 b63d
00000040: 99f6 91ba 8a47 50bd 703e 0abe 97c9 c8bc
00000050: 80f0 0abe d8a3 37be d399 3bbc 4a98 12bd
00000060: 59b9 fdbd f771 313e 8e4f 04be f348 fcbd
00000070: 368f eebc 5fb1 1f3d 0818 0d3d 8daa 803d
00000080: 5a41 973d a81c 8dbd 7105 e9bd 19f4 e93d
00000090: 3c8a 14be 1166 3ebe e71a 433e 834b 433e
000000a0: d2dd 6ebd 36d4 1c3e 0207 f33d fb01 033e
000000b0: 743d f73c cbfe 353e 1c6d 083e 9d1b 393e
000000c0: bac7 a0bc 13ab ecbd c4f6 2bbd 46de 923d
000000d0: b45a 5d3c e260 ebbd f0ec b3bd f3ee 173d
000000e0: 2d93 873d 9f74 e6bd e0a2 353e 3c07 093c
000000f0: 93c1 b4bd 15db d13d b1d0 09be 51f7 9bbd
00000100: 5894 1c3e 3e91 40be 47d5 2d3e eb7c e3bd
00000110: 1a41 423e 4d82 77bc 56f8 3abe a389 513d
00000120: e9dd 273e 0cb3 833d 36ee 3ebe 5912 643b
00000130: e3c2 1c3d 6483 08bd 7abd f23d 6e1d 1abd
00000140: c25d 4dbc e9f0 023e d5c1 833d 5d16 e9bd
00000150: f57c 883d fa87 253e 19fb a23d c681 c4bc
00000160: 05f9 e9bd e4df 71bd fb89 e93d b889 15bb
00000170: f4e9 2dbe b22a 1e3d c17d 893d ca91 7d3d
00000180: b7fa c93c 9a51 ed3d 12a1 db3b a33c 1a3e
00000190: ed5d d2bd 0f31 513c c4c8 9fbd 6496 923d
000001a0: ecdb cb3b de4d 943d 9dc6 0abe 574f f93d
000001b0: 42d6 673d abbf d1bb 92bc 6a3c 2c2e fcbd
000001c0: a8d4 eabd fc7a 403e 8f3d dbbd 08cc a13d
000001d0: 42c1 a63d 2bd3 fbbd 1085 093e 8cd9 6fbd
000001e0: 48a4 1b3e 80ef 38be 5aa6 c83d b539 32be
000001f0: 9d26 e9bd 6e87 ee3d 575c fc3d 1cfe 1d3e
00000200: 510c f4bd e0ce bebc 1499 0cbe cba1 f13d
00000210: cc04 a13d 3720 ddbd 0a23 053e 77cb 413d
00000220: eb4b ac3d 9805 103e 35fb c3bc fda8 5b3d
00000230: 37e9 333e 8feb 8a3d a16c dcbd 5e76 bc3c
00000240: 0d06 9e3d 1c2f 97bd 11dd 803d feb5 313d
00000250: eaba d4bb 87f5 393d d02f 433e fe0c efbd
00000260: b8d5 9c3d 9e21 9ebd e709 fe3d b9c1 3abd
00000270: a8ef c23d ac34 a1bd bfdc 21be 9266 bd3d
00000280: 3b3c f4bd 5156 f8bc 0b87 3fbe eefb 103e
00000290: 9969 423e 3dcb cd3c ab9a 0fbe f5b2 603d
000002a0: 2e50 13be 101b 8f3d c34c 173e ee3a 053d
000002b0: 09b4 fa3d 12d3 dcbd 7adf 86bc 5d87 ba3d
000002c0: 60f4 db3d 7580 b2bd 8937 d0bd 602f f3bd
000002d0: e398 e23d d23b 623d d223 433e c613 24be
000002e0: 9df2 03be ffe0 013e 2f23 b03d 869c c53d
000002f0: 9dd5 30be 77cd 893d 7dfc 433e fe2b 18be
00000300: c076 2dbe b597 a53a b077 403e 6d9c 173e
00000310: 6417 c63d 7ce9 dabd 1f2a b2bc 0ad3 763d
00000320: ed8e 253e 7382 d83d e26e 28be 3026 0e3e
00000330: 1990 023e 60f0 1ebd 806d 3c3e 6ea0 203c
00000340: 883b 38bd 9446 3fbe 3b03 c1bc a2c3 d53d
00000350: 6d83 9fbd 8cb6 fb3b c5e6 2abd 67f4 063d
00000360: 3577 69bc 1cf8 853c e47b 033e 9fda 9f3d
00000370: 54f4 68bd f857 f53d 747a b23c e3d3 a9bd
00000380: e7c7 22be 23eb 543c be2a ebbd 8b75 953d
00000390: 17d6 063e 5f8c 42bd d353 c3bd 8cf5 243e
000003a0: 05f2 85bd 01a4 fabb 4763 d93d 5611 27be
000003b0: 1616 d73d e171 d5bd 2709 8fbd ef3f 3abc
000003c0: 785d 44be 42f7 15bb b592 dd3d 8dbc 98bd
000003d0: bd59 eabd 7996 2cbe c593 0fbe 9f20 263e
000003e0: 94ea 983d acd7 48bd d265 0fbd 1ac4 763d
000003f0: 78f0 18be 7937 ffbc 0e08 fdbd 2c59 9d3d

encoder.0.bias f4 [64]
-0.1743757 -0.0062640468 0.09580865 -0.18297645 -0.06836385 0.1151383 -0.06051573 -0.03265789
0.0012055745 0.00060006423 0.15509395 -0.13157754 -0.03774883 0.010474931 0.08431254 -0.08273572
-0.13157815 0.188364 0.15056916 -0.033991255 0.18794009 0.07238441 -0.07514917 -0.044933986
0.04637377 -0.17191838 0.12337044 0.14386575 -0.10483602 0.10378623 0.055596814 -0.15763888
0.19149432 -0.06569787 -0.039057888 0.02022052 0.14024456 0.14373636 -0.18816152 -0.11840912
0.1257021 0.10336666 -0.049893025 -0.05616723 0.17868866 0.008094551 -0.10670216 -0.13200405
0.009086196 0.051668514 0.04207899 -0.004348311 -0.121951155 0.09006898 -0.13734642 0.18648279
0.11400666 -0.07421102 0.036478188 0.15054685 0.19125569 0.13447842 0.14606784 -0.08437463
00000000: 8b8f 32be a242 cdbb 5337 c43d 2e5e 3bbe
00000010: 5902 8cbd a1cd eb3d 58df 77bd 48c4 05bd
00000020: 5e04 9e3a a14d 1d3a f3d0 1e3e 43bc 06be
00000030: 849e 1abd 0c9f 2b3c 0eac ac3d 5871 a9bd
00000040: 6cbc 06be 7ee2 403e cd2e 1a3e 6a3a 0bbd
00000050: 5e73 403e 473e 943d cfe7 99bd b30c 38bd
00000060: 6cf2 3d3d 5f0b 30be a4a9 fc3d 8b51 133e
00000070: 44b4 d6bd e08d d43d 7cb9 633d 166c 21be
00000080: 1617 443e 9b8c 86bd 2afb 1fbd 81a5 a53c
00000090: 459c 0f3e a02f 133e 6aad 40be 7b80 f2bd
000000a0: 0db8 003e e6b1 d33d a15c 4cbd 9c0f 66bd
000000b0: 29fa 363e 029f 043c a986 dabd 122c 07be
000000c0: 45de 143c 5da2 533d 055b 2c3d 477c 8ebb
000000d0: 87c1 f9bd 1676 b83d 8aa4 0cbe 58f5 3e3e
000000e0: 537c e93d f2fb 97bd 276a 153d f428 1a3e
000000f0: 88d8 433e b6b4 093e cf92 153e 9bcc acbd

encoder.3.weight f4 [128, 64, 3, 3]
-0.017720025 0.017803697 -0.014444927 -0.011246922 0.018420337 -0.017370304 0.03100265 -0.02769168
0.033702556 0.02050683 -0.020137945 -0.03774526 -0.0249132 0.012295522 0.008115197 0.016249968
0.0388092 0.0089271255 0.007860488 0.03129929 0.021377292 0.013598064 0.03916737 0.032461654
-0.02704717 0.011048563 -0.00073135656 0.014939404 -0.020392831 0.016187774 0.025741171 0.013213269
-0.03132915 -0.008512188 0.0021372924 -0.003251095 0.0026410825 0.01470475 0.03649347 -0.034750577
-0.0117797805 0.0058650635 0.015962247 -0.019444363 0.040398967 0.0066914656 0.032553606 0.008557476
0.010546369 0.028555077 0.03827259 0.005769791 0.0047301794 0.02160883 0.009265426 -0.024574682
-0.039391953 0.025811195 -0.009769684 -0.020286448 -0.032935344 0.0074547497 -0.03849077 0.039915383
-0.03681487 -0.040400587 0.01236838 0.014464243 0.00023774982 -0.016029993 0.009209995 -0.017731804
0.014819367 -0.0050670006 0.02203843 0.0294665 0.012016906 -0.009949087 -0.015981039 -0.0077102412
-0.020610351 -0.019497478 -0.003961693 0.027772741 0.030373214 0.025975836 0.016617155 0.028168606
0.04027593 -0.03694853 0.012855582 -0.028487403 0.021094197 -0.034772817 0.037453283 -0.003638656
-0.031644426 -0.027703835 0.023120822 -0.006466725 0.041049052 0.017427642 -0.028525377 -0.0009230938
-0.017956134 -0.015071051 0.03704839 0.015884807 -0.012298947 0.0024621806 -0.007844488 -0.036814883
-0.036660567 0.038191903 0.023221137 0.024301104 0.03902626 0.033336952 -0.015205361 -0.018578446
-0.014592331 0.00044935197 0.0109496955 -0.038665444 -0.03032121 -0.00088438805 -0.017280225 -0.005931186
0.028049575 -0.01862205 0.020459423 0.0013750736 0.014322116 0.0077631497 -0.03431753 0.02537145
-0.0019106778 -0.032120068 -0.018941555 -0.019206312 0.0367562 -0.025689451 0.035043452 -0.025277868
0.013137551 0.039743904 -0.015763726 -0.038395617 0.036364276 0.011084745 -0.035337005 0.019119743
-0.021370795 0.011512526 -0.03393253 0.041403975 -0.03486636 0.0010359663 -0.02321146 0.004584408
-0.022893341 0.0074344464 0.04003565 -0.010181896 0.010229223 0.028812313 0.011956669 -0.04049178
-0.025708707 -0.005835102 -0.039997533 0.025342297 0.022025192 -0.028145554 0.018375013 -0.022857508
0.031581003 0.033838004 -0.0340798 -0.0021196841 0.0068303174 -0.034309067 -0.03943078 0.003666515
-0.039748188 -0.029009502 0.04111789 -0.036088143 -0.008965692 -0.023649687 0.025458483 0.024296677
-0.022248434 0.011972945 -0.0053207357 -0.038224224 -0.033890467 -0.00951301 0.014809042 0.03237074
0.028799523 0.037863147 0.030611595 -0.040081043 -0.02923876 -0.003938776 -0.026727878 0.03764999
-0.02276574 0.032639425 0.016007874 0.04032988 0.012688001 -0.009720651 -0.015265228 -0.032814365
-0.034331933 0.020868365 0.01123514 0.02951856 -0.005776146 0.021234643 -0.004769861 0.0037432597
0.019551748 0.013067797 0.027085602 0.03500913 0.022860784 0.010748755 -0.035337612 -0.02669695
0.031514034 -0.023707306 -0.030192329 0.03407726 -0.037059974 -0.0004205365 -0.021325264 -0.028708382
0.0056663607 0.025448209 -0.020372422 -0.027874408 -0.024139322 0.0012211468 -0.01272839 0.008949348
0.013423932 0.030022781 0.03751514 -0.008320239 -0.018581994 0.019732324 0.0012718291 -0.038138766
00000000: 9629 91bc 0fd9 913c 6aaa 6cbc 0345 38bc
00000010: 3fe6 963c 2b4c 8ebc 45f9 fd3c a9d9 e2bc
00000020: b10b 0a3d f1fd a73c 55f8 a4bc c69a 1abd
00000030: c416 ccbc 2873 493c 9af5 043c a71e 853c
00000040: 65f6 1e3d 1443 123c 47c9 003c af33 003d
00000050: 6e1f af3c 6aca 5e3c f76d 203d 83f6 043d
00000060: 0792 ddbc 0805 353c 82b8 3fba 67c4 743c
00000070: de0e a7bc 399c 843c 26df d23c 787c 583c
00000080: ff52 00bd b476 0bbc d111 0c3b 5310 55bb
00000090: 0316 2d3b 31ec 703c 2d7a 153d 9f56 0ebd
000000a0: fbff 40bc b82f c03b 42c3 823c c949 9fbc
000000b0: 6379 253d 1544 db3b ee56 053d a834 0c3c
000000c0: adca 2c3c 56ec e93c b8c3 1c3d 8410 bd3b
000000d0: 9fff 9a3b 0005 b13c 03ce 173c d850 c9bc
000000e0: 7559 21bd 0072 d33c 0611 20bc c42f a6bc
000000f0: 36e7 06bd f946 f43b 7fa8 1dbd 507e 233d
00000100: 30cb 16bd 167b 25bd bfa4 4a3c 6ffb 6c3c
00000110: 7b4c 7939 5551 83bc 85e5 163c 4a42 91bc
00000120: eecc 723c 1509 a6bb f089 b43c bb63 f13c
00000130: 8fe2 443c 7f01 23bc abea 82bc 31a6 fcbb
00000140: 0ad7 a8bc 2db9 9fbc 17d1 81bb a983 e33c
00000150: 3fd1 f83c 47cb d43c b320 883c d9c1 e63c
00000160: 60f8 243d 5757 17bd 38a0 523c 6a5e e9bc
00000170: bdcd ac3c f16d 0ebd 9d68 193d 8576 6ebb
00000180: 969d 01bd 27f3 e2bc e167 bd3c d2e6 d3bb
00000190: 0d23 283d 6ac4 8e3c 0dae e9bc c7fb 71ba
000001a0: be18 93bc 92ec 76bc 0dc0 173d db20 823c
000001b0: 8681 49bc 895c 213b 2b86 00bc 34cb 16bd
000001c0: 6429 16bd 1d6f 1c3d 413a be3c 1c13 c73c
000001d0: 00da 1f3d 548c 083d e81f 79bc d331 98bc
000001e0: ac14 6fbc 0097 eb39 5a66 333c a85f 1ebd
000001f0: 3064 f8bc 47d6 67ba 428f 8dbc 655a c2bb
00000200: 39c8 e53c 458d 98bc 859a a73c d03b b43a
00000210: 4fa7 6a3c 0562 fe3b 8a90 0cbd cad7 cf3c
00000220: b56f faba 5590 03bd 522b 9bbc 8e56 9dbc
00000230: ab8d 163d af72 d2bc b989 0f3d 8813 cfbc
00000240: e23e 573c 81ca 223d ee22 81bc b944 1dbd
00000250: b5f2 143d ca9c 353c 89bd 10bd 02a1 9c3c
00000260: ce11 afbc 099f 3c3c d6fc 0abd 3797 293d
00000270: 07d0 0ebd 43c9 873a f625 bebc cd38 963b
00000280: d18a bbbc a89c f33b 6cfc 233d f8d1 26bc
00000290: 7998 273c cd07 ec3c e8e5 433c b5da 25bd
000002a0: 119b d2bc 6234 bfbb 74d4 23bd a69a cf3c
000002b0: 2d6e b43c 8191 e6bc 3287 963c ab3f bbbc
000002c0: 155b 013d b899 0a3d 4397 0bbd 66ea 0abb
000002d0: dbd0 df3b aa87 0cbd 2b82 21bd ea49 703b
000002e0: ffce 22bd 56a5 edbc 3c6b 283d 29d1 13bd
000002f0: d6e4 12bc fdbc c1bc 4f8e d03c d309 c73c
00000300: 5942 b6bc 2c2a 443c 9159 aebb 0191 1cbd
00000310: bbd0 0abd 75dc 1bbc a0a1 723c 2e97 043d
00000320: faec eb3c 6316 1b3d 2bc5 fa3c 052c 24bd
00000330: 2086 efbc d910 81bb 6cf4 dabc e036 1a3d
00000340: 387f babc ebb0 053d f222 833c f230 253d
00000350: 55e1 4f3c 5e43 1fbc 021b 7abc 5b68 06bd
00000360: a49f 0cbd 22f4 aa3c 9813 383c e8d0 f13c
00000370: d345 bdbb 46f4 ad3c 7f4c 9cbb 7a51 753b
00000380: fd2a a03c 501a 563c a0e2 dd3c bc65 0f3d
00000390: 8a46 bb3c 8c1b 303c 2cbe 10bd 90b3 dabc
000003a0: dc14 013d d335 c2bc e755 f7bc 9994 0b3d
000003b0: 33cc 17bd 747b dcb9 52b2 aebc d72d ebbc
000003c0: e1ac b93b c378 d03c 11e4 a6bc df58 e4bc
000003d0: d4bf c5bc e30e a03a bd8a 50bc 49a0 123c
000003e0: 0df0 5b3c 56f2 f53c 7aa9 193d 9d51 08bc
000003f0: 4439 98bc afa5 a13c 81b3 a63a 6537 1cbd

encoder.3.bias f4 [128]
0.029423747 0.041032948 -0.025253922 0.016937254 -0.035848655 0.020953648 0.03197841 0.024539676
-0.019315794 0.008815147 -0.018601844 0.03190553 0.009073753 0.031707924 0.026803358 -0.024196573
0.03782676 0.020500584 0.021597069 0.0379134 0.007981637 0.03608095 -0.008389113 0.0019676064
0.033033848 0.005489795 -0.04221709 -5.835762e-05 -0.004479114 -0.017626321 -0.003341064 0.002183482
-0.01139423 -0.038210068 0.03640011 0.02953047 -0.036418546 0.006155716 0.0022861934 -0.019503588
0.03287579 -0.02612842 0.022851767 -0.016465276 -0.009040605 -0.02925725 -0.03819948 -0.004457391
-0.03917314 -0.020832716 -0.023570921 -0.01662474 0.027571252 0.014557976 -0.014111088 -0.024322467
0.026940303 -0.038134806 -0.01392645 -0.029238688 -0.0287743 -0.021503765 -0.0021530634 -0.0024345438
-0.033635043 -0.021758908 0.018012116 -0.028181624 -0.018180171 -0.032078374 0.042174645 0.033487316
-0.033079613 0.020123571 0.010243962 0.007486623 -0.0068616434 0.025544787 -0.037111036 0.019115338
-0.04058273 0.0181489 -0.005214193 0.03031433 0.027127117 -0.038087625 0.030768193 0.0063343085
-0.0384165 0.024374442 0.028898736 -0.0049940594 -0.025389899 0.03585901 0.027461836 -0.03392657
-0.003268383 0.041758653 -0.018126836 -0.038513105 -0.005405526 -0.01753773 0.019131059 0.009469714
-0.0013030284 0.011787068 0.026679033 0.02136008 -0.020004582 0.030935556 0.03166838 -0.013198266
0.026172401 0.023553938 -0.0012950954 0.0033123982 -0.0043694833 0.019982174 -0.0008372554 0.005820179
-0.037172183 0.030095054 0.022534477 0.03668454 0.021115473 0.020887462 0.015639834 0.033529613
00000000: 120a f13c 2a12 283d 50e1 cebc ffbf 8a3c
00000010: 0ad6 12bd fca6 ab3c cbfb 023d 6e07 c93c
00000020: 283c 9ebc 686d 103c e562 98bc 5faf 023d
00000030: 14aa 143c 2be0 013d b792 db3c e437 c6bc
00000040: 3cf0 1a3d d7f0 a73c 56ec b03c 154b 1b3d
00000050: 69c5 023c 9ec9 133d 7d72 09bc f5f2 003b
00000060: 804e 073d bde3 b33b d4eb 2cbd 04c5 74b8
00000070: 88c5 92bb 1365 90bc c1f5 5abb c018 0f3b
00000080: ddae 3abc 2982 1cbd 4818 153d e2e9 f13c
00000090: 9d2b 15bd e3b5 c93b f6d3 153b fdc5 9fbc
000000a0: c4a8 063d 450b d6bc a133 bb3c 30e2 86bc
000000b0: 0c1f 14bc e6ac efbc 0f77 1cbd 4e0f 92bb
000000c0: 0474 20bd 5fa9 aabc ce17 c1bc 9b30 88bc
000000d0: 1bdd e13c 9484 6e3c 3132 67bc e93f c7bc
000000e0: e9b1 dc3c 3e33 1cbd c42b 64bc f985 efbc
000000f0: 15b8 ebbc aa28 b0bc 691a 0dbb de8c 1fbb
00000100: e6c4 09bd bd3f b2bc 258e 933c 26dd e6bc
00000110: 95ee 94bc 9d64 03bd 52bf 2c3d ff29 093d
00000120: 7d7e 07bd 30da a43c 4ad6 273c 5852 f53b
00000130: a3d7 e0bb 4d43 d13c be01 18bd c597 9c3c
00000140: 143a 26bd 00ad 943c d2db aabb c255 f83c
00000150: b039 de3c c501 1cbd 940d fc3c 0890 cf3b
00000160: 9f5a 1dbd e9ac c73c 0bbd ec3c 35a5 a3bb
00000170: 7afe cfbc e6e0 123d a5f7 e03c 96f6 0abd
00000180: 5e32 56bb 1f0b 2b3d bb7e 94bc ebbf 1dbd
00000190: d720 b1bb 49ab 8fbc bdb8 9c3c dc26 1b3c
000001a0: 61ca aaba 8c1e 413c fd8d da3c 56fb ae3c
000001b0: a6e0 a3bc 906c fd3c b4b6 013d 8a3d 58bc
000001c0: 8167 d63c 30f4 c03c 31c0 a9ba d214 593b
000001d0: e22d 8fbb a8b1 a33c 427b 5bba 33b7 be3b
000001e0: dc41 18bd e789 f63c 399a b83c 8742 163d
000001f0: 5bfa ac3c 2f1c ab3c 1c1f 803c 5956 093d

decoder.0.weight f4 [64, 128, 3, 3]
0.028066667 -0.017622117 -0.008613342 0.020731237 -0.026414784 0.009067656 -0.025857324 0.015506794
-0.028051084 0.026722692 0.006879422 -0.014188848 -0.02265265 0.012322751 -0.0017387825 0.005745896
0.011943246 0.000877146 0.02127234 -0.021728668 0.0038458596 -0.025751658 -0.0051952437 0.0005620822
0.007829816 0.023931984 0.013831952 -0.02799241 -0.012402423 0.020927053 -0.0023406842 -0.016704341
-0.005249534 -0.02678273 -0.01297803 -0.0028254897 0.011843949 -0.007730991 0.008777095 0.019333374
0.023315318 -0.004531451 -0.026509631 -0.030012287 0.016139273 -0.0108189145 0.018300517 -0.02970393
-0.0061106873 -0.009462724 0.0014689958 -0.021056693 -0.013272293 -0.013922268 0.025354818 -0.0048788665
0.019227136 -0.017651439 0.01260138 0.020001935 0.02584856 0.017781947 -0.0029584519 -0.0048162653
-0.007763922 0.021692038 -0.02910755 0.011444486 -0.018894823 -0.004384416 -0.021163106 0.021101639
0.009372172 0.021199163 0.021138817 0.016191565 -0.0014914293 -0.0024866324 -0.009774704 -0.026913611
0.016378935 -0.0017982984 0.015667332 0.012072931 0.017625343 -0.01740492 -0.017430872 -0.016271895
-0.021896971 -0.010223108 0.019496547 -0.018405672 0.013169471 0.026040005 0.019628463 0.014870291
-0.011703919 -0.025826031 -0.017037407 -0.017019218 -0.012761943 -0.019503321 0.0042762156 0.0001308153
0.015692856 0.01839005 -0.00014561758 0.019445075 -0.016575307 0.025933998 0.02228428 -0.024729671
-0.0118605215 0.005131505 -0.028187765 0.0059661292 0.025576262 0.0026266624 -0.013746051 -0.02882986
-0.0073535624 0.0061374623 -0.008407278 0.00092023547 -0.008019919 0.004757671 -0.0009358185 0.017738644
-0.02421872 -0.02713351 0.023562621 0.026106872 0.02252837 0.006432749 -0.007372196 0.024233177
0.012848678 0.0019181975 -0.024325794 0.015111573 -0.0038719212 -0.0047124447 -0.02927517 -0.012213069
0.025855897 -0.006148202 0.022215191 -0.001682196 0.028226525 -0.0055659334 -0.020022666 0.0005425287
-0.018590122 0.018675275 0.02739119 0.004950683 -0.028267354 -0.025805209 0.022631504 0.0054655145
-0.027058456 -0.019189607 0.0001920168 -0.020561561 -0.023089623 -0.028492471 -0.02963425 -0.014685739
-0.0059286575 -0.004920132 -0.015281331 -0.018549709 -0.02061328 0.026332699 0.025740061 -0.0071145217
0.0178266 -0.01490336 0.023671914 -0.012814378 -0.009215889 -0.022293057 -0.010813896 -0.026546575
0.015122599 -0.0069109886 0.025363911 0.009727526 -0.026923724 0.025068056 -0.02412852 -0.024962248
-0.010864607 0.0031034988 -0.00029304172 -0.02127893 0.009688989 -0.011695165 -0.024452316 -0.018041572
0.0088088075 -0.019097166 0.024773171 -0.027567888 0.017529914 0.0035250473 0.02251693 -0.019581404
-0.029136935 0.007668557 -0.005241436 -0.0012387953 -0.00051361637 -0.010936995 0.0028680495 0.02384122
-0.015434119 -0.009298371 -0.011923169 0.008804573 0.005205585 -0.007612011 -0.002557294 0.009128759
-0.005024006 -0.009939219 0.0021252022 0.01936681 -0.012387555 0.027558155 0.0045688716 0.028045906
-0.0074613346 0.004516559 0.0082023945 0.022389092 -0.020453967 0.022704173 -0.012597684 -0.01960356
0.004182307 -0.017508775 0.021806484 -0.0076667587 7.279219e-05 -0.011239869 -0.017419323 0.00051472854
-0.0056255213 -0.009078926 0.00400229 -0.0031545553 -0.0041294475 -0.019295765 -0.012246588 -0.018720392
00000000: 11ec e53c 425c 90bc fa1e 0dbc 8ed4 a93c
00000010: d163 d8bc 8190 143c bdd2 d3bc 3510 7e3c
00000020: 63cb e5bc 8ce9 da3c c66c e13b 5878 68bc
00000030: 0d92 b9bc 5de5 493c dce7 e3ba 1248 bc3b
00000040: 9bad 433c 46f0 653a 5543 ae3c 5200 b2bc
00000050: d10a 7c3b 24f5 d2bc dd3c aabb b358 133a
00000060: a148 003c 020d c43c 699f 623c 5750 e5bc
00000070: 8833 4bbc 366f ab3c 2a66 19bb 8bd7 88bc
00000080: 4804 acbb 7567 dbbc cea1 54bc da2b 39bb
00000090: 1f0d 423c 4154 fdbb cecd 0f3c 0661 9e3c
000000a0: c4ff be3c 917c 94bb ba2a d9bc 54dc f5bc
000000b0: 8236 843c d141 31bc f7ea 953c a855 f3bc
000000c0: 293c c8bb 8b09 1bbc 528b c03a 167f acbc
000000d0: 0874 59bc 391a 64bc e8b4 cf3c e6de 9fbb
000000e0: 3a82 9d3c c099 90bc 0576 4e3c 19db a33c
000000f0: 5cc0 d33c 72ab 913c 96e2 41bb c3d1 9dbb
00000100: 8068 febb 80b3 b13c f572 eebc a781 3b3c
00000110: 51c9 9abc 26ab 8fbb 405e adbc 58dd ac3c
00000120: bd8d 193c dea9 ad3c 502b ad3c 2ca4 843c
00000130: 107c c3ba c5f6 22bb 1526 20bc ef79 dcbc
00000140: 1e2d 863c e2b4 ebba c758 803c 8bcd 453c
00000150: 0663 903c c394 8ebc 30cb 8ebc a34c 85bc
00000160: 4761 b3bc d37e 27bc 39b7 9f3c 7ec7 96bc
00000170: c4c4 573c d951 d53c dfcb a03c 85a2 733c
00000180: cbc1 3fbc 1d91 d3bc 0892 8bbc e36b 8bbc
00000190: 7817 51bc 6ec5 9fbc 7f1f 8c3b 772b 0939
000001a0: 4e8e 803c bba6 963c ecb0 18b9 474b 9f3c
000001b0: f0c8 87bc 8973 d43c 868d b63c e195 cabc
000001c0: a252 42bc 2f26 a83b 07ea e6bc 857f c33b
000001d0: 4f85 d13c 1524 2c3b 1e37 61bc 992c ecbc
000001e0: 27f6 f0bb c41c c93b aebe 09bc f53b 713a
000001f0: fa65 03bc 3de6 9b3b b751 75ba a250 913c
00000200: 5666 c6bc 1847 debc 6606 c13c 14de d53c
00000210: 6b8d b83c cfc9 d23b 7692 f1bb a884 c63c
00000220: 4383 523c 076c fb3a e346 c7bc 8896 773c
00000230: 0fc0 7dbb da6a 9abb 7bd2 efbc 5319 48bc
00000240: bfcf d33c db76 c9bb a2fc b53c 227d dcba
00000250: 503b e73c 6f62 b6bb 9306 a4bc 7c38 0e3a
00000260: 504a 98bc e4fc 983c 7d63 e03c 5739 a23b
00000270: f090 e7bc 7265 d3bc b465 b93c 0f18 b33b
00000280: b2a9 ddbc 8633 9dbc 1e58 4939 b870 a8bc
00000290: 7326 bdbc 0b69 e9bc 87c3 f2bc 749c 70bc
000002a0: 2f45 c2bb 0f39 a1bb 8c5e 7abc 8ff5 97bc
000002b0: 2edd a8bc acb7 d73c d2dc d23c ef20 e9bb
000002c0: 1709 923c 392d 74bc 9aeb c13c 66f3 51bc
000002d0: 3dfe 16bc ee9f b6bc c42c 31bc 3478 d9bc
000002e0: c7c4 773c 9375 e2bb fac7 cf3c 3460 1f3c
000002f0: 248f dcbc 865b cd3c 2da9 c5bc a17d ccbc
00000300: 7701 32bc 1264 4b3b 65a3 99b9 2751 aebc
00000310: 91be 1e3c 149d 3fbc 3950 c8bc ebcb 93bc
00000320: d152 103c a971 9cbc 1bf1 ca3c 0dd6 e1bc
00000330: e59a 8f3c 7b04 673b 6d75 b83c 2e69 a0bc
00000340: 95b0 eebc 8548 fb3b 5ac0 abbb 135f a2ba
00000350: 36a4 06ba 1531 33bc e3f5 3b3b aa4e c33c
00000360: 63df 7cbc 3258 18bc 6559 43bc 0e41 103c
00000370: 9d93 aa3b 2d6e f9bb 4698 27bb ca90 153c
00000380: 6ba0 a4bb 1bd8 22bc fa46 0b3b 25a7 9e3c
00000390: 2cf5 4abc a4c1 e13c 79b6 953b 87c0 e53c
000003a0: 367e f4bb a5ff 933b 5663 063c 5469 b73c
000003b0: 148f a7bc 1afe b93c 8466 4ebc a597 a0bc
000003c0: bc0b 893b 906e 8fbc 83a3 b23c 6f39 fbbb
000003d0: 02a8 9838 6d27 38bc f8b2 8ebc d9ee 063a
000003e0: 4b56 b8bb c7bf 14bc a425 833b a8bc 4ebb
000003f0: 5150 87bb 2712 9ebc eaa5 48bc 825b 99bc

decoder.0.bias f4 [64]
-0.024559805 -0.0036703667 -0.00088668475 0.009779008 -0.00028563777 0.025326759 0.018897714 -0.0049960995
0.01518584 0.012044229 -0.02709162 -0.025846893 -0.012975803 -0.0037100902 0.015141481 0.006502874
0.016211519 -0.005827361 -0.022181379 -0.016718091 0.023377735 0.013257847 -0.019735888 0.016135711
0.027259817 -0.016210588 -0.026933847 0.02719315 -0.0073301983 0.017223256 -0.0033593755 0.024773186
-0.018717367 -0.008765603 0.0069516352 -0.0050254716 0.016172364 0.013618006 0.019998204 -0.029772995
0.01176323 -0.01827665 -0.018563345 -0.00039382308 -0.010973272 -0.015221161 -0.020196555 0.01917648
0.008743217 0.022096433 0.00037331856 -0.025164152 -0.025869893 -0.02222832 -0.02909059 0.016154887
0.007328218 0.017599165 -0.013954958 0.020108037 0.0015789797 0.016390245 0.0031399643 0.0007691034
00000000: a531 c9bc 898a 70bb 6870 68ba 2238 203c
00000010: a7c1 95b9 107a cf3c 61cf 9a3c 52b6 a3bb
00000020: 08ce 783c 2855 453c 3fef ddbc ddbc d3bc
00000030: 7698 54bc fc24 73bb f913 783c 1016 d53b
00000040: 05ce 843c 72f3 bebb b9b5 b5bc 61f4 88bc
00000050: aa82 bf3c 7137 593c 28ad a1bc 0a2f 843c
00000060: fb4f df3c 11cc 84bc 5fa4 dcbc 2bc4 de3c
00000070: 2932 f0bb c917 8d3c f828 5cbb 23f1 ca3c
00000080: 2a55 99bc 9b9d 0fbc 8bca e33b b6ac a4bb
00000090: e87b 843c 0f1e 5f3c 46d3 a33c 7fe6 f3bc
000000a0: 90ba 403c eab8 95bc 2812 98bc 0a7a ceb9
000000b0: 3dc9 33bc 2d62 79bc 3f73 a5bc fe17 9d3c
000000c0: b63f 0f3c 9403 b53c f8b9 c339 0d25 cebc
000000d0: 19ed d3bc 2a18 b6bc 644f eebc 4157 843c
000000e0: 8c21 f03b 202c 903c 56a3 64bc 9cb9 a43c
000000f0: c4f5 ce3a d644 863c dcc7 4d3b a89d 493a

decoder.3.weight f4 [32, 64, 3, 3]
0.014385761 -0.040777948 0.014338245 -0.029467627 0.0350584 0.008335383 -0.0075464025 -0.017205866
0.04069848 0.010536586 -0.038274445 0.016240206 0.039810866 -0.023419933 0.02436927 -0.02898875
0.03138061 0.026736004 -0.03733007 0.028830474 0.009159556 -0.016748885 0.029156368 -0.023042746
0.006311591 -0.016783955 -0.016024638 0.019008296 -0.026254958 0.012924871 0.008184219 -0.0012128716
-0.0003341945 -0.034903985 -0.0075070187 0.015105186 -0.035377175 -0.009317312 0.039554216 -0.031867586
0.019237155 0.018997354 0.007224003 -0.038114678 0.028950144 0.017278252 0.0059096483 -0.029959893
-0.03295429 -0.042197395 0.020868538 0.017066352 -0.03364664 -0.004550685 -0.002232012 -0.03628169
-0.038513627 -0.01683207 -0.0347497 -0.031288423 0.035787247 0.015975332 -0.026845507 -0.03957043
-0.004827178 0.020750817 -0.00048883853 0.027476449 -0.019657923 -0.002087444 0.027751023 -0.004375666
-0.007944677 0.025606865 0.015376264 -0.02268834 -0.023967994 -0.028215831 -0.023510315 -0.037113436
-0.038502228 0.03544465 0.03236678 -0.032171637 -0.02706325 -0.0032735434 -0.042327773 0.027840609
0.03318762 0.037850477 0.010709008 -0.017909318 -0.012764732 -0.021613179 0.037571434 -0.024739543
0.00671893 0.022014828 -0.018794162 -0.0049368497 -0.011185708 0.015328675 -0.04162822 0.023657443
0.021508696 0.036324657 0.019223042 0.02776884 -0.016963251 0.005372089 0.028123187 0.0033053807
0.030734248 0.024149023 0.02134132 -0.021151522 -0.0095861815 -0.007922668 0.0386965 0.01866556
0.00060782314 -0.033536326 -0.037554193 -0.01595291 0.026506139 -0.0031632436 -0.040037524 -0.04260218
0.033789486 0.026163602 0.01753603 -0.00038279683 -0.03511124 -0.026799524 0.00918119 0.038233053
-0.015658498 -0.03867472 0.0004749321 -0.02289981 0.017341686 0.017811678 0.012999736 0.02641068
0.010489747 0.022458445 -0.013169718 -0.008755435 -0.012271688 0.035460927 -0.007503454 -0.030407013
0.021388642 0.016491335 -0.028582782 0.03430019 0.025830818 0.03563894 -0.032248676 -0.0010601665
0.013179684 -0.024531495 -0.014096085 -0.0011008496 0.0056190393 -0.014363344 -0.0015949776 -0.036336984
-0.023682237 0.0036654067 0.034202985 -0.022898072 -0.029470984 -0.020632269 0.03774837 0.01713019
0.017560655 0.010108236 0.003129781 0.020430742 0.03729496 0.0033446376 -0.041540053 -0.019208243
-0.030929439 0.003493233 0.017546104 0.0056102565 -0.010154332 0.0045756227 0.009934333 -0.041293323
0.037641186 0.00052693504 0.03427863 0.0013370542 0.02083623 0.029974405 0.00586363 -0.039442964
-0.02391647 0.0387277 -0.023523664 0.020739915 -0.01982833 -0.020900263 0.03725821 -0.034674823
0.022932634 0.0072040083 0.010817595 -0.032771114 0.03017 0.005673331 0.039137393 0.008695691
-0.0034675852 0.01194775 -0.03637975 -0.030120071 -0.029535413 -0.028014135 -0.038988527 0.002312875
0.00035093934 0.015694952 -0.013195385 -0.0317189 0.026249578 -0.025618868 0.014255295 0.006253228
0.004896506 -0.02335561 0.03466856 -0.012632278 0.011597588 -0.006855771 0.02014871 -0.025377773
0.0073632495 0.0075530703 -0.034603503 -0.033205636 0.03896129 0.025174191 -0.02381801 0.005282283
0.025341379 -0.03823601 -0.015963152 0.026617143 0.024504505 -0.03794342 -0.028292432 -0.019261021
00000000: 41b2 6b3c c706 27bd f5ea 6a3c 1866 f1bc
00000010: 6699 0f3d 2191 083c d047 f7bb 51f3 8cbc
00000020: 73b3 263d a5a1 2c3c aac5 1cbd 2e0a 853c
00000030: b810 233d 29db bfbc 10a2 c73c d179 edbc
00000040: f488 003d 7705 db3c 6ae7 18bd e32d ec3c
00000050: f611 163c f534 89bc 56d9 ee3c 24c4 bcbc
00000060: 76d1 ce3b 817e 89bc 1a46 83bc 49b7 9b3c
00000070: a314 d7bc d7c2 533c 1a17 063c 38f9 9eba
00000080: d436 afb9 7bf7 0ebd 70fd f5bb be7b 773c
00000090: a8e7 10bd a4a7 18bc 9a03 223d 9687 02bd
000000a0: 3d97 9d3c 57a0 9b3c 54b7 ec3b 231e 1cbd
000000b0: da28 ed3c 1f8b 8d3c b9a5 c13b 736e f5bc
000000c0: 14fb 06bd 2dd7 2cbd 7ff4 aa3c bcce 8b3c
000000d0: 0fd1 09bd ea1d 95bb f346 12bb 1c9c 14bd
000000e0: 77c0 1dbd 69e3 89bc b455 0ebd 4a28 00bd
000000f0: a695 123d b3de 823c 1ceb dbbc 9a14 22bd
00000100: 4e2d 9ebb 9efd a93c 6625 00ba 4a16 e13c
00000110: a709 a1bc 80cd 08bb 1d56 e33c bf61 8fbb
00000120: 642a 02bc 7dc5 d13c baec 7b3c e6dc b9bc
00000130: 8758 c4bc e324 e7bc b498 c0bc 4204 18bd
00000140: 83b4 1dbd 692e 113d 0793 043d 68c6 03bd
00000150: c0b3 ddbc f288 56bb e35f 2dbd fd11 e43c
00000160: beef 073d 1a09 1b3d d674 2f3c 90b6 92bc
00000170: 2b23 51bc 1f0e b1bc 81e4 193d 95aa cabc
00000180: 782a dc3b 7158 b43c 37f6 99bc 4cc5 a1bb
00000190: 4344 37bc 1f25 7b3c 5a82 2abd 41cd c13c
000001a0: 0133 b03c 2ac9 143d a479 9d3c 7a7b e33c
000001b0: 84f6 8abc 5908 b03b 9962 e63c 169f 583b
000001c0: 64c6 fb3c 2cd4 c53c fed3 ae3c f545 adbc
000001d0: 5c0f 1dbc 14ce 01bc 3980 1e3d 84e8 983c
000001e0: 5256 1f3a 635d 09bd 6dd2 19bd adaf 82bc
000001f0: 6723 d93c 6c4e 4fbb 63fe 23bd a07f 2ebd
00000200: d866 0a3d 0d55 d63c b8a7 8f3c 1fb2 c8b9
00000210: ced0 0fbd ad8a dbbc b46c 163c 439a 1c3d
00000220: 4046 80bc 6269 1ebd 4f00 f939 6298 bbbc
00000230: 2710 8e3c cce9 913c d8fc 543c 365b d83c
00000240: 30dd 2b3c c6fa b73c cdc5 57bc f572 0fbc
00000250: 310f 49bc 7a3f 113d 89df f5bb 2118 f9bc
00000260: 3c37 af3c d618 873c 7026 eabc 5b7e 0c3d
00000270: 279b d33c 23fa 113d 3017 04bd 49f5 8aba
00000280: 9aef 573c 46f6 c8bc 44f3 66bc 624a 90ba
00000290: eb1f b83b 3b54 6bbc 910e d1ba 17d6 14bd
000002a0: 4001 c2bc 5237 703b 6e18 0c3d bd94 bbbc
000002b0: 226d f1bc 0105 a9bc 099e 1a3d 9d54 8c3c
000002c0: 5ddb 8f3c 049d 253c 031d 4d3b 5f5e a73c
000002d0: 9ac2 183d b531 5b3b e725 2abd 9b5a 9dbc
000002e0: bc5f fdbc b9ee 643b d9bc 8f3c 3ed6 b73b
000002f0: 5b5e 26bc 1bef 953b 9dc3 223c 3023 29bd
00000300: a52d 1a3d 0322 0a3a c067 0c3d 1840 af3a
00000310: beb0 aa3c e28c f53c b223 c03b f28e 21bd
00000320: 79ec c3bc f0a0 1e3d b3b4 c0bc c1e6 a93c
00000330: 066f a2bc 0737 abbc 119c 183d 3007 0ebd
00000340: 38dd bb3c 9a0f ec3b 483c 313c 013b 06bd
00000350: 1327 f73c 5ae7 b93b 884e 203d 5f78 0e3c
00000360: 6d40 63bb 7fc0 433c ef02 15bd 5ebe f6bc
00000370: 40f4 f1bc e67d e5bc 6fb2 1fbd 9a93 173b
00000380: 48fe b739 b392 803c 7531 58bc adeb 01bd
00000390: 5b09 d73c a9de d1bc 0a8f 693c e1e7 cc3b
000003a0: df72 a03b 4454 bfbc 9f00 0e3d 9df7 4ebc
000003b0: cf03 3e3c 60a6 e0bb e80e a53c 0ce5 cfbc
000003c0: 6a47 f13b bf7f f73b 67bc 0dbd a202 08bd
000003d0: e095 1f3d 1b3a ce3c fd1d c3bc 0017 ad3b
000003e0: b998 cf3c 5d9d 1cbd 28c5 82bc 320c da3c
000003f0: acbd c83c 8f6a 1bbd 88c5 e7bc 4ac9 9dbc

decoder.3.bias f4 [32]
0.0022047136 0.037013378 0.04022211 0.007218382 0.035772696 -0.01258616 0.038055968 0.011585749
0.030241704 0.0003027596 0.010566518 0.0406144 0.028579127 0.03493002 -0.015522061 0.008766933
-0.025974955 0.011567753 0.017285818 -0.025486361 -0.010166655 0.0070149293 -0.015912341 -0.030167187
0.03409511 0.01981537 -0.03781354 0.008254356 0.038379557 -0.0369631 0.004524991 -0.040434152
00000000: f57c 103b 579b 173d f0bf 243d 2d88 ec3b
00000010: 6486 123d 2e36 4ebc 93e0 1b3d 27d2 3d3c
00000020: 73bd f73c b5bb 9e39 301f 2d3c 495b 263d
00000030: c61e ea3c c812 0f3d 3e50 7ebc 2fa3 0f3c
00000040: 6ec9 d4bc ac86 3d3c fd9a 8d3c c6c8 d0bc
00000050: 0b92 26bc 7edd e53b 995a 82bc 2d21 f7bc
00000060: 50a7 0b3d d853 a23c 5fe2 1abd 473d 073c
00000070: e233 1d3d 9f66 17bd 6046 943b 489e 25bd

decoder.6.weight f4 [1, 32, 1, 1]
0.0026984694 -0.113669075 -0.019467719 -0.11516296 0.017449984 0.08195013 -0.085607804 0.022059109
-0.16390799 0.009980279 0.1053863 -0.08611495 0.14792132 -0.026303729 0.1616609 0.14490442
0.14943866 0.08395264 -0.123218715 0.1696283 -0.10743987 0.058477636 0.15195513 -0.07282551
-0.0018977016 0.17543095 -0.1159721 0.11121624 0.031636886 0.062809676 0.07499444 0.00552055
00000000: ced8 303b 55cb e8bd c47a 9fbc 8fda ebbd
00000010: 45f3 8e3c 78d5 a73d 2553 afbd 4eb5 b43c
00000020: 7fd7 27be 5384 233c c6d4 d73d 095d b0bd
00000030: b078 173e eb7a d7bc 6f8a 253e d361 143e
00000040: 7306 193e 5def ab3d 185a fcbd 0bb3 2d3e
00000050: 6f09 dcbd 3f86 6f3d 209a 1b3e 8a25 95bd
00000060: 4dbc f8ba 2ca4 333e c882 edbd 57c5 e33d
00000070: ae95 013d 5ca2 803d af96 993d bbe5 b43b
