checkpoints/2025-05-30-16-22-40/last_epoch.pth (torch, 675371 bytes, 9 tensors)

encoder.0.weight f4 [64, 3, 3, 3]
0	0x3d9cd450	0.07657683
1	0x3e1cdca3	0.15318541
2	0x3e37186a	0.17880407
3	0xbe2054d4	-0.1565736
4	0x3df62060	0.12017894
5	0xbe1afc2c	-0.15135258
6	0x3c05af28	0.008159436
7	0xbde44ba5	-0.111472405
8	0xbdc2e5ff	-0.095165245
9	0xbdaf7aff	-0.085683815
10	0x3ca7f39f	0.02050191
11	0xbe24821a	-0.16065255
12	0x3cf66ac5	0.030080209
13	0xbc088ef9	-0.008334869
14	0x3e311c52	0.1729596
15	0xbd09ccb8	-0.0336425
16	0x3de79bce	0.11309014
17	0x3e43ad76	0.19109139
18	0xbe4461af	-0.19177888
19	0xbdb916f4	-0.09037581
20	0xbe3f34b5	-0.1867245
21	0x3de9eb07	0.11421781
22	0x3e2baaed	0.16764422
23	0x3d8b7613	0.0680963
24	0xbd3d61f3	-0.04623599
25	0xbe3b40dc	-0.1828646
26	0xbde1cddc	-0.11025593
27	0xbc3353b8	-0.010945253
28	0xbc73e21c	-0.014885452
29	0x3d822756	0.06355159
30	0xbd27e3ec	-0.040988848
31	0xbc19cea2	-0.009387644
32	0x3d17e7a2	0.037086137
33	0x3daa1fca	0.083068445
34	0xbbbf9553	-0.0058466583
35	0xbc1857d4	-0.009298284
36	0xbe304094	-0.17212135
37	0x3dd5d74b	0.104414545
38	0xbdef084b	-0.11671504
39	0x3d566f22	0.05235208
40	0xbe110ff3	-0.1416624
41	0x3dca3770	0.09873855
42	0xbcfbeef1	-0.030753585
43	0x3d9e6588	0.07734209
44	0xbda66f68	-0.08126718
45	0xbe16b441	-0.14717199
46	0x3d9241d0	0.07141459
47	0x3dea4c35	0.114403166
48	0xbdbb0142	-0.09131099
49	0x3d3a8d26	0.045544766
50	0xbe107d68	-0.14110339
51	0x3d358bfd	0.044322956
52	0xbdfc912c	-0.12332377
53	0xbe1362d8	-0.14393175
54	0xbe14114e	-0.14459726
55	0xbd9e0973	-0.07716646
56	0x3e14bd79	0.14525403
57	0x3dc52666	0.096264645
58	0x3d80a183	0.06280806
59	0x3e3d7c6b	0.18504493
60	0xbd03e645	-0.032202024
61	0x3d2a516c	0.041581556
62	0xbdcbd651	-0.09952987
63	0xbd37251c	-0.044713125
64	0xbd23400b	-0.039855998
65	0x3db2519d	0.08706973
66	0xbd8583db	-0.0651929
67	0x3d6d1269	0.057878885
68	0xbe0fa9bb	-0.14029591
69	0x3da4f165	0.08053855
70	0xbd94e888	-0.07270914
71	0xbdbc4212	-0.091922894
72	0x3cc6ff90	0.024291784
73	0xbc6a2050	-0.01428993
74	0x3e2637c7	0.16232215
75	0x3cce374b	0.02517285
76	0xbd583761	-0.05278719
77	0x3e3f3310	0.18671823
78	0x3d79a7a3	0.060950886
79	0xbe42704f	-0.18988155
80	0xbd12fe0b	-0.035886806
81	0x3d0c7e01	0.034299854
82	0x3deba94c	0.115069
83	0x3e21a5fe	0.15785977
84	0xbdea18d6	-0.11430518
85	0xbd1f9a80	-0.038965702
86	0x3dd15051	0.10220397
87	0x3d1a8678	0.037725896
88	0x3da992d5	0.08279959
89	0x3d386dce	0.045026593
90	0xbe3b0b42	-0.18266013
91	0xbd9f6940	-0.07783747
92	0xbce17816	-0.027523082
93	0xbd52e13d	-0.051484335
94	0xbd656430	-0.05600375
95	0x3da40713	0.08009162
96	0xbb49af63	-0.0030774705
97	0x3e3d10ca	0.18463436
98	0xbdbb8545	-0.091562785
99	0x3e43f41d	0.1913609
100	0x3c04b7e2	0.008100482
101	0xbd9af9ff	-0.07567214
102	0x3de8d6f3	0.11369123
103	0xbe2e487b	-0.17019837
104	0x3e0341df	0.12818097
105	0xbd1f4af2	-0.038889833
106	0x3e20fffd	0.15722652
107	0x3d805572	0.062662974
108	0x3df280ce	0.11840974
109	0xbe0679dd	-0.13132425
110	0xbe2f12c9	-0.1709701
111	0x3d074a84	0.033030048
112	0x3e414554	0.18874103
113	0xbe2e6967	-0.17032395
114	0x3da5ee2d	0.08102069
115	0x3e40061c	0.1875233
116	0x3df9720c	0.12179956
117	0xbe3c3618	-0.1838001
118	0xbde282d0	-0.11060107
119	0x3cb4936e	0.022042956
120	0xbe0ce662	-0.13759759
121	0xbdd70afe	-0.105001435
122	0xbd60b704	-0.054862037
123	0xbdc81045	-0.09768728
124	0xbb9288f8	-0.0044718944
125	0x3de27ec8	0.11059338
126	0x3e33471f	0.175076
127	0xbe4171db	-0.18891089
128	0xbe155a9f	-0.1458535
129	0xbc68ecfd	-0.014216659
130	0x3d98dbd4	0.07463804
131	0xbc923a62	-0.017850105
132	0x3e1da145	0.1539355
133	0x3ddf5753	0.10905328
134	0xbe1234bd	-0.1427793
135	0xbdf526ef	-0.119703166
136	0xbe36e5fc	-0.1786117
137	0x3d7c0f0c	0.061537787
138	0xbcd33076	-0.025779944
139	0x3e123382	0.14277461
140	0x3d658795	0.056037504
141	0x3de1991c	0.110155314
142	0xbda4f6d0	-0.08054888
143	0x3cb3bebf	0.02194154
144	0xbda954cd	-0.082681276
145	0x3b14bbaa	0.0022694864
146	0xbe4506d1	-0.19240882
147	0xbe30826c	-0.17237252
148	0x3dd2c136	0.10290758
149	0xbe0ffecc	-0.14062041
150	0x3df427a4	0.11921623
151	0x3d572756	0.052527748
152	0xbe28ed16	-0.16496691
153	0x3d546b35	0.051860053
154	0xbe2a70ff	-0.16644667
155	0x3e0117e1	0.12606765
156	0x3d862c21	0.06551386
157	0x3e2b061c	0.1670155
158	0x3db392a9	0.087682076
159	0xbe227fc3	-0.1586905
160	0x3ca45292	0.020058904
161	0xbdd05926	-0.10173254
162	0x3d160fbc	0.0366361
163	0x3d9f810b	0.07788285
164	0x3c90faff	0.01769781
165	0xbb971961	-0.0046111797
166	0x3d58f2e8	0.05296603
167	0x3c35a732	0.011087226
168	0xbe07b303	-0.13251881
169	0x3dd39f56	0.10333125
170	0x3dfb1666	0.122601315
171	0xbd80c325	-0.06287221
172	0xbe18e87e	-0.14932439
173	0x3dc03386	0.09384827
174	0x3ddab916	0.106798336
175	0xbd1c6d9c	-0.03819047
176	0xbd824489	-0.06360728
177	0xbd073c39	-0.033016417
178	0xbcadfda4	-0.02123911
179	0xbd760fcb	-0.060073655
180	0xbe402e4d	-0.18767662
181	0xbdaf7a20	-0.08568215
182	0xbc8334e3	-0.01601643
183	0xbdd06e8b	-0.101773344
184	0x3de2abe4	0.11067942
185	0x3d1232fc	0.035693154
186	0x3e1d1954	0.15341693
187	0x3d713994	0.0588928
188	0xbe327f57	-0.17431389
189	0xbe091107	-0.13385402
190	0x3d8aae35	0.067715086
191	0x3e0be1ef	0.13660406
192	0x3d6488a4	0.055794373
193	0xbda43674	-0.080181986
194	0xbe3fe877	-0.18741022
195	0xbe0ca43f	-0.1373453
196	0x3c5e4aeb	0.0135676665
197	0x3e33681d	0.17520185
198	0x3daff0ff	0.08590888
199	0x3e0905f2	0.13381174
200	0x3da9a49c	0.0828335
201	0x3d26ba1d	0.040704835
202	0x3dcba81b	0.09944173
203	0x3e123471	0.14277817
204	0x3d2d9c64	0.042385474
205	0x3e3ef432	0.1864784
206	0xbc42764b	-0.011869024
207	0x3dc271d8	0.0949437
208	0x3dc175a8	0.09446269
209	0x3dd7ade7	0.10531216
210	0x3e2cb10f	0.16864417
211	0x3e21254a	0.15736881
212	0xbe1004ba	-0.14064303
213	0xbd344216	-0.044008337
214	0x3dc5a55c	0.096506804
215	0x3e03457c	0.12819475
216	0x3d789fc3	0.060699236
217	0xbcb554c5	-0.022135148
218	0x3e03f03a	0.12884608
219	0xbcb74d6b	-0.022375783
220	0x3dbb7d98	0.091548145
221	0x3e07406b	0.13208167
222	0xbe0aa67f	-0.13540076
223	0x3e30441c	0.17213482
224	0xbd694be6	-0.056957148
225	0x3da35a61	0.07976223
226	0xbdd3b343	-0.10336926
227	0xba96341f	-0.0011459625
228	0x3d897f81	0.067137726
229	0x3dd3a7ef	0.10334765
230	0x3e125315	0.14289506
231	0x3de3fea6	0.11132555
232	0xbe0c039b	-0.1367325
233	0x3e116557	0.14198814
234	0xbd594060	-0.05303991
235	0x3e104561	0.14088966
236	0x3de1b2e5	0.110204495
237	0xbe27d7e7	-0.16390954
238	0x3e294666	0.16530761
239	0xbe031669	-0.12801518
240	0x3d9238db	0.071397506
241	0x3c8e303e	0.017356988
242	0xbd2066d7	-0.039160576
243	0x3bfe6129	0.0077630472
244	0x3dac4148	0.08410889
245	0x3cb9c259	0.02267568
246	0x3df74dfb	0.120754205
247	0xbe3c8034	-0.1840828
248	0x3e0c561d	0.13704725
249	0x3e0d6c05	0.13810737
250	0x3e1c804c	0.15283316
251	0xbd4fb642	-0.050710924
252	0x3dd1e2c9	0.10248334
253	0x3d0e7f7f	0.03478956
254	0xbe13c61c	-0.14431041
255	0xbe197f43	-0.14989953

encoder.0.bias f4 [64]
0	0xbe037679	-0.12838162
1	0xbe1d7a10	-0.15378594
2	0x3c26ddd3	0.010184723
3	0x3e360be9	0.17777981
4	0xbe1dee6d	-0.15422983
5	0xbe2ad3fa	-0.16682425
6	0x3e24ba8b	0.16086785
7	0x3b503ee0	0.0031775758
8	0x3e266623	0.162499
9	0x3e1a0bce	0.15043566
10	0x3d8625c2	0.065501705
11	0xbd96ed8b	-0.073695265
12	0xbca94a67	-0.02066536
13	0x3df3a8c6	0.11897425
14	0x3e1bf695	0.15230782
15	0x3d83f579	0.064433046
16	0x3e40b8d4	0.18820506
17	0x3d5b551e	0.05354797
18	0x3decf25e	0.11569665
19	0x3d3f4c8f	0.04670387
20	0x3e0727d6	0.1319879
21	0xbe11c7cb	-0.14236371
22	0x3e15bfee	0.14623997
23	0x3d5cf9c6	0.05394914
24	0xbda94fcb	-0.082671724
25	0xbd97ea55	-0.07417742
26	0x3d9bcf9f	0.0760796
27	0xbdddbd70	-0.10827148
28	0xbdb0ccde	-0.08632825
29	0x3df1618e	0.11786185
30	0xbe2d7a1d	-0.16941114
31	0xbdbc1fac	-0.091857284
32	0xbe1c6c45	-0.15275677
33	0x3e22ed26	0.15910777
34	0xbd048ee7	-0.032362845
35	0x3cae05fe	0.021243092
36	0xbcd4c285	-0.02597166
37	0x3e174fa6	0.14776477
38	0xbbb93049	-0.005651508
39	0x3d10e54b	0.03537492
40	0x3e34c9df	0.17655133
41	0x3e1c873d	0.15285964
42	0x3d36b2a8	0.044603974
43	0xbe33e33f	-0.17567156
44	0x3ca1af2c	0.019736849
45	0xbdd961c7	-0.10614353
46	0xbdf702b7	-0.12061065
47	0x3e10e346	0.14149198
48	0xbd8cce27	-0.06875258
49	0xbe44f6db	-0.19234793
50	0xba4f1170	-0.0007899022
51	0xbde07c55	-0.109612145
52	0xbc73a4db	-0.014870848
53	0xbe245d6d	-0.16051264
54	0xbc08b388	-0.008343585
55	0xbe3643d1	-0.17799307
56	0xbdec47c2	-0.11537124
57	0x3e423c98	0.18968427
58	0xbd3cb816	-0.046073996
59	0x3da59c7f	0.0808649
60	0xbe195842	-0.14975074
61	0xbe05f689	-0.13082327
62	0xbd0a058e	-0.033696704
63	0x3d846b94	0.064658314

encoder.3.weight f4 [128, 64, 3, 3]
0	0xbc4ef695	-0.012632032
1	0xbc822518	-0.015886828
2	0x3cda81ba	0.026673187
3	0x3c93c5a1	0.018038573
4	0xbb35c905	-0.0027738225
5	0x3c2ebc9a	0.010665083
6	0xbcc512a0	-0.024056733
7	0xbd24c719	-0.040228937
8	0x3d222400	0.039585114
9	0x3c910a1a	0.017705012
10	0x3d1ffa9f	0.03905737
11	0xbc40c548	-0.0117657855
12	0x3d21aada	0.039469577
13	0xbcafa9bd	-0.021443242
14	0xbcecc709	-0.028903501
15	0x3be98d3a	0.007127431
16	0xbca42f58	-0.020042107
17	0x3cb51fd5	0.022109905
18	0xbb404a6c	-0.0029341234
19	0xbc87cb47	-0.016576422
20	0x3cdaa8a3	0.02669174
21	0x3cbd6477	0.023119194
22	0x3c845db7	0.016157968
23	0xbc59a908	-0.013284929
24	0x3ce5ca79	0.028050648
25	0x3b722be4	0.003695243
26	0x3cc5f000	0.024162292
27	0xbbd3d7d1	-0.0064649363
28	0x3d03577b	0.03206585
29	0x392c3c09	0.00016425563
30	0xbbbf1263	-0.0058310493
31	0x3cdb347b	0.026758423
32	0x3ba113d9	0.004915696
33	0x3d0f9c79	0.035061333
34	0x3b806cc1	0.0039192145
35	0xbcb82d71	-0.022482606
36	0x3cc3931e	0.023873862
37	0x3d2dc54b	0.04242448
38	0xbd07e500	-0.033177376
39	0x3ccc69d7	0.024952812
40	0xbcbd22df	-0.023087917
41	0x3d2bce63	0.041944873
42	0xbc90dd96	-0.017683785
43	0xbb64bd52	-0.0034902883
44	0x3cf52667	0.029925538
45	0x3c01ff6b	0.007934432
46	0xbd0a4fbd	-0.03376745
47	0xbd2637d4	-0.040580586
48	0x3c2db9f9	0.010603421
49	0x3d0b3738	0.033988208
50	0x3cafe887	0.021473182
51	0xbca86374	-0.020555235
52	0xbcf4b07b	-0.029869309
53	0x3cb67f7e	0.02227759
54	0xbc42bfc7	-0.011886544
55	0x3c1b4d81	0.009478928
56	0x3cd7255d	0.026262933
57	0xbc930adc	-0.017949514
58	0xbc3d0015	-0.011535664
59	0x3cd819f8	0.02637957
60	0xbce5d076	-0.028053503
61	0xbc26a4ed	-0.010171157
62	0x3c486d16	0.012233039
63	0x3d1c9cf0	0.038235605
64	0x3ca7ce20	0.02048403
65	0xbcb598d3	-0.022167599
66	0x3a865231	0.0010247884
67	0x3ccc066f	0.024905412
68	0xbbf55f5a	-0.0074881734
69	0xbcb7c01a	-0.022430468
70	0xbc92c25a	-0.01791494
71	0x3cd215fa	0.025645245
72	0x3bca3d29	0.0061718416
73	0x3cd88e27	0.026434971
74	0x3c5adb49	0.013357946
75	0x3cece4f5	0.028917769
76	0x3c2a908e	0.010410441
77	0xbc0bbde4	-0.00852916
78	0xbc5395ed	-0.012914163
79	0x3c654637	0.013993791
80	0x3d2af450	0.0417369
81	0x3bc80742	0.006104381
82	0x3c92587a	0.017864455
83	0x3d1a93b1	0.037738506
84	0xbc212246	-0.009834832
85	0x3babcb09	0.0052427095
86	0x3d28b93b	0.041192275
87	0x3c4b8da0	0.012423903
88	0xbc14ce16	-0.009082338
89	0xbca70406	-0.02038766
90	0x3add7f04	0.0016898816
91	0x3d094970	0.0335173
92	0x3cd9e7cf	0.026599793
93	0xbb40fb6e	-0.0029446739
94	0x3cdf9ac7	0.027295483
95	0xbca59bca	-0.020215888
96	0xbcf750e0	-0.030189931
97	0xbc531a7d	-0.012884733
98	0x3d0c17da	0.034202434
99	0xbd05627c	-0.032564625
100	0xbc827a74	-0.01592753
101	0xbd1a279f	-0.037635442
102	0x3c8f736d	0.017511094
103	0xbc986cf3	-0.018606639
104	0x3c5b8e24	0.013400588
105	0x3d046033	0.032318305
106	0x3cca7058	0.024711773
107	0x3cf34cce	0.02969971
108	0x3bbb7379	0.0057205525
109	0xbc1c5698	-0.00954213
110	0xbc39b233	-0.01133399
111	0x3d20a22b	0.039217155
112	0x3b88ee74	0.0041788165
113	0xbc9658a7	-0.01835282
114	0xbd1bea01	-0.03806496
115	0x3c4374ea	0.01192973
116	0x3c9490af	0.018135397
117	0x3cf6f98f	0.030148296
118	0x3d01ad80	0.031659603
119	0x3ccaa3a4	0.024736233
120	0x3d2a7a88	0.04162076
121	0xbd12b274	-0.035814717
122	0x3d10012e	0.035157375
123	0xbcf90198	-0.030396268
124	0xbcb2438d	-0.021760726
125	0xbcc553a7	-0.02408774
126	0xbc2d1f56	-0.010566553
127	0xbcc5594c	-0.024090432
128	0xbd0920f7	-0.033478703
129	0xbb20d430	-0.0024540536
130	0xbc7d905d	-0.015476313
131	0x3cf805af	0.030276148
132	0x3c193d95	0.009353061
133	0x3d280b77	0.04102656
134	0x3d2a62e6	0.041598223
135	0xbcd87975	-0.026425103
136	0x3cbd47e8	0.023105577
137	0x3bc8565a	0.0061138095
138	0x3d2a2c2e	0.04154604
139	0x3d251053	0.04029877
140	0x3c90f48d	0.017694736
141	0xbd1856c7	-0.037192132
142	0x3a987ff3	0.0011634812
143	0x3cb7e0e6	0.022446107
144	0x3bdf2332	0.0068096155
145	0xbd06c44a	-0.03290204
146	0xbc474355	-0.012162049
147	0x3cabc151	0.020966204
148	0xbd06bea4	-0.032896653
149	0xbc771fd1	-0.015083269
150	0xbbd0b724	-0.0063694883
151	0x3c83dece	0.016097452
152	0xbccbc397	-0.024873538
153	0xbc8f7558	-0.017512009
154	0x3cf21904	0.029552944
155	0xbd2583e6	-0.04040899
156	0x3ce73983	0.028225666
157	0xbcca4552	-0.024691258
158	0xbc885d1b	-0.016645959
159	0xbcee503d	-0.029090995
160	0x3cd4d3a9	0.025979834
161	0xbc41fd01	-0.011840106
162	0xbcdeb523	-0.027185982
163	0xbbc1d3f7	-0.0059151608
164	0xbcbd9cab	-0.023145994
165	0x3c3e3e2e	0.0116115045
166	0x3d096b82	0.033549793
167	0x3c1f087e	0.009706615
168	0xbcffdeca	-0.031234164
169	0x3a9615f5	0.0011450636
170	0x3ccc69e0	0.024952829
171	0xbd10cbdb	-0.03535066
172	0xbd179760	-0.037009597
173	0xbd21f18f	-0.03953701
174	0xbd1d0b43	-0.038340818
175	0x3c7c1f32	0.015388297
176	0x3c9698d6	0.018383425
177	0x3cd4f7bc	0.025997035
178	0xbce24e79	-0.02762531
179	0xbc6cf4ac	-0.014462631
180	0x3d17e2a1	0.037081365
181	0xbaab484f	-0.0013067814
182	0x3d08bb0b	0.033381503
183	0x3a3d6452	0.0007224727
184	0xbd0da6d9	-0.034582946
185	0x3cf8e5b4	0.030382968
186	0xbbffe285	-0.0078089857
187	0xbaf01e91	-0.0018319656
188	0xbb75401a	-0.003742224
189	0x3c9ea211	0.019364389
190	0x3cc33a17	0.02383141
191	0x3cc1224f	0.02357593
192	0x3cadda5b	0.021222284
193	0x3d15e1c0	0.036592245
194	0x3be9eeb3	0.007139051
195	0x3cfbe5c8	0.030749217
196	0xbb359c98	-0.0027711745
197	0x3bccd2f9	0.006250736
198	0xbc38ef1e	-0.011287479
199	0xbc5d858d	-0.0135206105
200	0xbcce0669	-0.025149541
201	0x3cced0d5	0.025246063
202	0x3c8ed41b	0.017435124
203	0xbcc1843f	-0.02362263
204	0x3c8d2cbb	0.017233243
205	0x3cbf9071	0.023384305
206	0xbd0c9837	-0.03432485
207	0xbc405bcd	-0.011740637
208	0x3cc9e241	0.02464402
209	0x3c5ad62f	0.013356729
210	0x3cb482f4	0.0220351
211	0xbba354c8	-0.004984472
212	0x3ca665a2	0.020312134
213	0x3ba460b0	0.005016409
214	0x3ca5c631	0.020236107
215	0xbc63884c	-0.013887476
216	0xbcb6bf54	-0.02230803
217	0x3b97ba80	0.004630387
218	0xbc996542	-0.018725041
219	0xbd0c085a	-0.034187652
220	0x3a548331	0.0008106707
221	0xbbac9a70	-0.005267434
222	0x3d248ef8	0.040175408
223	0xbcdb73eb	-0.026788672
224	0x3c7e44ac	0.015519302
225	0xbcc4a1db	-0.02400296
226	0x3c51af84	0.012798194
227	0xbc9ba4c8	-0.018999472
228	0xbc68dae2	-0.014212342
229	0x3d17cfc4	0.037063375
230	0x3d2bd595	0.041951735
231	0x3cea4950	0.028599411
232	0x39a300ec	0.0003109047
233	0xbc906935	-0.017628292
234	0x3d24fcdf	0.04028022
235	0x3c99a52a	0.018755514
236	0x3c94ee7d	0.018180126
237	0xbc34170a	-0.010991821
238	0xba51804e	-0.0007991836
239	0xbc528f7e	-0.012851594
240	0x38b6034d	8.679051e-05
241	0xbc6ca5af	-0.014443799
242	0x3ca8b473	0.020593857
243	0xbc8757d0	-0.016521364
244	0x3d28e420	0.041233182
245	0xbc91dce8	-0.017805532
246	0xbd0e95d8	-0.03481087
247	0x3c6a9c9d	0.014319566
248	0xbcf2df9e	-0.029647645
249	0xbd176ccf	-0.036969002
250	0x3d0817cc	0.03322582
251	0x3a863fad	0.0010242366
252	0xbd18f03a	-0.037338473
253	0xbb5fc3b8	-0.0034143757
254	0xbd1efac5	-0.03881337
255	0x3d17801e	0.036987416

encoder.3.bias f4 [128]
0	0xbc80980d	-0.015697503
1	0x3ca8480c	0.020542167
2	0xbc216907	-0.009851701
3	0xb96c27e5	-0.00022521576
4	0xbcfcba38	-0.030850515
5	0xbb87ae7e	-0.004140674
6	0xbbe7fcd2	-0.007079699
7	0x3c92c0c9	0.017914193
8	0xbb21436f	-0.0024606844
9	0xbd08fb4b	-0.033442777
10	0xbc9f2cc3	-0.019430524
11	0x3d045df8	0.032316178
12	0xbceef296	-0.029168408
13	0xbc92b3e7	-0.01790805
14	0xbc0eb17d	-0.008709309
15	0x3ce14aa0	0.027501404
16	0xbbe8744f	-0.007093943
17	0x3c6b2321	0.014351637
18	0xbcd10d32	-0.025518987
19	0x3c2f6855	0.010706027
20	0x3cd1d907	0.025616182
21	0x3d087080	0.033310413
22	0xbcb32cb5	-0.021871904
23	0x3cbada0f	0.022809057
24	0x3bbc3393	0.005743453
25	0x3ce3fd4d	0.027830744
26	0xbc87710b	-0.016533395
27	0xbc42444e	-0.011857105
28	0xbc9c7bdf	-0.019102035
29	0xbc680c67	-0.014163113
30	0xbcda9f3b	-0.026687255
31	0x3c675b93	0.014120954
32	0x3d08fda2	0.033445008
33	0x3cfaf623	0.030634945
34	0xbaa8536a	-0.0012842242
35	0x3c98ada9	0.018637495
36	0x3ca9fc08	0.02075006
37	0xbca020bc	-0.019546859
38	0x3d222968	0.03959027
39	0x3c7ca254	0.015419561
40	0xbb654074	-0.0034981044
41	0x3adae1fd	0.001669943
42	0xbce4d1c1	-0.02793205
43	0x3c9c892c	0.019108377
44	0x3cb9314d	0.022606516
45	0x3c8de450	0.017320782
46	0xbc1de0b3	-0.009636092
47	0x3d0bfdd8	0.03417763
48	0x3cd99e5f	0.026564775
49	0x3cfe29eb	0.031025847
50	0xbbdac291	-0.006676026
51	0x3b5b23bf	0.0033438054
52	0x3bac5ee0	0.0052603334
53	0x3d0795b6	0.03310176
54	0xbd169297	-0.036760893
55	0x3d2369c1	0.039895777
56	0x3cbb8664	0.02289123
57	0xbd150520	-0.03638184
58	0x3cb57934	0.02215252
59	0x3d04104e	0.03224211
60	0xbd1abb17	-0.03777608
61	0xbcf4b378	-0.029870734
62	0xbabd1fac	-0.0014428995
63	0xbb53b5a8	-0.003230432
64	0xbcebb0c0	-0.028770804
65	0x3d2f09a4	0.042733803
66	0xbc175d5e	-0.009238569
67	0xbd096e48	-0.033552438
68	0x3cdf29f3	0.027241683
69	0x3c9727a4	0.01845152
70	0xbcc5f07a	-0.02416252
71	0xbcc8332d	-0.024438465
72	0xbd1df94c	-0.038567826
73	0xbd1200e3	-0.035645377
74	0x3d026681	0.031836037
75	0x3cfbd1c2	0.030739669
76	0x3d053cc3	0.03252865
77	0x3be7255b	0.0070540137
78	0x3ca0ca4b	0.01962771
79	0xbca35b91	-0.019941123
80	0xbd220e89	-0.039564643
81	0xbcf6cd9c	-0.030127339
82	0x3cb27a07	0.021786703
83	0xba5f6074	-0.00085211475
84	0xbcf21e96	-0.0295556
85	0xbcbfbe7f	-0.023406265
86	0x3ca26b61	0.019826593
87	0x3c5bf09e	0.013424067
88	0xbd09d45f	-0.0336498
89	0x3ce6aa9a	0.028157521
90	0xbcc52b50	-0.024068505
91	0x3a86be97	0.0010280189
92	0xbd01e78c	-0.03171496
93	0x3a594cac	0.0008289318
94	0x3ce8d70b	0.028422853
95	0xbce87d96	-0.028380197
96	0xbceb6ce6	-0.02873845
97	0x3cfc014f	0.030762343
98	0xbce2ef3a	-0.027701963
99	0xbb145877	-0.0022635737
100	0xbc623cec	-0.01380847
101	0x3cd961d1	0.0265359
102	0xbbee3f35	-0.0072707185
103	0xbc77a0f8	-0.015114062
104	0x3cdcdff8	0.026962265
105	0x3d091c54	0.03347428
106	0x3cbf2e05	0.023337374
107	0xbcbedac5	-0.023297677
108	0x3b80888e	0.0039225286
109	0xbc673a97	-0.01411309
110	0x3d135fd9	0.03598008
111	0x3cea883d	0.028629417
112	0xbbfec0a4	-0.0077744294
113	0x3d17f8b7	0.037102427
114	0xbd095d4c	-0.03353624
115	0x3cbc846a	0.023012359
116	0xbbcb284d	-0.0061998726
117	0xbb799133	-0.003808093
118	0xbcfccc47	-0.030859126
119	0x3c8267e5	0.015918681
120	0x3c32da5b	0.010916318
121	0x3d0fa394	0.03506811
122	0x3b814be5	0.003945815
123	0xbd1ad3fa	-0.037799813
124	0xbc491f82	-0.012275578
125	0xbc3479a4	-0.0110153295
126	0x3b4d05eb	0.0031284045
127	0x3d170bc8	0.03687647

decoder.0.weight f4 [64, 128, 3, 3]
0	0xbc088203	-0.008331778
1	0x3cd3e865	0.02586765
2	0x3ce4973a	0.027904142
3	0x3bf5a45f	0.007496401
4	0x3c1c9617	0.009557269
5	0xbba8609c	-0.00513847
6	0xbb229413	-0.0024807497
7	0xbba5eb45	-0.0050634467
8	0xbce23015	-0.027610818
9	0xbcb55ab2	-0.022137973
10	0xbcc59f01	-0.02412367
11	0x3c7f2308	0.015572317
12	0xbcc49978	-0.02399896
13	0xbc92647d	-0.017870182
14	0x3cac7f5c	0.021056823
15	0xbce3a6d9	-0.02778952
16	0xbced169c	-0.028941445
17	0xbc91b038	-0.017784223
18	0x3cd01906	0.025402557
19	0x3becd644	0.007227691
20	0x3cb32a2c	0.021870695
21	0xbc669665	-0.014073943
22	0xbc581b82	-0.013190152
23	0xbbb9722f	-0.0056593637
24	0xbcaab45a	-0.020837951
25	0x3cc25db3	0.02372632
26	0xbc859788	-0.016307607
27	0xbc1ab6e3	-0.009443018
28	0xbc1d9c24	-0.009619746
29	0x3bfd800d	0.007736212
30	0x3caa1633	0.020762539
31	0xbb87336d	-0.0041260035
32	0x3c1d87ad	0.009614867
33	0x3cb2f4bc	0.021845214
34	0x3cbece06	0.023291599
35	0x3c986391	0.018602164
36	0xbcbb62c0	-0.022874236
37	0xbc573715	-0.013135691
38	0xbce9ceb2	-0.028540943
39	0xbcd09a6f	-0.025464265
40	0x3cc27815	0.0237389
41	0x3cc5ef18	0.02416186
42	0x3cd54155	0.02603213
43	0xbce30365	-0.02771158
44	0xbbe2777b	-0.006911216
45	0xbc4b3c3f	-0.0124045005
46	0xbbe724bf	-0.007053941
47	0x3c171311	0.009220854
48	0xbcc34854	-0.0238382
49	0xbbb2ce42	-0.0054567168
50	0x3a7cc69a	0.0009642631
51	0xbc4b721c	-0.0124173425
52	0x3caabef7	0.020843012
53	0xbc0f4988	-0.008745559
54	0x3cb1dd87	0.021712078
55	0xbc1a18fd	-0.009405372
56	0xbc8db17f	-0.01729655
57	0x3c089cb4	0.008338142
58	0xbc9592ca	-0.018258471
59	0xbcb18530	-0.021669954
60	0xbcd94fcb	-0.026527306
61	0xbc421579	-0.01184594
62	0xbc83e8df	-0.016102253
63	0xbc119e9c	-0.008887913
64	0xbc68fd78	-0.014220588
65	0xbcdb2ae3	-0.026753848
66	0x3c9d3e6c	0.019194804
67	0xbcbb92b5	-0.022897104
68	0xbce8277d	-0.028339142
69	0x3ca7765f	0.020442186
70	0xbc027c9b	-0.007964279
71	0xbc98e4dc	-0.018663816
72	0x3cd91209	0.026497858
73	0x3cbb6cf9	0.02287911
74	0xbca808e6	-0.020512056
75	0x3b82ef2e	0.0039957976
76	0xbcac9c76	-0.0210707
77	0x3c6f0288	0.014588006
78	0x3cd5726f	0.026055543
79	0x3b762dc0	0.003756389
80	0x39aaa34c	0.00032546592
81	0xbca5df5a	-0.020248104
82	0x3cca6a0a	0.024708766
83	0x3b59a1a6	0.0033207922
84	0x3ce09cbd	0.027418489
85	0x3c1e8949	0.009676286
86	0x3c90d5a5	0.017679999
87	0xbcd9d18e	-0.026589181
88	0xbca43ea2	-0.020049397
89	0x3c8488c5	0.016178498
90	0xbc8c1ff1	-0.017105075
91	0xbce033a0	-0.027368367
92	0x3c9e0ae9	0.019292312
93	0x3ce29342	0.027658109
94	0x3c4d077e	0.012513993
95	0x3c61e690	0.013787881
96	0x3c3b55c7	0.011434025
97	0x3cc1905d	0.023628408
98	0xbc89e32a	-0.016831953
99	0xbca76ce9	-0.020437675
100	0x3c950d41	0.018194797
101	0x3cbeb662	0.023280326
102	0x3baac9db	0.0052120513
103	0xbccf971b	-0.025340607
104	0xbc9d70cb	-0.019218823
105	0x3b8fe6cb	0.0043915263
106	0x3b787b36	0.0037915236
107	0x3b861e59	0.004092973
108	0x3cb3972b	0.021922668
109	0x3c07f011	0.008296982
110	0x3cd156d1	0.025554093
111	0xbc0e46fd	-0.008683917
112	0xbb10de12	-0.002210502
113	0x3cba8426	0.022768091
114	0x3cad1ccf	0.021131901
115	0xbc49a23c	-0.012306746
116	0x3ab2331a	0.0013595552
117	0xbbc40795	-0.005982349
118	0x3c55a27e	0.013039229
119	0xbcc107a3	-0.023563212
120	0xbcc9cb4c	-0.024633072
121	0xbce6f662	-0.028193656
122	0xbcb610f7	-0.022224886
123	0x3cbb2818	0.022846267
124	0xbcbd89b1	-0.023136945
125	0x3c7611b9	0.015018874
126	0x3c4e83ee	0.012604697
127	0x3c22ab94	0.009928603
128	0x3c5a229a	0.013313914
129	0x3c84a2c4	0.016190894
130	0xbcad84a5	-0.021181414
131	0x3c220145	0.009887998
132	0x3c54a3c1	0.012978495
133	0x3bbf317b	0.005834756
134	0x3c2ef125	0.0106776105
135	0xbca4332c	-0.020043932
136	0x3c0d1eb7	0.00861328
137	0x3b15c531	0.002285313
138	0xbc8dce26	-0.017310213
139	0xbce04d18	-0.027380511
140	0x3c76a715	0.015054484
141	0x3c4371bd	0.011928973
142	0x3c23077f	0.009950518
143	0xbb5ebbd2	-0.0033986461
144	0xbbfc163b	-0.0076930798
145	0x3c9e1e3b	0.019301524
146	0xbc868815	-0.01642231
147	0x3c50d068	0.012745
148	0xbca2c5d1	-0.019869717
149	0xbc1958c2	-0.00935954
150	0xbb41aa29	-0.0029550886
151	0xbb8310c5	-0.003999802
152	0x3c7353d3	0.014851528
153	0x3abff345	0.0014644644
154	0x3ccf8fbc	0.025337093
155	0x3ca7308e	0.020408895
156	0x3cab6932	0.020924184
157	0x3cb66ec2	0.02226961
158	0x3cb4e153	0.0220801
159	0xbce32ce2	-0.027731363
160	0x3c000782	0.00781429
161	0x3ca6de49	0.020369666
162	0x3cbbfb47	0.022946967
163	0x3b98f1d3	0.0046674996
164	0xbc1de02c	-0.009635966
165	0xbc433e1d	-0.011916664
166	0x3bf413d1	0.0074486514
167	0xbc9246b0	-0.017855972
168	0xbb5cd499	-0.0033696054
169	0x3cac505e	0.021034416
170	0xbcf4cc08	-0.029882446
171	0xbc216963	-0.009851786
172	0x3c9bced8	0.01901953
173	0xbca6c307	-0.020356668
174	0x3c466beb	0.012110691
175	0x3cc5fca6	0.024168324
176	0x3cb5f0a0	0.022209466
177	0x3bfc9bf4	0.0077090207
178	0x3caa88d5	0.0208172
179	0x3c528c7a	0.012850875
180	0xbc8d6487	-0.01725985
181	0xbcacc6e1	-0.021090927
182	0x3cc7670b	0.024341127
183	0x3b893f97	0.0041884887
184	0xbc86df60	-0.016463935
185	0xbc2f0e5a	-0.010684574
186	0x3be86242	0.0070917914
187	0xbcb1b6a5	-0.021693537
188	0x3ca0dd64	0.019636817
189	0xbc02f76b	-0.007993559
190	0x3cc590f1	0.024116965
191	0x3c756ae9	0.014979103
192	0x3ca14418	0.01968579
193	0x3c117bf6	0.008879652
194	0x3c088360	0.0083321035
195	0x3ce0e0d3	0.027450955
196	0xbcdef9ea	-0.027218778
197	0xbb4939ad	-0.0030704543
198	0x3b7394c0	0.003716752
199	0xbc86bd96	-0.016447823
200	0x3c572f4a	0.013133833
201	0x3caae44a	0.02086081
202	0xbcb3f5aa	-0.021967728
203	0x3c4f3170	0.012646064
204	0x3bd0230e	0.006351835
205	0x3b605115	0.0034228016
206	0xbc343add	-0.011000362
207	0x3aee007a	0.0018158101
208	0xbce829dd	-0.028340274
209	0x3cb3a06c	0.021927081
210	0xbccc5993	-0.024945056
211	0xbbc3d965	-0.005976843
212	0x3c8a9488	0.016916528
213	0x3c8669b3	0.016407823
214	0xbca26711	-0.019824537
215	0xbce2469d	-0.027621562
216	0xbc9f63d1	-0.019456776
217	0xbc2a1320	-0.010380536
218	0xbc82c32b	-0.015962204
219	0xbc7c5fc7	-0.0154036945
220	0x3c1a0f7f	0.009403109
221	0x3cdec2fc	0.027192585
222	0x3c470dd1	0.01214929
223	0x3ce10334	0.027467348
224	0xbb7504e3	-0.0037386946
225	0xbc92b576	-0.017908793
226	0x3c2191ae	0.009861393
227	0x3bc46a41	0.0059941118
228	0x3c0dd3f4	0.008656491
229	0xbcc10cf6	-0.02356575
230	0xbc9392f3	-0.018014407
231	0xbcf0b7e5	-0.029384563
232	0xbcf65997	-0.030072017
233	0x3cace40b	0.021104833
234	0xbbcf0676	-0.006317909
235	0x3c8ade83	0.016951805
236	0xbbfa4c95	-0.007638524
237	0xbcb7c156	-0.022431057
238	0xbcf2dd78	-0.02964662
239	0xbc95405d	-0.018219167
240	0xbbcfd5ba	-0.006342617
241	0xbbe73a81	-0.0070565348
242	0xba862cb6	-0.0010236714
243	0xbcd0672a	-0.025439817
244	0x3cd03404	0.025415428
245	0xbc550da1	-0.013003738
246	0xbcc42c46	-0.023946892
247	0xbc063155	-0.008190473
248	0xbb72b81c	-0.0037036007
249	0x3c702353	0.014656859
250	0x3cba1065	0.022712896
251	0xbbdaf476	-0.006681974
252	0xbca270f9	-0.01982926
253	0x3c4325f0	0.0119109005
254	0x3b99a85c	0.0046892595
255	0xbcd72b67	-0.026265813

decoder.0.bias f4 [64]
0	0x3cbd2dfc	0.023093216
1	0xbcdd8f34	-0.027045824
2	0xbcba1987	-0.02271725
3	0x3bd17ca6	0.006393033
4	0x3c90c69e	0.017672833
5	0x3b04f031	0.0020284767
6	0xbcacb315	-0.021081487
7	0x3cea2fd7	0.028587265
8	0x3b2d4a92	0.0026442152
9	0x3c3ab6a8	0.011396088
10	0x3c33665d	0.010949698
11	0x3c049432	0.008091973
12	0x3cf6e9e4	0.030140825
13	0x3c6892da	0.014195168
14	0xbcbee25e	-0.0233013
15	0xbc7305f2	-0.01483296
16	0xbcc91ea8	-0.02455075
17	0x3cb47a76	0.02203105
18	0xbc38214c	-0.011238407
19	0xbb8281ad	-0.0039827437
20	0xbcc28664	-0.023745723
21	0xbca27755	-0.019832293
22	0xbc7fcce7	-0.015612817
23	0xbcdd65dd	-0.027026111
24	0x3cb504c4	0.022096999
25	0x3cce3001	0.025169374
26	0xbc9b0c31	-0.018926712
27	0xbc89c930	-0.016819566
28	0xbc183655	-0.0092902975
29	0xbbe52563	-0.0069929822
30	0x3bb4375d	0.005499764
31	0xbcac1faf	-0.021011202
32	0x3ce8822c	0.028382383
33	0x3c0e9251	0.008701877
34	0xbc336793	-0.010949987
35	0xbbe31fb7	-0.006931271
36	0x3ce73365	0.028222749
37	0xbc4ef525	-0.012631689
38	0x3b804563	0.0039145215
39	0x3c38bfbc	0.011276182
40	0x3c328483	0.010895851
41	0xbc94ed48	-0.01817955
42	0xbb9abe4b	-0.0047223917
43	0x3cc17fd1	0.023620518
44	0xbcb0d5ad	-0.021586264
45	0x3ccfcdf4	0.02536676
46	0x3bd9a688	0.0066421665
47	0x3c6a2d2c	0.014292996
48	0x3b2dd93a	0.0026527182
49	0x3cd726d0	0.026263624
50	0x3cbbefdb	0.02294152
51	0xbc63c105	-0.013901
52	0x3c0f4f69	0.00874696
53	0xbc818a97	-0.015813155
54	0xba380814	-0.00070202467
55	0x3b9caa33	0.0047810315
56	0xbc53393f	-0.0128920665
57	0xbcbc9c98	-0.023023888
58	0xbcca07af	-0.024661867
59	0x3cb07cfe	0.021543976
60	0x3cc6df98	0.02427654
61	0x3cdb6a42	0.026784066
62	0x3ccab954	0.024746574
63	0x3b8f6bf5	0.004376883

decoder.3.weight f4 [32, 64, 3, 3]
0	0x3c9d65c4	0.019213565
1	0xbca76c0d	-0.020437265
2	0x3d141e6b	0.03616182
3	0x3c92ebd1	0.017934712
4	0xbca6bf7d	-0.02035498
5	0x3cebeb58	0.028798744
6	0xbd0dc5ed	-0.034612585
7	0x3ce86857	0.028370066
8	0x3d2757c1	0.040855173
9	0xbbc7ab88	-0.006093446
10	0x3d1922ca	0.037386693
11	0x3cc5377d	0.02407431
12	0xbc1ca5a6	-0.009560978
13	0x3b0a4008	0.0021095295
14	0x3ce241eb	0.027619323
15	0x3c6c0ae2	0.014406892
16	0x3cfca8f2	0.030842278
17	0xbbb14444	-0.005409749
18	0xbc3e0420	-0.011597663
19	0x3b2ca129	0.0026341176
20	0xbc181d99	-0.0092844
21	0xbd02f60d	-0.031972934
22	0xbc43a43e	-0.011941014
23	0xbce3f917	-0.027828736
24	0xbc9647bb	-0.01834475
25	0x3ca17d68	0.019713119
26	0xbce5079f	-0.027957736
27	0x3cc1ca6b	0.02365609
28	0xbd00dcc0	-0.031460524
29	0x3ca0c203	0.019623762
30	0xbbf84b7e	-0.0075773587
31	0x3ce96dea	0.028494794
32	0xb9641c9e	-0.00021754435
33	0xba9a8e90	-0.0011791755
34	0x3c37d399	0.011219882
35	0xbb86fc20	-0.004119411
36	0x3c274dd3	0.010211426
37	0xbd2861e7	-0.041108992
38	0xbb98e03a	-0.0046654018
39	0xbc92ed1a	-0.017935324
40	0xbd170fae	-0.036880188
41	0xbc442d13	-0.011973637
42	0x3cb94e31	0.022620292
43	0x383ad64b	4.454543e-05
44	0xbb8012c3	-0.0039084866
45	0x3ca79bd9	0.020460056
46	0x3d19882b	0.037483376
47	0x3c7df440	0.015500128
48	0xbd1ccf49	-0.03828362
49	0xbcbb7b5b	-0.022885969
50	0xbc34ef87	-0.011043436
51	0xbd14dadc	-0.036341533
52	0x3cbfecc6	0.023428332
53	0x3cb62837	0.022235973
54	0xbc585a36	-0.013205102
55	0x3cbf45da	0.023348738
56	0x3c1fed75	0.009761204
57	0x3cc179cb	0.023617646
58	0xbc8da5aa	-0.017290909
59	0x3c534fec	0.012897473
60	0x3c6c8ce3	0.014437887
61	0xbc2db6a0	-0.010602623
62	0x3c613eed	0.013747913
63	0x3bb55202	0.0055334577
64	0xbd248e34	-0.040174678
65	0x3aa717fb	0.0012748236
66	0xbc1b8e10	-0.00949432
67	0xbcd8204e	-0.026382592
68	0x3d1d1f8c	0.038360164
69	0xbd028ed6	-0.0318745
70	0x3c45867c	0.012055989
71	0xbd22a863	-0.039711367
72	0x3d05d4b6	0.03267356
73	0x3cbb230e	0.022843864
74	0xbd22b667	-0.039724734
75	0xba1eb0a9	-0.0006053546
76	0xbcd7c178	-0.02633737
77	0x3d240120	0.040040135
78	0x3c18943e	0.009312687
79	0xbc1c1314	-0.009526033
80	0x3ab8025b	0.0014038788
81	0xbd1ae626	-0.037817143
82	0x3c1d94b2	0.009617971
83	0x3c9c2f46	0.01906551
84	0xbcf22c83	-0.02956224
85	0x3b900e92	0.004396268
86	0xbbf5536b	-0.007486751
87	0xbc132925	-0.008981978
88	0xbbbfa52f	-0.005848549
89	0xbd1ae87d	-0.037819374
90	0x3c92d9fa	0.017926205
91	0x3c75618e	0.014976872
92	0xbc52e4dc	-0.012871947
93	0xbbf2b322	-0.007406608
94	0xba8aa257	-0.0010576945
95	0xbd02f590	-0.031972468
96	0x3c0348fe	0.008013008
97	0xbcd2955b	-0.025705984
98	0x3c9c8e86	0.01911093
99	0x3cca69ca	0.024708647
100	0x3c05a974	0.008158077
101	0x3cf652c2	0.030068759
102	0x3d077049	0.033066068
103	0xbc89c3d2	-0.016817007
104	0x3d107405	0.035266895
105	0xbd0b370f	-0.033988055
106	0x3cf81745	0.030284533
107	0xbc1093ad	-0.008824271
108	0x3c4833a9	0.012219348
109	0x3b924434	0.004463697
110	0x3ccac45e	0.024751838
111	0x3c932d48	0.017965928
112	0xbb93d110	-0.004511006
113	0x3d068f52	0.032851525
114	0xbcb8275e	-0.02247971
115	0x3c855372	0.016275141
116	0xbc7fda30	-0.015615985
117	0x3c8d6127	0.01725824
118	0x3d2184f7	0.039433446
119	0x3ccb85a0	0.02484399
120	0xbcfc1205	-0.030770311
121	0xbcbc6c07	-0.02300073
122	0xbb9d0252	-0.0047915364
123	0x3c602c9c	0.013682511
124	0x3c8dda47	0.017315997
125	0x3cba9871	0.022777768
126	0xbc9f9745	-0.01948131
127	0xbcc8893c	-0.024479501
128	0x3b9aeb17	0.004727732
129	0x3cbdd8b6	0.023174625
130	0xbd0ba68c	-0.03409438
131	0x3cbb3fef	0.022857634
132	0x3cb89e74	0.022536494
133	0x3c6da0b5	0.014503648
134	0xbd2130b5	-0.03935309
135	0x3c2b3b29	0.010451117
136	0xbc3cf87f	-0.011533855
137	0xbd01bb64	-0.03167285
138	0x3c29d9ff	0.010366916
139	0x3c235b06	0.009970432
140	0xbc7dddd2	-0.015494781
141	0x3b05f9dc	0.0020443117
142	0xbcfb798f	-0.030697612
143	0x3cc74411	0.024324449
144	0xbca16e78	-0.019705996
145	0x3c990742	0.018680219
146	0xbd11180d	-0.035423327
147	0x3c3fea69	0.011713603
148	0xbd20115a	-0.039079048
149	0xbcd9c68d	-0.026583934
150	0xbb50ed7c	-0.0031879833
151	0xbc4a4e8a	-0.012347827
152	0xbcffa39e	-0.031205948
153	0x3d0896bd	0.03334688
154	0xbb08250d	-0.0020774037
155	0xbd2bd673	-0.04195256
156	0x3cd0334c	0.025415085
157	0xbadbf1e3	-0.0016780462
158	0xbd0405a8	-0.032231957
159	0xbc9217cf	-0.017833618
160	0xbbb2f058	-0.00546078
161	0xbc84c874	-0.016208865
162	0xbb47037b	-0.0030367065
163	0x3b983d44	0.0046459753
164	0xbce1ba3c	-0.027554624
165	0xbd21e8b6	-0.03952857
166	0x3c31333f	0.010815441
167	0x3c73b435	0.014874508
168	0xbaab064a	-0.0013048139
169	0xbbb7b363	-0.0056061014
170	0xbd09d14f	-0.033646878
171	0xbc9eef9d	-0.019401366
172	0x3cf5c72a	0.030002195
173	0x3c5adb23	0.01335791
174	0x3b32a4b3	0.0027258813
175	0xbd0d12ea	-0.034441866
176	0x3cdf51f9	0.027260767
177	0xbbf56b0d	-0.007489568
178	0x3d088f32	0.033339687
179	0x3bad58b7	0.0052901166
180	0x3c836c0f	0.016042737
181	0xbcab9b94	-0.020948209
182	0x3cc3cc7f	0.023901222
183	0xbb83b15e	-0.0040189466
184	0xbc31efb5	-0.010860373
185	0xbbff9d17	-0.007800709
186	0xbd2b1b03	-0.041773807
187	0xbb3e4c55	-0.0029037197
188	0x3cdd3aa7	0.027005507
189	0xbcf8150d	-0.030283475
190	0x3d205c13	0.03915031
191	0x3cfa245b	0.030534914
192	0xbbbd2843	-0.005772622
193	0x3c83c767	0.016086293
194	0xbd062f96	-0.032760225
195	0xbcd8913a	-0.026436437
196	0xbc4eadf4	-0.012614716
197	0x3ce62d01	0.028097631
198	0xbccc49df	-0.024937568
199	0xbd0d4d6d	-0.034497667
200	0x3c467956	0.01211389
201	0x3ca7375f	0.020412145
202	0xba54cf24	-0.00081180246
203	0x3c812c86	0.0157683
204	0xbc139cd1	-0.009009556
205	0xbcd09e0a	-0.025465984
206	0xbd224859	-0.039619777
207	0xbc4ec798	-0.012620829
208	0x3c9beff3	0.019035315
209	0xbd0eba60	-0.03484571
210	0x3cca0108	0.024658695
211	0xbcb9cb73	-0.02268002
212	0x3d26da6a	0.04073564
213	0xbc6d8821	-0.014497788
214	0xbc156079	-0.009117239
215	0xbcf2a3a0	-0.029619038
216	0x3cb52d49	0.02211632
217	0xbc48801b	-0.012237574
218	0x3a581759	0.0008243225
219	0xbd1a765a	-0.037710525
220	0xbac91c88	-0.0015343586
221	0x3cab8f10	0.020942241
222	0xbcc1528b	-0.02359893
223	0x3c5fe543	0.0136655
224	0xbd18f491	-0.03734261
225	0x3cd1f608	0.025630012
226	0xbc476a77	-0.012171379
227	0x3d1c192b	0.03810994
228	0x3cd8c5cb	0.026461503
229	0xbaab1cd8	-0.0013054861
230	0xbd2c336a	-0.04204122
231	0x3cd123ea	0.02552982
232	0xbcf1dec4	-0.029525168
233	0xbcd11908	-0.025524631
234	0x3cd216b0	0.025645584
235	0xbc19d001	-0.009387971
236	0xbc85f4be	-0.016352054
237	0x3cf10a0c	0.029423736
238	0x3d1269b1	0.035745326
239	0x3c4678b6	0.012113741
240	0x3d188f87	0.037246253
241	0x3ccd9af4	0.025098301
242	0xbcbae9bb	-0.02281653
243	0xbb1dda12	-0.002408628
244	0x3d1d02de	0.038332812
245	0xbc89edee	-0.016837087
246	0xbc1db717	-0.009626172
247	0x37fa3c87	2.9830508e-05
248	0xbc2877d7	-0.010282478
249	0x3d1523da	0.036411144
250	0xbc192fdc	-0.0093497895
251	0xbd062cc4	-0.032757536
252	0x3cbc7fd2	0.023010168
253	0x3cbe4d99	0.02323036
254	0x3d25febc	0.040526137
255	0xbd0b811e	-0.034058683

decoder.3.bias f4 [32]
0	0x3c0be138	0.008537583
1	0xbc1ce05d	-0.009574977
2	0x3d16344a	0.03667096
3	0xba33b9a3	-0.000685597
4	0xbc9493f4	-0.018136956
5	0xbccdc6bc	-0.025119178
6	0x3cde766f	0.027156083
7	0xbce8223f	-0.028336642
8	0xbd13b930	-0.03606528
9	0xbbd85b53	-0.0066026836
10	0xbd1c0eb6	-0.038099967
11	0x3c3d120f	0.01153995
12	0x3bfdff9f	0.0077514197
13	0xbd1aff44	-0.037841097
14	0xbc715d0d	-0.014731658
15	0x3d128aaf	0.03577679
16	0xbd043d13	-0.032284807
17	0x3c67445f	0.014115422
18	0x3c82cf75	0.015968064
19	0xbd0b7d75	-0.034055192
20	0xbd1b7f01	-0.037962917
21	0x3c947eaf	0.018126814
22	0x3d1d27c8	0.038368016
23	0x3c3631bd	0.011120257
24	0x3d01f8a4	0.031731263
25	0x3c51775d	0.012784806
26	0xbc47f04b	-0.012203286
27	0xbc95a515	-0.018267194
28	0xbd26b2b5	-0.040697772
29	0x3cccbfc7	0.02499379
30	0xbd21f663	-0.039541613
31	0x3cf406a9	0.029788332

decoder.6.weight f4 [1, 32, 1, 1]
0	0x3de36598	0.11103362
1	0x3d3b72c0	0.04576373
2	0x3dc87ad3	0.09789052
3	0x3e302547	0.1720172
4	0xbc833625	-0.016017029
5	0x3e1ab0f2	0.15106562
6	0x3cb36af2	0.021901581
7	0x3dc78f7e	0.09744166
8	0x3d8eee94	0.06979099
9	0x3d5f4488	0.054508716
10	0x3d902440	0.07038164
11	0x3dcf1852	0.101120606
12	0x3d9b5fa0	0.075865984
13	0xbe2afe36	-0.16698536
14	0x3e238084	0.15966994
15	0xbd2f1ab3	-0.04275007
16	0x3dc09d2a	0.09404977
17	0xbda3aa3b	-0.07991453
18	0xbd5a18ad	-0.05324619
19	0x3d24ece1	0.040264968
20	0xbde0e807	-0.10981756
21	0x3dd1179a	0.1020958
22	0xbdb08079	-0.08618254
23	0xbe08b516	-0.13350329
24	0xbcfd9022	-0.030952517
25	0xbdb75f52	-0.08953728
26	0x3c615730	0.013753697
27	0x3d35b5dd	0.04436289
28	0x3d062360	0.03274858
29	0xbdb8f020	-0.09030175
30	0x3e346c20	0.17619371
31	0xbe191e6e	-0.14953014
