checkpoints/2025-06-02-14-53-53/last_epoch.pth (torch, 686901 bytes, 25 tensors)

encoder.0.weight f4 [64, 3, 3, 3]
00000000: 07cc fdbd 3cfe c5bd 8548 87bc aac2 403e
00000010: d51c 31bd 982e 18be c6dd aebc 511c acbd
00000020: 24fa 06be acb0 083e 377f 143e 7d4e 21bd
00000030: 7cb2 0abd ac34 f93c 07a8 40bd ac8e 24be
00000040: 746a aa3c 30c3 433c 6ed5 2abd bb85 98bd
00000050: 9e75 dfbc d3b0 b9bb cf46 cf3d b38d 783d
00000060: b7f0 acbd 137a ea3d f6c5 243e 8864 0ebe
00000070: 5979 34be a2ba 49bb 9547 08be 6f20 253e
00000080: 8c5d 00be 9b48 253e d6d8 e5bd 3a3d 253e
00000090: 17d4 1bbe 69e8 513d 77ff 88bd 7d24 1ebe
000000a0: 4948 05be 9095 60bd b9d2 03be daee 07be
000000b0: 5161 f9bc 76d1 8bbd c7f4 e6bd 1483 f73d
000000c0: ffee 76bd ad14 c03d 6b8d 1abd 2303 363e
000000d0: e743 1d3e fed9 33be a06c 8dbc a09d d33b
000000e0: 3c35 cc3d dd0e 1fbd 6549 da3d b41b a93d
000000f0: f7ae dabd dc2c dbbd a218 f4bd 5807 03be
00000100: e6c2 253e b86f 083e c35d 34be 6b04 12be
00000110: 33f7 a0bd e534 0a3e 7fdd 833d b7bf 313e
00000120: 6471 0a3e f1bb 203e 567e 323e b639 a43d
00000130: 0ec5 2f3e 0c04 b3bd a313 4b3d 3614 993d
00000140: 9d8d 4b3d 0008 f6bd 7cc5 d13d 594a a2bc
00000150: e96e 8a3d 513e 0d3e dbfa d6bd e5df 1f3e
00000160: 269c a73d ac8b 093e baff 5d3b 3799 ecbd
00000170: e38f 92bd 9c24 013e 4fd2 313e 81ee 05be
00000180: 4410 23be 46bd 3d3e 318a f2bc 7f17 0f3e
00000190: b75c c2bd 50c9 a8bc f9bd a0bd 853c 7bbd
000001a0: fe94 1bbd dfad 3bbe 38ac 08bd 5f72 2d3e
000001b0: 44d9 8cbd 9cf8 acbd 0a29 f13d f8d7 103c
000001c0: 2a38 e43d 4f9b 25be 2178 d83c 0512 3ebd
000001d0: 84ef 59bd d275 9bbc 67e9 83bd 6fd1 07be
000001e0: 64f7 073d e5bc 72bd 2b1f e53d ecd3 fabd
000001f0: 1302 15be ccb5 2e3d 6eb6 033e f093 7bbd
00000200: b498 0fbe f5ad 83bd b605 3ebe 3f0f 963b
00000210: ec60 0fbe 373f 42bd a93d 3dbe a898 bf3d
00000220: f51a 1b3c f934 f1bd ba4a 98bd ea17 1e3e
00000230: 54ef 4f3d 4b31 1bbe 1658 9abd 05ed e0bd
00000240: 4b49 c13d 770a 8b3c 0396 73bd 5b8d 493d
00000250: bb6c 353e 68c6 98bd 123e 693b 0dd0 0cbe
00000260: d5ea c13d bb0a 37bd 1fba a53d 7dc3 b43d
00000270: 4717 a6bd 63f4 00bd b022 2e3e 6bf0 22be
00000280: 10a2 32be 2a66 76bd b1da e83d 2009 0c3e
00000290: 90f3 04be f82b a7bb 4edb 72bd 2360 c13c
000002a0: 086f 39be 67c5 673d 3652 ce3d 5f42 1c3e
000002b0: 8fe0 e03c 19dd 07be dfdf 0abe 1caf c2bd
000002c0: 792e 30be 17e0 4a3c 42e4 203e 6e00 1cbe
000002d0: d7ad bdbd 5587 9abd 48eb 42be e9d4 153e
000002e0: a78c bd3d 87db 03be ea2a fc3d 45f5 cfbd
000002f0: 7a2b a1bd 9c6a 47bd ef1d 1b3e b17b a53d
00000300: 2dc3 09bd 6e27 cbbd 5336 b0bd 5db6 a4bd
00000310: 9c90 e33c f723 9e3d f7de 00be 4364 09be
00000320: 3f24 38be f014 cabd c4e1 fb3d 3b02 2b3d
00000330: 70d7 1cbc 17fc dbbd 1ae8 b83a 65ed 96bd
00000340: 67c6 c43d 9889 21be 1618 fabd b825 353e
00000350: e066 a5bd 343a 3f3e 8746 ae3d 2af7 223e
00000360: 1f3f b3bd f902 3d3e f905 a83d 7a9c 0a3c
00000370: 05e5 433e 9764 693d f5fe 283e a152 b1bc
00000380: afc3 20be 9ef4 2d3d 4bae 42be 228a 2c3d
00000390: f366 e83c 8416 04be b857 8b3d 0be9 3ebc
000003a0: ffba 313e d5b6 353e e193 553d f9ce a23d
000003b0: c3ad 0cbd e182 39bc 47e5 af3c d9e7 7cbd
000003c0: e359 8abd ae63 7b3d 06f7 6abd b74a 123d
000003d0: 776d 89bd 668a 403d a03d 20bd 02a1 a93d
000003e0: fd7b 7abd 8ad8 2f3d 6218 1bbb 1e18 0ebe
000003f0: 2e16 dcbd 8ca1 e2bd 62bc 09be b2db 4ebd
-0.12392431 -0.09667632 -0.016514072 0.18824258 -0.043240387 -0.14861524 -0.021345984 -0.084038384
-0.13181359 0.13348645 0.14501654 -0.039381493 -0.033861622 0.030420624 -0.047035243 -0.1607005
0.020802714 0.011948392 -0.04170745 -0.07447382 -0.027277764 -0.005666831 0.101209275 0.06068201
-0.0844435 0.11449065 0.16091141 -0.13905537 -0.17624415 -0.0030781408 -0.13308556 0.16125654
-0.12535685 0.16140978 -0.11222999 0.16136637 -0.15217625 0.051247034 -0.06689351 -0.15443607
-0.13015856 -0.054830134 -0.12873353 -0.13274708 -0.030441912 -0.06827061 -0.11277156 0.12085548
-0.06028652 0.093789436 -0.037732523 0.17774634 0.15357934 -0.17563626 -0.01726371 0.0064579993
0.09971091 -0.038832534 0.1065853 0.08257237 -0.10677903 -0.107019156 -0.11918761 -0.1279577
0.16187629 0.13323867 -0.17613892 -0.14259498 -0.078596495 0.1349674 0.064387314 0.1735829
0.13519818 0.15696694 0.17431006 0.0801882 0.17165014 -0.08741006 0.049579274 0.07474558
0.0496956 -0.12013245 0.10242745 -0.019810842 0.06759436 0.13793303 -0.10497066 0.15612753
0.0818408 0.13432187 0.0033874349 -0.11552661 -0.071563505 0.12611622 0.17365383 -0.13079263
-0.15924174 0.18529233 -0.02960691 0.13973807 -0.0949034 -0.020603806 -0.078487344 -0.061337013
-0.037983887 -0.18328045 -0.033367366 0.1693816 -0.06877378 -0.08445856 0.11775406 0.008840553
0.11143525 -0.16172527 0.02642447 -0.046403904 -0.053206936 -0.01897708 -0.06441002 -0.13263486
0.033194914 -0.059262175 0.111875854 -0.12247452 -0.14551573 0.042653844 0.1286256 -0.06142038
-0.14023095 -0.06429664 -0.18556866 0.004579454 -0.14001817 -0.047423568 -0.18480553 0.09355289
0.009466876 -0.11777682 -0.07436128 0.1543881 0.05076535 -0.15155523 -0.07536332 -0.10982708
0.09437808 0.016972763 -0.059469234 0.049207073 0.17717259 -0.07459718 0.0035589975 -0.1375124
0.09468619 -0.044687968 0.080921404 0.08826349 -0.081099086 -0.031483065 0.1700542 -0.15912025
-0.17444634 -0.060156025 0.11369837 0.13675356 -0.12983537 -0.005101677 -0.059291176 0.023605412
-0.18108761 0.056584742 0.10074274 0.15259694 0.027450828 -0.13267936 -0.13561963 -0.09506056
-0.17205228 0.012382529 0.15712073 -0.15234539 -0.09261673 -0.07545344 -0.19035065 0.14632
0.09255343 -0.12876712 0.12312873 -0.10154203 -0.078696206 -0.048685655 0.15148138 0.08080233
-0.0336334 -0.0991963 -0.086041115 -0.080425955 0.027778916 0.077217035 -0.12585054 -0.13417153
-0.17982577 -0.09867275 0.12298921 0.041750174 -0.009572849 -0.10741442 0.0014107258 -0.07369498
0.09608155 -0.15775144 -0.12211625 0.1769017 -0.080762625 0.18674546 0.08509546 0.15914598
-0.08752274 0.18458165 0.08204264 0.0084601585 0.19130333 0.056980696 0.16503508 -0.021645846
-0.15699647 0.042469613 -0.190118 0.04212392 0.028369403 -0.12899214 0.068038404 -0.011652241
0.1735649 0.17745526 0.05214298 0.07949633 -0.0343454 -0.011322708 0.021471633 -0.061744545
-0.06755426 0.06137436 -0.057364486 0.035715785 -0.06710332 0.047006987 -0.03912127 0.08282663
-0.0611534 0.042931117 -0.0023665656 -0.13876387 -0.10746418 -0.11065969 -0.13450769 -0.050502487

encoder.0.bias f4 [64]
00000000: 6531 57bd 3606 25be 6c4c 84bd 4ec7 a53c
00000010: 93b1 0c3e 5aa4 083e 8bbf 2bbe ff90 c1bd
00000020: be66 2f3e 39a9 c0bd 7d02 28be f8ef f7bd
00000030: 65de 8fbd ce6f d93c e10c 4f3d 0fa3 d23d
00000040: 200e adbd 9217 30be f55f 92bd 663f 023e
00000050: 7091 dfbd 45d8 703d 1c5d d2bd 6514 e6bd
00000060: afb6 b7bd 5072 c83c b454 9b3d 5d4a 3bbd
00000070: e7fa 163e fac4 073e 1733 a6bd 099d c73d
00000080: 9cf4 25be c6b3 233d 8aab a53c 945c 78bd
00000090: c65d 5d3d ee98 d5bc ef0f 62bc b7ca cabc
000000a0: 81bb c2bd 08b2 0dbb 1ff6 d73d 851a 17be
000000b0: be66 833d 947e 1ebe 90df 3ebd de6b 613d
000000c0: 06db b4bd b240 ad3d 4a4a 89bd c1f1 413e
000000d0: 689a a7bb 0b4c adbc 30ea 09be ccef a0bb
000000e0: 9a1c 3d3e 5792 5abd 2679 24bd 56bf a03d
000000f0: 6a79 d13c f2d1 81bd f60c 3d3e 4ead ee3d
-0.05253734 -0.1611565 -0.06459889 0.020236637 0.13739614 0.13343945 -0.16772287 -0.09451484
0.17129037 -0.09407277 -0.16407199 -0.12106317 -0.0702484 0.02654257 0.05054939 0.10285007
-0.0844996 -0.17196491 -0.071472086 0.12719497 -0.10916412 0.0588 -0.102716655 -0.11234359
-0.08970391 0.024468571 0.07584515 -0.045725215 0.14744149 0.13258734 -0.08115213 0.09746749
-0.16206592 0.039966367 0.020223398 -0.060635164 0.054044507 -0.0260739 -0.013797744 -0.024754865
-0.0950842 -0.0021621007 0.10544991 -0.1475621 0.06416081 -0.15477973 -0.046599925 0.05503451
-0.08830838 0.08459605 -0.06703623 0.18939878 -0.005114842 -0.021154424 -0.13468242 -0.0049113985
0.18467942 -0.053362217 -0.0401546 0.078489944 0.02557059 -0.06338872 0.18461975 0.11654149

encoder.1.weight f4 [64]
00000000: 98c6 7f3f 89c3 7f3f 7df2 7f3f 2e0f 803f
00000010: a0c1 7f3f 951f 803f 02f5 7f3f 8813 803f
00000020: 1dca 7f3f 8cdc 7f3f 81c7 7f3f d6c8 7f3f
00000030: a20c 803f 59ec 7f3f ec18 803f 8001 803f
00000040: 34c1 7f3f b812 803f e913 803f d2f7 7f3f
00000050: 3d03 803f 73c9 7f3f c000 803f 58e4 7f3f
00000060: 66d3 7f3f 690d 803f 910c 803f 940c 803f
00000070: a80a 803f ae0f 803f 331d 803f d01e 803f
00000080: f2df 7f3f 7be4 7f3f 1d00 803f 841f 803f
00000090: 3fdf 7f3f 30c8 7f3f 6117 803f bf21 803f
000000a0: 000a 803f f21b 803f 5dc8 7f3f 09fb 7f3f
000000b0: 1f0c 803f c4f9 7f3f cf05 803f 9fd9 7f3f
000000c0: 1918 803f 631c 803f 791b 803f cbca 7f3f
000000d0: c0dd 7f3f f3e4 7f3f 1b1a 803f e20e 803f
000000e0: a219 803f b401 803f 0dd3 7f3f 12bd 7f3f
000000f0: e802 803f 3720 803f 3bc7 7f3f 5bc5 7f3f
0.99912405 0.9990774 0.9997938 1.0004632 0.99904823 1.0009638 0.9998323 1.000596
0.99917775 0.999459 0.99913794 0.99915826 1.0003855 0.9997001 1.0007606 1.0000458
0.9990418 1.0005713 1.0006076 0.9998752 1.0000988 0.9991676 1.0000229 0.999578
0.99931943 1.0004092 1.0003835 1.0003839 1.0003252 1.0004785 1.0008911 1.0009403
0.9995109 0.9995801 1.0000035 1.0009618 0.9995002 0.99914837 1.0007135 1.0010298
1.0003052 1.0008528 0.99915105 0.99992424 1.0003699 0.9999049 1.0001773 0.9994144
1.0007354 1.0008663 1.0008384 0.9991881 0.9994774 0.99958724 1.0007967 1.0004542
1.0007823 1.000052 0.9993141 0.99897873 1.0000887 1.0009831 0.99913377 0.99910516

encoder.1.bias f4 [64]
00000000: 3b34 4bba 8c6e 4eba e8af 3bba 9264 0d39
00000010: 381f 1dba 6570 7b3a ae7c b739 5d90 4d38
00000020: e4dc 87b9 04c7 d7b9 d22c 75ba d9a2 1bba
00000030: 9c1f 863a 1f90 94b9 f8dd 373a 0c48 5cba
00000040: 83cc 0438 d6b9 97b6 032f b9b9 c246 1fba
00000050: 4b21 e839 5308 50ba d147 0f38 5abc adb9
00000060: 7e54 deb9 6b23 3f3a 55ab 9fb9 ab44 b0b8
00000070: 7aaf 8ab9 5719 1b3a 6638 a739 44f6 553a
00000080: 8c22 f739 1672 e2b9 30a9 0eba 6196 c639
00000090: 6aae 5d3a 33eb 88ba 79bf 363a 1b30 c039
000000a0: aace 1db9 112d 8239 ea4d 72ba 418d 30b9
000000b0: e6f4 273a 3df6 dc38 94c5 6539 2373 42ba
000000c0: ae6f d138 0a9f f9b9 8dbc 883a 8965 22ba
000000d0: 74fa 81ba d87c 1139 dafb ecb9 207e 37ba
000000e0: 853e 3e3a 12d5 b4b9 6216 3eba d29d 89ba
000000f0: a5eb 7d39 6df8 663a 8967 1aba 9ee9 3cba
-0.00077516184 -0.0007874749 -0.0007159696 0.00013484273 -0.00059937267 0.0009591638 0.00034997374 4.9010257e-05
-0.00025913783 -0.00041156274 -0.0009352687 -0.0005937047 0.0010232809 -0.00028336138 0.0007013972 -0.000840307
3.166172e-05 -4.521785e-06 -0.00035320976 -0.00060759124 0.00044275293 -0.0007935811 3.416074e-05 -0.00033137464
-0.0004240609 0.00072913495 -0.00030454496 -8.4051244e-05 -0.0002645215 0.00059165567 0.00031894742 0.00081620016
0.0004713725 -0.0004319108 -0.0005442081 0.00037877544 0.00084564707 -0.0010446071 0.00069712807 0.00036656935
-0.00015049675 0.0002482911 -0.00092431775 -0.00016837289 0.0006407037 0.00010536283 0.00021912745 -0.00074176694
9.9866986e-05 -0.00047611474 0.0010432169 -0.00061949395 -0.000991656 0.00013874786 -0.00045201072 -0.000699969
0.0007257241 -0.00034491025 -0.000725126 -0.0010499305 0.00024215745 0.0008810822 -0.0005890062 -0.00072064425

encoder.1.running_mean f4 [64]
00000000: 484a 113d fe7d 783d abfa 67be abf7 8abd
00000010: f505 cc3e 2a1c 503e ca52 48bd 9ae7 15bd
00000020: b30e 3a3b b5b7 68bd 4596 77be 7d0c 0abe
00000030: 456a 2c3d f44e 4bbc 7a40 07be 01a3 d1bc
00000040: 203d a7bd 8b35 84bd c204 03be 9373 063e
00000050: 87e4 99bc 69d5 f0bd 6981 6ebe 29a0 04be
00000060: 2309 bdbe 879c 2fbe e5da 803e 8acd 56be
00000070: 0a88 d03d e76c b23e 0b00 00be f666 36be
00000080: 06f7 47be ccbb 57be d8ec 9bbd 7a9a 333c
00000090: a7c8 073c 07cb 8abd c79b 803e 4dfa 51bd
000000a0: 4d46 5dbc 7df8 a3be a490 513d 484d 41bd
000000b0: b40c 89be 8939 963c b837 b03d 8b6b 5ebd
000000c0: e79b 9cbb f1ed da3d 2520 2ebe bded 893e
000000d0: 01f9 3fbb a0bc c33d 408c 1cbe 22d5 9c3d
000000e0: 7812 853e 4fc7 003e d2ac ab3c 2e55 293e
000000f0: 6dfc 303e aa15 45be b2ea 923e 22a7 363e
0.03547123 0.06066703 -0.22654216 -0.0678552 0.39848295 0.20323244 -0.04890708 -0.036597826
0.002839011 -0.05681582 -0.24178417 -0.13481326 0.042093534 -0.012408961 -0.1320819 -0.025590422
-0.081659555 -0.06455525 -0.12794784 0.13130026 -0.018785728 -0.11759455 -0.23291554 -0.12951721
-0.36921033 -0.17149554 0.25167003 -0.20976844 0.101821974 0.3484871 -0.12500016 -0.17812714
-0.19527826 -0.21067733 -0.07613534 0.010962123 0.008287585 -0.06777006 0.2511885 -0.051264096
-0.013505531 -0.3202552 0.05116333 -0.04719284 -0.26767504 0.018337982 0.086043775 -0.05430178
-0.004779327 0.10689915 -0.1700445 0.26939192 -0.0029292705 0.09557462 -0.15287876 0.07657839
0.25990653 0.1257603 0.02095643 0.165364 0.17283793 -0.19246545 0.28694683 0.17837194

encoder.1.running_var f4 [64]
00000000: 52ce be3d 5e24 603f 0050 4b3f db16 ed3d
00000010: 999e b23f 51ce 073e 05f4 ca3e d577 ed3d
00000020: 3eeb bf3e db51 8f3d fb58 133e 0fcc b83c
00000030: ec87 463e 9076 d13d 0ca0 dc3e bf9f b13e
00000040: d587 1a3d 3bc6 173e c0e1 173e 09db 463d
00000050: 5c13 533e 3e11 b73e 3494 6e3e afe8 793d
00000060: a524 cd3f 79ca 143f 1bb7 f43e 1537 bc3e
00000070: 93a0 183d 00fa 083f ade2 b23d 68e5 833f
00000080: 48ff 8f3d f4f0 923f 93f3 923e 2843 0e3e
00000090: 22a2 273e a2d8 bc3d 2edd 8d3f a4e2 813d
000000a0: df0a 393e 20ae bc3f aa0f ec3d 09c2 343e
000000b0: bc11 b73f 5b19 e73e cc9d 7c3e 95e6 523e
000000c0: b4f1 9d3e ffe4 e13d 7ec3 813e 9d44 233e
000000d0: 0cdb 2a3d 8173 ac3e 64e1 433d 8a71 a13e
000000e0: 07f7 f53d 1ebc e03e a68e 0f3e 0f88 223e
000000f0: 38d1 8c3e fbd1 c33e 51ea 3c3e 752a 133e
0.09316696 0.8755549 0.79418945 0.11576625 1.395465 0.13262297 0.39639297 0.11595122
0.37484163 0.069980346 0.14389412 0.02255824 0.19387788 0.10227692 0.43090856 0.3469219
0.037727196 0.14821713 0.1483221 0.048548732 0.20612854 0.35755342 0.23298723 0.06101292
1.6026808 0.5812145 0.47795948 0.36760774 0.03726251 0.5350647 0.08734641 1.0304384
0.07031113 1.1479783 0.28701457 0.13892806 0.16370443 0.09221007 1.1083124 0.063420564
0.18070553 1.4740639 0.11526425 0.17652144 1.4302287 0.45136532 0.2466957 0.20595773
0.30848467 0.11030006 0.2534446 0.15944143 0.041712806 0.33681872 0.04782237 0.31531936
0.12010007 0.43893522 0.1401926 0.15872215 0.2750337 0.3824614 0.1844876 0.14371665

encoder.4.weight f4 [128, 64, 3, 3]
00000000: 290a bc3c c14d 113d e72e 233d c5c6 963c
00000010: 878c 183d 3e60 0a3d db16 aabc 17cc cdbc
00000020: 9bc7 eb3c b422 94bc 670f d73c ae2e 833b
00000030: 1a9c a6bc 5df4 733c ea48 92bc ad91 8a3c
00000040: 0331 c3bc 6746 733c 81bc febc 001e 14bc
00000050: 1145 8ebb cb59 d23c e902 963c 716d 40bc
00000060: 7b5b 973c 70e7 dcbc db54 c4bc 323b de3c
00000070: 6b31 24bd 75a2 6f3b 7f4a 783c 86a5 a2ba
00000080: 5c01 1c3d 6cd0 15bd 4973 1dbd 2949 243d
00000090: 1b6a 79bc a5e6 473c 7949 5a3b fce3 0d3d
000000a0: 7b9c 8a3c 168c ae3c b110 eb3c 919e fabc
000000b0: b15a bb3c 64b5 183d 4998 1a3d e0f5 62bc
000000c0: 6fc7 84bc 6dcf 123d 3c70 253d 2e91 0a3d
000000d0: c3af de3c f8de 8fbc dc9f 753c 5336 02bd
000000e0: ddde 54bc a5bc 08bd 4cf9 1c3d 55f9 863c
000000f0: 31e5 0abd fdf6 0d3d 383a bb3c fb97 e63c
00000100: 14d4 cd3b a8c8 21ba 2a46 19bc 853b 00bd
00000110: 2cd3 053d 490d 36bc 39ad 03bd 160c 0bbd
00000120: 0423 b43b 4f4e b7bc 0440 7fbc 33ca 2bbc
00000130: ce55 1a3d a7cd 013d 661b 27bd 3050 4d3c
00000140: 9f24 dfbc 61b0 28bc 4406 a43c 60e9 6c3c
00000150: cc21 9abb 5f8a d0bc b75b e13c 57b7 1c3d
00000160: 55b1 533b de71 23bd ecfa 043d 2dc4 e93c
00000170: 7303 dbbc a0c7 e3bc d698 d3bb 7008 84bc
00000180: 57de 0cbd 6485 ebbc d218 01bc eae6 113a
00000190: b932 8d3c 4989 24bd 3d21 00bd 2c96 cbbc
000001a0: 67a5 153d d3eb 743c 06bd ab3c 7aaf 2bbd
000001b0: 432f 0d3b 9baa babc 0ef9 e8bc 8e30 cf3b
000001c0: f301 ad3b 9132 923c a98c 0fbd 7c0d b53c
000001d0: feac dc3b 07c8 c9bc 5c42 c33c 54a8 1d3c
000001e0: a83a b73c c677 c63b 689a fd3c 5343 bb3c
000001f0: 6124 08ba 1262 1abd 438f f6bc 4b43 0e3d
00000200: d161 003d 8fa4 94bc 2e0b 15bd 0998 c1bc
00000210: a79e 903b 5272 9f3c 3d79 173d 9142 55bc
00000220: ad96 043c 103c 5f38 b9f3 7abc 8840 e2bc
00000230: c91b bb3c 6cd2 00bd 4c49 173c a99f 203d
00000240: ad77 1c3d cd63 883c 4b68 ef39 a257 293c
00000250: f6f4 0abd b6b8 693c 01d3 eabb 501c 0fbb
00000260: 037e e3bc 88e7 ae3b 049d e53c 2cb1 0c3d
00000270: 274a 1b3d 04f1 023c b223 853c 4e48 de3b
00000280: 2ea6 ec3b 7f51 173d d29f 833c 89c7 dcbc
00000290: 6a6b fabc c03f 193d 836b 3c3c 85b0 e23b
000002a0: 10e6 b83c ba83 06bb 067b 453b 9ec3 303b
000002b0: 5ce3 d43c 0952 a6bc 007a 0d3d b09c b1bb
000002c0: eb63 61bc 73bc 0f3d f3dd dcbc f1d8 4dbc
000002d0: b0b9 dcbc 6da7 c2bc bde0 ccbc 6f1b 623a
000002e0: baad a43c ab42 053d d986 e9bb 84ed c8bc
000002f0: 2f7a f23c f637 dcbb 1bb1 e73c 8df3 8e3c
00000300: 4a55 ccbc dcfc 833b 7e25 fcba f4f9 80bb
00000310: 2fde cc3c 97a0 06bd dbb0 29bd b487 ed3b
00000320: c04e 3cbb 0617 9a3c 048f 0cbd fd09 dc3b
00000330: 3a0f e63c 988e e9bc 5eaf 953c e612 cebc
00000340: 2be4 d43c 0949 64bc fbfc 2fbb 7a9b 00bd
00000350: 4588 c23c fb0c 94bc bede 87bc 0347 043c
00000360: 6716 a23c 9a50 82bc 593c 25bd 9b2d 973c
00000370: 1caf a23c 1a6b a63c 177c 763c 233a 2b3d
00000380: f7a4 a7bb 49c9 43bc c475 9d3c 2715 ce3b
00000390: db89 103d 66d8 673c 913e a5ba b7bb 31bc
000003a0: 68a7 58bc 2ced b2bc 29c2 913b a872 23bd
000003b0: a967 443c b38a 26ba 71d1 113d 6fad 193d
000003c0: 9358 923c fcc4 243d 8138 023d d1c1 06bc
000003d0: 738d 353c 86ba 173d a6e3 df3c 5d4c 403c
000003e0: c046 003d fea4 d9bb 12a9 da3c ff5d 02bd
000003f0: ad74 42bc cd49 513c 8334 dfbc 8bec 0c3d
0.022954063 0.035474543 0.03983965 0.018405328 0.037243392 0.03378319 -0.020762851 -0.025121732
0.028781703 -0.018082954 0.026252462 0.0040033674 -0.020338107 0.014889804 -0.017857034 0.016915167
-0.023827082 0.014848328 -0.031095745 -0.009040356 -0.0043417295 0.025677582 0.018311935 -0.011744843
0.018476238 -0.026965827 -0.023966243 0.027127836 -0.04008619 0.0036565338 0.01515448 -0.0012408949
0.038087234 -0.03657572 -0.038440023 0.040108833 -0.015223051 0.012200986 0.0033307953 0.03464125
0.016920319 0.021307033 0.028694483 -0.030593188 0.022870393 0.037282363 0.037742887 -0.0138525665
-0.016208379 0.035842348 0.04039024 0.03382986 0.02718342 -0.017562374 0.014991727 -0.03179009
-0.012992588 -0.03338303 0.038323686 0.016476313 -0.03390998 0.034659375 0.02285491 0.028148642
0.006281385 -0.00061715627 -0.009355107 -0.031306762 0.032672092 -0.011111566 -0.03214762 -0.033947073
0.0054973383 -0.022376208 -0.015579227 -0.01048522 0.037679486 0.031690266 -0.040797614 0.012531325
-0.027239142 -0.010295958 0.020022519 0.014459938 -0.004703736 -0.025456605 0.027509553 0.038260784
0.0032301743 -0.039903514 0.03246586 0.028535927 -0.026735043 -0.02780515 -0.0064574284 -0.016117305
-0.034391727 -0.028750129 -0.007879453 0.000556572 0.0172361 -0.040169988 -0.0312817 -0.024851881
0.036534693 0.014948803 0.020964157 -0.041915394 0.0021543063 -0.02278643 -0.028439071 0.006322927
0.0052797734 0.017846378 -0.035046253 0.022101156 0.0067344895 -0.024631513 0.023835354 0.009622652
0.022366837 0.0060567586 0.030957416 0.022859251 -0.0005193409 -0.037691183 -0.03009761 0.034732144
0.031343285 -0.018144874 -0.036387615 -0.023632066 0.004413444 0.019463692 0.036980856 -0.013016359
0.0080925645 5.322328e-05 -0.015316897 -0.027618662 0.022840397 -0.031450674 0.009233784 0.039214764
0.03820007 0.016649151 0.00045663337 0.010335835 -0.03392502 0.01426523 -0.007166267 -0.0021836944
-0.027770048 0.0053376593 0.028028972 0.03434865 0.037912514 0.007992033 0.016252372 0.0067835217
0.0072219586 0.036942955 0.01606742 -0.026950615 -0.030568797 0.037414312 0.011500242 0.0069180154
0.02257064 -0.0020525292 0.0030133142 0.0026972066 0.02598732 -0.02030279 0.034540176 -0.00542029
-0.013756732 0.03509183 -0.026961302 -0.01256393 -0.026944011 -0.023761475 -0.025009507 0.0008625304
0.02010237 0.032534283 -0.007126671 -0.024527319 0.029599277 -0.0067205383 0.028282693 0.017450118
-0.024943013 0.004027946 -0.0019237248 -0.0039360467 0.02500829 -0.032867994 -0.04142843 0.007248843
-0.0028733462 0.018809807 -0.034316078 0.006715058 0.028083432 -0.028510377 0.018272098 -0.025155496
0.025987705 -0.013933429 -0.002685367 -0.031398274 0.023746619 -0.018072596 -0.016585704 0.008073571
0.019786073 -0.015907574 -0.040340755 0.018454364 0.01985889 0.020314742 0.015044234 0.04180349
-0.005116101 -0.011949846 0.019221194 0.0062891426 0.03528772 0.0141507145 -0.0012607147 -0.010847977
-0.0132235065 -0.021841608 0.0044481945 -0.039904267 0.011987605 -0.0006353065 0.03560013 0.037518915
0.017864501 0.04022692 0.031792168 -0.00822492 0.011081087 0.037043117 0.02733023 0.011736956
0.031317472 -0.006641983 0.026691947 -0.031827923 -0.011868638 0.012773943 -0.02724672 0.034405272

encoder.4.bias f4 [128]
00000000: 9352 eb3c 5c36 053d 206c 05bd dbf8 0dbc
00000010: b0cc fe3c 0fde 293c cd64 2a3d 2b0e 05bd
00000020: 6392 8e3c ae0e 283d da2f efbc b530 0c3d
00000030: f8e7 f9ba 8335 98bc bc08 5ebc 5acb ee3c
00000040: ee8e 33bc 6684 0bbd c36a 2e3a da5b 4fbc
00000050: 4576 6fba beb7 7b3c 3dd2 98bc c821 eb3c
00000060: 70d0 dbbb 1182 133c 376c 1ebd 57d4 de3c
00000070: 779d 01bd 7de8 183d 1471 0ebd e3e4 db3c
00000080: dc3f 953c 5434 1bbd 2312 aabb b34c 73bc
00000090: d243 1bbd 2a52 013d 17df 89bc 1437 66bc
000000a0: 8c7d 91bc a894 23bd 9160 15bd 7be7 e73b
000000b0: 33f7 28bd 52d6 223d 90ca b0bc 9773 563b
000000c0: 708c 893c f609 d5bc ac19 06bd 7573 29bd
000000d0: 931e bfbc 61e2 0ebd b3de 8a3c 8d5c cebc
000000e0: 9a0b 693c 19c8 b9bb d5b8 083d b736 5c3c
000000f0: b000 7abc 69f4 fe3b 36c2 f03c a680 29bb
00000100: 31f9 9f3c 42d8 063d 446d 1cbd 57d3 1b3d
00000110: fa0d 1b3d a628 0abc e2c5 fabc 166f f0bc
00000120: 3585 3b3c f308 0dbd 6e35 02bd 1f47 c9bc
00000130: aa9b 73bc 50e0 d93c 7c2d 0c3c 4312 bd3c
00000140: 94d0 d5bb 39a0 0e3d 67ae e1bc b3a0 bc3b
00000150: 4e7e 09bd 3c5c 95bc ef5d 633b 54b9 50bc
00000160: 54b3 ef3c f82e 31bb c8c2 bbbc 0c12 b5bc
00000170: 3dfa ef3c 63c5 073c 9ff8 b43c 392f a5b9
00000180: 3b46 143d af0d 77bc 7e37 113d 596b 003c
00000190: 488d 723b 850b 3dbc 43e2 94bc c2fc 073d
000001a0: c1b6 b7bc c5b0 c03c e70c 143d 5b98 043d
000001b0: f611 1b3d 8e09 d93b 2c6c b33b 94fd 193c
000001c0: 9fb8 893c 4d18 11bd 28ed 083d 7a8a 05bd
000001d0: b560 57bc 31c4 163d 9a0a 513b e9b6 8f3c
000001e0: 117c 783c 09ec db3c 2e27 bd3c c87b 043c
000001f0: 3d9c 01bc e29e c93c 9182 173d fc9a c03c
0.028725898 0.032522544 -0.03257382 -0.008665289 0.031103462 0.010367884 0.041600037 -0.032484215
0.017403787 0.041029625 -0.029197622 0.03422614 -0.0019066324 -0.018580204 -0.013551887 0.0291497
-0.01095937 -0.034061812 0.0006653482 -0.012656176 -0.000913475 0.015363632 -0.018654937 0.028702632
-0.0067081973 0.009003178 -0.03867742 0.02720086 -0.03164431 0.037331093 -0.03477581 0.02684254
0.018218927 -0.0378917 -0.0051901503 -0.0148498295 -0.037906475 0.0315725 -0.01683001 -0.014051218
-0.01776006 -0.03993669 -0.036469046 0.007077155 -0.041251373 0.039755173 -0.021580964 0.0032722706
0.016790599 -0.026005726 -0.032739326 -0.041369874 -0.023330009 -0.03488386 0.016951894 -0.025190616
0.014223957 -0.0056696055 0.033379395 0.013440779 -0.015258953 0.007780601 0.029389482 -0.0025864034
0.019528003 0.032921083 -0.03819014 0.038043346 0.037855126 -0.008432543 -0.030611936 -0.029349845
0.011445333 -0.034432363 -0.031789236 -0.024570046 -0.014868656 0.026596218 0.008555766 0.023079997
-0.0065251086 0.03482077 -0.027548982 0.0057564615 -0.03356772 -0.018232457 0.003469344 -0.012739498
0.029260315 -0.0027036052 -0.022920027 -0.022103332 0.029294128 0.008286807 0.022091208 -0.00031506436
0.03619979 -0.015078946 0.035453312 0.007838094 0.003701048 -0.011538391 -0.018174296 0.033200033
-0.022426011 0.02352179 0.036145117 0.03237186 0.037858926 0.0066234535 0.0054755416 0.009398837
0.016811667 -0.035423566 0.033429295 -0.032602765 -0.013145615 0.036808196 0.0031897188 0.017543273
0.0151662985 0.026845949 0.023089971 0.008086152 -0.007910785 0.024611894 0.036989752 0.023511402

encoder.5.weight f4 [128]
00000000: d922 803f ced1 7f3f 2a03 803f 84f2 7f3f
00000010: 42d5 7f3f c802 803f 4f1e 803f 1bd5 7f3f
00000020: 8ad3 7f3f efbb 7f3f d105 803f 740e 803f
00000030: 1315 803f df22 803f 1ee4 7f3f 5b1b 803f
00000040: 89d6 7f3f a305 803f dd0d 803f c40e 803f
00000050: fc1e 803f 9a1b 803f c3d1 7f3f 15df 7f3f
00000060: d6cf 7f3f ab1e 803f 070a 803f ed16 803f
00000070: 4003 803f bfc2 7f3f 230c 803f 23e6 7f3f
00000080: 50eb 7f3f 831e 803f 48d4 7f3f 7717 803f
00000090: 9d06 803f 3dc8 7f3f a615 803f 2bd6 7f3f
000000a0: 8abf 7f3f a519 803f 050a 803f 94c5 7f3f
000000b0: f81c 803f 03e4 7f3f dbfe 7f3f 6c01 803f
000000c0: 5b07 803f 8e18 803f 78f1 7f3f 880d 803f
000000d0: 27c0 7f3f 8a1f 803f ccf5 7f3f 62f4 7f3f
000000e0: 0400 803f eaf1 7f3f ef02 803f 75bd 7f3f
000000f0: 8618 803f 1fd9 7f3f 14f2 7f3f d60a 803f
00000100: 3305 803f f904 803f cecc 7f3f b719 803f
00000110: e51f 803f c721 803f 22c4 7f3f eb07 803f
00000120: c10b 803f f20a 803f 94db 7f3f 9ae1 7f3f
00000130: a002 803f 961b 803f 8aea 7f3f acfe 7f3f
00000140: 1dd6 7f3f 2724 803f 24ff 7f3f efcd 7f3f
00000150: b5d6 7f3f e71f 803f 7207 803f b3d8 7f3f
00000160: d7c4 7f3f 8ebf 7f3f 13f4 7f3f 3adc 7f3f
00000170: d10c 803f 39d6 7f3f 6121 803f 20c6 7f3f
00000180: 38cc 7f3f ff18 803f 6806 803f 97d8 7f3f
00000190: 6dc3 7f3f 67bf 7f3f f7f3 7f3f cdf2 7f3f
000001a0: 5d00 803f f3ca 7f3f b0ef 7f3f fdce 7f3f
000001b0: 6dfc 7f3f 9c07 803f eff9 7f3f 251d 803f
000001c0: b7fc 7f3f 05ee 7f3f a4cb 7f3f ebda 7f3f
000001d0: 0412 803f 6d01 803f 72c8 7f3f 9e0e 803f
000001e0: 8918 803f 5111 803f 82c1 7f3f e7e2 7f3f
000001f0: 2ded 7f3f fbee 7f3f e3e1 7f3f d2f1 7f3f
1.0010635 0.9992951 1.0000966 0.99979424 0.9993478 1.0000849 1.000925 0.9993455
0.9993216 0.9989614 1.0001775 1.0004411 1.0006431 1.0010642 0.99957454 1.0008348
0.9993673 1.000172 1.0004231 1.0004506 1.0009456 1.0008423 0.99929446 0.9994977
0.9992651 1.0009359 1.000306 1.0006996 1.0000992 0.99906534 1.0003704 0.99960536
0.99968433 1.0009311 0.9993329 1.0007161 1.0002018 0.99914914 1.0006607 0.9993617
0.9990164 1.0007826 1.0003058 0.99910855 1.000884 0.99957293 0.99998254 1.0000434
1.0002245 1.0007493 0.9997783 1.000413 0.99902576 1.0009625 0.9998443 0.99982274
1.0000005 0.99978507 1.0000895 0.99898463 1.0007484 0.99940675 0.99978757 1.0003307
1.0001587 1.0001518 0.9992188 1.0007848 1.0009733 1.0010308 0.9990865 1.0002416
1.0003587 1.000334 0.99944425 0.99953616 1.0000801 1.0008419 0.99967253 0.99997973
0.99936086 1.0011033 0.9999869 0.99923605 0.9993699 1.0009736 1.0002272 0.9994003
0.9990973 0.99901664 0.999818 0.99945414 1.0003911 0.9993625 1.0010186 0.9991169
0.9992099 1.0007628 1.0001955 0.99939865 0.9990757 0.9990143 0.99981636 0.9997986
1.0000111 0.9991905 0.9997511 0.99925214 0.99994546 1.0002322 0.99990743 1.0008894
0.9999499 0.99972564 0.99920106 0.9994342 1.0005498 1.0000435 0.9991523 1.0004461
1.0007488 1.0005285 0.99904644 0.999556 0.99971277 0.9997403 0.9995405 0.99978364

encoder.5.bias f4 [128]
00000000: db41 823a a460 4337 12c6 b0b9 95df fc39
00000010: 30f5 8738 4aee 01ba 5307 dc39 944a cdb9
00000020: 6920 3eba e61e 8aba be6f 343a e4d3 50ba
00000030: 820c fc39 869a 8c3a c7b7 52b9 19d3 893a
00000040: cb0b 3bba bb26 2eba 384d 7e39 06ad 7f39
00000050: 9000 9439 0b09 533a d17c 2fba ee90 f1b9
00000060: 875c 8db7 bc46 373a 7824 3fba 8e9b 5d3a
00000070: 03b3 9f39 a083 3aba 071a 2a39 7112 03ba
00000080: 142a eeb8 ca19 5d3a 1d35 39ba 5010 d438
00000090: 17ec 43ba 003e 0eba 7d90 59b9 87a2 c539
000000a0: 042f 8d39 f407 7039 2388 ccb6 6eac fcb9
000000b0: 2010 7c3a c2b8 9239 cbeb 4bba b5b5 49ba
000000c0: fc30 b1b8 609d 3938 7b18 88b9 cd6b bdb9
000000d0: b95a 48ba 3c8f 813a 0094 5239 3044 62ba
000000e0: c60c 2d39 13eb 61b9 1d76 863a 7a32 3dba
000000f0: b175 4e3a 6cd6 8c39 b8fe 83ba c600 43b9
00000100: 6fd6 6039 09b4 2439 8c01 73b9 1468 d438
00000110: ee26 893a 3809 3339 6042 79ba d6a1 8b39
00000120: a961 823a cb13 fd38 e65e 6139 2011 d8b9
00000130: 2564 28ba 3223 733a 6497 e538 474a 5b39
00000140: 7966 1639 dd40 3c3a 80f9 cb37 8513 1eba
00000150: cb4e ecb9 52cd 3a3a a4f6 22b9 0cf9 58b5
00000160: ee71 55ba 3ce7 0b3a c99a 07b9 6bb9 0a39
00000170: f4be 0dba d7d1 4539 6bea 93b9 384e 4aba
00000180: 137a 65ba a72e 02ba fb96 143a dae6 4aba
00000190: 2f7b 74ba 8d7c 86ba a0aa 7eba 0272 a3b9
000001a0: ec2d 42ba 1796 473a 7a81 71ba 845f 1eba
000001b0: 472d 8b39 ee60 eb37 8b82 d737 32e8 483a
000001c0: 01cb 8939 8b0a fab9 c940 5839 282d fbb9
000001d0: 8077 803a c1c9 f6b9 2f2e 2aba d765 053a
000001e0: 5396 0338 18fb 0d3a d195 6aba a05b 85ba
000001f0: 4221 fdb8 eef5 c739 2926 7cba 97eb ad39
0.0009937839 1.1645407e-05 -0.0003371691 0.00048231767 6.4829714e-05 -0.00049564673 0.00041967127 -0.00039156212
-0.00072527543 -0.0010537773 0.0006883106 -0.00079661445 0.00048074505 0.0010727204 -0.00020095623 0.0010515183
-0.0007135241 -0.00066433445 0.00024252094 0.00024383151 0.0002822918 0.0008050359 -0.00066943193 -0.00046075083
-1.6851596e-05 0.0006991436 -0.0007291506 0.00084536604 0.00030460217 -0.00071149506 0.0001622216 -0.00050000014
-0.00011356562 0.0008434324 -0.00070651044 0.00010111986 -0.000747384 -0.0005426109 -0.00020748559 0.0003769586
0.00026928645 0.00022891146 -6.095522e-06 -0.00048193656 0.000961544 0.00027984945 -0.00077789713 -0.0007694618
-8.449142e-05 4.4254004e-05 -0.0002595818 -0.00036129207 -0.0007642913 0.0009884606 0.00020082295 -0.00086313765
0.00016503324 -0.00021545244 0.0010258589 -0.00072172994 0.0007875814 0.00026862638 -0.0010070419 -0.00018596937
0.00021442187 0.00015707327 -0.00023174862 0.00010128334 0.0010463872 0.00017074205 -0.0009508487 0.00026632723
0.0009947318 0.00012067667 0.00021493025 -0.0004121149 -0.0006423614 0.0009274959 0.000109477696 0.00020913138
0.00014343289 0.0007181296 2.4315668e-05 -0.00060301303 -0.00045072133 0.0007125932 -0.00015541405 -8.082868e-07
-0.0008142282 0.0005336886 -0.00012932265 0.00013229779 -0.00054071774 0.00018865555 -0.0002821268 -0.0007717344
-0.0008753847 -0.0004966058 0.000566825 -0.0007740088 -0.0009326217 -0.0010260508 -0.0009714756 -0.00031174725
-0.00074073556 0.00076136127 -0.0009212714 -0.00060414546 0.0002654588 2.805932e-05 2.5690786e-05 0.00076639943
0.00026281926 -0.0004769157 0.000206235 -0.00047908095 0.0009801239 -0.00047071095 -0.0006491867 0.00050887227
3.1372834e-05 0.0005416139 -0.0008948716 -0.0010174401 -0.00012070175 0.0003813947 -0.00096187234 0.0003317266

encoder.5.running_mean f4 [128]
00000000: 7093 cb3e fac6 10be fe84 253e 6e75 d33d
00000010: 7be4 23bd c54c 59bd 7a70 c1bd ab2d 62be
00000020: 8304 efbd 18ce 4ebe d44a 213e 4020 c73d
00000030: e548 5dbe 9c82 19bf 3328 30bd c724 cfbe
00000040: 29d8 44be b2a1 a6bd f93d 4a3d 6991 993e
00000050: f76d 233e 7ac1 37be 8cee 9bbd f501 82bd
00000060: 4489 57bc e406 a93d 64f9 ff3d 63f4 49bf
00000070: 513e b1be 2509 6e3e 4500 d23d e0f4 b1bd
00000080: bd4e 51be ed3b a5be bbf1 a13e a4bd 803e
00000090: fb6b f73e 5bca 4dbe 5f14 f43d 04ab fc3d
000000a0: 19a3 9abd f127 cabc c7b9 3b3e 4d26 c9be
000000b0: fa9e 6b3e 4d3a d7bd 83c6 b63e 3140 3e3e
000000c0: b6ef f7bc 48ae 103e 998d bf3d afd0 89bd
000000d0: 08ad a43e 595e b1bd a74d 60be f9d6 ee3d
000000e0: 71a9 993e ac29 be3e e256 f0bd 4aac 1f3e
000000f0: 0d37 72bc fe74 cabd b3d4 ff3e 65de 393e
00000100: d9d9 e33d 0bda ea3e da67 803e 9b48 a33e
00000110: e709 b6be d588 8b3c d345 8b3e ca20 7e3e
00000120: 1715 9a3e eba9 86be d7b7 89be 94c7 0ebe
00000130: e6c4 0c3e 078f 8d3e 60e2 473e aea2 c9be
00000140: aa7f 78be 5708 9c3e a90a d8bb 2da5 08bf
00000150: 1fae 0d3d 9d41 063f c577 19be 8703 8d3d
00000160: f50b f3bd d213 ea3e 8941 a13e 01ca 02be
00000170: 39b1 4d3e 2607 d8bd 2445 b93e 6e3c c6be
00000180: 3f53 dc3d b8f2 853e af15 d63e 487a c3be
00000190: 4e74 ab3d 6d1d 113c 99bc e53c 6bf8 243e
000001a0: 3345 173e a17b bebe 7857 c9bd 8d78 ddb9
000001b0: 329c 9ebe 5bf2 c13e af37 52be e25d 783d
000001c0: 74c0 493d 08a2 b5be 74d5 a3bd 6c5a dfbc
000001d0: af71 cdbd c241 d23e 8897 afbd 518f 823e
000001e0: d815 bd3e 38f5 5f3e cfac af3e 5f24 c03e
000001f0: 8a24 4a3d 1b45 c6be 991c dc3e 2530 d7be
0.39760923 -0.14138404 0.16164014 0.10325132 -0.040012818 -0.05305173 -0.09445281 -0.22087733
-0.116707824 -0.20195806 0.15751201 0.09722948 -0.21609838 -0.5996492 -0.043007087 -0.40457746
-0.19223084 -0.0813631 0.049375508 0.29993752 0.15959917 -0.17944899 -0.076138586 -0.063480295
-0.013155285 0.082532674 0.12498739 -0.7888853 -0.34617856 0.23245676 0.10253958 -0.08689284
-0.20440193 -0.32272282 0.31629738 0.25144684 0.4832457 -0.20096724 0.11917948 0.12337306
-0.0755064 -0.024677249 0.18332587 -0.39287034 0.23009863 -0.10509167 0.35698327 0.18579175
-0.03026567 0.14128983 0.093531795 -0.06729256 0.32163262 -0.086605735 -0.21904622 0.116620965
0.30012086 0.37141168 -0.117353216 0.15593067 -0.014783633 -0.09885596 0.49966964 0.18151243
0.111255355 0.4586948 0.25079232 0.3189133 -0.3555443 0.01703302 0.2720171 0.24817196
0.30094215 -0.26301512 -0.2689807 -0.1394332 0.13746986 0.27648184 0.19519949 -0.39381927
-0.2426745 0.30475113 -0.0065930677 -0.5337704 0.034589883 0.5244387 -0.14987095 0.068854384
-0.11867515 0.45718247 0.31495312 -0.12772371 0.20087136 -0.105482385 0.36185563 -0.3871798
0.107580654 0.26161742 0.41813418 -0.3817923 0.08371793 0.008857113 0.028044032 0.16110389
0.14772491 -0.37203696 -0.098311365 -0.00042242222 -0.30978543 0.37880215 -0.20529054 0.06063641
0.049255803 -0.35475183 -0.07999697 -0.027264796 -0.10031449 0.41065794 -0.08573824 0.25499967
0.36930728 0.21870887 0.3431153 0.3752775 0.049351253 -0.38724598 0.42990568 -0.4202892

encoder.5.running_var f4 [128]
00000000: 9de5 073e a057 1b3e f472 593d 4902 403e
00000010: 22d9 0d3e 0bd5 663e 0ec2 083e dbaa bd3d
00000020: 5e73 933e f378 123e cd76 223e 35c2 fe3d
00000030: 5995 083e a44a 433e 106b 153e dc20 013e
00000040: d924 7d3d a8a6 a53e 8a46 053e 8c29 c13d
00000050: fc81 473e b1e0 873e 6d65 0f3e e7de 003e
00000060: 7f60 b93d cd3e c13d c427 b83d cfdb 7e3e
00000070: 3336 4d3e 32b2 b13e 92d0 063e c20d 053e
00000080: 1ba7 c03d 86d9 b33d 1b8d 283e a4c9 0a3e
00000090: 2294 2c3e f596 453e 5b38 df3d b6ae a33d
000000a0: 6fd5 b73d 65e3 193e 7e88 d23d 6142 013e
000000b0: 92e8 103e 31a1 8b3d dd40 e93d 92e7 d33d
000000c0: 88e4 e33d 2963 903d 8a55 cb3e 9cd3 9a3d
000000d0: 4494 073e 86f7 ed3d 4a4b 143e 254f df3d
000000e0: ae80 ed3d 5bc9 223e 8ffa b63d 297c 593e
000000f0: 63e9 b93d abbf 0c3e e672 eb3d da49 7b3d
00000100: 8d99 d73d 4ad3 323e a944 3a3e 8c9b 183e
00000110: b591 663e 4f54 7f3e b3a2 f53d 24a5 ac3d
00000120: e3cd e53d 2d47 fc3e b12c be3d 7810 863d
00000130: 2ca5 3c3d ce1e 413e fce4 e13e dcdd d33d
00000140: 7a48 e63d 43fc ef3d 31e4 073e 8d1c 403e
00000150: 7854 d03d 6eb4 b83e abe6 a83e 18a5 873d
00000160: 947c 463e a33c b93e 47c4 be3e 654a df3d
00000170: e82e 0d3e 38c7 b53d 720a 253e c2ff 153f
00000180: e680 163e 5ee7 133e a023 493e 6cf8 233e
00000190: f886 d43d 040b 983d 8e79 8d3d 9b35 1b3e
000001a0: 6334 023e f297 c63d eb93 d33d f103 fd3d
000001b0: 01e4 4e3e 991a c53d 4466 643e 1a25 303d
000001c0: fbe4 b03e 3de8 733d e7f1 a93e ff6a c53d
000001d0: 3b9a a63e 1e4b 883e a923 1d3e 6cec 7e3e
000001e0: 77ec ab3d 1ea7 413d 7dbc 743e c3a5 083e
000001f0: 3e79 533e 4fb3 f33e 34ea ae3d f443 863e
0.13271184 0.15170145 0.053088143 0.18750872 0.13852361 0.22542207 0.13355276 0.09261104
0.28798956 0.14303951 0.15865631 0.12439386 0.13338222 0.19071442 0.14591622 0.12610191
0.06180272 0.3235371 0.1301519 0.094317526 0.19483179 0.26538613 0.14003535 0.1258503
0.09051608 0.094358064 0.0899196 0.24888538 0.20040207 0.34706265 0.13165501 0.1299353
0.09406873 0.08781724 0.16460077 0.13553482 0.16853383 0.19295867 0.10899421 0.07992308
0.08976256 0.1502815 0.1027994 0.12622978 0.14151219 0.06817854 0.11389325 0.10346903
0.11127573 0.07050163 0.397137 0.075598925 0.13240153 0.11619477 0.14481845 0.109037675
0.11596809 0.15897124 0.08934509 0.2123877 0.09077718 0.1374499 0.114965245 0.061349727
0.10527334 0.17463413 0.18190254 0.14903086 0.2251652 0.24934505 0.11993923 0.084299356
0.112209104 0.49273053 0.09285868 0.0654611 0.046055958 0.18859407 0.44120014 0.10345051
0.112442926 0.11718037 0.13270642 0.18760891 0.10172361 0.36075157 0.32988486 0.06623286
0.1938346 0.36179075 0.37259123 0.109028615 0.13787425 0.088758886 0.16117266 0.5859338
0.14697608 0.14443728 0.19642496 0.16012734 0.10377306 0.07423976 0.0690795 0.15157168
0.12715296 0.0969695 0.103309475 0.123542674 0.20204164 0.09624214 0.22304636 0.043004133
0.34549698 0.05954765 0.3319237 0.096395485 0.32539544 0.2661981 0.15345635 0.24894875
0.083947115 0.047278516 0.23900028 0.13344483 0.20651719 0.4759774 0.085407645 0.2622372

decoder.0.weight f4 [64, 128, 3, 3]
00000000: 52ea cd3c b473 e43c 0a84 abbc 3322 603c
00000010: 7340 debc 89f5 143b f5fd aabc 4e04 75bc
00000020: d765 503b 8194 debc 57ba 45bb 794d d839
00000030: 7c4d ebbb 8b49 c03c d174 ed3a 06ec cdbc
00000040: b958 a4bc d98c 163c 68f0 c1bc 9050 31bc
00000050: cd1e ddbc 9b5c 623c f136 823c 357b b9bb
00000060: 3f3e b2bb b6f8 debb 7579 1abc 494d 893c
00000070: 1627 a0bc 11bd 9f3c a24c 9b3c e3c3 8e3c
00000080: ed8c 923c 2d3e 58bc aabe d0bc 6894 103b
00000090: 9b6e 873c cb12 ee3c d06c 97bc 8d42 afbc
000000a0: eb6c 253c ab5c 933c fdf3 35bc d7b1 e43c
000000b0: 85dd fcb9 fb10 843c 0b03 a43c b77b e2bc
000000c0: 70e2 76bc 0f32 f3bb 8e42 0e3a ffe5 ca3a
000000d0: c80f d8bb 434b a83c b0d7 bbbc 422b 293c
000000e0: 8257 2fbc dd74 4b3c 5ca5 773c 22ee cd3c
000000f0: 3802 6a3c 98eb bf3c 733e f13c b0fd 0ab9
00000100: 7ae0 ecbb 7a54 463c d629 b23c 83c8 06bb
00000110: b3b7 c43c e4f3 38bc 15df a6bc 7997 003c
00000120: deb2 16bc 26b3 3a3c 2521 3abc b914 033c
00000130: 554c 2cbc 1920 99bc 42e5 dfbc 9a70 d13c
00000140: fb78 81bb 9857 983c 4d0a b5bc f5e6 8dbc
00000150: ed37 8836 f311 013c bb24 723c c4f8 b73c
00000160: 1c95 bd3c 6351 e5bc 908b cebb 8461 d1bc
00000170: 1080 85bc 962f b2bc a41b ee39 efd4 7f3c
00000180: 3a31 c83a a9df 683c 8fa9 ddbb b88b 97bc
00000190: 0f5f c93c ab83 d4bc 8b85 5ebc f435 363c
000001a0: 92d6 d23c c386 c53b c809 d03c 1471 353b
000001b0: 4506 8bbc eb39 1f3c 70a4 f03c 022e 48bc
000001c0: 03b8 e6ba e87a 4dbb f3ff 843c c37a d33c
000001d0: 882e 09bc 24bd 44bc 6acb 0dbc 87d1 783c
000001e0: e117 b63c 5a99 d4bc f8ba b53c a34e ecbc
000001f0: 7c39 873c 6546 9cbc e62c 02bc b107 c23c
00000200: 850c 0ebc 2f9c e8bb b248 a53c ce38 20bc
00000210: 3801 03bb 286e 773c 53e1 79bc f73e 813c
00000220: 8370 bcba 1d98 eabc d090 b13c 7a59 6fba
00000230: f9f9 3a3c 1fa8 673c a0ff 0c3c cbea 99b9
00000240: a3e1 b23c cf5f 25bc 823a b8bc a426 91bc
00000250: 6c97 b63b 5a7d d83c 5b9b 453c a4a0 a1bb
00000260: c58e 303c d0f2 a4bb 8513 843c 8d7e 153b
00000270: 90e7 94bb 2d87 fe3b 2cdf 98bc fe9f 51bc
00000280: 5046 313c 2b8a 59bb 8d19 eebb 0fef 5abc
00000290: e7bf d53a a62e a6bc 7cc5 87bb e504 453b
000002a0: 9020 293c 45a7 b43b d571 cc3c 6682 ccbc
000002b0: faa8 ea3c d25d 84bb b51b 23bc 6287 edbb
000002c0: 7577 c9bc f777 e8bc 4b5f 183c d48c 3fbc
000002d0: 6335 693c 9ab9 21bc 5d68 ca3c 1a26 933c
000002e0: ae99 d6bc 835d 773c a82c 893c e8cd cd3c
000002f0: ef79 b63c 406d e93c 3d03 523c caf6 213a
00000300: 7840 dc3c 96fc b9ba cd78 ce3b 8caa 1abc
00000310: b64c 843c 6cca d5bc 9e1f 8f3c 0721 aebc
00000320: eb3b d9bc 5bcd a43b f97c 8bbc 3bd8 9dbc
00000330: 543c eabb e735 083c f5e5 1dbc ac80 e43c
00000340: b789 1e3c 6c55 313c 20c7 f4bb 0bbb 2a3c
00000350: 213c 8a3c 4a39 81b9 985f 093c ff19 463c
00000360: aa8a 43bc fd6d e83c f1fe 0abc 5388 5cbc
00000370: d39d ea3c dda5 c5bb 7634 e53c 62b0 28bc
00000380: 648e 29bc 4ac5 30bc 9382 b43c cb49 a83c
00000390: a9a7 1abc 9074 c4bc 4aa7 bbbc b8ae e9ba
000003a0: 8d02 6a3c 36ba be3c 57f1 edbc 8554 233b
000003b0: f2ff 9fbc 1405 a53c 46ea 393c 3e36 acbc
000003c0: 8f21 70ba 8615 e4bc 3bef 863c 06f9 9abb
000003d0: 5464 d1bc d8dd b63b b5e3 7fbc 68fd 43bc
000003e0: b855 6abb 4a6d ca3b bcff babc 6ab4 bbbc
000003f0: 40fc ad3c 842e aebc 7de8 213c 4aec 2cbc
0.025136147 0.027887203 -0.020936985 0.013680029 -0.027130341 0.0022729358 -0.02087305 -0.01495464
0.0031798983 -0.027170422 -0.0030170882 0.00041256452 -0.0071808677 0.023472568 0.0018116479 -0.025136959
-0.020061838 0.009188854 -0.023674205 -0.01082243 -0.026992226 0.013816024 0.015895339 -0.0056604394
-0.005439549 -0.006804551 -0.009428372 0.016760485 -0.019549888 0.019499334 0.01895744 0.01742739
0.017889464 -0.013198418 -0.02548154 0.0022061113 0.016532233 0.029061696 -0.018484503 -0.021394039
0.010096769 0.017988523 -0.011105535 0.027916832 -0.0004823023 0.016121378 0.020020982 -0.027646882
-0.015068635 -0.007421739 0.00054267875 0.0015479921 -0.006593678 0.0205437 -0.022929996 0.010325255
-0.010702016 0.012417999 0.015115108 0.025137965 0.014282756 0.02342777 0.029448723 -0.00013255212
-0.007228908 0.012105102 0.021748465 -0.0020566292 0.024013376 -0.011288617 -0.020370046 0.007848614
-0.009197919 0.011395251 -0.011360441 0.008000546 -0.010516246 -0.018692063 -0.027330998 0.025566388
-0.0039511896 0.018596455 -0.022099638 -0.017322043 4.0596265e-06 0.007877815 0.014779265 0.022457488
0.02314239 -0.02799291 -0.0063032582 -0.025559194 -0.016296417 -0.021751206 0.0004541549 0.015614732
0.001527346 0.014213481 -0.0067645977 -0.01849924 0.02458146 -0.02594169 -0.013581644 0.011121262
0.02573708 0.0060280277 0.025395289 0.0027685808 -0.016970763 0.009718399 0.029375285 -0.012218
-0.0017602447 -0.0031353775 0.016235327 0.025815373 -0.00837291 -0.012007985 -0.008654455 0.015186674
0.022228183 -0.02595203 0.02218388 -0.02884609 0.016506903 -0.019076535 -0.007945275 0.023685308
-0.008669977 -0.0070986967 0.020176265 -0.009779168 -0.001998974 0.015101947 -0.015251475 0.015777094
-0.0014376793 -0.028636986 0.021675497 -0.00091304595 0.011412137 0.014139204 0.008605868 -0.00029357368
0.021836108 -0.010093643 -0.022488836 -0.01771862 0.00557225 0.02642696 0.012060965 -0.00493248
0.010776226 -0.0050338283 0.016122589 0.0022811026 -0.004544206 0.007767579 -0.018661104 -0.012794493
0.010819986 -0.0033193927 -0.0072662295 -0.01336266 0.0016307802 -0.020285916 -0.004143415 0.0030062732
0.010322705 0.005513104 0.024956623 -0.024964523 0.028645027 -0.0040395046 -0.009955336 -0.007248805
-0.024593094 -0.028377516 0.009300063 -0.011691291 0.01423392 -0.009870911 0.024707967 0.017962504
-0.026196327 0.0150979785 0.016744927 0.025122598 0.02227494 0.028494477 0.012818155 0.0006178437
0.02688621 -0.0014189656 0.0063010217 -0.009440076 0.01614986 -0.026097499 0.017471131 -0.021255983
-0.026517829 0.005029363 -0.017027365 -0.019268146 -0.007148305 0.008313633 -0.009637346 0.027893387
0.009676388 0.010823589 -0.0074700266 0.010420571 0.016874375 -0.0002464748 0.008384608 0.012091159
-0.011934916 0.028372759 -0.008483634 -0.013460237 0.02863971 -0.0060317353 0.027979117 -0.010295959
-0.01034889 -0.010789225 0.022034919 0.020543 -0.009439387 -0.023981363 -0.022906918 -0.001782856
0.014282835 0.023282152 -0.029045744 0.0024922204 -0.019531224 0.020144023 0.011347359 -0.021021958
-0.0009160274 -0.027842294 0.016471496 -0.004729393 -0.025560535 0.005580645 -0.015618254 -0.011962272
-0.0035756659 0.006177579 -0.022827022 -0.022913177 0.021238446 -0.021262415 0.00988209 -0.010554383

decoder.0.bias f4 [64]
00000000: e1f6 b2bb 53f9 da3c cc25 da3c 4763 993c
00000010: 7efd 843c da8a dcbc 269c c4bc 7547 cdbc
00000020: e79a a9bc 8556 8c3b 95ec e23c d0d1 e03b
00000030: 4d3f fe39 03bb b1bc dcde 9a3c 4ba7 e23c
00000040: 6889 9b3b a47b d5bc 77d4 9dbc 2bf4 d83b
00000050: 8e30 8dbb c2b8 a93c 43e8 cf3c b44a aabc
00000060: 67b1 583c 73db e83c c0e4 033c 47a0 81bc
00000070: 2c01 acbc 43b9 b43c f79d 9b3c 0f3c d4bc
00000080: 18fe 3f3c 9157 e2bc 21e8 80bc c348 4e3c
00000090: 96b9 f1bb a703 c53c adfe cfbc f282 833c
000000a0: 48e2 d03c 82d4 833c d7a2 0d3a eb28 a93c
000000b0: 2998 f03c a318 ba3c 1db7 ea3a 2fe7 8f3c
000000c0: 70b0 c0bc eea8 d83c dedd 8abc 583d cd3b
000000d0: a1e6 e33b 0831 14bc 6a18 2bbc b319 c53c
000000e0: 1273 833c 4d20 243c 9ded 8d3c 0f6d 1fbc
000000f0: 9083 a23c e577 55bc feeb 283c 8b78 a3bb
-0.005461559 0.026730215 0.026629351 0.018724097 0.016234156 -0.026921678 -0.024000239 -0.025058487
-0.020703746 0.004282775 0.027700702 0.006860949 0.00048493818 -0.02169562 0.018905096 0.027667662
0.0047466047 -0.026059933 -0.01926635 0.006620904 -0.0043087667 0.020717982 0.025379306 -0.020787574
0.01322589 0.028424954 0.008050144 -0.015823497 -0.020996653 0.022060996 0.018996222 -0.025907544
0.0117182955 -0.027629646 -0.015735688 0.01259059 -0.00737686 0.024049593 -0.025389994 0.01605365
0.025498524 0.016092543 0.0005402988 0.020649394 0.02936943 0.022716826 0.0017907355 0.017566292
-0.023521632 0.02644774 -0.016951498 0.0062634163 0.0069549833 -0.009044893 -0.0104428325 0.024060106
0.01604608 0.010017467 0.017325217 -0.009730591 0.019838125 -0.013029073 0.010310171 -0.004988735

decoder.1.weight f4 [64]
00000000: 2107 803f 02c8 7f3f 37d5 7f3f 861f 803f
00000010: ee21 803f 54c4 7f3f e9ba 7f3f b0ce 7f3f
00000020: f0ec 7f3f 0fd9 7f3f 8bbc 7f3f ba10 803f
00000030: 57fb 7f3f 7d17 803f 1a06 803f 89ff 7f3f
00000040: dbd2 7f3f cc22 803f 320e 803f c4ed 7f3f
00000050: 7ac3 7f3f f31c 803f cb1f 803f 1a1c 803f
00000060: 9113 803f 3f23 803f 7523 803f 2111 803f
00000070: d7c6 7f3f 2612 803f 8ec8 7f3f 7f02 803f
00000080: 6714 803f 760e 803f f3d9 7f3f 46cc 7f3f
00000090: 4402 803f c6ce 7f3f 35ec 7f3f cb20 803f
000000a0: d519 803f 6400 803f dc19 803f 621a 803f
000000b0: b8fc 7f3f b9d3 7f3f a1f6 7f3f fb21 803f
000000c0: 040e 803f c8ef 7f3f 14f0 7f3f c2ec 7f3f
000000d0: 91c1 7f3f 1bbe 7f3f 73ec 7f3f cadf 7f3f
000000e0: 6f22 803f d0d1 7f3f a5c0 7f3f 8ae4 7f3f
000000f0: 751a 803f abbb 7f3f 5e0e 803f 2cf7 7f3f
1.0002176 0.9991456 0.99934715 1.000962 1.0010355 0.9990895 0.9989458 0.99924755
0.9997091 0.9994058 0.9989707 1.0005105 0.9999289 1.0007168 1.0001862 0.9999929
0.99931115 1.0010619 1.0004332 0.99972177 0.9990765 1.0008835 1.0009702 1.0008576
1.0005971 1.0010756 1.0010821 1.0005227 0.9991278 1.0005538 0.999154 1.0000762
1.0006226 1.0004413 0.9994194 0.9992107 1.0000691 0.99924886 0.999698 1.0010008
1.0007883 1.0000119 1.0007892 1.0008051 0.99994993 0.9993244 0.999857 1.001037
1.0004277 0.9997525 0.99975705 0.9997064 0.99904734 0.9989945 0.9997017 0.9995085
1.0010508 0.99929523 0.9990333 0.999581 1.0008074 0.99895734 1.0004385 0.9998653

decoder.1.bias f4 [64]
00000000: 95f2 7fba f8c6 8db9 9f86 bfb8 80da 513a
00000010: 5129 58ba 3558 8fba 67dc 7cba 3b75 68ba
00000020: f4ca e439 4e5d 95b8 61e2 f4b9 e4bd 533a
00000030: 4e1c 8bba a064 7f3a e26c ba39 823b 523a
00000040: 3d3c 92b9 c72f 883a ccca 97b8 28f8 b739
00000050: 3758 ceb9 fd98 4839 4c5a 513a eb0d 9239
00000060: b45e 513a 8b17 543a 1e02 dab9 4121 823a
00000070: 2744 67ba 4951 3eba 84e1 55ba 4252 893a
00000080: 9834 bfb9 8d3c 85ba 9668 cd36 3b45 4cba
00000090: 091c 7b3a 949f c9b9 33d8 c139 232e 84ba
000000a0: 205b ef38 f5f2 6eba ce8b 0339 a53a a939
000000b0: 18c1 87b8 97bc 4dba 5d20 5d39 40b7 9039
000000c0: b6f5 463a 53a4 19ba 758a 233a 717c 0639
000000d0: e896 58ba f496 a8b9 3870 3bba 7383 00b8
000000e0: 8e5e 7e3a 38d6 82ba 99d4 7cba 6338 db39
000000f0: 5a08 7a3a 1e22 5cba c0f5 ad38 b7f5 a039
-0.00097636256 -0.0002704186 -9.132665e-05 0.00080052763 -0.0008245903 -0.0010936322 -0.00096458796 -0.00088675664
0.0004363876 -7.122253e-05 -0.00046707972 0.0008077307 -0.0010613294 0.00097424723 0.0003555781 0.00080197316
-0.0002789217 0.0010390215 -7.238015e-05 0.0003508937 -0.00039357107 0.00019130479 0.00079861726 0.0002785766
0.0007986829 0.00080906664 -0.00041581778 0.0009928123 -0.0008822106 -0.0007260037 -0.00081589096 0.0010476785
-0.00036469544 -0.001016514 6.1216515e-06 -0.00077922986 0.00095790677 -0.00038456602 0.0003697291 -0.0010084551
0.000114133814 -0.0009115183 0.00012545215 0.00032277885 -6.473268e-05 -0.00078482315 0.00021088259 0.00027602352
0.00075897144 -0.0005860973 0.0006238588 0.00012825594 -0.0008262233 -0.00032155926 -0.0007150206 -3.064e-05
0.0009703421 -0.0009982055 -0.00096447166 0.00041812946 0.00095379876 -0.0008397418 8.295057e-05 0.0003070065

decoder.1.running_mean f4 [64]
00000000: 2609 dc3e e6dd eebc 0f77 85bc 2175 14bf
00000010: 32bd e63e 736e 283f 9fcf 263e a3cb b93e
00000020: c576 763e cd08 9abe ee36 9d3d 8376 2ebe
00000030: 32e4 6b3f 9e31 19bf adbe 6a3d 9a62 07bf
00000040: 0868 8e3d b214 3ebf 7cf7 e33e 67dc 5dbf
00000050: f42a b53e fb8e a63e 65a7 73bf fb10 aa3e
00000060: ab71 d7be 06d8 023f 2015 013f cd17 653f
00000070: 17f0 303f 3c85 913e 5794 f13d fb88 28bf
00000080: 1e42 123f d824 e33e d977 66be 0642 c9ba
00000090: c2da 16be 1dca 9bbd 86a1 08bf 7b84 9e3f
000000a0: 2e4d 6e3e 1988 3b3f 6057 07be 032c 443f
000000b0: 0930 21bf 484c d73e 4d88 32bf e69a 953e
000000c0: 505e 0c3f 9964 a83d 5d2c d9be b6ae 163d
000000d0: 0e61 a8bd fac8 a73e 3291 243f 8913 12bd
000000e0: ab32 0fbf 2d1f 9e3e de1d 033e 98e6 01bf
000000f0: bf2d dabe 2ef0 483f 520e 913d b07b 04bf
0.4297573 -0.029158544 -0.016292123 -0.57991225 0.4506622 0.6579353 0.16290139 0.36288175
0.24068744 -0.3008484 0.07676493 -0.17037396 0.92145073 -0.59841335 0.05731075 -0.5288483
0.06953436 -0.7425033 0.44524753 -0.8666443 0.35384333 0.3253096 -0.951773 0.3321608
-0.4207891 0.51110876 0.5042286 0.8948944 0.6911635 0.28421962 0.11795872 -0.65834016
0.57132137 0.44364047 -0.22506656 -0.001535476 -0.14731887 -0.076069094 -0.53371465 1.238418
0.23271629 0.73254544 -0.13216925 0.76629657 -0.6296392 0.42050385 -0.6973923 0.2921974
0.5483141 0.082223125 -0.4241666 0.03678771 -0.08221637 0.3277052 0.6428405 -0.03566316
-0.5593669 0.3088316 0.12804362 -0.50742483 -0.42613026 0.78491485 0.070828095 -0.5175123
