checkpoints/2025-06-02-14-31-26/last_epoch.pth (torch, 686901 bytes, 25 tensors)

encoder.0.weight f4 [64, 3, 3, 3]
000000 6c 1a 40 be 29 3d 34 3c a2 3d 08 be 57 2d 0a 3e
       -0.18760079 0.01100091 -0.13304761 0.13493858
000010 47 fc e2 bd 6f 25 1f be cd fd 2b 3e fd 52 b0 3d
       -0.11083274 -0.15541624 0.16796036 0.08609579
000020 ef 25 15 3e 70 7d 2c 3e 57 a5 40 3e 3b 24 05 3e
       0.14565252 0.16844726 0.18813072 0.13002102
000030 96 00 a4 bd 69 35 86 3d b4 0b 0e bd 4d e9 42 3d
       -0.08007924 0.06553156 -0.03467913 0.047585774
000040 eb 98 4e bd 79 0a 22 be f4 47 11 3e a6 bf 20 3e
       -0.050438803 -0.15824308 0.14187604 0.15698108
000050 cf 30 11 3e 48 0d bb 3a d2 79 8c 3d 9a 05 b9 bc
       0.14178775 0.0014270926 0.06859173 -0.022585679
000060 3e 26 e4 bd 26 01 04 3d d6 8a f2 bd 5d 27 da 3d
       -0.111401066 0.032227658 -0.11842887 0.10652039
000070 bd 10 04 3e c9 16 23 3d b6 dd bc bc 33 9f 9e 3c
       0.1289701 0.03981665 -0.023054939 0.019363021
000080 c5 2e d7 bd 9c c7 61 3c a6 0c 20 3d 5e 1c dd bd
       -0.105069675 0.013780501 0.039074562 -0.10796426
000090 25 e8 76 3d 0f 3d 13 3d 43 85 a5 bd c9 92 d6 3d
       0.060279984 0.035946902 -0.08082058 0.10477216
0000a0 b6 85 ca bd e2 0e 85 3d 77 94 33 be 49 d3 05 be
       -0.098887846 0.06496979 -0.17537104 -0.1306888
0000b0 e2 4a 33 be d2 55 28 be 4e 04 31 be 31 2d 27 3e
       -0.17509034 -0.16438988 -0.17286798 0.16325833
0000c0 65 72 0f 3e d3 fc 0f be 12 d5 e5 bd b9 6a fa 3d
       0.14008482 -0.14061289 -0.112222806 0.12227387
0000d0 ae 24 15 be e1 d0 1f 3e 0e bc 23 be 6c 2d d7 3d
       -0.14564773 0.15607025 -0.15989706 0.105067104
0000e0 7a 2f bc bd f0 ad 4e bd d5 b7 7a bd ca fd 8a bd
       -0.09188743 -0.05045885 -0.061210472 -0.06786688
0000f0 bf 3c 80 3d 51 3d 98 3d d5 59 5b 3d 1a ee e7 3c
       0.062615864 0.0743357 0.053552467 0.028311778
000100 81 ee a6 bd 70 5d 37 3e 22 4b 30 3e ad d9 9c bd
       -0.0815096 0.17906737 0.17216161 -0.07658706
000110 33 a1 2a 3e da b1 c7 bd 2a dc 6d 3d 76 73 51 3c
       0.16663055 -0.09750719 0.058071293 0.012783876
000120 16 64 c8 3d 63 fc a8 bd 61 19 0f 3c 75 1b ed 3d
       0.09784715 -0.08251264 0.008734078 0.11577503
000130 f0 2b 3b 3e 8f 2c 09 be 97 fd dc bd 86 6d 20 3e
       0.1827848 -0.13395904 -0.10790556 0.1566678
000140 17 bb 0c be 51 22 13 be 8d 8f 54 3d f9 70 1c 3e
       -0.13743244 -0.1436856 0.051894713 0.1527747
000150 1c 8d 23 bd 34 68 23 be ed 87 8f 3d c2 08 da bd
       -0.039929494 -0.15957719 0.07008348 -0.10646202
000160 39 9c 12 bd 6b 2f e1 3b 82 c6 db 3d 66 ca c4 bd
       -0.035793517 0.0068721077 0.10731222 -0.09608917
000170 07 53 a8 bd 4a 76 0f 3e dd cb e5 3d 5a 5e 01 3d
       -0.08218961 0.14009967 0.112205245 0.03158412
000180 de 73 f2 bd e0 85 0a 3e 3f a1 54 bd dd 59 28 3e
       -0.11838506 0.13527632 -0.05191159 0.1644053
000190 fe b6 56 bd 48 de 98 3d f5 11 94 bd df 9d 1e 3d
       -0.05242061 0.07464272 -0.072299875 0.038724776
0001a0 e1 f6 33 3e c1 95 c5 bb 84 05 d7 bd a8 b2 27 be
       0.17574646 -0.006029815 -0.10499099 -0.16376746
0001b0 86 6f 3a 3e 93 ce cc bc 2e a2 e9 3d 66 90 0e 3c
       0.18206605 -0.025000846 0.114078864 0.008701419
0001c0 e1 16 37 be f4 48 0e be 51 b7 33 be 92 f7 5c 3d
       -0.17879821 -0.13895017 -0.17550398 0.05394704
0001d0 7e 00 fb bd 65 27 1b 3e f6 8c 08 3c fa 0a cc 3d
       -0.12255953 0.15151747 0.008334389 0.09963031
0001e0 64 06 2f bd da f1 fb 3d fa 6d 22 3e fd a4 83 bb
       -0.042730704 0.12301989 0.15862265 -0.004017471
0001f0 25 45 ae bd 92 22 8e 3c 1e f6 1a 3e 05 ad 02 be
       -0.08509282 0.017350469 0.15132949 -0.12761314
000200 61 bf 16 3e 71 67 1b 3a 2f 2c b5 bc 97 41 18 3e
       0.14721443 0.0005928195 -0.022115795 0.1486877
000210 6b 43 09 be d7 5d fe 3c 1b 05 98 39 d7 25 c2 3d
       -0.13404624 0.031050606 0.00028995503 0.094798736
000220 48 c0 f4 bd c9 50 39 be 3c 9d f4 3d 5c 66 02 be
       -0.11950737 -0.18097223 0.119440526 -0.1273436
000230 9e 77 0a 3e 1b 22 0a be 2e 0c 63 bd e9 68 99 bd
       0.13522193 -0.13489573 -0.055431537 -0.07490713
000240 83 ba f4 3d d6 5a 0e be ad 79 42 be df 18 e1 bd
       0.11949637 -0.13901839 -0.18991728 -0.10991072
000250 44 09 ee bc d6 33 05 be 00 91 99 3d 67 1a 9b bd
       -0.029057153 -0.13008055 0.0749836 -0.07573395
000260 ed d1 15 be 41 d7 33 bd 3c 6b a6 3d 3f 0b 23 3e
       -0.14630862 -0.043906454 0.08125922 0.15922259
000270 f6 23 8d bd 89 84 e3 3d 45 cf a7 bd 52 d9 24 3e
       -0.06891625 0.111092634 -0.081938304 0.16098526
000280 1b 77 29 bd c6 85 17 3e 82 c9 40 be c5 aa 9e bd
       -0.041373353 0.14797124 -0.18826869 -0.077474155
000290 cb dd cf bd a9 5a 10 bd 89 29 20 3e 01 4f 13 bd
       -0.101497255 -0.03524271 0.15640844 -0.035964016
0002a0 ac b9 c8 bd 5d 07 bf 3d bf 8d 89 bd 10 1d 4d bd
       -0.09801039 0.09327576 -0.06716489 -0.050076544
0002b0 76 fc 38 3a 14 5f 43 bd b5 c8 98 3d 51 36 1b 3e
       0.00070566626 -0.047698095 0.07460157 0.15157439
0002c0 5f a0 94 3d f1 5c 42 be 12 9b 5c bd d3 2f 46 3d
       0.07257151 -0.18980767 -0.053858824 0.048385452
0002d0 02 38 29 3d 89 28 a1 3a 1e a3 fe 3d d6 2c fa 3d
       0.04131318 0.0012295406 0.12433456 0.12215583
0002e0 f3 7e 3e be 95 ed c7 bd eb 09 39 be b1 6e 97 bd
       -0.18603115 -0.09762112 -0.1807019 -0.073941596
0002f0 2d eb 22 be 05 42 16 3e 62 73 99 3d 50 59 b7 bc
       -0.15910025 0.14673622 0.07492711 -0.022381455
000300 0e 86 0b 3d 26 f8 c3 3d 33 c8 ca bd c6 a3 12 3e
       0.03406339 0.09568815 -0.09901466 0.14320287
000310 69 63 44 3e d0 72 2c be 54 3d 26 be 0d b7 04 3d
       0.19178547 -0.16840672 -0.16234332 0.032401133
000320 36 67 da 3d d8 28 9d bd 1c e0 37 3d 81 3f 22 be
       0.10664217 -0.07673806 0.04489146 -0.15844537
000330 18 77 b3 3d e9 af 5e 3d 2d d4 16 be ad 62 62 bc
       0.0876295 0.05436698 -0.14729376 -0.013817471
000340 05 a5 6e bc 29 05 88 bd eb e4 47 3d f7 64 08 bd
       -0.014565711 -0.06641609 0.048802298 -0.033299413
000350 ae 02 b8 bd 64 6a ab 3d 11 79 f7 3c f6 4b 08 be
       -0.08984886 0.08369902 0.030209096 -0.13310227
000360 b3 b4 d9 3d fa ae 26 3e 6c 2e 1b be e9 e1 15 bb
       0.10630169 0.16277686 -0.15154427 -0.0022870249
000370 a0 52 f4 bd 76 c6 b2 3d de 3b 08 3e 19 88 ad bd
       -0.11929822 0.0872926 0.13304088 -0.08473224
000380 e6 5f 0d 3e a7 f2 80 bc f6 02 d0 3d 2c cf 91 bd
       0.13806114 -0.015740706 0.10156815 -0.07119593
000390 79 ec 0c be 57 c6 83 3c 74 12 ea bd 04 1a 38 3e
       -0.13762082 0.016085787 -0.11429301 0.17978674
0003a0 36 12 21 3d e6 40 09 bd 31 26 e7 3d a2 3d 08 3d
       0.039324008 -0.033509158 0.11286581 0.033261903
0003b0 48 ac 0f 3e 54 1a 39 3e ea b7 80 3d a4 77 43 3e
       0.14030564 0.1807645 0.06285079 0.19088608
0003c0 a2 8e 8c 3c c5 1e 89 3c 9b 49 10 3e 27 c2 dd bd
       0.017157856 0.016738305 0.14090578 -0.10828047
0003d0 ce 4b d4 bd 4c 52 99 bc 25 0d b4 bc ab 59 12 3e
       -0.10366021 -0.018716 -0.021978924 0.14292018
0003e0 c0 85 b4 bb f4 8a 43 be e4 cf 27 be a2 29 a7 bd
       -0.0055091083 -0.19095975 -0.16387898 -0.08162238
0003f0 02 8e bc 3d 7d bb cd bc d8 26 c3 3d 0e 04 e2 3c
       0.09206773 -0.025113815 0.09528893 0.027589824

encoder.0.bias f4 [64]
000000 37 60 22 be fe 64 0b be 24 47 d8 3d bd 4a 0d 3e
       -0.15857016 -0.13612744 0.10560444 0.13798042
000010 f8 98 17 be ae e9 fc bc 4e 4b 05 3c 9d 4d 16 be
       -0.14804447 -0.030873146 0.00813563 -0.14678045
000020 41 2e be bd 80 3e a0 3d a8 87 2f bc 61 c6 3f be
       -0.09286166 0.07824421 -0.010713495 -0.1872802
000030 15 b6 98 bd 5e 09 3b be 9a 8b 98 3d 62 f6 b8 bc
       -0.074566044 -0.18265292 0.07448502 -0.022578422
000040 cd 00 2e 3d af c9 81 3d f6 f4 95 3d 23 1b 46 bd
       0.042481232 0.06337296 0.07322113 -0.048365723
000050 32 bd 31 bc ae 69 8e 3c c1 e7 de bd 5d 4e 07 3c
       -0.01084833 0.017384376 -0.10884047 0.008258429
000060 1e 26 bb bd 9b f7 cb bc 02 00 01 3d 1c c4 fe 3d
       -0.0913813 -0.02489834 0.031494148 0.12439749
000070 e9 9b 05 3e 41 11 3e 3e ab 41 25 3e 04 d5 d6 3c
       0.13047756 0.1856127 0.16138332 0.02622462
000080 43 5d ba bd da 6d b6 bd 20 fb d0 bb ed 52 f7 bd
       -0.090998195 -0.08907671 -0.0063775927 -0.12076364
000090 ab 0c 2d be 03 a5 35 bd 61 9f 25 be 7b 97 0c 3e
       -0.16899364 -0.04434682 -0.1617408 0.1372966
0000a0 c4 61 d6 3c 33 f0 f7 3d c2 9e 9f bc bb e2 40 bd
       0.026169665 0.12106361 -0.019484881 -0.047091227
0000b0 8c 31 11 3d b4 55 8c 3d 96 a7 88 3d 50 d1 3c be
       0.035447642 0.06852284 0.066725895 -0.18439221
0000c0 9b 48 67 bc d9 40 e9 bd 32 8d 5a 3d 53 06 e7 bd
       -0.014116432 -0.11389322 0.05335731 -0.11280503
0000d0 29 54 17 3d f5 17 08 be 3c d5 20 3e ba d9 36 3e
       0.036945496 -0.13290389 0.15706342 0.17856494
0000e0 30 7a 6f bd 7c cf 3a 3d 4d f7 07 3e c3 e2 11 bb
       -0.058466136 0.04560803 0.13277932 -0.0022260405
0000f0 e5 f5 3a be a8 ef 48 bd d9 27 01 3e a7 db 38 3e
       -0.18257864 -0.04905668 0.12612857 0.1805254

encoder.1.weight f4 [64]
000000 33 e3 7f 3f d6 fc 7f 3f 16 0b 80 3f a3 0d 80 3f
       0.99956053 0.9999517 1.0003383 1.0004162
000010 9a 11 80 3f 35 00 80 3f c1 f1 7f 3f f6 10 80 3f
       1.0005372 1.0000063 0.9997826 1.0005176
000020 7e 17 80 3f 79 0e 80 3f 9c 05 80 3f c6 0c 80 3f
       1.0007169 1.0004417 1.0001712 1.0003898
000030 cd e9 7f 3f 05 dd 7f 3f 5e 03 80 3f 59 11 80 3f
       0.99966127 0.99946624 1.0001028 1.0005294
000040 e3 10 80 3f 07 c9 7f 3f 64 ca 7f 3f d6 c4 7f 3f
       1.0005153 0.9991612 0.999182 0.9990972
000050 02 1c 80 3f b2 cd 7f 3f 93 e4 7f 3f 23 11 80 3f
       1.0008547 0.9992324 0.9995815 1.000523
000060 6d ff 7f 3f 0a fa 7f 3f e7 13 80 3f 36 ca 7f 3f
       0.99999124 0.99990904 1.0006074 0.99917924
000070 f0 d9 7f 3f 70 ed 7f 3f 38 12 80 3f 53 ea 7f 3f
       0.9994192 0.99971676 1.000556 0.99966925
000080 6c 12 80 3f 73 db 7f 3f b0 e8 7f 3f 92 c1 7f 3f
       1.0005622 0.9994423 0.9996443 0.9990474
000090 9c e5 7f 3f 4d 1d 80 3f 26 c1 7f 3f a1 ce 7f 3f
       0.9995973 1.0008942 0.99904096 0.99924666
0000a0 d8 15 80 3f 61 d9 7f 3f aa 11 80 3f bc 07 80 3f
       1.0006666 0.9994107 1.0005391 1.000236
0000b0 83 07 80 3f 3d e6 7f 3f 7a f6 7f 3f 95 c7 7f 3f
       1.0002292 0.9996069 0.9998547 0.99913913
0000c0 f8 e3 7f 3f f8 0b 80 3f 2c f0 7f 3f d0 eb 7f 3f
       0.9995723 1.0003653 0.9997585 0.99969196
0000d0 c3 e1 7f 3f 81 1d 80 3f 70 cd 7f 3f 5e 14 80 3f
       0.9995386 1.0009004 0.9992285 1.0006216
0000e0 9c 17 80 3f 2c 0b 80 3f d2 04 80 3f d4 11 80 3f
       1.0007205 1.0003409 1.0001471 1.0005441
0000f0 5f c9 7f 3f b7 dd 7f 3f a7 0c 80 3f a2 01 80 3f
       0.9991664 0.99947685 1.0003861 1.0000498

encoder.1.bias f4 [64]
000000 a0 f4 d6 38 9b 0a 9b b9 20 ee ac b9 c2 4a 81 b9
       0.0001024988 -0.00029571805 -0.00032983813 -0.00024660496
000010 be 60 3c ba 7d f7 1c 3a ac e9 5b 39 3c e2 84 39
       -0.00071860466 0.00059878064 0.00020972517 0.0002534556
000020 65 0b 09 3a 73 1e 6e 3a 10 af ba b9 16 e4 ec 39
       0.0005227833 0.0009083517 -0.00035607116 0.00045183365
000030 59 19 cb b9 04 cd cd 39 d5 7a be b8 e0 4f 94 39
       -0.00038738063 0.00039253396 -9.082785e-05 0.0002828827
000040 a5 be ac 39 a3 d5 31 ba 7d 9a 69 b9 0d 42 29 ba
       0.00032948438 -0.00067838485 -0.00022278163 -0.0006456681
000050 03 a7 80 b9 1c af 57 ba ed dd a5 39 34 ff cd b6
       -0.00024538496 -0.00082276925 0.000316366 -6.1391856e-06
000060 31 42 b7 39 bb 5d 09 b9 67 23 01 39 63 46 a6 b9
       0.00034953796 -0.00013100255 0.00012315587 -0.0003171443
000070 2a 63 3b 38 9d 9a cd b9 7c f1 6c b7 e4 6d 9e b9
       4.4676628e-05 -0.00039215843 -1.4122921e-05 -0.00030217983
000080 73 51 74 39 fc c8 fe b9 c1 a3 cd 39 09 13 c6 b9
       0.00023299996 -0.000485964 0.00039222653 -0.00037779685
000090 7a f4 1d ba f1 bd 56 3a 1e ef 19 3a 9b a8 2d ba
       -0.00060255046 0.00081917556 0.0005872118 -0.00066245504
0000a0 5e 6f 07 3a 12 54 b4 38 86 0a 9a 38 f4 7f 32 b9
       0.00051664363 8.598728e-05 7.3452524e-05 -0.00017023069
0000b0 59 2e 48 b9 8c 69 46 ba ef aa b6 b8 19 4b 39 3a
       -0.00019090752 -0.00075688283 -8.710275e-05 0.00070683804
0000c0 16 51 3d 39 80 96 07 ba d2 9c 7f b8 bb bb cb b8
       0.00018054651 -0.00051722676 -6.0942788e-05 -9.714762e-05
0000d0 35 55 7c b8 99 9a 84 b9 ef a6 70 ba 61 35 dc b8
       -6.0160837e-05 -0.00025292186 -0.00091801485 -0.0001050036
0000e0 24 17 d9 39 e8 5d 27 b9 73 b9 9a b9 39 da b2 b8
       0.00041406706 -0.00015961344 -0.0002951134 -8.5283486e-05
0000f0 03 36 c5 b8 4e 85 58 ba 53 3a 81 39 33 f9 84 ba
       -9.4037525e-05 -0.000825961 0.00024648252 -0.0010145068

encoder.1.running_mean f4 [64]
000000 e7 4a 90 be f1 f5 0b bd 49 1e 07 3d 27 d4 16 3e
       -0.28182146 -0.034170095 0.032987867 0.14729367
000010 27 39 54 be 1a ae 1c 3e 1c 38 5c 3e 19 08 39 be
       -0.20724927 0.1530079 0.21505779 -0.18069495
000020 03 30 c0 be dd 9a ac 3e 79 99 68 bd a6 97 33 3e
       -0.3753663 0.337119 -0.056786988 0.17538318
000030 4b 66 3d be 9d 9c 9b be 63 b7 2e 3e 23 be 14 be
       -0.18496053 -0.30392924 0.17062144 -0.14525656
000040 fc 4a 2b 3e 34 1e 45 3d 94 71 da 3d 9d 0c 86 bd
       0.16727823 0.048124507 0.106661946 -0.065453745
000050 45 a1 a1 bd dd 09 16 3d 99 b9 9c bd 04 ae ae bb
       -0.07892088 0.0366305 -0.076525874 -0.005330803
000060 dc 00 86 be ad 2e 83 be 80 a3 e2 3c 60 23 93 3e
       -0.2617253 -0.25621548 0.027665854 0.28737926
000070 5f 5a 62 3e fc 9c 09 3f b4 6c 9e bc 0a 6d 26 3e
       0.22104786 0.53755164 -0.019338943 0.16252533
000080 4e ef 2c be 0e b1 2e 3d 6a 54 37 3e 74 61 b3 be
       -0.16888162 0.04264932 0.17903295 -0.35035288
000090 7b 91 4b be c2 48 11 3c d0 d2 26 be cf cc 98 3e
       -0.19879715 0.0088674445 -0.16291356 0.29843757
0000a0 ea ce 07 bd 8b 6e 27 3e f1 b2 4b 3e 28 72 c5 3c
       -0.033156313 0.16350763 0.1989248 0.024102286
0000b0 e7 62 72 3d 35 5e c2 3e 33 90 99 bc 1c ae 7b 3d
       0.059176352 0.379625 -0.018745517 0.06144534
0000c0 c0 9a 9b 3d 42 6b 62 be 35 ee 64 3e c3 fa 25 3e
       0.075978756 -0.22111228 0.22356494 0.16208939
0000d0 ec db 87 3e c4 e2 2e be 33 c4 88 3d 56 9a bc 3c
       0.26534975 -0.17078692 0.06678047 0.023022812
0000e0 7c a3 3b 3e 0f 08 eb bd b0 cd 00 bd 50 62 87 3d
       0.18324083 -0.114761464 -0.03144616 0.066105485
0000f0 93 da 66 bd e3 dc c9 ba 0c 7c 08 bc 63 63 4a 3e
       -0.056360792 -0.0015400912 -0.008330356 0.19764476

encoder.1.running_var f4 [64]
000000 d2 4f a1 3e d4 b3 6b 3e 99 76 00 3e 37 b5 2b 3d
       0.3150621 0.23017818 0.12545241 0.041920867
000010 43 76 5f 3e cd e3 c9 3e cb ff 08 3f 7c b3 ea 3d
       0.21822457 0.3943161 0.5351531 0.11460015
000020 a2 e4 9c 3f c0 5f 45 3f dc 74 41 3e 74 83 d8 3f
       1.2257273 0.7709923 0.18892235 1.6915116
000030 4e ea 24 3e 0f 42 c6 3e 59 95 09 3e e5 91 47 3e
       0.16105005 0.38722274 0.13435878 0.19489248
000040 63 50 b0 3e c8 84 5a 3d b6 03 bc 3c d7 7a 4a 3e
       0.3443633 0.053349286 0.022950988 0.19773422
000050 2a df 27 3e 05 50 8a 3d 7b ae 93 3e 46 da f8 3d
       0.16393724 0.06753544 0.28844056 0.12151007
000060 e4 bb d8 3e 8a 56 5d 3f 92 c0 da 3d cb 3c a3 3e
       0.4233085 0.86460173 0.10681261 0.3188232
000070 2b f1 d6 3d 27 35 ac 3f 9d 8d b3 3e c0 55 53 3e
       0.10495218 1.3453721 0.3506898 0.2063818
000080 02 e8 20 3e 31 93 ad 3e 29 b1 a1 3e 53 25 62 3f
       0.15713504 0.3390136 0.31580475 0.883382
000090 1b 5d 14 3d a0 1a e0 3d 62 75 01 3e 1e af 84 3e
       0.036221605 0.10942578 0.12642434 0.25914854
0000a0 65 e2 e0 3d c2 e4 10 3e 3b 3b 0d 3f 98 4a a3 3d
       0.10980681 0.14149764 0.55168504 0.07973212
0000b0 29 ca c0 3c d1 05 a9 3f 4c 1a 06 3e 1a 1b 4d 3f
       0.023533897 1.32049 0.13095969 0.8011948
0000c0 01 bb 9a 3e 16 d6 62 3e af 0d be 3e f6 44 86 3f
       0.30220798 0.2215198 0.37119815 1.0489795
0000d0 a7 7d 2a 3f ab c4 44 3d af 78 01 3e d2 12 c4 3e
       0.6659798 0.04803912 0.12643693 0.3829561
0000e0 b2 e9 12 3f 91 35 a4 3e d7 b1 84 3e a8 60 83 3e
       0.5738784 0.32072118 0.2591693 0.2565968
0000f0 70 11 8b 3e 32 6a e0 3d d9 c7 77 3e 28 5a 82 3e
       0.2716174 0.10957755 0.2419733 0.2545941

encoder.4.weight f4 [128, 64, 3, 3]
000000 eb 96 25 bd 97 71 d4 b9 0b 06 fa bc 87 4c c4 bc
       -0.04042713 -0.00040520422 -0.03052046 -0.023962272
000010 dc 54 2f 3b 97 87 1b bd e0 f6 dc 3c 4a d9 ad ba
       0.002675346 -0.037971105 0.026973188 -0.001326361
000020 4a de b2 bc 02 ad c8 3c b9 b3 12 bd 34 20 5e bc
       -0.021834511 0.024496559 -0.035815928 -0.0135574825
000030 a5 34 a8 3c aa d6 02 bd 89 52 27 3d 95 93 cf 3c
       0.020532915 -0.031943 0.040850196 0.025338927
000040 29 62 2c 3d f2 d5 13 bc 05 9c 79 3c ca 0f 29 3d
       0.0420858 -0.0090231765 0.015234952 0.041274823
000050 66 71 34 ba 87 02 69 3c 17 cc 2a 3d 0f 3a 0f 3d
       -0.0006883353 0.014221794 0.04169854 0.03496748
000060 b1 22 00 3d 26 1c f9 ba 57 96 84 bb fe 64 c4 3c
       0.031283084 -0.0019005581 -0.004046242 0.023973938
000070 58 40 02 bd e7 53 a3 3c a7 5b 42 bb 9b 4d 19 3d
       -0.031799644 0.019937469 -0.002965668 0.037427526
000080 85 d0 24 3d d1 e3 03 bd 1f 90 18 3d a6 22 19 3d
       0.040237922 -0.032199685 0.03724682 0.03738656
000090 d1 5a 42 3c 55 e4 77 bc ad ca cd 3c f3 b3 d7 bc
       0.011862473 -0.015130122 0.025121057 -0.026330924
0000a0 9b ea 30 bc d2 74 a2 3c 84 ab 11 bd 65 de 41 3c
       -0.010798122 0.019831095 -0.03556396 0.011832808
0000b0 96 80 a9 3c dc 86 08 3b 5c b7 02 3d e4 66 b1 bc
       0.020691197 0.0020832336 0.031913146 -0.021655507
0000c0 dd fe 81 3b b0 99 f6 bb e9 18 a1 bc 53 03 7c bc
       0.0039671496 -0.007525645 -0.019665198 -0.015381652
0000d0 3d f0 76 bc 89 5a fd 3c d0 94 1e bd 10 87 b8 ba
       -0.015071926 0.03092696 -0.038716137 -0.0014078338
0000e0 2d ff 53 3c 68 a8 02 3d 4f c1 7c 3c ee 83 e8 3c
       0.012939257 0.031898886 0.015426948 0.028383221
0000f0 4b b5 54 3c b3 71 dc bc a9 62 08 bd bd 60 1a 3d
       0.012982677 -0.026909685 -0.033297215 0.037689913
000100 17 fd ab 3c 88 d0 20 3d f6 bd 0c bd eb 16 87 bc
       0.020994706 0.03926137 -0.03436085 -0.01649042
000110 0d bd 04 3d 54 d6 98 bc a6 61 29 bc 6f d5 22 3d
       0.032406855 -0.018656887 -0.010338223 0.039754327
000120 c2 52 bb 3c e4 73 70 3c 75 ef 23 bd 42 1a 11 3d
       0.02286661 0.014676068 -0.040023286 0.035425432
000130 0e f2 3a 3b 80 22 26 3d f0 aa ce 3c c8 57 39 bb
       0.0028525623 0.040560246 0.025227994 -0.0028281081
000140 4f b6 94 3c ee 4e 88 bc d7 1b b5 3c 7c 02 33 bc
       0.018153338 -0.0166392 0.022108002 -0.010925885
000150 3c 8f 42 3c d4 92 a8 3c 8a 04 a8 bc c8 e4 fe 3b
       0.01187497 0.020577826 -0.020509977 0.0077787377
000160 e6 00 f9 ba 15 cc aa bc 87 d0 ae 3c c7 36 0b 3d
       -0.001899746 -0.020849267 0.021339668 0.033987787
000170 24 04 08 bc 4e 24 86 3c 5d 69 17 3c 35 55 a0 bc
       -0.008301768 0.016374733 0.009241429 -0.01957188
000180 90 54 df 3a b7 49 aa bc a0 02 0e bc b6 3c ac bb
       0.0017038751 -0.020787103 -0.008667618 -0.0052562607
000190 39 05 61 3c 45 74 5b bc 92 ec 12 3c 92 0c 5d 3c
       0.013734155 -0.01339442 0.008967536 0.0134917665
0001a0 43 1d 32 3c 49 4c 79 3c 5d 9d 03 3c 97 df 84 bc
       0.010871234 0.015215942 0.008033124 -0.016219897
0001b0 ec f6 37 3c 4e ae 0c 3b fc 56 5f 3c 67 06 69 bb
       0.011228304 0.0021466198 0.013631579 -0.0035556795
0001c0 3d de 72 3c 4b 8c 52 bc 6a 2f 22 3d 81 eb a9 bc
       0.014823494 -0.012850831 0.039596 -0.02074218
0001d0 bd af 14 3d bf f7 8f 3c 16 1b c0 3c 3c 01 fc 3b
       0.03630041 0.01757419 0.023450416 0.007690577
0001e0 8c cb dd 3c 3d 51 c2 3c 72 45 9d 3c f3 56 97 3c
       0.027074598 0.023720378 0.019198153 0.018474078
0001f0 29 bf 23 bc c5 e1 84 ba 16 77 04 bd 47 30 b0 bc
       -0.009994307 -0.0010138085 -0.03234013 -0.021507395
000200 d8 f9 0f 3d 69 28 93 bc ae 70 cb 3c ca 2b 05 bc
       0.03515038 -0.017963605 0.024834003 -0.008128116
000210 87 27 15 bd 4a bc 11 3c 83 89 7b bb 7b ed 50 bc
       -0.03641465 0.008894989 -0.0038381524 -0.012751932
000220 0a 78 12 3d e8 95 c7 bc 0c dd 0c bd 68 30 1c bd
       0.03575901 -0.024363473 -0.034390494 -0.0381321
000230 bf 68 b1 3c 68 ca 79 3c c4 6b c8 3c 5e de d9 bc
       0.021656392 0.015246011 0.02446545 -0.02659529
000240 5e 04 f2 3c b7 6a 52 bc f9 26 e7 bc e3 9f 80 3a
       0.029543098 -0.012842826 -0.028216826 0.0009813275
000250 0c 2d fb bc 3e 1a 0b 3d 6e d1 7e 3b 17 5c 55 bc
       -0.030661128 0.033960573 0.0038882154 -0.013022444
000260 be ee 17 bc b7 94 3d bc 26 22 84 bc a3 27 a3 3c
       -0.009273229 -0.011571101 -0.016129564 0.019916361
000270 2b 1f b4 b9 60 48 4a bc d5 6e 74 3b 0a ab a7 bc
       -0.00034355497 -0.012346357 0.0037297506 -0.0204673
000280 3d f6 f4 bc 58 38 0f 3b 89 8e 29 bc 61 b4 d2 3b
       -0.029902572 0.0021853652 -0.010348924 0.0064301942
000290 bd e7 91 3b 89 33 44 3c ca c7 a4 3c f7 0b 84 3a
       0.004452674 0.011975178 0.020114798 0.0010074367
0002a0 64 9b a0 ba f6 0b 38 3c 75 d8 16 bd 73 d1 de 3b
       -0.0012253341 0.01123332 -0.036827523 0.0067998706
0002b0 ad 3d 14 3d b2 ee f0 3c d5 98 50 3c 85 d7 fc 3c
       0.03619163 0.029410694 0.0127317505 0.030864486
0002c0 6b e4 34 bc 08 14 8f 3c ff 31 f0 bc 4f 8d 20 bd
       -0.011040787 0.017465606 -0.029320715 -0.039197262
0002d0 76 3b 10 3d 09 9f 88 3c 51 fc a9 bc 35 a0 76 3b
       0.035212956 0.016677396 -0.020750197 0.0037632112
0002e0 8b bc 20 bc d5 6b 25 bd a7 bb 93 3c 2b e7 62 bb
       -0.009810577 -0.04038604 0.018033816 -0.003462265
0002f0 3e 6d e5 3c 8e 92 bf bc 72 50 12 bd 42 88 15 bd
       0.028006192 -0.023385312 -0.03572125 -0.0365069
000300 e5 d2 17 bc b2 81 1e bd 43 1d 1a 3d 15 61 10 3d
       -0.00926659 -0.038697906 0.037625562 0.035248835
000310 1b 8b ce 3b 9b 4b d6 3c 70 6e ca bc 8d 9a 0b bd
       0.0063032038 0.026159098 -0.024710864 -0.034082938
000320 5b f5 83 3c 61 5d 08 3d fa 25 a4 3b 6d 54 02 3d
       0.016108206 0.033292178 0.00500941 0.031818796
000330 20 75 0a 3d b7 4d 18 bd 8d 4d 7f 3c 5a 25 db bc
       0.033803105 -0.03718349 0.015582454 -0.026751209
000340 f0 81 09 bb ac 9c 04 3d 38 e0 a9 bb ce 1f 94 bb
       -0.002098199 0.032375976 -0.0051841997 -0.004520393
000350 c4 95 ab bc 4d 7a d3 ba f2 39 b9 3c 6f 4e 15 bd
       -0.020945437 -0.0016134471 0.022610638 -0.036451753
000360 13 bb dc 3c 7e fb 7e 3c 63 3d de ba d6 e3 59 ba
       0.026944673 0.01556289 -0.001695555 -0.0008311843
000370 4a e2 55 3c 44 bf 0f 3d 86 73 0e bd 48 1a f3 bc
       0.01305444 0.035094514 -0.03477814 -0.029675618
000380 22 5f 12 3a 81 e8 e7 3c e2 74 26 bd 17 57 ca bc
       0.0005583634 0.028309109 -0.040638812 -0.02469973
000390 18 77 04 3d 60 4c c4 3c 9a 63 8b bc 89 05 d4 3c
       0.03234014 0.0239622 -0.017015267 0.025881546
0003a0 d6 f8 22 3c e1 f7 25 bd fa 91 ab 3c 69 fb b9 bc
       0.009947022 -0.0405196 0.02094363 -0.02270289
0003b0 e7 b3 09 3d c4 ca 60 bc 51 bd 20 3d 0e 2f 61 3c
       0.033618834 -0.013720218 0.039243046 0.013744129
0003c0 af e1 fe b9 d0 0f ae bc 9e c5 0e 3d c3 98 27 3d
       -0.00048614803 -0.021247774 0.03485643 0.04091717
0003d0 b0 8b 0f 3d 6f 4f 1b 3d 2d e0 12 bd 0d b2 3e 3c
       0.035045326 0.03791755 -0.035858322 0.01163913
0003e0 f3 3a 26 3d 9b ea 01 3d 92 86 93 bc e2 7d f1 bc
       0.040583562 0.031717878 -0.018008504 -0.02947897
0003f0 b1 fd c8 bc 72 77 a4 bc 87 75 b6 3a 19 ab 1d 3d
       -0.024535032 -0.020076487 0.0013920524 0.03849325

encoder.4.bias f4 [128]
000000 ac e6 d6 bc 21 51 52 bc a5 7f 28 3d 1a c8 4f bc
       -0.02623304 -0.012836725 0.041137356 -0.012681985
000010 8c af 90 3c f1 ed f1 bc 43 f8 00 bd 65 ac c3 3c
       0.017661832 -0.029532405 -0.03148676 0.023885915
000020 b8 cf 01 bd 23 65 d9 3c 79 f8 f8 bc d9 1d 57 3c
       -0.031692237 0.026537484 -0.030391918 0.013129675
000030 73 9e 80 bc 7d 34 0f bd 8f f6 a9 3c 5e 62 8c 3c
       -0.015700554 -0.034962166 0.020747451 0.017136749
000040 f9 c0 db bc c4 21 f6 bc 44 4b b0 3c 07 17 c7 3c
       -0.026825415 -0.030045398 0.021520264 0.024302972
000050 bf 75 a4 3b 1b ac bf 3c 6b 99 53 3c c1 c3 d4 b9
       0.0050189192 0.023397496 0.012914996 -0.0004058164
000060 a1 af 95 bc 3c 1b 23 3d ff cf a3 3b 99 8f 11 bc
       -0.018272223 0.039820895 0.0049991603 -0.008884334
000070 40 c7 8e 3c 70 57 5c 3c 19 70 20 3d 39 cc ee 3c
       0.017428994 0.013448581 0.039169405 0.029150115
000080 67 f2 f3 3c e3 5c 7a 3b 03 1c ae 3c 36 f1 24 3d
       0.029778672 0.0038202337 0.021253591 0.0402691
000090 3e 7b 16 bc 37 37 23 3d d7 33 26 3c 7f 0d a9 bc
       -0.009184657 0.03984758 0.0101441955 -0.020636318
0000a0 2b 47 1f 3d 07 24 a1 3c 81 20 a0 bc aa d0 af bb
       0.03888623 0.0196705 -0.01954675 -0.005365451
0000b0 67 03 2a 3d eb ab cc 3b 12 0b 0a 3d 9f be 38 3b
       0.04150715 0.00624608 0.033701964 0.002818979
0000c0 5a 7a f9 bc e9 29 15 3d 92 e7 47 3c 6a 26 22 bc
       -0.03045385 0.03641692 0.012201207 -0.009896854
0000d0 79 f9 bd bc 0b de 04 bc 54 01 65 bc fc f6 0e bc
       -0.023190247 -0.00810958 -0.013977367 -0.008725878
0000e0 54 c6 c3 bc a6 26 eb bc 43 4b 17 3c 5a e9 0d 3a
       -0.023898281 -0.028704952 0.009234252 0.0005413495
0000f0 ae 50 28 3d a7 ea 8b 3b c0 76 bf bc 31 ec 07 bd
       0.041092567 0.004269916 -0.023372054 -0.033184234
000100 37 84 1b bd 82 74 1c 3d 97 04 18 3d 16 ae 8d 3c
       -0.037967887 0.038197048 0.037113752 0.017294925
000110 54 2c 20 3d 23 77 a7 bc e1 70 68 bc 22 32 8d bc
       0.039104775 -0.020442551 -0.014187069 -0.01723582
000120 f6 66 99 3c cb ed 01 3c 53 f6 99 bc 4f 7d 62 bc
       0.018725853 0.007930229 -0.018794214 -0.013823821
000130 f7 13 d9 bc 83 cf 25 3d a5 57 cc 3c 3c e6 03 bc
       -0.026498778 0.0404811 0.024944136 -0.008050498
000140 4e 84 1f 3b c8 56 c5 bc e5 7b fe bc 4e e7 ef 3c
       0.0024340334 -0.024089232 -0.031064937 0.0292851
000150 66 c9 50 3c 62 50 b1 3c cd f0 07 bc 59 8d be bc
       0.01274333 0.021644775 -0.0082971575 -0.02326076
000160 f2 be 94 3c 42 7b 0a bd 55 1f 05 bd 00 91 c2 3c
       0.018157456 -0.033808954 -0.032500584 0.023750782
000170 a0 99 12 3d 77 3d 17 bc 79 af 65 bc ce c7 9c bc
       0.03579104 -0.009230963 -0.014018887 -0.019138243
000180 02 81 28 3d 01 c8 64 bb d9 e7 28 3d b9 9e 3c bb
       0.041138656 -0.003490925 0.041236732 -0.002878113
000190 8f 9d 30 3a 36 28 d7 bc b9 3c 0e 3d 55 68 06 3d
       0.0006737345 -0.026264291 0.03472588 0.032814343
0001a0 d2 2d fe bc b0 fc f3 3c b2 49 1c bb d8 ab ec bb
       -0.031027708 0.029783577 -0.0023847637 -0.007222634
0001b0 fc 53 ec 3c 00 95 0a 3c 01 9c 25 3d ff bb 6d bc
       0.02884864 0.008458376 0.04043198 -0.014510154
0001c0 da 29 2c 3c cb 8c 24 3c e8 d2 0e 3d e2 31 c5 bc
       0.010508025 0.010043333 0.034869105 -0.024071638
0001d0 96 be b2 bc 53 64 a2 bc 7a 7c 22 3d 95 20 92 bc
       -0.021819394 -0.019823229 0.03966949 -0.017837802
0001e0 6a 8c 63 3c d9 6a e1 bb cb 48 a6 3c eb ca bb 3c
       0.013888458 -0.0068791923 0.020298382 0.022923907
0001f0 5c 79 e1 3c 0b c8 c2 bb ac b4 2a bd 39 94 e0 bc
       0.027523689 -0.005944257 -0.04167621 -0.027414428

encoder.5.weight f4 [128]
000000 c4 e7 7f 3f f6 f1 7f 3f e6 e0 7f 3f c5 08 80 3f
       0.9996302 0.9997858 0.9995254 1.0002676
000010 c2 e9 7f 3f cf 18 80 3f 30 1d 80 3f c1 11 80 3f
       0.9996606 1.0007571 1.0008907 1.0005418
000020 f8 13 80 3f b9 c6 7f 3f 93 d6 7f 3f af e9 7f 3f
       1.0006094 0.999126 0.9993679 0.9996595
000030 cd e6 7f 3f 10 12 80 3f 38 1c 80 3f e4 15 80 3f
       0.9996155 1.0005512 1.0008612 1.000668
000040 ef de 7f 3f d0 f7 7f 3f 28 bf 7f 3f 4a 1b 80 3f
       0.99949545 0.99987507 0.99901056 1.0008328
000050 f2 13 80 3f 31 f2 7f 3f 49 16 80 3f 04 02 80 3f
       1.0006087 0.9997893 1.0006801 1.0000615
000060 e5 fc 7f 3f 64 10 80 3f 7b 05 80 3f 91 16 80 3f
       0.9999526 1.0005002 1.0001673 1.0006887
000070 1e 10 80 3f ce 0d 80 3f 56 fe 7f 3f 44 10 80 3f
       1.0004919 1.0004213 0.9999746 1.0004964
000080 37 0e 80 3f 24 19 80 3f ca fd 7f 3f 7b 12 80 3f
       1.0004338 1.0007672 0.99996626 1.000564
000090 28 ea 7f 3f 38 d0 7f 3f 08 02 80 3f 04 c0 7f 3f
       0.9996667 0.9992709 1.000062 0.9990237
0000a0 21 c8 7f 3f 2a fe 7f 3f 00 e9 7f 3f a1 e1 7f 3f
       0.9991475 0.999972 0.99964905 0.9995366
0000b0 6c d9 7f 3f 68 f6 7f 3f a7 c0 7f 3f c3 d5 7f 3f
       0.99941134 0.9998536 0.9990334 0.9993555
0000c0 1f 11 80 3f f0 0e 80 3f 6a 1e 80 3f b3 fa 7f 3f
       1.0005225 1.0004559 1.0009282 0.9999191
0000d0 0a 1c 80 3f a0 11 80 3f e4 d7 7f 3f ab e5 7f 3f
       1.0008557 1.0005379 0.999388 0.9995982
0000e0 3e fe 7f 3f bf 08 80 3f 78 13 80 3f 86 00 80 3f
       0.9999732 1.0002669 1.0005941 1.000016
0000f0 15 c7 7f 3f 96 ea 7f 3f 81 c2 7f 3f 45 0b 80 3f
       0.9991315 0.99967325 0.99906164 1.0003439
000100 9e ed 7f 3f f0 d2 7f 3f 03 cc 7f 3f 14 de 7f 3f
       0.9997195 0.9993124 0.9992067 0.9994824
000110 cf 01 80 3f 6d 00 80 3f 3c f7 7f 3f b1 d6 7f 3f
       1.0000552 1.000013 0.99986625 0.9993697
000120 f3 0d 80 3f a1 d0 7f 3f 3b 17 80 3f cb 10 80 3f
       1.0004257 0.9992772 1.0007089 1.0005125
000130 2a d5 7f 3f e5 1c 80 3f 5b f5 7f 3f bb 0e 80 3f
       0.9993464 1.0008818 0.9998376 1.0004495
000140 70 c6 7f 3f c3 15 80 3f a9 de 7f 3f a8 dd 7f 3f
       0.99912167 1.0006641 0.9994913 0.99947596
000150 42 08 80 3f 99 d3 7f 3f a9 07 80 3f e3 0a 80 3f
       1.000252 0.9993225 1.0002338 1.0003322
000160 8c e5 7f 3f 35 10 80 3f 32 ca 7f 3f 57 06 80 3f
       0.99959636 1.0004946 0.999179 1.0001935
000170 3b e7 7f 3f ef f4 7f 3f 23 e8 7f 3f 85 ca 7f 3f
       0.99962205 0.99983114 0.9996359 0.99918395
000180 32 e2 7f 3f 2c e4 7f 3f 49 f6 7f 3f 53 0b 80 3f
       0.9995452 0.9995754 0.99985176 1.0003456
000190 ef e9 7f 3f c7 06 80 3f c9 df 7f 3f 36 1a 80 3f
       0.9996633 1.0002068 0.99950844 1.0007999
0001a0 7a df 7f 3f 46 d1 7f 3f 6c c2 7f 3f 35 df 7f 3f
       0.99950373 0.999287 0.9990604 0.9994996
0001b0 b4 06 80 3f 3b 19 80 3f 84 1c 80 3f 2d 0a 80 3f
       1.0002046 1.00077 1.0008702 1.0003105
0001c0 22 05 80 3f dc 18 80 3f 81 e9 7f 3f 5a 20 80 3f
       1.0001566 1.0007586 0.99965674 1.0009873
0001d0 5d 05 80 3f ca 0e 80 3f 2a 13 80 3f 85 ca 7f 3f
       1.0001637 1.0004513 1.0005848 0.99918395
0001e0 17 d4 7f 3f 29 f9 7f 3f f5 06 80 3f ca 0b 80 3f
       0.99933 0.99989563 1.0002123 1.0003598
0001f0 6d 05 80 3f 28 09 80 3f 46 c1 7f 3f d2 08 80 3f
       1.0001656 1.0002794 0.99904287 1.0002692

encoder.5.bias f4 [128]
000000 2a fe 0e ba 0c 02 d4 38 fd 23 c3 b9 81 bf 3f b9
       -0.00054547435 0.00010109329 -0.00037220112 -0.0001828652
000010 15 6c 9f b8 3e 2e 7a 39 72 79 15 3a 4b 81 d9 39
       -7.601843e-05 0.00023859084 0.00057019957 0.00041485796
000020 41 17 e7 b9 b0 b0 b1 b9 4b c3 f7 b9 ef 4a 17 ba
       -0.0004407708 -0.00033891713 -0.00047257016 -0.0005771359
000030 4d 3c bd 37 23 c6 55 39 62 de 57 3a ff 81 0e 39
       2.2558635e-05 0.00020387075 0.0008234737 0.00013590603
000040 91 53 4c ba 77 a9 5e 39 c6 43 ab 39 9f be 08 39
       -0.0007794435 0.000212347 0.00032666157 0.00013040983
000050 2b 40 32 3a 10 e8 d2 38 33 ed cd b9 77 12 24 39
       0.0006799723 0.00010056805 -0.00039277374 0.00015647137
000060 e0 b3 87 b8 82 c6 07 3a f2 08 f3 39 33 7f 72 39
       -6.470806e-05 0.0005179421 0.00046355237 0.00023126304
000070 d3 0a 4f 3a 9b 94 94 39 ed 94 32 b9 ee d3 ad 38
       0.0007898036 0.0002833948 -0.00017030882 8.288758e-05
000080 ee 38 09 3a 6f f0 44 38 26 2f 44 ba 73 cd ff 39
       0.00052346184 4.6953963e-05 -0.00074838323 0.00048790462
000090 66 bf b3 37 7c 08 00 38 9f 3d 6e 38 06 04 5f ba
       2.142759e-05 3.052548e-05 5.680101e-05 -0.00085073744
0000a0 01 c0 6f ba 1e c8 30 ba 06 ce 1f ba 0d df ce b9
       -0.0009145737 -0.0006743687 -0.00060960685 -0.00039457568
0000b0 97 de 02 ba 40 56 41 b9 5b 2c 7d ba c3 78 4e ba
       -0.0004992275 -0.00018438045 -0.00096577936 -0.0007876271
0000c0 6c 30 1f 3a 6e 56 79 b8 dd 1c 2e 3a 30 bd a1 b9
       0.0006072584 -5.944672e-05 0.0006641874 -0.0003084927
0000d0 12 9e a0 b9 2e 08 28 3a 0e 9a f2 b9 97 3b 5f ba
       -0.0003063535 0.000640991 -0.00046272617 -0.00085156545
0000e0 fc 99 6f ba ed 9e e1 39 83 9b 40 3a c8 88 83 39
       -0.0009140072 0.00043033753 0.0007347392 0.00025088177
0000f0 9f 53 34 ba df fd 2d 3a 9c cf 27 38 01 62 a0 b7
       -0.00068789156 0.0006637256 4.0009254e-05 -1.9119123e-05
000100 4c d7 1d ba 4c c1 40 ba 3a 96 54 ba fa e8 01 3a
       -0.00060211564 -0.0007353022 -0.00081095437 0.00049556757
000110 84 64 67 3a 4a 61 ee 38 0c e5 27 3a 14 22 08 ba
       0.00088269287 0.00011366846 0.0006404675 -0.00051930663
000120 1e ab ac b8 c8 06 53 ba 86 3b 5a 3a c6 11 18 ba
       -8.233472e-05 -0.0008050022 0.000832491 -0.00058009883
000130 f4 0d 18 ba 4d 35 e1 b8 f2 c9 c0 b8 6d b8 4d 36
       -0.0005800419 -0.00010738764 -9.192889e-05 3.065473e-06
000140 dd f6 6d ba 8a 71 0e 3a 53 0d 02 ba 23 d3 34 ba
       -0.0009077618 0.0005433789 -0.0004961092 -0.0006897917
000150 d3 b0 f0 b9 da fd 3e ba 01 57 81 39 82 0b b5 b9
       -0.00045908111 -0.00072857516 0.0002466962 -0.00034531584
000160 65 19 1c ba 39 1c 0e 3a 8d f5 17 ba e1 f7 56 b9
       -0.0005954712 0.00054210756 -0.0005796783 -0.00020500972
000170 0f c6 94 b9 0e a1 72 36 4e 9c 6b b9 c0 c0 da b9
       -0.00028376325 3.6154556e-06 -0.00022469574 -0.0004172381
000180 32 7d 38 ba 17 d8 32 b7 3b bd ec 39 b8 63 a2 b8
       -0.00070376985 -1.0659939e-05 0.00045154415 -7.743336e-05
000190 92 7f 50 b9 d6 91 be b8 cd 99 d8 39 b4 60 23 3a
       -0.0001988395 -9.08707e-05 0.0004131332 0.00062323664
0001a0 be 5b 03 ba 8f 1a af b9 05 13 6d ba 05 a9 39 ba
       -0.0005010924 -0.0003339839 -0.00090436667 -0.0007082376
0001b0 af 22 0b 39 bd 04 c8 39 58 4c 43 3a 02 04 8e b8
       0.00013268994 0.00038150503 0.0007450036 -6.771834e-05
0001c0 49 59 04 3a c6 b8 45 3a 49 16 29 ba 9b f0 51 3a
       0.0005048705 0.0007542487 -0.0006450159 0.00080085703
0001d0 92 5e 3e 38 9e de 52 3a 16 ec be b8 58 37 40 ba
       4.5387605e-05 0.0008044037 -9.1038804e-05 -0.00073324656
0001e0 a6 eb 59 ba ec 55 3a ba 6c 48 c9 39 b7 32 8e b8
       -0.00083130074 -0.000710814 0.00038391666 -6.780534e-05
0001f0 75 d2 de 38 59 4e 8d 39 89 e5 2b b8 7d 24 ad b9
       0.000106249856 0.0002695199 -4.098335e-05 -0.00033024317

encoder.5.running_mean f4 [128]
000000 7c 73 a8 3e 5d d7 e0 be bc 01 74 bc 15 51 1d bd
       0.32900608 -0.4391431 -0.014892992 -0.038407404
000010 11 69 3d be 83 fd ff 3e c8 09 34 bc 19 07 2c 3e
       -0.18497111 0.49998102 -0.01098866 0.16799583
000020 a8 fb 89 3e d6 1c 9c be be 1c 9f be c3 90 26 bf
       0.2694981 -0.3049075 -0.31076616 -0.6506464
000030 b3 82 bb 3e b1 66 55 3e 64 89 da 3e 84 b6 62 3e
       0.36623153 0.20839955 0.42682946 0.22139937
000040 79 ab a1 3e d9 cf e1 3e e5 72 88 3d 8c 07 42 3e
       0.31576136 0.44103888 0.066625394 0.18948191
000050 6c 3a 17 be d2 0c 8b 3e 9f 36 a8 3e e2 ce 74 3c
       -0.1476838 0.2715822 0.32854173 0.014941903
000060 bc 24 96 3d cb f0 a0 3e a1 d2 8e 3d fe 35 0c 3f
       0.07331225 0.3143371 0.06973768 0.54769886
000070 98 0f 5f be 4f d0 14 bd 6b 13 ce 3e 71 7d d2 3c
       -0.21783292 -0.03633147 0.4024919 0.02569458
000080 d4 5b a5 bd 48 e1 e8 3d 55 f4 d7 bd 02 9d 18 3e
       -0.080741554 0.11371094 -0.105446495 0.14903644
000090 5a 39 56 be 1a f2 7b be 40 90 87 be 75 07 15 be
       -0.20920315 -0.24604073 -0.26477242 -0.14553626
0000a0 fd 9a bf 3e ae 74 e0 bd c9 c8 27 3e 59 e4 23 be
       0.37422934 -0.10959755 0.16385187 -0.16005076
0000b0 6b 46 13 3f c8 88 03 3e 58 6e 85 3e 65 ae 59 3e
       0.57529324 0.12845147 0.26060748 0.21257932
0000c0 36 ca e2 be 38 28 2c 3f 08 a1 0e 3f de 02 36 3e
       -0.442949 0.6724887 0.55714464 0.17774531
0000d0 b0 d7 8d bd e7 e1 eb be 6e 27 83 bd de 89 6b 3e
       -0.06925905 -0.46070787 -0.06404005 0.23001811
0000e0 75 d1 85 3e d6 d5 17 bf 03 f0 7e 3d 9a 60 8a 3d
       0.26136366 -0.5931066 0.06224061 0.067567065
0000f0 e1 7d 15 3e 6a 48 08 3f 40 7f ab be 98 bd c7 3e
       0.145988 0.53235495 -0.33495522 0.39011836
000100 5a 25 a9 3e b4 81 69 bd 50 0f 26 3e c4 fc 8f 3d
       0.3303631 -0.05700846 0.16216779 0.07030633
000110 aa 1e 3e bd b6 f6 b2 be 8d b3 9b 3d c9 1b 32 bf
       -0.046415962 -0.3495385 0.07602606 -0.69573647
000120 53 19 8f 3d a1 1c 3c 3e 7e a0 e2 be 8d 88 1d 3f
       0.06987252 0.18370296 -0.4426307 0.61536485
000130 24 3a b2 3d 2e fc 2b 3e af 76 17 be 5e d0 73 3e
       0.08702496 0.16795418 -0.14791368 0.23809955
000140 74 66 95 3d aa d1 85 be e7 73 03 bf 8f d8 df 3e
       0.07294932 -0.26136523 -0.5134873 0.4371991
000150 98 5c 01 be 6b 4a 56 3e 78 fb e2 3d 98 f8 96 3d
       -0.12632978 0.20926826 0.1108312 0.07371634
000160 23 8f 23 3e 91 cb 61 be 7f 52 25 be 91 5c 92 be
       0.15972571 -0.2205031 -0.16144751 -0.28586248
000170 90 6a 8c bd 55 d8 e4 3d f2 a1 ef 3e a9 a1 0d bf
       -0.06856263 0.111740746 0.46803242 -0.553248
000180 1d b1 99 3e 9a 2f 6d 3c 40 d3 e7 3d e6 7f 81 3e
       0.3001794 0.014476681 0.113195896 0.2529289
000190 67 a7 81 bc c5 9a 13 3f 84 37 98 be f9 da 1d be
       -0.015826894 0.57658035 -0.29729855 -0.15415563
0001a0 bf ee 33 3e 29 90 ce bd 49 4c 0a 3e 59 dd e8 be
       0.17571543 -0.1008609 0.13505663 -0.45481375
0001b0 05 d5 82 3e 54 f1 4e 3f e1 1f f3 be 3b be c5 3d
       0.25553146 0.8083699 -0.4748526 0.09655424
0001c0 d8 4a 0f bf fe 38 88 3e 55 cc 68 3e 3f 8b b0 3e
       -0.5597358 0.26605982 0.22734196 0.34481236
0001d0 83 d2 fd bb 13 cf c5 bd c5 5a 8c 3e 6c c9 3e 3d
       -0.007746042 -0.09658637 0.27413002 0.04657881
0001e0 ec 1b 4b 3e 3a 89 2a 3e a4 3c 14 3e 68 5b c4 3e
       0.1983487 0.1665391 0.14476258 0.38350987
0001f0 8a 49 f9 3e fb 39 e5 3e 85 b9 ab be 17 7a 4c 3c
       0.48688918 0.44770798 -0.33539978 0.01248028

encoder.5.running_var f4 [128]
000000 e0 8b bc 3d 23 b3 62 3e b0 ad e3 3d 11 22 c4 3d
       0.092063665 0.22138648 0.11117113 0.0957681
000010 64 be 72 3d 34 4e aa 3e a5 f5 2c 3d a1 55 c3 3d
       0.059263602 0.3326279 0.042226452 0.09537817
000020 75 bc 53 3e 54 42 b3 3e fd 82 f0 3d 5a c9 a3 3e
       0.2067736 0.35011542 0.11743734 0.31989557
000030 d8 df 85 3e 50 8f b3 3d 5f ad b6 3e e3 e3 8f 3d
       0.26147342 0.08767569 0.35679147 0.07025888
000040 78 22 23 3e 1d 8d 50 3e 7c fd 8d 3d 1f 02 b1 3d
       0.15931118 0.2036633 0.06933114 0.08642983
000050 4e 5b 0e 3e 4e e4 80 3d 04 bd 5e 3e d7 62 ab 3e
       0.13902017 0.06293546 0.21751791 0.33473846
000060 d6 d2 69 3d 18 9c 91 3e 92 13 1c 3e 42 7a 6b 3e
       0.057085834 0.28439403 0.1524184 0.22995856
000070 37 d8 85 3e 83 b0 8f 3d 3e 1c 9d 3d 45 f7 8b 3d
       0.2614152 0.07016089 0.076714024 0.06834272
000080 b1 ea 0e 3e 91 00 98 3d 20 21 c8 3d e4 55 eb 3d
       0.13956715 0.07421983 0.09771943 0.11490992
000090 2d 7d bd 3d 23 53 41 3e d5 82 11 3e 51 38 a7 3d
       0.09252391 0.1887937 0.14210065 0.081650384
0000a0 35 13 05 3e d0 58 ac 3d c3 d9 19 3e b3 50 aa 3d
       0.12995608 0.08415377 0.15024476 0.083161734
0000b0 d5 78 84 3e 73 55 09 3e 65 49 70 3e 56 1a c3 3d
       0.25873438 0.13411503 0.23465498 0.095265076
0000c0 4b 97 36 3e 49 d8 9a 3e aa 56 03 3e c3 1c b8 3d
       0.17831151 0.30243137 0.12826028 0.08989861
0000d0 53 a8 91 3d b0 d8 14 3e cd 2b 01 3e 3f 4d 80 3e
       0.071121834 0.14535785 0.12614365 0.25058934
0000e0 d2 7b 1a 3e 6d 7f 22 3e 97 e6 fe 3d f6 be a8 3d
       0.15086296 0.15868922 0.12446325 0.08239548
0000f0 8b c2 ce 3d 04 2d 3a 3e 04 64 ce 3d c3 df 47 3e
       0.100957 0.18181235 0.1007767 0.19518952
000100 a2 61 b3 3d c1 4b 25 3e e2 2d bf 3d 33 b0 5d 3e
       0.08758856 0.16142179 0.09334923 0.21649246
000110 e6 d4 97 3e ff f5 23 3e 04 8e c8 3d a6 bf 1d 3e
       0.29654616 0.16011809 0.09792712 0.1540514
000120 ef f4 0b 3e 1e 37 4e 3e d8 f2 cc 3e 37 de 29 3e
       0.13667654 0.20138213 0.40029025 0.16588674
000130 ef 64 6d 3d 13 8e ba 3d b7 c5 90 3e 31 fc 9f 3e
       0.057957586 0.0910913 0.28275844 0.31247094
000140 38 96 d9 3d 19 62 a8 3d d0 7e 3c 3e db 3e ea 3d
       0.10624355 0.08221836 0.1840775 0.1143777
000150 e2 15 71 3e 40 59 a5 3d 6f 75 2f 3e e0 e8 b7 3d
       0.23543504 0.08073664 0.17134641 0.08979964
000160 79 f2 6b 3e f5 c4 df 3d bd 94 c0 3d 5f 1d f3 3d
       0.23041715 0.109262384 0.094033696 0.118708365
000170 36 a3 2c 3e b9 a8 cd 3d 97 71 ea 3d 91 29 7d 3e
       0.16859135 0.10041947 0.11447447 0.24722888
000180 f2 85 57 3e 39 39 c6 3d 53 62 d6 3d e3 01 e1 3d
       0.2104719 0.09678883 0.104679726 0.10986688
000190 23 14 04 3e b4 5c 32 3e 2c 76 0e 3e cf 01 ba 3d
       0.12898307 0.17418176 0.13912266 0.09082376
0001a0 7d 8d 1b 3e eb 3e cb 3d 3b 5c a3 3d 5a a5 0e 3e
       0.15190692 0.0992411 0.07976576 0.13930264
0001b0 df 17 20 3e 36 6f 8c 3e 15 b6 0e 3e 92 b5 e8 3d
       0.15634106 0.27428597 0.13936646 0.11362757
0001c0 4a 5a 61 3e a8 8e bc 3e ca 61 ee 3d 8d 38 98 3d
       0.22007099 0.36827588 0.116397455 0.07432661
0001d0 74 78 cf 3d 79 0f 06 3e d7 d0 4c 3d 51 10 04 3e
       0.101303965 0.1309184 0.050003853 0.12896849
0001e0 6d 5f 01 3e f7 93 1f 3e 11 98 b9 3d 92 1f be 3d
       0.12634058 0.15583788 0.090622075 0.09283365
0001f0 e9 93 7c 3e 61 d6 21 3e d8 3b 83 3d 74 37 b7 3d
       0.24665798 0.15804435 0.06407899 0.08946124

decoder.0.weight f4 [64, 128, 3, 3]
000000 9f 1a 8f bc c9 0c 3d bc 76 45 c8 bc 4f f0 d8 bb
       -0.017468749 -0.011538693 -0.024447184 -0.006620444
000010 46 bc 44 bc 33 24 48 3c 75 cb b7 bc ec c1 a4 bc
       -0.0120077785 0.012215662 -0.022435883 -0.020112
000020 2f f4 a1 bc 2a d9 bd bc 24 3c 31 3c 54 c0 69 bc
       -0.019769756 -0.023174841 0.010817561 -0.014267046
000030 9a d3 8b 3c eb 70 e3 ba dc 95 40 bc 07 b2 3f 3c
       0.017068673 -0.0017352378 -0.011754479 0.01170016
000040 9e af 99 3b 4e c8 f0 bc 73 df 88 3b 25 1a b4 3c
       0.0046901247 -0.029392388 0.004177028 0.021985123
000050 d7 fa 94 bc fe 9a 33 3c 81 4b c0 bc 31 f7 da ba
       -0.018186016 0.010962246 -0.023473503 -0.0016705749
000060 ed 19 61 bc 39 4a b1 ba b6 64 e1 bc 5a ed 99 bc
       -0.013739091 -0.0013526148 -0.027513843 -0.018789936
000070 8b 4b df 3c 3b 05 b9 bc c0 77 b7 bc a0 6f 85 3c
       0.027257701 -0.022585502 -0.022395968 0.016288579
000080 14 d7 cb 3c 16 0a bc 3c b9 f3 7d 3c f7 63 a2 bc
       0.02488283 0.022954028 0.015500003 -0.019823058
000090 ff 0b 69 bc 44 62 b7 bc 36 10 64 bc 5e fd ac bb
       -0.0142240515 -0.022385724 -0.013919881 -0.005279227
0000a0 7c 34 1a 3c 89 42 7e bc 20 56 0f bc 19 ef 9a bb
       0.009411927 -0.015518793 -0.008748561 -0.0047282097
0000b0 76 11 81 bc a4 23 21 bb 27 40 6a bb c9 b9 26 3c
       -0.015755396 -0.0024587894 -0.0035743804 0.010176131
0000c0 58 25 b4 bc 8e 8d fe 3b 84 99 bc bb 8c 41 23 3c
       -0.021990463 0.0077683395 -0.005755605 0.009964358
0000d0 8f 92 79 3c cc 06 27 3b 60 74 87 3c bb 2c a6 b9
       0.015232696 0.002548623 0.016534984 -0.00031695314
0000e0 39 92 1a bc b6 f3 9a 3c 7e 33 1b 3c 2e d7 61 3c
       -0.009434276 0.018915039 0.009472726 0.013784213
0000f0 f1 cf 5b bc 4a ea 93 3c c7 8e 86 bc 7f c5 9b bc
       -0.013416276 0.018056054 -0.016425503 -0.019015072
000100 85 80 d0 bc 00 01 73 3c 16 e2 62 38 8e 6f fb 3b
       -0.025451908 0.014831781 5.4093158e-05 0.0076732105
000110 08 8c e8 3c 94 ef ee bc 5a ea 01 bb cb 36 b5 3c
       0.028387085 -0.029166974 -0.0019823522 0.022120854
000120 d7 9c b2 3b e8 d7 b8 bc bf 84 81 bc 95 0f c2 3c
       0.0054508257 -0.02256389 -0.015810369 0.02368907
000130 11 3f 94 3c d0 5b 8d bc 4f 70 8c bc e8 fb 45 bb
       0.018096479 -0.017255694 -0.017143397 -0.0030209962
000140 55 a3 b5 39 f2 94 ca 3b a9 f7 7c 3c a5 00 4e 3c
       0.00034644702 0.0061823064 0.015439906 0.012573396
000150 5c 7c 1f bc 87 e3 20 3c 13 bd 89 3b 62 d4 4f 3c
       -0.009734239 0.009819872 0.0042034476 0.012684913
000160 b2 ab 32 3c 61 0b b5 3c 07 d9 cc 3c f4 1e 74 bb
       0.010905193 0.022100152 0.02500583 -0.0037249895
000170 29 85 cc bc 11 52 a1 3b 68 42 3d bc 9f 3e 4f 3c
       -0.02496584 0.004923113 -0.011551477 0.012649207
000180 7c 5a ad bc 0f e1 54 bc 5c 20 bb 3c ff 11 d5 3c
       -0.02116131 -0.012993111 0.022842579 0.026009558
000190 8f f3 95 bb 1a 72 0a bc 24 2b d0 bc cb 22 f7 bb
       -0.0045761536 -0.0084500555 -0.025411196 -0.0075419894
0001a0 2e 91 51 3c d6 fb 8f bc 7e ef a0 3c f5 94 22 3c
       0.012790961 -0.01757614 0.019645449 0.009923209
0001b0 5f 07 62 3b 08 38 60 3a 97 fa ae 3c 3b e6 f6 bb
       0.0034489257 0.0008553271 0.021359725 -0.00753477
0001c0 d6 97 d6 3c bd b5 b0 bb bb 33 76 3c a5 dd 87 bb
       0.026195448 -0.0053927586 0.015026982 -0.004146295
0001d0 9d 21 06 bc 2b fd be 3c 35 a6 bc 3c 49 65 e2 bb
       -0.008186725 0.02331408 0.023028472 -0.006909047
0001e0 9c f6 1f 3b 9b a1 88 3c 88 22 84 3c 1e 37 97 3c
       0.0024408465 0.016678622 0.016129747 0.0184589
0001f0 56 1e 9b 3c 0f db 37 bc c9 10 ba bc ca f8 a3 bc
       0.018935364 -0.011221661 -0.022713082 -0.020016093
000200 bd 83 c6 bc a6 a0 82 bc a0 f5 b9 3c a5 3d 82 bc
       -0.02423274 -0.015945744 0.022700131 -0.015898535
000210 27 43 f3 3b bb 86 ac bc 76 1a 17 3c f7 48 b7 bb
       0.0074237767 -0.021060338 0.009222617 -0.005593415
000220 eb 84 c5 3c 51 5c 86 bb bf 5f 8d bc 65 e6 87 bc
       0.024111232 -0.0041003604 -0.01725757 -0.016589353
000230 46 b8 94 bb 44 fb 51 bc c8 56 e9 3c 9d 8f 89 bc
       -0.0045385687 -0.012816254 0.028483763 -0.016792113
000240 bd 38 cd 3c 0f 9f de 3c 2e 42 9f 3b 45 04 f6 3b
       0.025051469 0.027175454 0.004860184 0.007507833
000250 9b 82 ea b9 13 37 40 b9 7e 77 71 bc 2d 15 af 3c
       -0.00044729267 -0.00018331064 -0.014737962 0.021372402
000260 47 39 8c bc d1 c4 08 3c a5 b2 ac 3c 36 81 69 3c
       -0.017117156 0.008347706 0.021081278 0.014251998
000270 38 7a 81 bb 77 bb 5a bc c8 65 69 bb 25 a7 9e 3c
       -0.003951337 -0.013350359 -0.0035613645 0.01936681
000280 87 ef ac 3c 15 36 11 3a c8 e2 f4 bb 11 db 48 ba
       0.02111031 0.000553937 -0.0074733235 -0.0007662038
000290 2b ef 5b bc c6 0e 2c 3b 32 39 4f 3b 59 17 e2 bc
       -0.013423721 0.0026253923 0.0031619784 -0.027599024
0002a0 2c 6f a1 bc 1e 22 da bc f4 21 da 3b 12 89 bd bc
       -0.019706331 -0.026627596 0.0066568796 -0.02313665
0002b0 eb 0c b7 b8 80 8c 97 bc e0 fc 4c ba c8 dc 12 bb
       -8.728526e-05 -0.018499613 -0.0007819664 -0.0022409428
0002c0 67 73 a3 bb 70 c9 83 3c 72 91 80 bb 05 f4 c6 3c
       -0.0049881223 0.016087264 -0.0039235884 0.02428628
0002d0 a8 52 12 bc ee 2d 96 bb ce 23 29 bc 6c 67 08 3c
       -0.00893084 -0.004583112 -0.010323478 0.008325439
0002e0 42 2c 8a bc 4b c7 61 ba 1b 66 75 bc e3 5d a3 ba
       -0.016866807 -0.0008612766 -0.014977957 -0.0012463894
0002f0 7e 1f f3 bc f2 85 55 3c 1f e6 9c 3c 14 2b f0 bb
       -0.029678103 0.013032423 0.019152699 -0.007329354
000300 23 45 26 bc bd 59 b7 bc db c2 fe 3b 9a 95 09 bb
       -0.010148319 -0.022381658 0.0077746934 -0.002099371
000310 6e fe b0 bc 88 da 0e 3c f1 80 9a 3c b3 24 cf ba
       -0.021605697 0.008719094 0.018860312 -0.0015803784
000320 48 f4 01 3b 89 ae 6c 3c c9 8a a8 bc 6f ae 5a bc
       0.001982944 0.014445909 -0.02057399 -0.013347252
000330 b0 4d ee 3c c1 eb c6 3b 5e 39 8c 3b 5e 29 c3 bc
       0.029089779 0.0060705845 0.0042792996 -0.023823436
000340 fb d1 25 3c ba 90 30 bb bb 01 a9 3c d9 a1 d5 3c
       0.010120864 -0.0026941733 0.020630708 0.026078152
000350 09 a1 19 bc 6c 9f e6 3c 2f c6 90 bc cc 44 42 3c
       -0.009376773 0.02815219 -0.017672626 0.011857223
000360 2c ea c6 bc 7d 16 46 bc 59 cf e1 3b 0c 3c 79 3c
       -0.024281584 -0.012090323 0.006891173 0.01521207
000370 c2 75 b3 ba 91 9f 93 bc 09 69 c1 3b 6a e9 c3 3c
       -0.0013691711 -0.018020423 0.0059024137 0.023915011
000380 e0 19 c2 3c 93 48 7b bc dd 6b 0b 3c e2 fd 5e 3c
       0.023693979 -0.015337127 0.008509603 0.013610335
000390 38 78 95 3c 85 99 47 3c 28 a2 93 3c 02 87 c3 bb
       0.018245801 0.012182598 0.018021658 -0.005967022
0003a0 a3 2f a3 bc 7e 37 c9 bc ba a5 d2 3c cf f3 dd bb
       -0.019920176 -0.024562594 0.02571379 -0.006773449
0003b0 73 80 77 ba 7b 47 e4 bc 94 ad 86 3c 53 a4 50 3c
       -0.00094414427 -0.027866116 0.01644019 0.01273449
0003c0 7a 23 9a bc af 58 c4 bb 59 79 7f bc 7d 63 43 bc
       -0.018815745 -0.005992017 -0.015592896 -0.011925575
0003d0 1c 0f 8c 3c be f8 4b bc 65 d8 3c bb 4b b2 65 3c
       0.017097048 -0.0124494415 -0.0028815505 0.014019559
0003e0 ab e7 e7 3c 27 9d da bc 6a d3 ad 3c d1 98 3f 3c
       0.02830871 -0.026686264 0.021218974 0.011694149
0003f0 e0 7f 26 bb 16 fb c0 bc bc f4 b4 3c a2 ca a6 3a
       -0.002540581 -0.023557227 0.022089355 0.0012725184

decoder.0.bias f4 [64]
000000 99 33 36 3c 49 70 ef bc 65 8c 3d 39 0c 1d 50 3b
       0.0111207 -0.029228346 0.00018076746 0.0031755595
000010 0a d6 df 3c 74 01 66 bc 23 4c ef bb 89 17 89 bc
       0.027323741 -0.014038432 -0.0073027774 -0.016734855
000020 97 d0 af bc dc 2b c0 bc e0 c2 cd 3c d6 28 da 3c
       -0.021461768 -0.023458414 0.025117338 0.0266308
000030 f2 04 ce 3c d3 b5 06 3c c8 78 19 3c 9a c9 ef 3b
       0.025148842 0.008222061 0.009367175 0.007317734
000040 0b e3 57 bc 09 ef f9 3b 7d ef 57 3c 77 4b 0d 3c
       -0.01317669 0.007627372 0.013179657 0.008623949
000050 1f df 7f bc 08 8f 98 bc 6c af cb 3c 69 b4 80 3c
       -0.015617161 -0.01862289 0.024863921 0.015711026
000060 7f c9 70 bb 14 cf 62 3c 94 15 ff bb 87 9f ab bc
       -0.0036741195 0.013843317 -0.0077845547 -0.020950092
000070 fe a6 51 3c ef 54 a9 3c eb 2f ea 3c d5 f2 74 bc
       0.012796162 0.020670382 0.028587302 -0.014950474
000080 3f 4d c1 3c 42 f8 15 bc ea 53 17 3c 54 7e 58 3c
       0.023596404 -0.009153428 0.009236315 0.013213713
000090 7f 7d 91 bc 35 90 7d bc 83 08 94 3c 81 37 6f 3c
       -0.017760037 -0.015476276 0.018070465 0.0146006355
0000a0 0a 1a ae bc 40 b6 df bc 36 3a fd bb 17 e9 33 3c
       -0.02125265 -0.027308583 -0.0077278866 0.010980866
0000b0 dc f5 c2 bc dc 59 b2 3c 5a 42 97 3c 3c 15 c9 bb
       -0.023798876 0.021771364 0.018464256 -0.0061365645
0000c0 be c0 54 3c bf c6 83 bc 84 85 bd bc ad b1 59 3c
       0.012985406 -0.01608598 -0.023134954 0.01328699
0000d0 de 0c a0 bc 70 1f 29 bc f1 d4 bd bc e2 e8 05 bc
       -0.019537386 -0.010322437 -0.023172827 -0.008173199
0000e0 b3 11 cb 3c c8 f5 1f bc a6 21 94 3c 2c 7e e3 3b
       0.024788713 -0.009763189 0.018082451 0.006942531
0000f0 f2 c5 63 bc 93 8d 80 3c d8 69 a6 ba ca 7a ab bc
       -0.013902174 0.015692508 -0.0012696339 -0.020932574
