checkpoints/2025-06-02-14-40-10/last_epoch.pth (torch, 686901 bytes, 25 tensors)

encoder.0.weight f4 [64, 3, 3, 3]
0.17467202 0.17666256 0.07534193 -0.16109931 0.07920231 0.0915687 -0.013454051 -0.1893131
-0.113184094 0.093606606 0.13744378 0.07899104 0.0057444526 0.09752149 -0.081718005 0.054559372
-0.03170647 -0.11046395 0.095792286 -0.17237388 -0.13077055 -0.019103384 -0.029425466 -0.11808721
-0.004220021 0.03320829 0.023475258 0.19217174 0.17312926 -0.088563055 -0.010410027 -0.16308273
-0.12968941 -0.075468644 0.11379588 0.005328815 -0.0474439 0.11662798 -0.13014941 0.002560309
-0.107006274 -0.0660512 -0.011307174 0.00042305497 0.09541803 0.090697795 0.12736294 -0.08302371
0.011181356 -0.097933665 -0.15699194 0.11313938 -0.01648841 0.10809321 -0.085327715 0.0023870966
-0.024794098 0.08181645 -0.046684485 -0.10047958 -0.048783604 0.055679813 -0.11872818 0.12672754
-0.14565474 0.050858635 -0.012879714 0.02442977 -0.017177993 -0.06460918 0.043197244 -0.1634361
0.06742034 0.1323273 -0.18614556 0.15254538 0.09154232 -0.020332199 0.030471561 0.15317683
0.039682116 0.14525886 -0.03431274 0.0027958092 -0.09687872 -0.05934466 0.057810277 -0.13183752
-0.027855134 0.18246748 -0.15649123 -0.05097479 0.07551993 0.18418863 0.12849951 -0.16873081
-0.18399516 -0.090719745 0.14195175 -0.039468866 0.16482629 0.027697533 -0.18552676 -0.018731184
-0.082395084 -0.050024442 0.010976923 0.16585016 0.12593366 -0.1650639 -0.052904975 0.15852845
0.16092107 -0.19270386 0.036213234 0.13646857 0.03349974 -0.13513657 0.18909721 0.033972528
0.081897706 -0.05826743 0.09956688 -0.0368791 0.090418845 0.043703232 0.133572 -0.08431387
0.009931715 0.15957405 0.11309774 0.07322593 0.038913522 -0.032653358 -0.14485402 -0.006705621
-0.05709009 -0.116582625 0.0346856 -0.13913286 -0.06829535 0.09495296 0.12851669 0.03116471
0.13603641 0.038956147 -0.08287227 0.036544506 0.060160957 -0.083836526 0.034099158 0.1134942
0.13300546 0.18838942 0.12610963 0.115549915 0.1087757 -0.18000604 0.058018085 -0.083225824
-0.08389825 0.18943378 -0.11251772 0.04951152 -0.14610723 -0.13332495 -0.06942587 0.039244164
-0.037525415 -0.09830932 -0.08425795 -0.16531873 0.08734068 0.07417704 0.029722719 -0.14032231
-0.15785465 0.10901737 0.032027837 0.08178643 0.10764715 0.13660456 0.12337424 -0.1870066
-0.0040048445 -0.08379612 -0.15171106 -0.022631466 -0.085253164 -0.18057291 0.12228978 -0.18533994
0.13332027 0.0851626 0.15402111 -0.124825865 -0.15433191 -0.007068823 -0.14090416 -0.1582049
0.07428861 -0.08059527 -0.16796865 -0.06797434 -0.14792205 -0.08804635 -0.06543394 0.14055355
0.18243371 -0.17068121 -0.1668229 -0.031578295 0.054882072 -0.052040394 0.039557297 0.18466714
0.0116642555 -0.15418942 -0.0784844 0.119004026 0.078885876 0.14399022 -0.07235548 0.032091945
-0.13675608 0.17873646 0.11868469 0.14317678 -0.03332588 -0.072749384 0.08797804 -0.0391737
0.16263424 -0.05874978 0.089852676 -0.0903496 -0.04347304 0.112013765 -0.12243685 -0.047309376
-0.17288686 -0.0051842537 -0.017652057 -0.16756652 -0.05579307 -0.004797118 0.13397731 -0.18057191
0.1766347 0.1502744 0.18639128 -0.02549895 0.12104873 0.031049455 -0.060714435 -0.07304933
00000000: 39dd 323e 08e7 343e df4c 9a3d 38f7 24be
00000010: d234 a23d 5f88 bb3d 616e 5cbc 4bdb 41be
00000020: 10cd e7bd d2b4 bf3d 10be 0c3e 0ec6 a13d
00000030: f63b bc3b 59b9 c73d c55b a7bd a679 5f3d
00000040: a5de 01bd ec3a e2bd bf2e c43d c782 30be
00000050: b7e8 05be b37e 9cbc ad0d f1bc b5d7 f1bd
00000060: 1a48 8abb 6a05 083d 2f4f c03c abc8 443e
00000070: cc48 313e 8c60 b5bd d18e 2abc 29ff 26be
00000080: 4dcd 04be 4e8f 9abd d00d e93d 579d ae3b
00000090: 8954 42bd a6da ee3d e345 05be dbca 273b
000000a0: 1b26 dbbd da45 87bd ba41 39bc 7acd dd39
000000b0: 876a c33d c4bf b93d 6e6b 023e 5608 aabd
000000c0: 0232 373c 7291 c8bd 7fc2 20be 9fb5 e73d
000000d0: b412 87bc f95f dd3d 4cc0 aebd d670 1c3b
000000e0: fe1c cbbc 628f a73d 3b38 3fbd 3dc8 cdbd
000000f0: 51d1 47bd 8410 643d c327 f3bd ddc4 013e
00000100: 8426 15be 2551 503d 7005 53bc f120 c83c
00000110: ddb8 8cbc d151 84bd 98ef 303d cb5b 27be
00000120: ad13 8a3d cf80 073e f19c 3ebe db34 1c3e
00000130: 8a7a bb3d b68f a6bc 7f9f f93c 63da 1c3e
00000140: b789 223d bdbe 143e 848b 0cbd e539 373b
00000150: 5a68 c6bd 6313 73bd 78ca 6c3d 6a00 07be
00000160: 7330 e4bc c1d8 3a3e 3d3f 20be f1ca 50bd
00000170: 31aa 9a3d f29b 3c3e 6095 033e c5c7 2cbe
00000180: 3a69 3cbe 46cb b9bd cd5b 113e 1baa 21bd
00000190: 39c8 283e f0e5 e23c bafa 3dbe 2472 99bc
000001a0: c1be a8bd 6ee6 4cbd 8dd8 333c a0d4 293e
000001b0: c1f4 003e 8306 29be e3b2 58bd 4855 223e
000001c0: 7ec8 243e 2954 45be 5454 143d 6bbe 0b3e
000001d0: 0637 093d 3e61 0abe b3a2 413e c726 0b3d
000001e0: fcb9 a73d d4a9 6ebd b8e9 cb3d 8a0e 17bd
000001f0: 842d b93d 2902 333d 19c7 083e c0ac acbd
00000200: a2b8 223c 6167 233e ca9f e73d 7af7 953d
00000210: c963 1f3d 87bf 05bd 9d54 14be d3ba dbbb
00000220: 4cd7 69bd dfc2 eebd 7d12 0e3d d878 0ebe
00000230: 6fde 8bbd b376 c23d e199 033e 224d ff3c
00000240: 214d 0b3e 7b90 1f3d f0b8 a9bd b1af 153d
00000250: 566b 763d 7cb2 abbd 8fab 0b3d a66f e83d
00000260: 9532 083e 28e9 403e e222 013e 6fa5 ec3d
00000270: cbc5 de3d 8153 38be 5fa4 6d3d 4d72 aabd
00000280: d8d2 abbd eefa 413e b16f e6bd 97cc 4a3d
00000290: 229d 15be 5686 08be 272f 8ebd 7dbe 203d
000002a0: 40b4 19bd 6656 c9bd 6f8f acbd 5049 29be
000002b0: acdf b23d 22ea 973d 0f7d f33c a7b0 0fbe
000002c0: a6a4 21be 8044 df3d 9f2f 033d a57f a73d
000002d0: 1c76 dc3d 11e2 0b3e a2ab fc3d a87e 3fbe
000002e0: 123b 83bb 4d9d abbd 255a 1bbe a065 b9bc
000002f0: 3699 aebd 1be8 38be 1073 fa3d c1c9 3dbe
00000300: 1c85 083e bb69 ae3d b6b7 1d3e b4a4 ffbd
00000310: 2f09 1ebe 96a1 e7bb 2e49 10be 7700 22be
00000320: a024 983d 220f a5bd f9ff 2bbe 2136 8bbd
00000330: e178 17be a551 b4bd 3b02 86bd 45ed 0f3e
00000340: e7cf 3a3e 0ec7 2ebe 9fd3 2abe 3e58 01bd
00000350: 06cc 603d 4f28 55bd d506 223d 6219 3d3e
00000360: 6f1b 3f3c d5e3 1dbe 6ebc a0bd 62b8 f33d
00000370: eb8e a13d 2c72 133e 1c2f 94bd d872 033d
00000380: c909 0cbe b106 373e f510 f33d ef9c 123e
00000390: b880 08bd a1fd 94bd d52d b43d 9a74 20bd
000003a0: 9789 263e 9ca3 70bd ae04 b83d 3609 b9bd
000003b0: c910 32bd 7967 e53d 2cc0 fabd 7ac7 41bd
000003c0: 4109 31be ace0 a9bb 0c9b 90bc 8f96 2bbe
000003d0: 4687 64bd 2431 9dbb 5931 093e d8e7 38be
000003e0: badf 343e 88e1 193e 5bdd 3e3e 2de3 d0bc
000003f0: 66e8 f73d 6d5b fe3c b3af 78bd e39a 95bd

encoder.0.bias f4 [64]
0.1392634 0.17384912 -0.09367978 -0.024277931 -0.14046304 0.15631023 0.1842946 0.06857197
0.15864672 -0.12225774 0.061653096 0.026737465 -0.0016608392 -0.11193711 0.10598638 0.11046825
0.039263874 0.08206338 0.08389656 -0.110462524 -0.0539932 -0.16053545 -0.055539325 0.07091542
0.11689922 0.13708128 -0.08648466 -0.075727515 0.15480013 0.15090792 0.045570843 0.04308183
-0.18065205 -0.17689322 -0.15188478 0.037693568 -0.1214583 -0.13646086 -0.1319445 -0.11309605
0.12302139 -0.105154015 -0.14701983 -0.0067021446 -0.06264247 0.15243648 -0.11040617 0.17433529
0.049175154 0.023819227 -0.14716625 0.18790749 0.071197554 -0.05108487 0.14377211 -0.040485177
0.16477993 0.013038751 -0.033984665 0.0659418 0.0550737 -0.13133612 0.1197108 0.010838295
00000000: 119b 0e3e 8105 323e 2fdb bfbd 83e2 c6bc
00000010: 8bd5 0fbe ca0f 203e b9b7 3c3e 766f 8c3d
00000020: 4974 223e 4462 fabd f587 7c3d 8708 db3c
00000030: 84b0 d9ba 493f e5bd 630f d93d 2e3d e23d
00000040: 28d3 203d d810 a83d f6d1 ab3d 2d3a e2bd
00000050: f927 5dbd 6863 24be 347d 63bd 1b3c 913d
00000060: dc68 ef3d 095f 0c3e df1e b1bd 0717 9bbd
00000070: ed83 1e3e 9b87 1a3e 7ea8 3a3d 9376 303d
00000080: dafc 38be 7f23 35be af87 1bbe 9264 1a3d
00000090: 21bf f8bd 65bc 0bbe 761c 07be e79e e7bd
000000a0: a3f2 fb3d fd5a d7bd 5e8c 16be aa9d dbbb
000000b0: b24a 80bd 4f18 1c3e a11c e2bd f384 323e
000000c0: e36b 493d 8a20 c33c c0b2 16be d26a 403e
000000d0: 06d0 913d 5e3e 51bd ff38 133e c9d3 25bd
000000e0: 12bc 283e 7ca0 553c 8133 0bbd 7f0c 873d
000000f0: f694 613d fa7c 06be f02a f53d 1b93 313c

encoder.1.weight f4 [64]
0.9999314 0.9995572 1.0000659 1.0002483 1.0005801 1.0006984 1.0001813 0.9994341
1.0000217 0.99975425 1.0007097 0.9992804 1.0004358 0.99994165 0.99896115 1.0003566
0.9992098 1.0001308 1.0007454 1.0002929 1.0000224 1.00012 0.9996139 0.99959207
0.9991777 1.0005037 1.0001158 0.99965286 1.0005811 1.0008373 0.99995786 1.0001563
0.9992564 1.0002156 1.0001787 0.9998077 1.0004485 0.99982834 1.0004526 1.0001714
0.9998672 0.9994132 0.99925745 1.0003822 0.99911964 0.99979734 0.99984986 1.0000284
1.0002521 0.99948585 0.9995165 0.9996289 1.0000215 0.99980474 0.99930984 0.99956685
0.99920416 0.9999506 1.000521 0.999894 1.0001668 1.0006984 1.0001177 1.0001093
00000000: 81fb 7f3f fbe2 7f3f 2902 803f 2308 803f
00000010: 0213 803f e316 803f f105 803f eada 7f3f
00000020: b600 803f e5ef 7f3f 4117 803f d7d0 7f3f
00000030: 480e 803f 2dfc 7f3f ebbb 7f3f af0b 803f
00000040: 37cc 7f3f 4904 803f 6d18 803f 9909 803f
00000050: bc00 803f ef03 803f b2e6 7f3f 44e5 7f3f
00000060: 1cca 7f3f 8110 803f cb03 803f 40e9 7f3f
00000070: 0b13 803f 701b 803f 3dfd 7f3f 1f05 803f
00000080: 44cf 7f3f 1107 803f db05 803f 66f3 7f3f
00000090: b20e 803f c0f4 7f3f d50e 803f 9e05 803f
000000a0: 4cf7 7f3f 8bd9 7f3f 56cf 7f3f 860c 803f
000000b0: 4ec6 7f3f b8f2 7f3f 29f6 7f3f ee00 803f
000000c0: 4308 803f 4ede 7f3f 50e0 7f3f aee7 7f3f
000000d0: b400 803f 34f3 7f3f c5d2 7f3f 9de3 7f3f
000000e0: d8cb 7f3f c3fc 7f3f 1211 803f 0ef9 7f3f
000000f0: 7705 803f e316 803f db03 803f 9503 803f

encoder.1.bias f4 [64]
-0.00012989633 -0.0005907617 -0.0001637795 -9.7465294e-05 -0.00044485464 0.0005270128 -0.00011172925 -0.0005344675
-0.0002819595 -0.0008593729 0.00094534684 -0.00039539707 0.0004664049 -1.0152984e-05 -0.0006812036 0.0004716592
-0.00070575177 0.00019026692 0.0007803373 -0.00057031814 4.6504385e-05 0.0004214839 -0.000760862 -6.759626e-06
-0.00076387986 -0.0003850322 -0.00074565376 -0.00017122077 -0.0004171585 0.00071900303 3.081542e-05 -0.0006083527
-0.00021535739 0.00050425326 -4.7345053e-05 0.000356535 5.491778e-05 0.00022258757 0.00034903942 0.00074544695
-0.00075836625 0.0001596145 -0.00037380456 6.705079e-05 -0.00054696156 -0.00029053303 0.0006826356 9.800612e-05
-1.2931707e-05 -0.0009259558 -0.00029132317 -0.0002905148 0.0002972886 -0.00056244404 -0.00069875445 -0.001039271
-0.00020389698 -0.00025380976 0.00023931026 -0.00031019008 0.00014888491 0.00044938768 0.00027359262 -0.00033853424
00000000: c834 08b9 59dd 1aba 3abc 2bb9 4866 ccb8
00000010: 613b e9b9 3b27 0a3a 2f50 eab8 821b 0cba
00000020: f7d3 93b9 8a47 61ba 27d1 773a 4c4d cfb9
00000030: ce87 f439 bc56 2ab7 cd92 32ba 0749 f739
00000040: 3302 39ba 6382 4739 8d8f 4c3a 6781 15ba
00000050: b40d 4338 9dfa dc39 9674 47ba bfd0 e2b6
00000060: 1c3f 48ba 26de c9b9 fa77 43ba ba89 33b9
00000070: 11b6 dab9 7a7b 3c3a ce3f 0138 dc79 1fba
00000080: 8fd1 61b9 dd2f 043a 5d94 46b8 51ed ba39
00000090: 8457 6638 6566 6939 47ff b639 196a 433a
000000a0: 19cd 46ba 315e 2739 33fb c3b9 9e9d 8c38
000000b0: f861 0fba af52 98b9 e6f2 323a a388 cd38
000000c0: 42f5 58b7 d8bb 72ba bcbc 98b9 3d50 98b9
000000d0: 67dd 9b39 fb70 13ba 9e2c 37ba 2638 88ba
000000e0: 2ecd 55b9 c511 85b9 5cef 7a39 02a1 a2b9
000000f0: fd1d 1c39 cb9b eb39 fb70 8f39 4c7d b1b9

encoder.1.running_mean f4 [64]
0.10213435 0.18673193 -0.047089595 -0.007530552 -0.33631518 0.027411787 0.419163 0.27624127
0.11903298 -0.15340976 0.025669632 0.33093914 -0.17092776 -0.10178652 0.048097253 0.35468823
-0.06443991 0.18141739 -0.036802776 -0.08803097 -0.30143175 0.0424286 -0.21364176 0.12220285
0.41139114 0.02915775 0.028783752 -0.14648493 0.095668554 0.061319884 0.06584668 0.066166356
-0.114433415 0.030224219 -0.07475175 0.08154725 -0.015821137 -0.1411163 0.009191501 0.08521558
0.20003837 -0.35156742 -0.32305804 0.12964861 0.05226945 0.00029529855 0.019931931 0.36062875
-0.051632706 -0.013748168 -0.036302578 0.2690498 -0.01812393 -0.038437653 -0.026869463 0.07740391
-0.044453293 0.14887592 -0.074385494 0.122729264 0.24792053 -0.08267953 0.21720938 0.036913507
00000000: d02b d13d a836 3f3e 05e1 40bd d9c2 f6bb
00000010: 8131 acbe af8e e03c 889c d63e 7f6f 8d3e
00000020: 90c7 f33d 7317 1dbe 1f49 d23c db70 a93e
00000030: b007 2fbe 7375 d0bd a001 453d b299 b53e
00000040: 12f9 83bd 7bc5 393e 82be 16bd 9549 b4bd
00000050: 4355 9abe 9dc9 2d3d e8c4 5abe 7d45 fa3d
00000060: dca1 d23e 3cdc ee3c e7cb eb3c 2500 16be
00000070: e0ed c33d 8f2a 7b3d a0da 863d 3a82 873d
00000080: 115c eabd c898 f73c 7217 99bd 3f02 a73d
00000090: 549b 81bc cb80 10be f397 163c 8285 ae3d
000000a0: dcd6 4c3e a500 b4be dd67 a5be 9bc2 043e
000000b0: 7e18 563d 4dd2 9a39 4a48 a33c 55a4 b83e
000000c0: d17c 53bd ff3f 61bc 03b2 14bd e5c0 893e
000000d0: a378 94bc cd70 1dbd 591d dcbc f185 9e3d
000000e0: a814 36bd ee72 183e 6c57 98bd 7b59 fb3d
000000f0: e1de 7d3e e353 a9bd 236c 5e3e 9e32 173d

encoder.1.running_var f4 [64]
0.087573975 0.063158214 0.10036262 0.059171554 0.6859081 0.5621896 0.6764062 0.71213806
0.06754049 0.035103012 0.15438323 1.290937 0.33144686 0.027265975 0.2809795 1.0027739
0.11511382 0.3025509 0.6056216 0.029840186 1.2364054 0.3482815 0.6737859 0.11343295
1.1317896 0.20818904 0.13804318 0.31960723 0.21560508 0.2000832 0.05321358 0.031822693
0.40202686 0.8174745 0.12412909 0.12572406 0.17504399 0.09820523 0.19804382 0.6436208
0.1405106 1.7062999 0.3022575 0.32852837 0.24093315 0.43497762 0.33167112 0.44993615
0.36400294 0.10767337 0.76510316 0.09309671 0.075170636 0.20501901 0.5005422 0.50498736
0.41153234 0.23525216 0.22253658 0.05088131 0.70056313 0.048836935 0.44671863 0.046915036
00000000: fc59 b33d 1859 813d eb8a cd3d df5d 723d
00000010: ac97 2f3f a8eb 0f3f f528 2d3f ae4e 363f
00000020: ab52 8a3d 2dc8 0f3d a316 1e3e 6c3d a53f
00000030: 67b3 a93e e55c df3c 8cdc 8f3e e55a 803f
00000040: cbc0 eb3d f4e7 9a3e 040a 1b3f 6873 f43c
00000050: 8842 9e3f f451 b23e 3c7d 2c3f 894f e83d
00000060: 7bde 903f 822f 553e 315b 0d3e 8fa3 a33e
00000070: 94c7 5c3e 9ce2 4c3e 7cf6 593d 8358 023d
00000080: 77d6 cd3e 0246 513f 6437 fe3d cfbd 003e
00000090: bb3e 333e d31f c93d 00cc 4a3e 55c4 243f
000000a0: 03e2 0f3e 0968 da3f 7fc1 9a3e df34 a83e
000000b0: 2eb7 763e 63b5 de3e ccd0 a93e 085e e63e
000000c0: 985e ba3e db83 dc3d cddd 433f 7da9 be3d
000000d0: 10f3 993d 81f0 513e 8923 003f da46 013f
000000e0: 5eb4 d23e f1e5 703e a1e0 633e ec68 503d
000000f0: 1b58 333f 3d09 483d 4eb8 e43e fb29 403d

encoder.4.weight f4 [128, 64, 3, 3]
0.0024407776 0.038424194 -0.018703375 0.0058091776 -0.0153137 0.025182493 0.02360685 0.04154946
0.02628648 -0.007804694 0.041025575 -0.03423809 -0.0008980746 0.015649717 0.008624723 0.018613076
-0.022776013 -0.0352205 -0.013688127 0.017526304 0.041144967 0.04176233 -0.024529926 0.027823048
-0.020537699 -0.008663954 -0.0067362604 -0.012743878 0.03297828 0.011531351 0.021629773 0.004864603
-0.02159575 -0.032748267 -0.025826678 -0.023544548 -0.006871161 0.03436552 0.014394127 -0.023827128
0.037008293 0.03171088 0.023562165 -0.034998443 0.027663318 0.0037974212 0.0009500337 -0.02987703
-0.0053323023 0.01489696 -0.014512861 -0.038254213 -0.031227456 -0.021419745 -0.033364482 0.002557317
0.033981863 0.021979498 -0.017034847 -0.03350871 -0.015174425 0.032779027 -0.018980756 0.03455998
0.025543446 0.006615609 -0.02615612 -0.03132001 -0.0331637 -0.021486543 -0.030584602 -0.018635798
-0.0003216774 -0.032597605 -0.02095311 -0.023076689 0.038078003 0.013880423 0.0071962555 0.014140573
0.014569724 -0.032542072 -0.030509302 -0.018281637 -0.030072605 0.023623906 0.014517869 -0.0037520404
0.008156968 0.020050338 0.02249369 -0.039503727 0.03941726 -0.0150169935 -0.019438123 -0.03847246
0.019061984 -0.0022502267 -0.014578742 0.035839725 0.025678182 -0.008933006 0.00947895 -0.00878348
-0.022953907 0.030550145 -0.012735783 0.022091035 0.040493008 0.03592837 0.004857542 0.02373075
0.016365249 0.038477793 0.033317238 0.0051970454 0.016947411 0.026059005 0.010899771 -0.0021407544
-0.02763999 -0.015369709 -0.033041906 0.009415272 0.0377649 -0.041211862 -0.004382171 0.01141964
0.021432407 0.032255143 0.03205696 -0.020794401 0.032263353 0.022485016 -0.029752612 0.029378457
-0.033679616 -0.038159154 -0.0059409137 0.02277952 0.035243474 -0.026590437 -0.0306295 0.04095343
0.0337085 -0.019556886 -0.0145083945 0.031100417 0.040090203 0.0053829406 -0.0015767075 0.004545284
-0.032663673 0.013015334 0.012679695 -0.011377916 0.015257434 -0.036849633 0.006061381 -0.029398113
-0.04014486 -0.022557251 -0.031700812 0.020223727 0.021281332 0.033404194 -0.0034236982 0.024558555
-0.021390585 0.027020844 -0.01673178 0.037318226 0.03596566 -0.022786863 0.035781503 -0.012170104
-0.022951283 -0.009069209 -0.017192647 -0.03586194 -0.001470433 0.0067148595 0.013560576 -0.02337663
0.023968892 0.027371924 -0.019330356 0.0011933888 0.0036771914 -0.039551515 -0.015060676 -0.0038555842
0.015470245 -0.020507755 -0.0015648344 -0.021453492 0.018366428 0.002865566 -0.010083345 -0.023770174
0.03441084 0.022841858 -0.035017405 -0.037429925 -0.006022447 -0.0013184209 -0.021931872 0.03267739
-0.020341216 -0.030317914 0.035776813 0.034497242 0.034977674 0.03402772 -0.020607585 0.01238693
-0.0034151087 -0.030665966 0.014575071 0.03542046 0.03614518 -0.012011366 0.0288731 -0.01900936
0.041038055 0.009283655 0.011301992 0.0042999634 -0.020584092 -0.032695774 0.009834764 0.009583651
-0.032267362 0.018721176 0.026197087 0.0367821 0.02097627 -0.016527763 0.00833235 -0.016926922
0.019961664 -0.0022960256 -0.032093782 0.0043937317 -0.018338168 0.00655981 0.020787593 -0.01929709
-0.015032615 0.00025110965 -0.036636036 -0.010254857 0.0019618974 0.02159875 -0.014052836 0.014493168
00000000: 74f5 1f3b b062 1d3d d237 99bc ea5a be3b
00000010: 50e6 7abc 844b ce3c 2763 c13c c42f 2a3d
00000020: be56 d73c 85be ffbb 6f0a 283d 3d3d 0cbd
00000030: c46c 6bba d633 803c b64e 0d3c 737a 983c
00000040: c394 babc 5f43 10bd 2a44 60bc 5393 8f3c
00000050: a087 283d fa0e 2b3d fcf2 c8bc 29ed e33c
00000060: ad3e a8bc 42f3 0dbc d9bb dcbb b3cb 50bc
00000070: 3c14 073d feed 3c3c ec30 b13c 3f67 9f3b
00000080: 92e9 b0bc 0c23 06bd 7892 d3bc 7fe0 c0bc
00000090: 7a27 e1bb dcc2 0c3d 58d5 6b3c 1c31 c3bc
000000a0: 0296 173d 45e3 013d 7105 c13c 875a 0fbd
000000b0: 2f9e e23c 28de 783b af0b 793a acc0 f4bc
000000c0: 98ba aebb 6112 743c 5ac7 6dbc 73b0 1cbd
000000d0: b9d0 ffbc 7678 afbc 32a9 08bd a998 273b
000000e0: 9130 0b3d 590e b43c aa8c 8bbc 6e40 09bd
000000f0: 279e 78bc 4d43 063d 887d 9bbc c48e 0d3d
00000100: 7d40 d13c c0c7 d83b 5c45 d6bc 6949 00bd
00000110: a9d6 07bd 8c04 b0bc 8f8c fabc 1aaa 98bc
00000120: cfa6 a8b9 1185 05bd dba5 abbc 530b bdbc
00000130: aef7 1b3d b76a 633c 91ce eb3b ddad 673c
00000140: dab5 6e3c d64a 05bd a5ee f9bc 5fc3 95bc
00000150: d35a f6bc ec86 c13c 5bdc 6d3c cbe4 75bb
00000160: cea4 053c 9b40 a43c b044 b83c a9ce 21bd
00000170: fe73 213d d609 76bc b33c 9fbc 4c95 1dbd
00000180: e127 9c3c 8a78 13bb addb 6ebc adcc 123d
00000190: 0d5b d23c be5b 12bc 994d 1b3c 96e8 0fbc
000001a0: d509 bcbc 4c44 fa3c bfa9 50bc 42f8 b43c
000001b0: ffdb 253d a029 133d 042c 9f3b fd66 c23c
000001c0: 6a10 863c e49a 1d3d a877 083d fa4b aa3b
000001d0: 4cd5 8a3c b279 d53c f494 323c e64b 0cbb
000001e0: 436d e2bc 3bd1 7bbc f356 07bd 8342 1a3c
000001f0: 5eaf 1a3d c5cd 28bd 5198 8fbb 7119 3b3c
00000200: 0493 af3c f81d 043d 294e 033d 0559 aabc
00000210: 9426 043d 7f32 b83c c0bb f3bc 17ab f03c
00000220: a3f3 09bd c64c 1cbd ffab c2bb 1e9c ba3c
00000230: 765b 103d 30d4 d9bc b8ea fabc c9be 273d
00000240: ed11 0a3d c335 a0bc 9eb4 6dbc 4dc6 fe3c
00000250: a035 243d 6163 b03b 86a9 ceba 9bf0 943b
00000260: 58ca 05bd 443e 553c 7fbe 4f3c 706a 3abc
00000270: 51fa 793c a4ef 16bd 8d9e c63b 50d4 f0bc
00000280: f06e 24bd fcc9 b8bc b6d8 01bd 3bac a53c
00000290: 3056 ae3c d6d2 083d 2060 60bb 062f c93c
000002a0: 4f3b afbc d15a dd3c 1611 89bc ffda 183d
000002b0: ba50 133d 84ab babc a08f 123d 1e65 47bc
000002c0: 5404 bcbc 0597 14bc 98d7 8cbc f8e3 12bd
000002d0: 8bbb c0ba 5308 dc3b 2e2d 5e3c 5980 bfbc
000002e0: 695a c43c 163b e03c b25a 9ebc 7c6b 9c3a
000002f0: 09fd 703b c500 22bd 0ec1 76bc f8ad 7cbb
00000300: e976 7d3c e1ff a7bc 211b cdba 3cbf afbc
00000310: 3175 963c 38cc 3b3b 9d34 25bc abb9 c2bc
00000320: 62f2 0c3d d91e bb3c 696e 0fbd 1f50 19bd
00000330: f257 c5bb ddce acba 78aa b3bc bad8 053d
00000340: 9fa2 a6bc 465d f8bc b58a 123d fb4c 0d3d
00000350: c044 0f3d a760 0b3d 3dd1 a8bc 8df2 4a3c
00000360: 04d0 5fbb 3137 fbbc 47cc 6e3c 0b15 113d
00000370: f80c 143d 52cb 44bc 4887 ec3c 84b9 9bbc
00000380: 8517 283d 791a 183c fe2b 393c b5e6 8c3b
00000390: f89f a8bc 01ec 05bd fd21 213c bf04 1d3c
000003a0: c82a 04bd 275d 993c 469b d63c d4a8 163d
000003b0: 6dd6 ab3c 3b65 87bc 6984 083c 54aa 8abc
000003c0: a586 a33c eb78 16bb c574 03bd 4bf9 8f3b
000003d0: ed39 96bc adf3 d63b be4a aa3c ee14 9ebc
000003e0: 5b4b 76bc 5ea7 8339 ab0f 16bd fd03 28bc
000003f0: 2d93 003b ddef b03c de3d 66bc c174 6d3c

encoder.4.bias f4 [128]
-0.0062938677 -0.007338484 -0.011416189 0.01608473 0.039933674 -0.017276105 0.025371036 -0.007370641
-0.02272765 0.03287096 0.03331459 0.016629595 -0.014460931 0.0127207395 -0.0008856657 0.009521781
0.034547087 -0.03417577 0.02743538 -0.0016825265 -0.028312376 0.026838804 -0.0361139 0.036359064
-0.03914308 -0.01747188 -0.016641794 -0.022438854 -0.027629225 -0.032422055 0.0047048507 -0.0039684484
-0.012572409 -0.028937101 0.0031508084 -0.024414217 -0.028725272 -0.016360568 -0.02906885 0.04016575
-0.009765538 0.0142257055 -0.010506177 -0.038590178 -0.013579194 0.037970576 0.01931789 -0.026047353
-0.03167408 0.018942948 -0.0037424506 -0.016949736 -0.011388869 -0.017861146 -0.005533274 0.022107894
-0.008466034 -0.034126896 -0.02842239 0.020646993 0.022647025 0.0031991575 0.0028133646 -0.019307837
-0.03583004 -0.01916642 -0.02450171 7.462235e-05 0.027069734 0.020532655 0.02920977 0.0037273734
0.019966524 0.00911239 0.0108871525 0.029426677 -2.5696207e-05 -0.004475115 -0.0071572415 0.04126895
0.0056735137 0.037283022 -0.02620934 0.0011697963 0.038442932 -0.039462704 -0.00942838 -0.024642196
0.019692237 -4.5034267e-05 -0.0014885904 -0.0012461166 0.030411476 0.008118762 -0.0064629554 -0.0053116973
0.04065212 0.0033228018 0.040480625 -0.004060258 -0.029411187 -0.00066523365 -0.025990078 0.029390825
0.013666785 0.012676045 -0.0029437633 0.018543942 0.0026672033 -0.005888159 0.014451986 -0.0076562916
0.024403218 -0.003856945 -0.02700789 -0.040377554 0.007137971 0.019732513 -0.025872722 0.010410916
0.025048507 0.03282965 0.015817966 0.04143265 0.004471954 0.019560652 -0.033679992 0.019932175
00000000: ca3c cebb aa77 f0bb f80a 3bbc 20c4 833c
00000010: 7e91 233d 9e86 8dbc ebd6 cf3c 6b85 f1bb
00000020: 562f babc b3a3 063d e174 083d ca3a 883c
00000030: 8aed 6cbc a66a 503c 052c 68ba 3e01 1c3c
00000040: 3f81 0d3d e4fb 0bbd 29c0 e03c 3988 dcba
00000050: 5bef e7bc 0ddd db3c 2bec 13bd 3eed 143d
00000060: 7f54 20bd 3021 8fbc 5f54 88bc b0d1 b7bc
00000070: af56 e2bc fdcc 04bd 262b 9a3b c209 82bb
00000080: 81fc 4dbc 800d edbc cb7d 4e3b 5300 c8bc
00000090: 4351 ebbc 9906 86bc cc21 eebc d784 243d
000000a0: a3ff 1fbc ef12 693c 1a22 2cbc bc10 1ebd
000000b0: 457b 5ebc 0987 1b3d 8d40 9e3c 4261 d5bc
000000c0: aebc 01bd 3e2e 9b3c e743 75bb 2cda 8abc
000000d0: 6198 3abc 8a51 92bc 7750 b5bb 9d1b b53c
000000e0: 1fb5 0abc a5c8 0bbd 12d6 e8bc e223 a93c
000000f0: 4186 b93c f5a8 513b 6d60 383b 782b 9ebc
00000100: 85c2 12bd e502 9dbc cfb7 c8bc 927e 9c38
00000110: 59c1 dd3c 1934 a83c 5449 ef3c f346 743b
00000120: d690 a33c 224c 153c 0760 323c 3710 f13c
00000130: 2f8e d7b7 fca3 92bb 4b87 eabb a109 293d
00000140: e2e8 b93b 15b6 183d f8b4 d6bc da53 993a
00000150: 5676 1d3d a5a3 21bd 7e79 1abc 6ede c9bc
00000160: 9d51 a13c 2de3 3cb8 ce1c c3ba bc54 a3ba
00000170: 7d21 f93c 8e04 053c 33c7 d3bb bf0d aebb
00000180: d682 263d 5dc3 593b 03cf 253d ea0b 85bb
00000190: bbef f0bc 1363 2eba 25e9 d4bc 07c5 f03c
000001a0: a7ea 5f3c 30af 4f3c 27ec 40bb 77e9 973c
000001b0: 3fcc 2e3b 75f1 c0bb 06c8 6c3c a1e1 fabb
000001c0: 42e9 c73c cdc4 7cbb a73f ddbc ef62 25bd
000001d0: a4e5 e93b 14a6 a13c 08f3 d3bc 8c92 2a3c
000001e0: 8732 cd3c 6278 063d ae94 813c 48b5 293d
000001f0: 7889 923b a93d a03c 08f4 09bd cd48 a33c

encoder.5.weight f4 [128]
1.0006065 0.9990591 1.0007589 1.0003257 1.0001318 0.99961996 0.999426 0.9994291
1.0005705 0.9994906 1.0004354 0.9998136 0.999305 0.99947035 0.9995616 1.0006058
0.9993565 1.0006061 0.99919516 0.99966455 1.0002431 0.99942654 1.0008274 1.0001073
0.99907744 1.0001491 0.9993357 0.99974453 0.9992477 0.9997909 1.0008665 1.0006459
0.99970937 0.99963635 0.99982685 0.99953926 1.0006692 1.0004051 0.99957526 0.9995825
0.999249 1.0008258 0.9992711 0.9997954 0.9993613 0.9996076 1.000864 1.0008794
1.000301 1.0002004 0.9990884 1.0005811 0.9994298 1.0003896 1.0005976 1.000361
1.0008274 1.0003474 1.000266 1.000776 1.000317 0.99975955 1.0004815 0.9999441
0.9994513 0.999171 1.0002679 0.9996828 1.000315 1.000192 0.99987423 0.99925125
1.0002342 0.9994164 1.0002843 1.000697 0.99967813 1.0004138 0.9995402 1.0000324
1.0005256 1.0000134 1.0003552 1.0009784 0.9994866 1.0000349 1.0000793 0.9995418
0.9992753 0.99990064 0.9994844 1.000756 0.99972785 0.99929875 0.9995391 1.0000658
1.000297 1.0004988 1.0000385 1.000389 1.0004957 1.0008438 0.99938285 1.0007509
0.99947613 1.0000376 1.0001893 1.0003645 0.99942917 1.0000873 0.9996967 0.9991335
1.000756 0.9997516 0.9989733 1.0008203 1.0003846 0.99915165 1.0006771 1.001042
1.0005205 0.99983937 0.9993288 0.9998567 1.0009894 0.9999295 1.0003312 0.9999629
00000000: e013 803f 56c2 7f3f de18 803f ac0a 803f
00000010: 5204 803f 18e7 7f3f 62da 7f3f 96da 7f3f
00000020: b212 803f 9ede 7f3f 440e 803f c9f3 7f3f
00000030: 74d2 7f3f 4add 7f3f 45e3 7f3f da13 803f
00000040: d4d5 7f3f dc13 803f 41cb 7f3f 04ea 7f3f
00000050: f707 803f 6bda 7f3f 1d1b 803f 8403 803f
00000060: 8ac3 7f3f e304 803f 77d4 7f3f 42ef 7f3f
00000070: b3ce 7f3f 4cf2 7f3f 651c 803f 2a15 803f
00000080: f4ec 7f3f 2be8 7f3f a7f4 7f3f cee1 7f3f
00000090: ee15 803f 460d 803f 2ae4 7f3f a4e4 7f3f
000000a0: c8ce 7f3f 0f1b 803f 3bd0 7f3f 97f2 7f3f
000000b0: 24d6 7f3f 49e6 7f3f 501c 803f d11c 803f
000000c0: dd09 803f 9106 803f 42c4 7f3f 0b13 803f
000000d0: a2da 7f3f c40c 803f 9513 803f d40b 803f
000000e0: 1d1b 803f 620b 803f b708 803f 6e19 803f
000000f0: 630a 803f 3ef0 7f3f c70f 803f 56fc 7f3f
00000100: 0adc 7f3f acc9 7f3f c708 803f 36eb 7f3f
00000110: 520a 803f 4b06 803f c2f7 7f3f eece 7f3f
00000120: ad07 803f c1d9 7f3f 5109 803f d716 803f
00000130: e8ea 7f3f 8f0d 803f dee1 7f3f 1001 803f
00000140: 3911 803f 7000 803f a40b 803f 0f20 803f
00000150: 5bde 7f3f 2501 803f 9902 803f f9e1 7f3f
00000160: 82d0 7f3f 7df9 7f3f 36de 7f3f c618 803f
00000170: 2aee 7f3f 0bd2 7f3f cbe1 7f3f 2802 803f
00000180: bb09 803f 5810 803f 4301 803f bf0c 803f
00000190: 3e10 803f a61b 803f 8ed7 7f3f 9b18 803f
000001a0: abdd 7f3f 3b01 803f 3406 803f f20b 803f
000001b0: 97da 7f3f dc02 803f 1fec 7f3f 37c7 7f3f
000001c0: c618 803f b9ef 7f3f b7bc 7f3f e11a 803f
000001d0: 9a0c 803f 67c8 7f3f 3016 803f 2522 803f
000001e0: 0e11 803f 79f5 7f3f 03d4 7f3f 9cf6 7f3f
000001f0: 6c20 803f 61fb 7f3f da0a 803f 92fd 7f3f

encoder.5.bias f4 [128]
6.4824584e-05 -0.0008617241 -0.00043105698 0.0003739832 0.0003283237 -0.00017062943 -1.6216372e-05 0.00080680946
0.0004974192 0.0009921996 0.00046919577 -0.00015624474 -0.0001462813 -0.00031206457 0.00060463115 0.00075620925
0.0005141757 0.00082968763 -0.00068571273 1.2979343e-05 0.00033530866 -0.0006951182 0.00045338698 -0.00047290538
-0.00068092917 0.00040363704 -0.0006607119 0.00012336278 -0.00046391384 -0.0007695828 0.00081169704 -9.410414e-05
-2.0510148e-05 -0.0003361544 -0.00030092467 -0.0005087091 0.00034414264 -0.00083626027 -0.0009807611 0.00015048072
-5.375908e-05 -0.00026680567 -0.0009791277 -0.0006806072 -0.00063601567 -0.00081051537 -0.0007808581 0.0007672174
0.0005148449 0.00055994565 -0.0008830244 -0.000834585 -0.00015496791 0.00055990694 0.0005826738 0.00059671066
0.00023653443 -0.000120986464 -0.00085528975 0.00042152978 -0.00039748245 -4.940761e-05 0.00079097634 -0.00019741367
-0.00045945717 -0.00076923217 -0.00082042103 0.0007283044 -0.00015550278 0.0006741748 -5.407728e-05 0.00018938683
-3.0312267e-05 -0.00020859158 -9.746009e-05 0.0004971538 4.0267078e-05 0.00014567722 -3.4743207e-06 3.554826e-05
0.0005312192 -0.0004616831 -0.00017215268 -3.5936733e-05 -0.0003741814 9.38292e-05 -4.4122484e-05 -0.0007992074
0.00012976152 -0.0002682661 -9.8224904e-05 0.0005445567 -0.00075649354 -0.0006249915 -0.00062338606 -0.00056915917
-4.0754327e-05 0.00072919595 0.00041374465 -0.00041678964 -0.0002472816 0.000590368 -5.0878247e-05 0.00084036146
-0.0003527184 -2.3678398e-05 0.00075333734 -0.00066145096 -0.0007180013 1.348976e-05 0.00024538583 -0.00043024038
-0.00012806922 -0.000676719 0.00016950288 0.0002596133 0.00016323556 -0.00087327557 0.0007836019 -0.00031293053
-0.00013023202 -5.140547e-05 0.0009453656 0.00012831397 0.0005714783 -0.0005379532 -0.00029290662 0.0002990981
00000000: 6ff2 8738 53e5 61ba 7dff e1b9 2d13 c439
00000010: dc22 ac39 fdea 32b9 6508 88b7 1180 533a
00000020: 3d65 023a b20c 823a 64fe f539 a1d5 23b9
00000030: 1663 19b9 999c a3b9 1c80 1e3a 583c 463a
00000040: bfc9 063a 657f 593a 67c1 33ba dbc1 5937
00000050: 5ecc af39 9838 36ba 92b4 ed39 49f0 f7b9
00000060: 6280 32ba 3f9f d339 a033 2dba f25a 0139
00000070: 7639 f3b9 d4bd 49ba 11c8 543a c759 c5b8
00000080: 350d acb7 e13d b0b9 6dc5 9db9 e45a 05ba
00000090: 0b6e b439 7a38 5bba e28c 80ba 5cca 1d39
000000a0: 5f7b 61b8 0de2 8bb9 1356 80ba c76a 32ba
000000b0: 4aba 26ba c478 54ba 80b2 4cba 171f 493a
000000c0: a8f6 063a 51c9 123a c47a 67ba 0dc8 5aba
000000d0: e27e 22b9 b8c6 123a 94be 183a 936c 1c3a
000000e0: 3a06 7839 1dba fdb8 8635 60ba c500 dd39
000000f0: 3165 d0b9 043b 4fb8 8659 4f3a d400 4fb9
00000100: 4ce3 f0b9 4ca6 49ba 8611 57ba aeeb 3e3a
00000110: 760e 23b9 1bbb 303a 0ad1 62b8 2496 4639
00000120: 1947 feb7 60b9 5ab9 7d63 ccb8 6d53 023a
00000130: 72e4 2838 eec0 1839 6028 69b6 a719 1538
00000140: 8441 0b3a 0f0e f2b9 e283 34b9 c6ba 16b8
00000150: c72d c4b9 2bc6 c438 2810 39b8 e781 51ba
00000160: 9810 0839 11a6 8cb9 18fe cdb8 95c0 0e3a
00000170: 6c4f 46ba 78d6 23ba bb6a 23ba a033 15ba
00000180: a0ef 2ab8 8327 3f3a deeb d839 8f84 dab9
00000190: 93a5 81b9 edc2 1a3a 1a66 55b8 b44b 5c3a
000001a0: 10ed b8b9 f9a0 c6b7 9d7b 453a 3965 2dba
000001b0: 4038 3cba 1452 6237 21a7 8039 e391 e1b9
000001c0: 524a 06b9 d865 31ba 95bc 3139 b51c 8839
000001d0: 362a 2b39 88ec 64ba a26a 4d3a d310 a4b9
000001e0: e48e 08b9 349c 57b8 69d2 773a 058c 0639
000001f0: 42cf 153a 6e05 0dba 4391 99b9 44d0 9c39

encoder.5.running_mean f4 [128]
0.1357018 0.029811637 0.10376154 0.46269497 -0.63097686 -0.38969514 1.0527617 0.4265284
0.16838758 0.19675457 0.42172122 0.20390752 -0.23436935 -0.41892675 0.33886173 -0.5549547
-0.23338255 0.15506741 -0.014851744 -0.19715296 -0.13054876 0.041539133 -0.2718015 0.32794076
0.063967295 -0.30897936 0.3185421 -0.6485165 -0.38484946 0.14607115 0.3291481 0.47879925
0.3249235 0.25716788 -0.1355196 0.3090599 -0.10530595 0.083186574 0.30261335 -0.1009149
-0.16860178 -0.05206924 -0.057313927 0.0514329 -0.001530694 -0.21671076 0.2706153 0.121739306
-0.22248545 0.029875059 -0.34183338 0.6161108 0.31260931 -0.49396673 -0.05680432 0.09696555
0.09154602 0.023037793 0.023656039 0.43359175 0.33793518 -0.25718144 0.27433592 0.62183875
0.25489208 -0.109924935 -0.080429286 -0.40207386 -0.16194257 0.057833567 0.34313208 -0.06493593
0.46351436 -0.2169117 -0.1194816 -0.09604205 -0.23557493 -0.14698519 -0.24031258 0.42452022
-0.2037036 0.37133318 0.020761952 0.18388265 -0.15926093 0.09162905 -0.2629738 0.22862473
-0.16733544 -0.2565662 -0.20662916 0.5982335 0.17350513 -0.23692758 -0.056881197 -0.09999657
0.20104794 -0.13920332 -0.2038727 0.2677145 0.30464542 0.23137636 -0.47264555 -0.5859062
-0.18622285 0.06368177 -0.056955054 0.09174204 -0.31171298 0.23765719 0.40293473 0.36147255
0.4308845 0.2419996 -0.30608568 -0.042411793 -0.3974861 0.018387448 -0.4718713 0.46237502
0.33291805 0.058844093 0.103179514 -0.14846878 0.16118637 -0.07816567 -0.49521896 -0.21302162
00000000: 6af5 0a3e 8937 f43c ee80 d43d 5be6 ec3e
00000010: b387 21bf 1f86 c7be e5c0 863f ee61 da3e
00000020: cb6d 2c3e 087a 493e d8eb d73e 22cd 503e
00000030: 85fe 6fbe 917d d6be 497f ad3e 8311 0ebf
00000040: d6fb 6ebe fec9 1e3e bb54 73bc 77e2 49be
00000050: 93ae 05be f024 2a3d 9129 8bbe dae7 a73e
00000060: 4901 833d 8b32 9ebe f317 a33e 2d05 26bf
00000070: fd0a c5be ad93 153e 1a86 a83e 2d25 f53e
00000080: 5f5c a63e 82ab 833e a6c5 0abe 193d 9e3e
00000090: a5aa d7bd b95d aa3d 23f0 9a3e 79ac cebd
000000a0: f2a5 2cbe 8e46 55bd 02c2 6abd 4eab 523d
000000b0: 91a1 c8ba 6de9 5dbe 178e 8a3e 7552 f93d
000000c0: 3ad3 63be 8abc f43c c904 afbe 70b9 1d3f
000000d0: 540e a03e 35e9 fcbe a6ab 68bd e095 c63d
000000e0: 7b7c bb3d c1b9 bc3c 4fca c13c bdff dd3e
000000f0: d705 ad3e 49ad 83be c275 8c3e d330 1f3f
00000100: 3781 823e 5320 e1bd 1cb8 a4bd a0dc cdbe
00000110: 46d4 25be e4e2 6c3d 02af af3e 21fd 84bd
00000120: c151 ed3e 1a1e 5ebe c5b2 f4bd b2b1 c4bd
00000130: 8e3a 71be 4983 16be 8014 76be b75a d93e
00000140: ad97 50be 621f be3e f814 aa3c bc4b 3c3e
00000150: 4c15 23be 03a8 bb3d 80a4 86be 9a1c 6a3e
00000160: fb59 2bbe a55c 83be 9896 53be d525 193f
00000170: 54ab 313e 259d 72be 42fc 68bd 00cb ccbd
00000180: 83df 4d3e 518b 0ebe 01c4 50be e011 893e
00000190: 7cfa 9b3e eded 6c3e 99fe f1be f3fd 15bf
000001a0: 34b1 3ebe 966b 823d b449 69bd 40e3 bb3d
000001b0: d898 9fbe 685c 733e 764d ce3e ee12 b93e
000001c0: e59c dc3e bece 773e 43b7 9cbe fdb7 2dbd
000001d0: 4c83 cbbe 46a1 963c 1d99 f1be 6bbc ec3e
000001e0: 3c74 aa3e 8106 713d c84f d33d 3308 18be
000001f0: 0a0e 253e 5315 a0bd 578d fdbe 5722 5abe

encoder.5.running_var f4 [128]
0.074848205 0.05841208 0.07486584 0.18376443 0.3437766 0.20776932 0.37150112 0.21177167
0.10864018 0.66217417 0.120876305 0.31249955 0.11761512 0.11275364 0.28082716 0.17300029
0.06006519 0.21009006 0.0776425 0.10691299 0.21487552 0.1475142 0.060597755 0.17657273
0.120048515 0.14624228 0.18425195 0.23314129 0.10247688 0.06748057 0.15876089 0.21173887
0.15477428 0.12386282 0.14479761 0.093450114 0.15811318 0.06456592 0.19358146 0.055768754
0.0836671 0.12752491 0.11606666 0.13661698 0.09651671 0.16441132 0.06160969 0.14342989
0.20683794 0.15785225 0.13316593 0.16807303 0.23845752 0.16225404 0.15379877 0.07066593
0.07373732 0.0947215 0.10716983 0.19829454 0.12232306 0.11646169 0.10082736 0.19130829
0.11533207 0.16560763 0.15666865 0.2090129 0.089204274 0.16634376 0.08884609 0.15522121
0.120252885 0.09502953 0.08042199 0.15819977 0.12356689 0.122257374 0.09771375 0.1306263
0.080246076 0.10369775 0.11175812 0.10090771 0.12058811 0.24366228 0.061559048 0.39059874
0.084454946 0.11752888 0.11606057 0.14294097 0.067414515 0.2003915 0.07047082 0.07033307
0.13747527 0.19074658 0.21451572 0.17170623 0.2072483 0.2783203 0.12064051 0.23428358
0.06821867 0.1899383 0.11820273 0.26406333 0.1637471 0.07359327 0.22168371 0.27405986
0.07294755 0.20083585 0.1627303 0.07861876 0.105368964 0.11609269 0.1859982 0.10615374
0.076522335 0.11447985 0.12525529 0.1291328 0.09089685 0.0794593 0.13400713 0.20329677
00000000: 044a 993d 8141 6f3d 4353 993d be2c 3c3e
00000010: 7d03 b03e 7bc1 543e 6535 be3e acda 583e
00000020: be7e de3d 3f84 293f ff8d f73d f1ff 9f3e
00000030: 32e0 f03d 61eb e63d 94c8 8f3e fd26 313e
00000040: eb06 763d d921 573e 0803 9f3d 33f5 da3d
00000050: 5408 5c3e f60d 173e 5a35 783d 7bcf 343e
00000060: ffdb f53d 89c0 153e 8bac 3c3e 97bc 6e3e
00000070: 66df d13d 4133 8a3d 3792 223e 13d2 583e
00000080: 267d 1e3e caab fd3d d345 143e c662 bf3d
00000090: 6ce8 213e 233b 843d 383a 463e c76d 643d
000000a0: a859 ab3d e495 023e 5bb4 ed3d 52e5 0b3e
000000b0: 8eaa c53d 715b 283e 715a 7c3d 49df 123e
000000c0: 53cd 533e 05a4 213e a65c 083e 561b 2c3e
000000d0: 352e 743e ec25 263e 6d7d 1d3e 4db9 903d
000000e0: 9803 973d 59fd c13d db7b db3d b90d 4b3e
000000f0: 8384 fa3d 7783 ee3d 937e ce3d 52e6 433e
00000100: 3833 ec3d 0c95 293e bf6d 203e 7a07 563e
00000110: bbb0 b63d 0556 2a3e f0f4 b53d 4ff2 1e3e
00000120: 2547 f63d d89e c23d 49b4 a43d 1fff 213e
00000130: a310 fd3d 1362 fa3d 261e c83d e7c2 053e
00000140: 0e58 a43d 7c5f d43d 71e1 e43d b4a8 ce3d
00000150: e6f6 f63d 9b82 793e 5725 7c3d 8ffc c73e
00000160: b7f6 ac3d fbb2 f03d 2ab1 ed3d 1e5f 123e
00000170: 9f10 8a3d 6e33 4d3e 0153 903d c90a 903d
00000180: 51c6 0c3e 1253 433e 02aa 5b3e c2d3 2f3e
00000190: e638 543e 0080 8e3e 5f12 f73d 09e8 6f3e
000001a0: 3bb6 8b3d 307f 423e 4614 f23d 4f33 873e
000001b0: 52ad 273e 11b8 963d 0e01 633e 9351 8c3e
000001c0: 8665 953d eaa7 4d3e c6a2 263e df02 a13d
000001d0: afcb d73d 01c2 ed3d 5076 3e3e 2267 d93d
000001e0: beb7 9c3d 6974 ea3d ec42 003e 643b 043e
000001f0: 2128 ba3d 8fbb a23d 2a39 093e 072d 503e

decoder.0.weight f4 [64, 128, 3, 3]
0.024150705 0.009084996 -0.00812603 -0.013741261 0.00824532 0.01695893 0.012821694 0.020410966
0.0068162833 0.008846942 0.019143738 -0.007659392 -0.0039201193 0.028270338 -0.01865785 -0.014059507
0.0051921476 -0.024647567 0.024373792 -0.000574883 -0.019412506 0.010148566 0.016708996 0.01566986
-0.019226953 0.009334062 0.015770994 0.012892294 -0.021379825 0.0031618248 0.020515205 0.009124868
-0.016673222 -0.0122213615 -0.013214594 -0.011606683 0.024821803 0.011648341 -0.020751357 -0.015708584
-0.0020653931 0.01224447 -0.02236799 -0.0012169019 -0.00088228565 -0.010614467 -0.011037196 0.02879813
-0.018195337 -0.026998686 -0.010361954 0.0044980654 0.020946037 -0.023713795 -0.020250639 0.012027507
-0.011682617 0.008737792 0.0014963698 0.017859284 -0.00066336925 0.009643509 0.017517991 -0.011583677
0.010250986 -0.0115141645 -0.017393686 -0.025082702 -0.018251073 0.02281629 -0.008506009 -0.022911385
-0.028515615 -0.026385492 0.0140484935 0.02109636 -0.008890237 0.013968647 0.015428657 0.002022749
-0.011552526 0.012889827 -0.017897416 -0.022866981 -0.017382296 0.020309933 -0.02784438 0.0153583195
0.028067892 0.019704815 -0.02803122 -0.026929371 -0.0019287644 0.014559704 -0.024455322 0.012221451
-0.010125975 -0.0062053255 -0.022695448 -0.02476629 0.01102378 0.024410743 0.018569024 0.010051572
0.024586113 0.009067492 0.008297419 -0.02775949 -0.014562069 -0.017055476 0.00872871 0.013898056
0.020391725 -0.0072853793 0.015887244 0.0029764026 -0.027167639 -0.024559783 0.027055766 0.0058728284
-0.015389733 0.01078968 -0.005114702 0.019306304 0.012368778 0.011912043 0.013773904 -0.025165722
0.027103052 -0.022287712 0.018929383 0.006792193 0.018485975 0.02231375 -0.0036755253 0.018355712
0.013638884 0.00022779132 -0.021139419 -0.029191367 -0.024465693 -0.028535865 -0.018782381 0.026840646
-0.016410979 0.008333139 -0.024256898 0.0024587852 -0.012144743 0.0010452721 0.002540703 -0.012815447
-0.0026712497 0.0034169955 0.0069622356 0.013216427 0.025442712 -0.015150185 -0.02108069 -0.017407224
0.008051022 -0.017778592 -0.024432577 -0.005284999 0.024901377 -0.014768986 0.002673016 -0.015902165
0.018833833 -0.026002102 0.012540087 0.007862192 -0.024286248 0.021760069 -0.019181274 -0.0011752693
0.011893076 -0.022746315 -0.025383187 -0.016538696 -0.006320145 0.010261301 -0.016032176 -0.019542348
0.015324985 0.0030624473 0.02438587 0.0030632296 -0.016531674 0.02972093 -0.02173842 -0.020481143
-0.02686516 0.010276875 -0.0007157561 -0.019373868 0.014711298 -0.0026645928 -0.015072234 0.024624586
0.010792012 0.022839319 -0.016677052 -0.0010981907 0.006326792 -0.020885138 0.028581213 0.020235341
0.025118401 -0.0055697197 -0.0067485296 0.014606075 0.014775467 -0.00030951496 -0.025736693 0.00294074
0.0024326963 -0.005374831 -0.029093506 0.006054186 -0.028167836 0.021335581 -0.01494167 -0.017992048
0.011748181 -0.0012884366 0.002728742 0.022056755 -0.012117324 0.019121965 0.015304965 -0.027489955
0.005595519 0.014061993 0.02715944 0.011425996 0.022469182 0.014410697 -0.014396268 -0.0020377398
0.019644013 -0.007708173 -0.01958649 -0.017666154 -0.018899243 0.01989773 0.0060158265 0.02804207
0.0014171021 -0.020928575 0.01325826 0.021546908 -0.020717917 -0.0020190591 -0.012020869 0.027000094
00000000: b3d7 c53c 3cd9 143c 0a23 05bc 0723 61bc
00000010: 6117 073c 74ed 8a3c 1512 523c e634 a73c
00000020: 215b df3b c4f2 103c 54d3 9c3c a3fb fabb
00000030: 5874 80bb 3297 e73c 59d8 98bc d959 66bc
00000040: e422 aa3b b2e9 c9bc 8cab c73c bfb3 16ba
00000050: fa06 9fbc 2c46 263c 4ee1 883c 145e 803c
00000060: d881 9dbc e5ed 183c 2c32 813c 333a 533c
00000070: be24 afbc 9e36 4f3b 810f a83c 7880 153c
00000080: 4896 88bc 1b3c 48bc 0682 58bc f529 3ebc
00000090: 1857 cb3c afd8 3e3c c0fe a9bc 4aaf 80bc
000000a0: 8c5b 07bb 089d 483c 133d b7bc 7480 9fba
000000b0: 3049 67ba 4de8 2dbc 5bd5 34bc 0eea eb3c
000000c0: 630e 95bc 592c ddbc 2fc5 29bc 8264 933b
000000d0: 0697 ab3c 6f43 c2bc abe4 a5bc 050f 453c
000000e0: 7268 3fbc f528 0f3c d721 c43a a24d 923c
000000f0: f5e5 2dba cfff 1d3c e481 8f3c 76c9 3dbc
00000100: c0f3 273c e8a5 3cbc 347d 8ebc 3d7a cdbc
00000110: 4683 95bc 3ae9 ba3c ca5c 0bbc a8b0 bbbc
00000120: 9499 e9bc 6326 d8bc a72b 663c 46d2 ac3c
00000130: 5ba8 11bc c1dc 643c 7ac8 7c3c 1990 043b
00000140: ce46 3dbc da2f 533c 9a9d 92bc 8953 bbbc
00000150: 5165 8ebc 0461 a63c e619 e4bc 76a1 7b3c
00000160: a3ee e53c fe6b a13c bba1 e5bc fc9a dcbc
00000170: 98ce fcba d38b 6e3c 8756 c8bc 7b3c 483c
00000180: 6be7 25bc 0b56 cbbb ceeb b9bc ade2 cabc
00000190: 169d 343c 0af9 c73c 111e 983c 59af 243c
000001a0: d168 c93c d18f 143c e6f1 073c df67 e3bc
000001b0: bf95 6ebc edb7 8bbc dd02 0f3c acb4 633c
000001c0: 8c0c a73c 31ba eebb f725 823c c00f 433b
000001d0: ab8e debc 9931 c9bc 0ea4 dd3c db70 c03b
000001e0: 3825 7cbc 33c7 303c 3b99 a7bb 4128 9e3c
000001f0: 6aa6 4a3c bb2a 433c f1ab 613c 5828 cebc
00000200: 3807 de3c b894 b6bc cb11 9b3c 0b91 de3b
00000210: e66f 973c 53cb b63c 15e1 70bb b85e 963c
00000220: a075 5f3c 44db 6e39 932c adbc bc22 efbc
00000230: 476c c8bc 0cc4 e9bc 82dd 99bc eae0 db3c
00000240: 5170 86bc b887 083c 67b6 c6bc 9223 213b
00000250: bffa 46bc 8301 893a ec81 263b e1f7 51bc
00000260: 2210 2fbb acef 5f3b 7723 e43b b689 583c
00000270: 3c6d d03c 7b38 78bc 69b1 acbc 9899 8ebc
00000280: 6fe8 033c 69a4 91bc d426 c8bc c92d adbb
00000290: f9fd cb3c 9ef9 71bc c42d 2f3b 4245 82bc
000002a0: 6949 9a3c 5c02 d5bc f074 4d3c 6cd0 003c
000002b0: f4f3 c6bc 2c42 b23c 0c22 9dbc 7e0b 9aba
000002c0: 2ddb 423c 7b56 babc 67f0 cfbc 297c 87bc
000002d0: 3819 cfbb 041f 283c e955 83bc 4617 a0bc
000002e0: a515 7b3c 57b3 483b e0c4 c73c 77c0 483b
000002f0: 6f6d 87bc 4f79 f33c c514 b2bc 12c8 a7bc
00000300: 5314 dcbc 5760 283c 94a1 3bba f2b5 9ebc
00000310: a807 713c 73a0 2ebb 88f1 76bc 80b9 c93c
00000320: fbd0 303c 8619 bb3c 509e 88bc 2af1 8fba
00000330: fa50 cf3b 4f17 abbc 2623 ea3c 96c4 a53c
00000340: 1bc5 cd3c 3282 b6bb c522 ddbb 524e 6f3c
00000350: cd14 723c 6546 a2b9 c2d5 d2bc 6eb9 403b
00000360: df6d 1f3b 5a1f b0bb 8155 eebc 3162 c63b
00000370: 3cc0 e6bc f5c7 ae3c e8cd 74bc 0f64 93bc
00000380: 717b 403c c2e0 a8ba b2d4 323b 5eb0 b43c
00000390: be87 46bc aba5 9c3c adc1 7a3c 9d32 e1bc
000003a0: 9e5a b73b 4664 663c 797d de3c 1a34 3b3c
000003b0: 4a11 b83c d81a 6c3c 53de 6bbc 9a8b 05bb
000003c0: 7bec a03c d794 fcbb d973 a0bc 9cb8 90bc
000003d0: 96d2 9abc 9000 a33c 6920 c53b 7cb8 e53c
000003e0: 0ebe b93a 6772 abbc 2c39 593c 2483 b03c
000003f0: 9fb8 a9bc 3152 04bb 2ef3 44bc 4d2f dd3c

decoder.0.bias f4 [64]
0.012655406 0.011376596 0.027208205 -0.025735566 -0.007518297 -0.028893951 -0.026215207 0.009362179
-0.013456217 0.008934379 0.0006762222 -0.005587743 -0.0023163112 0.0062770676 0.017616691 0.014485491
-0.011640764 0.029184056 -0.013574135 -0.006323929 -0.024718938 -0.02581336 -0.013362817 -0.011573955
-0.014646809 -0.0008611131 0.01770395 -0.027550349 0.024789846 0.0004663713 -0.023321401 -0.01016903
-0.019464986 -0.010722003 0.016766336 -0.022442456 0.015472697 0.028798 0.02576338 -0.02639746
-0.019781481 -0.012219708 0.0033802295 0.021250797 0.021921447 -0.00022558609 -0.022661759 -0.02321575
-0.00037947964 0.025460623 -0.025276093 0.0034393102 0.015964678 0.011572246 0.020537421 -0.024612896
0.0038102642 0.025690163 -0.018704306 0.0053712046 0.025461445 0.021343889 -0.0017855425 -0.007324358
00000000: 9f58 4f3c e764 3a3c bee3 de3c 65d3 d2bc
00000010: 0c5c f6bb 02b3 ecbc 46c1 d6bc d363 193c
00000020: 7777 5cbc 8061 123c 8144 313a 6319 b7bb
00000030: 41cd 17bb dcaf cd3b e150 903c 8e54 6d3c
00000040: e7b8 3ebc 6713 ef3c 0c66 5ebc f638 cfbb
00000050: 5f7f cabc 8a76 d3bc b7ef 5abc b0a0 3dbc
00000060: 2bf9 6fbc 52bc 61ba e007 913c 45b1 e1bc
00000070: 1314 cb3c 4c83 f439 860c bfbc 019c 26bc
00000080: 0975 9fbc 57ab 2fbc 8e59 893c 3ed9 b7bc
00000090: 3281 7d3c c9e9 eb3c b90d d33c 7c3f d8bc
000000a0: c60c a2bc 2c35 48bc d786 5d3b 2716 ae3c
000000b0: 9b94 b33c 4e8b 6cb9 27a5 b9bc f52e bebc
000000c0: e5f4 c6b9 cc92 d03c cf0f cfbc 0d66 613b
000000d0: 5bc8 823c 8599 3d3c 183e a83c fca0 c9bc
000000e0: a0b5 793b 2d74 d23c c639 99bc ee00 b03b
000000f0: 8594 d03c 61d9 ae3c dd08 eaba 2b01 f0bb

decoder.1.weight f4 [64]
1.000402 1.0006735 1.001033 1.0008639 1.0001255 0.999517 1.000737 1.0006388
1.0000247 1.0003217 0.99909335 0.9997728 1.0004361 0.99974483 1.0006267 1.0008838
0.9990631 0.99973387 0.9995571 1.0000608 0.99931306 1.0008861 1.000866 1.0001907
1.0006 1.0004076 0.9994467 0.9995727 0.9990343 0.9997196 1.0001451 0.99908704
0.99955153 0.99923253 1.000496 1.00021 0.99989897 0.99998796 1.0001265 0.9994204
0.9994552 1.0001845 1.0003752 0.9991216 0.99912095 0.9992356 0.9994962 0.9991577
1.0005556 0.9999352 0.999615 1.0008028 1.0005717 0.999216 0.9995728 0.9990721
0.9996356 1.000939 1.0008565 0.99990153 0.9996269 1.0005003 1.0009378 1.0004547
00000000: 2c0d 803f 1216 803f d921 803f 4f1c 803f
00000010: 1d04 803f 59e0 7f3f 2618 803f ef14 803f
00000020: cf00 803f 8b0a 803f 95c4 7f3f 1cf1 7f3f
00000030: 4a0e 803f 47ef 7f3f 8914 803f f61c 803f
00000040: 99c2 7f3f 8fee 7f3f f9e2 7f3f fe01 803f
00000050: fbd2 7f3f 091d 803f 611c 803f 4006 803f
00000060: a913 803f 5b0d 803f bddb 7f3f ffe3 7f3f
00000070: b6c0 7f3f a0ed 7f3f c104 803f 2bc4 7f3f
00000080: 9ce2 7f3f b4cd 7f3f 4110 803f e206 803f
00000090: 61f9 7f3f 36ff 7f3f 2504 803f 04da 7f3f
000000a0: 4cdc 7f3f 0c06 803f 4b0c 803f 6fc6 7f3f
000000b0: 64c6 7f3f e7cd 7f3f fcde 7f3f cdc8 7f3f
000000c0: 3512 803f c1fb 7f3f c5e6 7f3f 4e1a 803f
000000d0: bc12 803f 9fcc 7f3f 01e4 7f3f 30c3 7f3f
000000e0: 1ee8 7f3f c51e 803f 111c 803f 8cf9 7f3f
000000f0: 8ce7 7f3f 6510 803f bb1e 803f e60e 803f

decoder.1.bias f4 [64]
0.00079056644 0.0009664983 -0.00048124383 0.00028903704 -0.0005295434 0.00013606841 0.0005119886 -5.1386425e-05
0.0006329024 0.00047488266 -0.00086184836 0.00047074468 0.0007132254 0.00013439848 0.000538311 0.0009416702
-0.00070413103 -0.0007299329 -0.00063172786 -0.00089045963 -0.000746237 0.00089332805 -0.0006825732 -0.00061936845
0.00022828382 0.0006697808 -0.0005676571 -0.00059415994 -0.00088839827 -0.00020507265 -4.0681054e-05 -0.00074508373
0.0004994739 -0.00051036384 -0.00092183956 0.00030334436 -0.0008132591 -0.00010516776 0.00038865037 -0.0007841708
-0.0001248142 0.0003863589 -0.00053400086 -0.0008750172 -0.0009560401 -0.00064689515 -0.00032310194 -0.00043423008
-0.0003906756 -0.0010061862 -0.00022923136 -0.0001477317 -0.00035329539 -0.0008974778 -0.00036443793 -0.00066235603
-0.00041058156 0.00052398484 0.00024395458 -0.00066635123 -0.0005720135 0.0008545512 0.0007141491 0.0006896709
00000000: 043e 4f3a 9a5c 7d3a 744f fcb9 e589 9739
00000010: 0ed1 0aba 96ad 0e39 f936 063a c187 57b8
00000020: 5ce9 253a acf9 f839 aaed 61ba 48ce f639
00000030: bff7 3a3a 51ed 0c39 711d 0d3a 6bda 763a
00000040: 6f95 38ba f858 3fba 8a9a 25ba bc6d 69ba
00000050: 1e9f 43ba 3b2e 6a3a b6ee 32ba 1d5d 22ba
00000060: 795f 6f39 3b94 2f3a d3ce 14ba 66c1 1bba
00000070: 66e3 68ba c508 57b9 f3a0 2ab8 b951 43ba
00000080: 20ef 023a f0c9 05ba 9ba7 71ba 310a 9f39
00000090: e530 55ba 838d dcb8 c5c3 cb39 d090 4dba
000000a0: 8fe0 02b9 3790 ca39 31fc 0bba 6961 65ba
000000b0: c49e 7aba 6694 29ba 0266 a9b9 60a9 e3b9
000000c0: 97d3 ccb9 02e2 83ba d35d 70b9 6de8 1ab9
000000d0: 813a b9b9 b744 6bba 0812 bfb9 f6a1 2dba
000000e0: 5343 d7b9 075c 093a 0fce 7f39 13ae 2eba
000000f0: 2df3 15ba f603 603a bc35 3b3a 08cb 343a

decoder.1.running_mean f4 [64]
-0.33076924 -0.5345929 0.6737183 0.1211228 0.19108309 -0.1444296 0.27794027 0.6174725
0.06678817 -0.12744117 -0.08450404 0.019983554 -0.43189308 -0.102248855 -0.00043587192 -0.48449045
-0.41988605 0.20735812 -0.035795677 0.26299077 0.4192334 -0.5640167 0.39180067 0.57413304
-0.13341756 -0.7821718 0.331682 -0.19482964 -0.050975326 -0.09584723 -0.9921267 -0.8509458
0.16810124 -0.95257187 0.35806805 0.8363869 0.3671555 0.013178194 0.19886203 -0.44508624
-0.28571936 -1.1898075 0.68782735 0.3150872 0.47632265 -0.59433836 0.08676778 -0.7403563
0.36436576 0.9409483 -0.052743398 0.261947 0.29548326 0.2907813 -0.40144783 -0.12273352
0.19813067 -0.02741246 -0.08753462 0.007421363 0.39076737 -0.727323 0.27864796 -1.0615705
00000000: 965a a9be 15db 08bf cd78 2c3f 3b0f f83d
00000010: 49ab 433e 5ae5 13be 304e 8e3e ae12 1e3f
00000020: 3cc8 883d f07f 02be 7410 adbd 8db4 a33c
00000030: 1721 ddbe d967 d1bd bd85 e4b9 220f f8be
00000040: 4efb d6be b055 543e 7d9e 12bd baa6 863e
00000050: c3a5 d63e 6663 10bf 199a c83e 62fa 123f
00000060: 9d9e 08be 693c 48bf 39d2 a93e 6c81 47be
00000070: 81cb 50bd 8d4b c4bd 04fc 7dbf 95d7 59bf
00000080: bb22 2c3e c0db 73bf b254 b73e 741d 563f
00000090: cefb bb3e 5ae9 573c 7da2 4b3e 58e2 e3be
000000a0: cf49 92be 9d4b 98bf 7415 303f 1c53 a13e
000000b0: 90e0 f33e 8f26 18bf 4eb3 b13d fe87 3dbf
000000c0: 268e ba3e fde1 703f 7609 58bd eb1d 863e
000000d0: 9549 973e 49e1 943e 928a cdbe b65b fbbd
000000e0: c4e2 4a3e 1890 e0bc 5a45 b3bd e82e f33b
000000f0: a912 c83e d731 3abf f2aa 8e3e 8be1 87bf
