checkpoints/2025-06-02-15-05-54/last_epoch.pth (torch, 686901 bytes, 25 tensors)

encoder.0.weight f4 [64, 3, 3, 3]
000000 c1 23 da bd ca 43 f3 bd 28 e7 7a 3d ff 96 23 bc
       -0.10651351 -0.11878164 0.061255604 -0.009984731
000010 03 2c b4 bd f1 cb f4 bd 7e c6 71 bd f1 6a 6a 3b
       -0.08797457 -0.11952961 -0.059027188 0.0035769308
000020 f0 ed ab bd ec 19 e2 bd a5 ee 79 3c 25 13 7e bd
       -0.08394992 -0.110401005 0.015254651 -0.062029976
000030 c6 43 26 bd 4e 82 f6 bd 0e f1 26 be 11 3c 24 be
       -0.040591978 -0.120365724 -0.16302893 -0.16038539
000040 c5 f4 3e bc 35 6e 06 be 05 88 59 bc 36 cf 1e 3e
       -0.011655037 -0.13127978 -0.0132770585 0.15508732
000050 a3 ba 3b 3e 41 0c 3f bd b9 f7 27 3e 14 6a 38 3e
       0.18332915 -0.046642546 0.16403092 0.18009216
000060 b3 f1 3e 3e f1 9e 83 3c 22 9c a8 3d 86 1a 3f 3e
       0.18646888 0.016067 0.08232905 0.18662462
000070 c5 33 97 3d d9 27 a7 3d 3a 2f ac bd fb b1 41 be
       0.07382921 0.08161897 -0.08407445 -0.1891555
000080 38 29 04 be af e3 dc bd ba 4b a7 bd 43 8b 5f 3c
       -0.12906349 -0.10785615 -0.081687406 0.013644042
000090 77 d4 65 bd 7b c9 38 3e fe f7 14 be b9 5f df 3d
       -0.056110825 0.18045609 -0.14547727 0.109069295
0000a0 66 fc 0d 3e 4d 26 08 3e 09 80 ba 3d b9 4a 27 3e
       0.13865814 0.1329586 0.09106452 0.16337098
0000b0 93 66 75 bd 57 2f 2f be f3 08 45 be 98 50 e5 bc
       -0.059912276 -0.17107902 -0.19241695 -0.027992532
0000c0 d9 90 18 3d a1 fa ee bd 82 62 4c 3d 92 18 0e 3e
       0.037247512 -0.116688974 0.049898632 0.1387656
0000d0 5c eb 23 bd 17 bc 8a 3d b5 49 15 be 35 e8 a3 3d
       -0.040019378 0.067741565 -0.14578898 0.08003274
0000e0 29 dd dd 3d a5 c9 3c be c6 b5 a5 3c 71 47 3c 3e
       0.108331986 -0.18436296 0.020228278 0.18386628
0000f0 db 2f e3 bc b0 55 8a bd 3b 38 09 be 57 34 28 bd
       -0.02773278 -0.06754625 -0.13400356 -0.04106554
000100 34 50 e8 3d 88 59 9d 3d 0e 74 8a 3d e1 03 80 bd
       0.113434225 0.07683092 0.06760417 -0.0625074
000110 d7 42 28 be 83 3c eb bc 71 08 4f 3c 16 1b 17 bc
       -0.16431747 -0.028715378 0.01263629 -0.009222766
000120 ea 2b 78 bd c2 fd bf 3d cd 20 79 3d 12 70 da 3d
       -0.060588755 0.09374572 0.060822297 0.10665907
000130 58 73 21 3e f4 81 07 be b6 93 08 3e 2b 13 10 bd
       0.15766656 -0.13233167 0.13337597 -0.03517453
000140 31 dc 05 3e a1 51 0a be 9d ee 90 bd 94 99 41 3e
       0.13072278 -0.13507701 -0.07076762 0.18906242
000150 88 30 ee 3d ab af 90 bd 4c 0c 16 3e 3c 0f c9 3d
       0.1163035 -0.07064756 0.14653128 0.09817359
000160 7f 67 a7 3d e0 8c 14 be 51 0b 33 be 66 6a 2e 3e
       0.08174037 -0.14506865 -0.17484786 0.17032775
000170 ab bd 00 3e af 24 3f be f2 ed 19 3e 7d ea c7 bc
       0.12572353 -0.18666337 0.15032175 -0.024403805
000180 16 46 fb bd 3e 66 99 bc 7f 18 ad 3d c4 43 fe bd
       -0.12269227 -0.01872551 0.08451938 -0.12415269
000190 0e 35 59 bd 95 e6 24 bc 69 25 3f be d6 6d c2 3b
       -0.053029113 -0.010064741 -0.18666615 0.0059335036
0001a0 db 80 e6 3d 1f 7e f4 3d be 1a d6 bd e6 8c 09 3e
       0.11255046 0.11938118 -0.104543194 0.13432655
0001b0 dd d9 24 3d 8c 6c 2c 3e b3 dd 07 3e 2f 4f df bd
       0.040246833 0.16838282 0.13268165 -0.10903775
0001c0 8b 8f 10 3e ac 53 bd bd 27 bf 4a 3c c8 1f d2 bd
       0.14117257 -0.09244475 0.012374676 -0.10259968
0001d0 ee 0d b7 3d 2d de 90 bc 0f 0f 27 3e aa 29 b0 bd
       0.08938204 -0.017684067 0.16314338 -0.08601697
0001e0 2b 8b a9 bd 52 e6 ef 3d 25 16 76 bd fc 3d f0 3c
       -0.08278497 0.11713852 -0.060079712 0.029326431
0001f0 4d a5 1b be 27 61 0b be 10 47 1b 3e 46 7f 19 3e
       -0.15199776 -0.1361128 0.15163827 0.14989957
000200 09 ba 1d be 01 da 3d bd 98 b9 1b 3e 3f 08 23 3e
       -0.15402998 -0.046350483 0.15207517 0.15921114
000210 a8 09 32 be dc 4c 2e be b8 8b ca bd 87 11 1d be
       -0.17386496 -0.17021507 -0.098899305 -0.15338717
000220 4b d0 61 3d ba 7e c7 bd 99 6f 2b 3e a5 e3 ac bd
       0.055130284 -0.09740968 0.1674179 -0.08441857
000230 f0 80 95 3c 43 c2 60 bc d0 78 26 be e6 e2 2e be
       0.018249959 -0.013718191 -0.16257024 -0.17078742
000240 44 de 27 3e 3c c4 87 3d 57 ca ea bd 98 7c 06 3e
       0.16393381 0.066292256 -0.114643745 0.13133466
000250 5d 09 d8 3d 84 fa f2 3d 3f ea 38 3c 82 b6 3e 3e
       0.10548661 0.11864188 0.011286317 0.18624309
000260 c4 3c ce 3c 5d 34 f2 bd 9d 01 0d be d2 4d 88 3d
       0.02517546 -0.11826394 -0.13770147 0.06655468
000270 cf 0d ad 3d bd 20 17 be 28 ed 11 3d 97 19 08 be
       0.084498994 -0.14758582 0.03562656 -0.13291012
000280 1a 34 65 bd 12 34 ff 3d 2c 11 34 3e 0d ec 94 bd
       -0.05595789 0.124611035 0.17584676 -0.072715856
000290 a9 f2 08 be bc 30 46 bd 22 b7 7b bd 83 6c 01 be
       -0.13373818 -0.04838632 -0.061453946 -0.1263905
0002a0 5a 49 3d 3e ea 8d 0d be 87 aa cb bd 5a c3 4f 3d
       0.18485013 -0.13823667 -0.09944635 0.05072341
0002b0 2d e7 f0 bd a1 80 1b be d3 ae 1a be 4d 1f 13 3c
       -0.11762843 -0.15185787 -0.15105753 0.008979631
0002c0 cb 5d 3e 3e a7 ca 40 be 4d 6c 63 bd 33 bb b1 ba
       0.18590467 -0.18827306 -0.055523206 -0.0013559818
0002d0 2a 1a 5d 3d 5d cf 14 3d 17 e5 14 3d 41 02 05 bc
       0.05398003 0.03633057 0.03635129 -0.008118213
0002e0 f8 39 ab bd 77 bf f9 bd ad b9 34 3e 7a 2e 08 be
       -0.08360666 -0.12194722 0.17648955 -0.1329898
0002f0 59 f1 0c be 1c ad 08 be 6b 7f 63 3d 75 f4 41 be
       -0.13763942 -0.13347286 0.055541437 -0.18940909
000300 76 25 e2 3d dd cb 9d 3d 35 f7 db 3d 27 b3 c7 3c
       0.11042301 0.077048995 0.107405104 0.024377419
000310 e0 88 01 be c4 96 81 bd 2a 02 00 be c8 5b 34 be
       -0.1264987 -0.063275844 -0.12500826 -0.17613137
000320 83 07 3d be 13 a9 ef bd e4 b4 23 3e bb dc 2d 3e
       -0.18459897 -0.1170217 0.15986973 0.16978733
000330 32 aa 15 be eb 8f 12 3e ae 5f 1c bd 24 24 94 bd
       -0.14615706 0.14312713 -0.038177185 -0.07233456
000340 ec a9 0d be b1 bd e7 bc 31 b0 bb 3d 6c 68 19 be
       -0.13834351 -0.028288694 0.09164465 -0.1498124
000350 4b 3c c9 bd 54 7b 68 bc 75 81 6d 3d 41 87 65 bd
       -0.09825953 -0.01418956 0.057984788 -0.05603719
000360 ca 20 72 bd 03 0f 47 3d 93 fb 39 3e fe 04 1e be
       -0.0591133 0.0485983 0.18162374 -0.15431592
000370 85 eb 58 3d 60 85 32 3d 1f d2 8c bc 96 b3 51 bd
       0.052958984 0.043584228 -0.017190037 -0.051196657
000380 d3 16 02 bd 42 d4 8e 3d 91 70 45 3e 6c c4 b9 bd
       -0.031760048 0.06974079 0.19281222 -0.090706676
000390 be c8 fa 3d 7a a4 30 be ad fa fb 3d 29 78 32 bb
       0.1224532 -0.17250243 0.12303672 -0.0027232266
0003a0 90 d1 8c bc 56 6d 67 3d e4 45 f8 bd 0b 72 2f be
       -0.017189771 0.056500755 -0.121227056 -0.17133348
0003b0 9c 85 ab 3d 21 a3 90 bd c6 cb 42 3e 4b 46 a1 bd
       0.08375093 -0.07062364 0.19023046 -0.078747354
0003c0 d9 04 28 be 54 c7 df 3c d6 0e 0b be 00 88 db 3d
       -0.16408099 0.027316727 -0.13579878 0.10719299
0003d0 50 31 36 3e 09 7d 71 3d 3c 9c 86 bd 5c da 21 3e
       0.17792249 0.058957133 -0.06572768 0.15805954
0003e0 e8 8d 31 bd b2 b7 e3 bd fe 1f 24 be e5 d4 29 3e
       -0.043348223 -0.111190215 -0.16027829 0.16585119
0003f0 a5 a6 18 bd ca 8d 9f bc eb 85 9f bd ce 66 07 3e
       -0.0372683 -0.01947679 -0.07789215 0.1322281

encoder.0.bias f4 [64]
000000 fe a7 34 bd 4e c1 b4 3d fc fa 22 3e ef 68 9e 3d
       -0.044105522 0.088259324 0.15916055 0.07734858
000010 a8 c4 0b be b4 3b b7 3d b1 92 b9 3d 09 fe e3 bd
       -0.13649237 0.08946934 0.09061182 -0.11132438
000020 12 9d 37 3d d6 41 04 be 62 21 7e 3d 07 3c 3a 3d
       0.04482753 -0.1291574 0.062043555 0.045467403
000030 08 6b e0 3d 1c 3c 85 bc 1a 28 29 3e 7d 19 1f 3e
       0.109579146 -0.016264014 0.16519204 0.15537067
000040 a0 84 2c 3e 9d 3f 03 bd 6c c9 69 bd e9 c3 1a 3e
       0.16847467 -0.03204309 -0.057076856 0.15113796
000050 a6 f8 bc 3b e1 ef cb bd 6d f4 a5 bd 58 1c ad bc
       0.005766946 -0.09957863 -0.08103261 -0.02113168
000060 79 8f be 3d 86 69 96 bc e8 5f f3 bd 2e 01 c5 3c
       0.09304709 -0.018360864 -0.11883527 0.024048414
000070 b8 63 cf 3b e2 37 04 be 80 2c 35 3e dd fd da 3d
       0.006329026 -0.12911943 0.17692757 0.10692952
000080 13 9b f6 3d 4a b7 c9 bd 68 4e 13 3e d9 97 34 3e
       0.12041297 -0.09849413 0.14385378 0.1763605
000090 11 1e 9d 3d 83 59 96 bd 63 b2 3a bb 24 ee 02 bd
       0.0767175 -0.07341292 -0.0028487674 -0.03196539
0000a0 51 6b 02 be 4b 1e 67 3d 6a 3c 7a bd b4 24 18 3e
       -0.1273625 0.056425374 -0.06109277 0.14857751
0000b0 ea ba 02 3e 3a 0c c5 bd 52 29 29 3e 2e d9 84 bd
       0.12766615 -0.09621473 0.16519669 -0.06486736
0000c0 59 34 00 3d 22 e9 00 be bf eb 14 be eb 98 3b 3e
       0.031299923 -0.12588933 -0.14543055 0.18320052
0000d0 04 77 1c 3e 18 55 c4 bd ac 09 05 3e 88 c8 01 be
       0.15279776 -0.09586543 0.12991971 -0.12674153
0000e0 53 db 3f be 98 0d 41 3e d4 3c 1e bd 3b 17 f6 3d
       -0.1873601 0.18852842 -0.03863223 0.120161496
0000f0 c5 85 2d be ec c1 36 3e bd 2a 94 bd 61 5c 14 be
       -0.1694556 0.17847413 -0.07234714 -0.14488365

encoder.1.weight f4 [64]
000000 69 fe 7f 3f 90 11 80 3f 53 f3 7f 3f 62 03 80 3f
       0.99997574 1.000536 0.9998066 1.0001032
000010 75 b9 7f 3f 2e 21 80 3f a3 1c 80 3f 1f c7 7f 3f
       0.9989236 1.0010126 1.0008739 0.9991321
000020 ae 16 80 3f 92 1f 80 3f 25 1e 80 3f b3 c0 7f 3f
       1.0006921 1.0009634 1.0009199 0.9990341
000030 98 14 80 3f 63 e0 7f 3f c1 0a 80 3f 1e 0f 80 3f
       1.0006285 0.9995176 1.0003282 1.0004613
000040 14 16 80 3f 59 e9 7f 3f 3c e0 7f 3f 31 e3 7f 3f
       1.0006738 0.99965435 0.9995153 0.9995604
000050 a9 db 7f 3f 45 f6 7f 3f d9 ba 7f 3f d1 0c 80 3f
       0.9994455 0.9998515 0.9989448 1.0003911
000060 9c fc 7f 3f 9d bb 7f 3f 08 fc 7f 3f 42 c4 7f 3f
       0.99994826 0.9989565 0.99993944 0.9990884
000070 ce 13 80 3f 05 09 80 3f a6 04 80 3f c5 1c 80 3f
       1.0006044 1.0002753 1.0001419 1.000878
000080 e6 15 80 3f ff 1d 80 3f c9 ce 7f 3f 09 20 80 3f
       1.0006683 1.0009154 0.99924904 1.0009776
000090 78 c4 7f 3f 74 00 80 3f fa f8 7f 3f e8 c8 7f 3f
       0.9990916 1.0000138 0.99989283 0.99915934
0000a0 cd 01 80 3f fe f7 7f 3f bb ce 7f 3f 0c c5 7f 3f
       1.000055 0.9998778 0.9992482 0.99910045
0000b0 07 15 80 3f 9b 17 80 3f 58 00 80 3f 99 fe 7f 3f
       1.0006417 1.0007204 1.0000105 0.9999786
0000c0 bd 06 80 3f 26 d2 7f 3f e0 f4 7f 3f 15 cb 7f 3f
       1.0002056 0.99930036 0.99983025 0.99919254
0000d0 64 1c 80 3f b2 fa 7f 3f 8b 1c 80 3f 03 12 80 3f
       1.0008664 0.99991906 1.0008711 1.0005497
0000e0 29 1a 80 3f 7f 04 80 3f 08 06 80 3f e7 0d 80 3f
       1.0007983 1.0001372 1.000184 1.0004243
0000f0 ff db 7f 3f 54 d9 7f 3f ca 10 80 3f ad 01 80 3f
       0.9994506 0.9994099 1.0005124 1.0000511

encoder.1.bias f4 [64]
000000 37 37 00 b8 3f 74 cd b9 ff 07 04 ba 8c 95 83 b9
       -3.0569e-05 -0.00039187257 -0.0005036592 -0.00025097688
000010 27 60 42 ba e1 0c 62 b9 10 03 16 3a 96 b8 3f 3a
       -0.00074148405 -0.00021557837 0.0005722502 0.0007313577
000020 91 ff 80 ba 91 25 c0 b7 12 f3 2a ba 27 5f 0b 3a
       -0.000984179 -2.2905677e-05 -0.00065212057 0.0005316608
000030 f7 0f 5c ba c2 cb 8b b9 5b a3 ae b9 4f 93 3d 3a
       -0.0008394713 -0.00026663957 -0.00033309576 0.00072317285
000040 77 c4 20 ba bc fd 4f 3a cf af f3 b9 f0 4c 2e 38
       -0.0006132791 0.00079342327 -0.0004647956 4.1556486e-05
000050 ba bd 26 ba d8 a1 4c 39 4d 1c 74 ba c6 78 74 b9
       -0.0006360669 0.00019515248 -0.00093120785 -0.00023314645
000060 b7 89 17 ba e8 84 7f ba f4 a2 6b ba b7 c8 f0 37
       -0.0005780714 -0.00097472826 -0.00089888205 2.8703695e-05
000070 01 da 80 3a db 34 b5 39 ab 88 68 3a 8c a0 10 3a
       0.0009830595 0.0003456239 0.0008870463 0.00055170874
000080 82 64 69 3a e1 7b a3 39 53 31 18 ba 8c 52 33 39
       0.00089032215 0.0003118208 -0.000580569 0.00017101521
000090 15 13 6c ba 9d ab b7 39 1c a1 dd 38 37 fc 48 ba
       -0.0009005529 0.00035032342 0.0001056811 -0.00076669775
0000a0 f8 2b 70 b8 d6 41 a1 b8 89 b9 4e 39 19 ab 55 ba
       -5.7261408e-05 -7.689341e-05 0.00019714808 -0.0008150801
0000b0 aa 86 72 3a 8f f6 11 3a fc 41 78 3a c4 29 bc b8
       0.0009251634 0.0005568051 0.00094702817 -8.972318e-05
0000c0 49 41 17 3a 4e c1 ed b9 9e 60 84 39 5e 09 49 ba
       0.0005769921 -0.00045348186 0.00025248987 -0.00076689373
0000d0 21 c8 ba 39 11 ce 15 39 09 b6 38 3a 06 34 aa b9
       0.00035625792 0.00014286513 0.00070461683 -0.00032463687
0000e0 7f 61 c3 39 0a ab 29 3a 44 03 99 35 33 aa 79 ba
       0.0003726594 0.0006472325 1.1400339e-06 -0.0009523958
0000f0 4f 26 64 3a 3d 10 cb b9 07 ac b0 b9 9f 58 ee 39
       0.0008703218 -0.00038731276 -0.00033697506 0.00045460925

encoder.1.running_mean f4 [64]
000000 36 63 08 3e 29 0a a4 3d 66 93 04 3e 3b 4d f2 3c
       0.13319096 0.080097504 0.12946853 0.029577842
000010 ff 57 2a be 86 8e ee 3d 14 89 ab 3e c0 a8 b5 3d
       -0.1663513 0.11648278 0.3350302 0.08870077
000020 75 07 76 3d 31 0a 31 be 0f 64 46 3d 7f 17 08 3e
       0.060065705 -0.17289044 0.048435267 0.13290213
000030 74 8f 99 3e c3 0e 2c be b1 c7 d8 3e 05 30 63 3d
       0.2999226 -0.16802506 0.42339852 0.055465717
000040 57 44 11 3e b2 72 14 3e 87 93 fb bd 26 55 de 3d
       0.14186226 0.14496878 -0.12283998 0.108560845
000050 78 79 81 3b ff 29 56 be 57 2b 9a bd e2 42 6b bc
       0.003951248 -0.20914458 -0.07527798 -0.014359208
000060 0c 85 b4 3e df e4 69 bd 50 a6 e1 bd 35 1e 5c bc
       0.35257757 -0.057103034 -0.1101805 -0.013434936
000070 cf 78 16 3e 8c 65 18 be 81 48 c6 3c 84 9f c9 3c
       0.14694522 -0.14882487 0.024204494 0.024612196
000080 ae 55 74 3e 68 06 ca bc 31 f1 e4 3d ab 44 88 3d
       0.23860809 -0.024661258 0.11178816 0.066537224
000090 0a 54 4a bd b2 24 26 bd b4 5b 27 bd da e2 ac be
       -0.049396552 -0.04056234 -0.04085894 -0.33766824
0000a0 be 00 09 be f0 a3 39 be 59 ea 1e be 74 86 ff 3e
       -0.1337919 -0.18128943 -0.15519084 0.49907267
0000b0 43 69 73 3e 0b bf 6b be 40 c1 98 3e e9 4d 01 be
       0.23770623 -0.23022096 0.29834938 -0.12627377
0000c0 58 c5 6e 3d d7 7a 7c be f9 bf 3e be 24 cf 0a 3e
       0.05829367 -0.24656235 -0.1862792 0.1355558
0000d0 ea 0f 35 3e 63 84 25 3e f5 1b ee 3e 96 b2 f5 bd
       0.17681852 0.16163783 0.46505705 -0.11996953
0000e0 45 fa 35 be f9 e6 b5 3d 40 9d 01 be a6 9d 09 3c
       -0.17771251 0.08881945 -0.12657642 0.008399403
0000f0 6b 48 8c bd 23 69 03 3f 84 88 88 bd 60 e5 13 bd
       -0.0684975 0.513323 -0.06666663 -0.03610742

encoder.1.running_var f4 [64]
000000 cb d0 d3 3e 89 28 2a 3d a2 cb f5 3d 76 05 ce 3d
       0.41370234 0.041542564 0.120017305 0.10059635
000010 a5 ca ff 3d f9 fc 82 3d ec 8d 56 3f f3 de 35 3f
       0.12489823 0.06395907 0.83810306 0.7104332
000020 68 4f 98 3d a0 43 3a 3d 81 22 11 3d 4d 46 ec 3d
       0.074370205 0.04547465 0.035433296 0.11536846
000030 4a 1c 54 3f 5d 3a 75 3e b5 3b 69 3f 9e b0 4b 3e
       0.82855666 0.23948045 0.9110673 0.19891593
000040 87 00 2a 3e 16 a5 35 3f b4 a0 35 3e d0 ff af 3d
       0.16601764 0.70955026 0.17737085 0.08593714
000050 ef 8b c0 3c 97 51 4d 3e cf 68 71 3d 0e 7e a3 3d
       0.023504226 0.20050655 0.058937844 0.079830274
000060 fb 11 8c 3f dd 01 3d 3e 5a 15 3e 3d 9c 7a 92 3d
       1.0942987 0.18457742 0.04640708 0.07152292
000070 69 e9 8a 3e fb 79 1a 3e 04 6b 26 3f 1f 96 0a 3f
       0.27131203 0.15085594 0.6500704 0.54135317
000080 90 e2 55 3e 85 14 96 3e 49 8f 51 3d 82 34 2a 3e
       0.20887208 0.2931253 0.051162038 0.16621593
000090 55 8b 5f 3e ad f1 af 3d 97 85 6a 3d d2 7f 99 3f
       0.21830495 0.08591018 0.057256307 1.1992133
0000a0 18 4e 9c 3d 10 9d 85 3f 43 87 f5 3d 4c 6c cf 3f
       0.07632083 1.0438557 0.1198869 1.6204925
0000b0 60 7b 6b 3e aa 68 0a 3f ba ff ac 3e b8 cf 0e 3e
       0.22996283 0.54065955 0.33788854 0.13946426
0000c0 e5 c4 0a 3e b1 5c 2d 3e d8 3a 03 3d d0 05 87 3d
       0.13551672 0.1692989 0.03203854 0.065929055
0000d0 c5 e2 83 3d 64 4a 3a 3f 40 9f dc 3f 08 d3 a0 3c
       0.06439737 0.7276976 1.7236099 0.019631878
0000e0 17 29 b5 3d 95 ba 68 3e 1a 8d 3a 3e e1 73 64 3e
       0.08845728 0.22727425 0.18217888 0.2230983
0000f0 ac 64 c8 3e 28 c7 cc 3f da 4c e1 3c 54 68 90 3e
       0.39139307 1.5998278 0.027502466 0.28204596

encoder.4.weight f4 [128, 64, 3, 3]
000000 e7 86 18 3d 3d 18 2a bd 51 25 e6 3c c0 c6 fa bc
       0.037238028 -0.04152702 0.028093966 -0.03061235
000010 70 16 8f 3a 96 95 ca 3c 20 11 16 3d 19 42 0e 3b
       0.0010916721 0.024729531 0.036637425 0.0021706878
000020 8c eb 9e 3b c1 ce 00 bd 82 4e 27 bd eb eb fe bc
       0.0048498567 -0.031447176 -0.040846355 -0.031118354
000030 06 ef 94 3c 5c 92 df 3b bc 28 29 3c 31 5f b4 3a
       0.018180382 0.0068228673 0.010324653 0.0013761279
000040 ab 75 13 3c c9 ce 1a bc a4 37 09 bd d7 dd 09 3d
       0.009000222 -0.0094487155 -0.03350033 0.03365883
000050 03 a2 94 bc 62 59 11 bc c9 78 85 3b 86 6d b5 bc
       -0.01814366 -0.008871408 0.0040732366 -0.022146951
000060 46 05 2a bd a3 83 c3 3c 60 5b dc 3c 98 3f 17 3d
       -0.041508935 0.02386648 0.02689904 0.036925882
000070 83 46 f9 3b ea 7d 0b bc 1e 79 1d 3d b4 11 70 bc
       0.0076072826 -0.008513907 0.038445584 -0.014652658
000080 3c 7f f1 3c 53 94 72 3c eb 40 d6 bc 21 34 20 3d
       0.029479615 0.014805871 -0.026154002 0.039112214
000090 15 b9 86 3c 6c 20 16 3d 8f 95 13 bc 9b 1a 25 3d
       0.016445676 0.036652014 -0.0090078255 0.040308576
0000a0 5f 8d 4f 3c bd 37 08 3d 2a 74 55 bc 07 e6 e6 3c
       0.012667983 0.03325628 -0.013028184 0.028185857
0000b0 11 4c 9d bb 3c bf 92 bc 84 2c 11 3c 0b ac 0a 3c
       -0.0048003276 -0.017913453 0.008860711 0.00846387
0000c0 81 9b 02 bd 5f e8 09 bd da f2 af bb 9f 8d ed 3c
       -0.03188658 -0.033668872 -0.0053695263 0.028998194
0000d0 ff ea 15 3d 68 64 f7 bc 10 e5 28 bc a3 1f f5 bc
       0.036601063 -0.030199245 -0.010308519 -0.029922312
0000e0 b8 30 f6 bb ff ec 24 3d b9 4b 06 bd 64 6e 06 3c
       -0.007513132 0.04026508 -0.03278706 0.00820503
0000f0 14 48 24 3d e1 fa 4d 3c 41 bc 84 bc 73 5d 92 3c
       0.0401078 0.012572021 -0.016203048 0.017866826
000100 63 e3 4d 3c 9d bc 99 bc 97 45 fc bc 64 1a b6 3c
       0.01256642 -0.018766696 -0.030794902 0.02222938
000110 90 b0 19 bd ec b5 7e bc 5a cc bf 3c 05 f7 c1 bc
       -0.0375219 -0.015546303 0.023412872 -0.023677358
000120 68 bd e5 3c 13 1d 51 bc 04 67 b2 bc b0 50 dc bb
       0.028044418 -0.0127632795 -0.021777637 -0.006723486
000130 ec 69 5a 3a 8c 23 9e bc f6 ac 7b bb 1d 55 36 3c
       0.00083318236 -0.01930406 -0.0038402653 0.011128691
000140 0f a1 3a 3c a0 b3 d8 3c c9 0a fb bc 95 9d 64 3c
       0.011390938 0.02645284 -0.030644791 0.013953586
000150 5a f6 dd ba 5f 2d 5d 3c 4b b6 c0 b9 e1 fb 4d bb
       -0.001693438 0.013499587 -0.00036756913 -0.003143065
000160 88 2c 98 3b 3f 36 0b bc ce e7 e1 bb f9 c2 55 3c
       0.0046439804 -0.00849682 -0.0068940884 0.013046973
000170 fc e2 be 3c e5 55 18 3d 5e 30 b7 3c 27 25 16 3d
       0.023301594 0.03719129 0.02236193 0.036656525
000180 29 28 c4 3c 9d a4 0c bd 84 62 30 3c b3 15 13 bd
       0.023944931 -0.034336675 0.010765675 -0.035909366
000190 d3 63 ea 3c 01 f8 ea bc cc 42 dd 3c 92 48 c1 ba
       0.028612053 -0.02868271 0.02700939 -0.0014746359
0001a0 63 b0 a2 ba 3d 53 8b bb 2c f7 93 bc e1 dc e0 3b
       -0.0012412186 -0.004251866 -0.018062197 0.0068622683
0001b0 91 66 75 3c e5 07 0b bc 78 fb ac bc 66 3e 9d 3c
       0.014978067 -0.008485769 -0.021116003 0.019194793
0001c0 37 27 23 bd 9e 1b 17 3c 53 02 5f bc 25 d0 97 bb
       -0.03983232 0.009222893 -0.013611394 -0.004632967
0001d0 a3 40 03 bd 71 37 1a 3d 3d 5c b1 3c d9 aa 26 3d
       -0.032044064 0.03765053 0.021650428 0.040690277
0001e0 21 4b 08 3d 12 e1 aa bc 53 23 12 bd f6 7b 20 bd
       0.033274774 -0.020859275 -0.03567822 -0.03918072
0001f0 3c 58 dd 3c 15 d5 99 bc db 73 c1 bc 46 bc 32 3c
       0.027019612 -0.018778363 -0.023614815 0.010909146
000200 4c 9d 30 bb e6 bf d2 3c 0d f8 e9 3c 2c bc e5 3c
       -0.0026949225 0.02572627 0.028560663 0.028043829
000210 76 e9 7d 3c 55 05 1e bd e1 61 34 3c 95 b2 7b 3b
       0.015497556 -0.038579304 0.011009664 0.0038406004
000220 df 65 22 bd 38 7f 30 bc 5e 59 69 3c 11 b3 d3 3c
       -0.039647933 -0.010772519 0.014242498 0.025842221
000230 97 38 37 bc f1 e5 15 bd f6 4a b6 3b 7c 41 15 3c
       -0.011182926 -0.036596242 0.0055631353 0.009109851
000240 0f 9b 25 bd 8e bd d0 3c 8e c4 16 3d 40 d0 99 3c
       -0.04043108 0.025481012 0.036808543 0.01877606
000250 c6 bf 25 bd 5b 58 d0 bb 9d fe 1b 3d 4e 44 93 bc
       -0.040466093 -0.006358189 0.038084615 -0.017976906
000260 70 db 71 3c fa 48 23 3d fa 76 1c bb ac 89 28 bb
       0.014761791 0.039864518 -0.0023874626 -0.0025716824
000270 e0 84 fb bc 4a ab f2 bc 17 bd 36 bb b5 d4 02 3a
       -0.030703008 -0.029622693 -0.0027883702 0.0004990802
000280 32 47 d9 39 fb 7b 0a bd 1d 77 20 3d 75 b5 4f bb
       0.0004144251 -0.033809643 0.039176095 -0.003169385
000290 73 f6 d3 3c 41 be 6e bc 33 f9 05 bd ca 49 9c 3c
       0.025874352 -0.014571727 -0.032708358 0.019078154
0002a0 e7 9d 98 bc 0e 6c 24 3d 83 8c 9f 3c 71 86 12 bc
       -0.018629981 0.04014211 0.01947618 -0.008943186
0002b0 ad dc 15 bd 80 19 fe 3a 18 10 f6 3c 38 e0 2e bc
       -0.036587406 0.0019386262 0.030036971 -0.010673575
0002c0 48 b5 15 bd 03 62 c8 3c da 13 ad 3c 68 bb 22 bd
       -0.036549836 0.024460798 0.02112763 -0.039729506
0002d0 78 05 c6 3c 86 c9 0e bd cf a8 10 bd 1c 81 c8 bc
       0.02417253 -0.034860156 -0.03531724 -0.024475627
0002e0 47 c3 96 3c 25 6f db 3c 9c a2 23 3d 3e 3b 86 3c
       0.018403662 0.026786396 0.03995 0.01638567
0002f0 15 d9 14 bd 4b 69 1e bd 7f 95 89 3c fa c2 be bc
       -0.036339838 -0.038674634 0.016794918 -0.023286331
000300 33 e9 04 3d 8f 47 4b 3b d6 00 b5 bb 68 ef e9 3a
       0.03244896 0.0031017994 -0.0055237813 0.0017847838
000310 f7 b1 02 3d 7c 2c 23 3d 3b 3e d8 3c 54 da 94 3c
       0.031908 0.039837345 0.026396861 0.018170513
000320 b5 4f 1a bd 37 29 97 bc bd 6f 05 3d 21 53 1f bd
       -0.03767367 -0.01845227 0.032577265 -0.038897637
000330 c3 31 a9 3c 9f 6e ac bc 15 d2 10 3c aa 3e 9d bb
       0.020653611 -0.021048842 0.00883915 -0.00479873
000340 ed 74 ce bc 1e d8 11 bc 63 63 c0 3c 69 1e 1a bd
       -0.025202239 -0.008901624 0.023484891 -0.037626658
000350 64 2e ac 3c b0 01 79 bc c2 57 fa bc b7 20 ee 3c
       0.021018215 -0.015198156 -0.030559424 0.029068334
000360 fa fc 2a 3d 71 19 03 bc 7a 29 7b bc d6 1b d5 bc
       0.041745164 -0.008001671 -0.015329713 -0.02601425
000370 d0 a5 ce bc 89 bd 0f 3c 96 f8 0f 3d ce 97 c7 bc
       -0.02522555 0.008773216 0.03514918 -0.024364378
000380 51 b6 9e bc b5 3b a6 bc 20 2b 4a 3a 08 7d 06 bd
       -0.019374045 -0.020292142 0.00077121146 -0.032834083
000390 5b f6 ae bc be e9 3a 3c 62 48 06 bd 58 2d 28 bd
       -0.021357706 0.011408268 -0.032783873 -0.04105887
0003a0 b7 e3 b3 bc 58 a9 47 bc b3 c4 35 3c 34 18 81 3c
       -0.021959169 -0.012186371 0.01109426 0.015758611
0003b0 87 cc d7 bc b4 7b b7 bc 7d c8 19 bd 48 5c 0d bc
       -0.026342643 -0.022397853 -0.037544716 -0.008627959
0003c0 e1 9b df 3c 4d 79 9c bc 88 11 26 bb b4 41 4e 3c
       0.027296009 -0.01910081 -0.002534004 0.012588907
0003d0 fa 14 f5 3b 5d e2 aa 3c 88 39 ed 3c 60 2e 62 3c
       0.0074793072 0.020859892 0.028958097 0.013805002
0003e0 a6 92 d1 3b b2 a4 19 3c b9 4e 25 3c ea 76 d4 3c
       0.0063956557 0.009377645 0.01008957 0.025935609
0003f0 1f 08 f1 3c b1 29 af 3c 33 01 4a bc 10 2b 1b 3c
       0.029422818 0.021382185 -0.0123293875 0.009470716

encoder.4.bias f4 [128]
000000 34 4e c4 3c 78 5f 17 bd 2a 52 13 bd e8 f2 e5 bc
       0.023963071 -0.03695628 -0.03596703 -0.028069928
000010 08 a9 b1 bc fc 8d 0c bd 54 03 c1 3c 5b 58 18 bc
       -0.021687046 -0.034315094 0.023561157 -0.009298409
000020 11 52 77 ba 9a d0 a2 bc 0e cd 01 3d 39 cd af bc
       -0.0009434531 -0.01987486 0.031689696 -0.021460162
000030 03 ef 1c bd 5b e0 48 3c d3 9e 97 3b d9 15 f9 bc
       -0.038313877 0.012260522 0.0046270876 -0.030405926
000040 42 9a 9e bc 7f f3 58 3b cb d1 05 3d 5b 84 3f 3b
       -0.019360665 0.003310412 0.032670777 0.0029223177
000050 93 c1 c3 bc 29 1c 28 3d 06 46 83 bc 54 fa d2 3c
       -0.023896014 0.04104248 -0.0160246 0.025754131
000060 c4 17 c5 3c 6f 67 82 bc 99 f1 1a 3d a5 c1 1d 3d
       0.024059184 -0.015918462 0.03782806 0.038514752
000070 cb f9 20 bd cf 03 1e 3c 5a b2 6e 3c 20 37 24 bc
       -0.03930072 0.009644463 0.0145688895 -0.010022908
000080 aa 90 0e bc 0f e2 a0 3b a0 0f e9 3c a0 14 ba bc
       -0.008701483 0.004909761 0.028449833 -0.022714913
000090 7a 48 d0 3c f1 df 20 bc b4 b1 ef 3c 93 e1 c2 bc
       0.025425185 -0.009819017 0.02925954 -0.023789203
0000a0 40 ca f2 3c 61 d7 4f bc ed d7 27 bd 28 d8 1d bd
       0.029637456 -0.012685628 -0.040977407 -0.03853622
0000b0 70 ed a9 bc 19 6d 8f bb 3a ca d0 bc bb 8c 29 bd
       -0.020743102 -0.004377019 -0.025487054 -0.041393977
0000c0 32 d9 06 bc ab a9 c6 bc 41 37 8d bb 76 17 6b bc
       -0.008230494 -0.024250826 -0.0043095653 -0.014348855
0000d0 54 d6 d3 3c 07 4c 0c 3d 63 e3 24 3d 4e ae e4 3c
       0.025859036 0.034252193 0.040255915 0.027915146
0000e0 34 b7 24 bc 01 dc f5 3b 86 18 66 bc f4 48 15 bd
       -0.010053445 0.007503033 -0.014043933 -0.036446527
0000f0 d7 95 63 3c 75 ef 26 3d b1 13 0b 3d cd 19 31 3c
       0.013890705 0.040755708 0.033954326 0.010809374
000100 bd d4 30 bc e5 de d4 bc 22 5e 0f bd eb f7 e0 ba
       -0.010792908 -0.02598519 -0.03500188 -0.0017163729
000110 89 30 31 bc da 7a d6 bc 08 6b b7 3c 6b ee 8d 3b
       -0.010814794 -0.026181627 0.022389904 0.0043314
000120 8a 70 64 3b a5 ef 60 3c 42 72 1f bd 48 0b c6 3b
       0.0034857118 0.013729011 -0.038927324 0.0060438253
000130 e5 c1 df bc 6a de ca 3c 97 d5 25 3c cb 12 ca bc
       -0.027314136 0.024764258 0.010121725 -0.024667164
000140 bb 80 12 3d 43 5d d2 bb e3 91 c1 bc 9d e6 1e bd
       0.0357673 -0.006419809 -0.023629135 -0.03879415
000150 26 45 3b 3b 68 00 ef bc 53 db 9d 3c 1b a0 03 3c
       0.0028575151 -0.029174998 0.019269621 0.008033778
000160 50 1e 91 bc 6d fa b9 3c ba fe ee 3c 67 82 f8 3c
       -0.01771465 0.02270242 0.029174197 0.030335618
000170 6a d1 0a 3c 9d e6 24 bd 0f 70 57 bc 76 dd 8d 3c
       0.00847278 -0.040258992 -0.013149275 0.017317515
000180 16 eb b3 3a 62 35 06 3d c6 51 8b ba 94 d3 d4 3a
       0.0013726677 0.032765754 -0.0010629229 0.0016237372
000190 b6 a7 1e 3d 92 79 c2 bb 68 0e f6 3b c4 46 43 3c
       0.03873416 -0.0059349025 0.0075090416 0.011918727
0001a0 f9 54 7d ba dc 78 e6 bc 16 9d b6 3c 0c fc 7a bc
       -0.0009663846 -0.028133802 0.022291701 -0.015318882
0001b0 7d 3f 33 3c 6c 19 83 3b ea c1 2a 3b b8 3a a5 bc
       0.01094043 0.0040008333 0.0026055523 -0.0201696
0001c0 2e 24 29 3c 8b da b2 3b 9c 09 e5 bb 96 91 b3 bc
       0.010323567 0.0054581813 -0.006989671 -0.021920007
0001d0 8f 2f 88 3b 72 27 ee 3c 71 72 1d 3d 09 52 18 3d
       0.00415606 0.029071543 0.038439218 0.03718761
0001e0 e3 6e 13 3c 4c 42 86 3c 17 21 26 3d 16 ce 17 3d
       0.008998605 0.016389035 0.0405589 0.037061773
0001f0 42 a8 9a bc 38 f8 25 3d 03 38 fe bc 12 f4 9c 3c
       -0.01887906 0.040519923 -0.031032568 0.01915935

encoder.5.weight f4 [128]
000000 d5 21 80 3f 2d 18 80 3f f6 d6 7f 3f 51 1a 80 3f
       1.0010325 1.0007378 0.9993738 1.0008031
000010 74 1b 80 3f e6 09 80 3f 40 12 80 3f 86 f8 7f 3f
       1.0008378 1.0003021 1.000557 0.9998859
000020 d7 c5 7f 3f 70 df 7f 3f 3a 01 80 3f da 0a 80 3f
       0.99911255 0.99950314 1.0000374 1.0003312
000030 d1 07 80 3f c0 fd 7f 3f cb 03 80 3f 27 c0 7f 3f
       1.0002385 0.99996567 1.0001158 0.99902576
000040 a2 09 80 3f 0a dd 7f 3f 4e 07 80 3f 3b fc 7f 3f
       1.000294 0.99946654 1.0002229 0.9999425
000050 c4 18 80 3f 60 d9 7f 3f 0a 0c 80 3f ba d7 7f 3f
       1.0007558 0.9994106 1.0003674 0.9993855
000060 96 15 80 3f 47 fb 7f 3f 3e d1 7f 3f e6 08 80 3f
       1.0006588 0.99992794 0.99928653 1.0002716
000070 10 0a 80 3f 32 16 80 3f 76 03 80 3f b3 1b 80 3f
       1.0003071 1.0006773 1.0001056 1.0008453
000080 30 19 80 3f bb 05 80 3f 01 f3 7f 3f 08 c9 7f 3f
       1.0007687 1.0001749 0.9998017 0.99916124
000090 b6 14 80 3f b8 0f 80 3f 55 d9 7f 3f da 10 80 3f
       1.000632 1.0004797 0.99941 1.0005143
0000a0 a5 f1 7f 3f 07 14 80 3f ff e7 7f 3f 10 04 80 3f
       0.99978095 1.0006112 0.9996337 1.000124
0000b0 92 18 80 3f 06 bf 7f 3f 8f 1e 80 3f dd 20 80 3f
       1.0007498 0.99900854 1.0009326 1.0010029
0000c0 40 01 80 3f 68 0a 80 3f b9 dc 7f 3f 52 0c 80 3f
       1.0000381 1.0003176 0.9994617 1.000376
0000d0 f2 fe 7f 3f e2 08 80 3f d6 f7 7f 3f 97 16 80 3f
       0.9999839 1.0002711 0.9998754 1.0006894
0000e0 73 df 7f 3f 2e cf 7f 3f 47 f3 7f 3f 90 d4 7f 3f
       0.9995033 0.99925506 0.99980587 0.9993372
0000f0 b2 d1 7f 3f bf da 7f 3f 71 df 7f 3f 1d 1b 80 3f
       0.99929345 0.99943155 0.9995032 1.0008274
000100 10 0c 80 3f 5e e0 7f 3f 99 04 80 3f f4 17 80 3f
       1.0003681 0.9995173 1.0001403 1.000731
000110 04 18 80 3f 4b 03 80 3f 14 d1 7f 3f 37 da 7f 3f
       1.0007329 1.0001005 0.999284 0.99942344
000120 1b 04 80 3f 53 06 80 3f 30 05 80 3f f1 c2 7f 3f
       1.0001253 1.000193 1.0001583 0.9990683
000130 2b 02 80 3f 0d 11 80 3f 87 0a 80 3f 19 0a 80 3f
       1.0000662 1.0005203 1.0003213 1.0003082
000140 54 eb 7f 3f c8 e7 7f 3f e0 0c 80 3f 47 c5 7f 3f
       0.9996846 0.99963045 1.0003929 0.99910396
000150 c3 df 7f 3f 8f 00 80 3f 59 fb 7f 3f b6 0f 80 3f
       0.9995081 1.000017 0.999929 1.0004795
000160 06 ca 7f 3f d6 1b 80 3f ae 10 80 3f 82 ca 7f 3f
       0.9991764 1.0008495 1.000509 0.9991838
000170 f7 da 7f 3f ce d5 7f 3f 4b c8 7f 3f 34 0f 80 3f
       0.9994349 0.99935615 0.99915 1.000464
000180 5c 1f 80 3f af 17 80 3f 46 11 80 3f 30 04 80 3f
       1.000957 1.0007228 1.0005271 1.0001278
000190 a3 f8 7f 3f 0b 05 80 3f ff 07 80 3f d3 d8 7f 3f
       0.99988765 1.0001539 1.000244 0.9994022
0001a0 e7 bc 7f 3f 69 22 80 3f a4 ef 7f 3f b0 f7 7f 3f
       0.9989762 1.0010501 0.9997504 0.99987316
0001b0 f3 c7 7f 3f 91 15 80 3f 60 0d 80 3f e8 cf 7f 3f
       0.99914473 1.0006582 1.0004082 0.99926615
0001c0 0c ca 7f 3f 25 0a 80 3f bc ce 7f 3f a6 12 80 3f
       0.99917674 1.0003096 0.99924827 1.0005691
0001d0 85 02 80 3f e4 15 80 3f 43 c2 7f 3f 3e df 7f 3f
       1.0000769 1.000668 0.99905795 0.99950016
0001e0 36 f8 7f 3f 8b c4 7f 3f e8 d7 7f 3f de 18 80 3f
       0.99988115 0.99909276 0.9993882 1.0007589
0001f0 ea e0 7f 3f 1f 17 80 3f ba 22 80 3f 18 ff 7f 3f
       0.99952567 1.0007056 1.0010598 0.9999862

encoder.5.bias f4 [128]
000000 77 bb 85 3a dc f6 69 39 8b e1 65 ba d8 c0 4e 3a
       0.0010202964 0.00022312574 -0.0008769265 0.00078870123
000010 d8 62 3b 3a 53 66 77 3a 36 ec 0c 3a 5f 55 1e b9
       0.0007148213 0.000943755 0.00053757743 -0.00015099857
000020 c8 61 47 ba 5b d4 52 39 c1 a4 06 ba 43 e6 84 ba
       -0.0007605818 0.00020106269 -0.00051362446 -0.0010139424
000030 5e 6c 5d ba 9c fb e1 b9 c8 77 c1 b9 d1 a8 4d ba
       -0.0008446629 -0.00043102808 -0.00036901073 -0.0007845285
000040 9b 7a 6c 38 8c f5 14 38 a7 60 84 3a b6 a5 b9 b8
       5.638097e-05 3.5514633e-05 0.0010099605 -8.8523535e-05
000050 5f 7f d3 b9 14 a6 82 ba cf ba 64 3a fd 2b 28 ba
       -0.00040339955 -0.0009967708 0.00087253464 -0.0006415246
000060 8c 80 a1 39 61 af 22 ba ba 49 19 ba 4d b2 6a 3a
       0.00030804088 -0.0006205943 -0.0005847473 0.00089529605
000070 db af cf 39 19 36 af b5 bf 7f 83 ba ed af 4f 3a
       0.0003961314 -1.305426e-06 -0.0010032578 0.00079226383
000080 63 86 d0 39 3f 98 89 35 97 b2 5c ba 3d 37 80 ba
       0.00039772977 1.0251605e-06 -0.0008418946 -0.0009782087
000090 8f 4a 4c ba ad 4d 77 39 8c ec 84 39 c8 08 bc 39
       -0.00077930925 0.00023584692 0.00025353243 0.00035864697
0000a0 86 3a 87 ba 31 96 cb 39 73 ef 81 3a 4b ba 55 39
       -0.0010317124 0.0003883108 0.000991328 0.00020382662
0000b0 a7 18 0e 3a 6c 8d 76 ba de b3 3c 3a 4f b2 85 3a
       0.00054205436 -0.0009405229 0.0007198433 0.0010200235
0000c0 ba 2b 00 b9 3b 07 d6 39 74 cb 7c ba 7d de 3b 3a
       -0.0001222332 0.00040822648 -0.0009643354 0.0007166637
0000d0 b3 f7 8d 39 eb c4 82 b9 e9 dc b3 b9 c2 5c 00 b8
       0.00027078166 -0.00024942248 -0.0003430613 -3.0603966e-05
0000e0 4f e7 32 3a b6 78 35 ba 8c ff 85 b9 50 91 79 ba
       0.0006824629 -0.00069225894 -0.00025558134 -0.00095202494
0000f0 88 74 3a ba 53 81 ef b9 b4 6a 77 ba 04 c9 8b b9
       -0.00071127014 -0.00045681986 -0.0009438202 -0.00026661914
000100 2d fb ba 39 76 ae 72 b9 4f f2 96 39 d6 14 f2 b8
       0.00035663825 -0.0002314391 0.00028790763 -0.0001154334
000110 eb 3f c8 b8 8d dc 6f b8 fa 5c 31 b9 a8 da d4 b9
       -9.548649e-05 -5.7187444e-05 -0.00016914672 -0.00040598703
000120 3b f9 78 3a db 4b 2b ba 8f 9a 65 b9 3b f3 41 39
       0.00094975875 -0.00065344357 -0.0002189672 0.00018496525
000130 02 a4 fb 39 cb 4f 32 3a a8 cb 11 3a b8 17 37 ba
       0.00047996646 0.0006802051 0.0005561658 -0.00069844304
000140 e2 23 ac b9 f3 e9 9e b9 a4 7b ea 39 9a bc 3f ba
       -0.0003283313 -0.00030310414 0.00044724077 -0.00073141756
000150 76 7e c0 b8 99 34 8c ba ac 2d 54 39 0b 83 61 39
       -9.1788286e-05 -0.0010696828 0.0002023491 0.0002150649
000160 d2 43 51 ba 8b 5b 80 36 af 2c 69 39 cc 37 70 ba
       -0.00079828233 3.8253543e-06 0.00022237258 -0.0009163588
000170 47 64 e6 b9 a2 7a 0d ba e9 d6 3b ba a6 ef 12 38
       -0.0004394373 -0.0005396997 -0.0007165508 3.5032303e-05
000180 c6 74 02 ba ed 00 61 3a a2 0b a6 b6 3e 60 0b b9
       -0.0004976507 0.0008583207 -4.9485398e-06 -0.00013291926
000190 6b 8d 34 39 7d 2d 05 39 87 65 de 39 c5 9e 29 ba
       0.0001721882 0.00012700814 0.00042418783 -0.0006470497
0001a0 85 51 23 b9 09 77 3a 3a 46 f5 40 3a 2a 80 5b ba
       -0.0001557526 0.00071130745 0.00073607673 -0.0008373285
0001b0 0f c7 57 ba 09 05 6b 39 65 fd 48 3a be 94 42 ba
       -0.0008231261 0.00022413222 0.0007667153 -0.0007422677
0001c0 89 b8 d9 b9 3c cc 44 ba b1 1a 8b 3a f4 d1 02 39
       -0.00041526955 -0.000750724 0.0010612813 0.0001247598
0001d0 5b 7a 91 39 e2 24 eb 39 17 62 4b ba 0c e0 26 ba
       0.00027747717 0.00044850173 -0.0007758452 -0.0006365783
0001e0 b9 58 d6 38 a6 e4 31 ba 32 81 b0 b9 67 1a 2b b9
       0.00010220841 -0.00067860854 -0.00033665594 -0.00016317666
0001f0 19 8b fc b9 0d 5a 45 3a 02 7e 3c 3a 79 e9 02 b9
       -0.0004816882 0.0007528372 0.00071904075 -0.00012484741

encoder.5.running_mean f4 [128]
000000 ba ac a2 be 0f ed 86 3e 68 25 56 3e f0 46 54 3e
       -0.31772405 0.26352736 0.20912707 0.20730186
000010 ce b6 02 bd 9c ce e4 bc c2 ce 9b 3c 4c 85 fe be
       -0.031912617 -0.02793055 0.019019488 -0.49711072
000020 50 13 69 3d f0 dc b2 be aa 6f 85 3e 14 84 b7 bc
       0.056903183 -0.34934187 0.26061755 -0.022401847
000030 13 a3 fa 3e 3a 85 52 be 1a 05 22 3d ef 79 01 be
       0.4895254 -0.20558634 0.039555646 -0.1264417
000040 03 94 c0 be 94 d7 ad be 3a 5d b1 be 8d fc a0 be
       -0.37612924 -0.33953536 -0.3464144 -0.3144268
000050 64 fd 02 3e 94 0c 79 3e 9d a3 8f be 5b d1 5e 3e
       0.12791973 0.24321204 -0.28054515 0.2175955
000060 e0 c5 73 3e 70 19 ab be c1 96 99 bb 59 eb 9b be
       0.23805952 -0.33417845 -0.0046871607 -0.30452994
000070 ae 69 97 3e 95 7f 34 be 33 7c 9b 3d f0 ae 68 be
       0.29572815 -0.17626794 0.075920485 -0.22722983
000080 16 3d 3e 3e a1 d6 dd 3e 18 c1 e2 3e c5 89 40 3d
       0.1857799 0.4332781 0.44287944 0.047006387
000090 0e b5 ca 3e 6b d6 8a 3e f6 76 58 be 17 e9 05 bf
       0.3959126 0.27116713 -0.2113913 -0.5230879
0000a0 ce 03 9b 3d 28 66 03 bf f0 a2 fa be f0 c9 0f bf
       0.07569085 -0.51327753 -0.48952436 -0.5616751
0000b0 e7 bf b6 3e ff c8 f0 bd cb b0 d9 be cc ec bf be
       0.35693285 -0.11757087 -0.42517695 -0.3748535
0000c0 20 2f a9 3e 05 a6 4e bd 85 c3 cb 3d 37 42 ad 3e
       0.33043766 -0.050451297 0.09949402 0.3383958
0000d0 87 6e 68 bd 42 e1 29 be 70 98 11 bf 29 ad 72 3e
       -0.056746032 -0.16589835 -0.56873226 0.23698868
0000e0 f5 8b a0 be 1d 30 5e be a1 97 04 be 53 c6 b6 bd
       -0.3135678 -0.21698041 -0.12948467 -0.08924546
0000f0 c1 5b cd bc 9e aa 76 3e e8 17 63 3e 12 8e e5 3e
       -0.025068166 0.24088523 0.22177088 0.44834954
000100 c2 5c cf 3d b3 39 c1 be 8a bc b2 be 7e f3 5d 3e
       0.10125114 -0.37739334 -0.3490947 0.21674916
000110 51 d8 dc 3d bc 7a 6a be 89 78 31 be 1d 0d b7 3d
       0.107834466 -0.22898382 -0.17331137 0.08938048
000120 1c 1d 4e 3e ff 31 70 3f 15 7b 8f 3e 30 5c 50 be
       0.20128292 0.9382629 0.28023592 -0.20347667
000130 5e a9 2a be 86 9e f6 ba 98 42 03 bf 08 fa 53 3d
       -0.16666171 -0.0018815554 -0.5127349 0.05175212
000140 a3 48 9a 3d 13 41 1f bd 35 5d 17 3e f1 d4 a8 bd
       0.075333856 -0.03888042 0.1478165 -0.0824374
000150 a9 f3 8e 3e 75 b3 b6 3e d8 5f 3e bf 10 ca 44 3e
       0.27920273 0.3568379 -0.74364996 0.19217706
000160 8c 12 af 3e 2f 80 32 3e 3b 2c 8e 3e 78 e4 8f 3d
       0.34193838 0.1743171 0.2776812 0.07025999
000170 4c 84 9e 3c 98 24 0c 3e 37 b6 0e 3e cd 0a 09 3f
       0.019350193 0.13685834 0.13936697 0.53532106
000180 f2 12 52 3c d8 ff 06 be 76 99 1d 3e ae bc 1f 3e
       0.0128219 -0.13183534 0.15390572 0.1559932
000190 ad 87 9e be 59 c5 88 3e 9f c4 d3 be d0 b4 3e 3e
       -0.30962887 0.26713064 -0.41360947 0.18623662
0001a0 54 83 9e bd 44 9e 29 3e 7a 49 b7 bd 75 87 0e 3f
       -0.077398926 0.1656428 -0.089495614 0.5567544
0001b0 0b a8 e5 3e aa 68 ae bc c9 9e 46 be a7 6d 68 3d
       0.4485477 -0.021290142 -0.19396509 0.056745198
0001c0 b6 29 48 3e 9e 18 35 bd ba d7 a6 be c0 55 1f 3e
       0.19547161 -0.04421293 -0.3258646 0.15560055
0001d0 08 c2 06 bf e2 a0 2d 3e b6 85 cc 3d d7 c4 1c 3e
       -0.5263982 0.16955903 0.09986441 0.15309463
0001e0 73 78 cc be bd 80 38 be 23 60 e5 3d d2 b5 50 3e
       -0.39935645 -0.1801786 0.11199977 0.20381859
0001f0 ab 05 b3 be 0b d8 25 3e 9f 6a 9f 3e 01 38 68 be
       -0.34965262 0.16195695 0.31136033 -0.22677614

encoder.5.running_var f4 [128]
000000 4f 1c 13 3e 3a af 39 3e d3 70 9a 3d 94 04 b0 3d
       0.14366268 0.1813325 0.07541051 0.08594623
000010 61 8a fa 3d 36 c7 0f 3e 8e a4 fc 3d 13 4c d3 3d
       0.12233425 0.14040837 0.12336074 0.103172444
000020 ba 62 e8 3d e2 0e 0f 3e ad bf fa 3d ad 0a c8 3d
       0.113469556 0.13970521 0.122435905 0.09767661
000030 9c d0 09 3e 9b eb da 3d 12 96 11 3e 17 72 1d 3e
       0.13458484 0.106894694 0.14217404 0.15375553
000040 03 46 83 3e fa 54 0c 3e 10 e4 77 3e f1 9e b8 3e
       0.25639352 0.13704291 0.24208093 0.36058763
000050 29 81 b7 3d 3a 43 64 3e 2d 9e 0e 3e 71 0d 50 3e
       0.08960182 0.2229127 0.13927527 0.20317627
000060 56 e0 2b 3e ff 8d 1b 3e f4 08 15 3e 67 ae 58 3e
       0.16784796 0.15190886 0.14554197 0.21160279
000070 ac ce fa 3d 7e 79 8a 3e af 9c af 3d aa f0 72 3e
       0.12246451 0.27045816 0.08574807 0.23724619
000080 78 f1 65 3e 96 60 5d 3e 69 9c 36 3e 45 5f d1 3d
       0.22455394 0.21618876 0.17833103 0.10223249
000090 49 4a 43 3e 77 68 9c 3e c9 7d b2 3e 69 0c 4c 3e
       0.19071306 0.3054845 0.3486159 0.19926609
0000a0 7a 77 a5 3d 5d f3 3d 3e 9f 55 98 3e 9c 22 09 3e
       0.08079429 0.18549867 0.29752824 0.13392109
0000b0 06 e8 81 3e d8 85 ca 3d eb a5 1e 3e 64 d1 09 3e
       0.25372332 0.0988881 0.1549298 0.13458782
0000c0 31 43 57 3e 19 8c 30 3e d6 1d 36 3e 83 34 15 3e
       0.21021725 0.17240943 0.17784819 0.14570813
0000d0 f3 8b 6e 3e eb a4 67 3e dc 64 cd 3e 23 1b f2 3d
       0.23295574 0.22621505 0.40116012 0.11821582
0000e0 dd 89 3d 3e 6e 02 0e 3e 5a 23 08 3e 5c a6 85 3d
       0.18509622 0.13868114 0.13294736 0.06525871
0000f0 e5 e9 0f 3e f7 31 c4 3d 90 e3 c9 3e 8b c0 32 3e
       0.14054067 0.095798425 0.3943143 0.17456262
000100 37 80 96 3d ef 15 0c 3e 9e 5c 96 3e 34 8f 0a 3e
       0.07348674 0.13680242 0.29367536 0.1353119
000110 11 da b3 3d 72 3a 03 3e 28 d1 01 3e 38 47 8f 3e
       0.08781827 0.12815264 0.12677443 0.27984023
000120 67 58 21 3e 63 3a f4 3e 1d bd dd 3d ce 4c 02 3e
       0.15756379 0.47700796 0.10827086 0.12724611
000130 de ce b9 3d 1a f1 68 3e ed da df 3e b7 27 fd 3d
       0.0907266 0.22748223 0.43721715 0.12361091
000140 eb 86 63 3e fa 85 00 3e 73 6b b1 3e 43 cb ad 3d
       0.22219436 0.12551108 0.3465229 0.08486035
000150 9b 45 b8 3e 8e b6 50 3e 49 42 64 3e 54 f7 63 3e
       0.35990605 0.20382139 0.22290911 0.22262317
000160 e9 7a 38 3e 0e 3a 2e 3e 47 30 f0 3d 2b ee d6 3d
       0.18015637 0.17014334 0.11727958 0.10494646
000170 c0 ff 2d 3e 88 67 a9 3e 71 7b 4b 3e 3b 88 3c 3e
       0.16992092 0.330868 0.19871308 0.18411343
000180 91 fa bc 3d ae 8e dc 3d ab 36 8d 3e 85 37 bb 3d
       0.09227479 0.107694015 0.2758077 0.09141449
000190 4a a9 0c 3f f9 c4 26 3e b7 7e 12 3e 6f cd f2 3d
       0.54945815 0.16286077 0.1430615 0.118555896
0001a0 1c 6a 8a 3e 88 f9 25 3e d4 a6 20 3e 77 99 4e 3e
       0.2703408 0.1620847 0.1568864 0.2017573
0001b0 fe 01 25 3e f1 06 ba 3d 76 4e a0 3d e3 3f c9 3d
       0.16114041 0.09083355 0.07827465 0.098266385
0001c0 ac ff 08 3e cc e2 34 3e d1 dd f0 3d 62 d1 cb 3d
       0.13378781 0.17664641 0.11761058 0.09952046
0001d0 3b c9 56 3e 0e 3f 13 3e f6 12 b0 3d 51 3d b0 3d
       0.20975201 0.14379522 0.085973665 0.08605445
0001e0 77 97 b5 3e d3 3d 8f 3d 15 ef 71 3e 5e 15 07 3e
       0.3546712 0.06994214 0.23626359 0.13191745
0001f0 1e 38 57 3e 7b 7b f1 3d 51 93 3f 3e 59 36 10 3e
       0.21017501 0.1179113 0.1870854 0.14083232

decoder.0.weight f4 [64, 128, 3, 3]
000000 e8 f8 ef 3c 7d 67 8c bb f8 31 0e 3c 9d 73 e3 3c
       0.029293492 -0.0042847977 0.008678906 0.02776509
000010 86 8d a6 bc 2d fd d1 bc ae 14 86 bb 86 4e e5 3b
       -0.020331156 -0.025633419 -0.0040918207 0.006997886
000020 ce 8e a0 3c 5f 37 e7 bb 6e 73 d1 bc 99 33 88 bc
       0.019599345 -0.0070561613 -0.025567736 -0.016626166
000030 04 b9 68 bc d2 41 ae 3c ad 7f 8f bc 92 64 32 bc
       -0.014204267 0.02127162 -0.017516935 -0.010888236
000040 22 65 ae bc 2e 49 4d bc 3f 22 c7 bb 7e 22 83 3c
       -0.021288458 -0.012529654 -0.0060770805 0.016007658
000050 ec ea e2 3b 5f b9 cf 3b 1f a4 8e bc 9b fc 7e bc
       0.0069249775 0.0063392366 -0.017412243 -0.0155631555
000060 56 00 ef bc 26 53 a0 3b 30 d3 26 3c 48 8f 6c bb
       -0.029174965 0.0048927246 0.010182187 -0.0036096144
000070 65 eb e2 bc 69 0c 87 3c 04 06 08 3c 25 a3 68 bc
       -0.027700135 0.01648541 0.0083022155 -0.014199053
000080 b6 b7 1d 39 06 5a 4d 3c 3b 42 a1 3c 84 dd e0 3c
       0.00015041124 0.01253367 0.019684901 0.027449377
000090 3e b0 b5 3c cc 11 31 3c f1 14 a3 3c 3b 91 24 3b
       0.022178765 0.010807466 0.019907447 0.0025110978
0000a0 3a b3 92 bc c6 52 18 bc 2b 20 67 3c 06 5d e7 3c
       -0.017907728 -0.0092970785 0.014106791 0.0282426
0000b0 b8 62 9d bc d1 31 24 3c ac f7 a4 bc b7 99 e8 3c
       -0.019212112 0.010021643 -0.02013763 0.02839361
0000c0 2d c8 1e bc f3 6a 12 b9 7e 9f 1d bb 27 48 9d bc
       -0.00969128 -0.00013963487 -0.0024051364 -0.019199444
0000d0 5a 7c 39 bb e1 c3 ca bb 05 b1 de bc 1d 42 85 bc
       -0.002830288 -0.0061879014 -0.027184019 -0.016266877
0000e0 2c 61 7f 3c 0b c1 cf 3c a0 ee c9 3b 47 b2 90 3c
       0.015587132 0.025360605 0.0061624795 0.017663134
0000f0 8b 57 92 3b c5 3a 6f 3c bf fa 9b bc 79 2a 49 bb
       0.0044660023 0.014601414 -0.019040463 -0.0030695482
000100 f1 55 c7 bc 54 e0 ab 3c 51 13 c7 3b 57 a1 3d bc
       -0.024332972 0.020980991 0.0060753007 -0.011574111
000110 5e 87 1b bb 76 86 82 bb 25 6b d7 3c 75 a4 11 3c
       -0.0023731808 -0.003983314 0.026296208 0.008889307
000120 b7 57 e9 3c 27 18 0b 3a c0 18 32 3c 91 fb 38 bc
       0.028484209 0.0005306028 0.010870159 -0.011290447
000130 73 f7 e4 bb 74 91 43 bc 46 c0 aa 3c 61 14 64 bb
       -0.006987506 -0.011936534 0.020843636 -0.0034802186
000140 1f e8 a0 bc d6 54 e3 3c b8 cf df 3c 0a 38 41 bc
       -0.019641934 0.027750414 0.027320728 -0.011793146
000150 2e 71 e8 3b 9f 81 3d 3c b1 5c a7 3c 4a 7a 87 bc
       0.00709357 0.011566549 0.02042994 -0.016537804
000160 01 f5 b5 bc 4f 27 a4 3c df c5 16 bc 9e 44 0d 3c
       -0.022211554 0.020038275 -0.00920245 0.008622317
000170 21 06 d2 bb 02 50 e5 3c 94 6a 65 3c 99 45 f2 3c
       -0.006409422 0.027992252 0.014002461 0.029574202
000180 18 ae f0 3c 58 1f d3 3b 7e ed ac bc eb 28 25 3c
       0.02937989 0.0064429455 -0.021109339 0.010080556
000190 06 4c 3a bc a4 ae c3 3c 47 af 82 3c 31 00 aa 3c
       -0.011370664 0.023886986 0.01595272 0.020752044
0001a0 4e 5e d9 3c ba 4e 41 3c 04 68 b5 bc 3d 54 1d 39
       0.026534226 0.011798555 -0.022144325 0.00015004068
0001b0 01 3c e8 bc bb 74 4b 3c bf 01 52 bc 50 f9 85 bc
       -0.028348925 0.012417967 -0.012817799 -0.016354233
0001c0 8c 96 ff ba 9e 43 71 bc de 7b a1 3c 08 a7 c9 bc
       -0.0019499823 -0.014725594 0.019712385 -0.02461578
0001d0 8d eb ac bb cf 84 6f 3c 9f 86 2c 3c 8f d6 9c 3b
       -0.0052771033 0.014619066 0.010530143 0.0047863196
0001e0 06 ff 74 3a 9c e2 08 3c 9a 1b dc bc 66 be 2e 3c
       0.0009345863 0.008354809 -0.02686863 0.010665512
0001f0 a5 d2 9e 3c 97 08 81 bc 38 f6 1f 3c ef cd c6 b9
       0.019387553 -0.015751166 0.009763293 -0.00037918935
000200 75 34 b9 3c 20 ff c9 bc de fc 3c bc 03 bc b5 bc
       0.022608021 -0.024657786 -0.011534898 -0.022184378
000210 d6 54 3d bc ee 68 36 bc 0b 87 ae 3c fa 4b 6d 3c
       -0.011555871 -0.011133416 0.021304628 0.014483446
000220 d6 61 f5 bc 7b 47 44 3b 0d 2e eb bb 82 e5 cd 3c
       -0.029953878 0.0029949832 -0.0071771205 0.025133852
000230 72 7a 47 bc f1 9f 39 3c c3 df bd bc 92 73 7f bc
       -0.012175189 0.011329637 -0.023177987 -0.015591519
000240 7e 05 ed bc 00 63 06 3b c8 d3 e1 bc 2f 64 1b 3c
       -0.028933283 0.0020505786 -0.027566805 0.009484335
000250 49 ec a7 3c d6 bd cf bb 20 b5 eb bc 31 82 73 bc
       0.020498412 -0.006339769 -0.02877289 -0.014862583
000260 33 c3 ce bc f8 bc 7e 3b 27 c0 ea bc 8b 76 d0 bc
       -0.025239563 0.0038869958 -0.028656079 -0.02544715
000270 72 03 ef 3b b3 05 61 3b 35 d9 22 3c 88 2e c6 bc
       0.007294112 0.0034335672 0.0099394815 -0.02419211
000280 2b d3 e2 3c 88 de 29 3b 3d 91 cd 3c 62 13 db ba
       0.027688583 0.0025919992 0.02509367 -0.001671415
000290 2e e6 de bc 6c f5 bc bc 9c 26 ae bc 97 38 09 bc
       -0.027209368 -0.023066245 -0.021258645 -0.0083753085
0002a0 1c fa 0b 3c e6 7e 50 3a 41 69 c6 ba ca 0f d1 bc
       0.008543517 0.00079534797 -0.0015137569 -0.025520224
0002b0 92 71 03 3c 2c d8 84 bc f7 1b b7 bc 2f d6 01 3c
       0.008022683 -0.01621636 -0.022352202 0.0079246005
0002c0 cf 3f a1 3c 1f 59 c0 bc 13 e9 ef 3b 72 35 bc bb
       0.019683747 -0.023479996 0.007321486 -0.005743676
0002d0 d4 78 dd 3c 07 c7 81 3c 97 65 f8 bb d5 06 97 3c
       0.027035154 0.015841974 -0.00758047 0.018435875
0002e0 e2 0f 23 bc bd 20 e8 3c ff 75 8f 3b 21 7a fc bb
       -0.009952517 0.028335923 0.00437808 -0.0077049886
0002f0 8b e6 87 bc 69 89 d0 3c 06 9d 0b bc 9e e2 e2 3c
       -0.016589424 0.025456147 -0.008521324 0.02769595
000300 c3 8b eb bc 17 4f 78 3b b3 da f4 bb 36 fb ce 3c
       -0.028753167 0.0037888938 -0.00747236 0.025266271
000310 e0 ae 9b 3c 86 d3 62 bc 5e ec 37 3b 35 6c 8f bb
       0.019004285 -0.013844376 0.002806447 -0.004376913
000320 47 28 22 bc 10 04 99 3c 08 fe 08 3a ff 7b b9 bb
       -0.009897298 0.018678695 0.0005225842 -0.0056605334
000330 e3 c2 af b8 94 23 7a 3c 3b 54 90 bc 78 20 a5 3b
       -8.380951e-05 0.015267272 -0.01761829 0.005039271
000340 50 08 64 3b 61 d4 69 3b 7e ec 9a 3c f9 21 b6 3c
       0.0034794994 0.0035679566 0.018911596 0.022232996
000350 ae e4 bd 3c 61 27 22 bc 6e 4b cf 3c ac 3d c0 3b
       0.023180332 -0.009897084 0.025304522 0.005866727
000360 a1 31 24 bc 97 56 b9 3c 3a 38 bb bc 44 5b bc 3c
       -0.010021598 0.022624297 -0.02285396 0.022992738
000370 7f d2 ae bc 10 d2 71 3c ad fa ba bb 19 ec 7f 3c
       -0.021340607 0.014759555 -0.0057061524 0.015620255
000380 fe 69 93 bc b9 80 ba 3c aa e8 8f 3b ee 2c ad 3c
       -0.017994877 0.022766458 0.0043917494 0.021139588
000390 aa f7 b7 bc 6b 96 7a 3b ea d4 51 3c 15 f5 b4 bb
       -0.022456963 0.0038236629 0.01280711 -0.00552238
0003a0 ae 8e 9e 3c 8c 2d e4 bc 67 60 be bc 17 e7 01 b9
       0.019355144 -0.02785375 -0.023239328 -0.00012388486
0003b0 a0 26 40 3b c3 54 c7 3c 47 34 90 3c 13 ae 60 3c
       0.0029319897 0.02433241 0.017603053 0.0137133775
0003c0 67 9e b8 bc 70 d0 cc bc a7 79 a5 bc a7 f5 c0 3b
       -0.02253647 -0.025001734 -0.02019961 0.005888659
0003d0 34 ed ce 3c 11 c5 3a bc 90 63 a6 bc 89 db 6b bc
       0.025259592 -0.011399523 -0.020311147 -0.014395603
0003e0 e0 b8 38 3c aa df 50 bc ef 9f bb bc 92 4f 79 3c
       0.011274546 -0.012748638 -0.02290341 0.015216725
0003f0 13 4a a7 bc bb 03 d5 bc eb a5 e4 bc 24 4d eb 3c
       -0.020421064 -0.026002755 -0.027911147 0.028723307

decoder.0.bias f4 [64]
000000 ad a6 96 3c 8e c6 9d 3c 55 a1 bc bc 1e be 27 bb
       0.018390024 0.019259717 -0.023026148 -0.0025595496
000010 8b d9 96 3c ba eb 79 bc 8f 85 b8 3c 3c 76 88 bc
       0.01841428 -0.0152539555 0.022524623 -0.016657941
000020 57 50 0c 3c a6 3d c8 3c 8c da 13 3c 39 18 81 bc
       0.008564076 0.024443459 0.009024274 -0.01575862
000030 9d 3f f0 3c 98 82 db 3c e1 89 af 3b a3 b1 24 3c
       0.029327208 0.02679567 0.0053570126 0.0100521175
000040 91 2c 4e 3b fb fa d5 3c 78 f4 a9 3c 49 d6 a8 bc
       0.003145967 0.026120653 0.020746455 -0.020609992
000050 5a 23 ad 3b 1e 2b 3a bc 85 ba 9e 3c c0 f2 6a 39
       0.0052837553 -0.011362819 0.019376049 0.0002240641
000060 b3 de eb 3c 77 ca 6a bc e9 45 eb bb 56 cf 4a ba
       0.028792715 -0.014330498 -0.007179965 -0.0007736584
000070 4a 78 e3 bc 20 b4 b9 bb dc 72 14 3a fd 2b 14 ba
       -0.02776732 -0.0056672245 0.00056628673 -0.0005652307
000080 02 fa e7 3c d8 b3 e8 ba 22 34 57 3c 2d e6 e1 bc
       0.028317455 -0.0017753793 0.013134988 -0.027575577
000090 bb 77 fa bb 39 a8 b5 3c 9e 08 70 3c 68 53 e5 bc
       -0.0076436675 0.022174941 0.014650492 -0.027993873
0000a0 4c 07 af 3c 57 44 b0 bb 6b ba 23 bb 8a 93 a2 bb
       0.021365784 -0.0053792405 -0.002498294 -0.0049614357
0000b0 9a e8 37 bc f5 e2 e2 3c f9 9e 22 bb 3a 40 31 ba
       -0.01122489 0.027696112 -0.0024813993 -0.00067615847
0000c0 6d ba 97 3c c2 39 90 3a ff 5a 2a 3b 8f 94 f0 3c
       0.018521512 0.0011003541 0.002599418 0.029367713
0000d0 81 fe ae 3c 79 34 0e 3c 8e 66 09 3c 60 0c 64 bc
       0.021361591 0.008679503 0.008386267 -0.013918966
0000e0 27 d5 56 3c d7 22 81 bb a3 4c d3 bc a1 43 8e bc
       0.013112343 -0.003940921 -0.02579338 -0.017366232
0000f0 72 51 51 bc b9 7e 9d 3c c6 7f 3e b9 d5 b4 79 bc
       -0.012775766 0.019225465 -0.00018167411 -0.015240868
