checkpoints/2025-06-02-14-43-34/last_epoch.pth (torch, 686901 bytes, 25 tensors)

encoder.0.weight f4 [64, 3, 3, 3]
00000000: 2310 2a3e 15f1 eebd fb39 eabd 3547 fe3d
00000010: c5ad 12be c2b5 a0bc b8fb ff3d b289 cd3d
00000020: d0e8 213e 6855 103e 2ba8 303c caed 23be
00000030: ba2d 35be abac 05be a124 6b3d 2b21 b3bd
00000040: 5031 14bd 7513 0f3e dfa9 2c3e d22c 193e
00000050: e812 3fbd b358 d93d 65aa a1bd 4c13 e6bb
00000060: 6fbf c4bd ca6d e4bd 23ea 473c 6caa f03d
00000070: 12ac 8b3d 02b0 3b3e 80b7 36bd 0cba 6c3c
00000080: 810a 2b3e 8774 e73d 9806 8ebd 39f7 133d
00000090: ddc4 cebb 00b4 1bbd 9678 dabd 526d 753d
000000a0: 02ea dabd 4090 9ebb 1768 5ebd 5294 25bd
000000b0: 7b4b 7c3d 7887 dcbc 7da9 efbc 7cbd 913d
000000c0: 0eb5 403c 45f8 d73c aafe 423e 65c0 04bc
000000d0: 3888 3c3e ffeb 6bbb 53c6 c93d b835 f63d
000000e0: b135 9d3d ff58 833d f6cf c93d cca3 933d
000000f0: 97f9 9ebc 4d0c 34bd c3ff 93bd 36e9 863c
00000100: 8154 d13d 2639 a13d 4e95 6e3d 6734 2b3d
00000110: 9b95 363e ec81 8d3d 8fc8 3ebe 19d1 903d
00000120: 9da3 f53c 0538 79bd 9f22 07be 9e24 25bd
00000130: 0697 383e 31ed 053e e1f8 26be 8457 2f3e
00000140: 72ca 083b ffcd d93c 8254 9abd c965 433c
00000150: e1ee a9bd f286 fa3d 49f1 0f3e 15fe 9d3d
00000160: 7d59 1c3e b902 8a3d 26be cc3c 6032 13be
00000170: 62e5 8abd d3e5 c3bc 097d 1b3b 15a8 28be
00000180: 7f3a e0bc 8950 0a3e fd1d 923d 676e b8bb
00000190: 3743 a2bd 7029 edbd ff1c fd3d 92d6 8e3d
000001a0: f809 3bbe ca76 b1bd 488f e03d caa9 3e3c
000001b0: 4193 a93d 9170 383e d8aa f23d 0679 053e
000001c0: a767 2e3e 3333 c13d 6b8b 3dbe f79c b03d
000001d0: c60c d8bd 98c3 273e 0c84 e3bc 4e31 393e
000001e0: a6a6 82bc fbcf 1c3e 77f4 053d d192 bbbd
000001f0: d6f4 89bd bdf3 2cbd e05c 2b3e a5f3 fabd
00000200: 1c7c b4bd 1173 323d dcd1 953d 8594 353e
00000210: e862 b0bd b430 b93b 9b2d 323e 09e1 aebd
00000220: 0954 f0bc 57f4 a9bd 4f15 dcbc afb6 3fbd
00000230: 8e35 2bbd 5848 37be 175a 183e d3bc 4abd
00000240: 6b0b e7bc e947 b0bd 7be0 0dbd b781 643d
00000250: 42e1 49bd 6d72 36be a312 d8bd 6086 073e
00000260: 0559 033e 21b0 2abe ee84 373e 4ea3 573d
00000270: 57a1 3c3e 4070 2e3e 42a5 95bd c6fa f13d
00000280: 8cac 183e a9b9 d1bd 838c 293d f648 3dbe
00000290: 398f 5e3c 999e 8b3b 74f3 7cbd 2661 0e3e
000002a0: 87e9 e6bd a211 a7bd a67c be3d 4bdd af3d
000002b0: 8181 8abd 8d0b d6bc 6751 7d3c d4bc 0dbe
000002c0: 01df 133e 6481 2dbe 5aa1 013e aa86 2b3e
000002d0: 87ca 05be 6ee7 d03d e569 3c3e 9e15 133e
000002e0: 0ac5 d03d bacf 3cbe cc8a 043e 79a7 8dbd
000002f0: 11db 043e d493 1c3d 6abe 9b3d 0506 3dbe
00000300: c002 2c3e abc8 41be d296 88bd a503 283e
00000310: 6f5c f3bc 8d03 223e bff5 ce3c 6a6f 873d
00000320: ef57 fbbd 854c e6bd c43f 0e3e 2d23 3cbe
00000330: 9032 12be be05 7e3d 5479 7f3c 22fd f5bd
00000340: cb22 50bd 0b70 e5bd 0f23 32be 8e24 cd3d
00000350: 9974 19be ed54 0ebb 3ec4 2e3e 39ad 843d
00000360: ad6e 14be 86b2 25bd 6a23 0fbe 791b 403d
00000370: 7888 70bd 6f56 3a3e 0e85 1cbd 9e24 563d
00000380: 30ee 5fbd 5f89 283e 8cac ffbd 932f 0cbc
00000390: 9ad6 96bc 8fc0 d7bd 75c4 443e ffab 17bc
000003a0: e64f 2b3e 55f9 a8bd 3ab6 903d a5d1 083e
000003b0: bc38 893d 4c95 863d d3d0 643d e2e4 33be
000003c0: fd26 23bd b8e3 2a3e 2575 1f3e d822 e1bd
000003d0: 5b56 ac3d b2d3 40bd 938d 0e3e 0159 42be
000003e0: 694b b8bd cc44 133e 6802 d8bd 5fb8 f9bc
000003f0: 56f7 553c 04a6 e2bd f56b 0e3e 053d 28be
0.16607718 -0.116670765 -0.1143684 0.124159254 -0.143241 -0.019617919 0.124991834 0.10036029
0.15811467 0.1409508 0.010782282 -0.16008678 -0.17693225 -0.13054149 0.05740798 -0.08746561
-0.03617984 0.13972266 0.16861676 0.14958504 -0.04664889 0.10612621 -0.07893828 -0.0070213433
-0.096068256 -0.11153753 0.012201819 0.117512554 0.06819929 0.1832886 -0.044608593 0.014448654
0.16703226 0.11301523 -0.069348514 0.03612444 -0.006310089 -0.03801346 -0.10667531 0.05991871
-0.10689165 -0.0048389733 -0.054298487 -0.040424652 0.06159542 -0.026920065 -0.029255623 0.071162194
0.011761917 0.026363501 0.19042459 -0.008102511 0.18411338 -0.003599882 0.098522805 0.12021965
0.076762564 0.06413459 0.098541185 0.07208976 -0.019406123 -0.043957043 -0.07226517 0.016468626
0.10221196 0.07872228 0.058247857 0.04179802 0.17830507 0.06909546 -0.18631195 0.07071132
0.029985243 -0.06084444 -0.131968 -0.040318124 0.18026361 0.13078763 -0.16305877 0.17123228
0.002087262 0.026587484 -0.0753565 0.011926123 -0.08297516 0.1223277 0.14056887 0.07714478
0.15268512 0.067388006 0.024993014 -0.14374685 -0.067820325 -0.0239133 0.002372565 -0.16470368
-0.027371643 0.13507284 0.07134626 -0.0056283954 -0.079229765 -0.11580169 0.12359046 0.0697452
-0.18265522 -0.08665235 0.10964829 0.011637161 0.082800396 0.1801169 0.11848992 0.13034448
0.17031728 0.094335936 -0.18510215 0.08623689 -0.10549311 0.16383207 -0.027772926 0.18085214
-0.015948605 0.15313713 0.032703843 -0.091588624 -0.06736152 -0.042224634 0.16734648 -0.12253503
-0.088127345 0.043566767 0.07315418 0.17732437 -0.08612615 0.005651558 0.1740021 -0.08539016
-0.029336946 -0.08298557 -0.02686563 -0.04680508 -0.04179912 -0.1789869 0.14878117 -0.049496483
-0.028203687 -0.08607466 -0.03463791 0.05578777 -0.04928709 -0.17817087 -0.1055043 0.13234854
0.12826927 -0.1666875 0.17921802 0.052645974 0.18420921 0.17035007 -0.07306911 0.11815409
0.14909571 -0.1024049 0.041393768 -0.18484864 0.013583952 0.0042608497 -0.061755612 0.13904247
-0.112750106 -0.0815766 0.093011186 0.0858713 -0.06762982 -0.026128555 0.015461302 -0.13841563
0.14440538 -0.1694389 0.12659207 0.16750589 -0.1306554 0.10200392 0.1839977 0.14363715
0.10193832 -0.18438616 0.12943572 -0.069167085 0.12974192 0.038226917 0.07604678 -0.18459328
0.16797924 -0.18924205 -0.06669392 0.1640764 -0.029707162 0.15821667 0.025263665 0.066130474
-0.122726314 -0.11245064 0.13891512 -0.18372793 -0.142771 0.062017195 0.015592892 -0.12011172
-0.05081443 -0.11203011 -0.17396186 0.10016738 -0.14985885 -0.00217181 0.17067048 0.06478352
-0.14495344 -0.040453456 -0.13978353 0.0469012 -0.058723897 0.18197034 -0.03821283 0.052281015
-0.054670513 0.16458653 -0.124840826 -0.008556264 -0.018412877 -0.105347745 0.19215567 -0.009257316
0.16729698 -0.08250681 0.07066007 0.13361223 0.06700274 0.06571445 0.055863213 -0.1756778
-0.039832104 0.1668843 0.15572031 -0.10992974 0.084149085 -0.04707689 0.13921194 -0.18979265
-0.08998758 0.14381713 -0.10547334 -0.030483423 0.013059458 -0.11066821 0.1390837 -0.16429527

encoder.0.bias f4 [64]
00000000: 3713 583c 5eb7 873d 13a6 2c3e 71c8 2bbd
00000010: 5f8d 08bd a956 44be a2b9 bbbd 8084 bf3d
00000020: 0ec5 eb3d e1c6 333e 749e 893d 9f7b f13d
00000030: bf58 b63b 6b0f 0e3d aaea 2c3d 6405 253e
00000040: 91f0 183e 429a 01be 037a aabd ea28 72bc
00000050: 4486 40be 6b89 6fbd 6b7d 4d3d 4226 31be
00000060: 6fc2 8dbd 2836 9fbd 91d3 c0bd 9140 a6bc
00000070: 6b08 f7bd 8f56 b13d c629 263e f569 29be
00000080: 44a9 f8bd 994b 08be 28a7 f73d e632 41be
00000090: 2479 f6bc 2b65 49bc 7554 be3d 5e29 103d
000000a0: 1f63 a93d 5740 ffbd 0221 c6bd 90d6 94bd
000000b0: 3dfc e5bd bad2 20be 85e1 25be 2eb7 1d3c
000000c0: 703c 9ebd 715e 6b3d 50c4 3abe 7126 263e
000000d0: a50b a6bd e7f2 8c3d 6fb3 07bd da29 69bd
000000e0: 3391 a0bd 1a23 ecbd dd35 cbbd c11d 58bb
000000f0: acdd 9cbd 414b 573c d99f 19be 02e5 d9bd
0.013188175 0.066267714 0.16860227 -0.041939203 -0.033337947 -0.19173683 -0.09166266 0.09351444
0.115121946 0.17556335 0.06719676 0.11791157 0.0055647786 0.034682672 0.04221598 0.16115338
0.14935519 -0.12656501 -0.08324053 -0.0147802625 -0.18801218 -0.05848066 0.050168436 -0.1729975
-0.06921851 -0.07774001 -0.09415353 -0.02029446 -0.120621525 0.08659088 0.16226873 -0.16544326
-0.1214166 -0.13310088 0.120924294 -0.18867072 -0.030087061 -0.012292187 0.09293453 0.0351957
0.08270859 -0.12463444 -0.096742645 -0.07267487 -0.11229751 -0.15705386 -0.1619931 0.009626193
-0.07726371 0.057463113 -0.1823895 0.16225602 -0.0810769 0.068822674 -0.033130106 -0.05692468
-0.078401946 -0.115301326 -0.09922383 -0.003297672 -0.07659468 0.0131405005 -0.15002383 -0.10639383

encoder.1.weight f4 [64]
00000000: a51b 803f 150e 803f ebf9 7f3f 44da 7f3f
00000010: 0d08 803f b2fd 7f3f e3fb 7f3f a70e 803f
00000020: c3e1 7f3f b703 803f 02fc 7f3f f4f7 7f3f
00000030: a30c 803f 160f 803f c0df 7f3f 39c0 7f3f
00000040: 831b 803f e6e0 7f3f 4d14 803f 54d6 7f3f
00000050: d80b 803f 5311 803f eedc 7f3f d8da 7f3f
00000060: fa1e 803f c2d1 7f3f a1d6 7f3f 1ed8 7f3f
00000070: d408 803f 9c20 803f 69ef 7f3f 82ff 7f3f
00000080: cac2 7f3f 07e0 7f3f 4305 803f 0e10 803f
00000090: beff 7f3f fe1c 803f e80b 803f 4aea 7f3f
000000a0: b619 803f ec07 803f db0a 803f 1517 803f
000000b0: 63c3 7f3f f8bf 7f3f d80b 803f 1d01 803f
000000c0: 3614 803f d0d4 7f3f 2fdb 7f3f 9bf8 7f3f
000000d0: 20df 7f3f 4edf 7f3f 2110 803f 15d7 7f3f
000000e0: 4f15 803f 4d12 803f 3b00 803f bbce 7f3f
000000f0: 5501 803f 9d14 803f 1fdb 7f3f eef9 7f3f
1.0008436 1.0004297 0.9999072 0.9994242 1.0002457 0.99996483 0.99993724 1.0004472
0.9995386 1.0001134 0.9999391 0.9998772 1.0003856 1.0004604 0.9995079 0.99902683
1.0008396 0.9995254 1.0006195 0.99936414 1.0003614 1.0005287 0.99946487 0.99943304
1.0009453 0.9992944 0.9993687 0.99939144 1.0002694 1.0009952 0.99974686 0.9999925
0.999066 0.99951214 1.0001606 1.00049 0.99999607 1.0008848 1.0003633 0.9996687
1.0007846 1.0002418 1.0003313 1.0007044 0.9990751 0.99902296 1.0003614 1.000034
1.0006168 0.999341 0.9994382 0.99988717 0.99949837 0.9995011 1.0004922 0.99937564
1.0006503 1.0005585 1.000007 0.9992482 1.0000407 1.0006291 0.9994373 0.9999074

encoder.1.bias f4 [64]
00000000: 0ea4 aab9 9905 0437 cc0b f539 7509 4a3a
00000010: b34f b039 4b22 afb9 f7bf adb8 c85e a2b8
00000020: 8b85 fa39 87ea e3b9 c85e 8a39 11cc dcb6
00000030: e1b3 313a c66f 9439 d744 04ba 3ed7 87ba
00000040: 13f2 69ba b14d 6ab9 ca6c 0f3a bdda 67ba
00000050: 053e fa38 c0d5 e138 d380 a5b9 3b7c a1b9
00000060: 0d63 653a 27df 1c39 5722 c4b9 3d34 e3b9
00000070: 504e 69ba e71a 7139 b7f4 12ba 50e2 6ab9
00000080: a38f 87b9 f32e de39 96d8 003a 2d60 86b9
00000090: 92ac 503a 6873 513a 66cc 08ba a65d 2eb9
000000a0: 87d1 0f3a 106e 74ba e9a1 84b9 ad34 b2b9
000000b0: 3fe1 26ba aa6d 86ba c512 80b9 ea88 d5b9
000000c0: f9b8 453a 8879 87ba 969b 0bb9 466b db39
000000d0: 2223 20ba 13db 65ba e74a b9b9 7cd8 0dba
000000e0: e127 42b9 6720 753a 0a37 5a3a d1cf dfb9
000000f0: 79a4 243a 0356 4a3a 37a0 5fba 2fdd 653a
-0.00032547157 7.869116e-06 0.0004673883 0.00077070977 0.00033628716 -0.0003340415 -8.285039e-05 -7.742416e-05
0.00047783213 -0.0004347155 0.0002639203 -6.5802674e-06 0.0006778818 0.00028312037 -0.00050456583 -0.001036383
-0.00089243165 -0.00022344921 0.0005471228 -0.0008844545 0.00011932481 0.0001076865 -0.00031567234 -0.00030800872
0.00087504165 0.0001496045 -0.00037409618 -0.00043335735 -0.0008899914 0.00022993573 -0.00056059234 -0.00022400287
-0.00025856224 0.0004237812 0.00049150863 -0.00025630128 0.00079602853 0.0007989914 -0.0005218446 -0.0001662882
0.0005486239 -0.0009324262 -0.00025297634 -0.00033990052 -0.0006365962 -0.0010256071 -0.00024428047 -0.00040728535
0.00075425167 -0.0010335902 -0.00013314033 0.0004185086 -0.0006108751 -0.00087683013 -0.00035341756 -0.0005410982
-0.00018516138 0.00093508366 0.00083242415 -0.0004268871 0.0006280612 0.0007718505 -0.0008530649 0.00087686157

encoder.1.running_mean f4 [64]
00000000: add9 02bd e654 00be d588 67bd f7b2 d7bd
00000010: 3b12 a3be be81 06be e19a 13be 12f1 1b3e
00000020: c45d 513d 4c69 8f3e f534 a93e 6f14 83bc
00000030: e750 39bc 566d 38be 4d22 413e 9a40 243e
00000040: e84a a93d 1251 fbbd c9ce 7bbe 0c7f 49bc
00000050: 3638 51be 6501 3fbe 08e1 173e 24ba 5abe
00000060: f53c 293e 5380 163d db2b 183e e27a a73e
00000070: 78c2 d1bd 6ce9 5c3c 222b b43d c94e 833d
00000080: f9f6 a33d f264 c8bd a9d4 d73c 815f b7bd
00000090: 4757 743d 0d10 b83e c3b4 bf3d 46e6 65be
000000a0: 3ca0 8a3d 10ef b8bd 8f99 81be f225 97bd
000000b0: fefd cbbc 44b7 3bbe 2191 dcbd df9e b93b
000000c0: 7506 8f3d 97de 053d e15c 99be 1d70 ee3d
000000d0: fa96 c63a 5873 e23d 67d9 11be 90ef e3be
000000e0: 53ba 30be c710 4a3d 9eae d3bb a0d3 e8bd
000000f0: e335 283e 57f1 3f3d 8327 31be 828f 89be
-0.031945873 -0.12532386 -0.056526978 -0.10532182 -0.31849846 -0.1313543 -0.1441455 0.1522868
0.051114812 0.28010023 0.33048216 -0.016000954 -0.0113107925 -0.18010458 0.18860741 0.16040269
0.0826624 -0.12271322 -0.24590601 -0.012298357 -0.20431599 -0.18652876 0.14831936 -0.2136007
0.1652716 0.036743473 0.1486048 0.3271094 -0.1024217 0.0134833865 0.087972894 0.064115115
0.08006091 -0.09784879 0.026346521 -0.08953763 0.059653547 0.35949746 0.093606494 -0.22451124
0.067688435 -0.090299726 -0.25312468 -0.07380284 -0.024901386 -0.18331629 -0.10769869 0.005664691
0.069836535 0.03268298 -0.29953673 0.11642478 0.0015151196 0.11057156 -0.14243089 -0.4451871
-0.17258577 0.049332406 -0.006460025 -0.11368489 0.16426806 0.04686102 -0.17300229 -0.268673

encoder.1.running_var f4 [64]
00000000: 2953 863d 9ec4 0d3f 4f34 5f3f 4b19 de3d
00000010: 7ac8 b43f b260 fc3d 67b9 4c3e 8324 643e
00000020: cbf5 8c3e 1820 4a3e 9d11 0040 8bff dd3e
00000030: 9421 493d adc6 403f 7291 c03e 9d50 d53c
00000040: 7ab3 fc3d 86da 3c3d bf13 c83e 84c1 4f3d
00000050: aeb5 8d3d 8a91 b13e 747c 4e3e bade 703d
00000060: e5de 563f 0304 293e 93b1 553f 85f6 1540
00000070: 75e8 683d d396 dd3d 223a ec3e 1595 633f
00000080: e902 533f f1a3 b43d c62f 6d3e d601 e03e
00000090: 48a3 9c3e f3b2 0d40 8027 933d e904 a23f
000000a0: fe14 fa3d d83b a73d ce86 dd3e 6999 083d
000000b0: f2ff da3d 5f76 843d 3673 b03d 3a67 123d
000000c0: 9a31 b63e 4e5d 973d 8b75 6f3e 7e7c 853e
000000d0: 1a97 d23d 195e 693d 64a6 943e 3b26 2140
000000e0: 8f89 703e 9b9e c93e d69b df3d 8d19 263e
000000f0: 27a2 443f 6a41 7c3d 9878 933d 0910 d03e
0.0655883 0.5537814 0.8718919 0.10844668 1.412368 0.12323131 0.199926 0.22279553
0.27531275 0.19738805 2.001075 0.43359026 0.04910429 0.75303155 0.37610966 0.026039416
0.1233892 0.046106838 0.39077565 0.05072166 0.06919418 0.3468135 0.20164663 0.05880616
0.8393386 0.16505437 0.8347408 2.3431714 0.056862313 0.10819783 0.46138102 0.88899356
0.82426316 0.08820332 0.23162755 0.437514 0.30593324 2.2140472 0.071852684 1.2657748
0.12211035 0.08165711 0.4326691 0.03334943 0.10693349 0.0646789 0.08615725 0.035742976
0.35584718 0.07390843 0.23384683 0.26071543 0.102827266 0.056974504 0.29033196 2.5179584
0.23489974 0.3937882 0.10918395 0.16220684 0.76809925 0.06158582 0.07200736 0.40637234

encoder.4.weight f4 [128, 64, 3, 3]
00000000: d814 d03b 3d80 293d 1393 a83c b4a4 a73b
00000010: abeb babc 09bb 383c f307 8bbc 0f78 bebc
00000020: ce53 ffbc 5df1 babc fee1 ff3b 00f1 b2bc
00000030: 07f3 f2ba 7ad3 babb 52f2 61bc 1450 48bc
00000040: 8609 5bbc d4d4 f63c 2cf0 06bc 03f3 b6bc
00000050: 1fd4 65bc 5607 9339 f3b9 333c eeb3 eb3c
00000060: c940 2abd a73c 063d 31a5 1ebd 8e8d 0fbd
00000070: 92f7 1a3c 3918 f43c a387 113d 1f7b 2a3c
00000080: a849 093d ef66 263c b5ff e9bb 8789 193d
00000090: 3cde c03b f022 21bd f5c8 1bbd 3a4e d6bc
000000a0: 5bed c7bb 018a 37bc 21d9 4dbb 411b 3b3c
000000b0: 0dae d0bc 9f00 8b3b dfcf bd3c 5069 bebc
000000c0: 29ab b5bb fd82 7abc 5710 043d 9b7d 29bd
000000d0: 7223 dc3c 3009 4e3c 3be0 25bc 815a ac3c
000000e0: 5788 bd3c 1cc4 ff3c cb28 143d 2665 183d
000000f0: 8296 c3bc 8979 253d 20bd be3b 3640 263d
00000100: 3042 463b c0fb 4b3c 6b40 ac3b 3443 9abc
00000110: 1c63 cbbc d64e 1fbd 0998 b2bc b4d8 a43c
00000120: 569b eb3c 2ea0 013c 74ba de3b 4c97 0e3d
00000130: 9b90 253d 79d9 fa3c 13b7 df3b dc90 013d
00000140: 8ed6 1b3d 8133 dabc 565d d7bc f4d4 f238
00000150: 6736 f3bc 056f 0c3d 47d7 293d 1816 b4bb
00000160: 9c63 233d c7ca e03c 9002 913c e759 ebbb
00000170: e63c c23c 62a3 02bc 0158 25bb 0319 00bd
00000180: b856 c33b 4844 883c 2179 43bc 85db 17bd
00000190: 8899 1d3d f254 28bd e2fb 873c 1943 0fbd
000001a0: d432 55bc 4d5e 22bd bdcc 043d bcfc e7bb
000001b0: 2d7f 5bbc ba8b 0f3d 0a9f 153d 3d94 0a3d
000001c0: 5dbe 5ebc 56a6 f13c ceda 0bbd 3fa3 f7bc
000001d0: ea81 f63c 585b 17bd 9462 19bb a5b6 b2bc
000001e0: dca8 cc3b 09f2 f9bc 62e9 07bd 8a30 9938
000001f0: 6904 f9bc 218d 293b 642d 88bc c870 953c
00000200: 763e 5fbc 0540 24bd dce5 edbc adef 493c
00000210: e23b 7abc 6d5e 13bd dd6d a6bc d74d eb3b
00000220: 1897 013c e2bd f7bc fbd9 243d ab7d d3bb
00000230: da20 b13c f617 f6bc ac02 9a3a 89d8 d03b
00000240: 2e04 92bc 0da6 823b a295 f73c 652c a73c
00000250: 1c33 283c 237c e8bc 31f0 d3ba 7a2d 093d
00000260: eb6e 07bd 4304 bd3b e368 4abc b3fa bebc
00000270: 212a f83c c0f1 993b 28ea 053c e9ac 2a3d
00000280: c570 c33b 05ad a83a a544 d1bc 8e79 e63c
00000290: 1a1f 6fbc 4f9c 9a3c 8ae6 38bb 4d75 d8bb
000002a0: 4fe0 f53c 394e 1f3d 815f a7bc 311b b93b
000002b0: babf b23c c39d a03c 8a50 b9bc b164 f83c
000002c0: aec5 7cbc 88f0 0dbd f4cf 9b3b 2ce9 c73c
000002d0: 059d 1fbd 64f0 64bc d34e 7439 7c91 8fbc
000002e0: d53c b7bc f0ca 17bc ad99 2a3d 8daf e4bc
000002f0: 5d0a 003d 5969 d2bc 06a8 12bd 6f6d 57bc
00000300: ab57 183d 20fa 10bd fc1e 0b3d a306 233d
00000310: 96ed 5b3c 8833 d13c bc2b f83b f651 e43c
00000320: 937b 90bc 85a0 22bd 1d8c 9dbc b084 abbc
00000330: 6ef8 9e3c 6faa c23b 59f5 823c 5de6 fb3b
00000340: 2dbd dabc e724 e43c fb9f 51bc 033f 40bc
00000350: 74bc 253d d9cc 3c3c 0dc3 cf3c e9af 0ebc
00000360: 94ae e33b 0bb7 c53c 23a2 e2bc 3b9f dc3c
00000370: b39a e0bc 3e7a 8fbc faca 113c 488f 173c
00000380: 26ad 1c3c 093b b93b 34f2 153d c767 15bc
00000390: a42a 2abd 0161 223d d74e 96bc 2a3b 113d
000003a0: f0be 253d 5032 543c 8ac3 22bc 3cdc 00bc
000003b0: 44cf 8dbc b9ab 81bc 4116 5fb9 5d30 233d
000003c0: 6692 083c ff59 0c3d 5e2b 243c 019f 5cbc
000003d0: f163 f73a 2ba4 2c3d 7a71 2f3c 7392 f3bc
000003e0: edf4 08bd 4282 35bb 4428 69bc b532 9c3b
000003f0: 310e 643c e68e 86bb 808a ab3c 1c23 0a3c
0.006350141 0.041382063 0.020577943 0.0051160697 -0.022817453 0.011275061 -0.016971564 -0.023250608
-0.03116789 -0.02282017 0.007808923 -0.021843433 -0.0018535563 -0.0057014795 -0.013790684 -0.012226123
-0.01336897 0.030130781 -0.008235972 -0.022332674 -0.014027624 0.0002804349 0.010969627 0.02877232
-0.04156569 0.032772686 -0.038731758 -0.035047106 0.009458439 0.029796707 0.035529744 0.010405331
0.03351751 0.010156377 -0.0071410784 0.037484672 0.0058858674 -0.03933996 -0.038033444 -0.026160348
-0.006101293 -0.011202336 -0.0031409936 0.011420072 -0.025473619 0.0042420174 0.02317041 -0.023243576
-0.0055440855 -0.015290019 0.032242145 -0.041379552 0.02687237 0.012575433 -0.0101242615 0.02103925
0.023136301 0.031221442 0.036171716 0.037205838 -0.023875479 0.040399108 0.0058208853 0.04058858
0.0030251853 0.012450159 0.0052567027 -0.018830873 -0.024827532 -0.038893543 -0.021801012 0.020122863
0.028760593 0.007911725 0.0067971293 0.034812257 0.04042111 0.030621277 0.006827244 0.03163229
0.038046412 -0.026635887 -0.026289623 0.00011579125 -0.029689027 0.034285564 0.04146507 -0.005495798
0.039889917 0.027440442 0.017701417 -0.007182348 0.02371068 -0.007973524 -0.0025229456 -0.031273853
0.0059612654 0.016634122 -0.011930735 -0.037074585 0.038476497 -0.041096635 0.0165996 -0.0349761
-0.013012607 -0.039640713 0.032421816 -0.007079689 -0.01339702 0.035045363 0.036528625 0.033832777
-0.013595191 0.02949826 -0.034144215 -0.030229209 0.030091245 -0.036952347 -0.0023404704 -0.021815607
0.0062457155 -0.03051092 -0.033181556 7.3046496e-05 -0.03039761 0.0025871473 -0.016623206 0.018242255
-0.013625732 -0.040100116 -0.02904027 0.01232521 -0.015273066 -0.035978723 -0.020316059 0.00718091
0.007909559 -0.03024191 0.040246945 -0.00645419 0.02162211 -0.030040722 0.0011750064 0.0063734693
-0.017824259 0.00398708 0.030222718 0.020406911 0.010266092 -0.028379506 -0.0016169605 0.033490635
-0.033064764 0.0057683303 -0.0123541085 -0.023312902 0.030293526 0.0046980083 0.008173503 0.041668806
0.005964371 0.0012868947 -0.025545428 0.028134134 -0.0145948175 0.018873362 -0.0028213584 -0.00660578
0.030014185 0.03889296 -0.020431282 0.0056489934 0.021819938 0.019606477 -0.022621412 0.03032145
-0.01542799 -0.034653217 0.0047550146 0.024403177 -0.038968105 -0.013973329 0.00023299018 -0.017525427
-0.022367874 -0.009264693 0.041650463 -0.02791574 0.031259883 -0.025685 -0.03580477 -0.01314865
0.03719298 -0.035394788 0.033965096 0.03980125 0.013423344 0.025537267 0.007573573 0.027871113
-0.01763705 -0.039703865 -0.01923185 -0.020937294 0.01940557 0.0059407274 0.015986132 0.0076873736
-0.026701534 0.027849628 -0.01279449 -0.011733773 0.040462926 0.011523449 0.025361562 -0.008708932
0.0069483016 0.024135133 -0.027665203 0.026931396 -0.027417516 -0.017514344 0.008898491 0.0092504695
0.009562766 0.0056527895 0.036607936 -0.009118981 -0.04154457 0.03964329 -0.01834814 0.035456814
0.040465295 0.012951449 -0.009934315 -0.007865008 -0.017310746 -0.015828954 -0.00021275227 0.039841045
0.008335685 0.034265514 0.010020105 -0.013465644 0.0018874389 0.04214875 0.010708207 -0.029732918
-0.033436704 -0.0027696048 -0.0142307915 0.004766787 0.013919399 -0.0041063903 0.020940065 0.008431222

encoder.4.bias f4 [128]
00000000: 6bf3 c0bc 6c55 8ebc 2705 d33c 91d3 cb3b
00000010: 36fc 023d 2caa 85bc 6997 573c c57d 9a3b
00000020: 422a ab3c 3e86 493c dd85 943c f21f 05bd
00000030: 3e9d f8bc 1753 06bd c721 0f3d e36b d939
00000040: 114e 903c e11a fd3c 4b60 fcbc d2f8 e33b
00000050: 09b6 c83c 4097 09bd 2e07 c5bc 9f18 e6bb
00000060: 256e 9d3c f07a 083d ea0e e23c a3d4 d23c
00000070: 0883 bb3c c67c 86bc 65f2 ce3c ff4d 1fbd
00000080: fd71 14bd f30a 073d 453e f0bc 15e7 a33c
00000090: 4800 9d3b 8c32 0c3c 69ed 1a3d 57b3 5b3c
000000a0: 9c02 d3bc 4a72 d2bc ebb1 243d 4760 dc3c
000000b0: c331 b63c 7b20 943c d799 993b 0da5 133d
000000c0: 4d6c 81bc d8d9 b73c f5ae b7bc 622d 88bc
000000d0: c893 013d 59c3 03bd ad2c 2ebc 9ac1 283c
000000e0: 0f1a 10bd 3dbd 153b 8fad d43c 811a 233c
000000f0: 9f41 003d cf0c aabc 09c9 703b b162 bebc
00000100: 391c 7c3c af9e 9fbc c959 b6bc 1135 6ebc
00000110: 64b0 29bd 62b8 c7bb 27a4 9f3c 4b6e 9dbb
00000120: 9e33 0abd 5749 073d 8bdf 1d3d 2b02 91bb
00000130: 1e53 ac3c cfc6 b2bc 0877 d3bc 6b79 233d
00000140: 124f 9abb 68ab 233d 7562 02bd d5f3 8d3c
00000150: c67f 83bb c9f5 40bc 81b8 8eb9 920e c03c
00000160: f436 283b a21d 03bd 33f1 97bc fb38 a43c
00000170: af50 f8bb 5e0e 393c 2472 ad3c d36e ecbc
00000180: 4164 873c 1749 97bc e4b6 78bc 7063 b4bc
00000190: 7b9b 3fbb b6a2 2abd 34a9 29bc e876 13bc
000001a0: de53 9d3c 1c27 033d e53a eebc 2ee4 ec3a
000001b0: 5b97 053c 6cfc eebc 63fa 803a 3d8a 853b
000001c0: a8e7 653c 560d 86bc a626 4c3c abe5 bb3c
000001d0: 6a52 fbbc 4e92 49bc bed0 28bd e48f 3c3c
000001e0: 3064 d23a 94d0 eebc d147 c93b 2adf 8bbc
000001f0: ef37 25bc 4f6b ba3c dc6b a5bb 7440 3ebc
-0.02355357 -0.017374717 0.025759293 0.006220289 0.03197881 -0.016316496 0.013158658 0.0047147
0.020894174 0.012300072 0.018130237 -0.03250117 -0.030348416 -0.032794084 0.034944322 0.00041469847
0.01761535 0.030896606 -0.030807635 0.006957152 0.024500864 -0.03359151 -0.024051275 -0.007021978
0.01921756 0.033320367 0.027595002 0.025736159 0.022889629 -0.016416918 0.025262067 -0.038892742
-0.03624152 0.032969426 -0.029326567 0.02000765 0.0047912933 0.008556973 0.03782407 0.013409457
-0.02575808 -0.025689263 0.04020874 0.026901377 0.022240525 0.018081894 0.0046875286 0.036046077
-0.015798712 0.022442743 -0.022422293 -0.016623203 0.031635076 -0.03216872 -0.010630769 0.010300064
-0.0351811 0.002284839 0.025961665 0.0099550495 0.03131258 -0.02075806 0.003674092 -0.02324042
0.015387588 -0.019484846 -0.02225961 -0.014539019 -0.041427985 -0.006094978 0.019487454 -0.0048044077
-0.033740632 0.033028927 0.038543265 -0.0044253073 0.021035727 -0.021823315 -0.025813594 0.039910715
-0.004709133 0.039958388 -0.031832177 0.017328182 -0.0040130345 -0.01177735 -0.00027221817 0.023444448
0.002566752 -0.032010682 -0.01854763 0.020046702 -0.0075779776 0.011294929 0.02117259 -0.028861439
0.016527297 -0.01846747 -0.015180323 -0.022020072 -0.002923696 -0.04165908 -0.010355283 -0.009000517
0.01920503 0.03201972 -0.029080817 0.0018073374 0.008153762 -0.029173099 0.0009840246 0.004075317
0.014032282 -0.016363781 0.012460386 0.022936663 -0.030678947 -0.012302948 -0.041214697 0.011508916
0.0016051587 -0.029152192 0.0061425944 -0.017074186 -0.010084136 0.022756247 -0.005048258 -0.0116120465

encoder.5.weight f4 [128]
00000000: 00bc 7f3f 17e7 7f3f 1ed3 7f3f 880e 803f
00000010: b4e9 7f3f e3d7 7f3f e8d8 7f3f 26d1 7f3f
00000020: 21c2 7f3f 9b0b 803f 2bf9 7f3f 5006 803f
00000030: cac3 7f3f e902 803f 3cbe 7f3f 4b00 803f
00000040: 790d 803f bbc7 7f3f 3915 803f 7bfa 7f3f
00000050: 3a21 803f 16f9 7f3f 8d12 803f 7eda 7f3f
00000060: 5818 803f f702 803f 0123 803f d5ec 7f3f
00000070: b0f0 7f3f 9d0a 803f b51f 803f 3b0c 803f
00000080: 1719 803f 99e7 7f3f a701 803f 11c4 7f3f
00000090: 5f1c 803f cbdb 7f3f d114 803f 73ce 7f3f
000000a0: 8af8 7f3f aad9 7f3f 23f5 7f3f 0dfa 7f3f
000000b0: 0708 803f aac8 7f3f 7eda 7f3f c61e 803f
000000c0: 20d3 7f3f 0118 803f 39da 7f3f c3d5 7f3f
000000d0: c7d5 7f3f 6aef 7f3f 7a22 803f 91e8 7f3f
000000e0: bf10 803f b2ce 7f3f 17ca 7f3f dbdf 7f3f
000000f0: da07 803f 4ad5 7f3f b1c5 7f3f 9410 803f
00000100: 77fd 7f3f 2306 803f c7da 7f3f 96ce 7f3f
00000110: a0c6 7f3f 1721 803f a2d6 7f3f d4fd 7f3f
00000120: 171f 803f 3e16 803f c7f0 7f3f 88c8 7f3f
00000130: 30df 7f3f a913 803f 37fa 7f3f aa21 803f
00000140: 410c 803f 8302 803f a6fb 7f3f a907 803f
00000150: f5bf 7f3f 820c 803f 8bd2 7f3f fe12 803f
00000160: 2122 803f 8dd9 7f3f 39ee 7f3f 5010 803f
00000170: b7dd 7f3f 79ea 7f3f 6a09 803f d71b 803f
00000180: fbf4 7f3f 64fe 7f3f db19 803f 7410 803f
00000190: cc09 803f 4700 803f ecbc 7f3f 37f4 7f3f
000001a0: a308 803f 520d 803f c0fe 7f3f 1318 803f
000001b0: 59c9 7f3f 5ef1 7f3f 400e 803f 0e06 803f
000001c0: b904 803f 7e1c 803f 0d1e 803f 9a1e 803f
000001d0: 7118 803f 1615 803f 7a15 803f cb08 803f
000001e0: f821 803f 06d6 7f3f b0ed 7f3f 5702 803f
000001f0: 5003 803f bce0 7f3f e80e 803f a1f0 7f3f
0.9989624 0.9996199 0.99931514 1.0004435 0.9996598 0.9993879 0.9994035 0.9992851
0.9990559 1.0003542 0.99989575 1.0001926 0.99908125 1.0000888 0.9989965 1.000009
1.0004112 0.9991414 1.0006477 0.9999158 1.001014 0.9998945 1.0005661 0.9994277
1.0007429 1.0000905 1.0010682 0.9997075 0.99976635 1.0003239 1.0009676 1.0003732
1.0007657 0.99962765 1.0000504 0.9990855 1.0008658 0.9994475 1.0006353 0.9992439
0.99988616 0.99941504 0.99983424 0.9999092 1.000245 0.99915564 0.9994277 1.0009391
0.99931526 1.0007325 0.99942356 0.9993555 0.99935573 0.9997469 1.0010521 0.99964243
1.000511 0.99924767 0.9991774 0.9995095 1.0002396 0.9993483 0.9991103 1.0005059
0.9999613 1.0001873 0.999432 0.999246 0.9991245 1.0010098 0.9993688 0.99996686
1.0009488 1.0006788 0.9997677 0.9991536 0.9994993 1.0006 0.9999117 1.0010273
1.000374 1.0000767 0.9999336 1.0002338 0.9990228 1.0003817 0.9993064 1.0005796
1.0010415 0.9994133 0.99972874 1.0004978 0.99947685 0.9996715 1.0002873 1.0008496
0.99983186 0.99997544 1.000789 1.0005021 1.000299 1.0000085 0.99897647 0.9998202
1.0002636 1.0004065 0.9999809 1.0007347 0.9991661 0.9997767 1.0004349 1.0001848
1.0001441 1.0008695 1.0009171 1.0009339 1.0007459 1.0006435 1.0006554 1.0002683
1.0010366 0.9993595 0.9997206 1.0000714 1.0001011 0.9995229 1.0004549 0.99976546

encoder.5.bias f4 [128]
00000000: a417 88ba deb6 01ba 15b8 2cba fbcd 0c3a
00000010: 2f8d 7839 0ed8 2bba 3976 cfb9 a67d 31ba
00000020: c081 84ba e9b7 3e3a 497f d4b7 9193 2d3a
00000030: 0f50 6eba 2dcf 3bba bf6e 67ba 3ff3 0a3a
00000040: 7357 68ba ebdc 2cba e7f3 8db9 fe49 2538
00000050: 7f4f 753a 3beb 16b8 0976 19b9 3b22 52ba
00000060: e01c 483a 0044 1738 83d9 4f3a 66d4 1d3a
00000070: 52c2 403a 1a52 173a 3a83 6fb9 f54a 353a
00000080: 4162 363a 7340 9839 94ff b539 d6e6 83ba
00000090: 566b 5639 aae0 7cba ab8f 0bba cff3 5dba
000000a0: 6a5f f1b9 dbe6 33ba 17f7 e0b9 2bd3 013a
000000b0: 17a1 1639 eaa0 e4b9 6dd8 e6b9 89c8 4e3a
000000c0: bc5a 7eba 93f1 1d3a 959b 6039 ce92 34ba
000000d0: b0f5 56b9 0ccf 4d3a c643 5a3a 563c f839
000000e0: e508 48b6 4ba1 adb7 cb35 e6b9 8710 3db9
000000f0: 5e52 2939 c438 013a 6cb1 59ba 5cc0 fdb9
00000100: 60d7 7cba d028 9a39 467d ac38 196c 153a
00000110: 542a 283a b21c d4b9 b3a3 2eb8 eafb e539
00000120: 479f 8839 2f3d 223a 9005 1139 c150 51ba
00000130: dca7 54ba 6ed2 223a f5a0 1cb9 7bc8 843a
00000140: d300 e338 b023 1dba 4352 7f3a 7aa6 ee39
00000150: bef9 65ba b0fe beb8 547a 86ba 3a5a 72ba
00000160: a82d 403a 95dc 12ba 6038 813a 53bd a838
00000170: f9d9 9339 9125 33ba a79b 1cb9 daab 573a
00000180: 045c d938 302d 71b9 45fb 3e3a 7cb6 cd39
00000190: 3a94 103a 1a05 0cba d805 3fb9 f38a 2fb9
000001a0: ed56 8f39 a8bc 0b3a 6a3e 8cb9 9d18 813a
000001b0: 064f c0b9 c3e2 8339 bcd6 2039 8484 bb39
000001c0: 457d 0b39 7120 19b8 4659 5a3a bee7 833a
000001d0: 4c0f 113a a25a 4b3a e5b6 72b9 07e7 4839
000001e0: eecb 823a 390b 72ba 0332 62ba db2b 31b8
000001f0: 1227 ba39 70cc 47b9 8622 6939 f8b6 8f38
-0.0010383022 -0.0004948209 -0.00065887097 0.00053712697 0.00023703718 -0.0006555327 -0.000395702 -0.0006770737
-0.0010109469 0.00072753296 -2.5331641e-05 0.00066214154 -0.0009090909 -0.00071643555 -0.0008828453 0.0005300529
-0.00088631286 -0.00065941986 -0.00027075337 3.9407976e-05 0.0009357854 -3.5981862e-05 -0.00014635189 -0.0008015965
0.0007633697 3.6064535e-05 0.0007928835 0.00060207245 0.0007353175 0.0005772427 -0.00022841702 0.00069157715
0.000695739 0.00029039718 0.0003471343 -0.0010063301 0.00020448616 -0.00096465147 -0.00053238374 -0.0008466811
-0.0004603819 -0.0006862708 -0.00042908706 0.0004952426 0.00014365125 -0.0004360744 -0.00044030268 0.00078881584
-0.00097028515 0.0006025072 0.00021420264 -0.00068883307 -0.00020500156 0.0007850982 0.0008326139 0.000473472
-2.98075e-06 -2.0698315e-05 -0.00043909097 -0.00018030601 0.0001614778 0.0004929418 -0.0008304331 -0.0004839924
-0.00096451305 0.00029403577 8.224933e-05 0.0005700007 0.0006414999 -0.0004045717 -4.163729e-05 0.00043865974
0.00026058612 0.00061889266 0.0001383035 -0.00079847506 -0.0008112171 0.0006211166 -0.0001493728 0.0010130549
0.00010824357 -0.00059943926 0.0009739736 0.00045518932 -0.0008772871 -9.107345e-05 -0.0010259845 -0.0009245012
0.0007331022 -0.00056023273 0.000985872 8.046129e-05 0.00028200427 -0.0006833906 -0.00014935304 0.0008227207
0.000103645056 -0.00023000385 0.0007285367 0.00039236608 0.00055152515 -0.00053413364 -0.00018217356 -0.00016741063
0.0002733985 0.0005330541 -0.00026749383 0.0009849254 -0.0003667997 0.00025155218 0.00015338784 0.0003576615
0.0001330274 -3.6508256e-05 0.0008329343 0.0010063571 0.00055335904 0.0007757341 -0.00023147052 0.0001915955
0.0009978989 -0.00092332397 -0.0008628668 -4.2240932e-05 0.00035505794 -0.00019054278 0.00022233473 6.852852e-05

encoder.5.running_mean f4 [128]
00000000: 185d 7fbd 19e2 11be 1e69 2b3d 078d d0be
00000010: 40a2 19bf 42ed 923e 8fff dbbe f63b d5be
00000020: 2276 95be f2b3 10bf 2e87 10be 7ec9 8b3d
00000030: c3e6 503e 4406 b8bd e015 e1bc dcde 87bd
00000040: 11a8 c03e 3474 0e3e 6c31 323e 6e45 86be
00000050: 6599 333e fa38 11bf fce1 733e 9dbb 38be
00000060: 3817 e83e 6027 fb3d 33cc 3dbd c09a 333e
00000070: 468c 97be 525a 03be c3d5 823e 7e82 503e
00000080: b5f7 043e 535d 87be b0e5 74be 60dd 353f
00000090: 6c65 fbbd 21d9 79bd 2c4b 4b3e 4210 cfbd
000000a0: 79eb ad3d 55dc e53e 4679 83bd 9ab9 c6be
000000b0: 0055 c63d 1835 73bd cc91 07bf f545 2b3f
000000c0: 8d2f a13e 9ee5 d83c c755 00be 01a9 dcbd
000000d0: 3c67 be3e 7b15 153e a5f2 483e a50f 8fbe
000000e0: db79 4fbe ee5f a4be 081e d83b f1cf e63d
000000f0: d882 b03e ad2d b1be 060c f43d a923 26bf
00000100: 5698 a43e 9af8 4a3e 864f db3b ad28 213e
00000110: fdc7 65be be65 333e efdd 7fbe 4e39 64be
00000120: 868e 06be f355 083f 414c 0d3c c6bb ca3d
00000130: 285e fbbe 88a3 0e3e 0673 193e ea8d 67be
00000140: fd5b 803e 5c46 6dbb 6817 fdbe c85c 88be
00000150: 8dd6 42be 13c4 6a3e 813a 523e b930 cb3e
00000160: 7115 51bd b908 0abe a236 99be 83e8 02bb
00000170: 0b9f 4b3e 769d 183d 5902 db3c 8d89 69be
00000180: a6cc 86be a672 4dbe 0d80 33bd 2847 753d
00000190: 2695 b9be c1fe 143e 71d4 4cbe 1126 99be
000001a0: 796d af3d 2cfa 05be fca1 5cbe 1253 6d3e
000001b0: e971 19be f529 00be da9f df3d b563 2ebe
000001c0: d2bd 403e e42c 523e b102 f93e 6d6b ebbe
000001d0: bdca 703e e771 a13e 4c5c ed3d ac5e ccbe
000001e0: ecf9 cdbd 1e9c 2b3e 2d9d 86bd 4e7a 0dbf
000001f0: ba8f 87be eb11 0b3f f28f a33d 0856 aebe
-0.06234464 -0.14246406 0.041848294 -0.40732595 -0.600132 0.28696638 -0.42968413 -0.4164731
-0.2919169 -0.56524575 -0.14114067 0.06825541 0.20400529 -0.0898557 -0.027476251 -0.06634304
0.37628224 0.13911515 0.17401665 -0.26224846 0.17538984 -0.56727564 0.23816675 -0.18040319
0.45330215 0.122633696 -0.046337318 0.17539501 -0.29599208 -0.12827423 0.25553712 0.20362279
0.12985118 -0.26438388 -0.23915744 0.71040916 -0.12275204 -0.060998086 0.19852895 -0.10110523
0.084921785 0.44894662 -0.064196154 -0.38813478 0.09684181 -0.059376806 -0.52956843 0.6690362
0.3148159 0.026476678 -0.12532721 -0.107744224 0.37188137 0.14558975 0.19623812 -0.27941623
-0.20261328 -0.3210444 0.006595377 0.112701304 0.34474826 -0.3460516 0.11916356 -0.64898163
0.32147473 0.19821396 0.0066928295 0.15738173 -0.2243957 0.1751928 -0.24987005 -0.22287485
-0.13140306 0.5325615 0.008624137 0.09899096 -0.49095273 0.1392957 0.14985284 -0.2261273
0.2507018 -0.0036205268 -0.4943192 -0.26633286 -0.19027157 0.22926359 0.2053013 0.3968561
-0.05104584 -0.1347989 -0.29924494 -0.0019975014 0.19884889 0.03725954 0.026734518 -0.22806378
-0.2632801 -0.20063266 -0.04382329 0.059882313 -0.36246604 0.14550306 -0.20002915 -0.29911855
0.08565802 -0.13083714 -0.21546167 0.2317622 -0.1498486 -0.12516005 0.10919161 -0.17030223
0.1882241 0.20524937 0.48634866 -0.45980397 0.23514839 0.31532213 0.1158987 -0.3991598
-0.100574344 0.16758773 -0.06572948 -0.5526475 -0.26476842 0.54324216 0.0798644 -0.34050012

encoder.5.running_var f4 [128]
00000000: 5272 ca3d 7dd7 073e 15a1 c83d bcb6 223e
00000010: f94b 8a3e 68ab 043e f856 1e3e da2e 0f3e
00000020: 3d1c 6b3e d9ce 703e 381d c73e bb82 043e
00000030: 304e 7a3e 95ba 973d f5aa ad3d 5576 633e
00000040: 5a64 f73d c20f d73d f361 313e 3d98 223e
00000050: 9947 693e 1e47 7c3e a8c1 003e 63cb c33d
00000060: ebb3 473e d79a bf3e bc42 083e 4407 643e
00000070: 2579 df3d 2a05 473e 7ff5 b43d 888e 143e
00000080: e866 1b3e 7b1a 533e 3146 253e 0922 433e
00000090: 5f11 a63e bde0 753d f7e2 cc3d c972 a63e
000000a0: 5660 073e 1dbe 153e b909 4e3e b81a 783e
000000b0: 415d ce3d 1d5c fc3d de65 903e afe0 7a3e
000000c0: cd63 2d3e 19fc ff3e a8c3 723d cc10 ec3d
000000d0: d5bc 903e 0e3e 163e 6a73 8c3e e10a 293e
000000e0: 97a4 0b3e b958 293e 5708 6c3e 13ef 8f3d
000000f0: 2807 6f3e db3d 013e e224 4f3e e977 6b3e
00000100: 2422 e73d 86e7 e83d 3506 5f3e c8c8 ca3e
00000110: fe50 d33d db23 fc3d f072 c93e 5c32 233e
00000120: 33f7 903d 1ac9 c13e 1e19 c23d d378 bd3d
00000130: 63f3 5e3e dc60 f73d c677 d33d 40cf 6a3e
00000140: 6d9f 8e3e 64e0 d03d 093e 373e 486c 8b3e
00000150: 3f15 a23e dac1 853e 4b14 c53d cf3e 113e
00000160: 1706 093e b649 243e b033 153e c437 0f3e
00000170: 4925 ec3d caf7 b13d ef4b 403e 7ff1 853e
00000180: c37f e33d 4f50 e53e f46d 4e3e 6040 a73e
00000190: 1d5b 503e dbcf 883e ebb5 3f3e 24b4 0b3e
000001a0: b88b 093e c941 c73d d04d 363e b69c ac3e
000001b0: 730d 413e 740e f93d e976 fb3d 5334 973e
000001c0: 710b 423e 29d1 0b3e c415 923e cdf9 553e
000001d0: 9e44 843e b1c5 ed3d d0df 9d3d b261 0c3e
000001e0: 218f 3d3e a4e2 043e b7b8 ae3d c115 013e
000001f0: f159 0e3e f9b6 853e 8b1c b23d 3fa3 9c3e
0.09885086 0.13265796 0.09796349 0.1589002 0.27011088 0.12956011 0.15462863 0.13982716
0.22959991 0.23516406 0.3888948 0.12940495 0.24443889 0.074086346 0.08479873 0.22213109
0.120796874 0.105010524 0.17322521 0.15878387 0.22781219 0.24636504 0.12573874 0.09560277
0.19502227 0.3742282 0.13306707 0.22268397 0.10911778 0.19435564 0.08835887 0.14507496
0.15175974 0.2061557 0.16140057 0.19055952 0.32435128 0.06002878 0.100042276 0.3250945
0.13220343 0.14623304 0.20120896 0.24228942 0.100763805 0.12322257 0.28202718 0.24499772
0.16932602 0.49997023 0.059268624 0.11526641 0.28269067 0.1467211 0.27431804 0.16508056
0.13637005 0.16537751 0.23050056 0.07028022 0.23342574 0.12621252 0.20228913 0.22994961
0.11285809 0.113722846 0.21779712 0.3960631 0.103181824 0.123115264 0.39345503 0.1593718
0.070783995 0.3784874 0.09477447 0.09251561 0.21772532 0.12079021 0.10325579 0.22930622
0.27856007 0.10199049 0.17894758 0.2723105 0.31656834 0.2612446 0.09623011 0.14184116
0.1338123 0.16043743 0.14570498 0.13986117 0.11530549 0.0868984 0.18778966 0.2616081
0.11108353 0.44787833 0.20159131 0.32666302 0.20347257 0.2672108 0.1872174 0.13642937
0.13432205 0.097293444 0.1780312 0.3371331 0.18852787 0.1216096 0.1227854 0.29532108
0.18949677 0.13654007 0.2853223 0.20896073 0.258336 0.11609972 0.077087045 0.13709143
0.1851163 0.12977082 0.08531325 0.12605955 0.13901497 0.2611616 0.086968504 0.30593297

decoder.0.weight f4 [64, 128, 3, 3]
00000000: dc0c e9bc b1d8 aa3c b300 b9bc 8603 90bc
00000010: a71a d5bb 0a27 853c 5b67 6b3c 7cce 96bc
00000020: 1be1 a33c 4286 8abc 6f13 7d3c 85bc 2d3c
00000030: 906c fc3b 67fe ca3b 9492 e33c 2b0d 853c
00000040: 8e6f 523c 4c14 bcba 239a 633c bbd7 f0bc
00000050: ad11 c9bc 7c41 073b 4050 be3c 7917 52bc
00000060: af7b 06bc 53c8 e33c 8015 3a3c 7b19 783b
00000070: ced0 6d3c 2a91 943c 61a9 da3c ea9f 8e3c
00000080: 8f05 64bb 5b20 bebc 375f 8d3c 39e9 363c
00000090: 3c59 0dbc 73ec 623c e9f0 eebc 57b6 4bbc
000000a0: 6333 cd3b a04f 24bc ee09 bdba 4862 e2bc
000000b0: 9ab3 cdbc 2d0f b83c de0c 93bc db57 f83b
000000c0: b89d 123b f47b e93c 4cdf dcbc b0a6 a93c
000000d0: 6531 923c ffd3 71bc 1696 513c aac4 a73c
000000e0: c901 833c d8f7 733b 0915 2fbc 4312 a53c
000000f0: 5214 373c 7d70 c13c caed e93c 7f0a 89bc
00000100: 5930 723b d226 833b 2d23 703b 785c 3ebc
00000110: 629f 123c d658 c2bc 9e75 cbbc a525 f43b
00000120: 0511 843c 2ecb 8b3c 5443 63bc 85cf da3b
00000130: ac55 31bc a429 afbc 8aa5 563a 8471 a73c
00000140: b287 0e3c 38fb d2bc 672e 7dbc 0bd5 a53c
00000150: 6dcc e8bc 75e8 7d3c 83fb 843c c58d e2bc
00000160: 9dda 75bc d290 9c3b 8918 7e3c 06f3 323b
00000170: c49d 023c c144 38bc e4ec bdbc 666c 82bc
00000180: abd3 2bbc ec1e e4bc 3189 9b3c 8147 7e3c
00000190: 904f be3b 6d2e 543c a4bb 94bc c85f 84bc
000001a0: 1297 b53c 7145 a7bc 3020 c53c 4f03 27bc
000001b0: 3c98 d23c 03a1 f9bb e1cd 24bc edeb b9bc
000001c0: 8acb e53b 6a46 c33c 08a0 9cbc 7355 a43b
000001d0: fe38 e93c 910f 803c 75b9 633c 494c 7fbc
000001e0: 25e8 8c39 4d4f 97bc 3cd7 a23c ba25 02bc
000001f0: 8647 a73c 99b0 81ba 87de eb3c c564 8cba
00000200: 95d3 90bb a3c4 4c3c 0f21 50bc 1dc0 943a
00000210: f7b5 fa3b 3d6d 73bc 7d57 a03c 4ad7 d63c
00000220: d46a 1f3c 6bab a33c 69da 8b3a fc80 9a3c
00000230: 26ac 24bc bacb e33b e0ab 4cbc bf07 b9bc
00000240: 0941 5c3c aad4 053c 5cb9 823c 9935 bdbc
00000250: e76a 703c 5877 a23c 550f 593c 72d8 4bbb
00000260: 59d4 5ebc 8b2f 863c 6489 b53c c934 f03c
00000270: 5a80 c0bc ecaa 48bc 6dd8 de39 6eb8 113c
00000280: 2424 c73c 2b79 973c c586 2ebc e4a3 ec3c
00000290: db1b 8e3a b13f 5a3c 1279 fc3b 7a13 0ebc
000002a0: 36a3 d6bb ab20 cb3c f7b2 e8bc 785a 493c
000002b0: 60a3 993c 85b6 373c 5a99 a2bb af03 c6bc
000002c0: e50a 703c 7304 98bc a84d 47bc 7c08 663a
000002d0: 2b63 b43c 3bda 12bc c53a ddbc 8c90 35bc
000002e0: 4358 ac3c c29c 4abc 04eb 743c 1308 bd3c
000002f0: a878 83bc a1fb 81bc 0a6e f13b 3f1f 80ba
00000300: 42a1 83bc f13a 70bc e2ef 4abc 3af2 6abb
00000310: ec9c 94bc 31e9 d0bb cd0a 3c3c 301c 9a3c
00000320: 934a 41bb 1fff 993c a092 a83c 06c4 d43c
00000330: f766 2ebc dfde 7b3b cfde 9e3b a316 ea3c
00000340: d798 a4bc cdb6 eabc 25fd e2bc 94e0 b1bc
00000350: dd64 f2bc 2587 92bc d020 c1bb 1d38 ae3c
00000360: ee27 a43c 396c 4aba cdf9 573b b9b6 113c
00000370: 3de3 0f3c 1fca debc 67f8 a13a 67b5 2b3c
00000380: 64ff 74bc f805 61bc f16f a73c ef2c db3c
00000390: 7f2a 81bc 0b41 cdbc 4f8b 693c 6c38 0ebc
000003a0: 1625 bbbc 22fa 9ebc 3067 713c 1cbe d23c
000003b0: f175 123c fe43 673c 59ae 7ebc c17e 673c
000003c0: 282b 0d3b 1f48 023a 2a5d 21bb b16f ddbc
000003d0: c414 d6bb 102d 2cbb 50fa b3bc 94e6 a5bc
000003e0: 174e d7bc 886e c83c 044d 3dbb 58b3 c83a
000003f0: 1c32 96b8 cb47 8abb 8549 56bc efd3 d6bb
-0.028448515 0.02085528 -0.022583341 -0.017579805 -0.0065034213 0.016253967 0.014367904 -0.018409006
0.0200048 -0.016909722 0.015446528 0.010604029 0.0077033713 0.006194878 0.027779855 0.01624163
0.0128439795 -0.0014349311 0.0138917295 -0.029399743 -0.024544561 0.0020638397 0.023231626 -0.012822979
-0.008208199 0.027805483 0.011357665 0.0037856984 0.014515115 0.018135626 0.026692094 0.017410237
-0.0034793352 -0.023208788 0.017257316 0.011164003 -0.008627232 0.013850319 -0.02916761 -0.01243361
0.0062622293 -0.01002875 -0.0014422515 -0.027634755 -0.025110055 0.022468174 -0.017950471 0.0075788326
0.002237184 0.028501488 -0.026961945 0.020709366 0.017845819 -0.014760016 0.012792131 0.020479519
0.015992062 0.0037226584 -0.0106861675 0.02015031 0.011174278 0.023613209 0.02855577 -0.016728638
0.0036955087 0.0040024305 0.003664206 -0.011618726 0.008949133 -0.023724 -0.024836358 0.0074507766
0.016121397 0.017064657 -0.013871033 0.0066775703 -0.010823648 -0.02138216 0.00081881194 0.02043987
0.0086993445 -0.025754556 -0.015452958 0.020243188 -0.02841779 0.015497317 0.016233211 -0.027655492
-0.015005735 0.004778006 0.015508779 0.0027305498 0.007972185 -0.011246861 -0.023184247 -0.015920829
-0.010487477 -0.027846776 0.018986316 0.015519978 0.0058078244 0.012950522 -0.01815588 -0.016158953
0.022166763 -0.020418854 0.0240632 -0.01019366 0.025707357 -0.007618071 -0.010058851 -0.022695506
0.007012789 0.023837287 -0.019119278 0.005015069 0.028469559 0.015632423 0.013899197 -0.015582153
0.00026875842 -0.01847043 0.019878022 -0.007943565 0.020419847 -0.0009894549 0.028792633 -0.0010711184
-0.004419754 0.012498054 -0.012703194 0.0011348758 0.0076510864 -0.014857587 0.019572968 0.026225705
0.00973006 0.0199792 0.001066995 0.018860333 -0.010050809 0.0069517763 -0.01249215 -0.022586701
0.01344324 0.008168379 0.015957527 -0.023096846 0.014673925 0.019832298 0.013248284 -0.0031104353
-0.013600432 0.016380092 0.02216024 0.029322045 -0.023498703 -0.012247782 0.0004250439 0.008894069
0.024309225 0.018490395 -0.010652249 0.028886743 0.0010842042 0.013320849 0.0077048624 -0.008671636
-0.006550218 0.02479585 -0.02840565 0.012289636 0.018754661 0.01121295 -0.0049621286 -0.024171678
0.014651035 -0.018556809 -0.012164511 0.0008775068 0.022019943 -0.008963163 -0.027005563 -0.011081826
0.02103818 -0.012366476 0.01494861 0.02307514 -0.016048744 -0.015867056 0.007367854 -0.0009774937
-0.016068105 -0.01466249 -0.012386294 -0.0035849945 -0.018141232 -0.006375455 0.0114771845 0.018812269
-0.0029493913 0.018798409 0.020577729 0.025972378 -0.010644666 0.0038432402 0.004848338 0.028575247
-0.020092411 -0.02865162 -0.0277086 -0.021713533 -0.029589111 -0.017886708 -0.005893804 0.021266991
0.020038571 -0.0007721815 0.003295529 0.008893662 0.008782205 -0.027195988 0.0012357355 0.010480261
-0.014953468 -0.013734333 0.02043912 0.026754824 -0.015767334 -0.025055429 0.014254405 -0.008680444
-0.022844832 -0.019406382 0.0147340745 0.025725417 0.008939252 0.014115332 -0.015544497 0.014129342
0.0021540616 0.00049698533 -0.002462218 -0.027030798 -0.006533237 -0.0026271977 -0.021969944 -0.02025155
-0.026282353 0.024466768 -0.0028885016 0.0015312238 -7.161891e-05 -0.004219984 -0.013079052 -0.006556026

decoder.0.bias f4 [64]
00000000: ca35 99bc 4faa 453c 491f 84bc 3d6d 6dbc
00000010: 8fe5 16bc 8c9d 01bc c62e c03c 385d 5cbc
00000020: 869d 863c c1ce 863c ea87 c9bc e77a 0ab9
00000030: 76f6 7a3c 1654 66bc fb41 dd3c ffdd 07bc
00000040: b728 a73c 442b e03c 0dd7 d13c 1c69 563c
00000050: c805 a53c 445d 893c 49b2 d5bc 424f 94bc
00000060: c885 bbbc 5d8e f1bb 8453 82bb 31da 9a3c
00000070: 8446 9e3c d6ac e83b 3cbb 38b8 c38e 24bc
00000080: b422 1539 3d4f eebc 9e22 80bc 6b2f d0bc
00000090: ad39 08bc 0cda 05bb 7a69 0d3c cd0b 8bbc
000000a0: bb5b c93c 6f6b 8abc 2451 da3c d672 e23b
000000b0: 6423 8a3c 354d edbc 8622 5b3b 57e4 b03a
000000c0: aef1 83bc cb1f a2bc 426c b73c 0643 483c
000000d0: b9be 4d3c 6b42 ddbc 7222 db3c 1fb2 7e3c
000000e0: eb99 8f3c 9b68 693c e572 b7bc c357 4abc
000000f0: 200e 3ebc 4806 33bc b883 7d3c 6ab0 343c
-0.018702406 0.0120645305 -0.0161282 -0.0144913765 -0.0092100045 -0.007911097 0.023459803 -0.013449959
0.016432535 0.01645601 -0.024600942 -0.0001320649 0.01531755 -0.014058134 0.027009001 -0.008292674
0.020405157 0.02736438 0.02561524 0.013086583 0.020144358 0.016768105 -0.02608599 -0.0181042
-0.02289094 -0.0073717074 -0.003977241 0.01890287 0.019320734 0.007100682 -4.4043394e-05 -0.010043803
0.00014222675 -0.029090518 -0.015641507 -0.025413236 -0.008314532 -0.0020424156 0.008631105 -0.0169734
0.024579873 -0.016896931 0.026650019 0.006910662 0.016862579 -0.02896748 0.0033437326 0.0013495785
-0.016106453 -0.01979055 0.022390489 0.012223011 0.012557679 -0.02700921 0.026749823 0.015545397
0.017529448 0.014246131 -0.022393653 -0.012350026 -0.011600047 -0.010926791 0.015473299 0.0110283885

decoder.1.weight f4 [64]
00000000: f215 803f f9f6 7f3f 3d15 803f 62f0 7f3f
00000010: 2f0a 803f 7b1d 803f 130b 803f a824 803f
00000020: cbfb 7f3f abc3 7f3f 20cd 7f3f 5c10 803f
00000030: 0af4 7f3f 710f 803f ca20 803f 0dfe 7f3f
00000040: 2303 803f c612 803f 7eff 7f3f 6ac5 7f3f
00000050: 1521 803f 4a06 803f 6ac1 7f3f c2e8 7f3f
00000060: aed8 7f3f 67bc 7f3f a9cb 7f3f fc0d 803f
00000070: 37bc 7f3f 3b0a 803f 5615 803f b7d1 7f3f
00000080: b6c8 7f3f b0bc 7f3f addd 7f3f a7bb 7f3f
00000090: 53cd 7f3f a2bc 7f3f 9613 803f 6524 803f
000000a0: b3d9 7f3f 74ff 7f3f deff 7f3f 70df 7f3f
000000b0: 73c7 7f3f 0b23 803f 72d5 7f3f aaf4 7f3f
000000c0: 86d2 7f3f 09dd 7f3f d8bb 7f3f 86f9 7f3f
000000d0: 8fe1 7f3f ca0a 803f 3ec7 7f3f 92d3 7f3f
000000e0: 3520 803f 3cc0 7f3f b116 803f cb00 803f
000000f0: 9420 803f da0a 803f 7805 803f 4014 803f
1.0006697 0.99986225 1.0006481 0.9997617 1.0003108 1.0008997 1.000338 1.0011187
0.9999358 0.9990794 0.9992237 1.0004992 0.9998175 1.0004712 1.0010006 0.99997026
1.0000957 1.0005729 0.99999225 0.99910605 1.0010096 1.0001919 0.999045 0.99964535
0.9994 0.99896854 0.99920136 1.0004268 0.9989657 1.0003122 1.0006511 0.99929374
0.99915636 0.9989729 0.99947625 0.9989571 0.99922675 0.99897206 1.0005977 1.0011107
0.9994156 0.99999166 0.999998 0.99950314 0.9991371 1.0010694 0.99935067 0.999827
0.9993061 0.9994665 0.99896 0.9999012 0.9995355 1.0003293 0.99913394 0.99932206
1.0009829 0.999027 1.0006925 1.0000242 1.0009942 1.0003312 1.0001669 1.000618

decoder.1.bias f4 [64]
00000000: 29b3 2739 6dcb 753a 0c0b 833a 9744 ad38
00000010: 07ac 79ba 6072 563a 7f00 93b9 dc74 a1b9
00000020: 5ba4 54b9 4102 4cba abae 3db6 3add 94b9
00000030: 0af2 7fba 522b bf38 1793 8d3a ce73 70b8
00000040: 37b4 e639 09a3 223a 6476 a338 d76d ed37
00000050: 3b19 453a d8b0 48b9 0cb4 57ba d8ba 243a
00000060: aa9b 8537 3fcb 82ba 070f 6eba e93c 2db9
00000070: f993 68ba 10f1 0c3a 2920 5f3a aaad ee39
00000080: 2499 98b8 f0c1 a4b9 d6ff 78ba 1a5e 85ba
00000090: 3735 eeb9 489f 6aba 665e 2539 f2c8 363a
000000a0: a6df fd39 3441 d939 d1c2 5c39 8e56 1d39
000000b0: d44d 0eba 3256 fd39 6ae0 15ba 52e1 2c3a
000000c0: 32aa 18b8 3f9e c3b6 0933 ecb9 1b31 7839
000000d0: 4c05 c0b8 6368 533a 0588 29ba acdd 4d3a
000000e0: 3801 8b3a f46e 7cba 26f6 423a 9dfd 5639
000000f0: a293 07b9 add2 d239 e241 81b8 a158 2ab9
0.00015993103 0.0009376321 0.0009997799 8.262059e-05 -0.000952423 0.00081804954 -0.00028038395 -0.0003079538
-0.00020279123 -0.0007782318 -2.8264865e-06 -0.00028393586 -0.00097635447 9.115659e-05 0.0010801282 -5.732831e-05
0.0004400329 0.00062041037 7.794498e-05 2.830375e-05 0.0007518713 -0.00019139366 -0.0008228428 0.00062839454
1.5927322e-05 -0.0009978785 -0.0009081219 -0.00016521256 -0.00088721473 0.0005376497 0.0008511567 0.00045524287
-7.2764495e-05 -0.00031425012 -0.0009498572 -0.0010175139 -0.00045434546 -0.00089501264 0.00015770792 0.0006972692
0.00048422551 0.00041438045 0.0002105341 0.00015004931 -0.00054284674 0.0004832014 -0.0005717339 0.00065948546
-3.639813e-05 -5.829875e-06 -0.00045051452 0.00023669416 -9.15626e-05 0.0008064566 -0.0006467107 0.0007853161
0.0010605222 -0.00096295704 0.00074371917 0.00020503109 -0.00012929601 0.00040211287 -6.163471e-05 -0.0001624548

decoder.1.running_mean f4 [64]
00000000: 8fd1 c63d 3d1f 53bc 2fa6 61be 3520 34be
00000010: 0126 23bd 2b0a 25bf 84e3 a03e 0e01 bb3e
00000020: d2b0 d23e be08 e3bc 3c07 3c3d 3ee8 853e
00000030: 23ff b03e e9ce 853d 5fea 433d cccf b53d
00000040: a2a7 1a3f 4bee fcbe e2f0 0fbf db0c 96be
00000050: 45a6 3fbc 3b8e 493e 82f1 723e b7ea 11be
00000060: b36d 98be aade 893c 7282 143f 4ee0 d33d
00000070: 2a12 66be b806 dfbe 630c 0a3f b11f e3be
00000080: ca54 01be b1ea b6be 17ad 41be 064e 0c3e
00000090: 7d42 29be e8b5 32be 1f64 a9be 87bc 263f
000000a0: 45d3 f8be ed1b f7bc aa97 4a3d 8bb0 123c
000000b0: 4aa3 18bf 63ef 173f 00bf 1b3e 69e1 9ebe
000000c0: fa3a aabd 0426 11bf 06ad e2bd e034 623d
000000d0: c0b7 f33e f5e8 22bf 334c 43be be3d 3fbd
000000e0: 33ec 62bf 9c60 05be 0c12 c3be b166 d63e
000000f0: df5b 013f eab8 543e 9530 97be b1c6 f83e
0.09707939 -0.012885866 -0.2203605 -0.17590411 -0.039831165 -0.6446864 0.3142358 0.36524242
0.41150528 -0.02771413 0.045905337 0.2615375 0.34569654 0.065336056 0.047830936 0.08877525
0.6041204 -0.49400553 -0.56226933 -0.29306683 -0.011697357 0.19683163 0.2372494 -0.14249693
-0.29771194 0.016829807 0.58011544 0.10345517 -0.22467867 -0.43559813 0.5392515 -0.44360116
-0.1263 -0.3572593 -0.18913685 0.13701639 -0.1652927 -0.17452204 -0.330842 0.6513142
-0.48598686 -0.030164683 0.049461044 0.008953224 -0.5962416 0.5934965 0.1520958 -0.3103135
-0.0831203 -0.5669863 -0.11068158 0.055226207 0.47601128 -0.63636714 -0.19072036 -0.04668974
-0.8864166 -0.13025135 -0.38099706 0.41875222 0.5053081 0.20773664 -0.29529253 0.4858909
