checkpoints/2025-05-30-17-22-38/last_epoch.pth (torch, 675371 bytes, 9 tensors)

encoder.0.weight f4 [64, 3, 3, 3]
-0.1694627 -0.10095668 0.086158104 0.19225729 0.04638781 -0.18869956 -0.008779979 0.13150057
-0.1340612 -0.004351701 -0.063449875 -0.081295304 0.12710595 0.09524794 -0.047295626 -0.13610445
0.13467313 -0.11573072 0.022174716 0.013898362 0.10973875 -0.024415724 -0.10310017 -0.07623758
-0.025544286 -0.06633175 0.10538136 0.08706582 0.15658502 -0.02205642 -0.10487636 -0.06832879
-0.110358424 0.108071454 0.10210507 0.045508813 0.027394421 0.12998486 0.13049772 0.17953879
-0.1324805 0.013989261 -0.06440003 0.07913065 -0.03466071 -0.014946598 0.18439957 -0.17965356
-0.10702343 -0.062393446 -0.11306123 0.023016162 -0.014796037 -0.016197486 -0.029653322 0.03554771
0.11899197 -0.09996138 -0.11455469 -0.0804892 0.06277711 0.18979247 -0.039722845 0.039722126
0.03768315 0.025833223 0.028851824 0.15943313 0.051909953 0.08633014 -0.051519945 0.01614205
0.03581892 0.058756683 -0.17318654 -0.15082397 -0.14505285 0.09264678 -0.17570642 0.014737346
0.184801 0.13471495 -0.04468686 0.057024576 -0.07341456 -0.07809864 0.016188826 0.09067089
0.10586836 -0.12905987 0.012545462 0.1297925 0.09135899 -0.07650534 0.12537791 0.07263212
0.019284636 0.16609734 0.12859997 -0.029812088 -0.10034173 0.00572314 0.13556188 -0.081508204
-0.16690156 -0.10652785 0.060656503 0.09586422 0.107247815 0.07309183 0.16096862 -0.0050244858
0.07647611 0.030445559 -0.13898984 0.041110378 -0.082002245 0.043566983 0.11123853 0.08207795
-0.05065448 -0.11832369 -0.021700649 0.100275725 0.123789884 -0.10323156 -0.028462708 -0.016758636
0.13744514 0.15701023 0.03317479 0.00095146225 -0.069708765 -0.040558636 -0.11556701 -0.14670376
0.115635075 -0.18356627 0.16025047 -0.1513112 0.061398767 -0.049907573 0.01766637 0.17880061
-0.04893579 -0.14763108 -0.099207476 -0.09140983 -0.15375824 -0.18258597 -0.13453288 -0.0063451463
-0.014256162 -0.17550208 -0.17732383 -0.18287417 -0.008213269 0.1523815 -0.16396411 -0.050218605
0.12780929 -0.055487767 0.08495865 0.087371945 -0.08863766 0.0052739647 0.10817952 0.11415867
0.049979273 -0.15545101 0.16780764 0.07469967 -0.050318703 0.08233657 -0.06925195 -0.09456819
-0.07197666 0.09549825 -0.044013128 -0.011594419 -0.1204613 0.047436446 0.026710564 -0.030602138
-0.027029788 0.061987877 -0.099413924 -0.046933297 -0.13748702 0.09732547 -0.18035606 -0.11004916
-0.13373306 -0.08288023 0.15723588 0.008335338 0.124034084 0.07305609 0.09882017 0.18409106
0.0044515664 0.027248112 -0.16972916 0.055181965 -0.027983472 -0.012348821 -0.15641157 0.16055967
0.18422204 0.0037976257 0.073803164 0.10567977 0.02709009 0.10026305 -0.1084038 0.14218232
0.13723834 0.0058009094 -0.0062836246 -0.14209947 -0.15265812 -0.013550792 0.065816104 -0.07111337
-0.06821392 0.013875815 0.18096218 -0.16857062 0.062264133 -0.08307797 0.018565927 -0.02825828
-0.009884636 -0.09299053 0.0013155111 0.18815945 0.077684365 -0.17217901 -0.18129641 -0.01979046
-0.07940329 0.04476492 0.16231313 -0.12534525 -0.096468315 -0.08960803 -0.08751374 -0.037024736
-0.050936807 0.18815465 0.037477653 0.15652406 0.04852676 0.12911703 0.039964117 0.10923022
00000000: a187 2dbe 60c2 cebd a973 b03d 18df 443e
00000010: 2501 3e3d 753a 41be e7d9 0fbc 16a8 063e
00000020: 5747 09be b798 8ebb 02f2 81bd 277e a6bd
00000030: 1028 023e 5a11 c33d 0fb9 41bd f75e 0bbe
00000040: c1e7 093e 3a04 edbd c0a7 b53c f5b5 633c
00000050: b6be e03d 7c03 c8bc 2f26 d3bd 7322 9cbd
00000060: 4042 d1bc f1d8 87bd 2fd2 d73d 914f b23d
00000070: d357 203e aaaf b4bc 6bc9 d6bd f7ef 8bbd
00000080: 9903 e2bd 9154 dd3d 771c d13d 7367 3a3d
00000090: 446a e03c c01a 053e 32a1 053e 04d9 373e
000000a0: f8a8 07be 3733 653c 2ae4 83bd 400f a23d
000000b0: 63f8 0dbd 93e2 74bc 3ed3 3c3e 1af7 37be
000000c0: 1a2f dbbd 4590 7fbd a58c e7bd 648c bc3c
000000d0: 146b 72bc 97b0 84bc 86eb f2bc 7a9a 113d
000000e0: 10b2 f33d 8db8 ccbd a69b eabd 86d7 a4bd
000000f0: 4991 803d f558 423e 6cb4 22bd abb3 223d
00000100: a659 1a3d 32a0 d33c a95a ec3c 7042 233e
00000110: 889f 543d dbcd b03d 9406 53bd 553c 843c
00000120: dcb6 123d d9aa 703d d057 31be 9971 1abe
00000130: bc88 14be 98bd bd3d 62ec 33be e974 713c
00000140: 793c 3d3e b7f2 093e 9209 37bd 9a92 693d
00000150: 5f5a 96bd 2ef2 9fbd 6e9e 843c a9b1 b93d
00000160: 83d1 d83d 4528 04be 7b8b 4d3c 53e8 043e
00000170: 6c1a bb3d d5ae 9cbd 1163 003e 26c0 943d
00000180: d0fa 9d3c 6c15 2a3e b6af 033e 7b38 f4bc
00000190: f77f cdbd 2e89 bb3b bcd0 0a3e c6ed a6bd
000001a0: 3ee8 2abe 462b dabd f472 783d 7654 c43d
000001b0: bea4 db3d 2bb1 953d f5d4 243e 71a4 a4bb
000001c0: 829f 9c3d f768 f93c 5a53 0ebe 5b63 283d
000001d0: cbf0 a7bd 4b73 323d 07d1 e33d 7c18 a83d
000001e0: 127b 4fbd b153 f2bd 8fc5 b1bc 5c5d cd3d
000001f0: 8d85 fd3d 116b d3bd a02a e9bc 6849 89bc
00000200: 6bbe 0c3e 4ac7 203e 4ae2 073d 8d6b 793a
00000210: 78c3 8ebd d020 26bd 66ae ecbd 8339 16be
00000220: 15d2 ec3d ccf8 3bbe b318 243e 53f1 1abe
00000230: 467d 7b3d e26b 4cbd 10b9 903c 8217 373e
00000240: e570 48bd 9a2c 17be 4a2d cbbd 1435 bbbd
00000250: cd72 1dbe d1f7 3abe fdc2 09be f2ea cfbb
00000260: ad92 69bc d1b6 33be 6194 35be 5e43 3bbe
00000270: f290 06bc e509 1c3e 35e6 27be 06b2 4dbd
00000280: 70e0 023e 2447 63bd cdfe ad3d 10f0 b23d
00000290: a987 b5bd 39d1 ac3b 398d dd3d 05cc e93d
000002a0: 11b7 4c3d 8d2e 1fbe c4d5 2b3e 24fc 983d
000002b0: fc1a 4ebd 13a0 a83d f7d3 8dbd f8ac c1bd
000002c0: 8068 93bd 9694 c33d 1c47 34bd 85f6 3dbc
000002d0: 6ab4 f6bd b84c 423d 1dd0 da3c 56b1 fabc
000002e0: 936d ddbc 00e7 7d3d 8799 cbbd 213d 40bd
000002f0: 66c9 0cbe 9352 c73d 42af 38be 7461 e1bd
00000300: 52f1 08be 1cbd a9bd 7102 213e f190 083c
00000310: 9505 fe3d 6e9e 953d 3b62 ca3d 5e82 3c3e
00000320: 72de 913b 6f37 df3c 7bcd 2dbe 7c06 623d
00000330: 983d e5bc b652 4abc 5b2a 20be c169 243e
00000340: b4a4 3c3e 96e1 783b 1d26 973d a36e d83d
00000350: 09ec dd3c b756 cd3d d002 debd 3e98 113e
00000360: 3588 0c3e 8e15 be3b dde6 cdbb 8682 11be
00000370: 6952 1cbe 2404 5ebc 98ca 863d e3a3 91bd
00000380: bdb3 8bbd 6357 633c 264e 393e c79d 2cbe
00000390: ad08 7f3d c824 aabd 9217 983c e97d e7bc
000003a0: 2bf3 21bc d271 bebd 3a6d ac3a dfac 403e
000003b0: fb18 9f3d b24f 30be c4a5 39be 9a1f a2bc
000003c0: 319e a2bd 6c5b 373d 6a35 263e 815a 00be
000003d0: 2e91 c5bd 6a84 b7bd 673a b3bd 40a7 17bd
000003e0: 1da3 50bd 9dab 403e 2b82 193d d847 203e
000003f0: ffc3 463d 4137 043e 6ab1 233d 18b4 df3d

encoder.0.bias f4 [64]
-0.114632756 -0.02641407 -0.0982091 -0.03130448 0.036379624 -0.11609765 0.100032814 -0.053772938
0.16193266 -0.0919341 -0.009413687 0.050224576 -0.04763327 0.033076186 -0.00819542 0.13880858
-0.18000351 0.008915448 0.081480846 0.016866095 -0.089856274 -0.0005728721 0.0044869296 0.10672835
0.0006182337 -0.19037946 -0.00819391 0.14331488 -0.062083255 -0.13904415 -0.0050200126 0.13635589
0.050277293 -0.16908208 0.07129352 0.0713869 -0.03071029 0.1451833 0.16530378 0.022044739
-0.110388696 -0.008415227 0.07763473 0.089730635 -0.060622927 -0.17053212 0.1565892 0.054745913
0.12445595 -0.021891868 0.13416798 0.09410148 -0.13995244 -0.031016849 0.07634672 -0.16015348
-0.10373598 0.0065254145 -0.0145217 -0.1912015 -0.16473483 -0.012572474 -0.15708457 0.15630333
00000000: 94c4 eabd 5262 d8bc da21 c9bd 2039 00bd
00000010: cd02 153d 9bc4 edbd 01de cc3d 0341 5cbd
00000020: add1 253e f247 bcbd dd3b 1abc 49b8 4d3d
00000030: 1b1b 43bd e57a 073d 1546 06bc d623 0e3e
00000040: d752 38be 1912 123c 6edf a63d c42a 8a3c
00000050: 9106 b8bd cc2c 16ba 1807 933b 6594 da3d
00000060: f610 223a d5f2 42be c03f 06bc 23c1 123e
00000070: 034b 7ebd 9761 0ebe eb7e a4bb e1a0 0b3e
00000080: 90ef 4d3d da23 2dbe 5602 923d 4c33 923d
00000090: 2594 fbbc eeaa 143e 6545 293e 2b97 b43c
000000a0: 7813 e2bd 05e0 09bc f5fe 9e3d b2c4 b73d
000000b0: bf4f 78bd f99f 2ebe eb58 203e 403d 603d
000000c0: c3e2 fe3d 9356 b3bc 5563 093e 47b8 c03d
000000d0: b14f 0fbe 0c17 febc ab5b 9c3d 46ff 23be
000000e0: 8873 d4bd 25d3 d53b 6dec 6dbc 53ca 43be
000000f0: 3fb0 28be c7fc 4dbc c7da 20be fb0d 203e

encoder.3.weight f4 [128, 64, 3, 3]
0.010401139 0.010504499 0.0014677884 0.004096914 -0.013586072 -0.023673661 -0.03341253 0.020315107
-0.03795747 -0.00861742 -0.00857101 0.030766971 -0.012308788 0.03563189 0.006071102 0.032219995
0.020135796 0.017046278 -0.014568979 0.009676292 -0.027992558 0.004970766 0.006318727 -0.010503263
0.037470553 0.026296426 -0.0175356 0.023622384 -0.036866974 -0.030972634 -0.0003410669 -0.023954324
0.0056403284 0.015487271 -0.04107072 0.037539903 0.0053342776 0.021374669 -0.021418957 0.021744484
-0.011529332 -0.027906476 -0.040293664 0.024032831 -0.021222062 0.033272464 0.019263528 -0.038730867
-0.03107671 0.031502794 -0.0006249185 0.008688585 -0.027833102 0.033446856 0.0078078983 -0.0062678596
-0.008981393 0.026434517 0.031096654 0.0029502385 0.023984026 -0.033116236 -0.0020314618 -0.006101375
-0.023299282 0.040110324 -0.021683667 0.040787317 0.014060228 0.04078039 -0.008278487 0.00030185873
-0.03076456 -0.032357384 -0.0319783 -0.026053997 -0.02604662 -0.0127534885 0.040783364 -0.0056577353
0.039058693 -0.036202684 0.03455941 -0.031803604 0.017491808 -0.041402202 -0.023893813 -0.0049940157
-0.017575955 0.012838465 0.029986233 -0.0035949803 -0.03551072 -0.029662766 -0.040869135 0.023941657
0.020103803 -0.034959543 0.032830294 0.0070869788 0.003105665 -0.030137638 0.036647614 0.026933782
0.02493857 -0.011115959 -0.031454686 0.026022743 0.014444754 -0.03046078 0.0332319 -0.027867006
0.01054284 -0.027661923 -0.035389103 -0.008176985 0.017418701 0.0014829813 -0.015177968 -0.022241497
0.01935287 0.0036113712 -0.017440282 -0.013543711 0.0055914177 -0.014183845 0.03396136 -0.009321785
-0.009912866 0.033045594 0.03416707 0.033143375 -0.024385236 -0.015687523 0.024135437 0.0074216947
-0.029888399 -0.0018804669 0.012350821 0.016921127 -0.03389354 0.035202537 -0.041068606 0.0013756644
0.0087136235 -0.0026220428 -0.030453647 0.023793438 -0.027252842 -0.024408871 -0.019748405 0.017427003
0.026409201 -0.014633286 -0.036035746 0.018029388 -0.037238263 0.0013769608 0.01166144 -0.024160571
0.030060632 0.035983566 -0.036862213 -0.03294894 0.0076231784 0.03784465 -0.026929114 0.006119671
-0.039148133 -0.014016376 -0.014079092 -0.022612674 0.029079251 0.0032423055 -0.024703545 0.019823968
0.0052679786 -0.03179475 0.03898227 0.03593193 -0.0376412 -0.032907207 0.013462485 0.0006715409
0.0350139 -0.0284472 0.0015600586 0.0009924435 0.004856556 0.025825627 -0.02921936 -0.031147093
-0.018005433 -0.013042633 -0.019659568 0.013662948 -0.0031741036 -0.015354896 -0.04151358 0.037422795
-0.020411093 0.033891644 -0.008727513 0.040508382 -0.0064339642 -0.014845641 0.015076625 0.032703377
-0.022902485 0.029223297 -0.024883334 -0.007842094 0.03557655 0.013167207 -0.022711553 -0.034324273
0.033617795 0.0127466135 0.017898973 -0.017487418 -0.0028707269 -0.0040439637 0.008824577 0.017881624
0.016338747 0.010392025 -0.02464692 -0.0061932546 0.009200687 -0.03515389 0.021087838 -0.038867373
0.013738146 0.006525024 0.027000563 -0.022271113 0.030783478 -0.013750992 -0.012946583 -0.038555432
0.017681995 -0.011231875 0.012750183 0.019723846 -0.023773847 -0.025734758 -0.032914165 0.022327682
-0.0008650004 0.0076021207 -0.006666808 -0.025148617 0.020637512 -0.0043595238 -0.0020214699 -0.007545022
00000000: 8a69 2a3c 101b 2c3c ce62 c03a 683f 863b
00000010: 1e98 5ebc 44ef c1bc 94db 08bd de6b a63c
00000020: 4b79 1bbd 1430 0dbc 6c6d 0cbc 040b fc3c
00000030: ccaa 49bc bff2 113d 18f0 c63b 1df9 033d
00000040: d3f3 a43c a3a4 8b3c bab2 6ebc 4f89 1e3c
00000050: a650 e5bc cfe1 a23b 530d cf3b e115 2cbc
00000060: b97a 193d 9a6b d73c d2a6 8fbc bb83 c13c
00000070: d301 17bd 52ba fdbc 39d1 b2b9 dc3b c4bc
00000080: 81d2 b83b 53be 7d3c c539 28bd 71c3 193d
00000090: 2acb ae3b ee19 af3c cf76 afbc 7d21 b23c
000000a0: 86e5 3cbc 1f9c e4bc f80a 25bd 80e0 c43c
000000b0: e4d9 adbc b548 083d 8cce 9d3c 42a4 1ebd
000000c0: 9694 febc 1309 013d 92d1 23ba 915a 0e3c
000000d0: 3f02 e4bc 92ff 083d 66d9 ff3b 9e62 cdbb
000000e0: b126 13bc 338d d83c 69be fe3c ca58 413b
000000f0: 267a c43c e4a4 07bd 4622 05bb 0bee c7bb
00000100: 23de bebc b94a 243d f2a1 b1bc 9a10 273d
00000110: df5c 663c 5709 273d 7ea2 07bc cb42 9e39
00000120: f505 fcbc 2d89 04bd aefb 02bd 316f d5bc
00000130: b95f d5bc 02f4 50bc 750c 273d 8664 b9bb
00000140: 02fc 1f3d 4449 14bd 2b8e 0d3d 7f44 02bd
00000150: fb4a 8f3c 5b95 29bd f5bc c3bc d7a4 a3bb
00000160: 73fb 8fbc 6d58 523c b0a5 f53c c399 6bbb
00000170: b073 11bd 54ff f2bc 6566 27bd 4b21 c43c
00000180: bbb0 a43c bd31 0fbd 0f79 063d e339 e83b
00000190: 6a88 4b3b 35e3 f6bc cf1b 163d 3ca4 dc3c
000001a0: f94b cc3c b61f 36bc a1d6 00bd a62d d53c
000001b0: b1a9 6c3c e388 f9bc 2c1e 083d 5949 e4bc
000001c0: e0bb 2c3c 429b e2bc 2af4 10bd c3f8 05bc
000001d0: aab1 8e3c 9860 c23a 03ad 78bc cd33 b6bc
000001e0: e989 9e3c c1ac 6c3b ecde 8ebc 71e6 5dbc
000001f0: 3638 b73b 5c63 68bc 111b 0b3d 66ba 18bc
00000200: 9369 22bc d15a 073d c5f2 0b3d 59c1 073d
00000210: 8cc3 c7bc 1f83 80bc aeb7 c53c b031 f33b
00000220: 84d8 f4bc 007a f6ba 195b 4a3c 2d9e 8a3c
00000230: f4d3 0abd 8930 103d 8e37 28bd a34f b43a
00000240: 96c3 0e3c 94d6 2bbb ed79 f9bc 75ea c23c
00000250: 5a41 dfbc 1df5 c7bc 68c7 a1bc 13c3 8e3c
00000260: 1c58 d83c 73c0 6fbc 389a 13bd 5eb2 933c
00000270: 2687 18bd 237b b43a a00f 3f3c 64ec c5bc
00000280: b741 f63c 8163 133d d5fc 16bd 78f5 06bd
00000290: dbcb f93b fe02 1b3d 729a dcbc 8587 c83b
000002a0: cb59 20bd f1a4 65bc feab 66bc 373e b9bc
000002b0: 9c37 ee3c dc7c 543b 175f cabc e065 a23c
000002c0: 029f ac3b 363b 02bd dfab 1f3d 5c2d 133d
000002d0: a92d 1abd b5c9 06bd c191 5c3c 590a 303a
000002e0: bc6a 0f3d 1a0a e9bc e17a cc3a e114 823a
000002f0: bf23 9f3b 4490 d33c 705d efbc 3028 ffbc
00000300: 2180 93bc c5b0 55bc 1a0d a1bc 8fda 5f3c
00000310: 9f04 50bb 1a93 7bbc 250a 2abd a548 193d
00000320: 2a35 a7bc f7d1 0a3d d8fd 0ebc 1eec 253d
00000330: 01d4 d2bb 223b 73bc f303 773c faf3 053d
00000340: fe9d bbbc b265 ef3c 22d8 cbbc 207c 00bc
00000350: b7b8 113d 45bb 573c 940d babc 9c97 0cbd
00000360: d0b2 093d 2cd7 503c dea0 923c c641 8fbc
00000370: ce22 3cbb 3a83 84bb f594 103c 7c7c 923c
00000380: d6d8 853c 5043 2a3c 56e8 c9bc c9f0 cabb
00000390: 7abe 163c 86fd 0fbd 67c0 ac3c 6533 1fbd
000003a0: f615 613c decf d53b 4930 dd3c e971 b6bc
000003b0: a22d fc3c d74b 61bc e81d 54bc 4dec 1dbd
000003c0: d5d9 903c e605 38bc 25e6 503c e793 a13c
000003d0: 5fc1 c2bc b3d1 d2bc 01d1 06bd 8be8 b63c
000003e0: 32c1 62ba 361b f93b 3d75 dabb 7904 cebc
000003f0: 0010 a93c 56da 8ebb a37a 04bb 3b3c f7bb

encoder.3.bias f4 [128]
0.013643842 -0.015554298 -0.03165425 0.017018398 -0.0022248237 0.023027185 -0.008233699 0.015138911
-0.010180358 -0.037734225 -0.00061032624 -0.02343704 -0.02931245 0.02510279 -0.028482463 0.013377172
-0.030133964 -4.297573e-06 -0.017862996 0.02886246 -0.040106095 0.0053156163 0.0012601315 -0.03914465
0.015811563 -0.010425035 -0.008376213 -0.023079094 0.028267661 -0.008224915 0.039766878 0.025838064
-0.019169265 -0.031330507 -0.03294371 0.010004067 0.025174242 -0.01734878 -0.008538674 0.020767957
-0.025004227 0.015024379 0.018187627 -0.024292326 0.014839577 0.03911475 0.011836074 0.029606476
0.022553867 -0.012789598 -0.02571593 -0.013603308 0.026604807 -0.016092613 -0.018565532 0.03696095
-0.024600063 -0.030250004 0.0065439832 0.033654857 -0.012004493 0.028051384 -0.010621577 0.023242153
0.033538412 0.028206015 -0.017330911 -0.024655761 -0.016451163 -0.024217576 -0.016071508 0.004078086
0.033615723 -0.01519651 -0.02959681 0.00091425586 -0.0016565112 0.008275695 -0.008024102 0.010071057
0.02322467 0.0055761524 0.03514691 0.027828382 -0.015143178 -0.030242402 -0.008122059 -0.021330295
0.016498588 0.009727663 -0.016881801 -0.021189384 -0.00283595 0.01925449 -0.03059962 -0.013140202
-0.04003736 -0.006551842 -0.0060809604 0.03976585 -0.0033501207 0.017746277 0.02004606 0.036700804
-0.018549053 0.027985917 0.011481261 0.032473024 -0.018112762 -0.017412512 -0.028981918 -0.029230433
0.0009980508 0.035893053 -0.026248092 -0.03781112 0.0047650165 0.013498921 -0.028934592 0.02385786
0.01733842 0.002316186 -0.02802525 0.002052783 0.026217578 -0.018184127 0.038422734 -0.013424477
00000000: 6c8a 5f3c 74d7 7ebc e3a7 01bd 2b6a 8b3c
00000010: 59ce 11bb 82a3 bc3c a3e6 06bc 3209 783c
00000020: 84cb 26bc 348f 1abd 4dfe 1fba 09ff bfbc
00000030: aa20 f0bc 5ea4 cd3c 0e54 e9bc ed2b 5b3c
00000040: 81db f6bc df33 90b6 6b55 92bc f770 ec3c
00000050: 4a46 24bd 9f2e ae3b ff2a a53a 2456 20bd
00000060: 4087 813c c4cd 2abc 623c 09bc 5e10 bdbc
00000070: 9591 e73c cbc1 06bc 98e2 223d 59aa d33c
00000080: dd08 9dbc 6b54 00bd fcef 06bd 19e8 233c
00000090: 363a ce3c 071f 8ebc cbe5 0bbc 9021 aa3c
000000a0: aad5 ccbc d028 763c 38fe 943c b300 c7bc
000000b0: b221 733c ca36 203d 18ec 413c 4889 f23c
000000c0: e3c2 b83c 768b 51bc 37aa d2bc 69e0 5ebc
000000d0: 53f2 d93c a8d4 83bc be16 98bc 5d64 173d
000000e0: 1286 c9bc dbce f7bc e96e d63b add9 093d
000000f0: 7eae 44bc 04cc e53c 1f06 2ebc 5466 be3c
00000100: 935f 093d 4d10 e73c 8ef9 8dbc e1fa c9bc
00000110: 97c4 86bc f063 c6bc 65a8 83bc 77a1 853b
00000120: a4b0 093d c8fa 78bc 0275 f2bc acaa 6f3a
00000130: 4b1f d9ba c896 073c 8677 03bc 1301 253c
00000140: aa41 be3c 28b8 b63b 35f6 0f3d 59f8 e33c
00000150: 181b 78bc eabe f7bc 6212 05bc dfbc aebc
00000160: 0c28 873c c760 1f3c b44b 8abc 5c95 adbc
00000170: 59db 39bb 98bb 9d3c 0eac fabc 004a 57bc
00000180: 37fe 23bd d6b0 d6bb cb42 c7bb 84e1 223d
00000190: b38d 5bbb a460 913c a337 a43c 9553 163d
000001a0: 2ff4 97bc b942 e53c e61b 3c3c 6f02 053d
000001b0: 3761 94bc afa4 8ebc 7d6b edbc a974 efbc
000001c0: 07d1 823a 9804 133d 3d06 d7bc d5df 1abd
000001d0: db23 9c3b 942a 5d3c 3d08 edbc 8f71 c33c
000001e0: 4d09 8e3c 27cb 173b 3695 e5bc fc87 063b
000001f0: 3fc6 d63c e1f6 94bc 2861 1d3d 56f2 5bbc

decoder.0.weight f4 [64, 128, 3, 3]
0.00048144013 0.02042849 -0.0048032557 -0.0016027003 0.027465397 0.009520443 0.025123067 -0.015088053
-0.025554795 -0.017498793 0.02406916 -0.0011545003 -0.020680735 0.0045904466 -0.009353636 -0.007158647
-0.0059602074 -0.006058461 0.024876695 -0.009703354 -0.023247533 0.006797482 0.014707912 -0.0075800675
0.024032742 -0.008732096 -0.017062329 -0.02032849 0.013948828 -0.00850881 0.02950642 -0.007631613
0.022835782 -0.006750052 0.0044881846 -0.012069701 -0.02396022 0.02639898 0.0250214 0.002799719
0.020350337 -0.014897045 -0.023118686 -0.028996676 -0.015994709 0.0047504683 -0.01975245 -0.026249161
0.008119951 -0.02603503 0.027880892 0.022640187 0.026743304 0.004468005 0.0020990034 -0.0031046388
0.0013771646 0.008712808 -0.026631583 0.018013248 0.027915671 0.018096099 -0.016472682 -0.0009190363
0.0008892399 0.0077112964 -0.009763523 0.006381758 0.0059055043 0.012729813 0.018247562 0.02978908
-0.018955734 0.02809632 0.023877187 0.026251763 -0.02001913 -0.006084238 0.0075276997 0.001728318
0.012186875 0.028391475 0.015747469 0.014591094 -0.026563574 0.0167833 -0.002969654 0.0009238861
-0.017450832 0.010692331 -0.009094895 0.019207854 -0.0069123413 0.004435816 0.011754543 0.014120633
0.015037221 0.02125118 -0.013385188 -0.017774116 0.019097142 0.017382389 -0.00011256208 -0.028511623
-0.015975447 0.016260179 -0.021851322 0.00946332 -0.0036750298 -0.013566846 -0.022500506 -0.027779445
0.0228171 0.0009656183 -0.0046728556 -0.019718934 0.0022637232 -0.0032684295 -0.013078111 0.019092608
0.008306581 0.006478506 -0.019216094 0.00024987673 0.018796796 0.021388438 -0.0072572147 -0.0068027438
-0.0057930676 0.0036128382 0.020320628 0.017933521 -0.00023257152 0.009764845 0.025569407 -0.011195139
0.014002786 -0.024897622 -0.001539872 -0.019349514 -0.027949754 -0.012541745 0.0023059903 -0.026298787
0.022965437 0.022664096 0.012150968 0.015587899 -0.008012683 0.0021034821 0.017338332 0.0136925485
0.019426554 0.014938696 0.0075335973 -0.01708056 -0.012373089 0.028547449 -0.019447528 -0.0032610763
0.0083454065 -0.014344171 -0.013312071 0.0097385775 -0.025507461 -0.02651524 -0.02864603 -0.029375048
-0.022072453 -0.027285479 -0.0088332705 -0.007322139 0.02740698 -0.023089861 -0.017867297 -0.026233176
0.005114474 -0.01972373 0.014733138 0.017211098 0.010500011 0.0044948407 -0.016108437 -0.027154975
-0.00026354784 0.024266273 -0.02565675 0.00771852 0.023629876 -0.028367124 0.00986345 0.0286108
-0.0068431636 -0.018375425 0.022229375 0.019646278 0.02614948 -0.027702771 0.004673847 -0.015732914
-0.018569283 -0.0229233 -0.0055967816 0.027783362 0.027742604 0.007530848 -0.0018627583 0.013980239
0.0050864434 -0.007846593 -0.016918767 -0.01338129 -0.014896484 0.020827843 -0.01608004 -0.025787981
-0.028835053 0.020277467 -0.0036631078 0.00974616 0.015975771 -0.0067494167 -0.016405094 0.015507439
0.006576899 -0.011584534 0.0037648717 0.028004052 0.015774997 0.01525 -0.008991368 -0.005961378
-0.014254623 0.028506732 -0.020000616 0.013852742 0.014153509 -0.017978985 -0.0099282 -0.013207002
-0.016457384 -0.02076824 0.0043504112 -0.025898963 0.027946696 0.0032590658 -0.013695129 0.00806714
0.011611539 0.026503118 -0.014623487 -0.01144995 -0.024313208 -0.0050413036 0.026097484 0.0148541555
00000000: cd69 fc39 a659 a73c a164 9dbb b311 d2ba
00000010: 1dff e03c a2fb 1b3c e4ce cd3c e233 77bc
00000020: 4a58 d1bc a159 8fbc b02c c53c 9a52 97ba
00000030: a56a a9bc 756b 963b fe3f 19bc 1593 eabb
00000040: d84d c3bb 0e86 c6bb 36ca cb3c d1fa 1ebc
00000050: 9c71 bebc 69bd de3b 74f9 703c 3762 f8bb
00000060: 50e0 c43c 1111 0fbc 4cc6 8bbc ef87 a6bc
00000070: a089 643c 8968 0bbc 73b7 f13c 9c12 fabb
00000080: 1b12 bb3c 8a2f ddbb 9f11 933b ffbf 45bc
00000090: 3948 c4bc ac42 d83c aef9 cc3c 7e7b 373b
000000a0: c0b5 a63c bc12 74bc 6663 bdbc 708a edbc
000000b0: 5607 83bc d1a9 9b3b e4cf a1bc 7b08 d7bc
000000c0: 8b09 053c 6a47 d5bc 7866 e43c ea77 b93c
000000d0: c614 db3c 5868 923b 6f8f 093b 3277 4bbb
000000e0: fa81 b43a 2ac0 0e3c 7a2a dabc 8590 933c
000000f0: 68af e43c 453e 943c b8f1 86bc 7beb 70ba
00000100: e11b 693a 0baf fc3b 2ff7 1fbc 111e d13b
00000110: f682 c13b b590 503c e97b 953c 3b08 f43c
00000120: 0e49 9bbc 412a e63c 179a c33c f00d d73c
00000130: 29ff a3bc 4a5e c7bb ecaa f63b bb88 e23a
00000140: 75ab 473c 3d95 e83c d600 813c 7c0f 6f3c
00000150: da9b d9bc 227d 893c 879e 42bb f230 723a
00000160: 0cf5 8ebc e32e 2f3c c102 15bc ca59 9d3c
00000170: ec80 e2bb 525a 913b 2096 403c 3a5a 673c
00000180: ad5e 763c f416 ae3c 8c4d 5bbc 069b 91bc
00000190: 9c71 9c3c 8365 8e3c 4e0f ecb8 3591 e9bc
000001a0: f1de 82bc 1134 853c 8b01 b3bc 0a0c 1b3c
000001b0: c5d8 70bb 7a47 5ebc fb52 b8bc b891 e3bc
000001c0: edea ba3c 8c21 7d3a c11e 99bb 9a89 a1bc
000001d0: f95a 143b 2633 56bb 9345 56bc 1a68 9c3c
000001e0: 5318 083c a649 d43b 126b 9dbc e301 8339
000001f0: bdfb 993c ce36 af3c eecd edbb 8de9 debb
00000200: c6d3 bdbb 5ec5 6c3b 7277 a63c 52e9 923c
00000210: 71de 73b9 bafc 1f3c ef76 d13c d16b 37bc
00000220: f16b 653c 19f6 cbbc 88d5 c9ba df82 9ebc
00000230: e2f6 e4bc e47b 4dbc 1920 173b 8e70 d7bc
00000240: 0322 bc3c 0eaa b93c db14 473c 6364 7f3c
00000250: a147 03bc 93da 093b 1e09 8e3c b656 603c
00000260: 7024 9f3c 6fc1 743c 65dc f63b 88ec 8bbc
00000270: 7fb8 4abc 57dc e93c 6c50 9fbc c8b7 55bb
00000280: 2cbb 083c d003 6bbc df1a 5abc 8e8e 1f3c
00000290: 06f5 d0bc 7d36 d9bc 14ab eabc f1a3 f0bc
000002a0: 4ad1 b4bc cc85 dfbc 6cb9 10bc 8eee efbb
000002b0: 9a84 e03c f326 bdbc 705e 92bc f5e6 d6bc
000002c0: 5197 a73b a993 a1bc 4263 713c 4afe 8c3c
000002d0: 3d08 2c3c 7549 933b d7f5 83bc 1c74 debc
000002e0: cb2c 8ab9 10ca c63c 1b2e d2bc a3eb fc3b
000002f0: 7193 c13c 2c62 e8bc 4f9a 213c 3261 ea3c
00000300: 9e3c e0bb 0f88 96bc 611a b63c 3bf1 a03c
00000310: 6f37 d63c ecf0 e2bc 1227 993b 50e2 80bc
00000320: 9c1e 98bc a5c9 bbbc 3565 b7bb ef99 e33c
00000330: 7544 e33c 55c5 f63b cc27 f4ba 5f0d 653c
00000340: 2eac a63b ff8e 00bc 3a99 8abc 333d 5bbc
00000350: 6210 74bc 279f aa3c 4aba 83bc 5141 d3bc
00000360: 7d37 ecbc ee1c a63c c010 70bb 5cae 1f3c
00000370: 9fdf 823c 362a ddbb fa63 86bc ea12 7e3c
00000380: 0783 d73b 0fcd 3dbc 11bc 763b c168 e53c
00000390: 913a 813c 23db 793c 8850 13bc aa57 c3bb
000003a0: 398c 69bc f386 e93c 55d8 a3bc 9cf6 623c
000003b0: 1fe4 673c aa48 93bc e4a9 22bc 2e62 58bc
000003c0: a3d1 86bc 2822 aabc e58d 8e3b 102a d4bc
000003d0: 78f0 e43c 0d96 553b 8961 60bc 0a2c 043c
000003e0: 533e 3e3c 111d d93c 5a97 6fbc 9298 3bbc
000003f0: 7e2c c7bc 8531 a5bb 64ca d53c d85e 733c

decoder.0.bias f4 [64]
0.0072352383 -0.027579488 0.019079573 0.022892103 -0.024956511 0.008432826 -0.026716216 0.007401886
-0.0038353095 0.0048791147 -0.016394602 -0.01282114 0.027263341 -0.015729308 0.009901275 0.025813285
-0.02628938 0.019486789 0.008213779 -0.0027431422 -0.02440079 -0.010992532 0.01314518 0.030180078
0.011233807 0.0031413436 0.002256058 -0.01007976 0.002908413 -0.020693973 0.025378676 0.010945315
0.020152707 -0.0070911744 0.015393093 0.011340658 -0.0046642222 0.005169635 -0.017393159 0.008580138
-0.0223797 -0.011204145 0.020113476 0.009355328 0.015141826 -0.012675888 -0.026811915 0.015225082
0.022457303 0.018006867 -0.008083473 0.0003107096 0.026023427 -0.018748976 0.017958999 -0.019920496
0.018619958 -0.021442961 0.017477373 -0.01660247 -0.022119839 -0.022057513 0.024914863 -0.025197256
00000000: 9415 ed3b 61ee e1bc c44c 9c3c 3888 bb3c
00000010: 9971 ccbc d629 0a3c f7db dabc 858b f23b
00000020: d159 7bbb fbe0 9f3b f94d 86bc c20f 52bc
00000030: 5f57 df3c c0da 80bc f538 223c 6276 d33c
00000040: d35c d7bc c2a2 9f3c 1693 063c 4ac6 33bb
00000050: 2ae4 c7bc 051a 34bc e25e 573c 363c f73c
00000060: 000e 383c 00df 4d3b 5fda 133b 9425 25bc
00000070: 139b 3e3b 6886 a9bc f1e6 cf3c fa53 333c
00000080: 4a17 a53c 155d e8bb 5033 7c3c 2bce 393c
00000090: 55d6 98bb 0b66 a93b 197c 8ebc b593 0c3c
000000a0: a255 b7bc 9791 37bc 04c5 a43c 1747 193c
000000b0: 6c15 783c 87ae 4fbc a9a4 dbbc 9f72 793c
000000c0: 61f8 b73c 2383 933c 8b70 04bc bde6 a239
000000d0: 152f d53c 7497 99bc c01e 933c 4f30 a3bc
000000e0: e288 983c 26a9 afbc b52c 8f3c e701 88bc
000000f0: aa34 b5bc f5b1 b4bc 411a cc3c 7a6a cebc

decoder.3.weight f4 [32, 64, 3, 3]
-0.025450004 0.0022842707 -0.022336727 -0.015201806 -0.008431931 0.03855671 0.025890902 0.020240573
0.031898227 0.015985087 -0.009163111 -0.015558825 0.030718844 -0.03574431 -0.023315046 -0.028490841
-0.0026898372 -0.016161311 -0.023056155 -0.0032324886 0.009325149 -0.014336019 -0.023882193 0.035369348
-0.017506517 0.01985886 0.016963184 0.04031275 0.024020497 0.03615832 0.025231302 0.015469742
0.0016973977 0.042034466 -0.0110593885 0.034837164 -0.040533148 -0.025292667 0.0070705297 0.034306683
0.016162632 -0.035835087 -0.0034582186 0.013624683 0.0041223564 -0.005459758 -0.029768161 -0.025874235
-0.03389912 0.014291312 -0.021677615 -0.037217647 0.004893769 -0.011376215 -0.0025550567 -0.033050947
-0.02202807 0.0036965017 -0.022025026 0.00015423427 0.03345899 -0.035252735 0.029077888 0.008749417
-0.0057397573 0.023275942 0.01937684 0.031806443 0.006514422 0.03944995 -0.01005232 0.026440552
0.011617852 -0.01136474 0.00997244 -0.028388811 0.010785467 0.0031083361 0.0100099435 0.0035321726
-0.033698358 0.029336777 0.038849432 0.022659745 -0.01459259 0.031963825 0.03573076 -0.003697109
-0.014167762 0.036582008 -0.013388679 0.041923936 -0.008271414 -0.03128288 0.034320883 -0.0027606403
-0.025740143 0.0115450155 -0.00505972 0.03964221 -0.019374164 0.0076387986 -0.017937334 -0.030603861
0.029806608 -0.025206735 -0.012333053 0.022330755 0.01485127 -0.009498635 -0.040267326 -0.01624447
-0.010930099 0.0007130589 0.029348422 -0.03884806 -0.01800616 -0.00091615476 0.0065390063 -0.028043399
0.02821572 0.034489844 0.039890278 0.0008979212 -0.013157449 0.019645983 0.026587574 -0.023305988
-0.0092619695 -0.017652545 0.017836034 -0.006594923 -0.033878036 0.026875619 0.014235857 0.02032083
0.030621823 0.011509623 -0.02095095 -0.024798065 0.03808511 -5.2349584e-05 0.0065779556 0.01805808
-0.036655683 -0.03885048 0.025215125 -0.008408617 -0.018610427 0.036607604 -0.022628203 0.0062082834
0.028363308 -0.013731334 0.025067085 0.018709883 0.010408921 0.014433198 -0.022626864 0.033011243
-0.03846237 -0.011288002 -0.009909339 0.0025388096 0.03996538 0.024165837 -0.007707851 -0.03828815
-0.029519977 0.0044333185 0.029793672 0.035491224 -0.030996978 -0.012577273 0.042064928 -0.005566948
-0.023078749 0.0027461753 -0.011019475 0.0099464385 -0.011110462 -0.019304791 0.03388523 0.025380468
-0.03374158 -0.0030950205 0.035874896 -0.021395965 0.028279 0.013021838 -0.024907012 -0.03785716
0.03936331 -0.029132932 0.02915323 -0.022891194 -0.0058235177 -0.037156567 -0.019711984 0.008101303
0.040528584 -0.014617412 0.033027295 0.024061617 -0.013238754 -0.0066007827 -0.015063335 -0.024112588
0.026598737 0.039861318 -0.032680295 0.030017607 -0.0340449 0.011231798 -0.036269728 -0.03765398
0.038215097 -0.026290717 0.0062132124 -0.025180433 -0.021153664 -0.0120974695 0.025482051 0.034759723
0.034590498 -0.013215436 -0.032353304 -0.03051325 -0.009122275 0.014238876 -0.016012544 -0.009650134
0.022492066 -0.027765624 0.023966523 -0.013806699 -0.03941356 -0.033126608 0.020252183 0.022214975
-0.0019445604 0.030310284 -0.0138702765 -0.010670383 -0.018928282 -0.017834496 0.022446765 0.030215103
-0.03431155 0.027325932 0.03749597 0.023920128 -0.02728203 0.023293631 -0.019803291 0.011131302
00000000: 877c d0bc b4b3 153b 83fb b6bc ff10 79bc
00000010: 1526 0abc a4ed 1d3d 2819 d43c 8fcf a53c
00000020: b7a7 023d 28f3 823c e020 16bc 71ea 7ebc
00000030: 16a6 fb3c a068 12bd 32ff bebc a065 e9bc
00000040: fb47 30bb ba64 84bc 43e0 bcbc 29d8 53bb
00000050: 82c8 183c 9fe1 6abc 97a4 c3bc 73df 103d
00000060: d469 8fbc 0caf a23c 60f6 8a3c fb1e 253d
00000070: a2c6 c43c bf1a 143d e0b1 ce3c cd74 7d3c
00000080: 377b de3a 552c 2c3d 7032 35bc 6ab1 0e3d
00000090: 1606 26bd 9132 cfbc e7af e73b 2a85 0c3d
000000a0: 7f67 843c d0c7 12bd 48a3 62bb 103a 5f3c
000000b0: d514 873b c5e7 b2bb 5cdc f3bc 34f6 d3bc
000000c0: ced9 0abd 1b26 6a3c 4195 b1bc 8871 18bd
000000d0: e95b a03b 4e63 3abc bd72 27bb 6e60 07bd
000000e0: 3674 b4bc 0241 723b d46d b4bc f2b9 2139
000000f0: 4b0c 093d 2c65 10bd c034 ee3c b759 0f3c
00000100: 9314 bcbb 30ad be3c 2ebc 9e3c 7947 023d
00000110: ef76 d53b 4596 213d 7cb2 24bc db99 d83c
00000120: ce58 3e3c 2d33 3abc 7263 233c a78f e8bc
00000130: 87b5 303c 3ab5 4b3b bf00 243c 067c 673b
00000140: 4a07 0abd ae53 f03c 9520 1f3d eea0 b93c
00000150: c215 6fbc 80ec 023d 6b5a 123d 324b 72bb
00000160: e71f 68bc 04d7 153d 315c 5bbc 6fb8 2b3d
00000170: d384 07bc 7a22 00bd 0e94 0c3d dceb 34bb
00000180: fedc d2bc 4e27 3d3c 02cc a5bb df5f 223d
00000190: 91b6 9ebc e34e fa3b 51f1 92bc f3b4 fabc
000001a0: fd2c f43c 5b7e cebc 9310 4abc fdee b63c
000001b0: be52 733c 2aa0 1bbc 5aef 24bd 1f13 85bc
000001c0: 2814 33bc 93ec 3a3a 1a6c f03c 251f 1fbd
000001d0: a881 93bc 1b2a 70ba 2945 d63b 45bb e5bc
000001e0: a724 e73c 3945 0d3d fd63 233d 7962 6b3a
000001f0: 5792 57bc 9df0 a03c 2fce d93c 33ec bebc
00000200: 84bf 17bc 129c 90bc e01c 923c 391a d8bb
00000210: b2c3 0abd 422a dc3c 833d 693c df77 a63c
00000220: 9eda fa3c dc92 3c3c 54a1 abbc 5025 cbbc
00000230: 22ff 1b3d f091 5bb8 e48b d73b 8aee 933c
00000240: 4524 16bd ae21 1fbd f38f ce3c 4cc4 09bc
00000250: e574 98bc dbf1 153d c85e b9bc db6e cb3b
00000260: 2b5a e83c 64f9 60bc 7d59 cd3c 7845 993c
00000270: 2e8a 2a3c 3879 6c3c f95b b9bc cc36 073d
00000280: b88a 1dbd 50f1 38bc c85a 22bc 2862 263b
00000290: bdb2 233d 6ff7 c53c 2492 fcbb 09d4 1cbd
000002a0: e1d3 f1bc 5f45 913b dc11 f43c 3f5f 113d
000002b0: 60ed fdbc e810 4ebc 464c 2c3d f26a b6bb
000002c0: a50f bdbc 2df9 333b 078b 34bc 63f6 223c
000002d0: a808 36bc 1525 9ebc 3dcb 0a3d b3ea cf3c
000002e0: 9c34 0abd d4d5 4abb 8ef1 123d 9746 afbc
000002f0: 5da9 e73c 8c59 553c ca09 ccbc 1c10 1bbd
00000300: 6c3b 213d 30a8 eebc c1d2 ee3c 5086 bbbc
00000310: 35d3 bebb 7c31 18bd 077b a1bc 54bb 043c
00000320: 4d01 263d df7d 6fbc a147 073d de1c c53c
00000330: 5ce7 58bc 614b d8bb 35cc 76bc c387 c5bc
00000340: 98e5 d93c 9f45 233d c6db 05bd 7ce7 f53c
00000350: aa72 0bbd 9305 383c 918f 14bd 0f3b 1abd
00000360: 6f87 1c3d a15f d7bc 3498 cb3b 3247 cebc
00000370: 734a adbc 7734 46bc bcbf d03c 3660 0e3d
00000380: c4ae 0d3d 8e85 58bc e684 04bd ecf6 f9bc
00000390: 9875 15bc 2d4a 693c bd2c 83bc 981b 1ebc
000003a0: 4841 b83c bc74 e3bc 7155 c43c 7e35 62bc
000003b0: 1d70 21bd c4af 07bd e8e7 a53c 2efc b53c
000003c0: 9fe0 feba 464d f83c 2840 63bc d5d2 2ebc
000003d0: 7c0f 9bbc a619 92bc 47e2 b73c aa85 f73c
000003e0: 458a 0cbd a2da df3c 6095 193d 25f4 c33c
000003f0: 907e dfbc 49d2 be3c 833a a2bc 1160 363c

decoder.3.bias f4 [32]
0.03473543 0.037990447 -0.0035641033 0.037359055 0.0229033 -0.03912653 0.026175704 0.026812552
-0.024920411 0.019677011 0.026493026 0.00717272 0.026415136 0.017702004 -0.030754738 0.038982615
0.007406927 -0.010202002 0.027331589 0.004789351 -0.026080072 -0.003268323 0.040411487 0.0041507822
0.0053550843 0.02173502 0.0117915645 -0.020844873 -0.021887315 -0.032958318 0.026813887 0.04002571
00000000: bd46 0e3d df9b 1b3d bb93 69bb cf05 193d
00000010: b49f bb3c 2443 20bd 6e6e d63c ffa5 db3c
00000020: e425 ccbc af31 a13c e707 d93c 2309 eb3b
00000030: 8e64 d83c cb03 913c 5cf1 fbbc 3cac 1f3d
00000040: cfb5 f23b 4c26 27bc 7fe6 df3c fdef 9c3b
00000050: e0a5 d5bc 5c31 56bb 8486 253d 4903 883b
00000060: b479 af3b a40d b23c 6831 413c dec2 aabc
00000070: 074d b3bc 4dff 06bd cca8 db3c 00f2 233d

decoder.6.weight f4 [1, 32, 1, 1]
-0.043367352 -0.15745106 -0.06544481 -0.10638361 -0.1608417 0.047134742 0.00097275426 -0.027206618
0.07507899 -0.03884768 0.116447866 0.038717348 0.05910901 -0.016159397 -0.023359152 0.08260711
-0.1629577 -0.02560014 -0.0037685232 -0.13764481 0.048394732 0.07906158 0.07280211 0.008637163
0.102401346 0.081093796 -0.103272915 0.046398364 0.12166528 -0.11517848 -0.0037596824 0.007157579
00000000: f7a1 31bd da3a 21be ee07 86bd a6df d9bd
00000010: b0b3 24be 5c10 413d 6f00 7f3a 6ae0 debc
00000020: 03c3 993d bf1e 1fbd 387c ee3d 1596 1e3d
00000030: 4a1c 723d b660 84bc b15b bfbc eb2d a93d
00000040: 62de 26be 63b7 d1bc 54f9 76bb c3f2 0cbe
00000050: 8e39 463d 0aeb a13d 4619 953d e382 0d3c
00000060: ccb7 d13d 8114 a63d c080 d3bd 360c 3e3d
00000070: a52b f93d b2e2 ebbd 0165 76bb 208a ea3b
