checkpoints/2025-06-02-15-32-55/last_epoch.pth (torch, 32759 bytes, 7 tensors)

encoder.0.weight f4 [16, 3, 3, 3]
00000000: 8c41 6e3d 41c0 d83c fe97 c83d 721f 09be
00000010: e07e 433d 7b09 0f3e ee56 cfbd b5a4 063e
00000020: 4003 283e 89d9 d9bd 1b3c 29be 6b65 2cbd
00000030: 19f5 e63d 483d eb3c 9116 3a3e 54e7 783b
00000040: 5b45 b8bd 5f50 893c 9859 3cbe 5019 90bd
00000050: 76ad d5bd 2ba3 29be c589 89bd 6977 123e
00000060: 2e09 143e b216 3bbe f660 143e e23a 72bc
00000070: e8a5 9a3d cd7d ddbd ec05 23be 6155 323e
00000080: d67f 9cbd dacf 113e 5db6 8fbd 3cc3 0fbe
00000090: c129 d1bd c7e5 65bd a69d 2b3d 5e3a 05b9
000000a0: 88b3 48bd 9687 583d 9c91 b7ba 6c00 0cbe
000000b0: 5376 8bbd ea72 3f3e 8f15 ac3d 92a0 18be
000000c0: 8bb4 4abc 4fa3 6fbc aa41 193e 00b8 30be
000000d0: 6fa7 d13d 7524 8d3d e667 2a3e 0d4f d3bd
000000e0: 16ac 3abe 11a9 d1bd 4070 c0bb b615 a33d
000000f0: 6164 1c3d b6fb 5b3d 0b59 f73d 536e 05bd
00000100: 02da 0b3e 65c1 53bd dfb2 993c 7ef2 923d
00000110: d495 383d ff43 ca3d 122f 96bd b6d9 3fbe
00000120: 275c c1bd 3fbf ebbd dce8 a33c 1176 7fbd
00000130: abfc 2cbc ac2d 34bd 3846 cb3d 2420 cabc
00000140: 8ef9 11be 14d9 da3d a418 323e a7fc c13d
00000150: 3a5d 36be 6f3f d03d 0878 28bd 140c cfbd
00000160: fffb f63d 70a0 bc3d 205b 8b3c 8c9a c43d
00000170: 0966 933c 94f2 42bd f4e1 acbd 9a89 16bd
00000180: 0ef0 123e dc0a 383e 772a 19bc bd4a 28be
00000190: 425c 1bbe c282 13bc 5a68 b5bd f5a1 d53d
000001a0: ded1 67bd ec0f 80bd 6a4b 0bbe c390 67bd
000001b0: 3938 9c3d d422 ed3d e087 253e ac45 37be
000001c0: 0556 383e 7ffb 0dbe b038 45bd 70e4 14bd
000001d0: e5ef debd f5b9 0ebe e368 37be d784 6f3d
000001e0: fb21 d03d 3fdc 81bc 3467 ebbb 59a2 513d
000001f0: c441 43be 14dd e6bd 10f5 b2bd 81e1 0b3e
00000200: 600c 07be 969b 8b3d 62b3 133e 4b90 3e3e
00000210: fb88 e1bd 61d4 103e f845 563d 0acc 4fbc
00000220: 10b7 dd3d 4742 1ebe 88da b13d 97dd c5bd
00000230: 788f c7bd ac4c 3c3e ab5a 173e e89b 9cbd
00000240: 63b8 cbbd 9bfe d2bd 8792 3d3e e452 273e
00000250: ef42 16be 8bcb ca3d db8c 40be e174 153e
00000260: 621e 053d b085 a3bd 9a28 6abd cc19 09bd
00000270: 5fd4 e9bc 2d0c 243e 66ee 363e f1a5 3fbe
00000280: cec5 54bd 3d82 98bd 737b 133e 64b6 ca3d
00000290: eddc 22be 5933 0bbe 7130 3abe 397f 423e
000002a0: 0747 b43c 002b 253e 8f0f 04bd 2906 40be
000002b0: 3067 50bd dbfe acbd e7ac 413e 22bd 933c
000002c0: 79ea 6bbc 8ff4 783c cde6 30be 81fa 093e
000002d0: b668 c7bd a299 b4bb 2aad 793d d975 fcbd
000002e0: 684a 183e 7070 debd 2ab1 f1bc f452 f83d
000002f0: 7dbc a3bd 726e 313c 7ef7 293e 8e9d 20bd
00000300: 99c5 963d f298 20be 1aa1 a0ba da43 003e
00000310: 7e8f 55bb 1bc8 9fbd aa11 aebd b94c bfbd
00000320: 5635 9c3d 9a24 6ebd aed5 9a3d e8e3 c0bd
00000330: f4b5 083e 052b 87bd f531 c1bd ed8e 013e
00000340: 5082 42bd 13a4 2bbe dc0c a53d aa8e 883d
00000350: ed45 433d 6931 fb3c 265e e3bd 51a3 aa3d
00000360: de9d 8bbd 3aae 23be b401 b2bd a47c eb3d
00000370: addd 903d eb90 4b3d fc24 1f3e a3ea 91bd
00000380: a49f f83c 4be7 1ebe bed9 f63a b66a 98bb
00000390: 40a5 303e 16bf 9c3d 3c65 3d3e b1ee 223e
000003a0: 22a9 983d 9970 3cbe 1e3e 203e 95d2 bb3d
000003b0: aa42 d63d 143a a1bc 9cb6 973b af22 30be
000003c0: c128 8ebd a6a5 2cbb 4c49 433e 1161 413e
000003d0: ac7d 70bd 1cf0 1f3e 85bd 033e b298 20be
000003e0: 8f20 3e3c 8c7a 0a3e c024 913d 9249 42bd
000003f0: d09d 933d 5069 bfbd cdc2 e43c 5da3 cbbd
0.05816798 0.026458861 0.09794615 -0.13390902 0.04772842 0.1396846 -0.101240024 0.13148768
0.1640749 -0.10637195 -0.16526835 -0.042088907 0.112772174 0.028715745 0.18172671 0.003797968
-0.089976035 0.016761957 -0.18393552 -0.07036078 -0.10433476 -0.1656615 -0.067157306 0.14303364
0.14456627 -0.18270376 0.14490113 -0.014784547 0.07551175 -0.1081501 -0.15920228 0.17415382
-0.0764157 0.14239445 -0.07017205 -0.1403932 -0.10213042 -0.056127336 0.041898392 -0.00012705612
-0.04899934 0.05286368 -0.0014005187 -0.13672036 -0.06809678 0.1869618 0.084025495 -0.14905003
-0.012372146 -0.014626338 0.14966455 -0.1725769 0.102370135 0.06891719 0.16641197 -0.10317812
-0.18229708 -0.10237325 -0.0058727562 0.079631254 0.038181666 0.053706847 0.120775305 -0.032575916
0.13657382 -0.051698107 0.01876205 0.07175158 0.045064762 0.098762505 -0.07333197 -0.18735394
-0.09441405 -0.11511087 0.020008497 -0.062368456 -0.010558288 -0.04398887 0.099255025 -0.024673529
-0.14255354 0.106859356 0.17392212 0.09472018 -0.17809 0.10168349 -0.041130096 -0.101097256
0.12059783 0.092102885 0.017011225 0.0959979 0.01799299 -0.04759462 -0.08441535 -0.03675232
0.14349386 0.17972893 -0.009348503 -0.1643476 -0.15171912 -0.009003343 -0.08857794 0.104312815
-0.05659663 -0.06253037 -0.13602987 -0.05653454 0.07627911 0.115789086 0.16165113 -0.17897671
0.18001564 -0.1386547 -0.048149765 -0.036350667 -0.108856 -0.13938124 -0.17911105 0.058476295
0.10162731 -0.015852092 -0.0071839336 0.051180217 -0.19068056 -0.11272636 -0.08738148 0.13660242
-0.13188314 0.06816785 0.14423898 0.18609731 -0.11012455 0.14143516 0.05231282 -0.012682924
0.10825932 -0.1545497 0.0868426 -0.096614055 -0.09744161 0.18388623 0.14780681 -0.07646924
-0.09947278 -0.103024684 0.18512927 0.16340214 -0.1467397 0.09902104 -0.18803732 0.14595367
0.03249968 -0.07984483 -0.057167627 -0.033471867 -0.02854365 0.1602027 0.1786438 -0.18715645
-0.051946454 -0.07446716 0.14402561 0.098980695 -0.15904589 -0.13593806 -0.18182541 0.18993844
0.022006525 0.16129684 -0.0322414 -0.1875235 -0.050879657 -0.08447047 0.18913613 0.018034521
-0.014399164 0.015195026 -0.17275544 0.13474466 -0.09736769 -0.0055114785 0.060956158 -0.12327165
0.14872134 -0.108612895 -0.029503424 0.12125197 -0.07994936 0.010829555 0.16598317 -0.039212756
0.073619075 -0.15683344 -0.0012255043 0.12525883 -0.0032586749 -0.07801839 -0.08499463 -0.093408056
0.076273605 -0.058140375 0.075602874 -0.0941847 0.1335066 -0.06600002 -0.09433357 0.12652178
-0.047487557 -0.16761808 0.08059093 0.06667836 0.04767411 0.030663209 -0.11101942 0.083319314
-0.0681722 -0.15984431 -0.08691731 0.11498383 0.07073531 0.04969875 0.15541452 -0.071248315
0.03034956 -0.15517919 0.0018833203 -0.004651393 0.17250538 0.07653634 0.18495649 0.15911366
0.074541345 -0.18402328 0.15648696 0.09171025 0.10461934 -0.019681014 0.004629923 -0.1720073
-0.06941367 -0.0026343851 0.1907093 0.18884684 -0.0587136 0.15618938 0.12865265 -0.15683249
0.011604442 0.1352331 0.07087088 -0.047433443 0.07207835 -0.09346259 0.02792492 -0.099432684

encoder.0.bias f4 [16]
00000000: ecba 06bb 501b 22be c3a7 1abe 5098 313d
00000010: cdd1 943c a995 9a3d b39f 6d3d f560 1b3e
00000020: 9ce5 453e 82b7 a4bc 5870 06be 7ec2 f2bd
00000030: 4d2c f4bd 625f 1c3e 4862 663d f26c 243e
-0.0020558191 -0.15830731 -0.15103059 0.043358147 0.018166447 0.07548077 0.05801363 0.15173705
0.1932587 -0.020107035 -0.13128793 -0.11853503 -0.11922512 0.1527076 0.056246072 0.16057184

encoder.3.weight f4 [32, 16, 3, 3]
00000000: b64e ac3d a5b4 06bd fbb3 423d 5025 9c3d
00000010: 1b51 803d 0264 5cbd ee6f 03bd 3f26 0c3b
00000020: 8a5f 8ebd 38e5 173d a904 ecbc de40 77bd
00000030: c127 3e3c 507f e4bb eeb9 97bd 9708 e6bc
00000040: 9003 72bd 0a82 813d 52a9 733d 30fb de3c
00000050: d76b f6bc bb03 e9bc 3fcd 94bc 973c 1a3d
00000060: b44d 4abd 2bfd 8a3d f641 24bd d149 4ebc
00000070: 87e6 ac3c 2659 9638 3c1c 92bc acb7 883d
00000080: 1779 7f3d 4a44 4abb 6891 7cbc a487 a13d
00000090: 70e5 3c3d 548b a0bd 7ca8 70bd 4c96 f23b
000000a0: cca8 0abb 8711 dfbc 967e a4bd 1002 a5bd
000000b0: 5c77 7c3d 2383 a4ba 9982 cbba f428 4dba
000000c0: b090 f03c b9ed e7bc dd02 3f3d a70c 8ebc
000000d0: 728e 0abd 9f2d 74b9 6348 81bd b655 4fbd
000000e0: 9705 e23b bf46 60bd 99fa 7f3d a5be a03b
000000f0: 08ee 413d 209b 0abd f625 eabb ef1c 953d
00000100: 7664 4a3d 3c26 65bd 2cbc 30bd af4d 763d
00000110: f745 a93d db2a f6bc 9e00 893c 5e76 2e3c
00000120: 8be6 91bd 3e39 8b3d 5dc7 463d e6f8 97bd
00000130: 78ba a2bb a914 d9bb 6609 0dbd 6edd 99bd
00000140: d11e a5bd 84b4 7abd 89dd 78bc 4627 893d
00000150: 95b5 a53d ff94 a0bd 75c9 a7bd 22f4 a0bc
00000160: 7676 813d b235 993d d5b9 8cbd 162e ac3d
00000170: 7dc7 9ebd 665b 0abd cfe1 a93d 7fb3 b8bc
00000180: 649b a23b a7a9 d0bb 49b0 f33c 5026 803d
00000190: ef26 15bd aefc 813d 9f9c 7fbd 2bdd 0abd
000001a0: 0721 b53c 77b6 db3c 03a2 933d 72fe 963c
000001b0: 5af9 64bd baac 893d 702f 68bb b2a4 0abd
000001c0: afa9 0a3d 2af8 853d 838d efbb bbb1 0cbd
000001d0: b39f 113d b7ab 4e3d c73c 5bbd 3d49 0b3d
000001e0: 3978 19bd a6f9 913c 8db9 f6bc 8841 843d
000001f0: f943 93bc 8e11 443d 65f9 473c ae9d 24bd
00000200: d4a6 f23c a986 0e3c fde9 8bbd d74f e8bc
00000210: 0970 cebb 0071 d6bc b4e4 62bd 7faa a4bc
00000220: 1cb9 7b3c eeec 643d c98a 80bb f79b 0bbd
00000230: 2b75 0b3d 4d81 1abd ab5b 933c ac4d 983d
00000240: 89c4 6bbc 3967 4c3c 3b91 7ebd 2bab 423d
00000250: 965d 0c3d 66d8 a03d 905f 953d 4213 933d
00000260: c04f 47bd 5aa4 9ebd 339a 17bd af4e 9dbd
00000270: 2a26 22bd cc24 743c ea82 0e3a 08e5 973d
00000280: 1e3d 3c3d a4b1 283d 7add 873d 6238 9a3c
00000290: 093c 7c3a 5231 efba 05f3 2ebd f1bf 523d
000002a0: b920 3abd de3c b7bc 2dea a7bd f218 883d
000002b0: 8179 4c3d 2f8a 5cbd c3ce b73c b298 b73c
000002c0: 0f5f f13c cb5b a83d c44d 84bc 0281 023d
000002d0: 1b57 023d 226f 4ebd ebfa 8bbb fb87 553d
000002e0: 2761 ed3c 81f6 8e3c 5bdf 9a3d 312e 8ebc
000002f0: 2505 08bd d966 c93c 4f10 63bd 6a85 51bd
00000300: 7e45 853d 674b 87bd 58c1 88bd 6567 b9bc
00000310: b99f 173c fff6 5fbc 0c56 8c3d fd40 713d
00000320: a6bf d5bc 371c 7f3d 3292 a2bd a1cb a1bd
00000330: 561d 9bbd f457 58bd edd7 4fbd 444a 633d
00000340: c6f1 15bd a877 9e3d ab87 a63d dfc6 a53d
00000350: 5749 54bd 9a1c d9bb 05d4 6a3d 538b febc
00000360: 46de 193c 9dd2 2a3d 538d 8bbc 7b91 8b3d
00000370: 5b7d 95bd 386f 7c3c 867f 85bc b1ae 1cbd
00000380: 4c9c 6cbd 47a1 58bd 6ddb bd3c 314a 3fbd
00000390: a264 8a3d 1839 f13c f5fc a03a 3ddf a0bd
000003a0: 5e68 4abd 9267 a2bd 2847 89bd f457 27bd
000003b0: 5612 a63c 42d8 19bd 5c7e 96bd 48f1 0b3b
000003c0: 9c41 3c3c d59b 2e3d a92e 813d 489d 1ebd
000003d0: 36f0 98bd 56bf 913d ee89 f83c 51fa 15bd
000003e0: 0d9b 26bd e7b7 ffbb c273 a23d 5c8a 983d
000003f0: 01a9 5abd 4db0 a1bd 89bf 523b a5f2 823c
0.084134504 -0.03288712 0.047534924 0.07624304 0.0626547 -0.053806312 -0.032089166 0.00213851
-0.069518164 0.037083834 -0.028810816 -0.060364597 0.011606158 -0.0069731846 -0.0740851 -0.028080268
-0.05908543 0.06323631 0.05948765 0.027219385 -0.030080719 -0.028444162 -0.018164275 0.03765544
-0.04939051 0.06786569 -0.040101968 -0.012590841 0.021106018 7.1691626e-05 -0.017835729 0.06675658
0.06237134 -0.0030863457 -0.015415527 0.078871995 0.046117246 -0.07839075 -0.05875443 0.0074031707
-0.002115774 -0.027230037 -0.08031957 -0.08057034 0.061637267 -0.0012551289 -0.0015526592 -0.0007826232
0.029365867 -0.028311597 0.04663359 -0.017340017 -0.033827253 -0.00023286649 -0.06312635 -0.05061885
0.006897639 -0.05475497 0.062494848 0.004905539 0.047346145 -0.033839345 -0.0071456386 0.07280909
0.049412213 -0.055944666 -0.043148205 0.06013268 0.08265298 -0.030049732 0.016723927 0.010648338
-0.07124051 0.067980275 0.04852997 -0.074205205 -0.0049660765 -0.0066247773 -0.03443279 -0.075129375
-0.080625184 -0.06120731 -0.015189537 0.06696944 0.08091275 -0.07840919 -0.08192722 -0.019647662
0.06321423 0.07480945 -0.06871382 0.08407228 -0.07752893 -0.03377857 0.08295023 -0.022546528
0.0049623717 -0.0063678804 0.029747145 0.062573075 -0.036414083 0.06347023 -0.062405225 -0.03390233
0.022110475 0.026820404 0.07208636 0.018431876 -0.055901863 0.06722398 -0.0035428666 -0.033848472
0.03385323 0.06541474 -0.0073105707 -0.034349184 0.03555269 0.05045673 -0.05352476 0.034005392
-0.03746817 0.017819237 -0.030117774 0.064578116 -0.017976748 0.047868304 0.012205456 -0.040189438
0.029620565 0.008699098 -0.06831739 -0.028358383 -0.0062999767 -0.02617693 -0.05539389 -0.02010083
0.015363958 0.055890016 -0.0039227945 -0.034084287 0.034047287 -0.037720967 0.017988047 0.0743669
-0.014390119 0.012475782 -0.06215022 0.04752652 0.034268938 0.07853775 0.07293618 0.071814075
-0.04866004 -0.07746191 -0.03701229 -0.07681023 -0.039587177 0.014901351 0.0005436378 0.07416731
0.045956723 0.041185036 0.0663404 0.018825714 0.0009621983 -0.0018248952 -0.04271223 0.05145258
-0.045441363 -0.02236789 -0.08198962 0.06645383 0.049920563 -0.05384272 0.022437459 0.022411678
0.029464273 0.08220633 -0.016150363 0.031861313 0.03182135 -0.050398953 -0.004271855 0.052131634
0.02897699 0.017451527 0.07562133 -0.01735601 -0.03320803 0.024585174 -0.055435475 -0.051152624
0.06507395 -0.06606179 -0.066775024 -0.02263231 0.009254389 -0.013669728 0.0685235 0.05889987
-0.026092362 0.062282767 -0.07938041 -0.07900167 -0.07573955 -0.052818254 -0.050743032 0.055490747
-0.036607526 0.07737666 0.08131345 0.08094572 -0.051827755 -0.006625724 0.057331104 -0.031072294
0.009391373 0.041704763 -0.017035162 0.068148576 -0.072993 0.015407376 -0.01629616 -0.038252536
-0.057766244 -0.05288818 0.02317592 -0.046701614 0.067574754 0.02944617 0.0012282418 -0.07855079
-0.04941594 -0.07929911 -0.06703025 -0.040855363 0.020272415 -0.037559755 -0.0734832 0.0021353532
0.011490252 0.04262908 0.06307728 -0.038724214 -0.074676916 0.071165726 0.030339208 -0.036615673
-0.04067521 -0.0078039053 0.07932235 0.07448265 -0.05338383 -0.07894955 0.003215762 0.015984843

encoder.3.bias f4 [32]
00000000: 5043 2dbd c3d3 8fbd 7f7d 063c f5f2 723d
00000010: 5f1d 983d 6511 f63b 3c93 923c cb1c 56bc
00000020: 6b88 90bd ab4f 79bd 51bf 8abd 6a5d 4ebd
00000030: 32bd 07bd 5692 a9bb ce8c 8c3c cd49 92bd
00000040: cbd6 3bbd e310 a03d 62af fd3c 423e a63d
00000050: b793 47bc e956 353d e613 15bd c9e4 11bd
00000060: 7193 8f3d 3671 04bd 3fa0 973c 2db0 f9bc
00000070: 7ada 5fbb 3891 a43d 810c 063d 4e09 27bc
-0.042300522 -0.07022812 0.008208632 0.059313733 0.07427477 0.007509398 0.017892472 -0.013068388
-0.0705727 -0.060866993 -0.06774772 -0.050382055 -0.033139415 -0.0051749153 0.017156985 -0.07142983
-0.04585914 0.07815721 0.030967418 0.081173435 -0.012181214 0.044272337 -0.03639593 -0.035618577
0.07010544 -0.03233453 0.018509028 -0.030479515 -0.0034157322 0.08035511 0.03272677 -0.0101950895

decoder.0.weight f4 [32, 16, 2, 2]
00000000: b78c 063c c1ba fdbd acf4 45bd 0690 103d
00000010: 6028 54bc 6cb8 b7bd 9774 cf3d 5091 ab3c
00000020: f7d4 95bd ed40 ccbd 68ee 9abd fa81 ff3d
00000030: 5404 cd3d 594d bb3d 15e9 ae3c 7c69 f53d
00000040: 754b 19bd 5eea 57bd 232b 9fbd 7bba eabd
00000050: a712 d83c c3d5 873d cce7 dfbd 2c27 633d
00000060: 6540 903d 0fc0 d23d d7ce bebd b0ec 1cbd
00000070: 560f fd3d 03bb c23d 7ca2 40bd 4ba0 86bd
00000080: d0ca 12bc 8387 ed3d 0816 f5bd 2759 4cbd
00000090: aa02 eebd 589b 59bb 20b4 f83d b185 1fbd
000000a0: fcf4 b2bd 80bd b63d 2626 d83d d94e 923d
000000b0: 6b7d ad3d edbd aebd b515 b9bd 96d4 6bbd
000000c0: 1ed5 903c 28b5 9f3d bc7f af3d 9eb0 6dbc
000000d0: b0a0 fc3c ff19 4bbb 9816 d8bd f575 e13c
000000e0: 883d e53d 37e0 9cba 8a5d 7f3c 7cac 40bd
000000f0: 485f e6bd ad41 a0bd 8b4c ad3d 0eeb 073c
00000100: 2a84 8ebd 5835 be3d 746b 6cbd db98 0d3c
00000110: b185 413c f58e 403d 1d77 41bd e455 a93d
00000120: 65ac 2bbc fb0c 3d3d cded 623d d438 86bc
00000130: d3b9 513b 21b7 1d3d 58f2 f4bd 526a a4bd
00000140: f46a 5e3d 8d59 00bc 5163 023d 3998 003e
00000150: aafe 873c 5daa bebd 3ac6 54bd 3e7e 8dbd
00000160: 0b0f 16bd a8cd a4bd 5b00 f4bd 32a1 33bd
00000170: a45c 973c 74fc dfbd 2e66 8dbc 1bbb 50bd
00000180: 30c5 803c bcbf bf3d 4aba fc3d a31e 20bd
00000190: 5de3 24bd 8381 95bc 7d14 a5bd a98d fa3d
000001a0: ad5d 9fbc 85f1 6cbc a63a acbd c720 f93c
000001b0: 4b38 cebd 3a51 fabd 2730 f13d cbdb 7a3d
000001c0: 4af6 f8bd a7f0 d8bc 862f 3d3d 5682 f2bd
000001d0: 8844 0fbd 1eb6 673d a46e e7bb a0ff 06bd
000001e0: dd0d 2e3d 6882 d43c c3f7 263d 23d1 e6bd
000001f0: b81d f1bc 26f0 073d 27d0 f0bd 6082 f5bd
00000200: ef2d 8b3d 9901 39bd d06e b0bd 2196 c03d
00000210: 0739 edbd 302d 8c3c 5ddc 45bd fd54 b3bd
00000220: baac fa3d eddb c0bc a31d f7bc aefc 583d
00000230: 24d5 e9bc 8c38 80bd d748 003e ea13 6e3c
00000240: a1c2 9dba 6f53 633d 40af b3bd b0cb e2bd
00000250: d1e3 ab3d 7dfb 2abd 591d 1cbd 4c84 913d
00000260: 23ce d13d 6fe6 84bc 4c55 9c3c 9cec d13d
00000270: 6057 d4bd d75d 86bd bc38 4e3d e600 15bd
00000280: e0c2 67bd 0750 8f3b b641 d03d 6b6d c3bd
00000290: 75c7 223d 9c57 f53d dd8a 8cbc 584a c5bd
000002a0: c241 7d3d b268 a73b 7fa2 e3bd 73c8 f13c
000002b0: 104a a5bd 6de1 1ebd eb22 e63d 7331 633d
000002c0: 5612 b63d 4f9f 263d b516 cabc effd 34bd
000002d0: 6929 d8bc 402b 803d 01c4 f93d 21e7 313b
000002e0: 3893 96bc 2d62 da3d 0176 803b 2e16 0f3d
000002f0: c935 c23d ca30 e2bd ac18 a1bd 921d b23d
00000300: 911f 863d 1c7b 95bc 2814 e23c d0f7 97bd
00000310: 1f12 d43d ed8f d5bd 5284 c3bd 0d63 933d
00000320: e87e b8bd f2ff 683d 6233 83bd d168 90bd
00000330: aaab 563d 24b5 f8bd d64c f0bd 3d56 b53b
00000340: fdf8 083b d030 9b3d f740 9d3d d6b6 bbbd
00000350: 4481 40bd 8a60 56bc 97fe 85bb 4ea4 513d
00000360: 133e a93d f35b a2bd 4844 c43b 2a21 4cbd
00000370: da4e b23c 70b2 a5bd 1636 9b3d 06b5 75bd
00000380: dc20 7dbd 6dae ea3d e6b2 acbd 140a 07bd
00000390: 2367 6dbc ffec 7fbd 5ee3 e5bd a5aa e03d
000003a0: 5c59 b53d 3f1f 413c 6b11 b23d 62b9 0ebd
000003b0: 942b 8f3d eea6 89bc 1946 b43d 8ba2 dd3d
000003c0: ff6f 093d 88f3 c03b 7e15 b33b 5052 b73d
000003d0: 8d90 c3bd 1c73 c5bc 17ee b13c 036c 96bd
000003e0: 69bd 423d d9ce 0f3d 1615 03bd a163 133d
000003f0: be5a 8cbd 2cc8 abbc 431a 5abc d44d 0abc
0.00821226 -0.12389136 -0.04832904 0.0352936 -0.012949079 -0.089707226 0.101296596 0.020943314
-0.073160104 -0.09973321 -0.07565004 0.12475963 0.10010591 0.09145612 0.021351377 0.1198301
-0.037425477 -0.052713744 -0.077718996 -0.114613496 0.026376082 0.06632569 -0.109328836 0.05545728
0.07043532 0.102905385 -0.09316795 -0.03831166 0.12356441 0.09508326 -0.047029957 -0.06573542
-0.008959487 0.115981124 -0.11967093 -0.04988971 -0.11621602 -0.0033204164 0.12143731 -0.038945857
-0.08738133 0.08922863 0.10554151 0.07143945 0.08471187 -0.08532319 -0.090373434 -0.057575785
0.017679747 0.07798225 0.08569285 -0.014507441 0.03083834 -0.0030990837 -0.105511844 0.027522067
0.11193377 -0.0011968677 0.015586266 -0.047039494 -0.11248642 -0.07825027 0.08461865 0.0082957875
-0.06958802 0.09287518 -0.057719663 0.008642401 0.01181166 0.047011334 -0.047232736 0.082683355
-0.010478114 0.046154957 0.055402566 -0.01638452 0.003200163 0.038504723 -0.11960286 -0.080280915
0.054301217 -0.007833851 0.031832997 0.12558068 0.016600925 -0.09309838 -0.051946856 -0.069088444
-0.03663544 -0.08047038 -0.1191413 -0.0438549 0.018476792 -0.109368235 -0.017260637 -0.050959688
0.015719026 0.09362742 0.12340219 -0.039091717 -0.040255893 -0.018250233 -0.080605485 0.12234051
-0.019453848 -0.01446188 -0.08409624 0.030411137 -0.10069331 -0.12222524 0.117767625 0.061244767
-0.12156351 -0.02648194 0.0461879 -0.11841266 -0.034977466 0.056570165 -0.00706275 -0.032958627
0.04249369 0.025941089 0.040763628 -0.112703584 -0.029433116 0.033188008 -0.11758452 -0.11987758
0.067958705 -0.04516754 -0.08614886 0.09403635 -0.11583143 0.01711139 -0.048305858 -0.087564446
0.12239976 -0.023542369 -0.0301655 0.05297535 -0.028544016 -0.062607855 0.12527786 0.014531115
-0.0012036153 0.05549949 -0.08773661 -0.110740066 0.08393062 -0.041743744 -0.038113926 0.07105312
0.102443956 -0.01622316 0.019083641 0.10250208 -0.10368228 -0.06560867 0.050347075 -0.03637781
-0.05658233 0.0043735537 0.10168783 -0.09542354 0.039741 0.11979601 -0.017156059 -0.096333206
0.06183029 0.005108916 -0.11114978 0.029514527 -0.08070767 -0.0387892 0.11237129 0.05546708
0.08890216 0.040679272 -0.02466903 -0.044187482 -0.026386933 0.06258249 0.12195588 0.002714582
-0.018380746 0.10663257 0.003920317 0.03493326 0.09482915 -0.11044462 -0.07866034 0.08697046
0.065489896 -0.01824718 0.027597502 -0.07420313 0.10355019 -0.10427842 -0.095467225 0.07196627
-0.090085804 0.056884713 -0.06406285 -0.07051242 0.052409805 -0.12143925 -0.11733405 0.005533962
0.0020900362 0.075776696 0.07678407 -0.091657326 -0.046998277 -0.01308454 -0.0040891874 0.051182084
0.08263793 -0.07927694 0.005989585 -0.049836315 0.021766115 -0.08090675 0.075786754 -0.05998709
-0.061798915 0.1145905 -0.0843256 -0.032968596 -0.014489922 -0.062481876 -0.112250075 0.10970048
0.088549346 0.011787235 0.086947285 -0.034844764 0.06990734 -0.016803231 0.088024326 0.10822018
0.033554073 0.005888406 0.0054652086 0.08951247 -0.09549055 -0.02410274 0.021719975 -0.0734482
0.047543917 0.035109375 -0.03200253 0.035983685 -0.06853245 -0.020969473 -0.013311925 -0.008441407

decoder.0.bias f4 [16]
00000000: 236e 8abd 4932 bc3d 1d50 d93b 6c78 32bd
00000010: eff3 80bd 4147 40bd eebd 943c 7e09 893d
00000020: 837e 88bd a1fb 00bb f517 e2bd 1367 c8b9
00000030: 9c23 2b3d 7192 70bc 2bf1 c03d ce5e 013d
-0.06759288 0.09189279 0.0066318647 -0.043571874 -0.06296527 -0.046942953 0.018156972 0.066912636
-0.06664755 -0.0019681233 -0.11039726 -0.0003822377 0.041782007 -0.014683352 0.09420999 0.031584553

decoder.2.weight f4 [16, 1, 2, 2]
00000000: 57e5 dc3d 5f7e 2bbe 1d05 83be 2b3c edbe
00000010: 951f 5c3e 0727 df3e 7789 843e ddcd b33e
00000020: 8b9b 44be 134e 3bbe e8e5 27be 1b32 583e
00000030: 591a cfbe b61e 92be 711e c53e bf93 8bbd
00000040: 4b08 8ebe f6b5 c83e fd53 e4be 0688 c33b
00000050: e7c6 cbbe 8872 3ebc 4758 acbd 1b6b dc3d
00000060: ab06 63be 4867 e03e 8a3e 06be ad94 b03e
00000070: e6ed fcbe 0708 44be ad03 2e3e f710 573e
00000080: 6905 63bd 1bb8 813d 0a65 f6be ba72 cc3e
00000090: be3b 663e 37b9 85be 33cc d3be d5d9 ec3e
000000a0: 317c 413d a4a0 d2be 177f a23c 5700 d4be
000000b0: 261b 67be 2d39 64bd 3bdb 0f3d 4263 253e
000000c0: 5af2 7cbe 7dea ad3e 32dd 2f3e 538c 8abe
000000d0: ca07 bd3e 4c5a f33c fbe9 c53e 39d4 f3bd
000000e0: 8fb5 c03e e43f e23e 0cff 1e3e 02e1 0f3e
000000f0: 088f 463e 6699 de3e a701 803d 545f 55be
0.107859306 -0.16747425 -0.2558984 -0.46334967 0.21496423 0.43584463 0.25886127 0.35118
-0.1919996 -0.18291502 -0.16396296 0.21112864 -0.4044979 -0.28539056 0.38499787 -0.0681529
-0.27740702 0.39201325 -0.44595328 0.005967143 -0.39800188 -0.011623986 -0.08415275 0.10762616
-0.22170512 0.43828797 -0.13109794 0.3448843 -0.49400252 -0.19143687 0.1699359 0.21002565
-0.05542508 0.063339435 -0.48123962 0.3993128 0.22483727 -0.2611787 -0.4136673 0.46259943
0.04723758 -0.41138184 0.019835992 -0.4140651 -0.2256895 -0.05571859 0.035121184 0.16151145
-0.24701825 0.33967963 0.17174223 -0.27060184 0.36920005 0.029706143 0.38655075 -0.11905713
0.37638518 0.4418937 0.1552698 0.14050677 0.193905 0.4347641 0.06250315 -0.20837146
