checkpoints/2025-06-02-20-09-27/last_epoch.pth (torch, 686901 bytes, 25 tensors)

encoder.0.weight f4 [64, 3, 3, 3]
0.039649583 -0.09339374 -0.009757024 -0.15642546 0.065565184 0.14633395 0.063674755 -0.058553446
0.05407594 -0.03644332 -0.13242798 -0.119543 -0.04031399 -0.19002615 -0.15733708 -0.09334157
-0.00888885 0.03677443 0.18585351 -0.13887121 0.111689836 -0.051018927 -0.070967816 0.013607115
0.1332869 0.15552789 0.00088016136 -0.122637905 -0.12629761 0.017560475 0.0012468625 -0.15306546
0.06715475 -0.117868766 -0.18655664 0.17236851 0.01970494 -0.043203395 -0.09287811 -0.14728197
0.0056613297 0.17623506 -0.046734013 -0.12016441 -0.16932717 -0.08710852 -0.07698806 0.12282766
-0.19208415 0.08852043 -0.06178482 0.08113333 0.14068455 0.10519078 -0.027917136 0.10760443
0.12092922 -0.043268446 0.05513291 0.15050642 0.10898448 -0.12546544 0.10040128 -0.021873388
0.18839327 -0.082751736 -0.05160371 0.121270485 -0.03527737 -0.16782789 0.01812447 0.08072481
0.078602634 -0.16809219 0.17219535 -0.034491394 0.092259 0.09065286 0.08394501 0.01223148
-0.07638616 0.18786761 0.034271177 0.19114916 -0.18868273 0.067634456 0.13673383 0.0077175824
0.07389055 -0.110787354 -0.015729856 -0.030808438 0.11769616 0.14790736 0.027275726 0.1412594
0.18735437 0.13838688 -0.18673496 -0.027755465 -0.084666796 -0.04129211 -0.10646134 -0.019893248
0.18371956 -0.17177229 0.018276947 -0.052226134 0.16786224 0.17243735 0.05916043 0.066204555
0.0599316 0.13731523 0.11208666 0.14968982 -0.027998565 -0.13026409 0.17235476 0.19113924
-0.17552088 0.18974401 0.13207646 -0.17537275 -0.17726919 0.07236574 -0.0070435787 -0.072982706
0.04260333 0.08198922 -0.14081337 0.0303569 -0.12072122 -0.022709062 0.092211746 -0.073641956
-0.10988008 0.106411576 0.05419374 0.109391846 0.040108554 -0.11426688 -0.18145292 0.14009586
-0.107043855 0.11435747 -0.013688067 0.16622047 -0.15010072 -0.15389454 0.040085483 0.0010974719
0.025011031 -0.10713582 -0.17427883 0.01355764 -0.07250457 -0.022019342 0.09220288 0.02113573
-0.17544296 0.07458991 0.16899094 0.05313955 -0.038766343 0.06387981 0.097477645 -0.012189055
-0.026604803 -0.14774562 0.16267128 -0.1860623 0.12993602 0.13942118 0.15826489 -0.010043307
-0.044574186 0.08923655 -0.062394753 0.046379562 0.08007394 -0.091738 -0.13353269 -0.012282949
-0.0632119 -0.052722607 0.048377424 -0.0066934954 0.069064565 0.1424265 -0.14688598 0.1313914
-0.12300713 -0.05725305 -0.022226918 -0.11930187 0.009506548 0.1525168 0.0065489085 0.1070648
-0.1340605 0.01991384 -0.01985167 0.04102751 0.11106852 0.057214882 -0.050907385 -0.17101613
-0.14994495 0.0006667339 -0.09602387 0.101811096 -0.12986837 -0.12880544 -0.10294467 0.07324949
0.0030210754 0.015613371 0.12057172 -0.12267569 -0.0077831135 -0.1418177 -0.12750974 -0.06442858
-0.11778743 0.16927212 -0.011323942 -0.07611048 0.059238035 -0.1129052 -0.097094715 -0.15438847
0.12715566 -0.16668223 0.034897085 -0.074124254 -0.0951286 -0.15962312 -0.023727946 -0.024907012
0.18960391 -0.045639977 0.17616917 0.08004331 -0.14184403 -0.1049436 -0.13443819 -0.09951951
0.06778446 0.046326935 -0.051439676 -0.0131012285 0.14260383 -0.14058916 0.15523562 0.18088649
00000000: 9a67 223d 3845 bfbd eddb 1fbc ff2d 20be
00000010: 0a47 863d 91d8 153e e967 823d bdd5 6fbd
00000020: bc7e 5d3d 9745 15bd 339b 07be f6d2 f4bd
00000030: 4820 25bd 3796 42be f91c 21be dd29 bfbd
00000040: 8aa2 11bc c9a0 163d 6250 3e3e 4134 0ebe
00000050: a4bd e43d 39f9 50bd 9357 91bd 60f0 5e3c
00000060: 5c7c 083e b442 1f3e a1ba 663a 9529 fbbd
00000070: 2954 01be fcda 8f3c c36d a33a 31bd 1cbe
00000080: 6e88 893d 2e65 f1bd b408 3fbe 5f81 303e
00000090: 416c a13c 0bf6 30bd e136 bebd 16d1 16be
000000a0: ad82 b93b f776 343e 2a6c 3fbd c218 f6bd
000000b0: 1a64 2dbe f465 b2bd eaab 9dbd 118d fb3d
000000c0: b5b1 44be 334a b53d 1412 7dbd 3b29 a63d
000000d0: 9c0f 103e 436e d73d 7ab2 e4bc b65f dc3d
000000e0: bda9 f73d 413a 31bd 0cd3 613d 5b1e 1a3e
000000f0: 4133 df3d 037a 00be 309f cd3d d22f b3bc
00000100: 2aea 403e be79 a9bd 695e 53bd a95c f83d
00000110: 017f 10bd 13db 2bbe c579 943c 0d53 a53d
00000120: 6bfa a03d 5c20 2cbe fa53 303e d946 0dbd
00000130: 49f2 bc3d 35a8 b93d 5deb ab3d 8c66 483c
00000140: 5970 9cbd 5e60 403e ef5f 0c3d 9bbc 433e
00000150: 0c36 41be ef83 8a3d f403 0c3e c6e3 fc3b
00000160: ee53 973d 7be4 e2bd e6db 80bc fa61 fcbc
00000170: af0a f13d 0775 173e 5871 df3c 4ea6 103e
00000180: d3d9 3f3e 4ab5 0d3e 7337 3fbe 6e5f e3bc
00000190: c965 adbd ea21 29bd 6708 dabd 2af7 a2bc
000001a0: fb20 3c3e 13e5 2fbe 89b9 953c 12eb 55bd
000001b0: 14e4 2b3e 6b93 303e 3552 723d 4196 873d
000001c0: d67a 753d 5d9c 0c3e b18d e53d 4a48 193e
000001d0: 3f5d e5bc f363 05be c47d 303e 01ba 433e
000001e0: bfbb 33be 414c 423e 0d3f 073e ea94 33be
000001f0: 0e86 35be 7d34 943d d2cd e6bb f577 95bd
00000200: d480 2e3d f7e9 a73d 6131 10be 09af f83c
00000210: b03c f7bd 5b08 babc 83d9 bc3d 98d1 96bd
00000220: cf08 e1bd 50ee d93d 41fa 5d3d d508 e03d
00000230: de48 243d c104 eabd cbce 39be 4a75 0f3e
00000240: cf39 dbbd 4034 ea3d ea43 60bc b335 2a3e
00000250: 01b4 19be 8896 1dbe ad30 243d 0cd9 8f3a
00000260: efe3 cc3c 066a dbbd 2676 32be dd20 5e3c
00000270: 477d 94bd e861 b4bc ddd4 bc3d d724 ad3c
00000280: 52a7 33be 98c2 983d f60b 2d3e dba8 593d
00000290: 75c9 1ebd 6bd3 823d 5ca2 c73d 9ab4 47bc
000002a0: 51f2 d9bc a14a 17be 4d93 263e 1e87 3ebe
000002b0: f30d 053e 6dc4 0e3e 3110 223e af8c 24bc
000002c0: 6c93 36bd a7c1 b63d a491 7fbd 7ff8 3d3d
000002d0: cefd a33d 22e1 bbbd cbbc 08be 6c3e 49bc
000002e0: 3e75 81bd a9f3 57bd 6827 463d 1c55 dbbb
000002f0: b971 8d3d 41d8 113e 4769 16be 788b 063e
00000300: 2aeb fbbd 2d82 6abd 3a15 b6bc 8a54 f4bd
00000310: 5ac1 1b3c 5d2d 1c3e 3a98 d63b ca44 db3d
00000320: 2847 09be 5922 a33c f89f a2bc 760c 283d
00000330: e477 e33d 275a 6a3d 4384 50bd da1e 2fbe
00000340: 2b8b 19be c1c7 2e3a 2aa8 c4bd 5682 d03d
00000350: 37fc 04be 93e5 03be a8d4 d2bd d403 963d
00000360: 3cfd 453b 39cf 7f3c 4eee f63d 643d fbbd
00000370: 7d09 ffbb a938 11be ea91 02be 22f3 83bd
00000380: 893a f1bd ac55 2d3e 0e88 39bc d0df 9bbd
00000390: 95a3 723d d73a e7bd 98d9 c6bd 0318 1ebe
000003a0: 1835 023e bfae 2abe 3ff0 0e3d 75ce 97bd
000003b0: c9d2 c2bd 3e74 23be 1c61 c2bc ca09 ccbc
000003c0: 8727 423e fcf0 3abd b165 343e bfed a33d
000003d0: 903f 11be acec d6bd 2aaa 09be e3d0 cbbd
000003e0: 94d2 8a3d 50c1 3d3d 69b2 52bd 89a6 56bc
000003f0: bd06 123e 9bf6 0fbe 16f6 1e3e 4f3a 393e

encoder.0.bias f4 [64]
-0.15879568 -0.17391692 -0.027252693 -0.16050981 0.15379828 -0.037247263 0.024372594 -0.08430789
-0.011525934 -0.08162968 0.07294637 0.13926227 -0.18154836 0.16025177 -0.06816425 -0.14360131
-0.07394678 -0.079127885 -0.16003068 0.0022813443 0.010517377 -0.18001854 -0.003990745 -0.113178864
-0.00050279294 0.051082563 0.025010208 0.013515645 0.01831248 -0.011908996 -0.11739885 -0.16368411
0.05387553 0.044266865 0.03184383 -0.09699549 0.0722302 -0.12289761 -0.17191146 0.07429237
0.061579548 -0.08082249 0.031597942 0.09687834 0.1456994 -0.13742696 0.09075299 0.12751226
-0.07621659 -0.11604082 0.013503929 -0.01511053 0.12051881 -0.099131756 0.045245063 0.108259514
-0.015893154 -0.120704606 -0.06833301 -0.045731816 -0.06645342 0.18970734 -0.075299196 0.08466928
00000000: 569b 22be 4717 32be 0a41 dfbc af5c 24be
00000010: 4c7d 1d3e 9690 18bd 09a9 c73c 9da9 acbd
00000020: 45d7 3cbc 762d a7bd e864 953d c59a 0e3e
00000030: d0e7 39be 0a19 243e b399 8bbd 390c 13be
00000040: 6971 97bd cd0d a2bd 15df 23be 9b82 153b
00000050: 1451 2c3c c856 38be ccc4 82bb 52ca e7bd
00000060: ddcd 03ba f33b 513d 35e2 cc3c b970 5d3c
00000070: 0e04 963c f31d 43bc cf6e f0bd cf9c 27be
00000080: 96ac 5c3d 2c51 353d ad6e 023d 92a5 c6bd
00000090: 6ded 933d beb1 fbbd 8f09 30be 9926 983d
000000a0: d63a 7c3d 4386 a5bd d86c 013d 2768 c63d
000000b0: 3932 153e a7b9 0cbe b4dc b93d 9392 023e
000000c0: 7217 9cbd cfa6 edbd 953f 5d3c 2892 77bc
000000d0: 91d2 f63d 9705 cbbd e352 393d 2ab7 dd3d
000000e0: 5c32 82bc fa33 f7bd 2df2 8bbd 4951 3bbd
000000f0: bb18 88bd a442 423e 7736 9abd 1667 ad3d

encoder.1.weight f4 [64]
1.000651 0.9991475 0.99979395 0.9992399 0.9998805 1.0000339 1.0000283 0.9994078
0.9991274 1.0003872 0.9999985 1.0003184 0.9997233 0.9997312 1.0002682 0.999289
0.9997828 0.9991093 1.000009 0.9999926 1.000239 0.999326 1.0002967 1.0009404
0.9993306 1.0003631 1.0000217 0.9999883 1.0007318 0.99957085 1.0004725 1.0008756
1.0001812 1.0000824 1.0000708 0.99961823 0.99953693 1.0001515 1.0005257 0.9999099
1.0003617 0.999381 0.99948144 1.0001363 1.0006315 1.000189 0.9998649 0.9999898
0.9994298 1.0010508 0.99992293 0.999994 1.00079 0.99910456 0.9997771 1.0005738
0.9999425 0.9995362 1.0000252 0.9997293 1.0004631 0.9994584 1.0006217 1.0006711
00000000: 5515 803f 21c8 7f3f 7ff2 7f3f 30ce 7f3f
00000010: 2bf8 7f3f 1c01 803f ed00 803f 31d9 7f3f
00000020: d0c6 7f3f b00c 803f e7ff 7f3f 6f0a 803f
00000030: deed 7f3f 62ee 7f3f ca08 803f 67d1 7f3f
00000040: c4f1 7f3f a1c5 7f3f 4b00 803f 84ff 7f3f
00000050: d507 803f d4d3 7f3f b909 803f d11e 803f
00000060: 21d4 7f3f e60b 803f b600 803f 3cff 7f3f
00000070: fb17 803f e0e3 7f3f 7c0f 803f b11c 803f
00000080: f005 803f b302 803f 5202 803f fbe6 7f3f
00000090: a7e1 7f3f f704 803f 3a11 803f 18fa 7f3f
000000a0: da0b 803f 6fd7 7f3f 04de 7f3f 7704 803f
000000b0: b114 803f 3106 803f 25f7 7f3f 55ff 7f3f
000000c0: a2da 7f3f 6f22 803f f3fa 7f3f 9bff 7f3f
000000d0: e319 803f 51c5 7f3f 64f1 7f3f cd12 803f
000000e0: 3bfc 7f3f 9be1 7f3f d300 803f 42ee 7f3f
000000f0: 2d0f 803f 81dc 7f3f 5f14 803f fe15 803f

encoder.1.bias f4 [64]
0.00014254953 -0.00051341363 -0.00010217587 -0.0007961538 9.577354e-07 -0.00029218176 -0.0002664941 -0.00021746807
-0.00017822994 0.0004931488 0.0002131216 -0.00014667163 -0.0008482433 -7.046138e-05 -0.00069121766 -0.00068698043
0.00015968384 -0.0010151727 0.0006330284 -0.00050891034 0.0005450862 -0.00079226005 0.0006293177 -0.0005129123
-0.0010065614 -0.00019603259 -0.00023924385 -0.000696677 -0.00013779079 -4.1116262e-05 0.00024579835 -0.00024292734
0.0005826537 0.00029788236 -0.00046345126 -9.109689e-05 -0.000553113 0.0010858604 0.0005313431 0.00036648943
0.00024328669 0.00021729888 -2.4250397e-05 0.00071709295 0.0006813804 0.00057995843 -6.1557424e-05 -0.0008638362
0.00040390872 0.0010573061 0.000544007 -0.0009703637 0.00085153827 0.00023317931 -0.00068792014 0.0003833171
-0.0008330452 7.987199e-05 -0.00024266151 0.00038234366 -0.00074016355 -0.00084073824 0.0006068407 0.00067073264
00000000: 5979 1539 9b96 06ba 4147 d6b8 fab4 50ba
00000010: 8a8b 8035 f92f 99b9 3cb8 8bb9 2408 64b9
00000020: 3ce3 3ab9 a846 013a 6579 5f39 decb 19b9
00000030: a55c 5eba aac4 93b8 d532 35ba 7a16 34ba
00000040: ce70 2739 8b0f 85ba d1f1 253a 6568 05ba
00000050: 1ee4 0e3a acaf 4fba ccf8 243a f674 06ba
00000060: 99ee 83ba 198e 4db9 88dd 7ab9 34a1 36ba
00000070: ef7b 10b9 4074 2cb8 7fde 8039 50ba 7eb9
00000080: 3abd 183a 182d 9c39 60fb f2b9 450b bfb8
00000090: c9fe 10ba 6e53 8e3a d549 0b3a 6125 c039
000000a0: c61a 7f39 b9da 6339 556d cbb7 4bfb 3b3a
000000b0: aa9e 323a 5a08 183a 6418 81b8 1173 62ba
000000c0: b6c3 d339 4e95 8a3a b19b 0e3a 0160 7eba
000000d0: c439 5f3a 9881 7439 8a55 34ba f3f7 c839
000000e0: b860 5aba f380 a738 f472 7eb9 4c75 c839
000000f0: 8907 42ba fd64 5cba 6414 1f3a 1bd4 2f3a

encoder.1.running_mean f4 [64]
-0.06616557 0.058989584 -0.2475892 -0.36537707 -0.15980157 0.06404411 -0.11633654 0.018983293
0.21278559 0.008666759 0.19659056 -0.052764647 0.04753753 0.21381956 -0.16793193 -0.068548165
-0.24207279 -0.09210066 0.051611405 0.09879823 0.28165933 -0.1448195 0.37808684 -0.23811783
-0.049328383 0.10988753 -0.106829435 -0.026708622 -0.22043028 0.09409303 -0.13574465 -0.31932563
-0.05479885 -0.014003429 0.1469919 -0.16802873 -0.30811036 0.23547636 -0.23863038 -0.023112467
0.22871567 -0.41017085 -0.03960311 0.24547772 0.3323046 -0.23563139 0.3831495 0.08313619
0.05619793 -0.17846751 0.13218315 -0.050447863 0.05106908 0.021414038 0.002325211 -0.025239745
-0.043874543 -0.15805225 -0.025939556 -0.0060138227 -0.14371204 0.09121341 -0.22176318 -0.14116229
00000000: d081 87bd 109f 713d 0688 7dbe b412 bbbe
00000010: 06a3 23be 8f29 833d da41 eebd da82 9b3c
00000020: 77e4 593e 06ff 0d3c 094f 493e be1f 58bd
00000030: b7b6 423d 84f3 5a3e 59f6 2bbe fb62 8cbd
00000040: eee1 77be 459f bcbd 7b66 533d ba56 ca3d
00000050: a735 903e 904b 14be 9994 c13e 29d5 73be
00000060: 8f0c 4abd b70c e13d 64c9 dabd 0acc dabc
00000070: 7ab8 61be d9b3 c03d a500 0bbe a67e a3be
00000080: c274 60bd a36e 65bc 0b85 163e b90f 2cbe
00000090: a4c0 9dbe b720 713e 865b 74be 5b56 bdbc
000000a0: 7134 6a3e ea01 d2be df36 22bd 835e 7b3e
000000b0: d423 aa3e 5b49 71be 2c2c c43e 4f43 aa3d
000000c0: cd2f 663d 30c0 36be 055b 073e 6ba2 4ebd
000000d0: d02d 513d 7e6c af3c 9162 183b 95c3 cebc
000000e0: cbb5 33bd 73d8 21be 317f d4bc 9a0f c5bb
000000f0: 4029 13be 19ce ba3d e315 63be d98c 10be

encoder.1.running_var f4 [64]
0.20259103 0.5915785 0.532867 0.45330352 0.867003 0.2268296 0.19063649 0.2825626
0.5222383 0.093020655 0.36286488 0.54327005 0.5321043 0.16193452 0.15510696 0.2072957
0.29051846 0.09021498 0.6947479 0.16061568 0.695959 0.035074502 2.1349182 0.38499364
0.04303732 0.10708356 0.35124555 0.053540636 0.9286399 0.38053513 0.058692463 0.33877784
0.12331512 0.06988786 0.1749925 0.2784648 1.8628647 1.5731149 0.119402565 0.15461239
0.24357222 1.0298915 0.11855114 0.2623638 0.2921848 0.11201343 1.0109969 0.0465221
0.31323072 0.10373458 0.13565175 0.023273194 0.11275317 0.1405949 0.06246956 0.30000386
0.059342302 0.096875146 0.048039526 0.051259667 0.07707231 0.112939216 0.4973568 0.4715942
00000000: 0674 4f3e b071 173f f969 083f 6617 e83e
00000010: e9f3 5d3f 0546 683e 3636 433e 0cac 903e
00000020: 69b1 053f 9d81 be3d 6dc9 b93e bf13 0b3f
00000030: fd37 083f 2ad2 253e 5cd4 1e3e 5345 543e
00000040: d6be 943e a2c2 b83d 00db 313f 7078 243e
00000050: 5e2a 323f 48aa 0f3d 80a2 0840 e31d c53e
00000060: e747 303d a04e db3d 75d6 b33e 6d4d 5b3d
00000070: 58bb 6d3f 80d5 c23e 8267 703d 4a74 ad3e
00000080: a38c fc3d 5e21 8f3d 3c31 333e f092 8e3e
00000090: 5a72 ee3f d45b c93f 5589 f43d b652 1e3e
000000a0: ff6a 793e 7cd3 833f f1ca f23d 8c54 863e
000000b0: 3f99 953e 4c67 e53d 5968 813f f58d 3e3d
000000c0: c75f a03e cc72 d43d 4be8 0a3e 6da7 be3c
000000d0: 22eb e63d 1cf8 0f3e 15e0 7f3d 1b9a 993e
000000e0: ea10 733d 7a66 c63d 18c5 443d a8f5 513d
000000f0: 16d8 9d3d ad4c e73d 8da5 fe3e cc74 f13e

encoder.4.weight f4 [128, 64, 3, 3]
-0.019119244 0.03461415 -0.014365925 -0.017656634 0.012257435 0.03165564 0.027952572 0.010407836
0.037967935 0.0060405694 -0.028166251 0.0065730177 -0.03825937 0.01716393 0.040266357 -0.035285443
0.020626653 -0.038521886 -0.03024701 -0.028981766 0.04086479 -0.019242756 0.01567601 -0.035623807
0.037957363 0.0059452513 -0.01119248 0.029899066 -0.027742378 -0.014042554 0.007394425 -0.039046723
0.012611687 0.014152665 0.003872731 0.036646254 -0.00080840936 0.038733516 0.013706623 -0.04082277
-0.035534125 -0.0056839315 0.004653095 -0.020277197 0.0009675564 -0.025913943 -0.023834333 0.012532709
-0.008315133 0.01654373 -0.008532486 -0.01233714 -0.033704378 -0.01297955 -0.04002053 0.02009266
0.021426614 -0.00038648548 0.040179387 -0.018436315 -0.023199042 0.033608817 0.017281374 0.032890078
0.003398466 0.032675035 0.03913986 -0.018863998 -0.040492877 0.020891229 -0.027338654 -0.018749023
0.02732147 -0.04105864 -0.03680914 0.015011535 -0.023154931 0.03550118 0.024246555 0.02672695
-0.0394963 0.029670421 0.0011506408 -0.004378155 0.03280031 0.025712393 0.022332918 -0.025847377
-0.009010149 0.020098232 0.022703625 -0.035010874 -0.006927312 -0.035853393 -0.028636064 0.01123641
0.0027634734 0.015972322 -0.0004906849 0.028439382 -0.0023660015 0.025137292 -0.037306268 -0.036628217
0.016268551 -0.0040968484 -0.013396521 0.038964093 -0.029062338 -0.033247456 -0.034560245 0.0075604687
0.036361966 0.026566453 0.0039342125 0.004728644 0.03161343 -0.03965091 -0.0031322709 0.010562269
-0.02578036 -0.03491456 0.03330177 -0.028658906 0.013823405 0.031417243 0.018127143 0.041994292
0.016382325 -0.023825869 -0.004498608 -0.03455131 0.032714743 -0.037033293 0.03407246 0.010669552
-0.026973614 -0.012758763 0.02720009 0.034896206 0.015203998 0.025238594 -0.00509655 -0.00209671
-0.010743472 0.014623111 -0.026598793 0.013422636 0.020806199 -0.012834673 -0.0005608328 -0.029680569
-0.02513871 -0.011302585 -0.010681291 0.030313669 0.003261948 0.0185624 -0.00600985 -0.029779421
-0.01394336 -0.028452415 0.0066072457 0.012889647 -0.002711111 -0.012080648 0.02967782 0.00899525
-0.010684287 -0.03722227 0.03162654 -0.020403577 0.017958319 0.03178165 0.018849367 -0.02021589
-0.022211196 -0.006427648 -0.040669266 0.039176986 -0.017983371 0.005267804 -0.040488705 0.024388444
-0.032751765 -0.0020803527 0.02072335 -0.004012733 -0.0230828 -0.014849157 -0.02695332 0.03796485
-0.03132245 0.031584114 0.026310988 0.0024526373 -0.034003757 -0.019021453 0.015042825 -0.016064849
-0.0042145588 0.007805037 -0.0028265757 -0.02280497 0.0043751476 0.02512292 -0.017062401 -0.039754912
0.024950728 -0.007590186 -0.037569683 -0.019043468 0.018273156 0.03811615 -0.0071996385 -0.024278954
-0.011568231 0.0324919 -0.036393054 0.0026366508 -0.021955822 0.030518591 0.039855774 0.034421552
-0.029423937 0.0029423032 0.04157676 -0.01640067 -0.034230303 -0.03867528 0.016413853 -0.005978903
-0.025469868 0.0059476946 0.009026371 -0.02064368 -0.017505057 0.003399138 -0.0067238463 0.022490464
-0.02924773 -0.024037935 0.01771095 0.023230692 0.0059397463 0.039362572 -0.0279545 -0.015691292
0.04067774 0.01928552 -0.038584627 -0.010250418 -0.013774886 0.007486387 0.017644065 0.023660826
00000000: f69f 9cbc 91c7 0d3d 0f5f 6bbc a5a4 90bc
00000010: 69d3 483c 58a9 013d cbfc e43c a185 2a3c
00000020: 4484 1b3d f8ef c53b e9bc e6bc 7862 d73b
00000030: dbb5 1cbd 5f9b 8c3c 56ee 243d 7887 10bd
00000040: 3af9 a83c 20c9 1dbd 94c8 f7bc 2b6b edbc
00000050: d761 273d fca2 9dbc fa6a 803c 45ea 11bd
00000060: 2e79 1b3d 62d0 c23b aa60 37bc e3ee f43c
00000070: fc43 e3bc be12 66bc ef4c f23b 75ef 1fbd
00000080: 40a1 4e3c 94e0 673c a5cd 7d3b 621a 163d
00000090: 6feb 53ba 09a7 1e3d be91 603c c735 27bd
000000a0: 3b8c 11bd 4640 babb fd78 983b 5d1c a6bc
000000b0: 9ca3 7d3a 7a49 d4bc 3840 c3bc fe55 4d3c
000000c0: 323c 08bc b786 873c d7cb 0bbc b721 4abc
000000d0: 9a0d 0abd 2ea8 54bc 91ec 23bd 5d99 a43c
000000e0: de86 af3c 34a1 cab9 2493 243d c107 97bc
000000f0: eb0b bebc 66a9 093d ab91 8d3c bfb7 063d
00000100: ccb8 5e3b 42d6 053d 1e51 203d ac88 9abc
00000110: dcdb 25bd 1524 ab3c 50f5 dfbc 8d97 99bc
00000120: 47d1 df3c 1b2d 28bd 2ec5 16bd f1f2 753c
00000130: 69af bdbc af69 113d b6a0 c63c 7af2 da3c
00000140: dfc6 21bd 620f f33c 19d1 963a a076 8fbb
00000150: 9e59 063d cca2 d23c 86f3 b63c e1bd d3bc
00000160: 4e9f 13bc 0ca5 a43c f4fc b93c 9067 0fbd
00000170: 81fe e2bb 02db 12bd 2e96 eabc eb18 383c
00000180: 641b 353b 63d8 823c 4ea1 00ba b5f9 e83c
00000190: eb0e 1bbb b9ec cd3c 75ce 18bd 7807 16bd
000001a0: a045 853c db3e 86bb 157d 5bbc d098 1f3d
000001b0: 2414 eebc 7c2e 08bd 0b8f 0dbd cfbd f73b
000001c0: 49f0 143d e4a1 d93c 91ea 803b bef2 9a3b
000001d0: 157d 013d fe68 22bd c946 4dbb 5e0d 2d3c
000001e0: 5531 d3bc 9202 0fbd 7067 083d 15c6 eabc
000001f0: 907b 623c 5eaf 003d 607f 943c 3502 2c3d
00000200: 3a34 863c 782e c3bc 0f69 93bb ad85 0dbd
00000210: e5ff 053d 39b0 17bd 908f 0b3d 58cf 2e3c
00000220: c5f7 dcbc 210a 51bc b9d2 de3c 53ef 0e3d
00000230: 311a 793c 2bc1 ce3c f600 a7bb f568 09bb
00000240: 6305 30bc c695 6f3c b6e5 d9bc 9eea 5b3c
00000250: c371 aa3c 8548 52bc da04 13ba aa24 f3bc
00000260: b2ef cdbc 7a2e 39bc 9500 2fbc 5f54 f83c
00000270: 68c6 553b 2d10 983c 47ee c4bb f9f3 f3bc
00000280: b172 64bc 0a15 e9bc 9881 d83b 192f 533c
00000290: e5ac 31bb e9ed 45bc e61e f33c d060 133c
000002a0: 260d 2fbc 6176 18bd d58a 013d 6725 a7bc
000002b0: 531d 933c 7a2d 023d fd69 9a3c cb9b a5bc
000002c0: 41f4 b5bc 059f d2bb d194 26bd 0c78 203d
000002d0: dd51 93bc 8b9d ac3b 7cd7 25bd 46ca c73c
000002e0: b726 06bd 8756 08bb 04c4 a93c 3f7d 83bb
000002f0: 2418 bdbc e149 73bc 35cd dcbc 0881 1b3d
00000300: f84b 00bd 585e 013d 248a d73c 6dbc 203b
00000310: 8647 0bbd e1d2 9bbc 2e76 763c 6e9a 83bc
00000320: 481a 8abb 65c1 ff3b 123e 39bb 7dd1 babc
00000330: 665d 8f3b 95ce cd3c 73c6 8bbc 0cd6 22bd
00000340: 7865 cc3c 18b7 f8bb abe2 19bd 0c01 9cbc
00000350: 96b1 953c ae1f 1c3d f2ea ebbb a8e4 c6bc
00000360: ad88 3dbc 3a16 053d e210 15bd a9cb 2c3b
00000370: b2dc b3bc 2002 fa3c cf3f 233d 9dfd 0c3d
00000380: 780a f1bc a8d3 403b 654c 2a3d b35a 86bc
00000390: 1335 0cbd f869 1ebd 5876 863c acea c3bb
000003a0: 2fa6 d0bc e1e4 c23b 58e3 133c ef1c a9bc
000003b0: c466 8fbc 13c4 5e3b b653 dcbb ec3d b83c
000003c0: ef98 efbc 34eb c4bc 8e16 913c 4b4e be3c
000003d0: 34a2 c23b a63a 213d d600 e5bc 068b 80bc
000003e0: b49d 263d abfc 9d3c ea0a 1ebd 5ff1 27bc
000003f0: 0fb0 61bc 5e50 f53b 498a 903c 59d4 c13c

encoder.4.bias f4 [128]
-0.01994046 -0.0027178442 -0.029043509 -0.017391656 0.01705862 -0.027399419 0.0013700807 -0.023121582
0.017701289 0.026997631 0.023763198 0.010286767 -0.037684277 0.0028273093 0.022636125 0.025223501
0.012736852 -0.024759771 0.020991456 -0.029763674 0.020703472 -0.020497227 0.03137358 -0.035331782
0.032781567 -0.012843552 -0.03590574 -0.023782695 0.018470204 0.011917933 0.013673065 0.015610047
-0.02548793 0.017967291 -0.02358691 0.034498855 0.04035345 0.040022045 0.032614384 -0.03439026
-0.00055048155 -0.03022477 0.021940727 0.0290906 0.0019614156 -0.0022817396 -0.04073829 0.030448366
-0.039504215 -0.033083543 0.011190349 0.02953453 0.008110123 -0.025057469 -0.02618417 -0.040136322
-0.022503236 0.03804969 0.0044511785 0.036681365 0.038509354 0.030808883 -0.025348498 -0.019487932
-0.0013778663 0.014098743 0.031109868 0.03175127 0.020460654 -0.0052597937 0.034116022 0.02980447
-0.016724916 0.040472813 -0.0037292754 -0.018884523 0.014206811 0.020657402 0.03844185 0.010405826
0.034809653 0.021839434 0.016148916 0.03069683 -0.0102913715 -0.017055552 0.03902174 0.016490307
-0.039640706 0.017372223 0.03486202 -0.005884814 -0.03126024 0.027396943 -0.022915747 0.01235422
0.029167395 0.023953767 0.016680727 -0.038697302 0.006749942 0.0127532715 -0.02858162 -0.030767418
0.018634655 -0.00080217805 0.009343971 0.021437874 -0.021622567 -0.041061055 -0.018794408 0.027515965
-0.010436476 0.02308262 0.026661063 -0.012402284 -0.0020572066 0.0029715227 -0.032182846 -0.024121234
-0.021385752 -0.029966138 -0.039789245 0.025051648 -0.037727334 -0.030660229 0.03919763 -0.03591849
00000000: 2d5a a3bc dc1d 32bb a7ec edbc f278 8ebc
00000010: 85be 8b3c bf74 e0bc 4894 b33a 7969 bdbc
00000020: 4b02 913c 232a dd3c 0aab c23c d489 283c
00000030: d45a 1abd 614a 393b 656f b93c 84a1 ce3c
00000040: 3bae 503c 01d5 cabc 46f6 ab3c f3d2 f3bc
00000050: 549a a93c cde9 a7bc 9581 003d 0fb8 10bd
00000060: f745 063d c36d 52bc e611 13bd edd3 c2bc
00000070: d34e 973c 6f43 433c fe04 603c 48c1 7f3c
00000080: 10cc d0bc 2430 933c 5639 c1bc ac4e 0d3d
00000090: a949 253d 28ee 233d a996 053d cddc 0cbd
000000a0: 314e 10ba f099 f7bc 0abd b33c 694f ee3c
000000b0: 188b 003b 3d89 15bb 31dd 26bd da6e f93c
000000c0: 2ccf 21bd 9c82 07bd ba57 373c 66f2 f13c
000000d0: 52e0 043c 5245 cdbc 2f80 d6bc fc65 24bd
000000e0: b558 b8bc fed9 1b3d 31db 913b 333f 163d
000000f0: fcbb 1d3d e962 fc3c a7a7 cfbc 28a5 9fbc
00000100: 8599 b4ba 6afe 663c 1fda fe3c 9f0d 023d
00000110: 1a9d a73c 595a acbb 3ebd 0b3d 8128 f43c
00000120: b102 89bc d2c6 253d dc66 74bb b7b3 9abc
00000130: afc3 683c b639 a93c 3475 1d3d 337d 2a3c
00000140: 9194 0e3d 9de8 b23c bb4a 843c eb77 fb3c
00000150: 249d 28bc 16b8 8bbc 43d5 1f3d ae16 873c
00000160: 4b5e 22bd 3150 8e3c 7acb 0e3d 66d5 c0bb
00000170: bd0a 00bd 8e6f e03c ceb9 bbbc 5b69 4a3c
00000180: 76f0 ee3c b13a c43c 05a6 883c 1081 1ebd
00000190: 9e2e dd3b 19f3 503c 0024 eabc f40b fcbc
000001a0: b4a7 983c 4249 52ba 7417 193c 7b9e af3c
000001b0: cf21 b1bc a32f 28bd bbf6 99bc 2969 e13c
000001c0: c1fd 2abc c317 bd3c 4d68 da3c f332 4bbc
000001d0: 33d2 06bb e1bd 423b 29d2 03bd e599 c5bc
000001e0: 2c31 afbc 8c7b f5bc 0cfa 22bd 1d39 cd3c
000001f0: fa87 1abd 292b fbbc b28d 203d 441f 13bd

encoder.5.weight f4 [128]
0.99951434 0.99898124 0.99993277 0.99963725 0.9996263 1.0004624 1.0009027 0.99984133
1.000511 0.9994241 1.0009632 1.0008081 1.0006868 1.0004276 0.9999548 1.0003994
0.9995737 1.0005176 0.9998141 1.0008867 0.9994639 0.99953526 0.9995758 1.000214
0.999075 1.0003676 1.000208 1.00057 0.99956167 0.99917173 1.0008876 1.0003129
1.0000192 0.999221 1.0000012 1.0006818 0.9998397 1.0001009 1.0007453 1.000569
1.000883 0.99946475 0.9995881 0.9999354 0.9995152 1.0002674 1.0009271 1.0009212
1.0000423 0.99934435 1.0001584 0.9991202 0.9998565 1.0002725 0.99961257 1.0003117
0.9995714 1.0001442 0.999407 1.0003726 0.9993687 1.0002264 1.0001793 1.0007002
1.0009702 1.001045 1.0008037 0.99929565 1.0001556 0.9996003 1.0009165 1.0000966
0.999926 0.9989876 0.9991319 1.000154 0.9990574 0.9992697 1.000739 1.0004045
1.0001013 0.9989855 0.9992389 0.9995596 1.0004753 0.9994139 1.0006173 1.0005519
1.0005742 0.9996559 0.9998116 0.9993176 1.0005494 0.99919677 0.99970526 0.9997302
1.0008782 1.0006377 0.99950254 1.0004904 1.0000479 0.9996471 0.9999984 0.99994445
1.0005382 1.0005486 0.99970084 0.9992662 0.9990865 0.99988484 0.9998833 0.99942154
1.00026 1.0007948 0.9995258 0.99953747 0.9995353 0.99916977 1.0005096 1.0007436
1.0005287 1.000116 0.9999149 1.0003655 1.0004342 1.0002656 0.99975294 0.9993802
00000000: 2ce0 7f3f 3cbd 7f3f 98fb 7f3f 3ae8 7f3f
00000010: 82e7 7f3f 270f 803f 941d 803f 9af5 7f3f
00000020: bf10 803f 42da 7f3f 901f 803f 7b1a 803f
00000030: 8116 803f 030e 803f 0afd 7f3f 160d 803f
00000040: 10e4 7f3f f610 803f d1f3 7f3f 0e1d 803f
00000050: dedc 7f3f 8be1 7f3f 33e4 7f3f 0307 803f
00000060: 61c3 7f3f 0c0c 803f d106 803f ae12 803f
00000070: 46e3 7f3f b8c9 7f3f 161d 803f 410a 803f
00000080: a100 803f f3cc 7f3f 0a00 803f 5716 803f
00000090: 7ff5 7f3f 4e03 803f 6c18 803f a512 803f
000000a0: ef1c 803f ecdc 7f3f 01e5 7f3f c4fb 7f3f
000000b0: 3ae0 7f3f c308 803f 611e 803f 301e 803f
000000c0: 6301 803f 08d5 7f3f 3105 803f 57c6 7f3f
000000d0: 98f6 7f3f ee08 803f 9ce6 7f3f 370a 803f
000000e0: e9e3 7f3f ba04 803f 23d9 7f3f 360c 803f
000000f0: a1d6 7f3f 6b07 803f e005 803f f216 803f
00000100: cb1f 803f 3e22 803f 561a 803f d7d1 7f3f
00000110: 1905 803f cee5 7f3f 081e 803f 2a03 803f
00000120: 26fb 7f3f a7bd 7f3f 1cc7 7f3f 0c05 803f
00000130: 3ac2 7f3f 24d0 7f3f 3718 803f 410d 803f
00000140: 5203 803f 84bd 7f3f 1fce 7f3f 23e3 7f3f
00000150: 930f 803f 97d9 7f3f 3a14 803f 1612 803f
00000160: d112 803f 73e9 7f3f a7f3 7f3f 47d3 7f3f
00000170: 0112 803f 5ccb 7f3f afec 7f3f 52ee 7f3f
00000180: c71c 803f e514 803f 66df 7f3f 1210 803f
00000190: 9201 803f dfe8 7f3f e5ff 7f3f 5cfc 7f3f
000001a0: a311 803f fa11 803f 65ec 7f3f e9cf 7f3f
000001b0: 22c4 7f3f 74f8 7f3f 5af8 7f3f 17da 7f3f
000001c0: 8508 803f 0b1a 803f ece0 7f3f b0e1 7f3f
000001d0: 8ce1 7f3f 97c9 7f3f b310 803f 5e18 803f
000001e0: 5311 803f cd03 803f 6cfa 7f3f fa0b 803f
000001f0: 3a0e 803f b408 803f cfef 7f3f 61d7 7f3f

encoder.5.bias f4 [128]
0.00010018709 -0.0005116183 -0.00023959618 0.00026372992 -0.0006316559 0.00053153007 0.0008744762 -0.00039088147
0.00063092326 -0.00029354557 0.00097221415 0.00040532814 -0.00033365953 -1.830622e-05 0.0005437058 0.00045357263
0.00039973354 0.00053138164 -6.4488795e-06 0.00086774764 -4.756306e-06 0.0002828082 -0.00025399073 0.00036659534
-0.0009478329 -0.00089438655 -0.0007348507 0.0007490655 -0.000258683 -0.00030362463 0.00079695386 -0.00042936162
-0.00048621433 -0.0003050899 -0.00010112417 -0.0004793838 -0.00042133106 0.0004092408 -0.00027622204 -0.0005355204
0.0008744085 -0.0001367757 0.00068030186 -5.602491e-06 -0.00051186327 0.0004880709 5.3728018e-05 0.000901282
0.00015068971 -0.00069214485 6.5803084e-05 0.00013313848 0.0003990216 0.0002841866 -0.0009242379 -0.0005013122
-0.000527246 -0.00015409089 -0.00065357826 0.00044827894 -0.00018614631 -0.00031747125 9.714294e-05 0.0005420477
0.0010511928 0.0007364846 0.0006609 -0.0010477891 0.00021315627 -0.00080984476 0.00086146715 0.00031739817
1.5605028e-05 -0.000658113 -0.0009926748 -0.00020054652 -0.0002518999 -0.00076125504 0.00046415156 0.00051027664
-0.00022790027 -0.0008049225 -0.0006495479 0.00030729824 0.0008844318 -0.00011006186 0.0007421077 0.00078014715
0.00019616954 7.585168e-06 0.0009769931 -0.00064322364 0.0005513664 -0.00037656873 -0.00029196774 -0.0009623653
0.000579577 0.0008805769 1.4968691e-05 0.0007361273 -0.0005888914 7.328843e-05 0.000415003 -0.00027532162
0.0008307838 0.00059081445 0.0005503775 -0.00087285996 -0.0009916737 -0.00042685372 -1.5603504e-05 -0.0009299807
0.00034712 0.000831698 -0.00015963755 0.00040111534 -0.0010335767 -0.0005307987 0.00062192976 -0.0006455028
-0.00051757245 -0.0003799207 0.00039471488 -0.00049746974 2.3919445e-06 0.0008122142 -0.0005945853 -0.0007149756
00000000: 891b d238 1f1e 06ba 1c3c 7bb9 3b45 8a39
00000010: b695 25ba 6156 0b3a 1b3d 653a 39ef ccb9
00000020: 8b64 253a 05e7 99b9 30dc 7e3a 3982 d439
00000030: 06ef aeb9 4f90 99b7 7b87 0e3a 7dcd ed39
00000040: 5493 d139 6b4c 0b3a 7463 d8b6 8f79 633a
00000050: 5c98 9fb6 e045 9439 0f2a 85b9 9833 c039
00000060: fd77 78ba 4475 6aba ffa2 40ba ef5c 443a
00000070: d89f 87b9 cf2f 9fb9 abea 503a f11b e1b9
00000080: 95ea feb9 79f4 9fb9 a012 d4b8 ce55 fbb9
00000090: 19e6 dcb9 5f8f d639 e5d1 90b9 2a62 0cba
000000a0: 9038 653a 736b 0fb9 4956 323a 08fd bbb6
000000b0: 902e 06ba c4e3 ff39 055a 6138 0344 6c3a
000000c0: 7602 1e39 0e71 35ba c3ff 8938 179b 0b39
000000d0: c633 d139 e1fe 9439 8e48 72ba 7e6a 03ba
000000e0: e136 0aba 7593 21b9 e554 2bba fb06 eb39
000000f0: 4530 43b9 4572 a6b9 38b9 cb38 3518 0e3a
00000100: 2dc8 893a a510 413a 4040 2d3a f855 89ba
00000110: b382 5f39 c34b 54ba 15d4 613a 7668 a639
00000120: 8be7 8237 3785 2cba a41c 82ba cc49 52b9
00000130: 6f11 84b9 f68e 47ba 5e59 f339 16c4 053a
00000140: 83f8 6eb9 6f01 53ba 6c46 2aba df1c a139
00000150: 37d9 673a 03d1 e6b8 018a 423a ca82 4c3a
00000160: dcb2 4d39 1984 fe36 730e 803a 029e 28ba
00000170: 9389 103a 336e c5b9 3f13 99b9 3e47 7cba
00000180: c1ee 173a 84d6 663a 0a22 7b37 abf8 403a
00000190: d55f 1aba 6db2 9938 c394 d939 0b59 90b9
000001a0: f5c8 593a e3e0 1a3a 3547 103a a4d0 64ba
000001b0: 0cfb 81ba 56cb dfb9 45e4 82b7 f3c9 73ba
000001c0: a8fd b539 4f06 5a3a 6164 27b9 ca4c d239
000001d0: 1479 87ba 4c25 0bba 0009 233a f636 29ba
000001e0: b3ad 07ba 1830 c7b9 bcf1 ce39 a168 02ba
000001f0: 4b85 2036 c6ea 543a f2dd 1bba 336d 3bba

encoder.5.running_mean f4 [128]
-0.33212864 -0.4187564 -0.44657636 -0.053599253 0.0889445 0.45943898 0.2612331 -0.062737
-0.21849507 0.022843191 -0.11555638 0.44531235 0.27540347 -0.27800402 -0.5465128 -0.2124016
0.031608805 -0.4243678 0.5402981 -0.034114636 0.21559203 0.3565279 -0.2528277 0.23013325
0.31453568 0.18443024 0.38455454 -0.32632247 -0.044824824 -0.10909827 -0.26058316 0.207823
0.43450108 0.16763484 -0.39983827 0.12569228 0.52196634 0.25025743 0.5523351 0.62440026
-0.09601095 -0.34086382 -0.9010504 -0.0077855582 -0.2819202 -0.1316418 0.5236982 -0.433708
0.43724266 0.35212263 -0.063381165 -0.20414086 -0.11738486 0.3413423 0.4516973 0.17843717
0.14429905 -0.05343296 0.18285921 -0.14983323 -0.036547843 0.40050182 0.27676004 0.26482442
-0.27867207 -0.08738346 -0.24652414 0.019284805 -0.13621813 0.2775984 -0.36315456 0.29683617
0.16127771 0.09076458 0.3248751 0.27128306 0.20217367 -0.011631543 0.18221322 -0.30900782
0.034827966 -0.31925616 0.3732298 -0.36494228 0.13377126 -0.67654115 -0.17711586 -0.10585811
0.07918932 -0.08373646 0.48821667 -0.23349403 0.12289914 -0.18824363 -0.29333618 0.10855606
0.66198486 0.13362871 -0.15907992 -0.2649107 -0.009692668 0.037905563 0.06691202 0.052623346
-0.05731668 0.30725694 0.3231831 0.15111381 -0.2651646 0.1754061 0.30607548 -0.033295542
0.45682704 0.06841364 0.31149 -0.24266183 0.08492125 -0.13475953 -0.014274808 0.83508456
0.17185117 0.6364663 0.05481563 -0.6813771 0.23455384 0.03188778 0.359933 -0.12795855
00000000: c40c aabe 3d67 d6be a8a5 e4be e48a 5bbd
00000010: 8928 b63d 963b eb3e 58c0 853e 427c 80bd
00000020: 2cbd 5fbe a521 bb3c d3a8 ecbd fbff e33e
00000030: af01 8d3e 8b56 8ebe 43e8 0bbf ce7f 59be
00000040: 3c78 013d bc46 d9be fa50 0a3f cabb 0bbd
00000050: 28c4 5c3e d38a b63e a272 81be 0da8 6b3e
00000060: d20a a13e 48db 3c3e 55e4 c43e bd13 a7be
00000070: 3c9a 37bd ea6e dfbd 286b 85be 8dcf 543e
00000080: ed76 de3e 78a8 2b3e 9ab7 ccbe 7ab5 003e
00000090: 969f 053f be21 803e d565 0d3f b2d8 1f3f
000000a0: 64a1 c4bd b485 aebe 3dab 66bf ff1d ffbb
000000b0: d857 90be 1ccd 06be 1611 063f fa0e debe
000000c0: 45de df3e 6b49 b43e fccd 81bd 4d0a 51be
000000d0: 7967 f0bd 6bc4 ae3e de44 e73e 3cb8 363e
000000e0: 21c3 133e 85dc 5abd 723f 3b3e e26d 19be
000000f0: 31b3 15bd 930e cd3e 7eb3 8d3e 1197 873e
00000100: 1bae 8ebe 19f6 b2bd d370 7cbe 2bfb 9d3c
00000110: c47c 0bbe 6121 8e3e 65ef b9be e9fa 973e
00000120: fc25 253e c8e2 b93d 0756 a63e 9de5 8a3e
00000130: 9d06 4f3e 3a92 3ebc 1a96 3a3e 4636 9ebe
00000140: c5a7 0e3d 8b75 a3be fa17 bf3e b7d9 babe
00000150: 55fb 083e cd31 2dbf dc5d 35be 23cc d8bd
00000160: 032e a23d 057e abbd 89f7 f93e 0f19 6fbe
00000170: 8bb2 fb3d f0c2 40be 2930 96be a452 de3d
00000180: d777 293f f7d5 083e d9e5 22be 60a2 87be
00000190: ffcd 1ebc dd42 1b3d 2b09 893d 948b 573d
000001a0: e5c4 6abd c850 9d3e 4178 a53e 94bd 1a3e
000001b0: a8c3 87be a89d 333e edb5 9c3e e860 08bd
000001c0: 3ce5 e93e 731c 8c3d 9e7b 9f3e 587c 78be
000001d0: 31eb ad3d 67fe 09be e2e0 69bc 1ac8 553f
000001e0: c1f9 2f3e 75ef 223f 5b86 603d bb6e 2ebf
000001f0: e22e 703e c39c 023d 2349 b83e 9107 03be

encoder.5.running_var f4 [128]
0.12488953 0.09309822 0.12762237 0.08507371 0.11036265 0.5437989 0.15113795 0.075662285
0.2940453 0.14051928 0.24928655 0.25871244 0.20493177 0.14575785 0.17179124 0.39190784
0.12707682 0.20977056 0.3520123 0.18219797 0.08668348 0.1132857 0.14731373 0.078653775
0.092910066 0.11209774 0.328781 0.15172201 0.5167131 0.31308958 0.18005738 0.17485543
0.1605275 0.11314082 0.17185397 0.07896787 0.17326368 0.31106082 0.20694256 0.4418413
0.17316021 0.19244978 0.46989688 0.082491264 0.1502842 0.08678313 0.19264491 0.33239117
0.29661077 0.0972889 0.078481965 0.25804213 0.17524913 0.23067153 0.18744732 0.114491925
0.37015143 0.13886456 0.07463997 0.06841971 0.27217442 0.08985579 0.13893057 0.1565118
0.3350803 0.18598476 0.19156854 0.11104878 0.0600203 0.12372883 0.44591305 0.12022862
0.1664395 0.10458136 0.10931248 0.09239717 0.062924966 0.33147427 0.18603733 0.26397824
0.1251463 0.12176052 0.25783902 0.09466434 0.07103867 0.3681976 0.34225348 0.1673259
0.09807483 0.15941769 0.12502718 0.093586005 0.26742855 0.16472308 0.17264894 0.06574031
0.27606592 0.20883036 0.14476262 0.18236732 0.07112319 0.10896288 0.07586735 0.06501404
0.1851434 0.09875662 0.120202005 0.15476577 0.07055286 0.12389004 0.15079969 0.115683064
0.18487242 0.28583524 0.16409986 0.28802428 0.12662035 0.067475356 0.3158422 0.27319157
0.21457003 0.22441289 0.0907231 0.2195409 0.35428065 0.28562957 0.14373225 0.21684664
00000000: 15c6 ff3d 48aa be3d 70af 023e 203b ae3d
00000010: d005 e23d 6836 0b3f e8c3 1a3e d4f4 9a3d
00000020: 1b8d 963e 49e4 0f3e f944 7f3e f575 843e
00000030: a2d9 513e 8c41 153e 0bea 2f3e 25a8 c83e
00000040: 6d20 023e 18ce 563e f53a b43e 1b92 3a3e
00000050: 1c87 b13d 5502 e83d 69d9 163e 3b15 a13d
00000060: a247 be3d 8093 e53d fc55 a83e 045d 1b3e
00000070: 4f47 043f 474d a03e f660 383e 4d0d 333e
00000080: 5261 243e 60b6 e73d 7dfa 2f3e e8b9 a13d
00000090: 096c 313e 5d43 9f3e c0e8 533e 0639 e23e
000000a0: e950 313e 8e11 453e 5396 f03e 2ef1 a83d
000000b0: 1ae4 193e 5bbb b13d b544 453e 2d2f aa3e
000000c0: 5edd 973e 673f c73d 27bb a03d 191e 843e
000000d0: 8274 333e 2835 6c3e 31f2 3f3e be7a ea3d
000000e0: 7d84 bd3e 8332 0e3e d7dc 983d a21f 8c3d
000000f0: 725a 8b3e 5006 b83d d143 0e3e a144 203e
00000100: a58f ab3e ca72 3e3e 8b2a 443e 8b6d e33d
00000110: d9d7 753d 8a65 fd3d b74e e43e 6c3a f63d
00000120: 1e6f 2a3e c12e d63d 39df df3d ba3a bd3d
00000130: cede 803d ffb6 a93e 9280 3e3e 2828 873e
00000140: 5a26 003e 945d f93d 7a03 843e 61df c13d
00000150: b97c 913d 6584 bc3e d93b af3e 7b57 2b3e
00000160: 75db c83d 643e 233e 2007 003e 05aa bf3d
00000170: 65ec 883e 2bad 283e e2ca 303e dba2 863d
00000180: 8358 8d3e a0d7 553e a73c 143e 80be 3a3e
00000190: 09a9 913d ee27 df3d 5760 9b3d 1526 853d
000001a0: 3b96 3d3e e940 ca3d 782c f63d eb7a 1e3e
000001b0: 057e 903d 10ba fd3d 3c6b 1a3e 3eeb ec3d
000001c0: 324f 3d3e ff58 923e cb09 283e eb77 933e
000001d0: c4a8 013e 8530 8a3d 12b6 a13e c4df 8b3e
000001e0: 3fb8 5b3e 7ecc 653e 08cd b93d 54cf 603e
000001f0: 4664 b53e 0a3e 923e 8c2e 133e 0c0d 5e3e

decoder.0.weight f4 [64, 128, 3, 3]
-0.027168661 -0.016450988 0.023519222 0.011786406 -0.023304746 0.006712859 0.021840908 -0.025420183
-0.010137788 -0.029350055 -0.020712938 0.02552398 -0.0155118145 -0.00024825707 -0.019917816 -0.02417086
0.026306583 0.005038845 0.023785759 0.016617747 -0.014737656 -0.02933539 0.026130306 -0.0012376782
-0.006682958 0.0047569606 -0.025983257 0.013882564 0.019137003 -0.018716207 0.01949593 0.0010581441
-0.0070601334 -0.0075116833 0.0119143585 0.010558176 0.025675938 -0.015067793 0.013909897 0.023762813
0.0039250567 -0.022195041 -0.005187096 -0.0063164583 0.02016023 -0.018640894 -0.01232614 -0.004027291
0.016314505 0.027380126 -0.025209734 0.0037253299 -0.019729307 0.021283418 0.010663743 0.011419314
-0.024922261 0.022633137 0.009778523 0.01715428 -0.003715685 -0.01141021 0.026745638 0.025589079
-0.023645494 -0.02248991 -0.017023643 0.026046876 0.025403729 0.028616665 -0.004896486 0.02367973
0.006326638 -0.00985787 -0.014512537 -0.014491052 -0.013684922 -0.020529578 -0.004675589 0.012527635
-0.012036911 0.004448268 0.019765269 0.0034704471 0.0025165568 -0.017573418 0.0044812905 0.011537981
0.007434016 0.009230429 0.02186183 0.02316021 0.02773604 -0.0015793353 -0.009896328 -0.0064381454
0.0050836154 0.023741798 -0.025087675 0.017632587 0.0015395801 -0.020528534 0.0033541864 0.029394178
-0.023497146 -0.026026193 0.027460929 0.0058989627 0.014740209 -0.0009736768 -0.018262437 0.01527343
0.01032438 -0.006123303 0.0266758 -0.01663671 0.018895546 -0.012448378 -0.0022327192 0.023616513
0.021955814 0.009216306 0.026571464 -0.025433948 -0.004328477 -0.01908259 0.015346729 0.010581596
-0.013951199 0.027299715 -0.00062629033 -0.0016617303 -0.02172806 0.022661977 0.025150789 0.0071658893
0.016912654 -0.015459799 -0.00037674865 0.022447132 -0.00950573 0.0019123682 -0.017497404 -0.0128638875
0.008260086 -0.019615807 0.014671425 0.0002773171 0.027596472 -0.008805643 0.027943423 0.0011678146
-0.01438086 -0.01617415 0.015163661 0.013809002 -0.019175991 -0.0072255237 -0.005028898 -0.0055549834
-0.0153013645 0.00837062 -0.01083185 0.008790934 -0.015823867 -0.013009379 -0.010163156 0.00021310449
-0.015881907 0.0028613585 -0.021806518 0.027162874 -0.0118552735 0.028115997 0.017422736 0.02341353
-0.02543419 0.022775248 0.016666213 -0.014565807 -0.016569154 -0.011559538 -0.017263774 0.020554233
-0.0099173365 0.028180024 0.002027801 -0.01437733 -0.015818745 -0.012918338 0.024885673 0.019881388
-0.02263584 0.021531384 0.027259756 -0.0005925391 0.0031669023 -0.028019417 0.0025861927 0.0028347936
-0.027439343 0.020336071 -0.011478053 -0.022957308 -0.016631953 -0.028714346 0.0035741236 -0.008485477
-0.01057447 -0.015031097 -0.024367932 -0.009462665 0.011114974 0.010979106 0.016782112 0.017748931
0.023777504 -0.017225623 -0.019110262 0.00022438436 -0.018971834 0.018694406 0.014430071 0.012761417
-0.016350564 0.008246216 0.015743611 -0.029147265 -0.020139555 -0.0028473786 0.024542365 0.02165297
-0.027227081 0.022229297 0.024770575 -0.02853641 0.010998834 -0.011231305 -0.026247226 0.029537553
0.003289412 -0.015069874 -0.0042089936 0.022740329 -0.010988828 -0.0053737066 0.018146712 0.011266505
0.012326117 0.016836042 0.024863582 0.020406377 0.0055642184 0.015800104 -0.018662505 -0.0042348965
00000000: d090 debc 39c4 86bc 62ab c03c c51b 413c
00000010: 98e9 bebc 8bf7 db3b b4eb b23c fd3d d0bc
00000020: f718 26bc 876f f0bc 2eae a9bc aa17 d13c
00000030: 4425 7ebc 8028 82b9 b02a a3bc f801 c6bc
00000040: e780 d73c e51c a53b 5ada c23c f121 883c
00000050: 3676 71bc c650 f0bc 390f d63c 9739 a2ba
00000060: b7fc dabb 47e0 9b3b d7da d4bc b273 633c
00000070: 34c5 9c3c bb52 99bc eeb5 9f3c 6db1 8a3a
00000080: b158 e7bb 9124 f6bb 7134 433c 33fc 2c3c
00000090: 5856 d23c e8de 76bc 56e6 633c 3baa c23c
000000a0: c39d 803b 60d2 b5bc 84f8 a9bb 4bfa cebb
000000b0: 1127 a53c cab4 98bc 94f3 49bc 5ef7 83bb
000000c0: ffa5 853c 494c e03c a584 cebc aa24 743b
000000d0: 5b9f a1bc 905a ae3c fbb6 2e3c 1318 3b3c
000000e0: c529 ccbc 2169 b93c 1936 203c 2287 8c3c
000000f0: da82 73bb e4f1 3abc ab19 db3c 30a0 d13c
00000100: 32b4 c1bc c23c b8bc 2b75 8bbc 4260 d53c
00000110: 7b1b d03c 7f6d ea3c b472 a0bb fefb c13c
00000120: b04f cf3b e782 21bc fec5 6dbc e16b 6dbc
00000130: b936 60bc a52d a8bc af35 99bb b640 4d3c
00000140: 7736 45bc c7c2 913b c6ea a13c 7170 633b
00000150: d1ec 243b 21f6 8fbc cad7 923b cd09 3d3c
00000160: 0c99 f33b 3a3b 173c 9517 b33c 7bba bd3c
00000170: b136 e33c b301 cfba 3524 22bc 14f7 d2bb
00000180: 7594 a63b 297e c23c ab84 cdbc 3772 903c
00000190: bccb c93a 752b a8bc e9d1 5b3b 0fcc f03c
000001a0: 167d c0bc e234 d5bc bef5 e03c 164c c13b
000001b0: eb80 713c 583e 7fba 1b9b 95bc 693d 7a3c
000001c0: 9727 293c fda5 c8bb 3587 da3c b649 88bc
000001d0: d5ca 9a3c 48f4 4bbc d052 12bb 6b77 c13c
000001e0: aedc b33c fdff 163c 66ac d93c db5a d0bc
000001f0: e6d5 8dbb 1753 9cbc d970 7b3c 6e5e 2d3c
00000200: 9293 64bc a7a3 df3c a22d 24ba 6bce d9ba
00000210: 0bff b1bc 9ca5 b93c 0709 ce3c d6cf ea3b
00000220: 688c 8a3c 194b 7dbc 5986 c5b9 0ce3 b73c
00000230: ecbd 1bbc 6ea8 fa3a b756 8fbc 0ec3 52bc
00000240: 5055 073c 54b1 a0bc 6b60 703c df64 9139
00000250: ff11 e23c 8b45 10bc 9be9 e43c 5b11 993a
00000260: b39d 6bbc a77f 84bc 0171 783c 273f 623c
00000270: f816 9dbc 16c4 ecbb 74c9 a4bb 9406 b6bb
00000280: 93b2 7abc ed24 093c 1278 31bc da07 103c
00000290: 0ea1 81bc 4a25 55bc 5e83 26bc cd74 5f39
000002a0: c61a 82bc a185 3b3b 95a3 b2bc ad84 de3c
000002b0: 9f3c 42bc 8553 e63c 20ba 8e3c bbcd bf3c
000002c0: 5d5b d0bc 2893 ba3c 9587 883c 6ca5 6ebc
000002d0: 09bc 87bc 3764 3dbc c26c 8dbc 5a61 a83c
000002e0: 537c 22bc cbd9 e63c dbe4 043b e58e 6bbc
000002f0: 5096 81bc 70a7 53bc 0add cb3c 4bde a23c
00000300: cc6e b9bc 9662 b03c da4f df3c a054 1bba
00000310: ce8b 4f3b fa88 e5bc 1d7d 293b f2c7 393b
00000320: 79c8 e0bc d597 a63c 720e 3cbc f710 bcbc
00000330: bc3f 88bc 593a ebbc d83b 6a3b ac06 0bbc
00000340: 8b40 2dbc fe44 76bc 429f c7bc 4b09 1bbc
00000350: 941b 363c b5e1 333c a47a 893c 3566 913c
00000360: 0ac9 c23c c01c 8dbc 208d 9cbc b848 6b39
00000370: d26a 9bbc 0325 993c 1b6c 6c3c 4315 513c
00000380: 9ef1 85bc 231b 073c bff8 803c 3fc6 eebc
00000390: b5fb a4bc 169b 3abb 120d c93c 9261 b13c
000003a0: 540b dfbc 371a b63c a9eb ca3c 30c5 e9bc
000003b0: 7434 343c 8203 38bc 6c04 d7bc bdf8 f13c
000003c0: 2d93 573b a2e7 76bc 99eb 89bb ed49 ba3c
000003d0: 7c0a 34bc eb15 b0bb 6aa8 943c 2697 383c
000003e0: 7bf3 493c bdeb 893c b6ae cb3c 462b a73c
000003f0: 0c54 b63b 386f 813c 1ce2 98bc e3c4 8abb

decoder.0.bias f4 [64]
0.018043185 -0.00913353 0.0042981417 0.02633799 0.018584782 -0.00860782 -0.0011267436 0.019446608
0.01947173 -0.0217976 0.0016531073 0.014393561 -0.024597373 -0.02344672 -0.011662614 -0.0059820805
-0.0041584214 -0.0037440404 -0.016910685 0.028765028 0.028190201 -0.02850212 -0.0025785835 -0.020516552
-0.0064975508 0.0047708806 0.019444706 -0.00020842053 -0.014183423 0.0020876995 -0.008180854 -0.011692685
0.019835921 0.003928104 0.006142888 0.028003693 0.01928764 -0.0059072175 -0.013107401 0.020251803
-0.0017143803 0.0036939655 -0.01313315 -0.016346226 0.016274447 0.019383807 0.023424847 -0.01969932
-0.0153948385 0.011638852 -0.020187303 0.019237826 -0.008439043 0.015419647 0.025186304 0.018875659
0.0069465935 -0.0004274507 0.0013359794 -0.0041892217 0.016535426 -0.0139749935 0.01504052 -0.0035681573
00000000: 4dcf 933c cda4 15bc 6dd7 8c3b c5c2 d73c
00000010: 1d3f 983c d007 0dbc 3eaf 93ba 7e4e 9f3c
00000020: 2d83 9f3c e190 b2bc 14ad d83a f8d2 6b3c
00000030: 6e80 c9bc 5613 c0bc 8c14 3fbc 5405 c4bb
00000040: 5e43 88bb 935e 75bb 4788 8abc a3a4 eb3c
00000050: 23ef e63c 477d e9bc 74fd 28bb 5412 a8bc
00000060: 68e9 d4bb 0c55 9c3b 814a 9f3c 768b 5ab9
00000070: 9661 68bc c9d1 083b fd08 06bc ad92 3fbc
00000080: f17e a23c 53b7 803b 484a c93b 0068 e53c
00000090: 1d01 9e3c 5591 c1bb 6dc0 56bc 1ce7 a53c
000000a0: 0fb5 e0ba 7516 723b 6c2c 57bc 85e8 85bc
000000b0: fd51 853c caca 9e3c 77e5 bf3c 7860 a1bc
000000c0: a23a 7cbc e2b0 3e3c d85f a5bc a598 9d3c
000000d0: e943 0abc b0a2 7c3c 8253 ce3c 20a1 9a3c
000000e0: 40a0 e33b 761b e0b9 081c af3a bd45 89bb
000000f0: 4d75 873c 5ff7 64bc 836c 763c bfd7 69bb

decoder.1.weight f4 [64]
1.0004478 0.9992802 0.9996093 1.0001812 1.000617 0.9992066 1.0003983 1.0002849
0.9999144 0.9998646 1.000875 0.99956137 0.9994911 0.99988806 1.0006378 1.0002971
1.0006132 0.99986356 1.0009108 1.0005983 1.0005971 1.0008849 1.0007722 0.99992627
1.0005661 0.99990445 1.0002867 0.9999314 0.9995724 1.0010166 1.0009196 1.0006598
0.9997747 0.999036 1.0001863 1.0008836 1.0006497 1.0010147 1.001068 1.0005628
0.9990671 0.9997788 0.99922884 0.9990045 1.0000247 1.0000929 1.0004143 0.99954075
0.9994241 1.0004575 0.99893975 0.9993863 1.0009817 0.999467 0.99912626 1.0008076
0.99923027 0.9991463 1.0005366 1.0003198 0.9997002 0.9990657 1.0008199 0.99931824
00000000: ac0e 803f d4d0 7f3f 65e6 7f3f f005 803f
00000010: 3814 803f 01cc 7f3f 0d0d 803f 5609 803f
00000020: 64fa 7f3f 20f7 7f3f ac1c 803f 41e3 7f3f
00000030: a6de 7f3f aaf8 7f3f e614 803f bc09 803f
00000040: 1814 803f 0ff7 7f3f d81d 803f 9b13 803f
00000050: 9113 803f ff1c 803f 4e19 803f 2bfb 7f3f
00000060: 8d12 803f bdf9 7f3f 6509 803f 81fb 7f3f
00000070: fae3 7f3f 5021 803f 221e 803f 9f15 803f
00000080: 3cf1 7f3f d3c0 7f3f 1b06 803f f41c 803f
00000090: 4a15 803f 4021 803f ff22 803f 7112 803f
000000a0: ddc2 7f3f 81f1 7f3f 76cd 7f3f c2be 7f3f
000000b0: cf00 803f 0b03 803f 930d 803f e7e1 7f3f
000000c0: 42da 7f3f fe0e 803f 84ba 7f3f c8d7 7f3f
000000d0: 2b20 803f 12dd 7f3f bdc6 7f3f 771a 803f
000000e0: 8ecd 7f3f 0dc8 7f3f 9511 803f 7b0a 803f
000000f0: 5aec 7f3f c5c2 7f3f de1a 803f 52d3 7f3f

decoder.1.bias f4 [64]
0.00031363455 -0.000276105 -0.00037109156 0.000514653 0.0003665211 -0.000540209 -0.00014882657 -5.712216e-05
-0.0004437939 0.0002342179 0.00090358197 -0.00037178255 -0.00065180345 -0.00023395153 0.00048367764 -0.00023286032
0.00075218227 0.00021061873 -0.0009390338 0.00057007506 0.0009642639 0.00039504064 0.00060225197 -0.00016550839
0.0008814569 0.0002910881 0.00043027816 0.0005834206 -0.0003924998 0.0010158998 0.00031876488 0.0008474192
-2.3386207e-05 -0.00077182974 -0.0009177212 0.0007731278 0.0008401251 0.00075934577 0.000757825 -0.00032036856
-0.0007622914 -0.000380615 -0.0005556436 -0.0006982815 0.00014154833 0.0001775729 0.0009340285 -0.0010466791
-0.00029775503 -7.589277e-05 -0.0005831048 -0.0003217336 0.0009695736 0.00027969715 -0.0005482498 0.0009468228
-8.812826e-05 -0.00062875316 0.0003081803 0.00074669765 -0.00089818647 -0.0009749252 -7.241754e-05 -0.00086933916
00000000: 516f a439 30c2 90b9 118f c2b9 c7e9 063a
00000010: a129 c039 d09c 0dba 540e 1cb9 7496 6fb8
00000020: 02ad e8b9 6498 7539 5cde 6c3a cfeb c2b9
00000030: cadd 2aba e350 75b9 1d96 fd39 f72b 74b9
00000040: 192e 453a 89d9 5c39 7e29 76ba 1771 153a
00000050: a8c6 7c3a 751d cf39 72e0 1d3a 528c 2db9
00000060: 9211 673a 2f9d 9839 f596 e139 b2f0 183a
00000070: 6ec8 cdb9 f127 853a e61f a739 5725 5e3a
00000080: 7f2d c4b7 9e54 4aba 3a93 70ba baab 4a3a
00000090: d73b 5c3a d50e 473a c6a8 463a 24f7 a7b9
000000a0: 83d4 47ba 488d c7b9 9ca8 11ba e10c 37ba
000000b0: 976c 1439 dd32 3a39 97d9 743a b930 89ba
000000c0: 011c 9cb9 9f28 9fb8 80db 18ba 5aae a8b9
000000d0: fc2a 7e3a 51a4 9239 6cb8 0fba 3434 783a
000000e0: 80d1 b8b8 e9d2 24ba 4293 a139 08be 433a
000000f0: 4674 6bba 1f92 7fba dfde 97b8 5de4 63ba

decoder.1.running_mean f4 [64]
0.553131 -0.7482263 0.18704084 0.04968698 -0.40823543 -0.38958874 -0.9014195 -0.40644085
0.2862579 -0.38019058 0.050240323 0.507259 -0.23948722 0.056042153 -0.13527623 0.17033277
-0.5548934 -0.300734 0.5077023 0.37365943 -0.5324213 0.25430128 -0.1003333 -0.0012823213
0.31869504 0.09845194 0.34307376 -0.5660747 -0.41177684 -0.117771104 -0.36634558 -0.38289243
-0.18026525 -0.34136796 0.69964623 -0.14905956 -0.44987342 0.666148 0.25528947 -0.4828652
-0.0037524414 -0.2565148 -0.012908499 -0.2749971 -0.600627 0.23402795 0.09734873 -0.047930542
-0.06559517 0.30548355 0.030697135 0.10169882 -0.055495333 -0.12729105 -0.4471095 -0.17298329
-0.41695794 0.36118123 -0.117365524 -0.17860252 0.43581018 -0.16164413 0.48342186 0.5673685
00000000: fe99 0d3f c28b 3fbf a287 3f3e 9384 4b3d
00000010: 3c04 d1be 2d78 c7be 6ec3 66bf 0419 d0be
00000020: 6590 923e 57a8 c2be ccc8 4d3d badb 013f
00000030: 233c 75be 758c 653d da85 0abe b76b 2e3e
00000040: 7e0d 0ebf cff9 99be c7f8 013f 4a50 bf3e
00000050: c34c 08bf c733 823e 8c7b cdbd 9013 a8ba
00000060: ff2b a33e 2ca1 c93d 5da7 af3e 46ea 10bf
00000070: 6ad4 d2be fa31 f1bd a691 bbbe 7a0a c4be
00000080: 7497 38be c8c7 aebe 041c 333f 12a3 18be
00000090: cf55 e6be ad88 2a3f 4db5 823e 1c3a f7be
000000a0: 85eb 75bb e855 83be 2b7e 53bc 6bcc 8cbe
000000b0: b1c2 19bf 06a5 6f3e c55e c73d d152 44bd
000000c0: c356 86bd 5768 9c3e 8f78 fb3c 7947 d03d
000000d0: 134f 63bd 9658 02be 89eb e4be 8822 31be
000000e0: 837b d5be bfec b83e 565d f0bd 94e3 36be
000000f0: 8322 df3e 0a86 25be 1283 f73e 103f 113f
