checkpoints/2025-06-02-14-10-12/last_epoch.pth (torch, 686901 bytes, 25 tensors)

encoder.0.weight f4 [64, 3, 3, 3]
0.12097222 -0.13634732 -0.116242826 -0.03855841 -0.15533462 0.14019804 -0.1832269 -0.13438751
-0.18552029 0.05405502 0.1868064 -0.06790057 -0.021962358 0.010574091 -0.08428168 -0.08872941
-0.015440729 -0.08363024 0.08193893 -0.028577693 0.093392454 0.08097972 0.021098766 -0.017728165
-0.17039195 -0.026545964 0.051828794 -0.14064272 0.17635958 -0.052765045 -0.14373526 0.1881996
0.13454345 -0.046856306 0.12355441 -0.17722985 0.19041209 -0.13894825 0.097460866 0.11576549
-0.13713333 -0.18552291 -0.082257606 0.1554427 -0.120717116 -0.11538648 0.15066202 -0.16071306
-0.0048383167 0.1603987 0.1376661 -0.025866603 -0.03806771 -0.18056224 0.1591375 -0.11595384
-0.14142847 -0.058028795 -0.009759781 -0.08004117 0.07021535 0.15056978 -0.044434514 -0.15596034
-0.14551663 0.15762334 -0.14854753 0.1545218 0.067344 -0.003123039 0.091276444 0.045210663
0.008620366 0.107634164 0.0009813728 0.006019172 0.16840753 -0.08724371 0.050841596 -0.07358299
-0.04038618 -0.12086685 0.047680423 0.024706937 0.010623064 -0.04221259 -0.14572191 -0.03540197
-0.16693223 -0.062241234 -0.054023836 0.13329971 0.12956256 -0.14687885 -0.06791332 -0.0365359
-0.095952444 0.12223463 -0.11150832 -0.10159793 -0.17864007 -0.010119547 0.019674458 0.14385547
-0.09104308 -0.18547451 -0.17140324 0.17692216 0.0030778253 0.1591774 0.09431013 0.042185232
-0.030211683 0.13494174 0.15063126 -0.057277042 0.048426494 -0.021755682 -0.13545734 0.11057719
0.0006831081 -0.1767953 -0.13859466 0.1295034 0.06932193 0.16384728 -0.09542967 0.15328597
-0.14922819 -0.12745489 -0.17025954 -0.029021192 -0.10284676 -0.14905809 0.15545951 0.06687587
-0.08118975 -0.007189024 0.1633159 0.0007678564 -0.15326944 -0.059245426 0.12538087 0.061642405
-0.13230285 -0.076777324 0.1759643 0.020707855 0.042194523 -0.068336986 -0.08468913 0.13065937
0.047084417 -0.09154263 -0.098596826 0.13880135 0.11926528 0.09753931 -0.06630851 -0.05557013
0.16273159 -0.18662746 0.18949097 -0.18721895 -0.000923247 0.19061927 0.05209699 0.14589961
0.0023680564 -0.00074786297 -0.04233235 0.16346014 -0.18279676 -0.10245007 0.15310349 0.020141307
0.031026023 0.0654393 -0.081775546 -0.095481865 -0.03499347 0.001716387 0.074897 -0.15045923
-0.10766977 -0.025192115 0.12861359 -0.08852465 -0.10999243 -0.187696 0.08096637 -0.08502018
-0.14328422 0.14654958 0.18778285 -0.030249828 -0.12132482 -0.067728445 0.091873884 -0.07952056
-0.07349473 0.15668131 -0.049323946 -0.070473924 0.106468685 0.18188451 -0.11893972 -0.021835024
-0.019871647 -0.14240575 -0.03767133 0.036890067 0.1503073 -0.13251217 0.09175383 -0.087477006
-0.088697635 -0.014147609 -0.112997815 0.17058028 -0.033127796 0.044111803 -0.13146344 0.11856684
0.15343723 0.09402871 0.044826884 -0.10683248 -0.16071436 0.09478347 0.09593397 0.04187313
-0.19279926 -0.09478212 0.03812526 0.0041142544 0.022633173 0.10324797 -0.07002579 0.020191537
-0.07046693 0.185318 0.18602309 0.088045664 0.15046228 -0.03112471 -0.16403542 0.13807479
0.15266061 -0.030925158 -0.114240795 -0.18838425 -0.05276267 0.021229964 0.12572305 0.16834725
00000000: 49c0 f73d a29e 0bbe b810 eebd 6cef 1dbd
00000010: 0a10 1fbe 1390 0f3e d59f 3bbe e19c 09be
00000020: 08f9 3dbe cc68 5d3d 2d4a 3f3e 740f 8bbd
00000030: 67ea b3bc f43e 2d3c e09b acbd c4b7 b5bd
00000040: 1dfb 7cbc 5546 abbd 99cf a73d c41b eabc
00000050: 8b44 bf3d b2d8 a53d 52d7 ac3c a83a 91bc
00000060: 3a7b 2ebe ec76 d9bc 6e4a 543d a504 10be
00000070: 9b97 343e 2920 58bd 562f 13be 65b7 403e
00000080: c2c5 093e 66ec 3fbd 180a fd3d be7b 35be
00000090: 63fb 423e 7348 0ebe 9099 c73d 7516 ed3d
000000a0: ae6c 0cbe b8f9 3dbe ad76 a8bd 5f2c 1f3e
000000b0: 893a f7bd bf4f ecbd 2547 1a3e f791 24be
000000c0: be8a 9ebb 8f3f 243e 58f8 0c3e 33e6 d3bc
000000d0: e3ec 1bbd 4fe5 38be f1f4 223e 3579 edbd
000000e0: a0d2 10be 9aaf 6dbd 7de7 1fbc a0ec a3bd
000000f0: 11cd 8f3d f72e 1a3e f700 36bd 11b4 1fbe
00000100: 5002 15be 0368 213e d81c 18be f63a 1e3e
00000110: a7eb 893d e6ab 4cbb 25ef ba3d d12e 393d
00000120: 703c 0d3c 4d6f dc3d 68a1 803a 793c c53b
00000130: 0673 2c3e d5ac b2bd 473f 503d aeb2 96bd
00000140: fb6b 25bd 0a89 f7bd 8c4c 433d 3466 ca3c
00000150: 5c0c 2e3c 1ce7 2cbd 2038 15be a801 11bd
00000160: 48f0 2abe aaf0 7ebd 1948 5dbd b87f 083e
00000170: 0cac 043e 6967 16be 2416 8bbd aba6 15bd
00000180: b782 c4bd 2656 fa3d 795e e4bd 9312 d0bd
00000190: 6ced 36be 75cc 25bc 542c a13c d94e 133e
000001a0: cb74 babd 08ed 3dbe 5584 2fbe 152b 353e
000001b0: 57b5 493b 66ff 223e ab25 c13d 6cca 2c3d
000001c0: 7e7e f7bc 2b2e 0a3e 153f 1a3e 559b 6abd
000001d0: dc5a 463d f938 b2bc 54b5 0abe 4b76 e23d
000001e0: 9c12 333a d409 35be c2eb 0dbe 8a9c 043e
000001f0: a8f8 8d3d 95c7 273e a170 c3bd fff6 1c3e
00000200: 46cf 18be 8983 02be 8458 2ebe dabd edbc
00000210: 52a1 d2bd afa2 18be c730 1f3e 37f6 883d
00000220: d046 a6bd e791 ebbb 493c 273e f949 493a
00000230: aaf2 1cbe 55ab 72bd d863 003e bf7c 7c3d
00000240: 667a 07be 6e3d 9dbd fc2f 343e 85a3 a93c
00000250: 2ad4 2c3d 43f4 8bbd 7f71 adbd 92cb 053e
00000260: 97db 403d b47a bbbd 22ed c9bd f121 0e3e
00000270: 5b41 f43d b1c2 c73d c2cc 87bd 819d 63bd
00000280: 1ca3 263e 451b 3fbe ec09 423e 53b6 3fbe
00000290: 0f06 72ba b331 433e a763 553d b566 153e
000002a0: 6531 1b3b 3c0c 44ba b064 2dbd 1862 273e
000002b0: 132f 3bbe 58d1 d1bd 29c7 1c3e 62ff a43c
000002c0: 492a fe3c 0a05 863d f079 a7bd ff8b c3bd
000002d0: 5055 0fbd 64f8 e03a 9963 993d fc11 1abe
000002e0: f881 dcbd b25f cebc 48b3 033e 694c b5bd
000002f0: b643 e1bd 6133 40be b2d1 a53d 0f1f aebd
00000300: 19b9 12be 1811 163e 264a 403e 7dce f7bc
00000310: 2679 f8bd 36b5 8abd 6028 bc3d addb a2bd
00000320: 6884 96bd 1171 203e e807 4abd a254 90bd
00000330: 410c da3d ef3f 3a3e ab96 f3bd 5ddf b2bc
00000340: ddc9 a2bc d0d2 11be 414d 1abd 0a1a 173d
00000350: 28ea 193e 45b1 07be 6fe9 bb3d 2527 b3bd
00000360: 1ba7 b5bd 5fcb 67bc 666b e7bd 99ac 2e3e
00000370: 03b1 07bd 94ae 343d 5a9e 06be 2cd3 f23d
00000380: a61e 1d3e 2092 c03d 659c 373d fdca dabd
00000390: 4e92 24be d61d c23d 0779 c43d 2983 2b3d
000003a0: 2b6d 45be 211d c2bd 3c29 1c3d ded0 863b
000003b0: 3469 b93c ac73 d33d ae69 8fbd b968 a53c
000003c0: f750 90bd 00c4 3d3e d67c 3e3e 4951 b43d
000003d0: c912 1a3e 3ff9 febc e7f8 27be 7a63 0d3e
000003e0: 1053 1c3e c256 fdbc 14f7 e9bd cde7 40be
000003f0: ab1d 58bd 76ea ad3c 8bbd 003e 3963 2c3e

encoder.0.bias f4 [64]
-0.11557226 0.18740599 0.16712922 -0.031234356 0.019336164 0.029399091 0.09346053 0.022591164
0.002632046 0.15540075 -0.14505477 0.06131243 0.012388512 0.16584335 0.07915502 0.11734769
-0.05350318 0.10333823 -0.09458434 0.1592819 -0.09506824 0.08722119 0.02058806 0.17980632
-0.08376692 0.13290031 -0.05746545 0.104924634 -0.1670787 0.101861164 0.10068128 -0.040666997
0.08501328 -0.12572996 -0.17081499 -0.011213222 -0.18624188 0.06100004 0.111653976 -0.052665766
-0.17675017 0.049483612 -0.060991306 0.039251924 0.039349142 0.07773597 -0.05399376 -0.12656544
-0.039564777 0.13587165 0.18199722 -0.010932032 0.10202312 -0.026033305 0.01995806 0.008376256
-0.07817694 0.08609327 0.028811598 0.03968908 -0.11544363 -0.13787705 -0.07137213 0.11988414
00000000: 26b1 ecbd 5be7 3f3e ec23 2b3e 31df ffbc
00000010: e066 9e3c 5dd6 f03c 3c68 bf3d 1b11 b93c
00000020: 677e 2c3b 6021 1f3e 3d89 14be be22 7b3d
00000030: 2ff9 4a3c d7d2 293e 071c a23d fc53 f03d
00000040: 2726 5bbd fea2 d33d 6fb5 c1bd cb1a 233e
00000050: 23b3 c2bd 06a1 b23d 4ba8 a83c 261f 383e
00000060: fe8d abbd 0517 083e e460 6bbd bae2 d63d
00000070: ae16 2bbe 969c d03d fd31 ce3d 7092 26bd
00000080: 711b ae3d 5bbf 00be 20ea 2ebe a9b7 37bc
00000090: 31b6 3ebe 2edb 793d d7aa e43d 0fb8 57bd
000000a0: fffd 34be 54af 4a3d 05d2 79bd a0c6 203d
000000b0: 912c 213d 0934 9f3d 9028 5dbd 5f9a 01be
000000c0: ad0e 22bd f021 0b3e 7b5d 3a3e 441c 33bc
000000d0: 7ff1 d03d cc43 d5bc 167f a33c 903c 093c
000000e0: 3b1b a0bd ab51 b03d 4d06 ec3c 0491 223d
000000f0: b66d ecbd a42f 0dbe 8d2b 92bd d185 f53d

encoder.1.weight f4 [64]
1.0003648 0.9997275 1.0001614 1.0003961 0.9998536 1.0004611 1.0005122 1.0001059
1.0005965 0.99934894 0.99955624 1.0000757 0.9997658 0.99976116 0.99940205 0.9993731
0.99925035 1.00056 0.99965644 1.0000805 1.0005546 0.9999838 0.9992651 0.99929255
1.0003217 0.9997174 0.99937546 1.0008209 0.99951106 1.0005172 0.99915266 0.99977875
1.0009106 1.0002276 1.0007383 0.9994124 1.0000039 0.9994763 0.9999763 0.9996158
1.0002241 1.000367 0.9992605 0.99959475 0.9998329 0.9993229 1.0007113 1.0001174
1.0007178 1.0000277 1.0005791 0.99980354 0.99998546 1.0007222 1.000042 1.0004351
0.9995995 0.9999492 1.0002602 1.000439 1.0008751 0.99974865 0.99980974 0.99998426
00000000: f40b 803f 24ee 7f3f 4a05 803f fb0c 803f
00000010: 68f6 7f3f 1c0f 803f c910 803f 7803 803f
00000020: 8c13 803f 55d5 7f3f ebe2 7f3f 7b02 803f
00000030: a7f0 7f3f 59f0 7f3f d0d8 7f3f ead6 7f3f
00000040: dfce 7f3f 5a12 803f 7ce9 7f3f a302 803f
00000050: 2c12 803f f0fe 7f3f d6cf 7f3f a3d1 7f3f
00000060: 8b0a 803f 7bed 7f3f 12d7 7f3f e61a 803f
00000070: f5df 7f3f f310 803f 78c8 7f3f 80f1 7f3f
00000080: d71d 803f 7507 803f 3118 803f 7ed9 7f3f
00000090: 2100 803f aedd 7f3f 72fe 7f3f d2e6 7f3f
000000a0: 5807 803f 070c 803f 89cf 7f3f 71e5 7f3f
000000b0: 0df5 7f3f a0d3 7f3f 4f17 803f d903 803f
000000c0: 8517 803f e800 803f fa12 803f 20f3 7f3f
000000d0: 0cff 7f3f aa17 803f 6001 803f 420e 803f
000000e0: c1e5 7f3f acfc 7f3f 8708 803f 630e 803f
000000f0: ad1c 803f 87ef 7f3f 88f3 7f3f f8fe 7f3f

encoder.1.bias f4 [64]
0.0005280748 -0.000514937 0.00029735474 -0.00031254406 -0.0010561958 0.000709944 0.00032223304 0.0004573116
0.0007323631 -0.00028898634 0.00044321085 0.00023215279 0.00032756163 7.2534867e-06 -0.00068383507 0.0006783721
-0.00077131746 0.0007909221 -0.0003083061 -0.000100110396 0.0006324745 -9.160293e-05 -0.00028441462 -0.000793562
0.0001828191 -0.00015235723 -0.00054900936 0.0005805493 0.00063540513 0.0007669043 -0.000309703 0.0003792157
0.00095747696 0.00031426174 0.00057391135 -0.00042678518 5.102255e-05 -0.0005752966 0.00078631984 -0.0004184789
0.00054188306 -0.0006681242 -0.000774596 -2.627891e-05 -2.8122136e-06 -0.0010442454 -0.0003302571 -0.0010049882
-0.0001107847 0.000111249785 0.00089177967 -0.00046687212 0.0009333163 -0.0006104234 -0.00053067046 0.0006414695
-0.00025027347 0.00010402741 0.00016143866 0.0009052355 0.00046561158 -0.0010184569 -0.00017046797 -0.00062083284
00000000: 806e 0a3a d6fc 06ba 47e6 9b39 f4dc a3b9
00000010: 0d70 8aba 891b 3a3a 63f1 a839 53c3 ef39
00000020: 0efc 3f3a 1783 97b9 c15e e839 0a6e 7339
00000030: 94bc ab39 fa62 f336 6543 33ba c8d4 313a
00000040: 3d32 4aba e255 4f3a 25a4 a1b9 5cf2 d1b8
00000050: a5cc 253a f31a c0b8 7c1d 95b9 0b07 50ba
00000060: 21b3 3f39 15c2 1fb9 65eb 0fba 0130 183a
00000070: 5191 263a 140a 493a a25f a2b9 78d1 c639
00000080: 31ff 7a3a 7fc3 a439 8a72 163a 23c2 dfb9
00000090: 0c01 5638 80cf 16ba 0821 4e3a 4a67 dbb9
000000a0: 280d 0e3a 0e25 2fba 420e 4bba 8871 dcb7
000000b0: 76b9 3cb6 10df 88ba 5c26 adb9 cfb9 83ba
000000c0: 1555 e8b8 c64e e938 52c6 693a 84c6 f4b9
000000d0: cca9 743a d204 20ba b11c 0bba 4a28 283a
000000e0: 2337 83b9 4a29 da38 dc47 2939 534d 6d3a
000000f0: 541d f439 be7d 85ba a6bf 32b9 63bf 22ba

encoder.1.running_mean f4 [64]
0.127076 0.20531903 0.14527735 0.2489969 -0.055946846 -0.028848697 0.04730636 0.09233052
-0.07651203 0.19724958 -0.1318402 -0.06434342 -0.20278542 0.0057579195 0.13899401 0.2614932
-0.09226242 -0.029012231 -0.042350944 0.24643137 -0.38533798 -0.21557315 0.14355524 0.13488375
0.040168796 0.19835442 -0.36647496 0.0065356214 -0.36940747 0.00019005935 0.08185292 -0.085253224
0.21377012 -0.13370752 0.073134355 0.110773966 -0.12276737 0.3073728 0.18230352 -0.28753927
-0.09525392 0.22728997 -0.27909416 0.23672721 0.3351625 0.087744296 -0.035109986 -0.19495691
0.0686644 0.39190292 0.33936915 -0.030202338 0.20635852 -0.1410622 -0.030774785 0.1920819
-0.13151586 0.20607746 0.15052998 0.102138326 -0.038408116 -0.139978 -0.121059656 0.12171443
00000000: 3620 023e 273f 523e 96c3 143e 0bf9 7e3e
00000010: 8528 65bd 1a54 ecbc 50c4 413d c917 bd3d
00000020: 57b2 9cbd cbfb 493e 1e01 07be 7cc6 83bd
00000030: fba6 4fbe eeac bc3b 7254 0e3e 70e2 853e
00000040: 14f4 bcbd 0fab edbc 2f78 2dbd 8158 7c3e
00000050: 054b c5be 35bf 5cbe 2500 133e f71e 0a3e
00000060: 0988 243d 6c1d 4b3e 9ba2 bbbe c428 d63b
00000070: fa22 bdbe ab4a 4739 81a2 a73d 3e99 aebd
00000080: 8ee6 5a3e a0ea 08be 77c7 953d 76dd e23d
00000090: 756d fbbd f85f 9d3e c6ad 3a3e 5938 93be
000000a0: 7d14 c3bd b4be 683e 6ee5 8ebe 9e68 723e
000000b0: 6b9a ab3e 48b3 b33d 7dcf 0fbd c9a2 47be
000000c0: ec9f 8c3d 80a7 c83e cbc1 ad3e e56a f7bc
000000d0: a64f 533e 9c72 10be 671b fcbc 1eb1 443e
000000e0: 18ac 06be f805 533e 8824 1a3e e62d d13d
000000f0: d451 1dbd 6556 0fbe 20ee f7bd 6a45 f93d

encoder.1.running_var f4 [64]
0.5800007 0.04365885 0.038845602 0.9515581 0.15685792 0.059583165 0.09670976 0.06639684
0.13796128 0.13190062 0.09699054 0.3201638 0.4900513 0.29021665 0.1347268 0.21979451
0.11538392 0.1578001 0.04258421 0.082793 1.0613737 1.0875354 0.28906703 0.025199963
0.2797639 0.046297584 1.0012097 0.3098489 0.4552595 0.32981703 0.09277715 0.20648004
0.59899634 0.11353325 0.6048764 0.16982697 0.095351785 0.7883712 0.067308754 0.63928896
0.09534968 0.4804755 0.44331482 0.7121338 0.9881323 0.12859553 0.025153311 0.119818956
0.4706963 0.9052155 0.34461853 0.07045891 0.22196193 0.23112719 0.24647614 0.68093085
0.04393006 0.14649099 0.16632594 0.07942718 0.114288576 0.06012183 0.11855265 0.16095507
00000000: ed7a 143f 9fd3 323d 911c 1f3d 5099 733f
00000010: 5d9f 203e 7a0d 743d c40f c63d 11fb 873d
00000020: b945 0d3e f510 073e faa2 c63d 82ec a33e
00000030: 01e8 fa3e 4797 943e d2f5 093e d011 613e
00000040: 684e ec3d 5996 213e c86c 2e3d 608f a93d
00000050: 18db 873f 5c34 8b3f 9800 943e 2770 ce3c
00000060: 373d 8f3e 89a2 3d3d a427 803f 84a4 9e3e
00000070: c617 e93e c7dd a83e f201 be3d 816f 533e
00000080: d357 193f 1f84 e83d 2ed9 1a3f 1fe7 2d3e
00000090: cc47 c33d b2d2 493f 2cd9 893d 71a8 233f
000000a0: b146 c33d e200 f63e 29fa e23e 674e 363f
000000b0: 3df6 7c3f 8cae 033e 510e ce3c a463 f53d
000000c0: 1bff f03e 34bc 673f d771 b03e c34c 903d
000000d0: fd49 633e 9bac 6c3e 3e64 7c3e 7c51 2e3f
000000e0: 02f0 333d bc01 163e 5951 2a3e b8aa a23d
000000f0: 2110 ea3d 4f42 763d bbcb f23d 68d1 243e

encoder.4.weight f4 [128, 64, 3, 3]
0.0074505922 0.026188552 -0.030752882 0.030885592 0.021112766 -0.039861687 0.0146795465 0.014337716
-0.03870249 0.027426071 0.0022472674 0.014262275 0.0092885345 -0.022123568 0.038983405 -0.032816518
-0.040477403 0.017758233 -0.038138945 -0.011746407 -0.037047725 -0.03601243 0.027095227 0.020938516
-0.0072395313 -0.020977264 0.0012488499 -0.039757367 -0.036924817 -0.038828894 0.006622974 0.0007441025
0.00022324895 0.02927489 -0.024766406 -0.015422509 0.02054886 -0.014457675 0.0033721286 -0.018106159
-0.022325112 0.026005816 -0.018745119 -0.019949717 -0.013894208 -0.029687457 0.024280712 -0.006484004
0.008801959 0.004682855 0.0023091629 0.024518525 -0.00026048074 -0.032974876 0.0016110344 0.0061228415
0.024878427 -0.024468329 0.0005793029 -0.030672282 0.03554381 0.008312086 0.03968197 -0.03642924
0.025237776 0.010237221 0.026736552 0.0013811677 -0.0319555 0.028922176 0.02731998 0.031326458
-0.019813895 -0.009596653 -0.03314063 0.030252635 -0.024630206 -0.018068496 -0.019607838 0.015992278
-0.008649235 -0.0072110295 -0.022323204 -0.009502985 0.040627908 -0.034915965 0.03006742 0.023092518
0.005786464 -0.035000067 -0.036631696 -0.003998416 -0.008047355 -0.012454977 0.03948243 0.02218654
-0.011631589 -0.041790772 -0.04016124 -0.0041116737 0.024136448 0.004177582 -0.03941003 0.004478686
0.0054084267 0.007871019 0.034468118 -0.007433208 0.039862197 0.006652683 0.005573477 -0.010717688
0.006118182 0.0132911075 0.014764284 -0.029559094 -0.03238396 0.039369997 0.012360775 0.009287279
0.0016093513 0.005864124 -0.000438893 -0.013580201 0.026523735 -0.0015375545 0.032918118 0.029202804
0.0045628105 0.0010402971 -0.0026764635 0.005511013 0.03892591 0.038573917 -0.0004162439 -0.013114311
-0.0128415795 0.020233218 0.01870284 -0.0058064647 0.010533011 0.012365923 -0.0030998301 0.0007951522
-0.013204903 0.027528852 0.03401269 -0.017004611 -0.041316047 -0.027151657 0.02083682 -0.022224074
-0.030937312 -0.0047561806 0.023799684 -0.021004492 0.03868842 0.023376366 -0.023889918 0.036436025
0.026296755 -0.016468873 0.038589675 -0.03612308 0.039765105 0.035844564 0.004859398 -0.014876291
0.018140713 0.02061218 0.017503243 0.013819908 0.03285715 0.004218684 0.00026512297 -0.0063357186
0.0029392985 0.015372948 -0.023303531 0.036679406 -0.037000526 -0.0085673155 0.031151662 -0.040953632
-0.0037395319 0.015276913 -0.021482935 0.02939781 0.021462763 0.030175548 0.019815598 -0.033649083
-0.040543724 0.03924033 -0.02479655 0.025994001 -0.030774133 0.03154663 0.008760496 0.0030025353
0.03760434 0.009154263 -0.0024917133 0.03056569 0.031292167 -0.007912706 0.041087206 -0.035123676
-0.031738248 0.0037030412 0.032647282 0.027301794 0.002509438 0.009349007 0.028283466 0.0005482417
-0.025090517 -0.032845587 -0.026420701 -0.0313737 0.024644673 -0.026188951 -0.004551355 0.04106484
-0.014058468 0.002453057 -0.02199233 -0.033944823 -0.032634065 0.030395338 0.015525638 0.018443523
-0.007487961 0.004483194 0.012177282 -0.033360124 -0.036226273 0.004627346 0.024697632 -0.012570156
-0.011283084 0.037220534 0.002312162 -0.023098936 0.02094863 0.0015625253 0.008773284 -0.032972686
0.03507044 0.017858142 0.027764976 -0.007738339 0.010747243 0.01089249 0.0013308224 -0.011763971
00000000: 1924 f43b 6089 d63c 78ed fbbc c803 fd3c
00000010: aef4 ac3c 0246 23bd 7b82 703c bde8 6a3c
00000020: 8186 1ebd a4ac e03c e446 133b 51ac 693c
00000030: f02e 183c 7c3c b5bc 10ad 1f3d 9d6a 06bd
00000040: a2cb 25bd b779 913c 9537 1cbd 0074 40bc
00000050: 5bbf 17bd c581 13bd cff6 dd3c 4087 ab3c
00000060: 9739 edbb 83d8 abbc 73b0 a33a 9fd8 22bd
00000070: 7a3e 17bd 0c0b 1fbd 8805 d93b e00f 433a
00000080: ef17 6a39 e5d1 ef3c ebe2 cabc b1ae 7cbc
00000090: 1556 a83c e2df 6cbc eefe 5c3b 5e53 94bc
000000a0: 27e3 b6bc 260a d53c 5d8f 99bc 976d a3bc
000000b0: 88a4 63bc 1c33 f3bc 58e8 c63c c577 d4bb
000000c0: 1836 103c a372 993b 5355 173b 13db c83c
000000d0: 2291 88b9 aa10 07bd 5829 d33a 1ea2 c83b
000000e0: d8cd cb3c ce71 c8bc 5cdc 173a 7044 fbbc
000000f0: 6396 113d 6a2f 083c 9089 223d d436 15bd
00000100: 74bf ce3c 04ba 273c 9d06 db3c 4c08 b53a
00000110: c5e3 02bd 33ee ec3c 27ce df3c 2c50 003d
00000120: c050 a2bc 483b 1dbc 78be 07bd 60d4 f73c
00000130: 49c5 c9bc 6204 94bc 9ea0 a0bc 3d02 833c
00000140: 85b5 0dbc 804a ecbb 27df b6bc 68b2 1bbc
00000150: 7369 263d 0b04 0fbd f34f f63c 852c bd3c
00000160: 619c bd3b 3b5c 0fbd 1e0b 16bd 2505 83bb
00000170: 0ed9 03bc f60f 4cbc 54b8 213d 8cc0 b53c
00000180: 6c92 3ebc cd2c 2bbd 1d80 24bd 38bb 86bb
00000190: cdb9 c53c 19e4 883b 696c 21bd f1c1 923b
000001a0: 2c39 b13b 72f5 003c 712e 0d3d 4592 f3bb
000001b0: 8b46 233d c0fe d93b b7a1 b63b 3e99 2fbc
000001c0: 087b c83b f2c2 593c e5e5 713c ea25 f2bc
000001d0: 0ba5 04bd 6f42 213d d984 4a3c ac29 183c
000001e0: def0 d23a d627 c03b 391b e6b9 7e7f 5ebc
000001f0: 4e48 d93c c587 c9ba 26d5 063d b83a ef3c
00000200: a183 953b 945a 883a 9b67 2fbb ba95 b43b
00000210: c670 1f3d afff 1d3d 503b dab9 68dd 56bc
00000220: 7d65 52bc 22c0 a53c b336 993c 2844 bebb
00000230: a692 2c3c 719a 4a3c 8526 4bbb c371 503a
00000240: 6159 58bc 3084 e13c e450 0b3d 414d 8bbc
00000250: 043b 29bd 276d debc fbb1 aa3c 430f b6bc
00000260: 3f70 fdbc bcd9 9bbb 8ef7 c23c 9d11 acbc
00000270: c077 1e3d cb7f bf3c cab4 c3bc f13d 153d
00000280: 4b6c d73c bbe9 86bc 3510 1e3d cbf5 13bd
00000290: bce0 223d c0d1 123d 963b 9f3b b0bb 73bc
000002a0: d59b 943c e0da a83c f662 8f3c e56c 623c
000002b0: 3895 063d e33c 8a3b 3400 8b39 dc9b cfbb
000002c0: 3fa1 403b d1de 7b3c 0ce7 bebc 253d 163d
000002d0: dd8d 17bd ed5d 0cbc c531 ff3c ffbe 27bd
000002e0: ef12 75bb 044c 7a3c fbfc afbc add3 f03c
000002f0: add2 af3c b632 f73c 5254 a23c 9fd3 09bd
00000300: 2d11 26bd 78ba 203d 2222 cbbc 5ff1 d43c
00000310: 091a fcbc 0a37 013d 2f88 0f3c 2fc6 443b
00000320: 0207 1a3d c3fb 153c 034c 23bb e664 fa3c
00000330: 372c 003d 4ba4 01bc 0f4b 283d d8dd 0fbd
00000340: f7ff 01bd b9ae 723b 28b9 053d 03a8 df3c
00000350: 6275 243b 942c 193c bab2 e73c e1b7 0f3a
00000360: a18a cdbc 1889 06bd 3a70 d8bc b581 00bd
00000370: a0e3 c93c 368a d6bc 8823 95bb 9b33 283d
00000380: 7d55 66bc 78c3 203b 4229 b4bc ba09 0bbd
00000390: 4cab 05bd a5ff f83c 3f5f 7e3c df16 973c
000003a0: 925d f5bb c2e7 923b 3983 473c a0a4 08bd
000003b0: 0062 14bd fea0 973b b052 ca3c 0ef3 4dbc
000003c0: afdc 38bc 8f74 183d a487 173b fb39 bdbc
000003d0: 769c ab3c a6cd cc3a d2bd 0f3c 5e0e 07bd
000003e0: 06a6 0f3d 3d4b 923c 6073 e33c e491 fdbb
000003f0: 3415 303c 6a76 323c fd6e ae3a acbd 40bc

encoder.4.bias f4 [128]
0.0050219656 -0.007219423 0.03771239 0.034797464 -0.018345112 0.039943717 0.014421771 0.013448088
0.033023074 0.014406341 -0.027771452 -0.027360458 -0.022468954 -0.0302184 -0.020167315 0.0016363813
-0.01233399 0.033856686 0.03715625 -0.012968798 0.010407695 -0.012342696 -0.0048643164 0.00038196414
-0.022387195 0.040700566 -0.039759424 0.03268285 -0.034620844 -0.017304761 0.00392583 -0.021894319
-0.03720695 0.015986985 0.024311064 -0.034759335 -0.009746652 -0.0038565388 0.01825521 0.021583097
-0.013534639 -0.04061094 -0.029260777 0.024231771 -0.007884314 0.032747943 -0.012557485 0.03757666
0.026614292 0.031928185 -0.008405177 -0.032551605 -0.024478422 0.0031808617 -0.00065952196 0.037307695
0.011316936 -0.026076462 -0.014478649 0.006740678 0.025653038 0.02264395 -0.025169617 0.016819678
-0.040387128 0.037240967 0.037961945 0.024628295 0.026654199 -0.023380434 -0.019473905 -0.0014230242
0.019393278 0.02912206 0.016964894 0.015257004 0.03030473 0.017375425 -0.002060344 0.036414128
0.029234199 -0.038862437 -0.008554884 0.022252064 0.015500584 -0.0076883547 -0.029282877 -0.008531685
0.026899943 -0.005414574 -0.04123496 0.021405281 0.0011852148 -0.009248018 -0.036221407 0.010446834
-0.014634068 -0.0027456817 -0.033995196 -0.016882991 0.029454635 -0.030039005 -0.023510536 -0.00033035123
0.022274526 -0.021903267 0.022690594 0.035277247 0.013736923 -0.029167397 -0.0075983955 -0.0065423823
-0.024092618 -0.026725912 -0.03335038 -0.03696273 -0.018674746 0.0094015235 0.017861411 0.035076357
-0.022278786 -0.03805426 0.011684774 -0.013864842 0.028278826 -0.03491098 0.031979077 0.022359299
00000000: 4d8f a43b e990 ecbb 4f78 1a3d c987 0e3d
00000010: 7d48 96bc 069c 233d 4b49 6c3c 5f55 5c3c
00000020: 3443 073d 9308 6c3c f580 e3bc 0a23 e0bc
00000030: d010 b8bc 948c f7bc ed35 a5bc d87b d63a
00000040: 8114 4abc 4fad 0a3d 2731 183d 157b 54bc
00000050: 0985 2a3c 0539 4abc d864 9fbb 5c42 c839
00000060: 5a65 b7bc a3b5 263d c7da 22bd 74de 053d
00000070: 96ce 0dbd b7c2 8dbc 40a4 803b b75b b3bc
00000080: 5166 18bd 23f7 823c ff27 c73c ce5f 0ebd
00000090: 6cb0 1fbc fcbd 7cbb f38b 953c 09cf b03c
000000a0: 64c0 5dbc a857 26bd 4cb4 efbc b581 c63c
000000b0: 362d 01bc b522 063d e9bd 4dbc fce9 193d
000000c0: 3706 da3c 21c7 023d deb5 09bc d554 05bd
000000d0: f986 c8bc 0176 503b c5e3 2cba f4cf 183d
000000e0: ac6a 393c 4e9e d5bc db37 6dbc e8e0 dc3b
000000f0: 5226 d23c ce7f b93c 8330 cebc 6cc9 893c
00000100: f96c 25bd fc89 183d fc7d 1b3d 47c1 c93c
00000110: e859 da3c 5388 bfbc bd87 9fbc c584 baba
00000120: a7de 9e3c 6391 ee3c f6f9 8a3c 83f8 793c
00000130: a041 f83c e856 8e3c d606 07bb fb26 153d
00000140: 8f7c ef3c 382e 1fbd c929 0cbc f649 b63c
00000150: 29f6 7d3c 98ee fbbb a5e2 efbc 7bc8 0bbc
00000160: 455d dc3c bd6c b1bb fde5 28bd 215a af3c
00000170: 3659 9b3a 0085 17bc e65c 14bd 3329 2b3c
00000180: bbc3 6fbc e5f0 33bb 8c3e 0bbd 334e 8abc
00000190: d94a f13c 5c14 f6bc 2b99 c0bc fe32 adb9
000001a0: 1179 b63c 7b6e b3bc a0e1 b93c e07e 103d
000001b0: d510 613c 77f0 eebc f6fb f8bb 7b61 d6bb
000001c0: e25d c5bc 4df0 dabc 689a 08bd 3b66 17bd
000001d0: c8fb 98bc d908 1a3c 1852 923c 3aac 0f3d
000001e0: 0082 b6bc c9de 1bbd 7f71 3f3c 5d29 63bc
000001f0: ffa8 e73c d1fe 0ebd 7efc 023d d92a b73c

encoder.5.weight f4 [128]
1.0006078 1.0001122 1.0003713 1.0006311 1.0005951 1.0007218 1.0000598 1.000246
1.0006115 0.999666 0.99994713 1.0000339 0.99930876 1.0007203 0.99997723 1.0004991
0.999488 1.0005567 0.9996914 0.9994181 1.0003009 1.0003184 0.99964374 0.9994316
1.0005977 0.9992716 0.99915564 0.99937147 0.9996204 0.9999145 0.99964684 1.000646
1.0004164 1.000511 1.0000718 0.99955606 0.9997342 0.9990669 1.000084 1.0007192
1.0001793 0.99991673 1.0007612 0.99925935 1.0009305 0.99992347 1.000556 1.0001338
0.99975824 1.000684 0.9999136 1.0002742 0.99939626 0.99987483 1.000125 0.99893075
0.9989882 1.0000087 1.0001323 0.99981314 1.0005747 1.0005188 0.9997004 0.9999569
0.9991024 0.99953514 1.0003176 1.0003664 0.999649 0.9993304 1.0001689 0.99906886
1.0006664 1.0002376 1.000181 1.000132 0.9997396 1.0002068 0.9990536 1.0003414
0.9992495 0.99961185 1.0006635 1.0005356 0.9997432 1.0008899 0.99951 0.9995196
1.0000776 0.99968445 0.9993255 0.99942625 0.9998907 0.99960023 1.000723 1.0003501
0.99979335 0.999604 0.9998327 0.9990339 0.99960124 1.0000713 1.0003226 1.0000875
0.9997751 0.99985653 0.9992746 0.9999686 0.9990047 1.0005031 0.9999875 1.0005767
0.9998065 1.000093 0.99961215 1.0004568 1.0003624 0.9996769 1.0002267 0.99907357
0.9999953 1.0009062 0.99939793 1.0000628 0.9997145 0.99956167 1.0002459 0.9993608
00000000: eb13 803f ad03 803f 2b0c 803f ae14 803f
00000010: 8013 803f a717 803f f601 803f 1008 803f
00000020: 0a14 803f 1cea 7f3f 89fc 7f3f 1c01 803f
00000030: b3d2 7f3f 9a17 803f 82fe 7f3f 5b10 803f
00000040: 72de 7f3f 3e12 803f c7eb 7f3f ddd9 7f3f
00000050: dc09 803f 6f0a 803f a7e8 7f3f c0da 7f3f
00000060: 9613 803f 43d0 7f3f aac8 7f3f cfd6 7f3f
00000070: 1fe7 7f3f 66fa 7f3f dbe8 7f3f 2b15 803f
00000080: a50d 803f bf10 803f 5a02 803f e8e2 7f3f
00000090: 95ee 7f3f d9c2 7f3f c102 803f 9117 803f
000000a0: e005 803f 8bfa 7f3f f118 803f 76cf 7f3f
000000b0: 7e1e 803f fcfa 7f3f 3812 803f 6204 803f
000000c0: 28f0 7f3f 6a16 803f 56fa 7f3f fc08 803f
000000d0: 6fd8 7f3f ccf7 7f3f 1904 803f edb9 7f3f
000000e0: b1bd 7f3f 4900 803f 5604 803f c1f3 7f3f
000000f0: d512 803f 0011 803f 5eec 7f3f 2dfd 7f3f
00000100: 2dc5 7f3f 89e1 7f3f 680a 803f 020c 803f
00000110: ffe8 7f3f 1ed4 7f3f 8905 803f fac2 7f3f
00000120: d615 803f c907 803f ee05 803f 5304 803f
00000130: efee 7f3f c706 803f fac1 7f3f 300b 803f
00000140: d1ce 7f3f 90e6 7f3f be15 803f 8d11 803f
00000150: 2cef 7f3f 291d 803f e3df 7f3f 84e0 7f3f
00000160: 8b02 803f 52eb 7f3f ccd3 7f3f 66da 7f3f
00000170: d6f8 7f3f cde5 7f3f b117 803f 790b 803f
00000180: 75f2 7f3f 0ce6 7f3f 09f5 7f3f b0c0 7f3f
00000190: dee5 7f3f 5602 803f 920a 803f de02 803f
000001a0: 43f1 7f3f 99f6 7f3f 76d0 7f3f f1fd 7f3f
000001b0: c6be 7f3f 7c10 803f 2eff 7f3f e612 803f
000001c0: 52f3 7f3f 0c03 803f 95e6 7f3f f80e 803f
000001d0: e00b 803f d3ea 7f3f 6e07 803f 49c3 7f3f
000001e0: b1ff 7f3f b21d 803f 8bd8 7f3f 0f02 803f
000001f0: 4aed 7f3f 46e3 7f3f 0f08 803f 1cd6 7f3f

encoder.5.bias f4 [128]
-0.00083826535 0.00015709123 -0.00013342783 0.0009225012 0.0007994869 0.00025117138 0.00032420232 0.0008421404
0.0009138903 -0.00045172745 -0.0006664813 0.00080412294 -0.0007838547 0.0002876205 -0.0003157688 0.00048065258
2.0979987e-05 0.0006704628 0.0002153264 -0.00065601984 0.0005013323 0.00029203953 0.00057852076 -0.00077036064
0.0006948144 -0.0009674488 -0.0008375631 -0.00038566996 -0.0007927199 -0.0007765226 -0.0006149296 -0.0006036172
-0.0004209147 -1.052156e-05 -0.00034063167 0.00012430789 -0.00042647784 -0.00073095155 -0.0003486777 -0.00032822366
-0.00029788626 2.1908663e-05 0.0005776199 -0.0005397788 0.0006568866 -0.0007110128 0.0005092082 0.00039808624
-0.00024529663 0.0006846167 -2.3281771e-05 0.00012564295 -0.0007529053 0.0008763244 0.0006381236 -0.0009505135
-0.00088499335 -0.000420735 8.042025e-05 -0.00036454416 0.00067206786 0.00085370225 -0.0005409617 -0.00043439493
0.000708548 0.00072681945 0.0009606406 0.00044841715 0.0005767928 -0.000617907 0.0007377415 -0.00096223113
0.00071612984 0.0007882325 4.2915424e-05 -0.00054333016 -0.00035320205 0.00010271467 -0.0005302706 0.00046657675
-0.00027694248 -0.00070018537 0.00044264362 0.00021521882 9.48412e-05 0.00090674293 -0.00051130983 -0.0007887811
-0.0008058135 -0.00054951623 -0.00037602204 -0.0006351278 7.44809e-06 0.0007976518 0.00092630734 0.00059305487
0.00021964451 -8.549246e-05 0.00040931004 -0.00084712007 -0.00035631424 -0.0005437441 0.00039122818 0.00039498348
0.00015719084 0.0006004914 -0.00058422075 9.7502045e-05 -0.00073918595 0.0007613699 0.00053562014 0.0002036846
0.00033571105 -0.00013203047 -0.0006399177 0.0005679331 -0.00053156837 -7.8129895e-05 -4.6398203e-05 -0.0007780669
-0.00017361122 0.00062821526 -0.0006237484 0.00032824173 -6.249983e-05 -0.0006141992 0.0003999958 -0.000593317
00000000: 09bf 5bba dbb8 2439 c3e8 0bb9 02d4 713a
00000010: a894 513a a7af 8339 b3f9 a939 16c3 5c3a
00000020: 2492 6f3a d5d5 ecb9 ceb6 2eba c7cb 523a
00000030: 997b 4dba c5cb 9639 c58d a5b9 1900 fc39
00000040: 2efe af37 ffc1 2f3a 3ec9 6139 bff8 2bba
00000050: d76b 033a e21c 9939 dfa7 173a 07f2 49ba
00000060: 3424 363a 649c 7dba e88f 5bba bf33 cab9
00000070: 88ce 4fba 8d8f 4bba 3a33 21ba 113c 1eba
00000080: 37ae dcb9 c285 30b7 cf96 b2b9 a558 0239
00000090: e398 dfb9 549d 3fba bbce b6b9 6f15 acb9
000000a0: 9e2d 9cb9 7fc8 b737 6a6b 173a f17f 0dba
000000b0: ea32 2c3a 4363 3aba 627c 053a 3bb6 d039
000000c0: 289b 80b9 d977 333a 394d c3b7 06bf 0339
000000d0: 9f5e 45ba 23b9 653a c047 273a e22b 79ba
000000e0: e6fe 67ba 1996 dcb9 4ba7 a838 4a20 bfb9
000000f0: b62d 303a fdca 5f3a 53cf 0dba 80bf e3b9
00000100: dabd 393a 0788 3e3a 80d3 7b3a 8819 eb39
00000110: e933 173a 09fb 21ba fe64 413a 3d3e 7cba
00000120: a9ba 3b3a 63a1 4e3a 1600 3438 456e 0eba
00000130: fa2d b9b9 8568 d738 dc01 0bba df9e f439
00000140: 9732 91b9 a58c 37ba 9f12 e839 5dac 6139
00000150: 7be5 c638 7db2 6d3a 6c09 06ba 34c6 4eba
00000160: 3b3d 53ba 690d 10ba d324 c5b9 b57e 26ba
00000170: 9bea f936 8219 513a 6fd3 723a 3d77 1b3a
00000180: 6050 6639 6a4a b3b8 aa98 d639 4411 5eba
00000190: b0cf bab9 0d8a 0eba c21d cd39 c915 cf39
000001a0: 98d3 2439 4c6a 1d3a 6426 19ba 037a cc38
000001b0: eec5 41ba ab96 473a dc68 0c3a 2b94 5539
000001c0: 6002 b039 a971 0ab9 26c0 27ba 58e1 143a
000001d0: f358 0bba abd9 a3b8 b19b 42b8 30f7 4bba
000001e0: 680b 36b9 d0ae 243a 0c83 23ba dc17 ac39
000001f0: 5712 83b8 3602 21ba 87b6 d139 d488 1bba

encoder.5.running_mean f4 [128]
0.12726648 0.3145284 0.052427392 0.16481961 0.07980137 0.124067694 0.3357164 0.32047316
0.10523372 -0.049172774 -0.43200207 -0.35953012 -0.19441654 -0.10222921 -0.37796482 0.2012523
-0.2366688 0.42925563 0.06778175 -0.08644992 -0.08376285 0.55835575 -0.25998595 -0.022973767
-0.7424907 -0.045912348 -0.069652565 -0.075030856 -0.22776082 0.16443431 0.20684794 0.49467772
0.22388604 0.2740881 -0.199742 0.0051957844 0.07113478 -0.17424716 0.2076183 0.14911495
0.44032836 0.30930507 -0.3352337 -0.12686276 -0.24836756 0.06772438 0.2968394 -0.35575542
0.15043706 0.047509246 -0.39421922 -0.8297561 -0.1788409 -0.2762804 0.13460453 -0.2891298
0.38800997 0.08299147 0.058042046 0.40808657 -0.29251888 0.5034516 0.5282501 0.035838023
-0.25602373 0.30615082 0.38829586 -0.3757371 -0.02109094 0.12245159 0.1482743 0.29196337
-0.40722612 0.3948236 0.19826598 0.29573157 -0.3293241 -0.20097893 -0.017393086 -0.013336401
-0.3299886 0.46514264 0.105585575 -0.008703678 0.08979849 -0.68468326 0.15394484 -0.66769433
0.31090638 -0.10230395 -0.10986246 0.38239416 -0.6273988 -0.23588575 -0.058656197 0.37149346
-0.36203498 0.29370844 -0.27418312 0.45319209 -0.04014456 0.15984678 0.23267223 0.4131712
0.11563161 -0.335939 0.104105465 -0.21582046 -0.24134955 0.060715087 0.16404067 0.10748737
-0.44751948 0.23951691 0.43811357 -0.1356322 0.24875553 -0.11561171 0.4657141 -0.05888462
0.054039966 0.37530258 -0.3700053 0.3546472 0.33900037 0.43614304 0.100374624 0.15721935
00000000: 2552 023e de09 a13e 1bbe 563d 79c6 283e
00000010: e76e a33d 3417 fe3d 05e3 ab3e 0f15 a43e
00000020: c784 d73d 6469 49bd 602f ddbe 5514 b8be
00000030: 2115 47be 8c5d d1bd 9b84 c1be 1515 4e3e
00000040: 4e59 72be 65c7 db3e 28d1 8a3d a80c b1bd
00000050: db8b abbd 67f0 0e3f e11c 85be 7b33 bcbc
00000060: df13 3ebf 960e 3cbd 01a6 8ebd c7a9 99bd
00000070: 223a 69be 7861 283e f2cf 533e 6646 fd3e
00000080: 6242 653e 4755 8c3e 2b89 4cbe 6641 aa3b
00000090: 1daf 913d d96d 32be e499 543e 97b1 183e
000000a0: b872 e13e 3c5d 9e3e c0a3 abbe 50e8 01be
000000b0: 1154 7ebe 14b3 8a3d 55fb 973e 9325 b6be
000000c0: 2c0c 1a3e 0e99 423d 1ad7 c9be e56a 54bf
000000d0: 1222 37be a074 8dbe c5d5 093e d208 94be
000000e0: 3ea9 c63e 6ff7 a93d 7fbd 6d3d b9f0 d03e
000000f0: 09c5 95be 34e2 003f 663b 073f e4ca 123d
00000100: 8b15 83be cdbf 9c3e b7ce c63e 9d60 c0be
00000110: e8c6 acbc e6c7 fa3d 38d5 173e 397c 953e
00000120: f17f d0be 5226 ca3e 3d06 4b3e 216a 973e
00000130: 2b9d a8be 6ccd 4dbe f27b 8ebc ec80 5abc
00000140: 44f4 a8be 2d27 ee3e 403d d83d df99 0ebc
00000150: 45e8 b73d 6747 2fbf b7a3 1d3e 04ee 2abf
00000160: 1f2f 9f3e bc84 d1bd 92ff e0bd 2bc9 c33e
00000170: 359d 20bf 098c 71be 7b41 70bd 6434 be3e
00000180: a65c b9be f460 963e bb61 8cbe cb08 e83e
00000190: 9f6e 24bd e0ae 233e a141 6e3e 2d8b d33e
000001a0: 44d0 ec3d 3200 acbe 3f35 d53d 0a00 5dbe
000001b0: 5624 77be 62b0 783d 47fa 273e 5722 dc3d
000001c0: 4621 e5be ec43 753e 6c50 e03e 2be3 0abe
000001d0: c5b9 7e3e d5c5 ecbd 1472 ee3e 0031 71bd
000001e0: 0359 5d3d a927 c03e 5671 bdbe 5194 b53e
000001f0: 7591 ad3e 244e df3e 3691 cd3d 1cfe 203e

encoder.5.running_var f4 [128]
0.110838324 0.08466701 0.16414243 0.08942559 0.11635922 0.14822683 0.16994055 0.10812415
0.1247897 0.10545178 0.19369867 0.2192584 0.22420003 0.15861686 0.35672998 0.06521686
0.07564866 0.50402313 0.06290688 0.057477634 0.09299604 0.1874841 0.22989738 0.08593042
0.4228411 0.10939352 0.11021063 0.24094625 0.15743972 0.07642609 0.1160715 0.17948137
0.17761557 0.08655266 0.090852164 0.05890803 0.08618555 0.08569265 0.074903145 0.06126451
0.14460793 0.27527878 0.1115596 0.11966764 0.37867877 0.09880431 0.14828388 0.17265786
0.077056855 0.2047299 0.11963172 0.27189007 0.09611678 0.06060619 0.12139958 0.10138183
0.22024655 0.2372797 0.16649261 0.20170057 0.14138213 0.30319837 0.17055622 0.11174176
0.073428 0.27950147 0.27602664 0.10396977 0.097024634 0.22594714 0.1439485 0.17049487
0.10873112 0.24376567 0.07067008 0.14175628 0.3371246 0.26464194 0.08330191 0.12366592
0.13837615 0.16370645 0.13617314 0.11411076 0.193699 0.24115825 0.0923149 0.1867992
0.13793074 0.06742481 0.18849246 0.33184686 0.27459726 0.15364873 0.1068606 0.12756053
0.23218182 0.15819915 0.10794224 0.13810821 0.19199207 0.17720212 0.5297817 0.18128286
0.060845077 0.15355985 0.16443293 0.20730917 0.14927487 0.14624803 0.08119365 0.06989911
0.38100907 0.2737744 0.14407006 0.16524367 0.10608699 0.077662416 0.1730985 0.09332636
0.16120036 0.15377547 0.112051375 0.943841 0.132324 0.115241736 0.11892988 0.07973666
00000000: 34ff e23d e665 ad3d f414 283e c424 b73d
00000010: be4d ee3d c6c8 173e e504 2e3e 3270 dd3d
00000020: be91 ff3d 1af7 d73d f258 463e 4685 603e
00000030: b194 653e 756c 223e 50a5 b63e 6b90 853d
00000040: afed 9a3d a907 013f 53d5 803d ab6d 6b3d
00000050: b574 be3d d5fb 3f3e 386a 6b3e 4afc af3d
00000060: a17e d83e b609 e03d 1cb6 e13d 9dba 763e
00000070: e137 213e 4885 9c3d e5b6 ed3d f7c9 373e
00000080: dbe0 353e 8542 b13d b310 ba3d 8c49 713d
00000090: 0d82 b03d a17f af3d d266 993d 7ff0 7a3d
000000a0: 1a14 143e 57f1 8c3e 5c79 e43d 4f14 f53d
000000b0: 2fe2 c13e ea59 ca3d bbd7 173e 39cd 303e
000000c0: fccf 9d3d b7a4 513e 7a01 f53d 2d35 8b3e
000000d0: e0d8 c43d 323e 783d 58a0 f83d 47a1 cf3d
000000e0: 5088 613e 73f9 723e 0a7d 2a3e 988a 4e3e
000000f0: 7ac6 103e d13c 9b3e 4aa6 2e3e ddd8 e43d
00000100: 6b61 963d d11a 8f3e 5d53 8d3e 1aee d43d
00000110: dab4 c63d b05e 673e 3c67 133e 3596 2e3e
00000120: 6cae de3d b59d 793e 7abb 903d 8f28 113e
00000130: 989b ac3e 267f 873e 319a aa3d 8f44 fd3d
00000140: 7ab2 0d3e aaa2 273e f970 0b3e e7b2 e93d
00000150: 0859 463e 30f2 763e 980f bd3d 4a48 3f3e
00000160: b73d 0d3e 0516 8a3d 2b04 413e d5e7 a93e
00000170: 0398 8c3e 1856 1d3e bbd9 da3d 3a9f 023e
00000180: 12c1 6d3e f5fe 213e d210 dd3d 3d6c 0d3e
00000190: 9299 443e 7974 353e c69f 073f 37a2 393e
000001a0: b038 793d cb3e 1d3e 1b61 283e db48 543e
000001b0: 83db 183e 0bc2 153e db48 a63d 4427 8f3d
000001c0: 9f13 c33e 282c 8c3e 1a87 133e a335 293e
000001d0: 2344 d93d 790d 9f3d bc40 313e e421 bf3d
000001e0: b511 253e 5177 1d3e 317b e53d 909f 713f
000001f0: f17f 073e dc03 ec3d 8291 f33d f94c a33d

decoder.0.weight f4 [64, 128, 3, 3]
0.013628885 -0.02545458 0.02797091 0.008456605 -0.024486924 0.0046836957 -0.011012896 0.0066438774
-0.007357099 -0.00908042 0.017859226 0.019641658 0.022022795 0.00497989 0.0038120328 -0.0012881533
0.004885746 0.015844366 -0.012030383 0.021662578 0.008028636 0.018106684 -0.016223181 0.02880904
0.011069034 -0.0010461198 -0.009843331 -0.01038877 -0.015985535 0.014971185 0.020247702 0.0013976741
-0.019078199 0.002934554 0.0064376057 -0.0064800195 -0.014362098 -0.0015422258 0.0086270105 0.01822657
0.028758317 0.020977806 0.025377706 0.025216492 0.019656172 -0.019426653 -0.01715558 -0.0025260844
0.016427465 -0.017786048 0.002695283 -0.026977561 0.004672936 0.021403175 0.02501392 -0.017540975
-0.023895033 -0.015202678 -0.008269762 0.011472279 -0.0021946004 -0.0019256633 -0.020804763 -0.018235467
0.012232728 -0.024722436 0.008398626 0.022735689 -0.006928644 0.017878009 -0.022888733 -0.010281212
-0.01977614 0.018436205 -0.024293706 0.02683844 0.0020343699 -0.012556485 -0.0065038893 -0.0039011105
-0.016433137 -0.0052516535 -0.0041322494 -0.024281135 -0.0134755215 0.01753033 -0.0050112996 0.0051220856
-0.024323488 0.026244154 -0.006773597 0.016764553 0.01304239 -0.0032639103 0.027819276 -0.016851926
0.0052139694 0.00884549 -0.020175224 -0.00917149 -0.0017562036 0.009942968 -0.022536775 -0.01573068
0.010738396 -0.010427198 -0.019488648 0.014921171 0.0055507836 0.0045054043 -0.0007064952 0.023603879
-0.014672302 -0.006623708 -0.027939828 -0.014492733 0.02022627 -0.0034240286 -0.022896927 -0.013929019
-0.0021540194 0.007829135 0.01678539 0.025829293 0.022824047 0.0031170063 0.02764349 0.023810918
0.0038556072 -0.0061910767 -0.009488268 -0.0024015412 -0.023847582 0.017924428 0.012319575 -0.021669548
0.0052713635 -0.0018755409 -0.002912442 -0.02206562 -0.02025608 0.013867902 0.014853315 -0.009614555
0.015987802 -0.011261584 0.00043974607 0.012664886 0.018729717 -0.02455434 0.004313172 -0.020364309
0.011386935 -0.019879883 0.0015891163 -0.024536895 0.021628581 -0.013222208 -0.00935574 0.0026974967
0.016011827 0.0081697935 -0.02054058 0.022200132 -0.011463454 0.012215399 -0.017110478 0.023142226
-0.00649983 0.011287899 0.006432056 0.024374701 0.025628684 0.027941601 -0.018964905 0.015562652
0.02010694 -0.015142067 -0.0077008954 -0.0030577555 -0.004630876 0.027775515 0.020110006 0.0029739977
0.024460359 -0.026802568 -0.019839488 -0.0096557 -0.02286726 -0.010023714 0.01828172 -0.02143488
0.009628583 -0.004740217 0.01940018 -0.02187546 -0.015778288 -0.025590738 0.025409086 -0.029531091
0.010665932 0.0052003497 -0.012382508 -0.026428003 0.0023147338 0.01958525 0.014003628 -0.018407743
0.010821003 0.017538147 0.01985274 0.0051002917 0.0009929517 -0.007826715 0.025564082 0.026773613
-0.0066341055 0.011711694 0.004422375 -0.029466812 0.027695125 -0.027245924 -0.0155901825 -0.022780377
0.0053800144 0.020515721 -0.022117563 -0.0045588817 -0.004240399 0.016681578 -0.0045277514 0.0020671415
0.025749404 -0.015179203 -0.0010494991 -0.0056848074 0.029033322 0.02646616 -0.008548548 0.0042975326
0.019580139 -0.022190021 0.004297507 0.018259708 -0.0003327262 -0.027749633 -0.017332664 -0.013178215
0.0035088256 -0.019711949 0.027197056 0.01892302 -0.005982492 -0.0044735414 0.024287093 -0.0132153
00000000: b04b 5f3c 2086 d0bc 4023 e53c 928d 0a3c
00000010: cd98 c8bc b079 993b 6f6f 34bc e2b4 d93b
00000020: d213 f1bb 0bc6 14bc 834d 923c 8be7 a03c
00000030: 2669 b43c 582e a33b 4cd3 793b 41d7 a8ba
00000040: 9c18 a03b 0bcc 813c 151b 45bc b875 b13c
00000050: 8a8a 033c 7854 943c 7ae6 84bc f000 ec3c
00000060: e55a 353c f51d 89ba ec45 21bc a935 2abc
00000070: 19f4 82bc b349 753c 82de a53c 2932 b73a
00000080: e249 9cbc a551 403b 8df2 d23b 5856 d4bb
00000090: 014f 6bbc 8324 caba 4e58 0d3c e34f 953c
000000a0: 9096 eb3c a6d9 ab3c e8e4 cf3c d192 ce3c
000000b0: fb05 a13c a524 9fbc dc89 8cbc aa8c 25bb
000000c0: e492 863c 0cb4 91bc 58a3 303b 0c00 ddbc
000000d0: 6e1f 993b b655 af3c fee9 cc3c 17b2 8fbc
000000e0: 84bf c3bc a714 79bc e57d 07bc 3af6 3b3c
000000f0: 49d3 0fbb 8a66 fcba c06e aabc 8c62 95bc
00000100: c86b 483c b586 cabc 649a 093c 3240 ba3c
00000110: ae09 e3bb e774 923c 2781 bbbc 8772 28bc
00000120: 9201 a2bc 8607 973c 9803 c7bc 4adc db3c
00000130: 1053 053b b7b9 4dbc 941e d5bb c6a9 7fbb
00000140: c99e 86bc 1016 acbb d267 87bb 3be9 c6bc
00000150: 6fc8 5cbc c49b 8f3c d435 a4bb 2bd7 a73b
00000160: 0d42 c7bc fbfd d63c 0df5 ddbb d155 893c
00000170: c0af 553c 54e7 55bb 40e5 e33c 0d0d 8abc
00000180: f2d9 aa3b adec 103c 8346 a5bc 0444 16bc
00000190: 6a30 e6ba d5e7 223c 0b9f b8bc a1dd 80bc
000001a0: 19f0 2f3c d7d6 2abc a8a6 9fbc ed77 743c
000001b0: 59e3 b53b 12a2 933b 1734 39ba ec5c c13c
000001c0: 1864 70bc b10b d9bb 11e2 e4bc ee72 6dbc
000001d0: 90b1 a53c ab65 60bb 5692 bbbc 8a36 64bc
000001e0: 732a 0dbb c645 003c 8481 893c f497 d33c
000001f0: 7ff9 ba3c b046 4c3b 9a74 e23c 1d0f c33c
00000200: 5bae 7c3b 84de cabb ae74 1bbc 2d63 1dbb
00000210: 015c c3bc 40d6 923c 0bd8 493c 5684 b1bc
00000220: 67bb ac3b b6d4 f5ba abde 3ebb f6c2 b4bc
00000230: 14f0 a5bc 3236 633c 525b 733c 5e86 1dbc
00000240: daf8 823c 8282 38bc b88d e639 6280 4f3c
00000250: 106f 993c 2f26 c9bc 8255 8d3b 0dd3 a6bc
00000260: 4490 3a3c 23db a2bc e549 d03a 9901 c9bc
00000270: 6c2e b13c f6a1 58bc d148 19bc 7cc8 303b
00000280: 3c2b 833c 99da 053c b844 a8bc 0ddd b53c
00000290: 36d1 3bbc 1923 483c 462b 8cbc c494 bd3c
000002a0: 87fc d4bb e1f0 383c ffc3 d23b 74ad c73c
000002b0: 3ff3 d13c c9e5 e43c 4a5c 9bbc 7efa 7e3c
000002c0: 4fb7 a43c 6f16 78bc cb57 fcbb a064 48bb
000002d0: 9abe 97bb 7a89 e33c bdbd a43c 67e7 423b
000002e0: 1761 c83c 0f91 dbbc 6c86 a2bc f132 1ebc
000002f0: 1f54 bbbc 813a 24bc 8cc3 953c 3498 afbc
00000300: 34c1 1d3c d253 9bbb 20ed 9e3c 2a34 b3bc
00000310: 7841 81bc aba3 d1bc b726 d03c 30eb f1bc
00000320: 29c0 2e3c b267 aa3b 01e0 4abc 8a7f d8bc
00000330: cab2 173b 3f71 a03c 796f 653c d6cb 96bc
00000340: 934a 313c 29ac 8f3c 37a2 a23c 5920 a73b
00000350: ee25 823a 9f3b 00bc c46b d13c 5654 db3c
00000360: e962 d9bb 68e2 3f3c 92e9 903b 6264 f1bc
00000370: e3e0 e23c d832 dfbc f76d 7fbc ea9d babc
00000380: d54a b03b 9610 a83c e42f b5bc ac62 95bb
00000390: 0cf3 8abb cea7 883c 885d 94bb e178 073b
000003a0: 6af0 d23c 31b2 78bc 598f 89ba 9f47 babb
000003b0: 4ad7 ed3c 8fcf d83c 360f 0cbc 51d2 8c3b
000003c0: 8766 a03c d9c7 b5bc 1ad2 8c3b 6295 953c
000003d0: c171 aeb9 3353 e3bc 3bfd 8dbc 71e9 57bc
000003e0: 53f4 653b f47a a1bc 5ccc de3c 7304 9b3c
000003f0: c808 c4bb c996 92bb baf5 c63c fc84 58bc

decoder.0.bias f4 [64]
0.00038034542 0.028874816 -0.016237974 -0.00076029537 -0.0026275562 -0.01697213 0.013026161 0.0001582359
-0.0011613317 0.0065474627 0.02711474 -0.02886672 0.006605385 -0.0240535 0.018768903 -0.011133255
-0.0032546027 0.0046157925 -0.004087354 0.010926432 0.02491006 0.021752296 0.02009969 -0.0087454645
-0.029202893 0.01816937 0.016093327 0.021497332 0.0086966995 0.010361743 0.013312028 -0.024461027
0.017390639 -0.009000575 0.005060346 0.017989172 0.022540528 0.02293559 -0.029411027 -0.002245656
-0.009516646 0.0069516134 -0.019564075 0.012153698 -0.0042526885 0.0012058683 0.02617762 0.0011254633
0.0041793436 -0.0028981538 -0.016891278 0.00032136877 -0.010139183 0.012104078 0.010531027 0.02161063
0.018738098 -0.018937714 -0.018859403 0.0209279 -0.0075532333 0.0017444253 -0.018901285 0.023166431
00000000: 1969 c739 e18a ec3c 8005 85bc 8f4e 47ba
00000010: 1433 2cbb 2309 8bbc ae6b 553c 20ec 2539
00000020: d337 98ba 198c d63b bb1f de3c e679 ecbc
00000030: fc71 d83b d80b c5bc 3ec1 993c 4268 36bc
00000040: 2c4b 55bb 1340 973b 36ef 85bb c704 333c
00000050: 2f10 cc3c df31 b23c 1ba8 a43c 2349 0fbc
00000060: e83a efbc eed7 943c 27d6 833c 2c1b b03c
00000070: 9a7c 0e3c 4dc4 293c b11a 5a3c 7e62 c8bc
00000080: d076 8e3c 2677 13bc 42d1 a53b 075e 933c
00000090: eaa6 b83c 6be3 bb3c 65ef f0bc db2b 13bb
000000a0: b5eb 1bbc 5cca e33b d744 a0bc 4e20 473c
000000b0: 235a 8bbb 3a0e 9e3a 7372 d63c 4884 933a
000000c0: e0f2 883b f4ee 3dbb 945f 8abc 637d a839
000000d0: d11e 26bc 2f50 463c 548a 2c3c c708 b13c
000000e0: a480 993c 4423 9bbc 097f 9abc fd70 ab3c
000000f0: 1d81 f7bb 33a5 e43a ded6 9abc 87c7 bd3c

decoder.1.weight f4 [64]
0.99913365 0.99959564 0.9996897 0.9997229 1.0002342 0.99996054 1.0007719 0.99892247
1.0008783 1.000073 0.9999637 0.9993511 0.9995324 0.99984014 1.0009311 0.9999755
1.0002154 0.99943465 1.0006335 0.9993081 1.0002693 0.9992878 0.9996308 1.0007042
1.0004938 1.0007025 1.0007 1.0005203 0.9996814 0.9997566 1.0001097 0.99944323
0.9997194 0.99985355 1.0006604 0.999743 0.9996273 1.0008626 1.0000032 1.0006477
1.000439 0.9993482 1.0007079 0.9993835 1.0006912 1.0000161 0.9989205 1.0002766
0.9997735 0.99987566 1.0001305 0.99916303 0.9997502 1.0007691 1.0009614 0.99992645
1.0001649 1.0002787 1.0000079 1.000041 0.999667 0.9991938 1.0002222 0.99891526
00000000: 39c7 7f3f 80e5 7f3f aaeb 7f3f d7ed 7f3f
00000010: ad07 803f 6afd 7f3f 4b19 803f 62b9 7f3f
00000020: c81c 803f 6402 803f 9ffd 7f3f 79d5 7f3f
00000030: 5be1 7f3f 86f5 7f3f 831e 803f 65fe 7f3f
00000040: 0f07 803f f3da 7f3f c214 803f a8d2 7f3f
00000050: d308 803f 53d1 7f3f cee7 7f3f 1317 803f
00000060: 2e10 803f 0517 803f f016 803f 0d11 803f
00000070: 1feb 7f3f 0cf0 7f3f 9803 803f 83db 7f3f
00000080: 9ced 7f3f 67f6 7f3f a415 803f 28ef 7f3f
00000090: 93e7 7f3f 441c 803f 1b00 803f 3915 803f
000000a0: 630e 803f 49d5 7f3f 3217 803f 99d7 7f3f
000000b0: a616 803f 8700 803f 41b9 7f3f 1009 803f
000000c0: 28f1 7f3f daf7 7f3f 4704 803f 26c9 7f3f
000000d0: a1ef 7f3f 3419 803f 811f 803f 2efb 7f3f
000000e0: 6705 803f 2209 803f 4200 803f 5801 803f
000000f0: 2dea 7f3f 2acb 7f3f 4807 803f e9b8 7f3f

decoder.1.bias f4 [64]
-0.0005707143 -0.0006222806 -0.0005319511 -0.0005990525 -0.0009348219 0.00018847089 0.00042991247 -0.00032354463
0.00076193915 -4.7034762e-05 0.00038679608 -0.0001589268 -0.0007344446 -1.605859e-05 0.0002823249 0.0003530231
0.0003907432 -0.0007234104 0.00097084994 0.0006981989 4.370662e-05 -0.00060541544 -0.0005631417 0.0008709262
0.00014622787 0.00052527623 -8.4115585e-05 0.0005653354 -0.00029744057 3.5450543e-05 0.00040303761 -0.00023357039
-0.00045764193 -3.474185e-05 0.00023783743 -0.00081149256 -0.00062300987 0.00067979586 -0.00044292674 2.4236278e-05
-0.000221469 -0.00038330542 0.0009951824 -0.0010054638 0.00063206756 0.00039897533 -0.0007117568 0.00024403415
0.0006617341 0.00018917985 0.0005185532 -0.0009864708 -0.0007198849 6.5698994e-05 0.0010024502 0.00013649519
-0.00012322747 -0.0005258159 0.00075644907 -0.0007881072 3.953519e-05 -0.00022777624 -0.0002748381 -0.0010507737
00000000: fd9b 15ba 8b20 23ba a272 0bba bc09 1dba
00000010: d60e 75ba 45a0 4539 e065 e139 6da1 a9b9
00000020: dfbc 473a 3147 45b8 e4ca ca39 97a5 26b9
00000030: be87 40ba 8fb5 86b7 0205 9439 f515 b939
00000040: aadc cc39 40a3 3dba a380 7e3a 5607 373a
00000050: a051 3738 beb4 1eba cd9f 13ba de4e 643a
00000060: bf54 1939 b1b2 093a 3667 b0b8 0433 143a
00000070: ccf1 9bb9 bbb0 1438 cb4e d339 93ea 74b9
00000080: a9ef efb9 c7b7 11b8 0064 7939 58ba 54ba
00000090: 7c51 23ba 5434 323a 9f38 e8b9 034f cb37
000000a0: 223a 68b9 62f6 c8b9 c870 823a c4c9 83ba
000000b0: 56b1 253a 902d d139 3195 3aba 6be3 7f39
000000c0: 3978 2d3a 945e 4639 84ef 073a 784c 81ba
000000d0: a8b6 3cba e1c7 8938 a664 833a 2620 0f39
000000e0: 9f36 01b9 e8d6 09ba 704c 463a fb98 4eba
000000f0: 96d2 2538 38d7 6eb9 2518 90b9 1dba 89ba

decoder.1.running_mean f4 [64]
-0.4167113 0.076245464 0.19492957 -0.3218345 0.6083196 -0.33808988 0.009859856 -0.3269888
0.040889535 0.24064015 -0.5161595 -0.22671436 0.016353179 -1.0555767 0.25935686 -0.60271317
-0.12545249 0.2211838 -0.2586185 -0.11408091 -0.18524295 -0.17847604 0.1431247 0.11051655
0.13973822 0.68220806 0.5631637 0.33319107 0.16264364 0.15967685 -0.2597429 0.034013856
0.353704 0.7735408 -0.85183716 1.060737 0.2164819 -0.14080824 0.40308923 -0.17917094
-0.8930362 -0.09829972 -0.43747583 0.3023589 -0.5573091 -0.2717215 -0.34481055 0.37605944
0.3633374 0.024072044 0.097818814 0.30499393 0.30929938 0.22189596 -0.62412673 -0.038423367
-0.94020516 0.1478771 0.1020888 0.10002863 -0.36924627 -0.6593504 -0.46911192 0.18602276
00000000: 2f5b d5be 9526 9c3d 9e9b 473e 7ec7 a4be
00000010: d5ba 1b3f 1e1a adbe 3c8b 213c 136b a7be
00000020: c97b 273d 5f6a 763e 0723 04bf cf27 68be
00000030: 1af7 853c 231d 87bf 6cca 843e 694b 1abf
00000040: 9e76 00be 027e 623e a569 84be 41a3 e9bd
00000050: 54b0 3dbe 6cc2 36be 488f 123e 8056 e23d
00000060: 8917 0f3e 30a5 2e3f 7f2b 103f 0598 aa3e
00000070: 0e8c 263e 5482 233e 05fd 84be 1d52 0b3d
00000080: b118 b53e c506 463f 0012 5abf 3bc6 873f
00000090: 6ead 5d3e 0930 10be b661 ce3e 9678 37be
000000a0: 059e 64bf 5d51 c9bd d5fc dfbe c9ce 9a3e
000000b0: cfab 0ebf 151f 8bbe 028b b0be dd8a c03e
000000c0: 5c07 ba3e bc32 c53c 3b55 c83d 2a28 9c3e
000000d0: 7d5c 9e3e b238 633e c5c6 1fbf d261 1dbd
000000e0: 49b1 70bf 186d 173e ef13 d13d cfdb cc3d
000000f0: d90d bdbe 30cb 28bf 702f f0be c07c 3e3e
