checkpoints/2025-05-30-17-27-11/last_epoch.pth (torch, 675371 bytes, 9 tensors)

encoder.0.weight f4 [64, 3, 3, 3]
0.09466309 0.121895745 0.034806196 -0.043818597 0.13036251 0.044432554 -0.17032397 0.12600315
0.08168984 -0.09784215 -0.034324538 0.18827374 0.030418875 -0.086348526 -0.08892727 0.08140581
0.07831689 -0.13381892 0.062283482 -0.0560251 0.003419492 0.16288349 -0.1271981 0.06970087
0.130859 -0.004059859 0.11681465 -0.016601397 0.08257144 0.030954855 0.10231119 -0.08875212
-0.093831904 -0.13462317 0.109589934 0.15743768 -0.012193608 0.08008203 0.14342372 0.016589168
0.08002104 -0.016941557 -0.07599274 0.12922925 -0.078165635 -0.030556824 0.060070943 0.032224428
0.17292951 -0.11006484 0.008625886 0.15816085 0.18782192 -0.15227447 -0.013451613 -0.0487658
0.012821349 0.16030228 0.080998406 0.10135638 0.14603354 0.069281146 -0.028821947 0.16637117
0.06765969 -0.019308496 -0.026460484 -0.18153037 0.14423002 0.037175328 -0.07441948 -0.09463771
0.06431128 0.0701538 0.03279305 0.056500416 0.06165137 -0.06883035 -0.14269352 -0.13775887
-0.021613365 0.049714778 0.06112325 -0.09037942 0.11991848 0.10020253 -0.036195863 0.11862683
-0.16123287 0.14449984 0.13693501 0.14287618 -0.023769187 0.044183273 0.05241711 0.13067167
-0.119194105 -0.08431045 -0.010727427 0.12444769 -0.112264626 -0.066682644 0.09541837 0.16016467
0.015855609 -0.16077052 -0.1815038 -0.0056586517 0.18968865 -0.089966364 -0.10482218 0.10816195
0.09019594 0.06305562 -0.16505991 0.17480537 -0.0044005485 -0.18685 -0.05529039 0.023259927
0.1740632 0.16738482 -0.14774571 -0.07051473 -0.1428185 0.16097862 -0.15634452 -0.013740396
0.18715361 -0.14838545 0.025374152 0.18477316 0.0672746 -0.053850796 -0.13112122 0.13693893
0.13474375 0.12486943 0.16806139 -0.18797562 0.07581795 -0.14109604 0.14549893 0.05668112
0.17423363 -0.060175933 0.17095204 -0.15242758 0.08483176 -0.02109691 -0.045519467 0.07143374
0.038963843 0.03470906 -0.08914486 0.11590312 -0.016317831 0.050321087 -0.16382948 0.15397345
0.19214131 0.16341397 -0.010309882 0.10527498 -0.03449267 0.055707324 -0.06702812 0.16237615
0.027648052 -0.11202999 -0.14076984 -0.15586789 0.042157028 -0.0218562 -0.10696864 0.06968643
-0.0891662 -0.011260302 0.17447893 0.14386147 0.0010871213 -0.11162304 0.11047989 -0.09577916
0.11162543 0.15962364 0.033671364 -0.04553062 0.06296464 -0.1504248 -0.18901303 -0.14125873
-0.020520706 0.18311663 0.168065 -0.09333605 -0.117077775 -0.02063793 0.0047462876 0.116378166
-0.14745748 0.12182519 -0.03147655 0.16854653 0.16010298 -0.15625383 -0.1204831 -0.08480007
-0.16741186 0.15048413 0.03652952 -0.116026685 -0.1838902 -0.05768004 0.17679489 0.1264188
-0.13150638 -0.10965705 0.1871147 -0.15401278 0.11524175 0.028769402 0.027189245 -0.007091496
0.1609607 -0.060357425 -0.075086534 0.06271145 0.031554908 0.04536849 0.01643559 -0.110126786
0.15206753 -0.07510678 0.18172687 0.1761464 0.1492977 -0.033367407 0.116652355 0.026828138
0.084186204 -0.100854345 -0.01393568 -0.044113226 -0.18741587 -0.17342196 0.057447933 -0.17047498
-0.0032388938 -0.16541971 0.045143355 -0.10434021 0.04685122 0.05025486 0.1223106 0.13454469
00000000: b9de c13d 7aa4 f93d f190 0e3d 217b 33bd
00000010: c07d 053e e9fe 353d 6869 2ebe f806 013e
00000020: 014d a73d 7761 c8bd e397 0cbd d5ca 403e
00000030: 0131 f93c 7fd7 b0bd 801f b6bd 17b8 a63d
00000040: 9b64 a03d d407 09be f71c 7f3d 937a 65bd
00000050: 8e19 603b eeca 263e 3840 02be 54bf 8e3d
00000060: e7ff 053e 9108 85bb 853c ef3d a7ff 87bc
00000070: 371b a93d 0995 fd3c 8788 d13d acc3 b5bd
00000080: f12a c0bd a8da 09be b070 e03d 5837 213e
00000090: b3c7 47bc 0c02 a43d abdd 123e 02e6 873c
000000a0: 12e2 a33d 05c9 8abc 15a2 9bbd ac54 043e
000000b0: 4e15 a0bd 4e52 fabc f30c 763d c3fd 033d
000000c0: 6f14 313e ad69 e1bd 9753 0d3c ebf4 213e
000000d0: 6454 403e d7ed 1bbe 2764 5cbc a6be 47bd
000000e0: a310 523c 4826 243e 7ee2 a53d ef93 cf3d
000000f0: d189 153e 46e3 8d3d 011c ecbc 345d 2a3e
00000100: 2a91 8a3d da2c 9ebc a8c3 d8bc 19e3 39be
00000110: 09b1 133e 2845 183d 3e69 98bd 6ad1 c1bd
00000120: a2b5 833d ccac 8f3d 0152 063d fb6c 673d
00000130: 2686 7c3d edf6 8cbd 401e 12be a910 0dbe
00000140: 830e b1bc b9a1 4b3d 5f5c 7a3d d818 b9bd
00000150: d297 f53d fc36 cd3d 1d42 14bd a0f2 f23d
00000160: 3b1a 25be c4f7 133e b138 0c3e 224e 123e
00000170: 99b7 c2bc 85f9 343d 53b3 563d cbce 053e
00000180: 0a1c f4bd f5aa acbd 17c2 2fbc 6ede fe3d
00000190: ffea e5bd e990 88bd b56a c33d 3502 243e
000001a0: 9fe3 813c 07a1 24be 22dc 39be 366c b9bb
000001b0: be3d 423e 4940 b8bd 03ad d6bd 0384 dd3d
000001c0: a6b8 b83d 4e23 813d 7705 29be 2e00 333e
000001d0: 7a32 90bb 9b55 3fbe 2d78 62bd 9a8b be3c
000001e0: a03d 323e ed66 2b3e a74a 17be 076a 90bd
000001f0: 033f 12be 94d7 243e c718 20be 661f 61bc
00000200: 32a5 3f3e 5bf2 17be 74dd cf3c 2d35 3d3e
00000210: 44c7 893d a792 5cbd a444 06be b839 0c3e
00000220: 44fa 093e 8bbb ff3d 4918 2c3e ae7c 40be
00000230: 7146 9b3d 7b7b 10be acfd 143e 762a 683d
00000240: 4d6a 323e 0a7b 76bd 0d0e 2f3e fa15 1cbe
00000250: 46bc ad3d 6dd3 acbc 9f72 3abd da4b 923d
00000260: 8d98 1f3d 162b 0e3d 9591 b6bd 9d5e ed3d
00000270: f9ac 85bc 7c1d 4e3d eac2 27be 37ab 1d3e
00000280: b1c0 443e fe55 273e c8ea 28bc 699a d73d
00000290: 3048 0dbd 5d2d 643d 0a46 89bd ef45 263e
000002a0: 2b7e e23c fb6f e5bd f825 10be d59b 1fbe
000002b0: d9ac 2c3d c60b b3bc 6012 dbbd c2b7 8e3d
000002c0: c59c b6bd 217d 38bc 9baa 323e 6c50 133e
000002d0: bd7d 8e3a 9f9a e4bd 4843 e23d dd27 c4bd
000002e0: e09b e43d 6174 233e fcea 093d 517e 3abd
000002f0: 9bf3 803d f508 1abe a28c 41be 21a6 10be
00000300: 0a1b a8bc ed82 3b3e 3b19 2c3e f926 bfbd
00000310: 79c6 efbd e010 a9bc bf86 9b3b ad57 ee3d
00000320: 18ff 16be 7c7f f93d 8eed 00bd 7697 2c3e
00000330: 09f2 233e 0101 20be d8bf f6bd a9ab adbd
00000340: 046e 2bbe 8318 1a3e fa9f 153d 669f edbd
00000350: b64d 3cbe e841 6cbd b809 353e ee73 013e
00000360: 9ca9 06be e093 e0bd ff9a 3f3e 87b5 1dbe
00000370: de03 ec3d cfad eb3c fbbb de3c c85f e8bb
00000380: e2d2 243e 5939 77bd f8c6 99bd dc6e 803d
00000390: b83f 013d 4fd4 393d eea3 863c 278a e1bd
000003a0: 97b7 1b3e 95d1 99bd 9c16 3a3e b95f 343e
000003b0: 7fe1 183e 43ac 08bd 6ee7 ee3d afc6 db3c
000003c0: d169 ac3d b98c cebd 7a52 64bc 12b0 34bd
000003d0: f2e9 3fbe 8795 31be 864e 6b3d fe90 2ebe
000003e0: 9f43 54bb c963 29be 3de8 383d 52b0 d5bd
000003f0: 11e7 3f3d 0ad8 4d3d fb7d fa3d 15c6 093e

encoder.0.bias f4 [64]
-0.0618443 0.08164343 0.062016577 -0.014168578 -0.040560566 -0.1636345 -0.050999884 0.1258189
0.0820117 -0.06653726 -0.10124835 0.12307687 0.10082472 0.12401055 -0.043771196 0.18323202
0.04354947 -0.12633073 0.056229964 -0.08202794 -0.1007457 0.15460424 0.19016622 0.014853733
-0.08461353 -0.05837127 0.17119665 -0.03390705 0.1053217 0.04112161 -0.05623671 -0.15001047
0.01986132 -0.12620963 0.103868954 0.12824231 -0.056747697 0.036767486 0.06965586 0.04754293
-0.10766462 0.11907916 -0.18913735 -0.13636388 -0.18959698 -0.048487414 -0.0918004 -0.10607245
0.14520839 -0.025522014 -0.15086553 -0.081342466 0.08000794 -0.0713136 -0.124906935 -0.16461906
0.09108563 0.1637725 -0.08934806 -0.10414637 -0.094607025 -0.031128623 -0.11812268 0.17233449
00000000: 7350 7dbd ac34 a73d 1805 7e3d 5323 68bc
00000010: d622 26bd cd8f 27be 41e5 50bd abd6 003e
00000020: c0f5 a73d b044 88bd 4c5b cfbd ba0f fc3d
00000030: 317d ce3d 3ef9 fd3d 6d49 33bd 2da1 3b3e
00000040: ee60 323d d85c 01be 6451 663d 44fe a7bd
00000050: c353 cebd 9350 1e3e efba 423e 125d 733c
00000060: dc49 adbd b616 6fbd 2d4e 2f3e 1ee2 0abd
00000070: e7b2 d73d 226f 283d 7758 66bd 589c 19be
00000080: 35b4 a23c 193d 01be 3fb9 d43d f451 033e
00000090: 4670 68bd 8199 163d bba7 8e3d 60bc 423d
000000a0: 457f dcbd c6df f33d 39ad 41be f9a2 0bbe
000000b0: b625 42be bd9a 46bd d901 bcbd 833c d9bd
000000c0: 82b1 143e 8b13 d1bc 7e7c 1abe e196 a6bd
000000d0: 34db a33d dd0c 92bd 35cf ffbd e691 28be
000000e0: 1a8b ba3d fab3 273e 1efc b6bd b14a d5bd
000000f0: 54c1 c1bd 7401 ffbc 4eea f1bd 7478 303e

encoder.3.weight f4 [128, 64, 3, 3]
0.03424365 -0.03414881 -0.007141371 0.025534246 0.016151212 0.022679286 0.025517277 0.01848052
-0.036349695 0.006039245 0.0063058077 -0.03975383 -0.002550709 0.019946596 -0.01996473 -0.023474514
-0.008741934 0.02078404 0.017181862 -0.041072987 -0.012323468 0.009539721 -0.040790934 0.033094328
-0.02246652 -0.035995483 -0.01081321 0.031603813 0.039449472 0.026178338 -0.003185456 -0.007004544
-0.033910513 0.0061575975 -0.008464871 -0.015601338 -0.041659568 0.0038123243 -0.02264113 0.024408828
0.0126808975 -0.021948406 0.007826719 -0.02797011 0.0061123357 0.00094367575 0.02526632 0.0025697688
0.01380435 -0.0065449676 -0.0014193859 0.0034862426 -0.0037164313 -0.030385675 -0.014881459 -0.018304007
-0.020080233 -0.016412195 0.0028682582 0.0047330777 -0.029407958 0.026372187 0.010735237 -0.0135207875
0.01877417 -0.019783365 -0.019431148 -0.0023563055 0.031677686 -0.026984598 -0.027433326 0.022360675
0.016584752 -0.014800813 0.018090585 -8.7286586e-05 0.03393588 -0.02308317 0.004587435 -0.017270006
0.0109982435 -0.008681487 -0.022841975 -0.04231248 0.036720183 -0.03551667 0.019481353 -0.02006938
0.03648828 0.025025506 0.012419767 0.030000493 0.0004886456 -0.042391773 -0.009222132 0.01880291
-0.0058967047 -0.021546343 -0.022447268 0.039825514 -0.035757434 -0.02246157 -0.025441349 -0.041556716
0.024805063 0.034279194 -0.006297429 0.024653928 0.020894881 0.034223787 -0.027020589 0.005862544
0.0100189205 -0.04066813 0.033316296 -0.02471225 0.026087277 -0.041953824 -0.003610411 0.036362626
-0.022848522 -0.01894572 0.024067657 0.008576365 -0.0055055902 0.0015315055 0.017928932 -0.0038340099
0.018986372 -0.006500176 0.010959972 0.018471692 -0.015975034 0.028098192 0.011374819 -0.03154273
-0.030587232 -0.035081528 -0.009870463 0.032624267 -0.024042914 -0.013041663 0.012915045 -0.0061819586
-0.031487625 -0.032204397 -0.0045002126 -0.0059918924 0.030288776 -0.007774178 0.020610472 0.026535623
0.0026838274 0.019765858 -0.035819866 -0.033872876 0.002796032 -0.025884843 -0.03262447 0.04025651
0.014722805 -0.027717756 -0.0011552271 -0.041577697 0.029004628 -0.019271178 0.017473403 0.0075300136
-0.03619112 0.004816695 -0.008239246 0.03307041 -0.034636453 0.006734705 0.015330419 0.029991811
0.005680058 -0.004521751 -0.024422184 0.02739616 0.015849678 -0.02968878 -0.037972156 0.012499586
0.012812678 0.0047638435 -0.03848203 0.019596625 -0.016127026 -0.020207847 0.020136785 0.0073466874
0.034456663 0.02892565 -0.005708622 0.0035284148 0.019224709 -0.0014049431 0.0074678315 -0.039342273
0.009169843 -0.007818934 -0.018982785 -0.024908671 0.002994768 -0.008807943 0.029449062 0.00089514756
-0.017213356 0.010952143 -0.03851222 -0.001867831 0.024403129 -0.012137708 0.019041369 0.023664271
0.020134615 0.024661018 0.020877924 0.022042014 -0.0007515528 0.02238508 -0.012044587 -0.019367386
0.0075972187 -0.021076906 -0.011725734 -0.021671055 0.0063876626 0.014943517 -0.0042979848 -0.013155252
-0.022540674 -0.036056895 0.026557902 0.018864563 0.033465315 0.03643689 0.015549284 -0.0017311805
-0.010768041 0.016650045 0.032165855 -0.022352131 -0.01685895 0.035431534 -0.04142186 -0.019406717
-0.03473249 -0.030820327 -0.033520754 0.021976765 -0.0074628005 0.03605697 0.023056528 0.012657557
00000000: 1243 0c3d 9fdf 0bbd 2902 eabb 322d d13c
00000010: 8c4f 843c e9c9 b93c 9c09 d13c 7664 973c
00000020: 6be3 14bd dce4 c53b f3a0 ce3b e9d4 22bd
00000030: cc29 27bb 0b67 a33c 138d a3bc a04d c0bc
00000040: 543a 0fbc 4b43 aa3c fac0 8c3c 263c 28bd
00000050: 5fe8 49bc 7d4c 1c3c 6514 27bd eb8d 073d
00000060: b50b b8bc 0070 13bd e429 31bc 0073 013d
00000070: c595 213d f473 d63c 15c3 50bb 6086 e5bb
00000080: c0e5 0abd acc5 c93b 3eb0 0abc c19c 7fbc
00000090: 39a3 2abd 30d8 793b e479 b9bc 06f5 c73c
000000a0: 8ac3 4f3c 25cd b3bc a43b 003c 9221 e5bc
000000b0: fd49 c83b 0261 773a 50fb ce3c 9169 283b
000000c0: a42b 623c 2b77 d6bb b00a baba 7279 643b
000000d0: 5f8f 73bb 61eb f8bc 5dd1 73bc 49f2 95bc
000000e0: 4d7f a4bc de72 86bc 63f9 3b3b ef17 9b3b
000000f0: f5e8 f0bc 7c0a d83c d9e2 2f3c 4b86 5dbc
00000100: 4acc 993c b910 a2bc 122e 9fbc 3f6c 1abb
00000110: 76c0 013d ce0e ddbc dbbb e0bc bc2d b73c
00000120: bfdc 873c 1c7f 72bc b532 943c a10d b7b8
00000130: 5900 0b3d eb18 bdbc 3252 963b d479 8dbc
00000140: fa31 343c cc3c 0ebc 181f bbbc da4f 2dbd
00000150: e767 163d ee79 11bd 5c97 9f3c 8a68 a4bc
00000160: bc74 153d 4a02 cd3c 477c 4b3c 98c3 f53c
00000170: 7318 003a ffa2 2dbd 6d18 17bc 8f08 9a3c
00000180: 2539 c1bb f581 b0bc 55e3 b7bc 1420 233d
00000190: 6376 12bd 5401 b8bc 606a d0bc 6037 2abd
000001a0: fd33 cb3c 5768 0c3d aa5a cebb 09f7 c93c
000001b0: be2b ab3c 3e2e 0c3d 485a ddbc 951a c03b
000001c0: 6626 243c a093 26bd ab76 083d 5871 cabc
000001d0: fcb4 d53c c6d7 2bbd a59c 6cbb faf0 143d
000001e0: d32c bbbc 0e34 9bbc 8929 c53c e283 0c3c
000001f0: 3d68 b4bb ccbc c83a b2df 923c 0344 7bbb
00000200: 4f89 9b3c 6eff d4bb 7491 333c f251 973c
00000210: 13de 82bc 2e2e e63c 735d 3a3c f332 01bd
00000220: 1392 fabc a6b1 0fbd b9b7 21bc 06a1 053d
00000230: a5f5 c4bc b3ac 55bc a099 533c 0792 cabb
00000240: 2bf9 00bd c2e8 03bd 8576 93bb a357 c4bb
00000250: 2b20 f83c 88be febb 4bd7 a83c 3c61 d93c
00000260: 27e3 2f3b 02ec a13c dab7 12bd 49be 0abd
00000270: a23d 373b 730c d4bc 3ca1 05bd 03e4 243d
00000280: eb37 713c 5910 e3bc fd6a 97ba 604d 2abd
00000290: 1d9b ed3c 97de 9dbc 6224 8f3c 55be f63b
000002a0: 243d 14bd 5ed5 9d3b e7fd 06bc d774 073d
000002b0: f4de 0dbd cdae dc3b 702c 7b3c 63b1 f53c
000002c0: c81f ba3b 322b 94bb 0811 c8bc e96d e03c
000002d0: 2fd7 813c e235 f3bc b188 1bbd 10cb 4c3c
000002e0: 44ec 513c 041a 9c3b 559f 1dbd 1a89 a03c
000002f0: d31c 84bc ed8a a5bc e6f5 a43c 7bbc f03b
00000300: 6e22 0d3d 7cf5 ec3c 640f bbbb fa3c 673b
00000310: 237d 9d3c 1126 b8ba b6b4 f43b 5d25 21bd
00000320: 1c3d 163c fc1a 00bc c981 9bbc 450d ccbc
00000330: df43 443b 314f 10bc 293f f13c 56a8 6a3a
00000340: 0603 8dbc 9e70 333c fdbe 1dbd 02d2 f4ba
00000350: 12e9 c73c 3ddd 46bc a5fc 9b3c 93db c13c
00000360: 59f1 a43c e705 ca3c 2e08 ab3c 7491 b43c
00000370: db03 45ba ea60 b73c a956 45bc 5aa8 9ebc
00000380: 17f2 f83b 7aa9 acbc 4b1d 40bc 7f87 b1bc
00000390: 994f d13b a7d5 743c 1cd6 8cbb 2089 57bc
000003a0: 38a7 b8bc 65b0 13bd f58f d93c db89 9a3c
000003b0: ed12 093d d93e 153d 6dc2 7e3c c7e8 e2ba
000003c0: 706c 30bc ad65 883c 58c0 033d d11b b7bc
000003d0: c81b 8abc a820 113d f8a9 29bd d6fa 9ebc
000003e0: a843 0ebd e97a fcbc 0f4d 09bd 9e08 b43c
000003f0: 828a f4bb 79b0 133d 0be1 bc3c a461 4f3c

encoder.3.bias f4 [128]
-0.037638616 -0.0051145214 0.014147956 -0.017110782 0.0117582455 0.041547894 -0.020627977 -0.025354784
-0.0069902833 0.0018227384 0.032097492 -0.0030128583 -0.001083574 0.0028002386 0.04167678 -0.0063605644
-0.022561645 0.009441807 0.03417814 -0.005830414 0.00034676702 -0.00013647236 0.019056648 0.023224708
-0.014721714 0.03874684 0.0155647155 -0.010550193 -0.020530254 -0.01379941 -0.014440079 0.03314153
-0.026276626 -0.023722539 -0.032109816 0.008794395 0.0074094594 -0.022137102 -0.034574658 -0.009250865
0.04041391 -0.032009814 0.029810853 -0.02593137 -0.035977058 0.034000997 0.011760498 -0.029522143
0.034331027 0.027235804 -0.03447407 -0.014291007 0.00830417 0.0042505465 0.03998071 0.005894134
-0.020315934 -0.029814973 0.016256241 -0.011611583 0.0011680351 0.009709662 0.01841904 -0.011248139
-0.024038736 -0.0019107712 0.0084999595 -0.024284057 -0.016938053 0.0010375935 0.023141386 0.010129212
-0.037147734 -0.033761255 0.03467477 -0.003863731 0.0378733 0.022664506 -0.025009844 0.03468455
-0.031250335 0.025591342 -0.012270825 0.03268296 0.038914163 0.010881355 0.007823214 -0.031840086
-0.022024164 0.0016343023 0.0008118897 0.01141939 -0.020445438 0.026870642 0.042017523 0.038258143
-0.02639387 0.011202737 -0.005789319 0.002895075 -0.025252419 0.023428611 0.027820857 -0.03825137
0.012851358 0.03940297 -0.035623357 0.020203037 0.039139636 -0.026905758 -0.035500355 -0.039173663
-0.021315748 -0.028527783 0.018294187 0.038756378 0.03732686 0.03866541 0.008866148 -0.019587472
0.010928762 -0.024312563 -0.0049305935 -0.039961006 0.018274365 -0.018628968 -0.026153099 -0.029305147
00000000: f32a 1abd b797 a7bb d4cc 673c e92b 8cbc
00000010: a8a5 403c 202e 2a3d 01fc a8bc d6b4 cfbc
00000020: bf0e e5bb f4e8 ee3a a978 033d 6073 45bb
00000030: b606 8eba 3584 373b 45b5 2a3d 486c d0bb
00000040: 33d3 b8bc cfb1 1a3c 61fe 0b3d 0f0d bfbb
00000050: 48ce b539 051a 0fb9 b01c 9c3c be41 be3c
00000060: 5833 71bc 02b5 1e3d 2603 7f3c b7da 2cbc
00000070: 102f a8bc ec16 62bc 1596 6cbc 6abf 073d
00000080: 1442 d7bc c555 c2bc 9585 03bd 5e16 103c
00000090: 0dcb f23b de58 b5bc 289e 0dbd f190 17bc
000000a0: 0e89 253d b91c 03bd e435 f43c 066e d4bc
000000b0: ae5c 13bd a144 0b3d 1baf 403c 6cd8 f1bc
000000c0: b19e 0c3d 9f1d df3c af34 0dbd d424 6abc
000000d0: 370e 083c 2b48 8b3b d0c2 233d 9423 c13b
000000e0: 9a6d a6bc 883e f4bc cf2b 853c 823e 3ebc
000000f0: c118 993a 4615 1f3c 87e3 963c 1d4a 38bc
00000100: e2ec c4bc d872 faba 6a43 0b3c 5cef c6bc
00000110: acc1 8abc dcff 873a 0193 bd3c fff4 253c
00000120: 3928 18bd 3e49 0abd 2207 0e3d a636 7dbb
00000130: 0921 1b3d eaaa b93c 72e1 ccbc 6311 0e3d
00000140: 5a00 00bd efa4 d13c 920b 49bc 91de 053d
00000150: 7564 1f3d b647 323c f02c 003c c06a 02bd
00000160: 056c b4bc 1636 d63a ffd4 543a 6518 3b3c
00000170: 317d a7bc d21f dc3c 911a 2c3d 92b4 1c3d
00000180: f537 d8bc af8b 373c 54b4 bdbb 4cbb 3d3b
00000190: 29de cebc 5ced bf3c 91e8 e33c 78ad 1cbd
000001a0: 818e 523c 0265 213d cce9 11bd d780 a53c
000001b0: e250 203d 7769 dcbc d268 11bd 9074 20bd
000001c0: 5d9e aebc 19b3 e9bc b1dd 953c 02bf 1e3d
000001d0: 0de4 183d 9f5f 1e3d 5243 113c e875 a0bc
000001e0: 8d0e 333c 242b c7bc d190 a1bb 27ae 23bd
000001f0: 1fb4 953c c79b 98bc 063f d6bc 5911 f0bc

decoder.0.weight f4 [64, 128, 3, 3]
-0.018465407 0.02160845 0.029404625 -0.001697705 -0.004248451 -0.028055748 -0.019438464 -0.028396208
-0.026929963 -0.003722358 -0.003212423 -0.011774581 0.020194363 -0.026782557 -0.003751448 0.002806174
0.0054999283 -0.00669859 0.011547997 0.0045181992 -0.02423179 0.022927716 -0.0033051863 0.007190149
-0.0067261024 -0.001755702 -0.0034776197 0.007760642 -0.017287329 -0.011955989 -0.0091368845 0.021572072
0.0028816191 -0.019882903 -0.011690825 -0.023162048 -0.0063278726 0.026729798 -0.024159621 0.0037254079
-0.023685317 0.008962974 -0.020514593 0.023279326 -0.021323618 -0.0050216466 -0.009682903 -0.014567933
-0.010841461 0.016552307 -0.01583836 0.028599976 -0.00062464294 0.023647955 -0.0266489 -0.011002051
-0.004015177 0.022698633 0.010613617 -0.013427783 0.013684878 0.02838477 0.0073814453 -0.0032285922
-0.006498047 -0.022187056 -0.015993556 0.0009154034 0.005676524 0.016385533 0.009683509 -0.008943142
0.012562091 0.007500802 0.025671624 0.014395904 0.026297184 0.0040333685 0.00074279617 0.021930838
0.0054751844 0.01406702 -0.011373857 0.025014944 0.006096543 -0.0039501586 0.02158413 4.24798e-05
0.010198461 -0.014738935 0.013485438 -0.010877316 0.021895042 0.013039784 0.012223375 -0.02037757
0.011404244 0.0081643965 -0.016599743 -0.009604496 0.00800054 -0.008890906 0.010731685 -0.0048281457
-0.027042283 0.023071105 0.02450573 -0.025129644 -0.021933211 0.023905015 0.002341121 -0.0024391161
0.016374666 -0.011088395 -0.003336769 -0.021353919 -0.023570634 -0.009858148 0.010745388 0.022014014
0.0020124267 0.0045853048 0.013701251 0.0035721988 -0.013526715 -0.019315882 -0.007241794 -0.018429277
-0.021869013 -0.011464429 0.010526857 0.0051791943 -0.013895094 0.027688608 0.024643483 0.017810136
-0.013083508 -0.020725798 0.019604472 0.008030482 -0.019480348 -0.020384649 -0.0011527879 0.024307966
0.013058104 0.024081023 -0.0016638915 0.009992703 -0.021489805 -0.012047657 0.02964452 0.029920047
-0.011368349 -0.023246014 -0.027921736 -0.020168692 -0.025863148 -0.013370213 0.028305711 0.022037905
0.014810699 -0.023525313 0.011826729 -0.01021542 -0.018383775 -0.01166629 -0.0038292813 -0.02335911
0.023729876 -0.005491372 -0.007499574 -0.021335404 0.0024374607 0.0046761124 -0.015768113 0.0009568095
0.011714871 0.0069748615 0.019864967 -0.014402747 0.026948081 0.011225061 -0.026659591 0.013617846
0.008455932 -0.021246865 0.022415567 -0.014920817 -0.012447912 -0.007996493 -0.015964195 -0.019637773
-0.022737095 0.017358955 -0.01941818 0.02664449 -0.025365641 -0.013391342 0.028583452 -0.022483563
-0.023676302 -0.010755471 -0.0025356016 0.008613558 0.019610202 -0.004381104 -0.0033437922 0.010228498
0.017831115 -0.009189137 0.00032405357 0.0055653965 0.029641446 -0.007057158 -0.027313404 -0.011713184
0.021120304 0.0013485649 -0.019665005 0.030041505 -0.019479616 0.02061775 0.0023596787 -0.00658949
-0.025622526 0.030137349 0.014668303 -0.019876542 -0.0070586754 -0.019609524 0.01971347 0.0063905427
-0.01883471 -0.0058778906 0.020984525 -0.0142811425 -0.026718173 -0.026660299 -0.02162216 0.00961217
-0.022381 0.009229926 0.02919309 -0.016478634 0.03046074 -0.00027202067 -0.024194323 -0.02286047
0.027827393 0.0045148577 0.006403076 -0.0007523379 0.0012992789 0.004341564 -0.008330387 0.02645943
00000000: c444 97bc 3404 b13c f8e1 f03c 8785 deba
00000010: 9736 8bbb 2bd5 e5bc 6a3d 9fbc 2a9f e8bc
00000020: 3a9c dcbc cef2 73bb 8487 52bb 2cea 40bc
00000030: a66e a53c 1867 dbbc dada 75bb cae7 373b
00000040: be38 b43b d87f dbbb cf33 3d3c 670d 943b
00000050: bf81 c6bc e8d2 bb3c d39b 58bb 579b eb3b
00000060: a366 dcbb 951f e6ba c7e8 63bb fc4c fe3b
00000070: 289e 8dbc 0de3 43bc dfb2 15bc eab7 b03c
00000080: 8cd9 3c3b 78e1 a2bc e08a 3fbc 56be bdbc
00000090: 0b5a cfbb 73f8 da3c 66ea c5bc f925 743b
000000a0: b607 c2bc 70d9 123c 380e a8bc 49b4 be3c
000000b0: deae aebc a08c a4bb 0aa5 1ebc 57ae 6ebc
000000c0: 62a0 31bc b498 873c 73bf 81bc 7f4a ea3c
000000d0: 14bf 23ba 5bb9 c13c cb4e dabc f241 34bc
000000e0: bf91 83bb 7cf2 b93c bce4 2d3c 3400 5cbc
000000f0: 8a36 603c 2d87 e83c 0de0 f13b ca96 53bb
00000100: 92ed d4bb a1c1 b5bc eb04 83bc aff7 6f3a
00000110: 2202 ba3b f43a 863c 95a7 1e3c 4286 12bc
00000120: 3bd1 4d3c 4ac9 f53b 4c4d d23c ccdc 6b3c
00000130: 316d d73c 592a 843b 35b8 423a 4da8 b33c
00000140: 2d69 b33b 5c79 663c 6a59 3abc 24ec cc3c
00000150: 82c5 c73b 5570 81bb 34d1 b03c 572c 3238
00000160: 7217 273c 937b 71bc 07f2 5c3c c536 32bc
00000170: 3b5d b33c d1a4 553c 8d44 483c ddee a6bc
00000180: ded8 3a3c f6c3 053c 2ffc 87bc 2d5c 1dbc
00000190: b214 033c 2aab 11bc f3d3 2f3c 6c35 9ebb
000001a0: c787 ddbc 9dff bc3c 3ec0 c83c afdc cdbc
000001b0: 47ad b3bc 73d4 c33c 7e6d 193b 94d9 1fbb
000001c0: 2a24 863c 19ac 35bc b2ad 5abb 6aee aebc
000001d0: 3417 c1bc 1284 21bc 6d0d 303c bc56 b43c
000001e0: ebe2 033b 5340 963b 367b 603c 8d1b 6a3b
000001f0: 289f 5dbc 573c 9ebc 924c edbb fff8 96bc
00000200: a526 b3bc 4dd5 3bbc d778 2c3c 3bb6 a93b
00000210: 40a8 63bc 38d3 e23c 21e1 c93c 90e6 913c
00000220: 365c 56bc 26c9 a9bc 8f99 a03c 4892 033c
00000230: 4095 9fbc b5fd a6bc 2519 97ba 8021 c73c
00000240: a8f1 553c 9145 c53c ef16 daba 6fb8 233c
00000250: 630b b0bc 8963 45bc 10d9 f23c e31a f53c
00000260: 5042 3abc 6d6e bebc 20bc e4bc d038 a5bc
00000270: f4de d3bc bd0e 5bbc 61e1 e73c d688 b43c
00000280: 93a8 723c 28b8 c0bc e6c4 413c 945e 27bc
00000290: 9299 96bc f823 3fbc aef4 7abb 9b5b bfbc
000002a0: 2865 c23c f8f0 b3bb fdbe f5bb 96c7 aebc
000002b0: cebd 1f3b 133a 993b 212c 81bc 66d2 7a3a
000002c0: bbef 3f3c 618d e43b dbbb a23c 80f9 6bbc
000002d0: 39c2 dc3c 51e9 373c 3765 dabc 631d 5f3c
000002e0: c08a 0a3c e80d aebc daa0 b73c 7176 74bc
000002f0: 54f2 4bbc b903 03bc 58c7 82bc 65df a0bc
00000300: 2543 babc 5e34 8e3c e012 9fbc 8c45 da3c
00000310: 9bcb cfbc 5c67 5bbc d827 ea3c 732f b8bc
00000320: cef4 c1bc b737 30bc 562c 26bb e11f 0d3c
00000330: 93a5 a03c 5d8f 8fbb 8623 5bbb 6e95 273c
00000340: 8f12 923c 098e 16bc bce5 a939 ee5d b63b
00000350: 9ed2 f23c bb3f e7bb 5cc0 dfbc a8e8 3fbc
00000360: 7d04 ad3c 54c2 b03a 8118 a1bc 9a19 f63c
00000370: b793 9fbc 8ee6 a83c d7a4 1a3b a6ec d7bb
00000380: 55e6 d1bc 9ae2 f63c 5253 703c 21d4 a2bc
00000390: 764c e7bb 27a4 a0bc 257e a13c c267 d13b
000003a0: 404b 9abc 529b c0bb bde7 ab3c 74fb 69bc
000003b0: 12e0 dabc b366 dabc f520 b1bc 5d7c 1d3c
000003c0: 5c58 b7bc 1e39 173c 5926 ef3c 33fe 86bc
000003d0: cd88 f93c ff9d 8eb9 2c33 c6bc e145 bbbc
000003e0: 46f6 e33c 5ff1 933b e5d0 d13b 8b38 45ba
000003f0: 914c aa3a ae43 8e3b 2d7c 08bc 72c1 d83c

decoder.0.bias f4 [64]
0.023774153 0.007271434 0.021583976 -0.027312709 -0.017671712 -0.015682803 -0.019899046 -0.015722489
0.01701778 -0.012447883 -0.004621717 -0.0043752743 0.0006666099 -0.0016454807 -0.022233525 0.026424143
0.011674965 0.016709128 -0.009480438 0.021079483 0.00989916 -0.013661338 -0.022348404 -0.009551997
-0.020809826 -0.009227534 0.002669568 0.027336383 -0.014289613 -0.009781325 0.027379336 -0.01934906
0.0042322157 0.020830223 0.015792936 -0.021172117 -0.0028944432 -0.02740585 0.025450056 -0.0033330084
0.01567208 -0.005735995 -0.014104184 0.010589637 0.008724698 -0.016465964 -0.02186589 0.028468484
-0.01762753 0.016896166 -0.0058964747 -0.0041513685 0.02395229 0.003464584 -0.01644893 -0.0073018074
0.020751802 -0.01053921 -0.021824349 0.01380542 0.007634049 -0.003528006 0.0019956932 0.008836941
00000000: 03c2 c23c 3645 ee3b e1d0 b03c e7be dfbc
00000010: 44c4 90bc 3979 80bc 5303 a3bc 73cc 80bc
00000020: df68 8b3c 35f2 4bbc c671 97bb 765e 8fbb
00000030: 6fbf 2e3a 2cad d7ba 1523 b6bc 7277 d83c
00000040: 5a48 3f3c 95e1 883c d753 1bbc e1ae ac3c
00000050: 1630 223c ced3 5fbc 0014 b7bc fb7f 1cbc
00000060: 5e79 aabc 152f 17bc ebf3 2e3b 8df0 df3c
00000070: fb1e 6abc da41 20bc a14a e03c eb81 9ebc
00000080: 66ae 8a3b 25a4 aa3c 3060 813c 2671 adbc
00000090: b3b0 3dbb 3c82 e0bc a37c d03c 9a6e 5abb
000000a0: bc62 803c 03f5 bbbb 3c15 67bc 2880 2d3c
000000b0: 09f2 0e3c a1e3 86bc 1820 b3bc bd36 e93c
000000c0: 9c67 90bc d469 8a3c 3737 c1bb 3408 88bb
000000d0: 9837 c43c 130e 633b e8bf 86bc 0044 efbb
000000e0: afff a93c a7ac 2cbc fac8 b2bc 2130 623c
000000f0: 0b27 fa3b 1e36 67bb 2dca 023b d1c8 103c

decoder.3.weight f4 [32, 64, 3, 3]
-0.025274735 -0.03152549 0.031404857 -0.00013475463 -0.037774045 -0.00046964313 -0.0010388787 0.009581391
-0.03280853 0.027409077 -0.037777394 -0.015239319 -0.020339794 -0.038420357 -0.0400215 -0.024224725
-0.008262875 -0.02438418 -0.012741795 -0.013151689 -0.01797665 0.025322206 -0.0035744892 0.01607941
0.011934269 -0.03777828 -0.04001823 0.01046618 -0.018195061 0.017057685 0.008123114 -0.03693883
0.0064297533 -0.013048728 0.002165194 -0.01602489 -0.025060842 0.0040229196 0.017109293 -0.038126186
0.031274635 0.014840908 0.01897417 -0.019348653 0.022133848 0.014651436 -0.009412431 0.038079683
0.0018815973 0.0019016204 -0.016809568 -0.021526543 -0.02880676 0.039503463 -0.006507831 0.024116311
-0.025593247 0.0036221198 0.033603936 -0.014845705 0.008397345 -0.03941804 -0.004390571 0.023942119
0.019588944 0.03493634 0.006140224 0.013242298 -0.010845677 -0.016659701 0.005918178 0.0361686
-0.041104037 -0.036323685 0.0035786694 -0.00269506 0.000963746 0.022880213 -0.03430881 0.003079697
0.03278166 0.009179664 -0.00078750006 -0.034194622 -0.0010064662 0.03753535 -0.040447123 0.017331852
-0.0015624235 -0.04093879 0.040135726 -0.029985795 0.003725088 -0.026273903 0.033243943 0.015606238
0.029579077 0.04047646 -0.018206077 0.027004926 -0.008711857 0.029138003 -0.018366156 0.02286278
-0.01943308 0.006794764 0.034063496 0.026797194 -0.03752189 0.02163539 0.0021534786 0.038085934
0.006368236 0.035367332 -0.0031198824 0.021529559 0.031296168 -0.017327297 -0.036519017 0.0126377335
-0.022721883 -0.0410929 0.040766984 -0.026546964 0.015734753 0.036852073 0.03101397 -0.011878976
-0.037977636 0.030473225 0.02402604 -0.025198588 0.005271746 -0.023937633 0.01779092 0.006779857
0.018261064 -0.027748365 0.0019280557 0.0065784752 0.030730885 -0.039300986 0.030847337 -0.011297772
0.014816842 0.021494765 -0.008133484 0.016322758 0.009426858 0.029217158 0.034024965 -0.0112213995
0.005923199 0.00239642 -0.014258762 -0.018300174 0.004605783 0.03194167 0.015638234 -0.040703487
-0.035723604 -0.00705273 0.032691326 -0.019104429 -0.02325472 0.01720893 -0.0039017478 -0.0019877788
0.020674225 0.028330058 -0.03242401 -0.026359616 0.009024968 -0.036204938 0.015460959 -0.013377916
-0.021852223 0.002241485 0.022936702 0.030049285 -0.008464268 0.03358966 -0.025556888 -0.03481215
0.034192976 0.007934173 0.018339055 0.036284655 0.016820889 -0.035112116 -0.005964392 -0.019132623
-0.010424471 0.039798155 0.014412885 0.035016265 0.035067275 0.03319172 0.03356022 0.0020977904
-0.013766311 -0.008781438 0.027292304 -0.0017263239 0.008020444 0.011062622 -0.037992347 0.018530028
0.019461084 -0.03779788 -0.032601867 0.040878337 0.006689557 0.037245505 -0.020707877 0.017756522
-0.039357696 0.032636162 -0.032597136 -0.034275256 0.018598726 -0.027220994 -0.038399283 0.0006446853
0.015026438 -0.0093803 -0.003185449 0.03591337 -0.04123041 0.02792749 0.028296353 -0.028084174
-0.0073922966 0.03801648 -0.01681168 -0.01431381 0.034829844 -0.038220894 0.010647059 0.016806087
-0.039730404 0.024675976 0.028572503 -0.039398838 -0.002982942 -0.04139325 0.013133214 -0.020662917
0.013084322 0.01557794 -0.02823643 0.0066575077 -0.031887762 0.019979827 -0.018650405 0.02539151
00000000: f60c cfbc df20 01bd 61a2 003d ec4c 0db9
00000010: f5b8 1abd 6f3a f6b9 fc2a 88ba 44fb 1c3c
00000020: 3d62 06bd 0089 e03c 78bc 1abd 56ae 79bc
00000030: a49f a6bc aa5e 1dbd 96ed 23bd ee72 c6bc
00000040: 0261 07bc 55c1 c7bc f6c2 50bc 2f7a 57bc
00000050: c443 93bc 8470 cf3c fa41 6abb f8b8 833c
00000060: f487 433c 66bd 1abd 28ea 23bd 577a 2b3c
00000070: cf0d 95bc 8fbc 8b3c cf16 053c 2c4d 17bd
00000080: aeb0 d23b 55ca 55bc ede5 0d3b a146 83bc
00000090: 654c cdbc b2d2 833b ca28 8c3c 342a 1cbd
000000a0: d519 003d 4827 733c b86f 9b3c 1181 9ebc
000000b0: 0b52 b53c 940c 703c 9936 1abc 71f9 1b3d
000000c0: ee9f f63a cb3f f93a 38b4 89bc 6f58 b0bc
000000d0: 28fc ebbc 62ce 213d a53f d5bb 928f c53c
000000e0: eea8 d1bc 1661 6d3b 48a4 093d 663b 73bc
000000f0: 0595 093c d074 21bd c7de 8fbb 4322 c43c
00000100: fe78 a03c 6819 0f3d ef33 c93b 39f6 583c
00000110: 11b2 31bc ed79 88bc 46ed c13b 8725 143d
00000120: b55c 28bd 25c8 14bd 1c88 6a3b 9b9f 30bb
00000130: e6a3 7c3a 496f bb3c 6587 0cbd bed4 493b
00000140: 1046 063d 4d66 163c 3c70 4eba a90f 0cbd
00000150: 67eb 83ba abbe 193d e2ab 25bd 87fb 8d3c
00000160: 3cca ccba 6faf 27bd 5c65 243d c5a4 f5bc
00000170: 9b20 743b 5e3c d7bc cd2a 083d 4eb1 7f3c
00000180: d24f f23c a5ca 253d e924 95bc 6f39 dd3c
00000190: 2dbc 0ebc d2b2 ee3c 9f74 96bc ba4a bb3c
000001a0: 1f32 9fbc 9da6 de3b 2a86 0b3d ca85 db3c
000001b0: 8eb0 19bd b43c b13c 6021 0d3b ffff 1b3d
000001c0: a3ac d03b 56dd 103d f176 4cbb c25e b03c
000001d0: 6930 003d faf1 8dbc f794 15bd 7f0e 4f3c
000001e0: 3e23 babc 0751 28bd 48fb 263d 0579 d9bc
000001f0: 2be6 803c 33f2 163d 0211 fe3c 09a0 42bc
00000200: 708e 1bbd fca2 f93c 42d2 c43c 456d cebc
00000210: 9cbe ac3b db18 c4bc 43be 913c 9029 de3b
00000220: 3a98 953c 8a50 e3bc d0b6 fc3a 4090 d73b
00000230: 56bf fb3c 12fa 20bd 8eb3 fc3c 4a1a 39bc
00000240: 57c2 723c ca15 b03c 4e42 05bc 4eb7 853c
00000250: 1c73 1a3c d258 ef3c c35d 0b3d f6d9 37bc
00000260: 6517 c23b 420d 1d3b 959d 69bc 3fea 95bc
00000270: 1cec 963b 45d5 023d c11b 803c b3b8 26bd
00000280: ea52 12bd 961a e7bb 57e7 053d e480 9cbc
00000290: af80 bebc bef9 8c3c 77b4 7fbb 6545 02bb
000002a0: fe5c a93c 7014 e83c 0acf 04bd 1ff0 d7bc
000002b0: 76dd 133c a14b 14bd f64f 7d3c 0c2f 5bbc
000002c0: 6f03 b3bc e1e5 123b c0e5 bb3c eb29 f63c
000002d0: b7ad 0abc 5095 093d ae5c d1bc 2f97 0ebd
000002e0: ef0d 0c3d 55fe 013c c93b 963c 389f 143d
000002f0: f6cb 893c b9d1 0fbd f270 c3bb 05bc 9cbc
00000300: 67cb 2abc 6403 233d 0524 6c3c 376d 0f3d
00000310: b4a2 0f3d 0af4 073d 7176 093d 157b 093b
00000320: 188c 61bc 05e0 0fbc 1c94 df3c d145 e2ba
00000330: 2e68 033c 0040 353c dd9d 1bbd 49cc 973c
00000340: da6c 9f3c f3d1 1abd 8989 05bd 0b70 273d
00000350: 1234 db3b be8e 183d 91a3 a9bc 2076 913c
00000360: 8935 21bd 7fad 053d 9384 05bd 3664 0cbd
00000370: 5b5c 983c 90fe debc 9148 1dbd 1900 293a
00000380: 7331 763c d4af 19bc f7c2 50bb e619 133d
00000390: 38e1 28bd 31c8 e43c c1cd e73c c810 e6bc
000003a0: 143b f2bb 2bb7 1b3d a6b8 89bc 7884 6abc
000003b0: bda9 0e3d 838d 1cbd 0171 2e3c ebac 893c
000003c0: 59bc 22bd 4625 ca3c e210 ea3c ad60 21bd
000003d0: 767d 43bb f88b 29bd b12c 573c 4745 a9bc
000003e0: a05f 563c 9e3a 7f3c 1650 e7bc 3927 da3b
000003f0: be9c 02bd bcac a33c bcc8 98bc db01 d03c

decoder.3.bias f4 [32]
0.010687862 0.009249521 -0.038414467 -0.020430148 0.037906565 0.0022756 -0.007507226 0.018916316
-0.02784843 0.0054245437 -0.00688608 0.038680494 -0.019012261 0.03287493 0.034942474 0.011213751
0.0055132546 0.029359816 -0.030166173 0.010458251 0.010612936 -0.02157607 0.01992959 0.028544316
-0.012403702 0.019773247 -0.037343312 0.0059945663 -0.028904786 0.013593367 -0.011608561 -0.006267056
00000000: 241c 2f3c 4e8b 173c 7d58 1dbd 205d a7bc
00000010: ea43 1b3d 3c22 153b 2dff f5bb 64f6 9a3c
00000020: 6422 e4bc 5fc0 b13b a0a4 e1bb 706f 1e3d
00000030: 9abf 9bbc dda7 063d d71f 0f3d e1b9 373c
00000040: 88a8 b43b ff83 f03c 0d1f f7bc 1659 2b3c
00000050: e1e1 2d3c 4cc0 b0bc 6143 a33c c5d5 e93c
00000060: e638 4bbc 81fb a13c 4df5 18bd 116e c43b
00000070: bbc9 ecbc b7b6 5e3c d531 3ebc e05b cdbb

decoder.6.weight f4 [1, 32, 1, 1]
0.16961055 0.0914362 -0.16925149 -0.096205 0.034378115 -0.06760613 -0.059335 -0.13833168
0.057230666 0.1586358 0.03837204 0.119385704 0.11513649 0.07212663 -0.11228092 -0.1328088
-0.10605983 -0.05080886 -0.083837755 -0.034147337 -0.023160463 0.14805299 0.053632345 0.15781033
0.10232855 -0.15430598 0.09592364 0.0714599 0.07745098 0.06703668 -0.108953 0.12680668
00000000: 63ae 2d3e e742 bb3d 4350 2dbe 2107 c5bd
00000010: 11d0 0c3d 1575 8abd 4209 73bd d2a6 0dbe
00000020: b46a 6a3d 6c71 223e 002c 1d3d 7e80 f43d
00000030: aecc eb3d 20b7 933d 8af3 e5bd 08ff 07be
00000040: e535 d9bd f41c 50bd 21b3 abbd 14de 0bbd
00000050: 03bb bdbc 349b 173e 97ad 5b3d 0899 213e
00000060: a191 d13d 6302 1ebe 9d73 c43d 9159 923d
00000070: 9f9e 9e3d 874a 893d c022 dfbd 9cd9 013e
