checkpoints/2025-06-02-15-35-20/last_epoch.pth (torch, 686901 bytes, 25 tensors)

encoder.0.weight f4 [64, 3, 3, 3]
00000000: 4751 8dbd ddee 32be aa78 6fbd 2432 3ebe
00000010: 8d4c 9f3c f8f3 9bbd 1825 c83c e482 533c
00000020: a48e c33c 054a 28be 8e64 763d df0e 8b3c
00000030: eba1 79bc 6276 fd3d e0f3 02be 102d 973d
00000040: b506 0ebe e845 f53c 0955 36be c209 02bd
00000050: 0900 e53d e400 1dbe 3c3e 003d ff9a 38be
00000060: 5ac4 7bbd 31b5 343d c0de 9ebd f715 00be
00000070: c929 173b bebc 9b3d 9df4 f5bd 3576 d0bd
00000080: d15a 9abc a09e ca3c 95c9 6abc 3dab 26be
00000090: 600b 14bd 2d49 bd3d 80a2 5dbd db4b 2dbe
000000a0: b9fe a63d 339c e9bd aeba f2bd c0dc e63c
000000b0: 8cdf 00bd 0108 2dbe cf74 b4bd 1ecb ff3d
000000c0: e98e 263e b806 e53c 46f7 0cbd 8646 333c
000000d0: 28e0 4b3d bf60 89bc c4ea b33d 9702 b0bd
000000e0: fd07 cebd 9288 cfbd 549b 0fbd 37c3 943c
000000f0: 219f f03d 88b2 233e e1a7 283e f2c9 2dbe
00000100: 88c5 10be 1bc5 193e 2750 24be 57fb 223e
00000110: bd19 ddbd acbb d3bd 628c 093e ef41 a9bc
00000120: 2eb5 d2bd 6cd5 49bc ca04 3c3e 7f1f a4bc
00000130: 238d f3bd 9c2e 37be 268e d4bc e1d0 18be
00000140: 392a 043c bd2b bcbd 09ce 413e 6fd8 263e
00000150: 3537 063e d3be 03be f43d da3d 4f63 95bc
00000160: a886 d03d 0dbb 38bc b379 c63c 0410 103e
00000170: 2ead 973d 73ef bebd 42a2 9c3b 1642 423d
00000180: 0f6c e13b ad96 2e3e 09c0 0cbe c31b e2bd
00000190: ea53 f23b ba03 27bc 3481 373d e618 0ebe
000001a0: f73c 303e 9d21 273e acae 2a3e a0c7 e33d
000001b0: b3ec c9bc c667 34bd f87a 653d 9576 43be
000001c0: d527 773c 1938 45bd 61e6 d13d 03e9 b23d
000001d0: c4cb b7bc 614d 8fbd 8d8c 273e 22c3 01be
000001e0: 7526 1a3c e5aa 00be c9c2 c2bd af2b f2ba
000001f0: b6e5 7cbc baef 293e 8ebb 44be b3cf 083e
00000200: 221b 31bc 94d7 bbbd 59fb b1bd 1f1c 2e3e
00000210: 8f5b 383e edc3 e2bd 670b a3bd 8a8e 183e
00000220: d62f 7dbd 00d1 333e a05e e6bd f456 13be
00000230: ad37 543d b6c8 85bd e37a 963d 040a 243e
00000240: f0d5 f03d 4022 46bc 6c50 11be 82a8 293d
00000250: 22cf 19be 94af 87bd a7ff f03d 734d 86bc
00000260: 55b7 b1bd 3e17 433e 95ac 11bc 9605 8bbd
00000270: 7603 a5bd fb3e da3d 6db4 d73d 093c d23d
00000280: 2acf 35be bfcb a93d 91c9 383e 81fe 2b3e
00000290: fb32 81bd a5f7 183e 76e4 0b3e 38e0 30be
000002a0: 08ed 0e3e 80b5 eebd a5a0 f53b 4493 9dbd
000002b0: 3184 c8bd da58 da3d ec86 6c3c 17c3 ecbd
000002c0: b668 ac3d 316e 283e 24ee 253e 21ed d1bd
000002d0: 9801 bbbd f808 233e d4dc 223e 55a1 293e
000002e0: f2fa a7bc 2098 b53d df0f fbbd 6a24 f93d
000002f0: b485 883d 4856 7d3c 06ad 28be a96e aa3d
00000300: 6af0 1abe f4c8 2c3e 9e69 b93d add4 a63d
00000310: 53b4 ee3d 4488 3138 c294 a23d 5a17 09be
00000320: cd75 223e 38ac 843d 6c48 f93d 5c16 283e
00000330: 68fa 81bd 292e d03d 9153 de3d 60d2 de3c
00000340: 743b c7bd c43d 403b 660f 2bbc dcc1 41be
00000350: 785c 003e 93c6 943d 59d9 893d 67fd e0bd
00000360: 364e 483d 8579 c03c 8e7a 3ebd 1a96 283e
00000370: 7e94 bbbd 5b48 ca3d 54c6 0f3e 1566 aabd
00000380: ae96 2abe d7a2 65bd f878 793d 00fb 983c
00000390: 2aa6 9dbc 64f6 da3d 419f a9bd 400a bbbd
000003a0: 9828 c43d 9316 a939 9c36 e6bb 9654 29be
000003b0: a190 6f3d cacc 133e 962d 2cbe 3af6 efbd
000003c0: 3da6 15bd c280 26be a993 673d d724 3ebe
000003d0: a943 edbd 43e4 96bd 6b4d 3a3e 3c40 563d
000003e0: 45ae ea3d 8682 1a3d a5e0 a13c cd86 c0bd
000003f0: 67d3 6a3c 6f13 473d 4d45 14bd 9851 b83d
-0.06900268 -0.17473932 -0.058464684 -0.18573815 0.019445682 -0.07614893 0.02443175 0.012909625
0.023871727 -0.16434486 0.06015449 0.016974865 -0.015236358 0.12376095 -0.12788343 0.07381642
-0.13869746 0.02994056 -0.17805876 -0.031747587 0.11181647 -0.15332371 0.03130935 -0.18027876
-0.061466552 0.04411811 -0.0775733 -0.12508379 0.0023065677 0.07604359 -0.12009547 -0.10178796
-0.018842133 0.024733841 -0.014330287 -0.1627626 -0.03614366 0.09242473 -0.05411005 -0.16923468
0.08154053 -0.11406746 -0.118520126 0.028181434 -0.03146319 -0.16897584 -0.08811342 0.124899134
0.16265453 0.027957305 -0.034415506 0.010942107 0.04977432 -0.016769765 0.08785012 -0.08594244
-0.100601174 -0.101334706 -0.03506024 0.018159492 0.117491014 0.15986073 0.1647029 -0.16971567
-0.14137852 0.15016596 -0.160462 0.15916191 -0.10795925 -0.1033853 0.13432458 -0.020661322
-0.102884635 -0.01231895 0.18361202 -0.02003455 -0.11892154 -0.17888874 -0.025946688 -0.14923431
0.008066707 -0.0918803 0.18926252 0.162935 0.13106997 -0.12865762 0.10656348 -0.01823583
0.10181934 -0.011275065 0.024227953 0.1406861 0.07406078 -0.09323015 0.004780085 0.047426306
0.0068793367 0.17049666 -0.1374513 -0.110404514 0.0073952572 -0.01019376 0.044800952 -0.13876686
0.17210756 0.16321416 0.16668195 0.1112206 -0.024649 -0.04404428 0.056025475 -0.19088204
0.01508518 -0.048149202 0.102490194 0.0873585 -0.02243603 -0.06997181 0.1636221 -0.12672094
0.009408583 -0.12565191 -0.095098086 -0.0018476153 -0.015435627 0.16595355 -0.19212171 0.13360481
-0.010809692 -0.09171978 -0.08690519 0.17002915 0.18003677 -0.11072526 -0.07961159 0.14898124
-0.061813198 0.17560196 -0.11248517 -0.14388639 0.05181091 -0.06532423 0.073476575 0.16019446
0.11759555 -0.012093127 -0.14190835 0.041420467 -0.15020421 -0.06625286 0.11767512 -0.016394353
-0.08677546 0.19051835 -0.008891244 -0.06788175 -0.08057301 0.10656544 0.1053246 0.10265357
-0.17754808 0.082908146 0.18045641 0.16796304 -0.06308552 0.14938219 0.1366137 -0.17273033
0.13957608 -0.11655712 0.007495957 -0.07694104 -0.097908385 0.10661478 0.014436465 -0.11560648
0.084184095 0.16448285 0.16204125 -0.10250307 -0.09131163 0.1592139 0.15904552 0.1656545
-0.020505402 0.08866906 -0.122588865 0.121651486 0.06666127 0.015462466 -0.16472253 0.08321888
-0.15130773 0.16873533 0.09053348 0.081460334 0.11655488 4.2326996e-05 0.079385296 -0.13387814
0.1586525 0.064781606 0.121720165 0.1641478 -0.06346589 0.10165054 0.10855783 0.027199924
-0.09728137 0.002933369 -0.010440683 -0.18921608 0.12535274 0.072644375 0.06730909 -0.10985833
0.048902713 0.023495445 -0.046503596 0.16463509 -0.09159182 0.09877082 0.140405 -0.08320252
-0.16659042 -0.0560635 0.06090638 0.018674374 -0.019244272 0.106915265 -0.082823284 -0.091328144
0.09578055 0.0003225101 -0.007025553 -0.16536173 0.05848754 0.1443359 -0.16814265 -0.11716886
-0.03653549 -0.16260055 0.056537304 -0.18568741 -0.11585171 -0.07367756 0.18193595 0.052307352
0.114590205 0.037722133 0.01976044 -0.09400711 0.014332629 0.048602518 -0.036198903 0.08999938

encoder.0.bias f4 [64]
00000000: 4fc9 423e 56b8 243e 0c5e 203e e2cf 163e
00000010: f0a6 dcbd da5a f63d 908b abbd f7e7 13be
00000020: ec94 40be e316 acbd 7b66 e3bd a02f 353e
00000030: a847 1b3e 07a2 2dbc 45ab c83c a5bd 783d
00000040: 03d4 12bd a501 c2bc ee4e 44bd f880 91bd
00000050: f6cb ddbd 4ecc 803d f98b 073e 34bd 2a3e
00000060: b3b1 d9bd ac61 33bd 3636 cebd 0864 30be
00000070: cba6 2bbd 84c6 1a3e b925 993d da0f 333e
00000080: fde0 7fbd 6ee8 fe3d 9a12 43be 3e25 86bd
00000090: 89f7 cb3d 60f1 d4bd 8225 953d 73fc 3abe
000000a0: dc92 babd b156 21be ce40 393e 39f4 24be
000000b0: 96fb c93d 0c55 5a3d 0089 30be 9d91 a43c
000000c0: 28fe 3dbe fb27 18be fe21 d93d 86d5 61bd
000000d0: 45ef 2fbe fb25 213e 9f85 0dbe 3340 3cbe
000000e0: e854 babc ecd6 353e 738c f6bd 0fd9 fbbd
000000f0: 9f2d 08bd 030d 96bd 4cfd 8b3d b037 60bd
0.19022106 0.16085944 0.15660876 0.14727738 -0.10774028 0.12029047 -0.08376229 -0.14443956
-0.18806809 -0.08402803 -0.11103531 0.17693949 0.15164053 -0.010597712 0.02449573 0.060727734
-0.03584672 -0.023682425 -0.047926836 -0.07104677 -0.10829918 0.06288968 0.13236989 0.16673738
-0.106295966 -0.04379432 -0.10068934 -0.17225659 -0.041907113 0.1511479 0.07477898 0.17486516
-0.062470425 0.12446676 -0.19050065 -0.06550072 0.09959323 -0.10397601 0.07282545 -0.18260364
-0.091100425 -0.15755726 0.18091127 -0.16108789 0.09862439 0.053303763 -0.17239761 0.020088965
-0.18553984 -0.14859001 0.106021866 -0.055135272 -0.17181118 0.15737145 -0.13820504 -0.18383865
-0.022745565 0.17757767 -0.12038507 -0.1229726 -0.033246633 -0.073267005 0.06835422 -0.054740608

encoder.1.weight f4 [64]
00000000: 60d8 7f3f e613 803f 4cd0 7f3f c9f2 7f3f
00000010: 4b14 803f fbef 7f3f 4c1a 803f 78c3 7f3f
00000020: fe13 803f 6cfb 7f3f 5417 803f 9819 803f
00000030: 121e 803f 5c0c 803f 4b07 803f e500 803f
00000040: f01f 803f 1110 803f c2da 7f3f 3cd3 7f3f
00000050: 26e7 7f3f ee17 803f 1b01 803f bad1 7f3f
00000060: 8ce6 7f3f e0c9 7f3f bf0d 803f 2b12 803f
00000070: 47ec 7f3f d3e1 7f3f 7903 803f 80c3 7f3f
00000080: d5d7 7f3f da01 803f f7dd 7f3f 9311 803f
00000090: 7ee0 7f3f ef14 803f dd0b 803f 69ed 7f3f
000000a0: f0c4 7f3f 0a21 803f 690d 803f 3f21 803f
000000b0: 2ef0 7f3f cff4 7f3f 6cbe 7f3f 3ec1 7f3f
000000c0: 4c00 803f d6d2 7f3f 53dd 7f3f 1808 803f
000000d0: 0219 803f 3917 803f 750a 803f 88c9 7f3f
000000e0: de03 803f 331e 803f 9013 803f 2b00 803f
000000f0: a60f 803f 8ce5 7f3f 98d8 7f3f 98cb 7f3f
0.9993954 1.0006073 0.9992721 0.99979836 1.0006193 0.99975556 1.0008025 0.99907637
1.0006101 0.99993014 1.0007119 1.000781 1.0009177 1.0003772 1.0002226 1.0000273
1.0009747 1.0004903 0.9994317 0.99931693 0.9996208 1.0007303 1.0000337 0.9992939
0.9996116 0.9991741 1.0004195 1.0005544 0.99969906 0.99953955 1.000106 0.99907684
0.9993871 1.0000565 0.99948066 1.0005363 0.9995192 1.0006388 1.000362 0.99971634
0.9990988 1.0010083 1.0004092 1.0010146 0.9997586 0.99982923 0.99899936 0.9990424
1.0000091 0.99931085 0.9994709 1.000247 1.0007632 1.0007087 1.0003191 0.9991689
1.000118 1.0009216 1.000597 1.0000051 1.0004776 0.99959636 0.9993987 0.99920034

encoder.1.bias f4 [64]
00000000: fa04 a1b9 db92 a139 9960 b6b9 40d1 6d3a
00000010: 9155 e938 8c95 acb7 9268 863a 6fd5 cf39
00000020: 1d0d b639 90f7 303a 37e0 413a d908 7f3a
00000030: b9b0 573a 1fbf 103a 2cac b439 3486 633a
00000040: eb02 003a 34dd ed39 1ad5 88b6 f44f 08ba
00000050: 1f17 42ba 911c 89b9 4dc8 f6b9 0ca5 6dba
00000060: 706b 4fb8 2430 5aba b07c c839 9947 71ba
00000070: bc11 45ba 2a9e 0cba fe58 443a d4bd 40ba
00000080: 4960 d7b8 9b3f b038 b0ab a6b9 1102 30ba
00000090: 6b91 eab8 3a94 463a 30c0 8539 e6e3 b4b9
000000a0: 14c9 b7b9 ea39 153a 15b8 65ba bf9c 1e3a
000000b0: a864 6e3a 831b de36 cca2 7aba f685 3fba
000000c0: 0baf fbb8 0708 2fba c400 adb9 fca5 9939
000000d0: 80a3 9e39 fde4 4fb9 0034 e1b9 ef5a 9e39
000000e0: 1dd5 103a 7b03 723a 3184 e839 4641 53ba
000000f0: 2f6e 4139 975d 63ba f2e1 86ba 5aaa 67ba
-0.0003071202 0.0003081773 -0.00034785716 0.0009072013 0.00011126244 -2.0573636e-05 0.0010254553 0.00039641137
0.00034723515 0.0006750757 0.00073957763 0.00097287964 0.0008227933 0.00055216433 0.00034460553 0.00086793606
0.00048832473 0.00045368972 -4.077924e-06 -0.0005199902 -0.0007403958 -0.0002615196 -0.00047070012 -0.00090654264
-4.9452705e-05 -0.00083232136 0.00038239872 -0.00092040893 -0.0007517596 -0.00053641445 0.00074900675 -0.00073525053
-0.000102699334 8.4041814e-05 -0.00031789904 -0.0006714175 -0.00011185076 0.0007575188 0.00025510928 -0.00034502073
-0.00035054295 0.0005692529 -0.0008763087 0.00060505787 0.00090939784 6.6193184e-06 -0.0009561002 -0.00073060335
-0.00012001217 -0.00066769164 -0.00032997702 0.00029306102 0.00030257925 -0.00019826363 -0.00042954087 0.0003020386
0.00055249204 0.0009232086 0.0004434898 -0.0008058738 0.00018446961 -0.0008673309 -0.0010290726 -0.0008837335

encoder.1.running_mean f4 [64]
00000000: 046d 003f d836 c23e db11 723e 4751 1ebe
00000010: 1a5e 20bd 0104 213d ece7 c3be ac0d b6be
00000020: 2e72 0fbe 03e1 96be f3eb 213d 79f3 07be
00000030: c304 373c e317 44bd 06ef 87be 6611 eabc
00000040: 258b 413e 6139 03bc dc43 38bd 555f 3ebe
00000050: f6a9 0abd 61fa a33d 5398 883e bd73 d23d
00000060: a679 123d b63a 48be bde4 4ebd 300f 5ebe
00000070: cfbd 713d 24ae ff3e 8f88 7dbd 401d 513e
00000080: 623d 35bd ad54 2c3e 5dac 44be 2f29 d0bd
00000090: 1b63 8a3e ec1d 67be 3219 873d 239c 55bd
000000a0: d112 60bd 375b 21bc 7a55 8e3e 37ce cbbd
000000b0: 0eae 313e 2748 e73e 834d edbd 9389 433d
000000c0: ae8e 2e3d a58f bfbe e3dc 3a3e 54a5 afbe
000000d0: 6af8 2ebe 1bcf c73e 7c4c 8fbe 9ec9 53be
000000e0: 6003 2b3d 6dd5 5f3e 00f0 55bd 34f0 97be
000000f0: 0bcd 21be 660b ccbe 1f06 663e b9b0 a4be
0.50166345 0.37932467 0.23639624 -0.15460692 -0.039152242 0.03931046 -0.3826288 -0.35557306
-0.140084 -0.29468545 0.03953166 -0.13276471 0.011170569 -0.047874343 -0.26549548 -0.02857275
0.18900736 -0.008009286 -0.04498659 -0.18591054 -0.033853494 0.0800674 0.26678714 0.102759816
0.035760544 -0.19553646 -0.05051111 -0.21685481 0.059018906 0.49937546 -0.06189781 0.20421314
-0.044247992 0.16829176 -0.19206376 -0.10164105 0.27028736 -0.22570008 0.065966025 -0.052150857
-0.054705445 -0.0098484075 0.27799588 -0.09951442 0.17351553 0.45172235 -0.1158705 0.047738623
0.04261654 -0.3741428 0.18248324 -0.34305823 -0.1708695 0.39025196 -0.2798804 -0.2068238
0.041751266 0.21858759 -0.052230835 -0.29675448 -0.15800874 -0.39852446 0.22463273 -0.3216608

encoder.1.running_var f4 [64]
00000000: b9e2 9a3f f253 003f fec9 913e a97d 913f
00000010: 98ec b83d 6534 c23d 58a3 923f 8fc6 153f
00000020: 453d f03d 5898 6d3f 84bc 6c3e e764 6a3f
00000030: 9211 a53e e463 883e 6270 5a3f d144 263e
00000040: 8dae 1b3f e54a 393d 4a52 a33d 9111 3f3e
00000050: 0451 9a3d 6a89 663d 442d d63e a515 7f3d
00000060: a1ee a33e 8ccf e63e ec39 793d b733 5e3d
00000070: 67a1 d33e 49fe a93f e626 c13e fc53 a03d
00000080: 818f 033e f34c c03d 3f27 a83d f6f5 133e
00000090: 572c b73e bb9c 4e3e 7b1d 113d 71d3 ac3e
000000a0: e49a ce3d e659 d13e f058 e33d 8ffc 423d
000000b0: a9d5 3a3e 4fc2 d43f 033e 263e 4f5f 273d
000000c0: b5fa 5a3f 4b4a e53e 0437 513e 4cae 853f
000000d0: 6ad3 ec3d 9a69 013f 9de5 653e 30ba 1d3d
000000e0: d151 0a3f 865d 093e ecbd bd3d 5a85 0e3f
000000f0: 05f9 753e 86ea c43f f1c4 743e d4bb 4a3f
1.210044 0.5012809 0.2847442 1.1366473 0.09029502 0.0948265 1.1456099 0.585061
0.11730436 0.92810583 0.23118788 0.91560215 0.32239968 0.2663871 0.8532773 0.16237189
0.6081322 0.04523744 0.0797468 0.18659045 0.07534984 0.056283392 0.4183141 0.0622765
0.32017997 0.4508022 0.060846254 0.054248538 0.41334078 1.3280727 0.3772499 0.07828519
0.12847711 0.09389677 0.082106106 0.14449295 0.35776016 0.20176975 0.035428505 0.33755067
0.10088137 0.408889 0.11100948 0.04760414 0.18245567 1.6621798 0.16234593 0.040862378
0.855388 0.44783244 0.20431143 1.0443816 0.115637615 0.5055176 0.22450872 0.03850764
0.5403109 0.13414583 0.0926474 0.5567223 0.24020775 1.5384071 0.23903252 0.7919285

encoder.4.weight f4 [128, 64, 3, 3]
00000000: e219 17bb c31c 47bb f5f1 abbc 45b6 143d
00000010: c217 02bd aa34 083b 227c c1bb 2f64 0bbd
00000020: d13d d43c 3ff5 17bd ef7e 25bd 734a fc3b
00000030: 1d97 48bc ddcd 00bd a131 f9bc 674f 8cbc
00000040: 0d6e 29ba 92f5 003d 74fb dd3c bb31 08bd
00000050: 4475 3d3c e316 8e3c f878 bfbc 7c8a e53b
00000060: ba37 6c3c f53d 103d 4257 3c38 4521 25bd
00000070: 8065 2dbc 8f7d 29bd 1543 043d 45b2 4abc
00000080: 9ecd febc 773a b6bc 55cd 04bd 92e1 993c
00000090: db64 65bb e604 94bc c8fc ed3c 81c9 a83b
000000a0: e2d6 fdbb 71df c23c a229 463c 2771 e1bc
000000b0: 883c cd3c bb41 04bd e4b6 f2bc ff9e 14bd
000000c0: debc df3b 4d1c 103d 53a3 c8bc 5787 443c
000000d0: afad c53c d32e c0bc 3287 22ba 6cb8 063d
000000e0: f1b7 cbbc e835 4c3c 9564 04bc 6374 dbbc
000000f0: a176 763c 680e ef3c 6bd6 f5bc c4e0 d43c
00000100: 3035 9bbc 132c babc 539f 913c 7818 c4bb
00000110: 49b6 133d 65a7 04bd 3c16 7d3c 1aef 153d
00000120: 71c0 30bb d6e8 693b ad4d 29bd 20c4 0abd
00000130: 2786 87bc 3599 983c 6323 82bc f7bb 5cbb
00000140: 39f2 1fbd 4589 1bbd 0b04 823c 01a0 223d
00000150: 3c88 1fbd e2c2 d03c 22ca 233d 4c66 343c
00000160: aa5f 023d a863 94bb 17d5 f8bc bc58 aa3c
00000170: d60a 1e3d 594f 353b dde6 ce3c 3885 b23a
00000180: 9542 043c 571c 153d 4056 d53c 2f02 17bd
00000190: dba9 b83c b6b7 09bd b595 92bc 76f7 943c
000001a0: 96ad ad3a 0cea 57bc 66d4 00bc 5b4c 213d
000001b0: 2496 9bbc 5c8a 2f3b 6e3f c3bc 42cc c13c
000001c0: 94e1 c73c 25f8 063d 06c2 163d c899 0c3d
000001d0: 5298 a4bc 21f8 863c 6ad2 913c 56b4 9bbb
000001e0: aa88 0abd 2bd9 acbc e400 f9bc 9e0f 25bd
000001f0: 4883 153d c479 c0bb dbe9 e4bc 4e99 96bc
00000200: b78d aebc 8cd8 f2bc 2981 b93b 2668 013c
00000210: c12a b63c 01ea 1c3d 30ae 22bb f124 d63c
00000220: 899f 9ebc 648f b0bc d331 aa3c 6d17 7a3c
00000230: 20ac 54bc 5b2c 853c 0422 653c 2edd fe3c
00000240: 20ce 27bc c581 c2bb d2d8 69bc 8f1e 823c
00000250: 80fa 623b 9841 6c3c 1ce1 f23c 5a32 283d
00000260: c034 b1bb 29a6 08bd 73eb 103d ebf4 58bc
00000270: 8d41 2dba 1439 183d 3f6c f23c 1f6f a83b
00000280: f53d c2bb 0eab aabc 2c55 033d 112c ca3c
00000290: 3eb6 0a3d d758 9e3c 8ee5 183d e0c5 87bc
000002a0: 1b46 183d c928 da3b 46ba 463c 1ad2 383c
000002b0: 8bc3 033d 0a56 fe3c ac53 073d fa11 f638
000002c0: 86e4 a8bc 301d d4bc 45b0 383c a8d8 0dbc
000002d0: c791 413b 373b 273d 6829 12bd 7c07 94bc
000002e0: 60e8 c7bc 515d eebb ff47 943c 6e07 873c
000002f0: 1f80 18bd eb60 babc ae5f 9f3b 4692 8ab9
00000300: 2a2d 09bd bf55 483b 03f6 063d 7b84 8b3c
00000310: b9e1 34bc 1903 ce3c eedd 1c3c 2f96 ed3c
00000320: baa2 79bc ca13 ecbc 2d07 02bd e906 69bc
00000330: ee0c 7dbc 2f49 79bc f25a c53b c688 413b
00000340: f0a8 69bc 9cdf 163c 9e6e b2bc 6b43 233d
00000350: 262e 24bd dd70 013c 915e 31bc 7e69 babc
00000360: d868 29bd 299a c13c ab03 e73c 1057 f4bc
00000370: c896 27bd 5b60 04bd 552d 0e3c 39c9 1a3c
00000380: aee9 1f3d 650f d4bb 9d24 c23b cf85 8f3c
00000390: a17c babc cb4b 15bd c765 31bc 310b f03c
000003a0: 42bd 553c d4da c33b d51d 31bc 72cd e2bc
000003b0: 22b0 c53c 0254 223d dfe3 8f3c 33cd 9a3c
000003c0: 2d4d 9e3c 2125 76bc d112 41bc 3704 d7bc
000003d0: d640 053d 0026 abbc 5009 34bc 0c10 313a
000003e0: 7b6a 22bd aeaf c93c a3ea 453c e23f 68bc
000003f0: 0899 993c eb9b 98bb ed01 c8ba b161 033c
-0.00230562 -0.0030382134 -0.020989398 0.03630664 -0.03176094 0.0020783343 -0.0059046904 -0.03403109
0.025908383 -0.03709912 -0.040404256 0.0076993047 -0.012243059 -0.031446327 -0.030419173 -0.017127706
-0.0006463237 0.031484194 0.027097441 -0.03325055 0.011563603 0.017344898 -0.023373112 0.007005034
0.014417583 0.035215337 4.4903958e-05 -0.04031493 -0.0105832815 -0.041379508 0.032290537 -0.012371604
-0.031103905 -0.022244675 -0.032422382 0.018784318 -0.0035002741 -0.018068742 0.0290512 0.0051509743
-0.0077465633 0.023788186 0.012094887 -0.027519776 0.025053278 -0.032289248 -0.029628225 -0.036284443
0.0068279346 0.03518324 -0.024491942 0.011995158 0.02413067 -0.023459828 -0.0006199955 0.032890722
-0.024867984 0.012464024 -0.008080621 -0.026788896 0.015042932 0.029181674 -0.030009469 0.025986083
-0.01894626 -0.022726094 0.017776167 -0.005984362 0.036062513 -0.032386202 0.015447196 0.03660498
-0.0026970173 0.003569176 -0.041333843 -0.033878446 -0.016543461 0.018627742 -0.015886014 -0.0033681372
-0.03904936 -0.037972707 0.015871068 0.039703373 -0.038948283 0.025483552 0.03998769 0.011010718
0.031829514 -0.0045284815 -0.030375047 0.020794265 0.038584553 0.0027665703 0.025256569 0.0013620025
0.008072515 0.03640398 0.026042104 -0.036867317 0.02254193 -0.033622466 -0.017893652 0.018184405
0.0013250585 -0.01317836 -0.00786314 0.03937946 -0.018992491 0.002678535 -0.023833957 0.023656968
0.024399556 0.032951493 0.03680613 0.034326345 -0.020092163 0.016475739 0.017800529 -0.0047517223
-0.03382174 -0.021099648 -0.030395932 -0.040298097 0.036502153 -0.0058738906 -0.027943542 -0.018383648
-0.02130781 -0.029644273 0.005661149 0.007898366 0.022237184 0.0383091 -0.0024823062 0.026140662
-0.019363182 -0.021552749 0.020775711 0.015264374 -0.012980491 0.016256502 0.013985161 0.031111326
-0.010242015 -0.00593588 -0.014272885 0.015883712 0.0034634173 0.014419936 0.029648356 0.041063644
-0.0054078996 -0.033361588 0.035380792 -0.013241987 -0.0006609194 0.03716381 0.029592631 0.0051402
-0.005927796 -0.020833518 0.032063648 0.024679216 0.033865206 0.019329472 0.037328295 -0.016573846
0.037176233 0.006657694 0.012129372 0.011280561 0.032168906 0.031046886 0.03303878 0.000117335425
-0.020616781 -0.025892824 0.011272495 -0.008657612 0.0029536353 0.040827956 -0.03568402 -0.018069975
-0.024402797 -0.007274308 0.018100737 0.016483035 -0.03723156 -0.022751292 0.004863701 -0.00026430393
-0.033490337 0.0030568687 0.03294946 0.017030945 -0.011040145 0.025147961 0.009574397 0.029002277
-0.015236551 -0.02881803 -0.031745125 -0.014222839 -0.015444977 -0.015215202 0.0060228044 0.0029530986
-0.014261469 0.009208586 -0.021781262 0.039859217 -0.040083073 0.007900444 -0.010825769 -0.02275538
-0.041359752 0.02363308 0.028199991 -0.02982667 -0.04091528 -0.032318454 0.0086778 0.009447389
0.039041214 -0.0064715617 0.005924775 0.01751986 -0.022764506 -0.036449235 -0.010827488 0.029302211
0.013045611 0.005977014 -0.010810335 -0.027685855 0.024131838 0.039630897 0.017564712 0.018896675
0.01932391 -0.015023501 -0.011784271 -0.026247127 0.032532535 -0.020892143 -0.010988548 0.00067544053
-0.03965233 0.024619903 0.012079868 -0.014175387 0.018749729 -0.0046572587 -0.0015259363 0.008018897

encoder.4.bias f4 [128]
00000000: ba5f 10bd 4473 133d 1da6 ab3b 9f21 18bc
00000010: 550d bfbc 80d2 00bd 8455 833b dae6 d6bc
00000020: fa45 92ba 5a23 23bc 63b1 a8bc 9465 1c3d
00000030: cf85 043d 6f65 26bd 9d03 fabc 821b cebb
00000040: 7d92 b3bc ad76 94bc 8857 2bbc 99e6 1b3d
00000050: 97e8 713c 5950 963c fd50 a03b e055 26bd
00000060: 12d4 51bc 6a2e 1b3d c180 253d e642 ff3c
00000070: 078c a83b 5830 d5bc 6b30 11bd 6316 cf3c
00000080: 26f6 28bd 555a ea3c db40 cfbc 9750 293d
00000090: 733d e63b c270 bf3c 51c9 983c 9577 22b9
000000a0: 373a dabb f9ee ec3c 48d5 1b3c b5ee aebc
000000b0: ddd5 a93c 146c 9e3c 57b0 c5bc 5f4d fd3c
000000c0: 7bc7 e43c bc57 a2bc 417a 8e3c 4c3a abbc
000000d0: e5aa 893a 2b27 f13c 3001 583c a486 063d
000000e0: 154c 5abc 287d 623c 2507 033d 9104 e7bc
000000f0: e238 4b3b 599b a8bb d617 1c3b 5e4d f83c
00000100: 7dd7 3e3c 4833 be3c ee5d f13a bdd5 1f3c
00000110: c62c 9f3b 2ce6 113d ffbd ccbc 4bf2 123d
00000120: e2fd a93c 14e2 ad3c 77f0 68bc d1bf 213c
00000130: a0ee 22bd e772 1e3c d266 6c3c 3806 a839
00000140: a01f 56bc d123 29bd 14b6 caba dbcf 003d
00000150: 5a09 20bc 2a2c dabc d5f1 6e3c 0889 fdbc
00000160: f799 763c 0ece 253d 4c9f e93c 993b 013d
00000170: f83c 523c 6351 06bc fa85 143a 9718 7f3c
00000180: 3434 a5bb 698d 943c 08bd 123d 03f1 c2ba
00000190: 7741 b43c 1ef0 3a3c b4e9 4dba 241d 933c
000001a0: ac79 293d 576a 1d3d 6a62 043d 1596 593c
000001b0: 28ae 07bd 51a8 17bd 7c2b 7ebc e292 4a3c
000001c0: 98fc e1bc 7d6e 24bc b082 efbc 3ba6 29bd
000001d0: c7e7 44bc 8204 0d3d 86dc fe3a e93c 00bd
000001e0: 848b 17bd e44c 293d ad94 e7bc f11e 73bc
000001f0: 0112 2abd d825 023d f78a 323c ff14 88bc
-0.035247542 0.035998598 0.005238308 -0.00928536 -0.023321787 -0.03145075 0.004007997 -0.026233125
-0.0011159771 -0.009957159 -0.020592397 0.03818281 0.032354172 -0.04062408 -0.030519301 -0.0062899003
-0.021920437 -0.018122995 -0.010457881 0.038061712 0.014764926 0.01834886 0.004892467 -0.04060924
-0.012806909 0.03788606 0.040405992 0.03115983 0.0051436457 -0.026024029 -0.035446566 0.02527923
-0.04125037 0.028607527 -0.02529948 0.041336622 0.0070263683 0.023369197 0.018650683 -0.00015494072
-0.006659772 0.028922545 0.009511299 -0.021354059 0.02073186 0.019338645 -0.024131937 0.030920682
0.027927151 -0.019817226 0.01739228 -0.020901822 0.0010503201 0.029437622 0.013183877 0.032843247
-0.013323803 0.013823785 0.031989235 -0.02820042 0.0031009247 -0.005145472 0.0023817918 0.030310329
0.011648056 0.023217812 0.0018414834 0.009755549 0.0048576323 0.0356199 -0.024992941 0.0358756
0.020750944 0.021225967 -0.014217488 0.009872393 -0.03977835 0.00967095 0.014428811 0.0003204809
-0.013069063 -0.041293923 -0.001546564 0.031448226 -0.009767855 -0.026632387 0.014584024 -0.03094913
0.0150513565 0.040479712 0.028518341 0.031550977 0.012831919 -0.008198115 0.0005665716 0.0155698275
-0.0050416235 0.018133836 0.035824805 -0.0014872852 0.022003872 0.011409787 -0.0007854954 0.017958231
0.0413758 0.03843149 0.032320417 0.013280411 -0.033125073 -0.037025753 -0.015513297 0.012364121
-0.027586266 -0.010036108 -0.029237121 -0.041418295 -0.012018151 0.034428127 0.0019444383 -0.03130809
-0.036998287 0.041333094 -0.028269136 -0.01483892 -0.041521076 0.03177437 0.01089739 -0.016611574

encoder.5.weight f4 [128]
00000000: 48cd 7f3f d0e8 7f3f 1c02 803f d3c7 7f3f
00000010: 8dbc 7f3f 24c3 7f3f 48d4 7f3f c019 803f
00000020: 93ce 7f3f 3820 803f ab20 803f 251b 803f
00000030: 6bc0 7f3f 91c1 7f3f 3fd5 7f3f 8316 803f
00000040: 3edc 7f3f 150a 803f 73c0 7f3f 5b1f 803f
00000050: f9d2 7f3f 580b 803f bfe6 7f3f 310e 803f
00000060: b8c7 7f3f 1912 803f 9604 803f 53c5 7f3f
00000070: 7c07 803f 211a 803f ab1f 803f e201 803f
00000080: ba19 803f ed0e 803f b11c 803f f7c6 7f3f
00000090: 52d4 7f3f 1f0f 803f 07d9 7f3f 3a03 803f
000000a0: 991b 803f 871a 803f 67d0 7f3f b0d0 7f3f
000000b0: ebfe 7f3f 9419 803f 3300 803f 8fd2 7f3f
000000c0: af20 803f 6112 803f 781d 803f 66fe 7f3f
000000d0: d001 803f e711 803f 78e5 7f3f d60e 803f
000000e0: d91f 803f 7f1e 803f 211f 803f 1619 803f
000000f0: ec15 803f 69d6 7f3f 54d9 7f3f 5a13 803f
00000100: 9a05 803f 78d9 7f3f 2cbe 7f3f 85e1 7f3f
00000110: c4bd 7f3f ce19 803f 0019 803f b2e2 7f3f
00000120: d6d9 7f3f 2801 803f 77c3 7f3f 79f6 7f3f
00000130: d00e 803f 3dc7 7f3f dcbe 7f3f 8e02 803f
00000140: 0ec1 7f3f 960c 803f c104 803f 4604 803f
00000150: 62e5 7f3f a5cb 7f3f 6cd7 7f3f d4c0 7f3f
00000160: ba1b 803f 500b 803f 360e 803f 94c4 7f3f
00000170: b6d9 7f3f 54f0 7f3f 8dd4 7f3f 5a1f 803f
00000180: 32cd 7f3f 5fcc 7f3f 4405 803f 63cd 7f3f
00000190: 3d17 803f ec1d 803f a8f3 7f3f d311 803f
000001a0: 8bd1 7f3f f60c 803f 89c4 7f3f a621 803f
000001b0: 9f0b 803f 2a19 803f 71e7 7f3f 0814 803f
000001c0: 84e7 7f3f 8c07 803f 4806 803f 44cf 7f3f
000001d0: 451c 803f 1014 803f 351c 803f 3904 803f
000001e0: 13cf 7f3f 1a10 803f 7cce 7f3f 4ac2 7f3f
000001f0: 5c20 803f 11be 7f3f 030d 803f 8922 803f
0.9992261 0.9996462 1.0000644 0.9991428 0.9989708 0.99907136 0.9993329 1.0007858
0.9992458 1.0009832 1.000997 1.0008284 0.9990298 0.99904734 0.9993476 1.000687
0.9994544 1.0003077 0.9990303 1.0009569 0.99931294 1.0003462 0.99961466 1.0004331
0.9991412 1.0005523 1.00014 0.9991047 1.0002284 1.0007974 1.0009664 1.0000575
1.0007851 1.0004555 1.0008756 0.9991297 0.9993335 1.0004615 0.9994053 1.0000985
1.0008422 1.0008096 0.9992737 0.99927807 0.9999835 1.0007806 1.0000061 0.9993066
1.0009974 1.0005609 1.0008993 0.99997556 1.0000553 1.0005463 0.99959517 1.0004528
1.0009719 1.0009307 1.00095 1.0007656 1.000669 0.9993654 0.9994099 1.0005906
1.000171 0.99941206 0.99899554 0.9995349 0.99898934 1.0007875 1.0007629 0.99955285
0.99941766 1.0000353 0.9990763 0.9998546 1.000452 0.9991339 0.99900603 1.000078
0.99903953 1.0003841 1.0001451 1.0001304 0.99959385 0.9992011 0.9993808 0.9990361
1.0008461 1.0003452 1.0004337 0.9990933 0.99941576 0.99976087 0.999337 1.0009568
0.9992248 0.9992122 1.0001607 0.9992277 1.0007092 1.0009131 0.99981165 1.000544
0.9992911 1.0003955 0.99909264 1.0010269 1.0003546 1.000768 0.99962527 1.0006113
0.9996264 1.0002303 1.0001917 0.9992564 1.0008627 1.0006123 1.0008608 1.0001289
0.99925345 1.0004914 0.99924445 0.99905837 1.0009875 0.99899393 1.0003971 1.0010539

encoder.5.bias f4 [128]
00000000: 8d07 71ba b610 67ba 13f6 453a dbb1 683a
00000010: 1c80 93b9 5c16 26ba 0703 6aba 74b9 f439
00000020: 90f9 1c39 b1a1 40b9 cbe9 cab8 1d85 e139
00000030: 5796 77ba 530e 85ba 7dc4 0c39 b9ee 6f3a
00000040: 795d 81ba 57e4 46b9 8878 61ba 7735 5a3a
00000050: ddb9 8139 9ca7 38b8 488c 4bb9 64e2 013a
00000060: 6914 75ba 6659 d139 afca 5fba b5d3 25ba
00000070: a8d0 e3b9 8e8b 4f3a 2b90 143a 59af a3b8
00000080: a6f4 753a 3cb3 333a 44d4 b939 ee1f 43ba
00000090: d051 35ba 4e67 cc39 dcae 5439 efa2 6d3a
000000a0: b182 443a 9d09 723a 28cf acb9 a7db 66ba
000000b0: 91c3 d137 8111 093a e2d2 5aba ee06 30ba
000000c0: 9fa0 463a e93a b939 b8de f7b8 486c 5cba
000000d0: 9f4f 39ba 2583 0d3a 40dc 613a 8189 7fba
000000e0: 4ebb 3639 3ace 02ba 2096 7b3a b772 3c3a
000000f0: c155 1e3a dc02 243a a03b 3e39 eba9 a039
00000100: ae38 ffb8 d4b0 33ba dedf 58ba a0bd 28ba
00000110: 878e 9039 08d3 213a c68d 4e3a 4e10 3e3a
00000120: c393 7eb9 9b9e 753a c1f6 62ba 71a7 223a
00000130: 8fe9 9039 95db 2aba f3df 52ba a122 5b39
00000140: 2adc 80ba 4207 24ba d7a0 37b9 ed6b 02ba
00000150: a094 52ba da2b 5cba 3968 35ba 04dd 7aba
00000160: 2662 7b3a 81b1 0e3a 1d48 363a c2b3 4fba
00000170: 56ca 24ba 8336 45b8 15de 0aba 2c0f 473a
00000180: 0b0e 71ba 8bb9 05ba dac8 a139 bdde 65ba
00000190: ead2 ef39 ef13 523a eb86 f2b9 5780 303a
000001a0: 8961 b539 c1bb 22ba e1cd 5eba 164b 9839
000001b0: 0097 d738 9530 023a cd71 fdb9 3537 36ba
000001c0: eea5 00ba 3ce9 2aba 5c48 1cba 3b61 07ba
000001d0: 4343 533a e47c dd39 098f 2c3a 616d 4e3a
000001e0: 7316 1939 4975 f839 7654 e438 291d 82ba
000001f0: 9c2d 803a 10e2 5dba 1e2a d0b7 7434 823a
-0.00091945456 -0.0008814441 0.00075516215 0.00088766 -0.00028133474 -0.0006335729 -0.0008926843 0.0004667748
0.00014970289 -0.00018370782 -9.675658e-05 0.0004301452 -0.00094447046 -0.0010151364 0.00013424638 0.0009152699
-0.0009869776 -0.00018967815 -0.00086010294 0.0008324007 0.00024743276 -4.4025117e-05 -0.00019411847 0.00049546943
-0.00093490497 0.00039930193 -0.0008536977 -0.00063257973 -0.00043452275 0.00079172186 0.00056672347 -7.805107e-05
0.0009382464 0.0006855016 0.000354441 -0.00074434176 -0.0006916793 0.0003898688 0.00020283036 0.00090651115
0.0007496281 0.0009233 -0.0003296074 -0.00088065345 2.500581e-05 0.00052287435 -0.0008347464 -0.00067149
0.0007577035 0.0003532984 -0.000118193624 -0.0008408469 -0.00070690544 0.0005398265 0.00086158887 -0.00097479677
0.00017426649 -0.00049898366 0.00095972605 0.00071887247 0.000604 0.00062565296 0.00018142024 0.00030644177
-0.00012169905 -0.00068546575 -0.0008273105 -0.0006436948 0.00027572011 0.00061731087 0.0007879402 0.00072503544
-0.00024278373 0.00093696424 -0.0008657985 0.000620476 0.00027639835 -0.00065177056 -0.00080442353 0.00020898368
-0.0009831239 -0.0006257185 -0.00017512158 -0.00049751886 -0.0008033011 -0.00083988684 -0.00069201324 -0.0009569677
0.00095895154 0.000544332 0.0006953495 -0.00079232093 -0.0006286254 -4.7019228e-05 -0.0005297375 0.00075935083
-0.0009195513 -0.00051011954 0.0003085796 -0.00087688473 0.00045742776 0.00080138346 -0.0004625836 0.00067329913
0.0003459568 -0.0006207787 -0.0008499306 0.00029047643 0.00010280125 0.0004966346 -0.0004834071 -0.00069509755
-0.0004907538 -0.000651974 -0.000596171 -0.000516433 0.0008059034 0.00042245456 0.0006582593 0.0007874575
0.0001459958 0.0004738963 0.00010887619 -0.0009926903 0.0009779218 -0.0008464167 -2.4815145e-05 0.0009933845

encoder.5.running_mean f4 [128]
00000000: bea8 0a3c cfb9 a83d fc87 8ebe 7c6f eb3e
00000010: f5c9 37be df06 dcbd a450 9b3e 188c 1dbe
00000020: 5860 cc3e ee5b a33e 7366 bc3e 6706 b33e
00000030: c678 043d 5afc 51be 1f07 2e3e 9d1a 29bd
00000040: e136 a03e 7bc7 543e 52e4 98bd a1ce 8e3c
00000050: 93c2 8abd 2f91 223e 266f 183f 32a4 eebe
00000060: 21d2 9dbe cd29 d3be 78ea 3f3e 9b43 05be
00000070: cf73 073f 3dd4 b4be 6520 ea3d 8a6b 13bd
00000080: 7a16 603e 83b7 5bbd 2ba6 773e f739 f7be
00000090: 3cd4 83be 396d fdbd da51 a93d 9719 9fba
000000a0: 9b91 18bf 8128 bebe 481d b3be a464 0d3f
000000b0: e03a d83d 4fd5 74bd 161b 14bf 947f 0d3e
000000c0: 00af 4ebd c387 e13c 39e9 173f 639e e6bd
000000d0: c8d3 e93d eb65 22bf 4a3f 0cbe 925d e53e
000000e0: 49e7 41be b53e 993d 7c68 db3e ab70 81be
000000f0: 4ab5 8bbd 8748 ecbe fe16 053e 2e67 8cbd
00000100: 5329 c63e e84b 203d 2120 e8bd d116 a8bd
00000110: 1e02 0e3e 7029 7fbe de76 6fbe 0369 5abd
00000120: 2719 1abe 3d0f 8cbe 780d 03be fac8 063f
00000130: 0cf3 b53d 0378 9f3d 218f 1cbe 8342 a83e
00000140: 6ab8 033f 332d 5d3e 9801 253f c685 4f3d
00000150: 54d3 8a3e c4e6 e8bd ae03 6d3e 8bcd b6be
00000160: 5667 0ebe 9c2b 963e 40be 8b3e dd91 14be
00000170: 3a4c 6a3d 07d9 673d 7590 7b3e 5198 1abf
00000180: d48b 173e 694d fb3d d33b 6c3d 6449 b73d
00000190: b1fe 59be 2cdb ff3e b4a5 8abd df83 223e
000001a0: 926d 71be 08ef 063e 6682 163e 7d9d 923e
000001b0: dc4b 283c 0c8d a63d 2b61 97be b683 083e
000001c0: b546 56bf 211c 053f ae70 ac3e 1c7c 413e
000001d0: edbf 473f 3d05 ef3d 925a 1fbd 4e62 a0bb
000001e0: d700 8dbe 3207 1dbe 27d4 b53d 376a 03bf
000001f0: f958 43bd f29c 753e 26da abbd f2f5 693e
0.008463083 0.08238565 -0.27838123 0.45983493 -0.17948134 -0.10743498 0.3033496 -0.15385473
0.39917254 0.31906074 0.36796913 0.34965822 0.03234174 -0.2050642 0.16994904 -0.041285146
0.3129187 0.20779221 -0.07465424 0.017432513 -0.06775393 0.15875696 0.595446 -0.46609646
-0.30824378 -0.4124283 0.18741786 -0.1301407 0.52911085 -0.35318175 0.1143196 -0.03599123
0.21883574 -0.053641807 0.24184482 -0.4828641 -0.2574786 -0.12374348 0.08267565 -0.0012138364
-0.59597176 -0.37140277 -0.34983277 0.5523169 0.105581045 -0.05977374 -0.5785383 0.13818198
-0.05045986 0.027530557 0.59340245 -0.112606786 0.11417347 -0.63436764 -0.13696018 0.4479795
-0.18935885 0.074826635 0.42853153 -0.2528127 -0.068216875 -0.46149084 0.12997052 -0.068556175
0.38703403 0.03913489 -0.11334253 -0.08207477 0.13867995 -0.24918151 -0.23385188 -0.053322803
-0.15048657 -0.27355376 -0.12798107 0.52650416 0.08884248 0.07786562 -0.15288974 0.32863244
0.5145327 0.21599273 0.64455557 0.050664686 0.27114356 -0.1137214 0.23145935 -0.35703692
-0.13906607 0.29330146 0.27293587 -0.14508767 0.0572016 0.056603458 0.24566825 -0.60388666
0.14799434 0.12270624 0.05767424 0.08949545 -0.21288563 0.49971902 -0.067698866 0.15870617
-0.23576954 0.1317712 0.1469818 0.2863578 0.010271993 0.08132371 -0.2956632 0.13331494
-0.8370164 0.51996046 0.33679718 0.18895 0.7802723 0.11670921 -0.038904734 -0.0048945313
-0.27539703 -0.15334776 0.088783555 -0.51333946 -0.047692273 0.23985651 -0.08391218 0.22847727

encoder.5.running_var f4 [128]
00000000: a14b 023e 8240 c93d 3a43 6c3e 6e48 c73d
00000010: c0b0 843d 582b 853d a6d3 913d 79cb 313f
00000020: d37a 8b3e baff 453e 9c5e 0a3e 0031 c33d
00000030: 5f4a 4c3d 2647 0b3e a94e cf3d 85de 823e
00000040: ea17 293e 3c2e 993d 407d 0d3e 6745 a03d
00000050: b2c0 ee3d 021f 6c3e 6b7e 873e 5ed8 263e
00000060: d1ea 903e b2b1 9a3d 3aad 8a3d e40e ea3d
00000070: efd7 e63d 6b12 3a3e c0da 893d 2bf5 b03d
00000080: 9b93 8a3e 0ada 393e 1fe1 143f 1771 af3e
00000090: a604 193e 0488 023f f128 143e c8fd e33d
000000a0: e51b 2a3e 65f4 1c3e 19b2 333e 6d32 253e
000000b0: 6cf2 803e 6cfd 8c3d 5b10 453e 2d13 7c3d
000000c0: c33a 493e 7a3a 9c3d 2554 483e 1a19 0d3e
000000d0: a502 a13d 23e0 7f3e 5371 ea3d 1aa5 ec3d
000000e0: 9db9 013e 2abd e43d 666b 2b3e b58b 553e
000000f0: ab0a a73e f66f 753e af36 d33d c1c4 b93d
00000100: 789a 9d3e 11a4 543e 0eff e73d c687 903d
00000110: 8515 c33d 79be 003e 1070 c83e 54b9 573e
00000120: 4ac3 123e 6191 b33d 679e 133e d14c 6b3e
00000130: 46ef a73d 21b3 4e3e d7d0 943d f49d 3b3e
00000140: 80dc 443e ff2f 0f3e 12b7 323e db7d 673d
00000150: fd4f ea3d 2477 5a3e 231d c63d 2a31 483e
00000160: 2d4f cf3d 3afb ce3d 6d59 9a3d d5d9 6a3e
00000170: 8fce 883d 3441 c33e c779 323e bf54 593e
00000180: f1a3 ea3d ee58 933d f1a2 c83d a30f c53d
00000190: 61fe 623e 1a95 d83e 5dae d53d 5e8c d03d
000001a0: 9db4 fa3d c8e6 5d3d b180 203e ab63 b33d
000001b0: a87a bc3e 9cb0 cc3d f55d ac3d a8cb ae3d
000001c0: c364 543e 5ed4 283e 3117 293e c5b3 093e
000001d0: 4a50 8c3e 5f33 073f 26fa eb3d 1f4c 4a3e
000001e0: 80d3 d63d bc37 af3d 14c9 cd3d feb5 2e3e
000001f0: 06ac c33e 484d d83d bc14 8e3d 533e 1d3e
0.12724163 0.09826757 0.2307252 0.09730612 0.06479025 0.06502408 0.07120447 0.694511
0.27242145 0.19335833 0.13512653 0.095308304 0.049875613 0.1360136 0.10122425 0.25560394
0.16513029 0.07479522 0.1381731 0.078257374 0.116578475 0.23058704 0.26463637 0.16293475
0.2830415 0.07553424 0.067713216 0.114286214 0.11271655 0.18171088 0.067311764 0.08640512
0.2706574 0.18149582 0.5815601 0.34265968 0.1494318 0.50988793 0.14468743 0.11132389
0.16612203 0.15327604 0.17548408 0.16132517 0.25184953 0.06884274 0.1924452 0.061541725
0.19651322 0.07628341 0.19563349 0.13779107 0.078618325 0.24987845 0.11447396 0.11554928
0.12668462 0.11168893 0.16740188 0.20854075 0.32625327 0.23968491 0.103131644 0.09070731
0.30781913 0.20765711 0.11327945 0.07057147 0.09525589 0.1257266 0.39147997 0.21066791
0.1433231 0.08767963 0.14415894 0.22978522 0.08199935 0.2018552 0.072663955 0.18321973
0.19224739 0.13983153 0.17452648 0.05651651 0.11441038 0.21334511 0.09673526 0.19550005
0.101225235 0.101065114 0.07536588 0.22934659 0.06680023 0.38135684 0.17429267 0.21223734
0.114570506 0.07194696 0.097967036 0.09622123 0.2216735 0.42301255 0.10433648 0.10183023
0.122414805 0.05417517 0.15674092 0.087592445 0.3681233 0.09994623 0.084163584 0.08534938
0.20741563 0.16487262 0.16512753 0.13447483 0.27405006 0.5281276 0.115223214 0.197556
0.10489559 0.08555552 0.10048118 0.17061612 0.3821718 0.10561615 0.069375485 0.15355806

decoder.0.weight f4 [64, 128, 3, 3]
00000000: 5a7b f9b9 671d 653c 14e9 283c fb52 4ebb
00000010: c4f9 65ba 50fd c33c 2ba4 c4bc a094 c83c
00000020: 7734 2d3c 8670 69ba e0fd 8b3b 684c e53c
00000030: d4e7 c43c 15b0 a9bc b99d 57bc 2396 1f3c
00000040: ca89 d8bc 1dbd d9bb 7adb 163c 0189 b03c
00000050: f302 b73a 1b49 cbbb 029b 15bc e288 40b9
00000060: ba59 aa3b a587 893c 32e6 4fbc 6802 c0bc
00000070: 6de6 69bc ddb1 dcbc d37a e33c 6e30 d33c
00000080: cd7c 81bb a0ab dcbb d416 d13c 40cd 963c
00000090: 218d f5ba b5d7 4e3c 5f1d 66bc 52f9 073c
000000a0: f1e2 c73c fe39 2c3c e3c7 89bc ef2f c83c
000000b0: ccff 62bc 28dd 45bb 8d1d 51bc f5ea 50bc
000000c0: a94e 73bc 6611 de3c a3b6 81bc d92b c1bc
000000d0: a6f8 d43c 748e abbc 71ef da3c a1dd 74bc
000000e0: dc22 e03c 4fa0 0bbc 4ee6 0a3c f89d 8a3a
000000f0: fb6a 5fbc 80ad 36bc 5003 803c 6ebd df3c
00000100: aa13 18bc 2652 cb3c f4ee b13a 497b b03c
00000110: 6583 9abc ade0 b2bc efb6 44bc 13f2 4d3c
00000120: a78a 5abc 5585 023c a1e0 bfbc 878f e6bc
00000130: 009b 3f3c 65d2 75bc 5e91 f03c 783e e53c
00000140: 9f02 a5bb d55c 6b3c 8617 d3bc 1f54 d5bb
00000150: aca0 54bc a1ef 23ba 4254 fb3b f11a 003c
00000160: 46b6 adbb 36c7 8abb 4f3a c53b e560 a0bc
00000170: 8d20 203c 5aa3 eb3b 97be e53c a432 40bc
00000180: 5f42 debc 54a5 ab3c fb84 c7bb cb54 2abc
00000190: 4bbd c43c 8e17 7fbc 8d1f 983a e469 8dba
000001a0: 54bd cebc 5a6d 88bc 7c60 3f3c 9b61 dab9
000001b0: 9176 acbc 70b2 b53c b031 afbc 2d2c e6bb
000001c0: f3e5 cabb df51 b5bb fcf2 a839 6ff6 bd3c
000001d0: f715 de3c 934d a9bc 785c ddbc a9dc cf3b
000001e0: 87e3 33bc 5601 b63b 259b ab3a eea1 793b
000001f0: b250 c9bb e315 563c 3838 ab3c 8804 d83c
00000200: e658 5f3c 4255 b33c 71e3 3dbc 788f b93b
00000210: cb89 9dbc 96a7 aa3c d95b 45bb 8c63 d7bc
00000220: 7bfd f13c e356 c03c 3572 b5bc bc52 8abc
00000230: fae3 a43c 73e5 d5bc 8f5e dfbb 4574 fc3b
00000240: 6edf 39bc 87f3 c1bb f152 023c 9e26 d7bc
00000250: 52e5 a93c 618e 32bb 0e8c 6fbc e553 8dbc
00000260: 7ce7 5c3a 6e05 b5bc a460 eb3c e447 b0bc
00000270: afb6 c63c b575 4c3b 541b af3c 60cf dcbc
00000280: 7cc0 27bc 7ac5 5eb9 ce18 94bc e7ca e43c
00000290: 2b19 87bc f707 e93c 0efa e43c 9b29 ec3b
000002a0: 9f9b 49bc 635d cb3c 8d99 fabb b34b 793c
000002b0: b58a f2bb 0f32 e43b 9e3a 7cbc c269 b9bc
000002c0: 6a7a 1e3c 6b8a da3b 4beb 963c be97 9a3c
000002d0: 8f51 5f3c 9093 3a3b d4b0 81bb cd57 9ebc
000002e0: be07 5bbb 1dd3 b9bb 6b8d 253c 65c6 d5bc
000002f0: 6c50 d4bc f80a c0bc 4456 b8bb 9963 6fbc
00000300: 0ba3 6c3c 43c0 92bb a221 d33b 64a3 7fbc
00000310: 4bb4 163c 8839 b5bc 3e2b e9bc 9a63 553c
00000320: 7bb4 f2b9 b3ef 8dbc 1200 9e3c fceb 46bc
00000330: b6a3 9fbb 939c b43c 7488 bcbb 49c2 df3c
00000340: 3222 b63c 4f84 c63c 0d54 c7bc 5af4 0a3c
00000350: 0165 4a3c b427 8bbc 73d3 5a3c 221d 00bc
00000360: eca7 90bb a7fb 91bc ea0b 4dbc be27 d4bc
00000370: 3e0f bfbb 5887 763c ed7d 5a3a 10dd ea3c
00000380: fb5d 0b3c f081 64bc e5d8 b5bc 4755 09bc
00000390: e1e3 72bc 8b6a b63c 258a b4bc 298c d43b
000003a0: 9f3c c03c 4001 6a3c 66b1 79b9 b80e 2a3c
000003b0: 877b cbbb 439d 9d39 93ee 243c 39d7 84bb
000003c0: 27b2 9dbc 7b80 803c c779 1d3b 90dc 233c
000003d0: de95 d53c 0e0d 6ebc d195 703c f29c 1dbb
000003e0: 789d 193c 6106 abbc 619e 91bc 2276 6a3c
000003f0: b4dd b43c ec33 e33c 598d e23b 5c1d 5f3c
-0.00047584885 0.013984061 0.010309476 -0.0031482566 -0.0008772875 0.0239245 -0.024004063 0.024484932
0.010571591 -0.0008905012 0.0042722076 0.027990535 0.024036326 -0.020713845 -0.013160163 0.009740385
-0.02643289 -0.0066448585 0.009207601 0.021549704 0.0013962671 -0.006203783 -0.009131195 -0.0001836154
0.0051986845 0.016788313 -0.01268916 -0.023438647 -0.014276129 -0.02694028 0.027768528 0.025779929
-0.003951645 -0.0067343265 0.02552358 0.018408418 -0.0018734076 0.012624671 -0.014045089 0.008299189
0.024400206 0.010511873 -0.016818946 0.024436919 -0.013854932 -0.0030191634 -0.012763393 -0.012751331
-0.014850297 0.027107906 -0.015834158 -0.023580479 0.025997471 -0.02094195 0.026725503 -0.014945419
0.027360372 -0.008522107 0.0084777605 0.0010575643 -0.013636346 -0.011149764 0.01562658 0.027312007
-0.009282032 0.024819445 0.0013575242 0.021543162 -0.018861482 -0.02183565 -0.012006505 0.012569922
-0.013338721 0.007966359 -0.023422541 -0.028144611 0.01169467 -0.015003775 0.029366191 0.027983889
-0.005035713 0.014365395 -0.025768053 -0.006510272 -0.01297776 -0.0006253664 0.0076699564 0.007818923
-0.0053012697 -0.0042351736 0.006018914 -0.019577453 0.009773386 0.007191104 0.028044982 -0.011730824
-0.027131258 0.020952858 -0.0060888506 -0.010396193 0.024016043 -0.015569581 0.0011606083 -0.0010789004
-0.025236763 -0.016653705 0.0116807185 -0.00041652922 -0.02105263 0.022179812 -0.021385998 -0.007024309
-0.006191963 -0.0055334414 0.00032224494 0.023188798 0.027110083 -0.020666873 -0.027021632 0.0063434434
-0.01097954 0.0055543585 0.0013092501 0.0038090902 -0.006143653 0.013066742 0.02090083 0.026369348
0.013632035 0.02189124 -0.011589871 0.0056628548 -0.019230744 0.020831864 -0.003011456 -0.026292585
0.029539814 0.02347893 -0.022149185 -0.016885154 0.020128239 -0.026110386 -0.006816692 0.00770429
-0.011344774 -0.0059189233 0.007954345 -0.026263531 0.020739231 -0.002724551 -0.014620794 -0.017251918
0.0008426828 -0.022097316 0.028732605 -0.021518655 0.024257032 0.0031198089 0.021375336 -0.026954353
-0.010238763 -0.00021245136 -0.018078234 0.027928783 -0.016491493 0.02844618 0.027951267 0.007207108
-0.012305169 0.024824804 -0.007647699 0.015215802 -0.007401789 0.0069639753 -0.015394835 -0.022633437
0.0096727405 0.0066693327 0.018422743 0.018871184 0.013630285 0.0028469302 -0.003957847 -0.019328976
-0.0033421363 -0.0056709186 0.010104517 -0.026095578 -0.025917254 -0.02344273 -0.005625518 -0.014611148
0.014443169 -0.004478486 0.0064432183 -0.01560292 0.009198259 -0.02212216 -0.028463002 0.013024235
-0.00046292305 -0.017326212 0.019287143 -0.012141224 -0.004871811 0.022047317 -0.005753571 0.027314322
0.022233102 0.024233012 -0.02433207 0.0084811095 0.012353183 -0.016986705 0.0133560775 -0.007819446
-0.004414549 -0.017820193 -0.012515048 -0.025897857 -0.0058306744 0.015046917 0.00083348044 0.028669864
0.008506293 -0.013946995 -0.02219815 -0.008382148 -0.014824838 0.0222676 -0.022038529 0.006486435
0.023466406 0.014282525 -0.00023812577 0.010379486 -0.006209794 0.00030062543 0.010066646 -0.004053977
-0.019249989 0.015686264 0.0024028884 0.010001317 0.026072439 -0.01452948 0.0146841565 -0.0024049846
0.009375922 -0.020877065 -0.017775716 0.014310392 0.022078373 0.02773472 0.0069138226 0.01361784

decoder.0.bias f4 [64]
00000000: da46 a5bc 7d2e 973c 60aa 7abc 1b19 85bc
00000010: f38b dbbc f738 873c a4c6 eebc ffd2 eabc
00000020: 5744 99bc 9cb2 59bc 3a3e bc38 1b3d b13c
00000030: 713e 883c c5a9 00bc 8f54 e53b a186 d4bc
00000040: 2f1f f03c d5df 63bc e6c6 303c b01a c93c
00000050: 5a6d af3c 186e c6bc 04d0 39bc 8878 fd3b
00000060: 2d8b c33b f4e5 80bc 6444 b43b e1f4 dabc
00000070: f68f e83c 4600 cc3c 6e50 c2ba 03ab 64bc
00000080: 7888 603b 12ef 90bc f5cb 67bc 557f e43c
00000090: 5a63 df3c 9f58 a7bb a4ee 6f3b 62a0 16bc
000000a0: 6050 8e3c 8b32 cbbc a4d2 e73c 4ffc 633c
000000b0: bcc9 6f3c 5d7a e63c dd07 e73c eabd b1bb
000000c0: 4ae7 a7bc 2685 c93b a8a2 a7bc f713 833c
000000d0: dc7a 6dbc 2a77 b23c afe9 21bc 0c92 c5bc
000000e0: acb0 a03c 20f2 993c 2154 b73b ca52 6b3c
000000f0: c0cd b0bb 0476 533c 1d30 113c 31be c23b
-0.020175386 0.018454785 -0.01529941 -0.016247323 -0.026800131 0.016506655 -0.029147454 -0.028665064
-0.018709345 -0.013287213 8.976129e-05 0.021635583 0.016631337 -0.007852976 0.0069986056 -0.025943102
0.029311744 -0.013908346 0.010789609 0.024548858 0.021414448 -0.024222419 -0.011341099 0.0077353157
0.005967519 -0.01573465 0.005501317 -0.026728095 0.028388958 0.024902474 -0.0014824995 -0.013956788
0.003426103 -0.017692123 -0.014147748 0.027892748 0.027269054 -0.005107 0.0036610747 -0.009193512
0.01737231 -0.024804374 0.028298683 0.0139151355 0.0146355 0.02813452 0.028201992 -0.005424251
-0.02049603 0.0061499057 -0.020463303 0.01600073 -0.014494624 0.021785337 -0.009882375 -0.024117492
0.019615494 0.018792212 0.0055947457 0.014363 -0.005395621 0.012906555 0.008861569 0.0059430827

decoder.1.weight f4 [64]
00000000: 34e6 7f3f f705 803f 43ec 7f3f ec17 803f
00000010: f813 803f 07b9 7f3f 820b 803f 97be 7f3f
00000020: 6117 803f 5716 803f 50f4 7f3f 4cf2 7f3f
00000030: e3f3 7f3f de00 803f 5fc8 7f3f d30a 803f
00000040: da0d 803f 0c01 803f cef0 7f3f 9ac6 7f3f
00000050: defb 7f3f 79c8 7f3f 19c0 7f3f f30d 803f
00000060: b2cd 7f3f 7fcc 7f3f c3e3 7f3f 8fc4 7f3f
00000070: beef 7f3f 4cc8 7f3f 64dc 7f3f ae1d 803f
00000080: a01a 803f 70f1 7f3f 9fc9 7f3f 6cdb 7f3f
00000090: 05f5 7f3f e7dd 7f3f fa19 803f 4fcb 7f3f
000000a0: 100d 803f de1f 803f 6712 803f 1716 803f
000000b0: 1023 803f 3c1e 803f c1df 7f3f 2de0 7f3f
000000c0: 96f0 7f3f 4c04 803f 291c 803f c216 803f
000000d0: b4cc 7f3f 760a 803f c008 803f f418 803f
000000e0: 1d1f 803f 30f2 7f3f 0f0d 803f a5f3 7f3f
000000f0: e3bb 7f3f f520 803f bc18 803f 0516 803f
0.9996064 1.000182 0.9996988 1.00073 1.0006094 0.99891704 1.0003512 0.9990019
1.0007135 1.0006818 0.99982166 0.9997909 0.99981517 1.0000265 0.9991512 1.0003303
1.0004227 1.000032 0.99976814 0.99912417 0.99993694 0.9991527 0.9990249 1.0004257
0.9992324 0.9992141 0.9995691 0.999093 0.9997519 0.99915004 0.99945664 1.0009058
1.0008125 0.9997778 0.99917024 0.99944186 0.99983245 0.9994797 1.0007927 0.999196
1.0003986 1.0009725 1.0005616 1.0006741 1.00107 1.0009227 0.99950796 0.9995144
0.9997648 1.0001311 1.0008594 1.0006945 0.9992173 1.0003192 1.000267 1.0007615
1.0009495 0.99978924 1.0003985 0.9998115 0.9989607 1.0010058 1.0007548 1.000672

decoder.1.bias f4 [64]
00000000: 3cdb 20ba 80b7 433a 1f47 713a 9af7 88ba
00000010: b5d0 fa39 061f 84ba 9402 dc39 9f21 88ba
00000020: 55f1 563a 69de 263a 2243 9f39 2062 9038
00000030: e283 10ba 0d4d 9839 5bf2 5bba fd64 813a
00000040: 9d66 d8b9 f50d 78ba 0297 4839 3ba9 61ba
00000050: 1730 5e3a 9dfd 27ba 2b00 2fba 5bff 163a
00000060: 3809 67ba 4ec9 4eba f673 4fb9 e56e 1d3a
00000070: 064b 7639 c15c 65ba d2c0 23b9 3051 783a
00000080: 1516 8a39 f2f8 3d38 f4bf 82ba eb97 85b9
00000090: 4675 cc39 662c 7cba ef39 4f3a 7c6d 28ba
000000a0: 546b efb9 a66c 843a 7c4e 703a b9ca 5c3a
000000b0: c54c 8f3a cce6 8d39 5294 14ba 29e3 b837
000000c0: aeff 513a c95f 223a b4e6 7d3a da0b 7a3a
000000d0: 54ac 5eba 73f5 cdb9 d3ef b739 1f9c cbb9
000000e0: a118 49ba 97b2 9039 4480 9239 7ede 78ba
000000f0: 7ad6 a0b8 5107 833a 8e22 7b3a 794d 533a
-0.0006136184 0.00074660033 0.0009204018 -0.0010449768 0.00047839215 -0.0010080046 0.0004196359 -0.0010385996
0.00081994134 0.0006365539 0.0003037686 6.884732e-05 -0.0005512816 0.00029049107 -0.0008390301 0.0009872016
-0.00041275183 -0.0009462529 0.00019129741 -0.0008608286 0.0008475794 -0.0006408336 -0.0006675745 0.0005760097
-0.00088133244 -0.0007888273 -0.00019784257 0.0006005599 0.00023488337 -0.0008749478 -0.00015616723 0.0009472547
0.00026337864 4.529296e-05 -0.0009975419 -0.00025480925 0.00038997288 -0.0009619653 0.0007905056 -0.0006425006
-0.00045665598 0.001010318 0.00091669685 0.0008422542 0.0010932913 0.00027065573 -0.00056678534 2.2040289e-05
0.00080108165 0.00061940827 0.00096855615 0.0009538509 -0.0008494307 -0.0003928352 0.00035083163 -0.00038835497
-0.00076712115 0.0002759888 0.00027942855 -0.0009493603 -7.669344e-05 0.0009996687 0.0009580039 0.00080605556

decoder.1.running_mean f4 [64]
00000000: ee69 dcbe a0d0 13bf 3786 87be 32f9 49bc
00000010: 478c 35bd dd48 2a3e 2e0d 99bf e7ef 81bd
00000020: f46c f9be b766 aa3e 6943 783c b325 24bf
00000030: b546 3f3e a504 cf3e 6e81 303f 2155 86be
00000040: 19d1 163f 847d e3bd 539f fd3d 5a50 abbe
00000050: 0892 ffbe 9d22 9dbe 0e2c 15be 2f20 963c
00000060: 0be7 ad3e 8fe1 dbbc 797b 85be dbe6 8b3e
00000070: f477 e0be efaf 6e3e 743e d23e bcf3 d5bb
00000080: f86c 433d 1c8b 8c3d 2a53 71bd f3fa a7be
00000090: 78da 09bf ea60 343f 576f ecbd 7f0e 993e
000000a0: 1b64 9f3e 2e6b 74bf 2ad1 cc3e 7f29 25be
000000b0: 0796 d4bd 7793 d8bd b701 093e 3304 563f
000000c0: 9043 1cbf 0981 b23e 31c2 a1bd 079d 9dbe
000000d0: e735 fb3e 67af b63e 1db6 85be 87eb f6bd
000000e0: 830a 2dbe d2f1 9bbc cb79 053f eaaf 383f
000000f0: 0341 e0bd b2dd 59be 76fb d9bd d83d 033e
-0.43049568 -0.5774021 -0.26469585 -0.012327479 -0.044323232 0.16629358 -1.1957147 -0.06344586
-0.48715937 0.3328149 0.015152791 -0.64120024 0.18679316 0.4043323 0.68947494 -0.26236823
0.5891281 -0.111079246 0.12383904 -0.3345974 -0.499161 -0.3069047 -0.14567587 0.018325893
0.33965334 -0.026840953 -0.26070765 0.27324566 -0.43841517 0.23309301 0.41063273 -0.0065292995
0.047711343 0.068624705 -0.058917202 -0.32808647 -0.5384898 0.7046038 -0.11544674 0.29893872
0.31131062 -0.95476043 0.4000333 -0.16129111 -0.10380178 -0.10575002 0.1337956 0.8360016
-0.6104059 0.3486407 -0.07898367 -0.30783865 0.49064562 0.35680696 -0.26115504 -0.12056642
-0.16898541 -0.019036207 0.52138966 0.72143424 -0.109499 -0.21275976 -0.106436655 0.1281656
