checkpoints/2025-06-02-14-33-15/last_epoch.pth (torch, 686901 bytes, 25 tensors)

encoder.0.weight f4 [64, 3, 3, 3]
000000 ac a9 c7 bc 61 1f 72 bd 5f 00 15 3e e9 33 f8 3d
       -0.024372898 -0.059111957 0.14550923 0.12119276
000010 5d 61 70 3d 9a 21 30 bd 05 fb 0e 3d ce e8 c2 bd
       0.058686603 -0.043000795 0.03490736 -0.0951706
000020 09 39 2b 3d 11 a9 55 bd 91 62 7e 3d 8a 40 0c 3e
       0.04180244 -0.052163187 0.06210572 0.13696495
000030 13 10 02 3d 7c 20 92 3d 99 84 0a bd e8 65 0f 3e
       0.03175361 0.07135102 -0.03381786 0.14003718
000040 bc ee a1 3d 7f 15 dd bd e9 ea 21 bc 3c f7 0e 3e
       0.07906863 -0.10795116 -0.009882667 0.139615
000050 75 66 ee 3c 4a 44 a7 3d 70 4c 36 3b f2 77 07 be
       0.02910159 0.08167322 0.0027816556 -0.1322935
000060 49 1b c6 bc 14 4c e1 bc d1 e4 2e 3e 46 09 41 3e
       -0.024182932 -0.027502097 0.17079474 0.18851194
000070 ee 84 ba bd fe 8b 17 3e 58 44 ed bd ad 76 fa bc
       -0.091073856 0.14799497 -0.11585301 -0.030574167
000080 6e 2e 05 3e 00 82 1a be 7d 07 c9 bd bd 43 83 3d
       0.13005993 -0.15088654 -0.098158814 0.064094044
000090 f2 fd 1d be 46 e7 c8 3b 7a e5 39 bd d9 69 0f 3e
       -0.15428904 0.0061310856 -0.04538486 0.14005221
0000a0 06 a4 dd bd 91 c9 8a bb 25 90 3d be ae b4 58 bd
       -0.108223006 -0.0042354544 -0.18512018 -0.052906685
0000b0 30 6a 2e 3e fa f9 80 bc 05 e4 da bd 63 85 1b be
       0.17032695 -0.015744198 -0.106880225 -0.15187602
0000c0 4c 90 20 be 2a 09 19 3e 18 44 5b bd d6 2d 2a be
       -0.15680045 0.14944902 -0.053531736 -0.16619048
0000d0 da e8 23 3e 02 6e 43 be d7 f7 34 3e 9c 59 1a 3e
       0.16006795 -0.19084933 0.17672668 0.15073246
0000e0 39 5e bc 3d ac 96 9a bb ef 92 1a 3e 7b e6 84 3c
       0.09197659 -0.0047176685 0.15095113 0.016223183
0000f0 7e 54 0e 3e 08 a0 55 3d 93 0a 4d bd 40 39 db 3d
       0.13899419 0.05215457 -0.050058912 0.10704279
000100 61 ce a4 3d 87 c8 e7 bd a3 41 b0 bd 23 ec 94 bc
       0.08047176 -0.113175444 -0.08606269 -0.018179005
000110 e9 e8 44 bd ea 0c 2a be 8d 2a 2e bd 4a ac 55 3d
       -0.048073683 -0.16606489 -0.04252105 0.05216626
000120 a7 ff e7 bd 36 96 5c bd b8 50 e3 3d 1b 2c f8 3c
       -0.11328059 -0.05385419 0.1109938 0.030294469
000130 d5 66 2c be 41 7d 0e 3e 96 01 12 3e af 35 18 be
       -0.16836102 0.13914968 0.14258417 -0.14864229
000140 c3 eb 30 3e 24 4a e2 bd 6b 79 01 be 01 7e ae bc
       0.17277436 -0.110492975 -0.12643974 -0.021300318
000150 4b 61 28 bd df 13 ba bd 93 42 21 be ea f5 79 bd
       -0.04110841 -0.09085821 -0.15748052 -0.061025538
000160 5d 31 83 bd 2b 18 d2 bc 8e 30 33 3e 81 bb 37 bc
       -0.064059 -0.02564629 0.17498991 -0.011214138
000170 af 75 b6 bd d7 ba 33 3e 2a 42 c5 bd 08 eb 80 3d
       -0.08909165 0.17551742 -0.096317604 0.06294829
000180 3b 1f c4 ba c4 3f f5 3d 2c 0f d0 bd 41 4a 18 3d
       -0.0014962921 0.11975053 -0.10159144 0.03718019
000190 5d b9 99 3c cd 9d de bd db 73 17 3e 1f e0 37 be
       0.018765146 -0.10869942 0.14790289 -0.17956589
0001a0 f8 f7 0e 3e 78 66 15 3d 85 a6 f2 3d 45 da 0c be
       0.1396178 0.036474675 0.11848167 -0.13755138
0001b0 84 db 99 bd 25 0c 84 bd da 42 92 3d 00 3f 52 3d
       -0.075125724 -0.06447629 0.07141657 0.051329613
0001c0 cd e5 26 3e c6 1f 38 be 11 e0 e6 bd f8 53 6c 3c
       0.162986 -0.1798087 -0.11273206 0.014424317
0001d0 1e 88 50 bd d7 92 2e 3e 2d 30 a8 3c 0e 60 19 3e
       -0.05091106 0.17048202 0.020530785 0.14978048
0001e0 fa c1 2d be fa f5 9e 3d 74 1e 9f bd fb ff 1b be
       -0.16968527 0.0776176 -0.0776948 -0.15234368
0001f0 e4 96 22 bd 61 f9 54 3c f4 52 cc bd 73 e9 9f bd
       -0.03969468 0.01299891 -0.099767596 -0.07808199
000200 0e 34 f8 bd 74 d4 88 3d 1d 09 9e bc e0 40 17 bd
       -0.12119304 0.06681147 -0.019291455 -0.036927104
000210 f0 ed 80 ba 49 2a ea 3b 21 f2 e7 bd 35 ff e6 bc
       -0.0009836536 0.007146154 -0.11325479 -0.028197864
000220 a7 36 3a be 1d 45 2d 3e 06 de 82 bd d0 3d 85 3d
       -0.1818491 0.16920896 -0.06390004 0.065059304
000230 59 59 cd 3d b6 5c 79 bd bb 37 ef bd e8 87 32 be
       0.10026807 -0.06087943 -0.116805516 -0.17434657
000240 25 e4 c1 bc 27 b3 80 bd 25 1e 71 3d 36 11 1f be
       -0.023668358 -0.062841706 0.05886664 -0.15533909
000250 5e 7e 09 be 2e 86 1f bd fb 8f 2a 3e b3 07 04 3e
       -0.13427112 -0.038946323 0.16656487 0.12893562
000260 72 24 2a be 4a b8 eb 3d 5b cf 84 bb 60 c2 65 bd
       -0.16615465 0.1150976 -0.004053039 -0.056093574
000270 6c 13 43 bc 57 bf 61 bc 8d 94 2f bc 6c 53 84 3d
       -0.011906486 -0.013778529 -0.01071657 0.06461224
000280 10 60 2c bd 79 3f 04 be 45 8e af bd 43 62 26 be
       -0.0420838 -0.12914838 -0.08572058 -0.16248421
000290 d3 64 6e bd 8f 61 30 be a4 7c c4 3c ad 02 21 be
       -0.058201622 -0.17224716 0.023985215 -0.15723677
0002a0 87 b1 d0 bd fb 45 73 bb f3 b4 fa bd 09 29 25 be
       -0.10190111 -0.003712057 -0.122415446 -0.16128935
0002b0 7b b5 90 3d 7f e5 43 be c4 a3 08 3e 88 1d 2c 3e
       0.07065865 -0.19130515 0.13343722 0.1680814
0002c0 ba 9a cd bc da a9 38 3e 86 35 f7 3d f1 8a e0 3d
       -0.025098193 0.18033543 0.12070756 0.10964001
0002d0 8e 4e 35 bd 5f 3a 3e 3d e7 a2 35 3d 80 cf 9b 3c
       -0.04426437 0.046442386 0.04434481 0.019019842
0002e0 63 40 05 be 36 a8 f3 3d 1e b7 44 be 23 b8 fb 3d
       -0.13012843 0.11897318 -0.19210479 0.12290981
0002f0 ab a7 77 3d b4 30 b2 3d 73 40 0c be 13 b4 3e be
       0.060462635 0.08700696 -0.1369646 -0.1862338
000300 26 a1 3d 3e b8 50 03 be 6d d4 26 3d 1f 56 3d 3d
       0.18518505 -0.1282376 0.04072993 0.04622471
000310 59 28 dd bd 30 33 40 3e d0 b2 0c 3e 9d 83 f4 3d
       -0.10798711 0.18769526 0.13740087 0.11939166
000320 2e 98 03 3e 26 ca d8 3d 82 75 2d be fa 50 05 bd
       0.1285102 0.10585432 -0.16939357 -0.03254793
000330 e8 c5 20 3e 2e b8 cf 3d 52 28 96 bb 85 d3 bb bd
       0.15700495 0.10142551 -0.0045824433 -0.091712035
000340 ea 23 2f be d5 9f 83 bc c3 b6 88 bd 97 f8 83 3d
       -0.17103544 -0.016067425 -0.06675484 0.06443899
000350 66 3f ff 3d 00 f6 d0 3d 2c 63 b2 3d e2 14 c9 bd
       0.12463264 0.10203171 0.08710322 -0.09818436
000360 3d 08 2f 3e b6 0c 17 3e c5 87 31 3d 5c c5 d7 3d
       0.17092986 0.14750943 0.04334237 0.1053569
000370 96 94 08 be 79 75 f2 3d 33 43 15 3d 14 50 14 be
       -0.13337931 0.118388124 0.03644104 -0.14483672
000380 40 2a 03 3e 49 e5 bd 3d ab 5a 5e 3d 2b fd 25 be
       0.12809086 0.09272248 0.054285686 -0.16209857
000390 41 0b 41 bd 59 2d e6 bd 6e bd f2 bd fb 41 21 3e
       -0.047129873 -0.11239118 -0.11852537 0.15747826
0003a0 f6 7f 0b be 47 cc 9a 3b 7e 62 2b be c9 27 25 3e
       -0.13623032 0.004724059 -0.1673679 0.16128458
0003b0 da 90 aa 3c bd 64 2d be ba b0 35 3e d4 1f 97 3d
       0.020821024 -0.1693296 0.17743197 0.073791176
0003c0 df 07 24 3e 81 3f 76 3c 6f ff bf bd 1e 8e 08 3e
       0.16018628 0.015029789 -0.09374892 0.13335463
0003d0 68 74 3d be 10 33 aa 3d 59 75 dd bd 5f 85 ed bd
       -0.18501437 0.08310521 -0.10813398 -0.11597704
0003e0 f2 68 ec 3d fe 9c 90 3d ab b8 ff 3c dc 87 42 be
       0.11543454 0.07061194 0.031215986 -0.18997139
0003f0 54 55 d8 3d 97 ee 22 be c6 e2 1a 3e 7d a9 0c be
       0.1056315 -0.15911327 0.1512557 -0.1373653

encoder.0.bias f4 [64]
000000 60 99 ef 3d 12 60 89 3d 0c 7a f0 3d bd f4 00 3e
       0.11699176 0.06707777 0.117420286 0.1259336
000010 44 63 e4 3c 46 0c 13 3e 8c 2e 42 3e 0e 7a ff 3d
       0.027879365 0.1436015 0.18963069 0.12474452
000020 65 db b8 3d 7b 48 1a 3e 2c b7 9c 3b 0a 42 06 be
       0.09026221 0.15066712 0.004782578 -0.1311113
000030 ed 8a e7 3d 70 63 39 3c 6b 02 2e be b5 db 08 be
       0.11305795 0.011315212 -0.1699311 -0.13365062
000040 55 e9 98 3d ac 07 ba bd 76 c6 99 bd 99 f4 19 be
       0.074663796 -0.090834945 -0.075085565 -0.15034713
000050 f4 c2 43 be a3 78 de 3d c3 76 17 3c 5e 46 8a 3d
       -0.19117337 0.108628534 0.009244624 0.06751703
000060 58 eb 08 be cc dd 10 be ba 12 ba 3d 59 30 3a be
       -0.13371027 -0.14147109 0.09085603 -0.18182506
000070 cd 29 09 bb 8c 34 0f 3e 68 d6 e0 3d 5c f6 5d 3d
       -0.0020929456 0.13984889 0.10978395 0.054190025
000080 bf 60 c4 3d b3 90 3f bd 3c 58 7d 3b 2a 02 0b 3e
       0.09588765 -0.046768855 0.0038657328 0.13575044
000090 e9 f2 13 be b9 d6 8a 3c 99 ea 32 3e 9f 28 71 3d
       -0.14448132 0.01694809 0.17472304 0.05887663
0000a0 63 9c 2a 3e 90 ac 96 bd f1 4c 38 3e db e3 2f bd
       0.1666122 -0.073571324 0.17998101 -0.04294191
0000b0 34 a4 86 3d 02 f4 3a 3e 98 e2 89 3d e3 e2 37 bd
       0.06574288 0.18257144 0.067326725 -0.04489411
0000c0 25 72 0c be 65 9a ae bd 65 c7 ea 3d b0 e2 1c be
       -0.13715418 -0.08525542 0.11463813 -0.1532085
0000d0 05 04 f6 bd 45 9a 95 bc e2 8d 29 3c 76 b8 b0 bc
       -0.120124854 -0.018262038 0.010348769 -0.021572333
0000e0 48 d0 cc 3d 0d dc 77 3d 3b 0c f9 bd 6a 97 2f be
       0.10000664 0.06051259 -0.12160536 -0.17147604
0000f0 5d 7e 30 be 19 05 3f be 3f 26 65 3b d1 1c 0e 3e
       -0.17235704 -0.18654288 0.0034965423 0.1387818

encoder.1.weight f4 [64]
000000 3a 15 80 3f b7 04 80 3f dd f1 7f 3f f6 01 80 3f
       1.0006478 1.0001439 0.9997843 1.0000598
000010 a8 ca 7f 3f fc d7 7f 3f e2 19 80 3f 25 e3 7f 3f
       0.99918604 0.9993894 1.0007899 0.9995597
000020 0e f2 7f 3f 87 11 80 3f ba f5 7f 3f 83 10 80 3f
       0.9997872 1.0005349 0.99984324 1.0005039
000030 f5 00 80 3f 8d 01 80 3f 17 20 80 3f 3a 01 80 3f
       1.0000292 1.0000473 1.0009793 1.0000374
000040 76 12 80 3f 00 e2 7f 3f 3a 09 80 3f 2a da 7f 3f
       1.0005634 0.99954224 1.0002816 0.99942267
000050 3e c2 7f 3f b9 eb 7f 3f 7c db 7f 3f 50 f8 7f 3f
       0.99905765 0.9996906 0.9994428 0.9998827
000060 1b dc 7f 3f d0 02 80 3f b6 da 7f 3f 60 02 80 3f
       0.9994523 1.0000858 0.999431 1.0000725
000070 98 00 80 3f 2a 11 80 3f c3 20 80 3f 96 04 80 3f
       1.0000181 1.0005238 1.0009998 1.00014
000080 c8 12 80 3f 78 06 80 3f cd d8 7f 3f e9 14 80 3f
       1.0005732 1.0001974 0.99940187 1.0006381
000090 fb d4 7f 3f 6b 0d 80 3f 4a 00 80 3f db ef 7f 3f
       0.9993436 1.0004095 1.0000088 0.99975365
0000a0 c8 fa 7f 3f 9a 03 80 3f 03 d9 7f 3f fd d7 7f 3f
       0.99992037 1.0001099 0.9994051 0.99938947
0000b0 14 e7 7f 3f ae d9 7f 3f fd c6 7f 3f d8 05 80 3f
       0.9996197 0.9994153 0.9991301 1.0001783
0000c0 94 11 80 3f 21 0d 80 3f 91 13 80 3f 67 f6 7f 3f
       1.0005364 1.0004007 1.0005971 0.99985355
0000d0 e5 fd 7f 3f 49 09 80 3f 17 cd 7f 3f 6e ef 7f 3f
       0.9999679 1.0002834 0.9992232 0.99974716
0000e0 8c 11 80 3f 9d d7 7f 3f bd c9 7f 3f b6 cd 7f 3f
       1.0005355 0.99938375 0.99917203 0.99923265
0000f0 59 c7 7f 3f 35 0a 80 3f 1b 00 80 3f 2d f1 7f 3f
       0.99913555 1.0003115 1.0000032 0.9997738

encoder.1.bias f4 [64]
000000 4b 53 52 3a 27 1a 51 ba 5f 17 bb b9 91 03 28 3a
       0.0008023276 -0.0007976614 -0.00035684832 0.0006409223
000010 ff 95 56 3a 0a eb 10 3a d3 16 5b 3a e8 43 73 b7
       0.00081858033 0.00055281876 0.0008357588 -1.4499739e-05
000020 be 07 d7 b9 da 3e 50 3a 7d aa 1c 3a 3a 13 38 3a
       -0.00041013764 0.0007943936 0.00059763325 0.0007021908
000030 ef 0a c8 b9 eb f7 84 b8 01 6d 59 3a bd 5e b1 b9
       -0.0003815512 -6.340429e-05 0.0008294136 -0.00033830656
000040 f3 9e e2 b9 c1 01 5e b6 0e 34 32 3a 81 b8 8b 39
       -0.00043224505 -3.3081599e-06 0.0006797918 0.00026649612
000050 c8 d6 8f ba 8c e5 bd 37 ea 1e 12 39 fd bf 21 38
       -0.0010974044 2.2637447e-05 0.00013935161 3.8564194e-05
000060 d1 b5 fc b9 8d 3d 9f b8 c5 09 1c 3a d4 52 0e 3a
       -0.0004820065 -7.5931755e-05 0.00059523835 0.00054292125
000070 ad b2 69 39 55 7d 38 3a 24 53 43 ba 0d 20 81 3a
       0.00022287173 0.0007037719 -0.00074510486 0.0009851471
000080 aa 74 1a 3a d6 1f 87 39 30 85 15 ba 9c 08 41 39
       0.0005892018 0.00025772926 -0.00057037454 0.00018409122
000090 8a ed 4a ba d4 7a 2c 3a 65 7b 74 38 74 1e 22 39
       -0.00077410846 0.0006579582 5.8289053e-05 0.00015460869
0000a0 c1 b7 a9 b9 29 92 c5 39 44 4e ec b9 5b 42 b6 b9
       -0.000323711 0.00037683666 -0.0004507174 -0.00034763184
0000b0 53 a4 ff b9 bd 90 6e 3a 5b fb 3a ba 57 41 b3 38
       -0.0004875982 0.0009100547 -0.0007132792 8.5475556e-05
0000c0 19 34 cf b8 c7 d2 89 b8 fd 4b 3f 3a f9 0f 87 b9
       -9.880233e-05 -6.5719294e-05 0.0007297395 -0.00025761107
0000d0 21 af 58 39 06 91 a4 b9 16 77 16 ba 51 2c 91 39
       0.00020664606 -0.00031388568 -0.0005739791 0.00027689573
0000e0 ea 4c f8 39 c4 02 13 ba 81 9b 58 ba 8d 97 07 ba
       0.00047359552 -0.0005608017 -0.0008262918 -0.0005172424
0000f0 dc 7e 69 ba d1 0a eb 39 c5 42 0e ba a3 5f 69 b9
       -0.0008907148 0.00044830752 -0.00054268196 -0.00022256239

encoder.1.running_mean f4 [64]
000000 a9 dd 58 bd 41 15 4d 3e 5c b7 99 bd 7e 01 8f 3e
       -0.052945767 0.20027639 -0.07505676 0.27930826
000010 07 c9 20 3e 6b 6f 9a 3e cd 0f b4 3e d1 6c af 3c
       0.15701686 0.3016313 0.35168305 0.021414192
000020 29 95 e6 bc 13 26 85 3d d8 f4 1b be 1a 88 82 bd
       -0.028147297 0.06501403 -0.15230119 -0.063736156
000030 85 be 6e 3e 54 8a 00 3c cb 7c 5b be 95 1c 75 be
       0.23314865 0.00784548 -0.21434323 -0.23936684
000040 69 f3 9d 3d a2 47 67 3d 05 86 d6 3c 6f f9 a3 bd
       0.077124424 0.0564648 0.026186952 -0.0800656
000050 29 58 ae be 3b b7 cb 3e 50 95 89 3d c0 f8 7d 3e
       -0.34051636 0.3978823 0.06717932 0.24801922
000060 79 90 cc bd 4a 07 0a 3d ca 6d 71 bd 40 89 b4 be
       -0.099884935 0.033698358 -0.058942594 -0.35260963
000070 20 bc bc bd b1 81 9c 3d 9e 89 d8 3d 78 42 c9 bd
       -0.092155695 0.07641924 0.105731234 -0.09827131
000080 96 2f 68 3e f5 60 96 bc 20 ed 9e 3d 05 0f 40 3a
       0.22674403 -0.01835678 0.07760072 0.0007326457
000090 3a f2 15 bd 08 e4 ee 3c e2 3d b9 3d 26 33 92 3d
       -0.03660796 0.029161468 0.09045006 0.07138662
0000a0 46 07 9f 3e 4c f2 9f be 3b 56 b5 3c 35 5e 97 be
       0.31060237 -0.31239545 0.022135844 -0.29564062
0000b0 05 fa 79 3e c4 69 22 be 19 46 4d 3e db 92 41 be
       0.24411781 -0.15860659 0.20046271 -0.18903677
0000c0 19 89 9a be 0a 83 48 3d bf 99 79 3e cf 77 8d be
       -0.30182722 0.048953094 0.24375056 -0.2763047
0000d0 a0 70 35 be 93 cf 12 3d 64 7f 06 3d 70 11 72 be
       -0.17718744 0.03584249 0.032836333 -0.23639464
0000e0 af 71 ec bd b5 35 1a be 3d 9c 1d bd 1f 9c c1 be
       -0.11545121 -0.1505955 -0.03847908 -0.37814423
0000f0 07 0e 72 bb ed 02 89 be f3 7f a6 3d 21 de 4e 3e
       -0.003693463 -0.26760045 0.08129873 0.20201923

encoder.1.running_var f4 [64]
000000 4e 5d 00 3f 4f 50 07 3f 47 9a c1 3e 04 fa 7d 3e
       0.5014237 0.52856916 0.37813017 0.24802405
000010 d5 fc a4 3e 0a 44 bb 3e b5 8f 8a 3e 7d 86 7c 3e
       0.32224146 0.36575347 0.27062765 0.24660678
000020 61 c8 28 3e 3a 08 75 3e 59 85 a8 3e 08 66 33 3e
       0.16482688 0.2392892 0.32914236 0.1751939
000030 a7 49 97 3e 83 74 56 3d 5e 32 0d 3e ff c2 a0 3e
       0.2954838 0.052357208 0.13788745 0.3139877
000040 ba a9 2b 3e ea 0a b1 3e b9 5a 1c 3e f0 63 e1 3d
       0.16763964 0.3457864 0.15268983 0.1100539
000050 98 6a c9 3e 79 a9 b6 3f fb ed 13 3e 48 05 0f 3f
       0.39339137 1.4270469 0.14446251 0.55867434
000060 3c d7 b6 3d 50 09 af 3e d8 12 7f 3e 56 d4 fd 3e
       0.089277714 0.34186792 0.24909532 0.49576062
000070 30 f8 e7 3d 9e d9 b7 3d d3 84 91 3d 92 98 82 3e
       0.11326635 0.08977054 0.07105412 0.25507027
000080 6c da 97 3e 74 5e 98 3d ac 89 14 3e 55 ab 05 3f
       0.2965883 0.074398905 0.14505643 0.52214557
000090 11 95 2a 3e 93 31 ce 3d df 7c 22 3e 51 90 72 3d
       0.16658427 0.10068049 0.15867947 0.059219662
0000a0 1b 2f 8f 3e 7b ac 52 3f f8 eb ae 3e 79 4b 20 3f
       0.27965626 0.82294434 0.34164405 0.6261516
0000b0 21 a3 fd 3e e4 a3 be 3f 6f 0f 7b 3e 70 60 67 3e
       0.4953852 1.4893765 0.24517606 0.22595382
0000c0 1c 34 a9 3e d9 55 74 3e a3 3d 79 3e 28 fd 5c 3e
       0.3304757 0.23860873 0.24339919 0.21580946
0000d0 b9 a3 17 3e a3 5a 90 3d c4 fa 80 3d dd 81 5e 3f
       0.14808549 0.070485376 0.0629783 0.86916906
0000e0 aa a4 2b 3f 55 09 1b 3f 0a 97 4f 3e 96 a7 26 3f
       0.6704813 0.60561115 0.2027246 0.65099466
0000f0 ea e2 b6 3e 73 59 0f 3e 08 4d 57 3e 86 58 52 3e
       0.35719997 0.13998966 0.21025479 0.20541582

encoder.4.weight f4 [128, 64, 3, 3]
000000 4f 13 1a bd 94 03 ff bc 8b 87 9c bc fd 33 6c bc
       -0.03761607 -0.031129636 -0.0191076 -0.014416692
000010 3e 7e ae bb ae 20 99 bc 9f 4d 09 3c 8d 84 78 bc
       -0.005325108 -0.01869234 0.008380323 -0.015168321
000020 e8 85 3e bc 12 a3 0c 3d 51 78 24 bd 44 e5 ef 3c
       -0.011628605 0.034335203 -0.040153805 0.029284127
000030 49 70 72 bc d9 4c 1c 3d 5a 49 24 3d 35 db 12 bd
       -0.014797279 0.038159225 0.040109016 -0.035853583
000040 03 48 7b 3b 46 78 24 3d a2 d6 86 bb 17 c7 c2 3a
       0.0038342483 0.040153764 -0.0041149417 0.0014860359
000050 27 61 54 bc 6a 38 e2 bc c8 f8 13 3d 11 3e 0d 3d
       -0.012962616 -0.027614791 0.03612593 0.03448302
000060 53 8f 03 3d 29 84 0f 3d c8 42 fc bb fa b9 c1 3c
       0.032119107 0.035038147 -0.0076983906 0.02364825
000070 39 fb ef 3c 26 9e 96 3c 06 89 a4 3b 97 8b f8 bc
       0.029294597 0.018385958 0.0050212173 -0.03034
000080 be ef 6e bc 34 b4 f7 bc cb c9 1d bd 22 de c5 bc
       -0.014583526 -0.030237295 -0.038522523 -0.024153773
000090 2d 93 51 3c b8 e5 b3 3c b1 33 24 bd 20 b8 4e bc
       0.012791437 0.021960124 -0.04008836 -0.012617141
0000a0 2d 6a 79 3c 67 4b 2e 3c eb 70 d6 bc 64 5f fc 3a
       0.015223068 0.0106380945 -0.02617689 0.0019254503
0000b0 29 b1 ca 3c 42 c8 a5 3c ab 67 94 3c 6d c1 f2 3c
       0.02474268 0.020237092 0.018115839 0.029633248
0000c0 b4 f9 12 bd 43 b0 d5 bc 2f ad 91 3c ee 7b a5 bc
       -0.035882667 -0.026085025 0.017782776 -0.020200696
0000d0 95 64 16 3c 81 ff c2 3c b4 55 92 bc ae 32 2c bc
       0.009179254 0.023803474 -0.017863132 -0.01051013
0000e0 17 5f 1d 3d c5 1a 1b bb ff 6f 07 bc 07 c6 2b 3d
       0.038420763 -0.002366708 -0.008266448 0.0419369
0000f0 c2 e0 eb 3c 78 5c 01 3d c0 2d 8d 3c b7 91 88 3c
       0.028793696 0.031582326 0.01723373 0.016671045
000100 9b a1 12 3c fa f0 9a bc b6 91 54 3c c0 61 4f 3c
       0.008949663 -0.018913735 0.012974193 0.012657583
000110 04 5b c5 3b e2 d6 f6 bc 2e 1a 78 3c 5e ac 20 3c
       0.006022813 -0.030131761 0.0151429605 0.009806721
000120 ce 80 89 bc 2f 1e d3 bb 4d fe a4 bc a0 63 90 3c
       -0.016785052 -0.006442807 -0.020140791 0.01762563
000130 7a 84 81 bc 67 da dc bc 91 4b 6b bc ff 02 41 3c
       -0.01581024 -0.026959611 -0.014361278 0.0117804995
000140 bd a0 0f 3d d4 e6 ff 3b 33 c2 84 bb 49 8d 9a 3b
       0.0350654 0.0078094993 -0.0040514707 0.0047165495
000150 ab 5b 91 3c cb 65 ba bb 07 d4 8b 3c 33 29 1e bd
       0.017743906 -0.005688404 0.017068876 -0.03861351
000160 c0 8c 90 bb 6d 83 fe bb 2d 59 bf 3c 9b e9 29 bd
       -0.00441131 -0.007767132 0.023357952 -0.04148255
000170 1f 8b 25 bd 22 c5 52 bc 1f 30 9c 3b 87 30 f7 3c
       -0.04041588 -0.012864383 0.0047664787 0.030174507
000180 e7 76 17 bd 96 ed 60 3a ae a2 20 3d f8 7b af bb
       -0.03697863 0.0008580325 0.039217643 -0.0053553544
000190 61 38 1f 3d 1c 23 cf 3b 8a 48 cc bc 77 dd 2a 3c
       0.038872126 0.006321324 -0.024936933 0.010428778
0001a0 1d 10 04 3d da 08 d7 bb 73 a0 14 3d 0e 03 8c 3c
       0.03224193 -0.0065623345 0.03628583 0.0170913
0001b0 f9 e0 ef ba b8 c6 0f bd aa 1a 52 3b 9a a4 0e bd
       -0.00183013 -0.035101622 0.003205935 -0.034824945
0001c0 a1 b8 0a 3d 4a 6a 76 3c 56 96 56 3c ec 70 78 3c
       0.033867482 0.01503999 0.013097366 0.015163641
0001d0 c6 dd e0 3c 67 1e 19 3d aa 60 1b 3d 95 1a 88 3c
       0.0274495 0.03738251 0.037933983 0.016614238
0001e0 a5 3f 59 3c 53 2c 1f bd 2f b5 26 bd 3e 8c 93 3c
       0.013259803 -0.03886063 -0.040700134 0.018011209
0001f0 6e de bb 3c b6 98 e1 bc 5c 5d 95 bc 8a aa 18 3d
       0.022933211 -0.027538639 -0.018232994 0.037272014
000200 97 5f 22 bd 5a 6f df 3c 4b 4b 7b 3c f7 13 9d bc
       -0.039641943 0.027274776 0.015337775 -0.019174559
000210 bc 4c 21 3c 2b a3 d6 3a be 85 ca 3c 3d 76 7d bb
       0.009844955 0.0016375532 0.024721976 -0.0038675212
000220 59 c3 bb 3c a3 97 a3 bc 2b a4 24 3d 32 94 06 3c
       0.022920297 -0.019969767 0.040195625 0.008214043
000230 66 3f 4f bc 9f 7b 1a 3d 55 48 a3 bc c7 cd 1c 3d
       -0.012649393 0.03771555 -0.019931952 0.038282182
000240 43 2a 1a bd 18 b5 01 3d 82 36 b8 3b ff a9 b8 bc
       -0.03763796 0.031666845 0.005621732 -0.022541998
000250 a6 c5 1a 3c ea 61 cf 3b 85 ef 23 3b fb 17 85 3c
       0.009446537 0.006328811 0.002501459 0.016246786
000260 a8 f6 d8 bc 91 e1 0a bd fb 55 41 3c ce 9f 1c bd
       -0.026484802 -0.033906523 0.0118002845 -0.03823834
000270 46 5c b1 3c f2 a9 74 bc 8d c4 bb bc fd de 15 3d
       0.021650445 -0.014933096 -0.022920871 0.03658961
000280 01 ee 02 3d 2d 97 d2 bc a0 74 57 3c 11 33 b7 3c
       0.03196526 -0.025706852 0.013150364 0.022363218
000290 3b 58 2b bd b8 8c e7 bb bf 81 0f bd 8a 9e 93 3c
       -0.04183219 -0.0070663355 -0.035035845 0.018019933
0002a0 5f f3 ea bc 60 de 1a 3c 31 88 10 bd b7 9d a9 3b
       -0.028680502 0.009452432 -0.035286132 0.005176272
0002b0 bf e0 14 3c 2c d6 b1 bc 84 b2 86 3b 76 e4 57 bc
       0.009086787 -0.02170857 0.004110636 -0.013177028
0002c0 d1 74 8e 3c 82 b2 16 bc c9 61 22 b9 6c 2e ec 3c
       0.017389687 -0.009197833 -0.00015485952 0.02883073
0002d0 eb 56 05 3d e9 52 10 bd d8 8a 12 bc a4 fa d6 3b
       0.032553595 -0.03523532 -0.008944236 0.0065606404
0002e0 17 d6 d6 3c 1a e7 92 3c dd 2a 17 3d 07 e1 84 bc
       0.026225133 0.017932463 0.036906112 -0.016220583
0002f0 56 34 09 bd d6 41 76 bc cf c5 28 3d 41 54 3c 3c
       -0.033497177 -0.015030345 0.04120427 0.011494697
000300 39 ab e3 ba 05 48 a8 3c 01 2f d4 3c 93 be dc bb
       -0.0017369754 0.020542154 0.02590132 -0.0067365854
000310 96 f7 c5 3c 4e 86 d6 3c e7 7f 58 bc e8 18 f0 bb
       0.02416591 0.026187088 -0.013214088 -0.007327188
000320 80 49 42 3c 43 11 09 3d 07 aa 20 bd 7c ed 20 bc
       0.011858344 0.033463728 -0.03922465 -0.009822246
000330 c5 43 8f bc 19 d9 0f bd 8f 5c c1 3c 5a 9a d9 3b
       -0.01748837 -0.03511915 0.023603706 0.0066407146
000340 37 62 5a 3b e6 3d 9d bc 26 6a c3 3c 55 e2 cc 3c
       0.00333227 -0.019194555 0.023854326 0.025010267
000350 12 59 02 bd 62 6c f7 3c 1e fd 12 bd 6f 46 0d 3b
       -0.031823225 0.030203048 -0.035885923 0.0021556874
000360 d6 ee 16 3b 2b 44 f0 3c 03 5a 31 bc 64 34 a4 3c
       0.002303054 0.02932938 -0.010824683 0.020044513
000370 e1 d7 f6 3c bf 84 c5 bb 2a 81 34 ba f9 81 e9 3c
       0.030132236 -0.0060277875 -0.0006885702 0.028504359
000380 4c c5 8d 3b 38 68 25 bd ce f2 00 3d 46 cf e5 bb
       0.004326498 -0.040382594 0.031481557 -0.0070132343
000390 80 a4 a0 3c d0 f9 14 bd 9f 17 0b 3d f1 9c e4 bb
       0.01960969 -0.036371052 0.033958074 -0.0069767167
0003a0 4d 13 ad 3b e2 50 fc 3c 1e 13 43 3c 31 50 02 bd
       0.005281842 0.030800287 0.011906413 -0.031814758
0003b0 7a c8 ba bc 95 52 1c bd 45 b1 79 3c 80 79 6e bc
       -0.022800673 -0.038164694 0.015240018 -0.014555335
0003c0 40 89 13 3d 84 ad 29 bd b2 41 a3 3b 0a 2b 7d 3c
       0.036019564 -0.041425243 0.0049821967 0.015452156
0003d0 90 c1 6c bb 25 7d c8 bc 5f 6d 14 3d f6 97 da bc
       -0.0036126114 -0.024473736 0.036237117 -0.026683789
0003e0 1d 1b 0f bd cc e6 04 3d 98 0f 03 3a e4 18 43 ba
       -0.034937967 0.032446668 0.0004999577 -0.00074423687
0003f0 74 fd b2 3b ae d4 5f bc 3f 1a 1e bd b9 8f 60 bc
       0.005462343 -0.013661547 -0.03859925 -0.013706141

encoder.4.bias f4 [128]
000000 4a 5c 14 bd 1c 28 eb bb da cc 25 3d 52 d2 0b ba
       -0.036220826 -0.0071764123 0.040478565 -0.00053337694
000010 b6 74 40 bc 49 63 93 bc 89 5e 1d bd b2 08 74 3b
       -0.011746576 -0.017991679 -0.038420234 0.0037236628
000020 f7 29 03 bd f3 ef 1d bd 02 75 a6 bc 7e 9e f8 bc
       -0.032022443 -0.03855891 -0.020319466 -0.030349012
000030 b7 cf 81 bb 47 c4 10 bd 97 b0 e2 3c db 6c 22 3d
       -0.003961529 -0.035343435 0.027672095 0.039654594
000040 2c 6e aa bc 62 21 fa bc ad 1c 9c ba 77 08 8e 3b
       -0.020804487 -0.030533496 -0.0011910402 0.004334505
000050 df dc 45 bc 8d 3d 24 bd ab 09 56 bc e5 d2 0c bd
       -0.012076586 -0.040097762 -0.013063828 -0.034380812
000060 56 73 09 3c 76 04 be 3a 90 68 f0 3c 83 f8 25 bc
       0.008389315 0.0014497179 0.029346734 -0.010130051
000070 88 9b 14 bd d8 86 8f 3c d2 8a 24 bc 7e 49 92 bc
       -0.03628114 0.017520353 -0.010042863 -0.01785731
000080 c9 9c 12 bc 00 dd dc bc 55 61 82 bc 2f 0c 8c 3c
       -0.008948513 -0.02696085 -0.015915552 0.017095653
000090 59 ed 33 3c 35 cf c3 bc c5 26 1d bd 35 3e 98 bc
       0.010981881 -0.023902515 -0.03836705 -0.01858435
0000a0 db 2f 5b 3c c4 8b 07 bd e9 4e ae 3c 12 11 c7 bb
       0.013378109 -0.033092275 0.021277862 -0.006075033
0000b0 e1 b5 79 3c d6 d2 1d bc db 3c 15 bd 1b 11 94 3c
       0.015241117 -0.009632787 -0.03643499 0.018074563
0000c0 00 e4 d3 3b 24 c5 f1 3c 52 da 7f 3c 8b d2 46 bc
       0.0064663887 0.02951295 0.015616016 -0.012135158
0000d0 e7 08 97 bc fb 86 43 bc 7b 5c 10 bd 8f 4a af 3c
       -0.018436862 -0.011934037 -0.035244446 0.021397857
0000e0 e6 cd 93 bc 5e 05 0b bd 82 79 1e 3d 56 98 84 3c
       -0.018042516 -0.033940665 0.038690098 0.01618592
0000f0 ff 81 79 bb a8 48 ef bc 7c ec 73 3c 24 4f 96 3c
       -0.0038071868 -0.02920945 0.014887925 0.018348284
000100 a0 1c 4b 3c 42 fc 9a 3c 18 8d 08 3c eb 6d 8b 3c
       0.012396961 0.018919114 0.008334421 0.017020186
000110 6f 12 1a bd ae e7 ed 3c 19 ec ad bc 3b 15 87 bb
       -0.037615236 0.029041138 -0.021230744 -0.004122404
000120 28 48 c0 bc ff d7 f8 ba 56 a5 1f 3d b2 a8 17 bd
       -0.023471907 -0.001898527 0.038976036 -0.037026115
000130 a9 74 cc ba a6 80 f1 3c 7a a6 84 bb ca d4 28 3b
       -0.0015598732 0.02948029 -0.004048166 0.0025761598
000140 b3 d6 94 bc 79 18 8c 3c 23 cd 20 bd 7f 78 dd 3c
       -0.018168783 0.017101513 -0.039258134 0.027034996
000150 d6 df 0a bd fa 43 a6 3c 02 8d 01 3d 51 3f 7d 3c
       -0.033904873 0.020296086 0.031628616 0.01545699
000160 f4 1b b5 bc db 11 35 bc 86 9a 1c 3d 5a 5d e6 bc
       -0.022108056 -0.01105162 0.038233303 -0.028120685
000170 54 9c 83 3c d8 7b b8 ba 9f ce 6b 3c 2e 92 c4 3c
       0.016065754 -0.0014074994 0.014392524 0.023995485
000180 fb 07 ea 3b 11 c1 11 3c b4 61 13 bd 8b 27 a7 3c
       0.0071420646 0.008896128 -0.03598185 0.020404598
000190 44 0f d2 3c 16 9f 85 bb 81 5b 73 3b e7 af 85 3c
       0.025642045 -0.0040778024 0.0037133398 0.016319228
0001a0 1c 51 a6 bb 76 e7 ef 39 23 fa 0b 3d 19 f8 bf 3c
       -0.005075587 0.00045758084 0.034174096 0.023433732
0001b0 7c 52 0a bc 17 43 01 3d 54 7a e9 bc 36 2c c4 bc
       -0.008442517 0.031558122 -0.028500713 -0.023946863
0001c0 08 af dd 3c 21 6c 7f bc d2 50 1a 3d a9 e3 64 bb
       0.027061 -0.015589745 0.037674733 -0.0034925735
0001d0 d3 84 50 3c 2c 43 69 bc 88 e8 08 3d 7a d6 06 bd
       0.01272698 -0.014237206 0.033424884 -0.032919385
0001e0 bc 26 27 bd 11 75 37 3c 4d 60 14 3c f8 b4 26 3d
       -0.040808424 0.011197344 0.009056163 0.04069993
0001f0 cc 19 dc bb c0 cd c8 bc 3b 17 20 bd d0 d9 be bc
       -0.0067169424 -0.024512172 -0.039084654 -0.02329722

encoder.5.weight f4 [128]
000000 5e 13 80 3f 23 1d 80 3f 0c 0d 80 3f 44 16 80 3f
       1.000591 1.0008892 1.0003982 1.0006795
000010 fb 04 80 3f 59 cf 7f 3f 01 1e 80 3f af 06 80 3f
       1.000152 0.9992576 1.0009156 1.000204
000020 92 c9 7f 3f b3 1e 80 3f 0e 19 80 3f e8 06 80 3f
       0.99916947 1.0009369 1.0007646 1.0002108
000030 59 d7 7f 3f f9 de 7f 3f de fd 7f 3f 97 10 80 3f
       0.9993797 0.99949604 0.99996746 1.0005063
000040 2b 15 80 3f 4b 12 80 3f 31 13 80 3f ea fc 7f 3f
       1.000646 1.0005583 1.0005857 0.9999529
000050 1d 10 80 3f 7b d6 7f 3f f9 ee 7f 3f 9c 00 80 3f
       1.0004917 0.99936646 0.9997402 1.0000186
000060 51 07 80 3f fa 1a 80 3f f4 10 80 3f 56 16 80 3f
       1.0002233 1.0008233 1.0005174 1.0006816
000070 12 dc 7f 3f 21 d2 7f 3f 2f d3 7f 3f 01 c3 7f 3f
       0.99945176 0.99930006 0.99931616 0.9990693
000080 67 20 80 3f 27 c2 7f 3f c7 be 7f 3f ca d2 7f 3f
       1.0009888 0.9990563 0.9990048 0.99931014
000090 d5 1d 80 3f 0d cc 7f 3f bf 07 80 3f a9 13 80 3f
       1.0009104 0.9992073 1.0002364 1.0006
0000a0 3c 15 80 3f 85 03 80 3f fc df 7f 3f 1b 11 80 3f
       1.000648 1.0001074 0.9995115 1.000522
0000b0 87 05 80 3f f0 db 7f 3f fb d8 7f 3f ad e8 7f 3f
       1.0001687 0.99944973 0.9994046 0.9996441
0000c0 4f 0d 80 3f 48 14 80 3f 63 1f 80 3f 40 db 7f 3f
       1.0004061 1.0006189 1.0009578 0.99943924
0000d0 ce 11 80 3f 6d 06 80 3f 87 12 80 3f f2 0d 80 3f
       1.0005434 1.0001961 1.0005654 1.0004256
0000e0 62 11 80 3f 4c 06 80 3f d5 16 80 3f db eb 7f 3f
       1.0005305 1.0001922 1.0006968 0.9996926
0000f0 30 1b 80 3f f8 eb 7f 3f e4 c0 7f 3f 81 c9 7f 3f
       1.0008297 0.99969435 0.999037 0.99916846
000100 ca 0e 80 3f e7 15 80 3f 62 fa 7f 3f c6 1d 80 3f
       1.0004513 1.0006684 0.9999143 1.0009086
000110 55 15 80 3f 1b 0c 80 3f d6 00 80 3f 88 08 80 3f
       1.000651 1.0003694 1.0000255 1.0002604
000120 27 1d 80 3f 8e ee 7f 3f fa ef 7f 3f 07 fa 7f 3f
       1.0008897 0.9997338 0.9997555 0.99990886
000130 a4 eb 7f 3f e7 19 80 3f 48 f4 7f 3f 98 db 7f 3f
       0.99968934 1.0007905 0.9998212 0.9994445
000140 43 da 7f 3f 1e f8 7f 3f 1a dd 7f 3f 4d ff 7f 3f
       0.99942416 0.9998797 0.9994675 0.99998933
000150 25 f5 7f 3f e8 04 80 3f ff cc 7f 3f d0 e0 7f 3f
       0.99983436 1.0001497 0.99922174 0.9995241
000160 2e de 7f 3f 20 e4 7f 3f b2 14 80 3f fd 01 80 3f
       0.99948394 0.99957466 1.0006316 1.0000607
000170 69 03 80 3f 33 d2 7f 3f d8 e9 7f 3f 0b 0c 80 3f
       1.0001041 0.99930114 0.9996619 1.0003675
000180 c5 d9 7f 3f 5c ca 7f 3f ff f1 7f 3f 57 04 80 3f
       0.99941665 0.9991815 0.9997863 1.0001324
000190 e9 00 80 3f 95 1d 80 3f 27 f8 7f 3f 1f 06 80 3f
       1.0000278 1.0009028 0.99988025 1.0001868
0001a0 2a 01 80 3f 85 de 7f 3f c8 f1 7f 3f 59 11 80 3f
       1.0000355 0.9994891 0.99978304 1.0005294
0001b0 c5 c1 7f 3f 2d df 7f 3f b1 18 80 3f 41 f3 7f 3f
       0.99905044 0.99949914 1.0007535 0.9998055
0001c0 5d d3 7f 3f 28 d7 7f 3f 6a bc 7f 3f f6 da 7f 3f
       0.9993189 0.9993768 0.9989687 0.9994348
0001d0 06 14 80 3f 7a c8 7f 3f ef 07 80 3f 34 c9 7f 3f
       1.0006111 0.9991528 1.0002421 0.99916387
0001e0 93 19 80 3f 7e 0c 80 3f 53 0e 80 3f e3 fd 7f 3f
       1.0007805 1.0003812 1.0004371 0.99996775
0001f0 92 d5 7f 3f 6d 09 80 3f b5 18 80 3f 2f 12 80 3f
       0.9993526 1.0002877 1.000754 1.0005549

encoder.5.bias f4 [128]
000000 58 ae 29 3a c3 0b 3f 3a ed 96 64 3a bd 4a c5 39
       0.00064728176 0.00072878244 0.00087199995 0.00037630452
000010 78 94 63 39 9b 0a 00 ba 44 d4 65 3a a5 a0 41 3a
       0.00021703716 -0.0004884393 0.0008767287 0.00073863036
000020 76 38 3d ba 05 d1 01 3a 3d 1b 53 3a 5f da 96 b9
       -0.0007218191 0.0004952106 0.000805307 -0.0002877293
000030 e5 2b 17 ba 6a 71 82 39 d1 ff 74 3a c9 33 21 3a
       -0.00057667337 0.00024880032 0.0009345981 0.0006149379
000040 79 66 86 39 37 d1 49 3a 0f 0f 5a 39 d0 25 80 b9
       0.0002563482 0.0007698717 0.0002079571 -0.00024442235
000050 de 2b 04 3a fd 2b 56 ba 37 c4 2f 39 e1 44 28 ba
       0.0005041937 -0.0008170007 0.00016762396 -0.0006418955
000060 c4 8a 8b b9 15 08 1d 3a a7 80 0d 3a 38 f9 00 39
       -0.00026615534 0.0005990279 0.0005397894 0.00012299872
000070 d8 65 ae b9 3c 79 54 ba 80 a8 ce 38 4a 44 85 ba
       -0.00033263746 -0.00081052235 9.854231e-05 -0.0010167446
000080 73 7c 32 39 b1 82 33 3a 94 74 8c ba b6 98 43 39
       0.00017021764 0.00068477826 -0.0010715895 0.00018653538
000090 e5 8f 25 3a 47 aa 52 ba 1b 92 5e 3a 5a e9 51 37
       0.00063156924 -0.00080362376 0.00084903993 1.2511702e-05
0000a0 9c d6 fc 39 40 f3 22 3a 73 53 92 b9 a7 5a bf 39
       0.00048225082 0.00062160566 -0.00027909465 0.000364979
0000b0 f3 4c 25 39 8a 35 2c ba 49 c5 b6 38 11 7a ce 38
       0.00015764292 -0.0006569257 8.7151835e-05 9.845582e-05
0000c0 19 fe ef 39 2e 26 b2 39 cf 5d dd 39 bb a6 3c b9
       0.0004577495 0.00033979252 0.00042222298 -0.00017991189
0000d0 70 83 24 3a 15 c6 de b8 bd f4 26 39 c5 b8 1f b8
       0.0006275689 -0.000106226806 0.00015922166 -3.8080634e-05
0000e0 42 e1 3c 3a ed aa 40 39 13 9b 00 3a 89 93 d0 b9
       0.0007205197 0.00018374222 0.00049059204 -0.00039782774
0000f0 bd d8 dc 39 d3 0c 5b ba 98 19 27 ba be 7d 02 39
       0.00042123153 -0.0008356098 -0.0006374358 0.00012444609
000100 f4 46 4c ba 9e ec f2 39 7e 6a e7 39 85 0a f3 b7
       -0.0007792555 0.0004633413 0.00044139096 -2.8972756e-05
000110 37 86 a0 39 17 05 2e 38 35 5e 07 39 07 b8 ce b9
       0.00030617576 4.1489573e-05 0.00012909698 -0.00039428493
000120 91 52 5f 3a 2c 86 30 ba 61 c6 de b9 45 50 0a 39
       0.0008519078 -0.00067338604 -0.00042490943 0.00013190608
000130 99 11 1a ba b9 37 4b 39 86 0c 13 39 4a 67 00 39
       -0.0005877256 0.00019380347 0.00014023678 0.0001224551
000140 61 e1 9b b9 36 be aa b9 6d 23 01 3a 99 11 90 b9
       -0.00029731824 -0.00032566645 0.00049262383 -0.00027478932
000150 f8 77 36 ba 78 01 17 39 b9 a4 2b ba 98 41 80 b9
       -0.0006960626 0.0001440103 -0.0006547678 -0.00024462934
000160 0f 58 fc b9 8c c2 30 ba ed 2e a4 b8 b8 73 d3 b9
       -0.00048130794 -0.0006742857 -7.82887e-05 -0.00040331273
000170 cd 87 02 39 da c7 54 ba 41 8e ea b9 39 7c 25 3a
       0.00012448356 -0.00081169384 -0.00044737945 0.0006312761
000180 2f b2 30 ba fb b0 83 ba b7 5b c3 38 e3 57 66 ba
       -0.00067404186 -0.0010047251 9.315408e-05 -0.00087869
000190 33 be 2f ba 6e bb 69 3a 15 db c6 b9 6c fd 2a 39
       -0.0006704062 0.0008916174 -0.00037928732 0.0001630687
0001a0 b5 b6 4c b9 bb 9b 1c ba f2 d6 d1 b9 cb 9a 4d 3a
       -0.0001952302 -0.00059741334 -0.00040023733 0.00078431953
0001b0 fd 6f bb b9 5e f4 41 3a b7 64 8c 39 a0 a5 2e 3a
       -0.00035750857 0.0007398779 0.0002677792 0.0006662253
0001c0 22 03 5c ba 46 52 44 39 5b 6c 9a b9 22 f5 26 ba
       -0.0008392801 0.00018722666 -0.000294539 -0.0006368925
0001d0 09 bf 36 3a dc c7 bf 39 b0 c1 6c 3a 2a 6e 75 ba
       0.00069712155 0.00036579266 0.0009031547 -0.0009362424
0001e0 84 03 f8 39 fd 94 4a 3a c3 ff 51 39 8a 7d e4 37
       0.00047304865 0.00077278895 0.00020027072 2.7238177e-05
0001f0 1c be 82 39 44 a2 d1 b8 5c 32 34 3a a9 b2 1e 3a
       0.00024937175 -9.996121e-05 0.0006873959 0.0006053844

encoder.5.running_mean f4 [128]
000000 c2 d0 71 bd 06 7e e0 3e 5e f4 d5 be 1e 8f 62 3e
       -0.059036978 0.43846148 -0.41788 0.22124907
000010 0b 55 3b be 54 7c 2b be 04 ef ad be 5e 92 44 bf
       -0.1829416 -0.16746646 -0.33971417 -0.7678584
000020 ab da 83 be 5a 2a 02 be b8 fa 4b 3e 7d db 93 be
       -0.25752768 -0.12711468 0.1991986 -0.28878394
000030 72 00 f5 3e e8 24 59 3e 18 da ab 3e 35 a3 0d 3e
       0.47851902 0.21205485 0.3356483 0.1383179
000040 67 65 67 3d 2a 9d d9 3e 53 f3 11 bd 19 c9 71 be
       0.05649319 0.4250272 -0.035632443 -0.23611869
000050 55 58 96 3d c9 6e e3 3d 42 5b eb be c1 81 66 3e
       0.07341067 0.11105115 -0.45968062 0.22510435
000060 51 b8 cd 3d d8 b9 fa bd 1b 40 06 bf 27 e8 9d 3d
       0.10044921 -0.12242478 -0.5244157 0.07710295
000070 90 1e e4 be 09 aa b2 bc 82 a8 54 be b9 19 1c bf
       -0.44554567 -0.021809595 -0.20767406 -0.6097675
000080 00 d5 75 bb 57 98 6d be 10 ee 1d bf 3b 2c ac 3d
       -0.003751099 -0.23202644 -0.6169138 0.08406874
000090 5c 86 ca bd 78 0c 0b 3f 33 41 3e be a6 95 79 3e
       -0.09888908 0.543159 -0.18579559 0.24373493
0000a0 fb 63 32 be f9 16 35 be 69 9d 5d bd 60 4b 13 bf
       -0.17420952 -0.17684545 -0.054105196 -0.5753689
0000b0 8f 8d d1 be e6 1c 23 bf c7 9b 94 3e 95 b9 9f bd
       -0.40928313 -0.6371597 0.290251 -0.07799069
0000c0 36 21 2b 3e ca d5 33 bf 78 11 4c 3e a1 dd 4d bd
       0.16711888 -0.7024809 0.19928539 -0.05026019
0000d0 b7 4b fe 3e 23 dc 66 3e b0 71 9e 3e cf 00 95 bd
       0.4966714 0.22544913 0.30946112 -0.07275545
0000e0 bd a0 f4 be cc e4 89 3d 69 e8 52 3e 89 05 da be
       -0.47778884 0.06733093 0.2059647 -0.42582348
0000f0 7e 22 f4 bd f6 28 e5 3d 1d d6 04 3e 63 2b be be
       -0.11920641 0.11189453 0.12972303 -0.37142476
000100 88 9c 64 3e 4b ca e4 3d 7e c2 f8 be 0d 22 a5 be
       0.22325337 0.11171397 -0.48585886 -0.3225254
000110 53 79 31 be 12 60 6a bd c6 83 01 bf 19 aa 6a be
       -0.17331438 -0.057220526 -0.50591695 -0.2291645
000120 4f 84 aa be 49 41 93 be 3d 1e 00 3f dc 2c 8c be
       -0.33304068 -0.28760746 0.5004614 -0.27377975
000130 66 18 1b 3e a3 3a 71 be 9a 59 c5 3e cc 42 66 3e
       0.15146026 -0.23557524 0.38544923 0.22486418
000140 f8 a9 b5 be f4 1b f4 3d b2 1e 2a 3f e5 aa 42 3e
       -0.35481238 0.11919394 0.6645309 0.19010504
000150 b6 dc ca be 86 6f cc be 8c d5 9c be 11 b7 06 bf
       -0.39621514 -0.39928836 -0.30631673 -0.5262309
000160 70 1e b9 3c 64 01 0b 3e 38 32 73 3e ec 0b e7 be
       0.022597522 0.13574749 0.23749626 -0.45126283
000170 06 ae b1 be 4a fa 0c be de 1a 80 3e 8e 64 96 be
       -0.34703082 -0.13767353 0.25020498 -0.29373592
000180 2e 54 0a 3f a0 c2 bf 3d 8b e7 42 bd 69 56 d7 bc
       0.540347 0.09363294 -0.047584098 -0.02628632
000190 22 41 01 3c 25 91 11 be f6 fa 47 3e 9b 29 a8 be
       0.007889064 -0.14215524 0.19529328 -0.32844242
0001a0 a4 d0 3d be 72 1b de 3d 47 7a 0f be e6 e0 00 3e
       -0.18536621 0.108450785 -0.14011489 0.12585792
0001b0 5e 3b 00 be 65 e8 f9 bd ed 6c e0 bd 93 21 bd bd
       -0.12522647 -0.12202529 -0.10958276 -0.092349194
0001c0 1b 3a 27 3e 53 89 13 3e 7c c1 c9 bd 48 75 67 be
       0.16330759 0.14407854 -0.09851357 -0.22603333
0001d0 23 7f e1 be 9c 5d 7f be 09 ec 28 3e 69 a5 96 be
       -0.4404231 -0.24938053 0.1649629 -0.29423073
0001e0 4e d5 b7 be df 7d d4 3d 47 4e 55 be e3 b1 12 3f
       -0.35904926 0.103755705 -0.20830642 0.57302684
0001f0 e1 83 cf 3e f4 91 ff 3d c2 18 4f 3e 3b 64 34 bf
       0.40530303 0.1247901 0.20224288 -0.7046544

encoder.5.running_var f4 [128]
000000 1a c2 ed 3d e5 16 ef 3d f4 b5 1d 3e bc 7b bb 3d
       0.116092876 0.11674289 0.15401441 0.0915446
000010 3d e5 43 3e 1d 06 fc 3d ba 55 d7 3e a1 32 6f 3e
       0.19130416 0.123058535 0.42057592 0.23359157
000020 48 a9 69 3d e8 ed c8 3d e5 e2 43 3e 2b 76 8c 3d
       0.057046205 0.09811002 0.19129522 0.06858476
000030 83 e6 7b 3e 25 02 62 3e a8 a0 cf 3d 3d 09 af 3d
       0.24599652 0.2207113 0.101380646 0.08546684
000040 a0 e0 6d 3d 06 9e ee 3d ac af 7a 3d c0 72 ca 3d
       0.058075547 0.11651234 0.06120269 0.09885168
000050 2b cf 36 3e f7 5a a0 3d 2a 52 dc 3e 25 13 9a 3d
       0.17852466 0.0782985 0.43031436 0.07523183
000060 c9 46 e6 3d 37 27 89 3d 90 5e e0 3e 1e 6c a0 3d
       0.1124397 0.06696933 0.43822145 0.07833122
000070 dc 90 ff 3d 61 20 32 3d d1 61 69 3e 7e 25 4d 3e
       0.124788016 0.04348791 0.2279122 0.20033833
000080 bd 8e 7e 3d 12 fd 39 3e 99 bb 4e 3e 07 f9 21 3e
       0.062147845 0.18162945 0.2018875 0.15817653
000090 c0 0f d9 3d 92 50 0a 3e 9a cd de 3e a0 1c 4e 3e
       0.10598707 0.13507298 0.43516237 0.20128107
0000a0 a3 dd ae 3d ec a9 ec 3d a7 67 84 3d 52 40 b0 3e
       0.085383676 0.115558475 0.064650826 0.34424073
0000b0 ab e4 13 3e 7b b5 13 3e 8a b4 1f 3e e3 f5 95 3d
       0.14442699 0.14424698 0.15596214 0.0732229
0000c0 5d 6c b3 3d a1 36 a6 3e cf ee 4c 3d 91 ad 82 3d
       0.08760903 0.32463554 0.050032433 0.063807614
0000d0 6c 16 0d 3e cf 72 ef 3d dd 4f 13 3e 43 4b ee 3d
       0.13778085 0.1169182 0.14385934 0.11635449
0000e0 8c 0e c9 3d 1d f6 1c 3d f6 08 7a 3e 82 ec 05 3e
       0.09817228 0.03832065 0.24417481 0.13078502
0000f0 f6 05 90 3d 61 cd f5 3d 9c ec f1 3e 90 a0 1c 3e
       0.07032387 0.120020635 0.4725083 0.15295625
000100 2b 66 60 3d e5 34 42 3d 68 64 e9 3d d5 44 9b 3d
       0.054784935 0.047413725 0.11396104 0.07581488
000110 42 fe 9f 3d 5d 0b 27 3e e9 49 fc 3d dd 9f 8d 3d
       0.07812168 0.16312928 0.12318785 0.06915257
000120 cf 17 b5 3e 11 00 08 3e f8 8d cc 3d 80 5a 8a 3d
       0.35369727 0.13281275 0.09988016 0.06755543
000130 0c 87 7c 3d b6 57 ed 3d 1c 68 fd 3d 4c 2a bb 3e
       0.06165223 0.11588995 0.12373373 0.36555707
000140 10 ed a0 3e e9 16 c4 3d 2e 20 99 3e 56 a4 97 3d
       0.31430864 0.09574682 0.29907364 0.074043915
000150 9e 32 d2 3d bb a1 d9 3d d4 a8 b9 3d 10 dc 1d 3e
       0.10263561 0.10626551 0.090654045 0.15415978
000160 be 69 53 3d 2b 4b 57 3e b5 9d c0 3d af 6e ef 3d
       0.051614515 0.21024768 0.0940508 0.11691033
000170 a5 a4 93 3e 59 d1 ee 3d 20 91 b2 3d 07 2c 27 3e
       0.2883655 0.11661024 0.08719087 0.16325389
000180 8a 84 65 3e 72 16 26 3d cf a6 98 3d e8 28 c5 3d
       0.22413841 0.04054875 0.07453691 0.09626943
000190 72 30 0d 3e bb 54 2a 3e 15 99 46 3d fa bb 09 3f
       0.13788012 0.16633885 0.048485834 0.53802454
0001a0 77 8d 5f 3e d2 58 9a 3e 67 21 c6 3d 30 cf 48 3e
       0.21831308 0.3014589 0.0967434 0.19610286
0001b0 21 97 f2 3d 5d c1 fe 3d ea 24 b9 3d f0 c6 98 3d
       0.11845232 0.12439225 0.09040244 0.07459819
0001c0 95 cb b8 3d 03 c2 cb 3d c9 58 5c 3d 90 a6 58 3e
       0.09023205 0.09949114 0.05379561 0.21157289
0001d0 b8 f2 96 3e f0 53 3b 3d 9a f7 6d 3e a8 9b b3 3d
       0.29482055 0.045734346 0.23238984 0.087699234
0001e0 84 c4 a0 3d d9 bc 12 3e 69 ec f4 3d 8e cc 1d 3e
       0.078499824 0.14329852 0.11959154 0.15410063
0001f0 cd d3 0e 3e 98 84 82 3d 55 6d fc 3d be e9 4f 3e
       0.13947983 0.063729465 0.12325541 0.2030401

decoder.0.weight f4 [64, 128, 3, 3]
000000 9e f9 dc ba 51 09 64 bc 44 84 af bb 02 b6 94 3c
       -0.001685906 -0.013918237 -0.0053563435 0.018153194
000010 f3 11 18 3c 57 8c a9 bb 5d 27 f9 3b 52 0f 87 3c
       0.009281623 -0.0051742005 0.0076035694 0.016486797
000020 6a 6f e8 bc 35 8b da 3c 9d f8 c1 3c c5 c7 37 3c
       -0.028373439 0.026677707 0.023678118 0.011217062
000030 87 6c aa 3c 3a 74 b4 bc c3 4b 91 3c 2b dd 04 3c
       0.020803703 -0.022028077 0.017736321 0.008109371
000040 33 58 b1 3b a9 a9 e7 bc c5 bc d9 bb 3b 06 83 3b
       0.0054121255 -0.028279142 -0.0066448175 0.0039985455
000050 58 0a af bc 97 c1 0f 3b 98 c3 a0 3c b2 a1 87 3c
       -0.021367237 0.0021935457 0.019624516 0.016556595
000060 ac 83 e2 3c 0d e9 f2 ba b8 3e 9d 3a 76 af be bc
       0.027650677 -0.0018532589 0.0011996841 -0.023277026
000070 dc 40 02 3b cc 0a 89 3c 68 56 f4 3a 61 d0 87 ba
       0.0019875085 0.016728781 0.0018641474 -0.0010361784
000080 f2 4d ae 3c 14 a2 e2 bc 3d cc 07 bc 10 40 95 3a
       0.021277402 -0.027665175 -0.00828844 0.001138689
000090 ee 18 05 39 b1 3d ad 3b 82 80 ae bc ad 61 54 bc
       0.00012693155 0.005286895 -0.021301512 -0.012962741
0000a0 e4 63 4a 3c 57 4d 9e 3c 67 37 0d bc 06 c9 81 3b
       0.012352917 0.019323988 -0.008619166 0.0039607314
0000b0 67 cc e4 3c a1 95 1d 3a a9 dd 0c bc 7c b1 07 bc
       0.027929498 0.0006011371 -0.00859777 -0.008282062
0000c0 ef ef 89 bc b2 dd cb bc 5d 51 46 3c ff e0 50 bc
       -0.016838042 -0.024885986 0.012104359 -0.012748956
0000d0 a9 b6 e2 3a 62 66 92 3b 20 4c a6 bc 2f b2 2f 3c
       0.0017296869 0.0044677714 -0.020299971 0.010723635
0000e0 f4 e6 bf bb 2a a5 df 3c f0 28 95 bc 8a 13 84 bc
       -0.005856389 0.027300436 -0.018207997 -0.016122598
0000f0 31 e8 5c bc 62 24 a2 bc 76 30 42 3c e7 6f 0b bb
       -0.013483093 -0.01979274 0.011852374 -0.0021276416
000100 d4 e8 d9 bc 0c 84 95 3b e0 71 ea 3c 5e 50 82 bc
       -0.026600279 0.0045628604 0.028618753 -0.015907463
000110 a1 d0 33 bc ec b4 d5 3c 07 38 93 bc 51 4b 4f 3a
       -0.010975034 0.026087247 -0.017971052 0.00079076464
000120 a9 71 7f 3b ad 18 b8 bb 66 2a b5 bc d0 12 57 3c
       0.003897766 -0.005618176 -0.022114944 0.013127044
000130 e1 88 b9 bc 0e d3 3c 3c 69 49 42 bb c0 b7 8f 3c
       -0.022648277 0.011524929 -0.0029645807 0.017543674
000140 57 e8 00 3a 60 64 e9 3c 76 51 4a 3c 58 22 75 ba
       0.0004917434 0.028490245 0.012348523 -0.0009351126
000150 28 e9 d2 bc b8 ff e4 bc 3d d1 db 3c cf bb 9e bb
       -0.025745943 -0.027953967 0.026833171 -0.004844166
000160 02 ed 37 3c 51 14 77 bc 94 49 83 bc 42 f3 5d 3c
       0.011225941 -0.015080527 -0.016026296 0.013546767
000170 00 f7 dc 3c cc 6d 9d bc 6a 2f 3a bc aa 8d d0 bc
       0.026973248 -0.019217394 -0.011363843 -0.025458176
000180 c4 23 fe 39 fd 1f 69 b9 b9 52 8e bc bc b6 32 bc
       0.00048473303 -0.00022232528 -0.01737343 -0.010907825
000190 2c 32 b6 3c 5f 6a a1 b8 68 13 81 bb bd 2e bc bb
       0.02224072 -7.6968914e-05 -0.003939081 -0.0057428763
0001a0 57 4a 13 b9 2c 71 d0 3c 8a be b2 3c 9c a5 06 bc
       -0.00014046706 0.02544459 0.021819372 -0.008218195
0001b0 39 07 0f bc 38 a9 5a 3c eb 5e bb bc 52 f9 27 3c
       -0.008729749 0.013346009 -0.022872409 0.010252314
0001c0 4b ba 89 3c e3 2d 0f 3b b5 15 7f bc e1 ee cb bc
       0.016812464 0.002184742 -0.01556914 -0.02489418
0001d0 a9 cd db 3c fe e6 89 bb f2 ef 63 3c 92 dc 60 bc
       0.026831465 -0.0042084446 0.013912188 -0.013724463
0001e0 23 96 d6 bb 4a 0e 88 bc 98 01 22 bc 43 d3 ea 3c
       -0.0065486594 -0.016608376 -0.009888075 0.02866519
0001f0 86 ba 5f bc 1a 0c c1 bc f2 c7 e6 3c 30 b0 a9 3c
       -0.0136553105 -0.02356534 0.028171513 0.020713896
000200 44 8e 57 3c df 26 3b 3b 32 ab 8f 3c c4 ff 17 bc
       0.013156477 0.0028557105 0.017537687 -0.009277288
000210 ef d1 6b bc b6 97 20 bc 66 f9 c4 bb 82 0b 40 3c
       -0.014393314 -0.009801796 -0.006011176 0.011721494
000220 cf 7a de 3b 28 ef 45 3c 3c 54 a0 bc 10 34 f2 3b
       0.0067895423 0.012080945 -0.019571416 0.0073914602
000230 ee 94 56 3c 23 0d 78 bc 65 f0 d9 bc e5 7f 1d 3c
       0.013097031 -0.015139851 -0.026603887 0.009613012
000240 d3 7a d2 3b 0f 52 f1 3c 95 17 36 3c b1 5f ef bb
       0.006423333 0.029458074 0.011114021 -0.0073051085
000250 62 4c 59 3c 6b 81 4e bc f9 bb d3 bc 29 4f 4c 3b
       0.01326284 -0.012604098 -0.025846468 0.0031175113
000260 d4 af 55 3c 75 11 6d bc a7 49 e8 3c 5c 68 87 3c
       0.013042409 -0.014469494 0.028355433 0.016529255
000270 10 f1 df bb d6 17 41 bc 1e 6d 4a 3c 08 3b 4f 3c
       -0.006834157 -0.011785468 0.012355117 0.0126483515
000280 84 db cb 3b 11 45 d8 3b e7 d2 70 3c 7b 6b 90 3a
       0.0062212367 0.00660003 0.014698721 0.001101836
000290 01 74 ee bb ca 82 b0 bc 03 1b c2 3c 2c 94 de bb
       -0.0072770123 -0.02154674 0.02369452 -0.006792566
0002a0 66 14 51 bc 76 29 a6 bc 39 07 7b bc 04 fc 15 bc
       -0.012761211 -0.020283442 -0.015321546 -0.0091543235
0002b0 2f 35 72 bc fd 35 51 bc 13 e7 eb 3b fd 1a 52 3b
       -0.014783188 -0.012769219 0.007199177 0.0032059543
0002c0 69 24 bb ba 9b c6 89 bc b7 fb 46 bb a6 62 2d bc
       -0.0014277819 -0.016818335 -0.0030362436 -0.010582602
0002d0 df 9a d9 bb 58 24 72 bc 46 bc da 3c b7 89 ab bc
       -0.0066407765 -0.014779173 0.026701104 -0.020939691
0002e0 9d 7a b9 3b 42 83 ed 3c f1 1a 82 bc 86 f8 99 3c
       0.0056603686 0.028993253 -0.015881987 0.018795263
0002f0 ac 8e e7 3c 16 ad a6 3c 3f 3b a3 3b 81 65 97 bc
       0.028266273 0.020346206 0.004981428 -0.018481018
000300 7f cd 6f bc 0c cf e4 bc 63 dd da bc fd 3c 07 3c
       -0.014636396 -0.027930759 -0.026716894 0.008254287
000310 36 81 db 3c 68 a4 c4 3c 0d a1 67 bb 83 5e 07 bc
       0.026795011 0.024004176 -0.0035343796 -0.008262279
000320 b9 b7 b4 3c ad e3 2f 3c 6d e1 0c b9 c4 1e 95 3c
       0.022060262 0.0107354345 -0.00013435418 0.018203147
000330 a4 09 be bc d8 bd 74 bb 7a 19 b4 3c 4f 44 66 bb
       -0.023197956 -0.00373446 0.021984804 -0.003513593
000340 09 e5 e3 bc 55 7f 87 3c a8 08 b6 bc 52 80 cf 3c
       -0.027819173 0.016540209 -0.022220924 0.025329743
000350 73 b7 e2 bc cf 13 aa 3c 77 80 b6 bc f0 a6 d3 bc
       -0.027675366 0.020761399 -0.022278054 -0.025836438
000360 08 8a d0 bc 83 c1 ee 3c e8 ce d4 3c a8 03 c5 3c
       -0.025456443 0.029145008 0.025977567 0.024049595
000370 79 68 6a 3c 98 99 a7 3c 9e f7 ce bc bb a2 2b bc
       0.014307135 0.020458981 -0.025264557 -0.01047581
000380 94 10 88 bc 13 64 8b bb fa e3 e7 bc ba 0a c8 bc
       -0.016609468 -0.004253873 -0.02830695 -0.024419177
000390 66 c8 a5 bb bc ee e1 3c 83 7f e2 bc 47 07 8a bc
       -0.0050592897 0.027579658 -0.027648693 -0.016849173
0003a0 dd c2 ba bb 24 11 05 bb 24 16 ed 3b 4b f4 5e bc
       -0.005699499 -0.0020304406 0.0072353054 -0.013608049
0003b0 d8 a2 0f 3b 58 ce e6 bb 0d 30 1f bc 97 b4 5a 3b
       0.002191713 -0.007043641 -0.009716046 0.00333718
0003c0 56 bb 8d bc bd 91 f3 3c c8 ce b0 3c 63 20 00 bb
       -0.017301243 0.02973258 0.021582976 -0.0019550554
0003d0 1f 85 80 3c 6a 0f b2 bc 79 1b e8 3c df 84 97 3c
       0.015688477 -0.021735866 0.028333412 0.018495975
0003e0 e0 fb ab bc 8c a0 a8 3a ea 7f 8d bc 95 23 83 bc
       -0.020994127 0.001286523 -0.017272908 -0.016008178
0003f0 49 41 aa 3c 3d ef 0b 3c 8c 16 d0 bc 0d af c4 bc
       0.020783084 0.008540926 -0.025401376 -0.024009252

decoder.0.bias f4 [64]
000000 eb 95 cf 3c b5 88 d6 bc 65 be 0b bb ba 6c 75 3c
       0.025340041 -0.026188234 -0.00213232 0.014979536
000010 aa c5 ae 3c 43 66 7f 3c c9 a6 dd bc 01 bb 9b 3c
       0.021334488 0.015588346 -0.027057068 0.019010069
000020 e6 13 e4 3c 2e 4e 2b 3b 3f dd db 3b 13 f6 c0 bc
       0.02784152 0.0026139128 0.006709724 -0.023554837
000030 27 05 df 3b 00 a4 86 3c cc 72 be 3c 41 ab bc bc
       0.006806034 0.016435623 0.023248099 -0.023030879
000040 90 ae 0c 3a 9d f4 70 ba c2 1a c4 3c 1f 4d b8 bc
       0.0005366588 -0.00091917237 0.02393854 -0.022497712
000050 5a f2 07 bc d3 b0 36 3c 87 d7 b7 3c fd a4 20 3c
       -0.008297527 0.011150557 0.022441639 0.009804961
000060 a4 03 b3 bc ca b0 da 3c 75 7c be bc 9c aa 4a 3c
       -0.021852322 0.026695628 -0.023252705 0.012369778
000070 2a 03 66 bc 1d f9 74 bc 92 d5 90 bb e1 85 8c bc
       -0.01403884 -0.014951971 -0.004419991 -0.017153682
000080 fb 6c bf bb 21 04 7e bc fb 1b 58 3b 25 15 1b 3c
       -0.005841849 -0.015503914 0.0032975662 0.0094654905
000090 f3 1d f8 bb e4 26 d5 3c 02 32 ff 3b 42 03 ec bc
       -0.0075719296 0.026019521 0.007787944 -0.028810147
0000a0 27 03 98 bc d2 f2 81 3c 8a bf d6 bb 4e a4 5d 3c
       -0.01855619 0.015862856 -0.006553595 0.013527943
0000b0 93 3b 0f bc 42 17 e2 bc f3 ce 32 bc 73 7d d2 bc
       -0.008742231 -0.02759898 -0.010913598 -0.025694584
0000c0 3e eb 0b bb 52 18 8a 3b 2b c3 c2 bc f4 0d be bc
       -0.0021349932 0.004214325 -0.023774704 -0.023200013
0000d0 88 fb 31 bc 08 4a d6 3c 25 f9 87 bc db 00 cf bc
       -0.010863192 0.026158348 -0.016598294 -0.025268963
0000e0 11 55 a5 3c 17 25 18 3c b2 24 83 bc ab e5 02 bc
       0.020182164 0.009286187 -0.016008709 -0.007989327
0000f0 eb 80 a9 3c 2a dd 2b 3b 00 ae 57 3a ca d3 ba 3b
       0.020691356 0.0026224353 0.0008227527 0.0057015168
