checkpoints/2025-05-30-16-31-17/last_epoch.pth (torch, 675371 bytes, 9 tensors)

encoder.0.weight f4 [64, 3, 3, 3]
000000 5f 82 1a be 43 1a fe bc 08 14 e5 bd 1c 7d fd bd
       -0.15088795 -0.031018382 -0.11185461 -0.12377378
000010 3c 31 08 bd ba fa 0c 3e d4 72 fa bd 6c a6 37 be
       -0.03325008 0.1376752 -0.12228933 -0.17934579
000020 b6 e4 1e 3e d6 cc 2a be 49 24 b9 3d 4a f9 85 3d
       0.15516934 -0.16679701 0.09040124 0.06541689
000030 ea f6 e6 bd 9b 20 c1 3d 01 86 0b bc 67 38 14 3a
       -0.11277564 0.09430047 -0.008515836 0.00056541566
000040 ac c8 2d be aa 2e 0f 3e 7f 3a dd 3d b8 94 1c 3e
       -0.16971081 0.13982645 0.10802173 0.15291107
000050 e6 72 2f be 74 34 23 bd b6 8e 08 bc 4d 57 02 bd
       -0.17133674 -0.039844945 -0.008334806 -0.031821538
000060 42 54 85 bd ad e4 92 3d 9c 8a 3a be d2 c7 3e be
       -0.065102115 0.07172523 -0.18216938 -0.18630913
000070 fc d3 e2 3d bc 21 34 be 1d 1c 9d 3c 91 7c b9 3d
       0.11075589 -0.17590994 0.019178445 0.09056962
000080 e8 ab 19 be 16 18 41 be 21 c4 e7 3d 4d ef 8a bd
       -0.15006983 -0.18856844 0.113167055 -0.06783924
000090 fc 15 0d 3e da 42 2a bd 57 2a 54 3d 7c 09 be 3d
       0.13777918 -0.04156766 0.05179819 0.09279153
0000a0 85 0c 49 bd c8 b2 be 3d 7f 2f 02 3e 63 c7 24 be
       -0.049084205 0.093114436 0.12713431 -0.16091685
0000b0 7e 16 98 bd f1 7e 3a 3e cc f2 64 3d 5c da b5 bd
       -0.07426165 0.18212487 0.05589561 -0.08879539
0000c0 3c 13 a5 bd 6a 7e ad bd 2e 77 25 be b3 f6 89 bd
       -0.08060309 -0.08471377 -0.16158745 -0.06736507
0000d0 47 0a 45 bd 95 6b d7 3b 6e ae 16 bd 6a b3 97 3d
       -0.048105504 0.006574104 -0.036787443 0.074072674
0000e0 72 01 f5 bd 17 05 89 bc 7d b2 ef 3d 0e 6e 90 bd
       -0.11963166 -0.01672606 0.11703966 -0.07052241
0000f0 3a 17 17 3d bd 29 f1 bd d3 cb 7f bd 20 75 5d 3d
       0.036887385 -0.11775539 -0.06245024 0.054066777
000100 b9 4f b1 3c e4 28 dd bd d6 37 3a be df 2c 3e bd
       0.02164446 -0.10798815 -0.18185362 -0.04642951
000110 b5 05 0e 3e b2 49 00 3e a8 9a ff 3b 0b 16 fb bd
       0.13869365 0.12528113 0.007800419 -0.12260064
000120 b9 b5 43 be c0 e0 14 be b2 9b c5 bd da 3d a6 bb
       -0.1911229 -0.1453886 -0.09648837 -0.0050732912
000130 55 e1 1f 3e b2 53 31 3e d7 1a 08 3c 18 31 1b 3d
       0.15613301 0.17317083 0.00830718 0.037888616
000140 70 b0 35 3e 49 45 0a 3e 4c b2 ff bd 3e c1 6a 3d
       0.17743087 0.13502993 -0.12485179 0.057313196
000150 78 1a e9 bd 73 a3 36 be a8 d8 f2 3c fd 8a 29 be
       -0.11382002 -0.17835788 0.029644325 -0.16556926
000160 9a 62 63 bd 83 ef 17 be 46 b9 1b be ea da 17 be
       -0.055513956 -0.1483746 -0.15207395 -0.14829603
000170 9e c4 32 be 52 e4 35 be 0b b2 8b 3d 8e db 25 be
       -0.17457816 -0.17762879 0.068210684 -0.16197035
000180 32 91 3f 3e e1 ee e3 bc 2f 5e 40 be 3a f1 05 3e
       0.18707731 -0.027823867 -0.18785928 0.13080302
000190 16 8c 06 3e f6 f5 f2 3d e8 b3 06 be 32 a5 bf bd
       0.13139376 0.118633196 -0.13154566 -0.093576804
0001a0 a8 33 27 3e d9 2f 21 bd 83 08 00 bd f8 7f ce bd
       0.16328299 -0.03935227 -0.031258117 -0.10083002
0001b0 7d ce c9 bd 6c fe 76 3d 83 bf 39 3e 19 31 88 bd
       -0.09853838 0.06030123 0.18139462 -0.0664999
0001c0 06 93 d1 bd a5 96 b8 bc 1a cd 8d 3d 69 ab c0 bd
       -0.102331206 -0.02253277 0.06923886 -0.09407694
0001d0 3c e8 15 bd b2 af ad 3d c4 99 07 3e 4e bc c4 bd
       -0.03659843 0.08480777 0.1324225 -0.09606229
0001e0 ba 9a 03 bc 2b e0 c1 3c ca 98 37 bd c9 b0 09 3e
       -0.008032495 0.023666462 -0.044823445 0.13446344
0001f0 95 4a 24 3e e3 79 f3 3c 00 68 d2 bd b1 7c c6 3c
       0.16044076 0.029721206 -0.10273743 0.02422938
000200 34 50 84 3d 89 67 a3 bd 06 80 de bd 4e 46 25 3e
       0.0646061 -0.07978732 -0.10864262 0.161401
000210 56 0b 56 3d fc 8b 0c 3e 91 11 1e 3e ae 74 01 be
       0.052256905 0.13725275 0.15436389 -0.12642166
000220 77 04 b7 bd 0e 0f 56 3d 64 05 b9 bd ee 8e 2f 3d
       -0.089363985 0.05226045 -0.09034231 0.042860918
000230 33 a7 bb 3d 0c 64 93 3d 03 af 01 3e af b1 16 be
       0.0916275 0.07196817 0.12664418 -0.14716218
000240 08 6f 93 3d 1a f1 1e be 2a 3f 6b 3d 72 cf 4f bc
       0.07198912 -0.1552166 0.057433285 -0.012683736
000250 29 5f bc 3d ae 13 18 3e f8 41 4b bd f6 9d 2f 3a
       0.09197838 0.14851257 -0.04962346 0.0006699258
000260 5c 02 89 3d 6d 00 d5 3d d7 3b 36 3e 74 c8 b2 bd
       0.06689903 0.10400472 0.17796265 -0.0872964
000270 20 6d 06 be 1f 91 9b 3d bc 63 85 bd 32 27 b6 bd
       -0.13127565 0.07596039 -0.065131634 -0.08894195
000280 6e b4 74 3b 27 ac 02 be 5a 55 0c be 39 3b 12 be
       0.003733899 -0.12760983 -0.13704434 -0.14280404
000290 b0 3e 66 3d 1d 23 fa 3d 1c 9e 54 3d 18 3c 20 3e
       0.056212127 0.122137286 0.051908597 0.15647924
0002a0 52 85 30 3e 8e 2f b2 3b 8e df 8c bd 60 c3 c2 bc
       0.17238358 0.005437798 -0.06878577 -0.023774803
0002b0 3d 29 e4 bc 5e cd f4 3c b6 45 cb 3c c7 fe 20 be
       -0.027851695 0.029883083 0.024813514 -0.1572219
0002c0 c2 30 d0 bd 0c 02 1b 3e be 9c 2a 3e a3 97 ea 3d
       -0.1016555 0.151375 0.16661355 0.11454704
0002d0 57 b7 35 3e f2 fa e7 bd 56 0d c2 3d 92 10 98 bd
       0.1774572 -0.11327161 0.094752 -0.074250355
0002e0 2d 0f f2 3d e8 3e 25 3e de 64 c4 bc ad 27 25 3e
       0.11819301 0.16137278 -0.023973878 0.16128416
0002f0 f6 81 56 3d a2 af 15 3e 0b 7b 19 3e 80 c9 2c be
       0.052370034 0.1461778 0.14988343 -0.16873741
000300 68 77 03 3e c0 27 92 bc f8 b9 a4 bd f8 a2 8e bd
       0.12838519 -0.01784122 -0.08043283 -0.069646776
000310 10 8b 42 be a8 44 67 bc 3e 36 e3 3c 0c e6 1f be
       -0.1899836 -0.01411549 0.027735826 -0.156151
000320 a9 e9 19 3e d7 6c b7 3d 1e 1d 11 bd 4b 11 26 be
       0.1503054 0.089563064 -0.03542816 -0.16217534
000330 af b4 86 bd 8f fd 16 3c 29 af 88 bd fb be b0 bd
       -0.065774314 0.0092157265 -0.06674034 -0.08630177
000340 eb b8 13 be 56 15 4a bd 84 6f 74 3d b6 7b aa 3c
       -0.1442601 -0.049336754 0.059676662 0.020810943
000350 e7 a1 39 3e 45 7e 15 be fc d6 26 be 09 8d 80 bd
       0.18128167 -0.14598949 -0.16292948 -0.062769
000360 c8 d7 48 bd 68 12 3a 3e f2 a2 1f bd 99 8f 41 3d
       -0.04903391 0.18171084 -0.038973756 0.047256086
000370 b3 0b 1d be b6 f4 18 be 2a b0 25 3e 67 74 d8 bd
       -0.15336494 -0.149371 0.16180483 -0.10569077
000380 a5 b2 d3 3d b4 ff 42 be 6b cd 39 be 0d 35 34 be
       0.10336808 -0.19042856 -0.18144767 -0.17598362
000390 1a e0 55 bc 44 0d 7e 3d 16 10 e0 bd 64 e7 9a 3d
       -0.013053918 0.06202437 -0.10940568 0.075636655
0003a0 ee 7a 21 3e 74 12 3a 3e c0 1c 0e be 7f 48 c7 3d
       0.1576955 0.18171102 -0.13878155 0.097306244
0003b0 04 93 11 bd 94 08 05 3d 46 60 a4 bd 89 68 e2 bd
       -0.035540596 0.032478884 -0.08026175 -0.11055095
0003c0 88 b3 db bc 0f a6 ec 3c 84 99 1a 3e 19 ea c4 3d
       -0.026819006 0.028887777 0.15097624 0.09614963
0003d0 5c 68 40 be 76 40 58 3b 0c 51 92 3d cc 8e 8a bd
       -0.1878981 0.0032997406 0.07144365 -0.067655176
0003e0 d6 94 7f bd b6 7c a6 3d a8 d7 96 3d d0 d4 05 3e
       -0.0623978 0.081292555 0.07365352 0.13069463
0003f0 ca f9 9a bd 2c 29 36 3e a0 54 0b 3c c8 04 20 3d
       -0.07567175 0.17789143 0.008504063 0.03906706

encoder.0.bias f4 [64]
000000 61 ee 1d 3a d8 20 a6 3c 6c b0 b2 3c 78 41 15 be
       0.0006024596 0.020279333 0.02181264 -0.14575756
000010 29 a6 18 be d4 09 0f bd 88 81 87 bd 56 7e 1d 3d
       -0.14907135 -0.034921482 -0.06616503 0.03845056
000020 79 5f 9d 3c e9 b8 8f bb 8c ce 32 bc b0 a5 cb 3d
       0.019210564 -0.0043860567 -0.010913502 0.09943712
000030 b2 b0 1a 3e 64 6f af bd fa 95 93 3d 91 71 34 3e
       0.15106466 -0.08566168 0.0720634 0.17621447
000040 e1 01 05 3e ef 02 07 3e 47 cd 54 3b a7 55 36 be
       0.12988998 0.13184713 0.0032470988 -0.17806111
000050 bc 91 a7 bc 83 73 a7 3d 8d f8 42 bd 7e 9c 77 bd
       -0.020455234 0.08176329 -0.047600318 -0.060451977
000060 2a 99 e5 3d 3d f8 43 bb 6e 69 14 be 5a ff ba 3d
       0.11210854 -0.00299026 -0.14493343 0.09130736
000070 fd 2d 36 bd 74 dd 28 3e ba 35 2a be 49 f7 e2 3d
       -0.04447745 0.16490728 -0.16622058 0.11082322
000080 41 8e 20 3e 5b 85 9b 3d 55 21 d5 3d ad 68 ee bd
       0.15679266 0.07593795 0.10406748 -0.11641059
000090 bc 45 e8 bd e9 41 15 be 15 f6 dc 3d d3 28 23 3e
       -0.11341426 -0.14575924 0.10789124 0.15933542
0000a0 05 d7 3f be f3 3f 1b be 30 69 7b bd ac ef b8 bc
       -0.18734367 -0.15161113 -0.06137961 -0.022575222
0000b0 d4 b8 f4 3d 98 12 26 3e 0e a0 18 bd 04 d4 06 3e
       0.11949316 0.1621803 -0.037262015 0.13166815
0000c0 06 f5 21 3e d2 54 24 3e af 9c d0 3d 3b 38 03 3b
       0.15816125 0.16047981 0.10186135 0.002002253
0000d0 21 70 3b be 32 4e 50 bc 92 fb 10 3e 08 0f 82 bd
       -0.18304493 -0.012713956 0.14158466 -0.06350523
0000e0 52 f4 aa bd 76 9f 52 3d 12 e4 04 be c6 c4 c6 bd
       -0.08347382 0.051421605 -0.12977627 -0.097055
0000f0 9a 2b 9c 3d 03 22 67 3d 4b 90 d6 bd 7f 5f 02 be
       0.07625504 0.05642892 -0.104767404 -0.12731741

encoder.3.weight f4 [128, 64, 3, 3]
000000 48 f5 19 3c 24 6a d3 bc 9a a5 a3 bb 28 a6 b1 bc
       0.0093968585 -0.025807448 -0.0049941065 -0.021685675
000010 d6 d4 5a bc 35 81 11 3d d8 9a e1 ba b4 be 16 bd
       -0.013356408 0.035523612 -0.0017212285 -0.036802962
000020 dd ca 0d 3d 81 f0 48 bc dc 6b 1b 3d 6d 31 2f bc
       0.034617294 -0.012264372 0.03794466 -0.010692936
000030 02 47 e8 bb 76 04 42 3c 44 59 82 bc 40 6e d0 bc
       -0.007088543 0.011841884 -0.015911706 -0.025443196
000040 f2 ad 05 bd a1 67 fe bb 44 5b e0 bc 02 25 25 3d
       -0.03263659 -0.0077638184 -0.027387269 0.040318497
000050 6b e6 30 3c 72 f7 45 3c 3b 39 ee bc 31 94 a2 bb
       0.010797123 0.012082921 -0.029080024 -0.0049615134
000060 76 37 e9 3c 9d e4 c8 3c b1 de fc 3b 12 b1 23 bd
       0.028468829 0.024523074 0.0077169766 -0.03996379
000070 9f d0 ac 3c bd a4 12 3c 97 91 12 bd 7f 51 4a 3b
       0.021095572 0.0089504095 -0.035783377 0.003087133
000080 f0 6a 0e 3d f8 3e e5 bc 56 10 24 3c 81 42 42 3c
       0.034769952 -0.027984127 0.01001366 0.011856676
000090 9c 5f 15 bc 9a 05 04 3d d0 94 75 3b 69 70 be bc
       -0.009117033 0.032231905 0.0037472732 -0.02324696
0000a0 ed ce d3 bc fd 31 0b bd 1c 27 1e 3d 26 42 f5 3c
       -0.025855506 -0.03398322 0.038611516 0.029938769
0000b0 2d ab 1a 3b 11 e8 ec 3c 9b a2 93 bc d6 4a fc bc
       0.0023600564 0.028919252 -0.018021872 -0.030797403
0000c0 db cf ce 3c fd 18 64 bc 8b 67 87 3a e1 e2 24 3d
       0.025245598 -0.013921973 0.0010330541 0.04025543
0000d0 eb 62 c5 bc 00 d6 53 bc d5 f1 0c bc 47 f6 77 bc
       -0.02409502 -0.01292944 -0.008602579 -0.015134401
0000e0 bf 93 ca bb d9 e1 b5 bc fa aa 0d 3b 9e a6 d9 3c
       -0.0061821635 -0.02220242 0.0021616803 0.026568707
0000f0 57 eb 20 bd 45 b1 bd bc 0c 83 cd 3c 9c c6 18 3d
       -0.039286938 -0.023155818 0.025086902 0.037298784
000100 a1 fd a7 bc 9e 20 3c 3c b2 3f c1 ba b0 9b e6 3c
       -0.020506682 0.011482386 -0.0014743714 0.02815041
000110 1d 55 95 3c 99 1b 80 3b b8 8a b2 bc af d4 3b 3b
       0.018229062 0.00390954 -0.021794662 0.0028660705
000120 b8 a7 97 3c 4c b0 05 3b c6 0f 36 3c a7 92 2b bd
       0.018512592 0.002039927 0.011112159 -0.041887905
000130 20 06 01 bd 90 6c 72 bc ae 23 13 b8 7c 5f c4 3c
       -0.031499982 -0.014796391 -3.508076e-05 0.023971312
000140 aa 84 f4 b8 c2 83 d3 3c 17 91 1e 3d 88 43 1e bd
       -0.00011659537 0.025819663 0.038712587 -0.03863862
000150 e8 ac 89 3c d8 69 33 3b 38 c6 f2 bc 04 2e 13 3d
       0.016806081 0.002737632 -0.029635534 0.035932556
000160 b0 02 19 bc a9 54 17 bd cf de df bc 67 ab 25 3d
       -0.00933902 -0.036945973 -0.027327923 0.040446665
000170 bb d8 1b bc 04 2e 90 3c c1 6b b4 bc b8 e6 13 3d
       -0.009512122 0.017600067 -0.022024037 0.036108702
000180 24 a2 0f bd 26 c5 15 bc a1 8f 8a 3c 1d 7c 5f 3b
       -0.03506674 -0.009141242 0.01691419 0.0034101077
000190 f9 d6 1d 3d fb 86 91 3c 12 ec a8 bc 89 d8 8b 3c
       0.038535092 0.017764559 -0.02062038 0.017071025
0001a0 85 44 25 3d 6a 75 af 3c 08 f1 26 bd 25 3e 12 bb
       0.04034855 0.021418292 -0.04075721 -0.0022314873
0001b0 05 8d 35 bc 1b d0 10 bd 34 f1 96 bc 45 31 05 bd
       -0.011080985 -0.035354715 -0.018425561 -0.03251769
0001c0 09 b5 ba 3c 22 69 16 bd b3 cb bb 3c dd 07 db 3c
       0.022791402 -0.036721356 0.02292428 0.026737148
0001d0 31 3a 20 3d fd 26 1b 3d 05 dd ef 3c 9e 81 ec bc
       0.039117996 0.03787898 0.029280195 -0.0288704
0001e0 c7 e2 2c bd 66 35 34 3c 4e 5c 97 bb 65 9e a6 3c
       -0.04220846 0.010999059 -0.004619158 0.0203392
0001f0 1b f0 33 3c 73 c3 e2 3c 58 46 87 bb 32 38 20 bc
       0.010982539 0.027681088 -0.0041282587 -0.009779023
000200 ba a3 06 bd 34 1f ef 3b a4 68 e9 3c a5 5f 2e bc
       -0.032870986 0.007297421 0.02849228 -0.010642921
000210 f0 2b fd 3c 51 c7 1d bd d7 1b 02 bd 7f 38 02 3d
       0.03090474 -0.03852016 -0.03176483 0.03179216
000220 09 04 1c bd 44 6b f2 bb a2 6d 18 3d 70 e5 04 bc
       -0.038089786 -0.007398041 0.03721393 -0.008111343
000230 7d dc 18 3b 17 57 bd 3b 15 fc 55 3c 07 20 c5 bb
       0.002332478 0.005778204 0.013060589 -0.006015781
000240 39 b7 f7 3a a7 6b b0 bc 92 43 b6 bc 78 89 a7 bc
       0.0018899209 -0.021535708 -0.022249017 -0.020451292
000250 71 5f 52 3c fa df 7b ba 79 8e 58 bb ff 57 01 3d
       0.012840138 -0.0009608265 -0.0033043905 0.03157806
000260 65 ea 19 bc 42 40 ec 3c 27 0b 20 3c 91 b8 15 bd
       -0.009394263 0.028839234 0.009768284 -0.03655297
000270 12 42 b3 3c 36 50 85 3b fa 69 e5 3c 70 fb 10 3c
       0.02188209 0.0040684 0.028004635 0.00884901
000280 18 e7 3a bb 74 9a 86 3c 09 8d 1f 3d 22 d1 9b 3c
       -0.002851909 0.01643107 0.03895286 0.01902062
000290 ff a0 cd 3c f3 02 17 bc a6 de cc bc d0 0e 02 3d
       0.025101183 -0.009217012 -0.02500851 0.031752408
0002a0 83 d2 d8 3c 5a ed e3 3c bf a1 54 3c 87 8c 44 bc
       0.026467567 0.027823139 0.012978016 -0.011996395
0002b0 dc b0 52 3c 8e cd cd bc 9f 70 c8 ba a2 20 02 3d
       0.012859549 -0.02512243 -0.0015292353 0.031769402
0002c0 bc 6a ca 3c 3b e6 10 3c 48 7b f0 bc ce 86 ed bc
       0.024709098 0.008843954 -0.02935566 -0.028994944
0002d0 51 92 b0 bc e9 ce 11 bc c1 44 1b 3d 2f 91 09 bd
       -0.021554144 -0.008899429 0.037907366 -0.033585723
0002e0 6a 16 c1 3c 2a d3 ad 3b b6 6d 26 bc ea 9a fb 3c
       0.023570258 0.0053047137 -0.010157993 0.030713517
0002f0 87 af fc 3c 34 d3 b7 bc cd 3a 90 3c 82 7c 9d b7
       0.030845417 -0.022439577 0.017606163 -1.8773837e-05
000300 0b b6 f7 3c 90 b8 c3 3b cc 7e a9 39 05 eb d4 3b
       0.030238172 0.0059729293 0.00032328663 0.006497743
000310 55 ff a4 3c 31 9f a4 3b e8 df 27 bd e0 73 9b 3c
       0.020141283 0.00502386 -0.040985018 0.018976152
000320 59 6c 4a 3c d7 a4 84 bc 8f 3d a1 3c 41 c9 4f b9
       0.012354934 -0.016191883 0.019682674 -0.00019816031
000330 06 c3 c7 3c a9 a3 ec bb 30 69 2c bd 57 28 55 bc
       0.024384987 -0.0072216582 -0.042092502 -0.013010106
000340 46 6f 25 bd 62 cf df ba e2 98 d4 3b cd ca 9d 3a
       -0.04038932 -0.0017075355 0.0064879516 0.0012038589
000350 5e 75 16 bd f9 69 87 3c 56 8a 44 bc 9e 5d 22 bd
       -0.036733024 0.016530024 -0.0119958725 -0.03964006
000360 da 93 ad 3c 39 49 7c 3c 24 7a 2e bd 8d 46 83 bc
       0.021188665 0.015398317 -0.04259695 -0.016024852
000370 d3 da b9 3c 84 83 f3 3c c2 1b d6 3c ce ad 98 3c
       0.022687351 0.029725797 0.026136283 0.018637564
000380 c3 91 dd 3a 1a 77 82 3c cb 00 75 3c fb b2 1e bd
       0.0016904402 0.015925933 0.014953802 -0.038744908
000390 28 fe 18 bd 21 14 37 bc 8e 1b 19 3d 87 52 64 3b
       -0.037351757 -0.011174233 0.037379794 0.003483923
0003a0 e0 07 ee bc ba fe dd 3c af 5d 41 3c ee e5 b7 3c
       -0.02905649 0.027099002 0.011802121 0.022448506
0003b0 4f b7 ee 3c 49 ef 02 bd a8 17 da 3c a2 39 9c bc
       0.029140143 -0.03196648 0.026622608 -0.01907045
0003c0 4d 75 00 bc d2 10 01 bd b5 a5 e4 3c 62 a7 d1 bc
       -0.007840467 -0.03151018 0.027911047 -0.02559251
0003d0 ba f1 15 3d 0f 95 a0 39 b6 49 ed 3c 4a 89 cd bc
       0.03660748 0.00030628635 0.028965812 -0.025089879
0003e0 f9 d8 3f bc 04 68 14 3d ce fa 1d ba 6b 8c a9 bc
       -0.011709445 0.03623201 -0.00060264475 -0.02069684
0003f0 cd 4f 0d 3c 85 57 e5 3c 1f d7 4c bc 3e 73 b4 bc
       0.008624983 0.027995834 -0.012502461 -0.022027608

encoder.3.bias f4 [128]
000000 4e d3 24 bd 75 38 ef 3c 08 67 17 bd ba 20 92 bc
       -0.04024058 0.029201725 -0.036963493 -0.01783787
000010 7e c6 d3 bc 37 ab 1d 3d 5f 42 18 3c 3a c1 01 3d
       -0.025851484 0.03849336 0.009293168 0.031678416
000020 9d c7 23 3d 94 46 3a 39 0b fe 38 3c 1a 87 19 3d
       0.039985288 0.00017764635 0.011291037 0.03748236
000030 28 7a 9c bb 85 51 13 3d cf d3 ac bc 72 1b 82 3c
       -0.0047753043 0.035966415 -0.021097092 0.015882228
000040 da 1f 0b 3d bc b3 41 3c d4 26 84 bc 00 9d e4 3c
       0.033965923 0.011822637 -0.016131796 0.027906895
000050 25 80 0a bd c1 40 21 3d 9a 58 df bc df 53 01 bd
       -0.033813614 0.039368395 -0.027263928 -0.031574126
000060 c1 92 e8 bb 82 7e 50 3a e3 7f dd 3c ea ee 27 3d
       -0.0070975726 0.00079534214 0.02703852 0.04099933
000070 51 ba 97 3b 3b a3 a4 3c 0d 91 83 3c 37 ad 9f bc
       0.004630365 0.020097366 0.016060377 -0.019491775
000080 12 7d c1 3c 24 83 e0 bc c9 46 05 3d 5f 57 b3 3c
       0.023619208 -0.027406283 0.03253821 0.021892248
000090 dc 45 d3 bc 0d 33 91 bc 33 ed 07 bc e2 b4 6d 3c
       -0.025790147 -0.017724538 -0.008296299 0.014508458
0000a0 5d 43 39 3c 08 ce 90 bc 03 0c a0 bc cc 57 26 3c
       0.011307565 -0.017676368 -0.019536978 0.010152768
0000b0 cf f1 b0 3b e0 7d 1b bd 61 53 ff 3c ec 22 e8 bc
       0.0053999196 -0.03796184 0.031167688 -0.028336965
0000c0 b8 9b d5 3c 9c 92 1b bd 70 aa 24 3d b1 19 29 bd
       0.026075229 -0.037981614 0.040201604 -0.041284267
0000d0 36 85 22 3d 70 62 e2 bc a4 20 08 bd 4c 80 0a 3d
       0.03967782 -0.02763483 -0.033234254 0.03381376
0000e0 af 05 a5 bb 7f 04 8c 3c b5 f1 6b 3c 56 c5 83 bc
       -0.005036078 0.017091988 0.014400889 -0.016085308
0000f0 e2 5f 12 3d 53 a1 21 3d e7 38 0c bc ea 6b cd bc
       0.035735972 0.03946049 -0.008558488 -0.025075871
000100 50 b5 8b 3c a3 ac e5 bc 46 20 24 3d a8 68 1a 3c
       0.01705423 -0.028036421 0.04006984 0.009424366
000110 50 58 6b 3c f7 e5 87 bc 4a 5b 2d 3d 7d 60 73 3c
       0.014364317 -0.016589148 0.04232339 0.014854548
000120 24 f5 ae 3c 58 73 42 bc 09 9f 38 3c 97 82 00 bd
       0.021357127 -0.01186832 0.011268386 -0.03137454
000130 08 2e 38 3a 03 80 11 bc bc 89 2c bc 8a 45 10 bd
       0.0007025902 -0.008880618 -0.010530885 -0.035222568
000140 88 f7 d1 bb 0f b1 14 3d 7b 93 eb bc e8 42 09 bd
       -0.006407682 0.03630167 -0.028756848 -0.033511072
000150 e5 a8 10 3d 43 65 22 3c 3b 95 af bc de 90 08 3d
       0.03531732 0.009911838 -0.021433463 0.03334128
000160 44 16 13 3d e3 dc f0 bc ec 8e c8 bb c1 a5 c8 3b
       0.035909906 -0.029402202 -0.0061205532 0.006123275
000170 d2 a4 17 3d 73 ef 17 3d c4 fb 8f 3a 47 32 26 bd
       0.03702242 0.03709359 0.0010985066 -0.040575292
000180 84 ce a9 3c c1 8c fa 3c ff cc 1f 3c db 98 04 bd
       0.020728357 0.030584695 0.009753465 -0.032372337
000190 e2 1f 11 bc fc ac 18 bd 51 db 8c 3b bc 85 d2 3c
       -0.008857699 -0.037274346 0.0042986055 0.025698535
0001a0 53 d1 24 bd e1 6d e5 3b a7 73 8c 3b 7f 38 25 bd
       -0.04023869 0.007001624 0.004286248 -0.040337082
0001b0 44 de f8 3c 6e cf 4d 3c b7 c7 1d 3d 6c f9 21 bd
       0.030379422 0.012561662 0.03852054 -0.039544508
0001c0 86 6b 9f bc ab ac 91 bc e4 68 ed 3b 11 86 7c bc
       -0.01946045 -0.01778253 0.00724517 -0.015412823
0001d0 ed b4 eb 3b de 33 54 bc dc 73 91 bc 10 63 df 3c
       0.007193199 -0.012951819 -0.017755441 0.027268916
0001e0 ce c1 1e 3d e0 76 b8 3c 68 52 bc bc c5 73 b2 3c
       0.038759045 0.022517622 -0.022988513 0.021783719
0001f0 5c 71 f8 bc 95 e3 2b bd 4b cc 3f bc b5 e7 4c bc
       -0.030327491 -0.041965086 -0.011706422 -0.012506415

decoder.0.weight f4 [64, 128, 3, 3]
000000 80 d2 6f 3c 23 a3 80 3c fd a0 e4 bc 3f d2 6c 3c
       0.014637589 0.01570279 -0.027908796 0.014454423
000010 bf 86 ec 3b 1d 5a f2 bb 15 ae d3 bc bb 16 4e bb
       0.0072182114 -0.0073959962 -0.025839845 -0.0031446654
000020 18 46 2a bc bb 0a a3 3b 4f d3 7a 3c 5b 78 9b bc
       -0.010392688 0.0049756444 0.015309169 -0.018978288
000030 ef 6f d1 3c fa 19 0c 3c 70 11 c7 bc c9 21 d7 bc
       0.02556607 0.008551115 -0.024300307 -0.026261227
000040 51 31 ea ba ce e9 93 3c 6a bf 50 ba 79 e6 86 3c
       -0.0017867481 0.018055823 -0.0007963093 0.01646732
000050 3b 0d e2 3c c5 63 c4 bc 2e a5 e2 bc ec 46 92 bc
       0.0275942 -0.023973355 -0.027666654 -0.017856084
000060 6d 0e b1 bc 37 d9 24 ba 72 fe c9 3b 01 8a 9b 3c
       -0.021613324 -0.0006288471 0.0061643654 0.018986704
000070 24 be de bb 5c 71 8b 3c b0 d4 92 3c 2f 64 c5 ba
       -0.006797569 0.017021827 0.017923683 -0.0015059764
000080 15 23 2f 3c 01 b5 c4 3c 8e 0d 90 3c fd de c2 bb
       0.010689517 0.02401209 0.017584588 -0.0059469924
000090 a2 b0 1f 3c 00 9c 0a bc e5 31 8c bc 7b 74 ce bb
       0.009746702 -0.008460045 -0.017113635 -0.0063005066
0000a0 88 d7 bd 3c 0b 60 6a bc a8 8d 27 3c b6 37 56 bc
       0.023174062 -0.014305125 0.010226645 -0.013074806
0000b0 16 8f d1 bb 0b a9 d9 3c a6 3a c7 bc a5 79 98 3c
       -0.006395231 0.026569864 -0.024319958 0.018612692
0000c0 4b d7 52 bc b2 8d ec bc a6 2d 23 3c 21 79 8d bc
       -0.012868713 -0.02887616 0.009959614 -0.017269673
0000d0 72 3b 64 3c 5a ee be bc b6 9d 9f bc 97 c5 63 bc
       0.0139301885 -0.023307014 -0.019484382 -0.01390209
0000e0 3c a2 53 bc 37 da 51 bb 00 68 2b 3c c3 55 cf bc
       -0.012917098 -0.0032020935 0.010461807 -0.025309449
0000f0 52 3c eb bc b5 92 0e bc 75 48 5e 3b a5 97 c1 bc
       -0.028715286 -0.00870197 0.00339177 -0.02363188
000100 77 35 9e 3c 7c a6 38 bc 3e 0e ae 3c 89 11 69 3c
       0.019312603 -0.011270162 0.021247026 0.014225372
000110 d6 d3 02 3c 8a 60 ac 3c 1e f3 eb bc 61 bd ab 3c
       0.007985076 0.021042127 -0.02880245 0.020964326
000120 a6 49 8b bc bd 0e 86 bc ba 73 51 3b eb 2c a9 bc
       -0.017002892 -0.01636445 0.0031959848 -0.020651301
000130 71 ad eb 3c ac 3c 56 3c b9 66 91 3c 25 40 ff 3b
       0.028769227 0.013075989 0.017749177 0.007789629
000140 ca 89 55 3c e3 a0 e4 bc 3e c2 27 3b d5 20 23 3c
       0.01303334 -0.027908748 0.0025597955 0.009956558
000150 ae 9b 1b 3c 4f f0 8f bc 3f 7b b7 bc 6d 16 d2 3c
       0.009497566 -0.017570643 -0.022397636 0.02564546
000160 d5 97 e7 b8 a4 4c bc 3b 59 6c cc 3b 8b 6c be bc
       -0.00011043219 0.005746441 0.006238502 -0.023245117
000170 a8 1c cd b9 9e 7a d9 3c c3 35 aa bc 04 69 e2 bc
       -0.00039121998 0.026547726 -0.020777589 -0.027637966
000180 f2 58 40 3b d2 da ee bc a5 75 e4 3b 81 fc b1 bb
       0.002934989 -0.029157076 0.006972032 -0.005431712
000190 da 0e a9 3a 2d 2b 3e 3c 00 1c ca bb a7 c3 5a bc
       0.0012898103 0.011606974 -0.0061678886 -0.013352311
0001a0 8c ef 48 3c 01 12 c8 3c 16 f6 4f bc 39 85 b9 3c
       0.012264144 0.024422647 -0.012692949 0.022646533
0001b0 2f 21 34 ba cc 3a ad 3b a2 60 f4 3b 2a ae c6 3c
       -0.00068714 0.00528655 0.0074578086 0.02425297
0001c0 30 28 aa bb 97 b2 84 3c 10 55 a1 bc 3f f3 d1 3c
       -0.005192779 0.01619844 -0.019693881 0.025628684
0001d0 ed de 7f bc 0d 22 53 3a 29 ec d9 3c cc eb 39 bc
       -0.0156171145 0.0008054085 0.026601868 -0.011347722
0001e0 aa 16 23 3c 42 07 cc b6 6e 2a 94 bc 8c 19 0f 3c
       0.009954134 -6.0805187e-06 -0.018086638 0.008734118
0001f0 3a f6 34 bc 01 69 df 3c c0 77 69 3c da 7b b6 bb
       -0.011045033 0.02727175 0.014249742 -0.0055689635
000200 e6 65 45 bc 2c 38 d0 3b 4b 98 f8 bb f3 0f c2 bc
       -0.01204822 0.0063543525 -0.007586514 -0.023689246
000210 22 fd 49 3c cf d1 65 3c f1 3a a3 bb ec ae 24 3a
       0.012328418 0.014027073 -0.0049813916 0.0006282169
000220 20 9b dc bc 86 24 5e ba c9 07 c2 bc 6e 1e b2 3b
       -0.026929438 -0.00084740703 -0.023685353 0.0054357564
000230 cb fa b5 3c 04 33 c6 bc ee 85 e3 bc 36 a6 1b 3a
       0.022214314 -0.024194248 -0.027773824 0.0005937548
000240 30 41 a7 bc 9d eb da 3c 60 da c2 3c 86 49 c1 3c
       -0.020416826 0.026723677 0.02378577 0.023594629
000250 ca 0e b8 bc 19 8d e9 3c e5 90 b4 3b 69 f8 cb 3c
       -0.02246799 0.028509663 0.005510437 0.024898725
000260 83 69 b6 3c e5 0b ac bc 92 8f 81 3b 8a ab b0 bc
       0.022267109 -0.021001766 0.0039538825 -0.021566171
000270 ff dd b6 3c 16 58 cb 3c ec c6 c4 3c 97 f1 ef bc
       0.022322653 0.024822276 0.024020635 -0.029290004
000280 d1 e7 a8 3c ae 37 2d 3b 68 f6 d6 3c 4d e3 9f 3c
       0.020618351 0.0026430893 0.026240543 0.019517565
000290 e8 1d d5 3b 0f de a8 3c c7 97 b0 3c 44 4e 49 3c
       0.0065038092 0.020613698 0.021556748 0.012286726
0002a0 c0 64 81 bc 7d c7 af bb a7 55 3b 3c 57 c0 91 ba
       -0.015795112 -0.005364357 0.011433995 -0.0011119944
0002b0 25 b0 88 3c 74 e3 3c ba d9 5d b4 bb f3 48 bd bc
       0.016685555 -0.0007205524 -0.0055043516 -0.023106074
0002c0 2c 5e d3 3c e3 42 ba 3c 69 8f 63 3c 8c 15 08 3b
       0.02580174 0.022736972 0.013889172 0.0020764796
0002d0 54 da d7 3c 4c 54 b4 bc f0 48 84 3c 88 6f 95 bc
       0.026349224 -0.022012852 0.01614806 -0.018241659
0002e0 c2 f7 17 bc e0 74 bd b9 3f c9 cb bc 16 c0 d6 b9
       -0.009275379 -0.00036135968 -0.024876235 -0.00040960376
0002f0 e6 9a 3e 3c 91 05 50 bb 45 12 cc 3c 9f 18 5e 3c
       0.01163361 -0.00317416 0.024911055 0.013555675
000300 9b 39 6b 3c 8a b3 e4 bb 6b b0 5e ba 55 92 ab bc
       0.014356996 -0.0069794105 -0.0008494916 -0.0209438
000310 7b 2b 3c bb e9 84 cd bc 94 b7 a3 3c 36 36 f0 3b
       -0.002871244 -0.02508779 0.019984998 0.007330681
000320 8d 62 c8 bc 63 3d 02 3c 40 b0 26 bc 73 2d 0f 3c
       -0.024461055 0.007949206 -0.010173857 0.008738863
000330 be 0c 67 3c 28 d0 e1 3b 27 db 99 bc 3b ea eb bc
       0.014102159 0.0068912692 -0.018781258 -0.028798213
000340 93 bf f3 bc a0 0b 71 bb 0a fb bf bb 19 4a 28 3c
       -0.029754436 -0.003678061 -0.0058587836 0.0102715725
000350 98 9a ea bc 2b b6 ba bc f8 8c a1 3c 09 c9 06 3c
       -0.02863817 -0.022791943 0.01972054 0.008226641
000360 1b 5b 2e b9 b1 4d a9 bb 1c f6 ac bc e6 5a af bc
       -0.00016627873 -0.0051667322 -0.021113448 -0.021405648
000370 b7 14 b4 3c 71 1a c0 bc e0 a0 02 bc ab 4c d5 bc
       0.021982534 -0.023450108 -0.007972926 -0.026037535
000380 97 bc cb 3b 47 30 63 3c 41 95 13 bb b1 7a 0d 3c
       0.00621755 0.013866491 -0.0022519382 0.008635209
000390 0f 15 93 3c 80 4d c8 bc 29 7b a3 bb 79 b2 6f bb
       0.017954377 -0.024451017 -0.004989047 -0.0036574884
0003a0 26 ea 11 bc 32 7a 8a 3b fa 8b d1 3b 2e 14 1e 3c
       -0.008905923 0.0042259926 0.0063948603 0.009648366
0003b0 76 7e 95 bc 96 0f f6 bb 3b ec 7d 3c aa 79 59 bc
       -0.018248778 -0.007509182 0.015498216 -0.013273636
0003c0 6c 93 c7 3c e3 02 e8 bc 47 f5 7a 3b 4c 44 5a bc
       0.024362288 -0.028321689 0.003829317 -0.013321947
0003d0 2d 74 9a 3b 28 70 23 bc d0 b6 6b 3c 44 7d 74 3c
       0.0047135563 -0.009975471 0.014386848 0.014922444
0003e0 b3 8f b8 bc c8 78 b1 bc ca f3 3e bc 3c 1c 5a 3c
       -0.022529459 -0.021664038 -0.0116548035 0.013312396
0003f0 94 80 e5 bc 99 cf 1f 3c ef 85 4f bc fa 2c e2 3c
       -0.028015412 0.009754085 -0.01266621 0.027609337

decoder.0.bias f4 [64]
000000 a7 8f e6 bb 53 e7 ce bc 4e 6d aa bc 8a f1 e2 3b
       -0.0070361677 -0.025256788 -0.020804074 0.0069257664
000010 bb 2b a6 3b f0 61 6c bb 00 1d a8 bb e6 53 88 3c
       0.005071131 -0.0036069117 -0.00513041 0.016641568
000020 35 d3 a5 bb ee bc bf bc f8 21 6b bc dd 3f 9a 3c
       -0.005060578 -0.023405518 -0.0143513605 0.01882928
000030 f1 3d f6 bc 69 48 43 bc 01 b2 a7 3c 75 32 99 bc
       -0.030058833 -0.011919119 0.020470621 -0.018700818
000040 6e 0c 9d bc 7d f9 e6 bc b1 96 f3 bb b9 fc b8 3c
       -0.019170966 -0.028195137 -0.0074337353 0.022581445
000050 45 69 ab 3c 3b b4 c5 3c df 8d 59 bb d6 c0 7e bb
       0.02092422 0.024133792 -0.0033196134 -0.0038872263
000060 b2 9d 6c ba f6 cf c0 3c d6 24 d1 3c 4e 35 0f bb
       -0.0009026184 0.023536664 0.02553026 -0.002185184
000070 cd 31 bf bc 7a f7 88 3c e8 1b de bc 86 56 f2 3b
       -0.023339177 0.016719569 -0.027112916 0.0073955683
000080 50 80 dc 3c 08 28 07 bc d2 ce cc 3c 32 42 e8 3c
       0.026916653 -0.00824929 0.025000963 0.028351877
000090 ea 0f 43 3c 62 76 b2 bb 64 14 e9 3b 6c de 95 3c
       0.01190565 -0.0054462412 0.0071130265 0.018294536
0000a0 c1 98 a5 bc dd 1f 9c bc a8 e0 ab bc 95 32 99 3b
       -0.02021444 -0.019058162 -0.020981148 0.0046752193
0000b0 63 54 c1 ba 20 1a 46 b9 43 da d6 3b e8 d8 2e 3c
       -0.0014749881 -0.00018892484 0.0065567805 0.010671832
0000c0 71 61 8c 3c 49 7e ac bc cf a5 c2 bc 58 88 a8 3c
       0.017136307 -0.021056311 -0.023760704 0.020572826
0000d0 f8 e1 ba bc 5a ac e5 3b 5b d0 b2 bc d6 7a 45 bc
       -0.022812828 0.0070090713 -0.021827867 -0.012053212
0000e0 de 5f f8 3b 53 4a e6 bc b9 3d 45 3b d9 fd bf 3b
       0.0075797876 -0.028111612 0.0030096604 0.0058591184
0000f0 53 73 da bc ab 3b bc 3b 18 b3 ca bc 53 b0 17 3c
       -0.026666319 0.0057444177 -0.024743602 0.009258348

decoder.3.weight f4 [32, 64, 3, 3]
000000 0e 78 4a bc e0 32 f5 3c 98 7e cc bc 17 b1 ef 3c
       -0.012357725 0.029931486 -0.024962708 0.029259248
000010 65 bd 42 bc 9a 01 58 3b 83 e6 8f 3c 26 38 09 3d
       -0.0118859755 0.003295994 0.017565971 0.033500813
000020 d6 e4 da 3c bc ae 13 bd f9 55 ef bc 13 1d cc bc
       0.026720446 -0.03605531 -0.0292158 -0.024916207
000030 4c 49 9f bc 32 98 20 3d 80 a2 e7 3c f5 35 71 3b
       -0.01944413 0.039207645 0.028275728 0.0036805843
000040 f9 6a 0d bd 5f 41 90 3c 28 31 5e bb b2 62 e8 bc
       -0.034525845 0.017609296 -0.003390381 -0.028367374
000050 5b e2 be 3c 16 d6 a1 3c 86 4b 9f bc d7 c0 a6 3c
       0.023301294 0.019755404 -0.019445192 0.020355625
000060 9e 6a 84 3c ca a6 07 3d 03 00 0e bd 2a 71 5a bc
       0.01616412 0.033118047 -0.03466798 -0.0133326445
000070 da 7a 21 3d 54 7b 08 3d e2 98 c0 bb 58 d8 3a 3c
       0.0394238 0.03332074 -0.0058776 0.011404119
000080 ca 49 bc bc 31 4b eb 3b 20 31 02 3c 84 ac 18 bc
       -0.022984404 0.0071805944 0.007946283 -0.009318475
000090 eb 58 ad 3c 0a 02 ce ba 5d bb f5 bc 0a 84 ff 3c
       0.021160563 -0.001571716 -0.029996568 0.03119089
0000a0 3e 13 dd bb 99 b6 79 3c 62 9e 20 bd aa cc 00 bb
       -0.0067466786 0.015241289 -0.039213546 -0.001965324
0000b0 06 e6 e7 3c 0d f2 03 3d 52 ab 22 3c b7 07 15 bd
       0.028307926 0.03221326 0.009928541 -0.03638431
0000c0 53 a6 67 3c 32 28 1d bd a4 88 a8 bc d5 a5 15 bc
       0.014138776 -0.03836841 -0.020572968 -0.009133776
0000d0 61 c9 15 3d 39 ff 0f bd 4b e4 8a 3c 89 0b bb bc
       0.036569003 -0.03515551 0.016954562 -0.022832649
0000e0 5f cb 00 3d 45 e9 f4 bc 3c 7b 0d 3d 9a 47 17 ba
       0.03144395 -0.029896388 0.034541354 -0.00057708623
0000f0 ce cc 95 3c 3c 0b d6 bb f8 b5 00 3d b4 c6 f7 3b
       0.018286135 -0.006532101 0.03142354 0.007561529
000100 1f a9 c6 3c 67 12 c4 bc 07 c9 24 bc 83 12 b5 3c
       0.024250565 -0.023934556 -0.010057694 0.022103554
000110 dc c2 1c bd 14 7a a1 3c 5d 04 36 3b fa f6 ba 3c
       -0.03827177 0.019711532 0.0027773597 0.022822846
000120 d6 86 b4 3b c5 36 0f bc 9b 65 21 bd 72 5a 15 bd
       0.0055092378 -0.008741085 -0.03940354 -0.03646321
000130 8d 10 b9 bc 68 fa bf bc 5c 59 20 bd e2 8c b2 bc
       -0.0225909 -0.023434833 -0.03914772 -0.021795694
000140 96 82 c5 3c 11 ab f8 3c 31 2e 26 3d e1 86 be bc
       0.02411012 0.030355008 0.040571395 -0.023257675
000150 f8 3a 00 bc 13 fe 09 3d 85 02 07 3d 2c ce db 3c
       -0.007826559 0.03368957 0.032961387 0.026831709
000160 04 d8 18 3b 57 e3 ac 3a 4e f2 22 3d e7 83 0e bd
       0.0023322115 0.0013190311 0.03978186 -0.03479376
000170 e5 81 68 bc bf 56 06 3d e2 f5 24 bd 2f ba 27 bd
       -0.0141911255 0.03279757 -0.040273555 -0.040949043
000180 12 f5 2a 3d 93 bd 61 bc d6 6b ce bc 95 55 3f 3b
       0.041737624 -0.013778108 -0.025197905 0.0029195298
000190 02 7b 28 3d ae 75 f9 3c 27 25 c8 3c e0 dc 0a bd
       0.041132934 0.030451622 0.024431778 -0.03390205
0001a0 c4 ea a8 bc 3f 73 90 bc 03 6a 04 3d b7 eb 59 3c
       -0.020619757 -0.017633079 0.032327663 0.013300828
0001b0 12 11 04 3d b3 bb 99 bc ac 94 d8 bc 95 67 13 bd
       0.032242842 -0.01876626 -0.02643808 -0.035987455
0001c0 05 e7 ba 3c 8b 26 ca 3c 1b 5b b7 b9 d2 be f1 bb
       0.022815237 0.024676582 -0.0003497236 -0.007377484
0001d0 7a 1e e7 3c 3f 13 e2 bc 12 14 fa bc fe e2 b3 3b
       0.028212775 -0.027597068 -0.030527148 0.005489706
0001e0 6f 42 b3 3c e8 7b 8c 3c ee 21 37 bc a4 14 ad 3b
       0.021882264 0.017148927 -0.011177523 0.0052820016
0001f0 de 28 0a bc 3e 7d eb bc 62 bb 89 bc f3 41 1f bd
       -0.008432595 -0.028746244 -0.016812984 -0.038881253
000200 d2 69 13 bc 00 f3 ca bc 89 f3 06 bd 8a 48 d9 3c
       -0.0089973975 -0.024774075 -0.032947097 0.026523847
000210 a0 04 38 bc 24 87 c3 3c a6 31 d5 3c bd 91 99 3b
       -0.011231571 0.023868151 0.02602465 0.004686563
000220 c7 c9 85 3c 57 de 03 3d 04 49 06 3d 58 c9 19 bb
       0.016331566 0.03219446 0.032784477 -0.0023465957
000230 35 e3 0a ba 3c 2d c5 bc 01 aa d3 bc 5e d0 c9 bc
       -0.0005298139 -0.024069421 -0.0258379 -0.02463549
000240 ba 38 b8 3c e4 50 26 bc 8f 5d fb bc 7b 09 18 3d
       0.022487987 -0.010151122 -0.03068426 0.037118416
000250 6d 7f bd bc a6 c3 06 3c d8 94 23 3d b9 b1 7f 3c
       -0.02313205 0.008225357 0.03993687 0.015606337
000260 79 e6 d4 3c 60 c5 d2 3c b3 9c 75 bc 1e b0 1f bd
       0.025988804 0.025728881 -0.014990973 -0.038986318
000270 00 e6 78 bb e8 91 1f bc 1d 41 9e bc 07 bb c3 3c
       -0.0037978888 -0.009739377 -0.019318158 0.023892893
000280 c7 49 d4 3c c5 98 16 bd 38 57 13 3d eb 65 2a 3d
       0.025914086 -0.036766786 0.03597185 0.041601103
000290 95 c8 98 bc b4 ef b0 bb 76 a5 fb 3b 23 8b 8a 3c
       -0.018650332 -0.0053996686 0.0076796366 0.016912049
0002a0 61 f0 01 bd 35 10 02 3d ad 16 53 3c b1 ad b0 bc
       -0.031723384 0.031753737 0.012883824 -0.021567198
0002b0 bc 8b 51 3c 13 2e ff 3c 68 5b 17 bc f6 9a b4 3c
       0.012789663 0.0311499 -0.009238102 0.022046547
0002c0 4c e6 bd 3c 6b 61 5b 3c e1 42 e8 bc 7e f0 c4 bc
       0.023181103 0.0133899255 -0.028352203 -0.024040457
0002d0 48 85 eb bb 65 2f a5 3b 66 1c 2f 3c ec c3 14 bc
       -0.007187519 0.0050410503 0.010687923 -0.009079915
0002e0 d9 0c f6 3c 1a 94 f3 bc ad 6d 15 bc 35 6c 06 bd
       0.030035423 -0.029733706 -0.009120387 -0.032818038
0002f0 60 7c 10 3c 90 3e 08 bd 52 d7 b2 3c bc 45 6c bb
       0.008818716 -0.03326279 0.021831188 -0.0036052307
000300 d4 3f 19 bd 05 77 c8 bc b2 6a ca bc 3a 33 29 bb
       -0.037414387 -0.024470815 -0.02470908 -0.0025817887
000310 91 2a 06 3d 92 28 62 bb af b1 ea bc 26 9b 8f 3c
       0.03275544 -0.0034509045 -0.02864918 0.017530035
000320 9c 5e 01 bc e7 22 fe 3b 94 ee 91 3c c7 aa de 3c
       -0.007896092 0.0077556255 0.017813958 0.027181042
000330 52 13 26 3c a2 1c 22 3d 3a e5 0e 3d 5a 44 c8 3c
       0.010136442 0.039578088 0.034886576 0.024446655
000340 63 63 d0 bc 60 0b 94 bb 5b 4f a7 3c 08 91 e7 3b
       -0.025438016 -0.0045179576 0.020423582 0.0070668496
000350 4f 20 19 3b 6f 8c 93 bc e8 1d af ba 62 91 b7 3b
       0.0023365205 -0.0180113 -0.0013360353 0.005602048
000360 b8 a2 0a 3d 25 9b d4 bc 4b 24 97 bc c9 9f f4 bc
       0.033846587 -0.025952885 -0.018449923 -0.029861348
000370 dd bc b9 3c 68 7b 0f 3d 04 51 d3 bb 85 19 00 3d
       0.022673065 0.0350298 -0.006448867 0.031274337
000380 57 45 2a 3d 3d 20 fb 3c 82 ae c5 bb 1b 5f b3 bc
       0.041570034 0.03065502 -0.006032766 -0.021895936
000390 e3 54 c2 3c fb d7 e8 3c b1 78 d5 3c 08 4b e4 3b
       0.023722118 0.0284233 0.026058527 0.0069669522
0003a0 46 65 34 bc de 44 a1 bb 32 30 86 bc 93 8d 17 3c
       -0.011010474 -0.0049215397 -0.016380403 0.0092500625
0003b0 69 68 d4 3b 03 23 e7 bb ef e6 1f 3c 48 9b ae bc
       0.006482173 -0.0070537343 0.009759649 -0.021314278
0003c0 67 90 1a 3d 1a b2 04 3d 37 d1 8f bc 4a 6f 06 3c
       0.03773537 0.032396413 -0.017555816 0.008205244
0003d0 e7 39 e6 bc de 7b 92 bc d3 41 ca 3a 51 51 01 3b
       -0.028103782 -0.01788133 0.0015430994 0.0019732306
0003e0 af 9e 00 bb 98 89 be 3c e1 60 23 3a fb 50 95 bc
       -0.0019625833 0.02325897 0.00062323926 -0.018227091
0003f0 76 7d c4 bc 62 b7 0e bd 08 5c 0a 3d c8 da 23 bb
       -0.023985606 -0.034842856 0.033779174 -0.002500223

decoder.3.bias f4 [32]
000000 38 53 86 bc fa 44 21 bd f4 bb 9a 3c d4 b4 88 3b
       -0.016397104 -0.03937242 0.018888451 0.004171947
000010 1b f5 8b bc b8 12 af 3c d8 21 18 3d 69 f9 22 bd
       -0.017084649 0.02137123 0.03714165 -0.039788637
000020 23 2d 16 3d 3b b7 d1 3c 80 77 27 3d 55 cb 97 bc
       0.03666414 0.025600066 0.04088545 -0.018529573
000030 14 04 ef 3b 9a a4 5c bc f2 2f 83 bb 04 24 01 bd
       0.0072941873 -0.013466978 -0.0040035183 -0.031528488
000040 e7 00 04 3c 3b 5a ee 3c 1a c3 f5 bc da 56 b4 bc
       0.008056856 0.02909576 -0.030000258 -0.02201407
000050 60 64 19 bd 90 49 8a bc e2 9b a0 bc 47 82 a2 3c
       -0.03744924 -0.01688078 -0.01960558 0.019837512
000060 92 82 9d 3c fd 84 85 bb ca c6 2c bc 09 ea bf 3c
       0.0192273 -0.0040746913 -0.010545442 0.023427026
000070 68 9b 19 3c fa 16 ba 3a 5e 76 94 3c ca 56 cd ba
       0.009375431 0.0014197521 0.018122848 -0.0015666124

decoder.6.weight f4 [1, 32, 1, 1]
000000 04 72 c7 bd d6 a8 ab bd b1 e5 26 be 0c e7 f3 bd
       -0.09738544 -0.08381812 -0.16298558 -0.11909303
000010 85 d5 93 3d bd 9c dd 3d ae ba db 3d c8 5e 2a be
       0.0721846 0.10820911 0.10728966 -0.16637719
000020 d1 cf 46 bd 2d d5 76 bd ad 98 ae bd 60 fb 9a 3d
       -0.048538033 -0.060261894 -0.08525214 0.07567477
000030 bc 65 aa 3d 04 e6 fb 3d 0c 13 d1 3d 63 a0 f5 3c
       0.083201855 0.122997314 0.10208711 0.029983705
000040 54 6e 17 be fd da 1f 3e 6b f6 23 3e ca b9 ad 3c
       -0.1478818 0.15610881 0.1601197 0.021206755
000050 a3 ad 09 3e cc dd f1 3c 24 35 b4 3d 1e 17 35 be
       0.13445143 0.029524706 0.08799198 -0.176846
000060 cd 50 9b bd eb f0 e8 3d dd 8e 24 be 23 52 ea 3c
       -0.07583771 0.113740765 -0.16070123 0.028603619
000070 09 91 97 bd 2e 22 e7 bd 97 65 6e 3d f6 bc 1b be
       -0.0740071 -0.11285816 0.058202352 -0.15208802
