checkpoints/2025-05-31-10-52-52/last_epoch.pth (torch, 686901 bytes, 25 tensors)

encoder.0.weight f4 [64, 3, 3, 3]
000000 6d ea 9e 3b 5c b9 11 3e 72 1e b4 bd 51 ab 12 3d
       0.004849723 0.14230865 -0.087948695 0.03580791
000010 41 b7 05 be 80 9c 8a bd 6e ba 1b 3e f3 c4 1d bd
       -0.13058187 -0.06768131 0.15207836 -0.038517904
000020 f1 81 21 bd 79 56 3b bc 8c 4f f9 3d bd bd a6 bd
       -0.039430562 -0.011434191 0.121733755 -0.081416585
000030 f0 cb 37 3e 89 8d 32 3e f1 e1 9a bc de 10 1b 3e
       0.1794889 0.17436804 -0.018906565 0.15143153
000040 8f f8 ef bd 67 87 25 be dd 07 f8 bc 1b 2e 13 be
       -0.11717331 -0.16164933 -0.030277187 -0.14373057
000050 dd 9e 3a 3e 99 a2 37 3d f9 12 0e 3e 4a 51 e7 bd
       0.18224664 0.0448328 0.13874425 -0.112948015
000060 51 33 2b 3e ff 11 f3 3d ab a3 86 bd de fe b8 bd
       0.16718794 0.11868667 -0.06574186 -0.09032987
000070 b1 1d 3b 3e b5 85 84 3d 0a 26 0d be 8a be 38 be
       0.18273045 0.06470815 -0.13784042 -0.18041435
000080 de 50 08 3e 0a ec 93 bc c5 b0 41 be 77 3c 91 3c
       0.13312098 -0.018056888 -0.18915088 0.017729027
000090 6f 27 39 be 7d 98 11 bd e5 47 33 3e 8d 7f a8 3d
       -0.18081449 -0.035545815 0.17507894 0.082274534
0000a0 94 70 0e 3d aa 32 20 3e e5 d9 41 3e 71 96 12 bc
       0.03477533 0.15644327 0.18930776 -0.008947001
0000b0 cc a0 17 be d6 39 ab bd 57 8a e6 3d 18 2e 7c bd
       -0.14807433 -0.08360641 0.11256855 -0.061567396
0000c0 20 64 0d be 6d 62 b2 3d ca 3a 18 3e a7 d2 d7 3d
       -0.13807726 0.087101795 0.14866176 0.105382256
0000d0 96 f0 02 3e f2 75 1c 3c c5 82 d6 bd c0 fd 7b 3d
       0.12787089 0.009549605 -0.10474161 0.06152129
0000e0 34 81 fd 3d 32 61 e1 3d 30 39 4c 3d 93 7b e4 bd
       0.12378159 0.11004867 0.049859226 -0.111563824
0000f0 f9 a9 d4 bd 38 78 43 be e7 29 16 bd 4f 12 f5 bd
       -0.10383982 -0.19088829 -0.036661055 -0.11966383
000100 8c 22 eb 3d dd ba fb 3c 00 0f 24 3d 38 5d 08 3e
       0.11481199 0.030728752 0.040053368 0.1331681
000110 5e cd 3d be 6a fa 40 3c 19 64 fe 3d 25 4b 38 3e
       -0.18535373 0.011778453 0.12421436 0.17997415
000120 2a 3c 0a be c6 1a a8 3d f3 7c 40 be f6 cf 10 3e
       -0.13499513 0.08208232 -0.18797664 0.14141831
000130 4f 04 d4 bc 40 87 c2 bd ab 7f 1b be 16 34 45 3e
       -0.02588096 -0.09498453 -0.1518542 0.1925815
000140 05 50 3e bd 74 fb 6d bd 36 fc 37 3e dd aa 08 3e
       -0.04646303 -0.058101133 0.17967305 0.13346429
000150 d3 44 0e bd 38 b0 02 be c0 ac 3e 3e af 39 2d be
       -0.034733605 -0.12762535 0.18620586 -0.16916536
000160 14 f7 e9 3d b3 8c da bd b0 14 f3 bd 70 de 89 bd
       0.114240795 -0.106713675 -0.1186918 -0.0673188
000170 7b 25 80 bd 9c 7d 86 3d 4b eb 05 3e 5d e0 98 bd
       -0.06257149 0.06566927 0.13078038 -0.07464669
000180 3d 34 11 3e 01 c0 90 3d 4b 86 b3 bd 2f 2c ac bb
       0.14180084 0.07067872 -0.08765849 -0.0052542905
000190 70 47 33 bd 42 2e fb 3d 6e dd 19 be 5e b0 0d 3e
       -0.0437693 0.12264682 -0.15025875 0.1383681
0001a0 88 4f eb 3d ef 9d 05 3e a9 7b 9a 3d 73 9f e7 3d
       0.11489779 0.13048528 0.075431176 0.113097094
0001b0 b6 49 bc bc 13 d7 1e 3e a1 51 e6 3b dd 80 9d bd
       -0.022984367 0.15511732 0.007028774 -0.07690594
0001c0 e6 fc d6 bd 97 8e 81 bd f9 73 2d be 33 f6 20 be
       -0.10497455 -0.06326025 -0.16938771 -0.15718918
0001d0 60 d9 f4 3d 86 20 0f be 10 64 2a 3e 14 7d d8 3d
       0.119555235 -0.1397725 0.16639733 0.10570732
0001e0 bc 06 08 be 64 7b da bd 28 35 c2 3d 66 60 55 bd
       -0.13283819 -0.10668066 0.09482795 -0.052093886
0001f0 4a 84 7a 3c 9f 0c 48 bd ee 07 cd bd d7 92 ef 3d
       0.015290329 -0.04884016 -0.10011278 0.11697929
000200 07 1e 2c 3e 8f e7 a8 bd d9 4a c2 3d 31 b9 5d 3c
       0.1680833 -0.08247291 0.09486932 0.013532923
000210 a0 2e 2f be 5a 86 45 3e b4 70 cc bd dd 8a f0 bc
       -0.1710763 0.19289532 -0.09982434 -0.02936309
000220 9b a4 bb bd 55 0a c0 bd 33 c5 2b be cf 16 05 be
       -0.091622554 -0.09376971 -0.16774444 -0.12996982
000230 d3 93 c8 bd 58 ea 85 3c 6b e5 d5 3d 74 61 33 be
       -0.0979382 0.016347095 0.10444149 -0.17517644
000240 8f 70 2c be 6c b2 19 bd ad ec 7b 3c 54 f6 ce bb
       -0.16839813 -0.037523672 0.015376252 -0.0063159857
000250 40 a1 3a be 99 20 cd 3d f5 2e 16 3e 3e 6b f0 bc
       -0.18225574 0.10015983 0.1466635 -0.029348012
000260 5c 59 78 bd 14 79 a1 3c 49 9d 9a bd 1e 79 63 3d
       -0.060632095 0.019711055 -0.07549531 0.05553543
000270 a4 7d 6a bc 7c 8d 8b 3d 9e 43 0a be 4d 3f 12 be
       -0.014312182 0.068140954 -0.13502356 -0.1428196
000280 99 8a 25 3e e1 7e db 3d 03 2f f3 3d ba 5d 41 3e
       0.16166152 0.107175596 0.11874201 0.1888341
000290 9b c9 e5 3d 4f 25 a0 bd eb d0 ab bd 77 46 08 3e
       0.11220094 -0.07819616 -0.08389457 0.1330813
0002a0 d0 51 11 3d 47 6e 2b 3e b0 b8 ea bd 93 1f ba bc
       0.035478413 0.16741286 -0.114610076 -0.022720134
0002b0 f2 e4 46 bd 94 82 f8 3d 50 df 88 bd e4 2c a2 bd
       -0.048558183 0.12134281 -0.066832185 -0.079187185
0002c0 ad 51 fd bd 9b ec 9d bd 60 19 99 3d 56 3e e1 bd
       -0.12369094 -0.077111445 0.07475543 -0.10998218
0002d0 8c b6 b9 3d 3f 49 2a 3e e9 7c 25 3e 26 c9 14 3e
       0.09068021 0.16629504 0.1616093 0.14529857
0002e0 0b 1f e5 bc 1b d4 c9 bd 02 c7 21 3e c5 50 24 3e
       -0.027968904 -0.09854909 0.15798572 0.16046436
0002f0 a5 bc 29 bd c7 5f e2 3c 3b 14 2a 3e 1d a6 0a be
       -0.04143967 0.02763356 0.1660928 -0.1353993
000300 08 48 b0 3d fa 54 45 3d 3a bf 24 3c 32 07 9a 3d
       0.08607489 0.048176743 0.010055358 0.07520904
000310 1f 9b d8 bd c8 6c d8 3d 6d 52 c4 3c db 15 5d 3c
       -0.10576462 0.105676234 0.023965085 0.01349398
000320 38 9a 4b bd 13 b0 b3 3d 73 47 5a bd c2 6b 1c be
       -0.04970762 0.08773818 -0.053290796 -0.15275481
000330 89 49 0f bd 33 7a e2 3d be fa 3f bd 54 c9 b0 bd
       -0.034982238 0.11058464 -0.046869986 -0.0863215
000340 d4 31 06 be 01 e6 23 be 89 c0 36 3e f8 1a 43 3e
       -0.13104945 -0.16005708 0.17846884 0.19053257
000350 a2 aa c0 bd 9c 05 37 3e 1a a6 18 3e 0d ef 8e bd
       -0.094075456 0.17873234 0.14907113 -0.06979189
000360 cd 3b 0c 3a 3c a5 9a bb 72 e1 3b be 27 9a cc 3c
       0.0005349487 -0.0047194045 -0.1834772 0.02497585
000370 4a 20 06 be 2d 32 30 be 7e 7e c0 3d 6d f7 1b 3e
       -0.13098255 -0.1720664 0.093991265 0.15231104
000380 27 17 27 be 41 71 99 3c 87 3e 94 3c e7 69 de 3d
       -0.16317426 0.018730761 0.018096222 0.10860043
000390 cd 89 80 3d 0d c6 0b 3e cb 09 3a 3e c2 12 3c be
       0.062762834 0.13649769 0.18167798 -0.1836653
0003a0 db 6c ff 3d 0e 14 ea 3d 91 92 0a be 41 d0 a3 bd
       0.124719344 0.114296064 -0.13532473 -0.07998706
0003b0 b7 8a 95 3d d6 17 38 3d 77 eb 28 be 0c 05 fb bd
       0.073018484 0.044944607 -0.16496073 -0.12256822
0003c0 88 b5 a5 bc 61 a3 d7 3d 78 34 0f 3e ab b3 3b be
       -0.020228162 0.10529209 0.13984859 -0.18330257
0003d0 ed 73 52 3d 54 0c 28 be 2c 48 ef bd 7b 39 08 3e
       0.051380087 -0.16410953 -0.116836876 0.13303177
0003e0 61 ef f7 bd c5 d2 27 3e 10 63 2b 3d 39 5f f6 bd
       -0.12106205 0.16388996 0.04184252 -0.12029881
0003f0 d0 9d 22 be 65 db 39 3b 36 98 2f be 61 39 41 3e
       -0.15880513 0.002835953 -0.17147908 0.18869545

encoder.0.bias f4 [64]
000000 5f f7 25 3b 9d 44 35 be 68 2f 2e be bb 3c de 3d
       0.0025324447 -0.17701955 -0.17010272 0.10851427
000010 13 5a 0e be 87 d5 97 bc ce a3 36 be 3b bf 02 be
       -0.13901548 -0.018534435 -0.17835924 -0.12768261
000020 d4 de a8 3c 61 fc 38 3d 90 82 ae 3d 92 86 31 be
       0.020614065 0.045162562 0.085209966 -0.17336491
000030 a3 d2 22 3e c4 14 ae bd 80 7f af 3d 93 39 1b 3e
       0.15900664 -0.085000545 0.085692406 0.15158682
000040 33 6c 5f bc 44 94 23 be 04 7b e5 bd aa bb c6 bd
       -0.013636637 -0.15974528 -0.11205104 -0.09703763
000050 ae 8a 42 3e 43 bc 1d bb 50 3f db 3d 6f 35 2f 3c
       0.18998215 -0.0024068512 0.10705435 0.010693892
000060 1c 46 8c 3c 5a 1d a8 3d 47 5e 08 3d 6b 33 17 3e
       0.017123275 0.08208723 0.033293035 0.14765708
000070 a5 3d 20 be ae fe c2 bc c2 43 09 be fc b8 3b 3e
       -0.15648516 -0.023803081 -0.13404754 0.18332285
000080 57 d7 9d bc 54 3d e1 bd 03 09 a8 3d d3 17 a5 bd
       -0.019267721 -0.109980255 0.08204844 -0.08061185
000090 90 6a 30 be f1 78 2c 3e 0b 6c 5b bd 46 2e 29 be
       -0.1722815 0.1684301 -0.053569835 -0.16521558
0000a0 ca bc b9 bd 35 e4 06 be e4 fe ba bd 65 30 24 be
       -0.09069212 -0.13172992 -0.09130648 -0.16034086
0000b0 82 c9 31 3e ea 22 6f bd 7e 36 e7 3b 6e 98 26 3d
       0.17362025 -0.058382906 0.0070560565 0.040672712
0000c0 9e 97 df 3c 0b 88 01 3e 38 b4 19 3d 31 a0 75 3d
       0.027293976 0.12649553 0.037525386 0.059967224
0000d0 66 03 43 3e 5e 82 1f be 71 4a 1c 3e d2 2b e8 bd
       0.19044265 -0.15577075 0.15262772 -0.11336483
0000e0 be cf c3 bd 6e f4 c8 3d f3 87 28 bd fa bb 15 3e
       -0.09561108 0.09812246 -0.041145276 0.14622489
0000f0 ca a3 0f 3e 1d 81 32 3e 69 59 20 3e 0d f7 6a 3d
       0.14027324 0.17432065 0.15659107 0.057364512

encoder.1.weight f4 [64]
000000 99 ea 7f 3f 07 08 80 3f 41 df 7f 3f 7c 09 80 3f
       0.9996734 1.000245 0.99950033 1.0002894
000010 3a c4 7f 3f 80 e8 7f 3f bb 17 80 3f 08 01 80 3f
       0.9990879 0.9996414 1.0007242 1.0000315
000020 83 05 80 3f 76 1e 80 3f 55 00 80 3f a1 f5 7f 3f
       1.0001682 1.0009296 1.0000101 0.99984175
000030 57 0c 80 3f 69 10 80 3f af 09 80 3f 69 1b 80 3f
       1.0003766 1.0005008 1.0002955 1.0008365
000040 7f de 7f 3f 15 fc 7f 3f 3e e0 7f 3f 71 1e 80 3f
       0.9994888 0.9999402 0.9995154 1.000929
000050 5e 06 80 3f 0c 06 80 3f 31 de 7f 3f da cd 7f 3f
       1.0001943 1.0001845 0.9994841 0.9992348
000060 56 f0 7f 3f 74 dc 7f 3f ba f5 7f 3f f7 04 80 3f
       0.999761 0.9994576 0.99984324 1.0001515
000070 d3 0a 80 3f 68 0a 80 3f 2c e0 7f 3f f2 08 80 3f
       1.0003303 1.0003176 0.99951434 1.000273
000080 d9 04 80 3f 7e 14 80 3f 9f e5 7f 3f ba 12 80 3f
       1.0001479 1.0006254 0.9995975 1.0005715
000090 36 20 80 3f 84 1c 80 3f 9c e0 7f 3f bb 19 80 3f
       1.000983 1.0008702 0.999521 1.0007852
0000a0 be e5 7f 3f bb e8 7f 3f 11 c6 7f 3f 4a 1c 80 3f
       0.99959934 0.99964494 0.999116 1.0008633
0000b0 2c e0 7f 3f a3 10 80 3f 54 e6 7f 3f d3 0a 80 3f
       0.99951434 1.0005077 0.9996083 1.0003303
0000c0 ff 0b 80 3f de 06 80 3f 42 16 80 3f 05 cb 7f 3f
       1.0003661 1.0002096 1.0006793 0.9991916
0000d0 7d bd 7f 3f 4d 13 80 3f 2c 0f 80 3f 22 18 80 3f
       0.9989851 1.000589 1.000463 1.0007365
0000e0 64 ca 7f 3f 97 c7 7f 3f f2 fd 7f 3f 0e e0 7f 3f
       0.999182 0.99913925 0.99996865 0.99951255
0000f0 a9 c9 7f 3f 47 c2 7f 3f 45 1d 80 3f 9e 10 80 3f
       0.99917084 0.9990582 1.0008932 1.0005071

encoder.1.bias f4 [64]
000000 38 2a 8a ba e7 82 16 ba 11 17 f3 b9 a5 1e 5c ba
       -0.0010541147 -0.0005741552 -0.00046365758 -0.00083969004
000010 eb e8 71 ba 12 93 b9 b9 5d a0 fc 39 0b 9c 30 ba
       -0.0009228128 -0.00035395526 0.00048184666 -0.00067371194
000020 51 6d 3a b9 a5 05 35 3a 4c d9 87 b9 e5 cc 1c ba
       -0.00017779066 0.0006905443 -0.00025911105 -0.00059814594
000030 d1 37 00 3a b3 11 2d 3a b4 1d 38 ba 35 f3 af 36
       0.000489113 0.00066020637 -0.0007023469 5.2437194e-06
000040 bc a0 89 b9 60 81 a6 b8 51 0c 8b 38 69 7a 7c 3a
       -0.00026250433 -7.939595e-05 6.6303306e-05 0.00096312776
000050 87 65 a7 39 e3 81 0a 3a 5a b2 6e ba d3 ef 63 ba
       0.00031928366 0.0005283637 -0.0009105556 -0.00086950994
000060 42 9f c0 b9 5f 0d 4b ba b2 df 08 ba f2 61 df b9
       -0.0003673975 -0.0007745828 -0.00052213215 -0.0004260685
000070 12 d5 d6 39 5c 83 34 ba 1b 5f 45 ba 91 f9 9c 39
       0.0004097601 -0.0006886029 -0.00075291254 0.0002994058
000080 da 3f 89 38 c1 67 77 b9 da 6e fa 39 82 b2 67 3a
       6.544562e-05 -0.00023594407 0.00047766307 0.00088385504
000090 34 79 60 38 15 e3 47 3a 9a 52 a0 b8 28 3c e4 38
       5.351864e-05 0.00076250854 -7.64478e-05 0.00010883092
0000a0 37 f8 63 ba 85 31 69 ba 9d af 73 ba 1b 9d 11 3a
       -0.00086963497 -0.00088956236 -0.0009295883 0.00055547216
0000b0 55 74 ac b9 07 55 59 ba 8b be ea b9 65 b2 84 ba
       -0.0003289307 -0.0008290563 -0.00044773924 -0.0010123966
0000c0 14 cd 24 ba 21 9c c8 39 6d c6 51 ba e3 15 3b 3a
       -0.00062866625 0.00038263298 -0.0008002285 0.0007136745
0000d0 37 13 22 ba b2 d7 01 ba 70 68 5b 3a b3 6b 70 3a
       -0.0006182673 -0.00049531006 0.00083697494 0.0009171322
0000e0 17 af 57 ba 04 98 03 ba b9 a6 9d b9 67 17 01 ba
       -0.00082276895 -0.00050199055 -0.00030069592 -0.00049244467
0000f0 2b 7a 52 b9 5f 88 5c ba 0a 3c 7a 3a 51 18 48 3a
       -0.00020072672 -0.0008412655 0.00095456897 0.0007633018

encoder.1.running_mean f4 [64]
000000 0b aa d7 bd 1e d9 6c be 77 2e 12 be ea 0b e2 bc
       -0.1053048 -0.23129699 -0.14275537 -0.027593572
000010 8e ce 1b bd 4b 64 7b 3e 62 54 c8 be a8 71 67 be
       -0.038038783 0.24549977 -0.3912688 -0.2260195
000020 0a 05 0b 3d b9 a3 c4 3c d2 5c 09 3e 4d e9 c4 3c
       0.033940352 0.02400385 0.13414314 0.024037028
000030 ab b6 c3 bb 96 05 35 3e c0 2a 8a 3e 68 12 2e 3e
       -0.0059727035 0.17677912 0.2698574 0.16999209
000040 2d 9c 57 3b c7 82 98 be 33 0e 97 3c d9 8a 8f be
       0.0032899485 -0.29787275 0.018439388 -0.2803562
000050 4c f2 ce 3d f0 be 4b be 20 20 1a be 28 35 ac 3d
       0.10104808 -0.19897056 -0.15051317 0.08408576
000060 da 15 97 bd 8d 6c eb 3d cb ea 4e 3c 17 3f ad 3e
       -0.07377215 0.11495314 0.012629221 0.33837196
000070 a6 aa f9 bd bf 7e 27 be 18 01 41 be d8 d0 00 3c
       -0.12190752 -0.16356944 -0.18848073 0.007862292
000080 b1 57 1a 3e e6 67 d6 bd 4c e8 cd 3d 87 cd ca 3d
       0.15072514 -0.10469036 0.10054073 0.099024825
000090 76 51 8e be bd ad bb 3e 16 0f 8e be c8 2c 1d be
       -0.27796525 0.3665599 -0.27745885 -0.15349114
0000a0 12 a7 b3 be 09 c8 5c be 4c 7e 9b bb 0c 72 c0 bd
       -0.35088402 -0.21560682 -0.0047452804 -0.09396753
0000b0 76 3f 30 bd cb 13 06 be 26 f8 64 3d 53 c5 d8 3c
       -0.04302927 -0.13093488 0.055900715 0.026461279
0000c0 d9 21 e9 bd 7e 88 a0 bc 77 33 0f 3d cc 27 6d 3d
       -0.11383409 -0.019596335 0.03496119 0.05789928
0000d0 43 c7 53 3e 29 8f 84 be c4 c7 9f 3e ad a6 f8 3d
       0.20681481 -0.25890473 0.31207097 0.12141166
0000e0 27 86 38 bc 41 46 8d 3e 0a 7f bd 3d a3 bb a6 3e
       -0.011262453 0.27592662 0.092527464 0.3256503
0000f0 65 8c d6 3d 46 7b a6 3e cd 33 89 3e bb 14 80 3c
       0.10475997 0.32515925 0.26797333 0.015634885

encoder.1.running_var f4 [64]
000000 86 92 ab 3e c8 32 50 3e f7 c7 2e 3d 0b 7a ce 3e
       0.33510226 0.20331872 0.04267117 0.40327486
000010 b1 7c 5d 3e c0 e0 42 3f 29 ea 43 3f 54 a9 58 3e
       0.21629597 0.7612419 0.76529175 0.21158344
000020 7a 8e 81 3d 4e 73 87 3e dd bd 33 3d bb 0b 2c 3f
       0.063260034 0.26455158 0.04388224 0.672054
000030 00 f3 d1 3e 1a 39 33 3f e1 48 cc 3e b5 13 cc 3d
       0.41005707 0.70009005 0.39899352 0.09964696
000040 f6 fb b7 3d f9 9a 8d 3e 15 5d 42 3e 48 3f 2c 3f
       0.089836046 0.27657297 0.1898082 0.6728406
000050 43 e6 1e 3f fa 27 03 3f c0 0c 7c 3f df ba 15 3e
       0.620701 0.51232874 0.98456955 0.14622067
000060 c9 58 45 3e f4 e0 f4 3d 20 af 25 3d 92 6e 22 3f
       0.1927215 0.11956969 0.040450215 0.63449967
000070 13 cc 87 3d b2 e8 46 3e 42 7f 0f 3d f9 2e 04 3f
       0.06630721 0.19424704 0.035033472 0.51634175
000080 03 0d ce 3e 8f e2 48 3d 67 2e 38 3d ba c6 e6 3e
       0.40244302 0.049044188 0.044966128 0.4507349
000090 61 ab 42 3e 8a 54 43 3f 48 3c 2b 3f f4 da 2e 3d
       0.19010688 0.7630087 0.66888857 0.04268928
0000a0 3a 44 82 3f 79 4f 2f 3e 97 8d bd 3e a9 37 a6 3e
       1.0177071 0.1712016 0.37022087 0.3246434
0000b0 c9 18 24 3f f1 26 34 3e a9 5f 94 3d 66 e5 9e 3d
       0.6410032 0.1759298 0.07244808 0.07758598
0000c0 e2 a8 8b 3e 2b cc d3 3e 26 e3 6d 3d 50 b4 49 3d
       0.27277285 0.41366705 0.058077954 0.049244225
0000d0 f9 3f cf 3d 2c 07 04 3e e0 a9 1e 3f 0a 74 2b 3f
       0.10119624 0.12893361 0.6197796 0.66973937
0000e0 61 11 03 3e 36 4f 39 3f 40 a6 2d 3f 5e 48 12 3f
       0.12799598 0.7238649 0.678318 0.57141674
0000f0 93 89 90 3d 42 73 e0 3e ca 63 26 3e d3 d4 72 3e
       0.0705749 0.43837935 0.16249004 0.23713998

encoder.4.weight f4 [128, 64, 3, 3]
000000 29 3f 31 3c 1a 4f 28 bd 53 25 b4 3c f6 8e 0d 3c
       0.010818281 -0.041091062 0.021990454 0.008640042
000010 d3 27 3e bc 68 02 06 bc bd 0b 17 3d 4f 0a 78 3c
       -0.0116061745 -0.008179285 0.03687643 0.0151391765
000020 e7 bd ad 3c 5a 0d e6 bb 08 79 ec bb 62 2e 45 bc
       0.021208717 -0.0070206346 -0.0072165765 -0.012034984
000030 60 52 9c 39 b0 64 1e 3d 8d ea 1d 3c b3 9d 98 3c
       0.00029816013 0.03867024 0.009638441 0.018629884
000040 a3 33 97 bc ef 00 c7 3a a2 8f 03 3c c0 c5 ff 3c
       -0.01845724 0.0015182773 0.00802985 0.031222224
000050 f0 0e 14 bb 05 08 14 3c a0 51 aa bc 4e 6e 15 3d
       -0.0022591911 0.009035115 -0.020790875 0.036482148
000060 91 e8 c4 3c 36 70 ed bb 1a dd 9c bc dc e7 aa bc
       0.024036678 -0.0072460426 -0.019148398 -0.020862512
000070 3a cb 9b 3a 8a eb 76 3c 1b 60 0e bd 61 fd b7 3c
       0.0011886128 0.015070805 -0.034759622 0.022459688
000080 1f c4 25 3d 42 ab 25 3d b9 2e 99 3c 08 9f 11 bd
       0.04047024 0.040446527 0.018699037 -0.035552055
000090 24 0a af 3c 2e 7e 25 bc 5e 84 ba bb 1f 93 7e bc
       0.02136714 -0.010100884 -0.005692049 -0.015538006
0000a0 60 88 6d bc 5b c7 f1 3c 95 61 ce 3b 14 8f 1d 3d
       -0.014497846 0.029514005 0.006298254 0.038466528
0000b0 45 93 08 bc ca c4 e8 bc e1 90 2a 3d 27 c0 02 bd
       -0.008335893 -0.028414149 0.041642074 -0.031921532
0000c0 02 b6 05 3c 2d fc 11 bd 95 74 24 bd 7b c0 4f bc
       0.00816107 -0.035640884 -0.040150244 -0.012680168
0000d0 d4 bb e5 bc 47 36 d9 3c be cb d3 3c c6 b7 59 bc
       -0.028043665 0.02651514 0.025853988 -0.013288444
0000e0 44 19 df 3c ca 00 0d bb 35 f9 f3 bb c5 7b 31 bc
       0.027233727 -0.0021515363 -0.0074454793 -0.010832732
0000f0 09 ce 12 3d 43 42 8a 3b 3c 48 68 bc fc ef 10 bd
       0.03584102 0.004219325 -0.014177378 -0.035385117
000100 77 d3 ec bc 14 f6 0f bd 2c 5a 89 bc 03 ec d8 3c
       -0.028909428 -0.035146788 -0.01676663 0.026479727
000110 50 10 d6 3c d3 61 90 bc 4b 7f a3 bc a0 7d 84 3b
       0.026130825 -0.017624771 -0.019958159 0.004043296
000120 07 09 a4 3c 04 da b1 3c 00 70 0f 3c e2 75 10 3d
       0.020023836 0.021710403 0.00875473 0.03526867
000130 f6 4c 3e 3b b5 b3 95 3c c5 f3 1b 3d bf 5f 8a 3c
       0.0029037572 0.018274168 0.038074274 0.016891358
000140 fd 88 13 bc d0 8e 06 3d b3 5c a5 bb 60 da a8 3b
       -0.0090048285 0.03285104 -0.005046451 0.0051529855
000150 a4 15 b9 3b 05 de 18 3c 97 a0 d8 3c f5 de ef 3c
       0.0056483317 0.009330277 0.026443763 0.029281119
000160 01 c9 d2 3c 4e 70 0a 3d 86 b0 be 3c 47 d1 d5 3c
       0.025730612 0.03379851 0.023277532 0.026100768
000170 04 e3 c6 bc 26 3b 6b bc 26 7a 25 bd 95 26 9d bc
       -0.024278171 -0.014357364 -0.040399693 -0.019183436
000180 0d 46 3f bb 15 68 12 3d 7b f5 83 3b 31 39 cd bb
       -0.002918604 0.03574379 0.0040270663 -0.0062629213
000190 31 22 be 3c b1 af ab 3c fa 30 d5 bc e0 c2 03 bd
       0.023209663 0.0209578 -0.02602433 -0.03216827
0001a0 05 c8 50 bc d1 6a c0 bc 16 e5 bb 3a 2f 5d 3d 3c
       -0.012743001 -0.023488434 0.0014335241 0.011557861
0001b0 d8 ef 6e bc 97 44 5e bc e3 74 da 3c 29 c7 ec bc
       -0.01458355 -0.013566158 0.026667064 -0.02890356
0001c0 62 3b 64 bc ea 0b fa 3c 54 9e 09 bd 6e f1 9b 3c
       -0.013930174 0.03052326 -0.03359826 0.019036021
0001d0 be 9b 14 bd 76 b8 89 3c 5c 0c b6 3b 1c 36 4b bc
       -0.03628134 0.01681159 0.0055556726 -0.012403037
0001e0 06 14 12 3d f0 82 18 bc d1 9b b7 3c 0f 77 47 3c
       0.035663627 -0.009308562 0.022413166 0.012174382
0001f0 7c 03 ef bc 19 46 8a bb 74 6f 4b bc 0a f1 20 3d
       -0.029176466 -0.004219782 -0.012416709 0.039292373
000200 b1 cd da bc 6e 58 e3 bc c5 e5 a5 bc 7f 45 0c bd
       -0.02670941 -0.027752127 -0.020251164 -0.034245964
000210 1b ee b9 bc 54 7c 0d bd df 07 76 bc 2d a6 16 3d
       -0.022696545 -0.034542397 -0.015016525 0.03677957
000220 cf 94 ca bc 38 23 18 3d e1 3d 87 3c 61 f4 52 bc
       -0.02472916 0.037142962 0.016508998 -0.012875647
000230 84 f4 f2 3a 0e ef a9 3c 45 08 14 3d c4 1f d4 3c
       0.0018536006 0.020743873 0.0361407 0.025894053
000240 0e 89 8c 3c a1 a3 18 3d f0 f5 99 bc ac 2e 17 bd
       0.017155197 0.037265424 -0.01879403 -0.036909744
000250 d3 52 10 bd 8e 58 c4 bc d5 5e d3 bc 4b f2 e8 bc
       -0.035235237 -0.023968007 -0.025802055 -0.028435847
000260 07 9a 0b bd d6 3d 05 3b 30 f9 03 bb 24 75 13 bb
       -0.03408244 0.0020331047 -0.002013754 -0.0022500241
000270 c8 98 c3 bc dd 1b 66 bb b5 94 47 ba a6 25 9f 3b
       -0.023876563 -0.0035111823 -0.00076134066 0.004856783
000280 b9 e4 be 39 c0 5b 84 bc 51 a1 ca 3b cf 7b a1 bc
       0.00036410036 -0.016157031 0.006183781 -0.019712357
000290 fb 1c 81 bc 59 2a 2c 3d 53 f4 d9 bb aa 28 fc 3c
       -0.01576089 0.042032573 -0.00665144 0.030781109
0002a0 53 30 d4 bc 5b 17 3f 3c 06 68 07 bc 08 7f b1 bb
       -0.025901949 0.011663283 -0.008264547 -0.0054167546
0002b0 19 82 09 bd cd cf 16 3d 20 31 03 bc 82 14 4e bb
       -0.033571336 0.036819268 -0.008007318 -0.003144533
0002c0 ec bb 3f bc 53 28 13 3b 4c 16 84 bc fd f2 0e bd
       -0.011702519 0.0022454455 -0.016123913 -0.0348997
0002d0 c6 d9 08 bd a0 78 23 bd 20 a7 ef 3c ee 5c 88 3c
       -0.03341081 -0.03990996 0.029254496 0.016645875
0002e0 e6 22 03 bd ec ba 34 bc 6f 1c 28 bc 79 e4 0a 3d
       -0.032015704 -0.011030894 -0.010260685 0.033909295
0002f0 bb fd 0b bd 62 2a 59 bb 46 dd 26 3b 03 cf f9 bc
       -0.034177523 -0.0033136834 0.002546148 -0.030494219
000300 7d b7 c9 bc 04 d0 55 3b 0a c6 16 bd 37 81 b2 bc
       -0.024623627 0.0032625208 -0.03680996 -0.02179013
000310 8d c4 a4 bc e1 30 cd bc 45 26 04 bd bd bd 19 bd
       -0.020113254 -0.025047721 -0.03226306 -0.037534464
000320 a5 c5 e3 3c b8 22 05 bc e7 c9 02 3d ca c7 37 3a
       0.027804205 -0.008125953 0.03193083 0.0007010667
000330 76 5d 45 bc f7 35 45 3c 55 9b 19 bd 7e 7e bc 3c
       -0.012046209 0.012036792 -0.03750165 0.023009535
000340 99 e2 13 3d 0a 61 a1 3c 94 33 d1 bc ef 75 c9 bb
       0.036104772 0.019699592 -0.02553729 -0.006148092
000350 c1 0e 8d 3c d6 24 04 bd 92 dc 9e bc 12 8f 3c 3b
       0.01721895 -0.032261692 -0.019392285 0.00287718
000360 00 5d 01 3d 2c c8 de bc 8e 44 ff 3b 9c 0d e5 3b
       0.031582832 -0.027195059 0.007790155 0.0069901478
000370 b8 dc ee 3c e6 db 27 bc 9d d5 cf 3c fa 06 1c bd
       0.029157981 -0.010245299 0.025370413 -0.03809259
000380 86 d3 98 bb e8 3c 99 3c 5c 29 0f 3c a1 8f 1f bd
       -0.0046638874 0.0187058 0.008737888 -0.038955335
000390 24 9b d6 bc dd af af bc 0f a1 50 3c 1c fa 52 bc
       -0.026197024 -0.021446163 0.012733712 -0.0128770135
0003a0 28 c7 f3 3c fb 19 5f 3c 61 2d fe 3c b4 85 32 39
       0.029758051 0.013617034 0.031027498 0.00017025211
0003b0 86 38 06 bd 5b 29 29 3d 29 56 6e bc 74 04 1e bd
       -0.03276875 0.041299205 -0.014546909 -0.038578466
0003c0 a9 b3 44 bc 0e 54 22 3d 4e 64 cf 3b ff 8c f0 bc
       -0.012005725 0.039630942 0.006329096 -0.029364107
0003d0 ac 39 13 3d 9a f7 a1 bb fd 00 fb bc 58 87 b7 3c
       0.035943672 -0.0049428465 -0.03064012 0.022403404
0003e0 c9 4f ca bc 34 dc 21 bc 6d 0a a0 3c 6e a6 03 3d
       -0.024696248 -0.009879161 0.019536221 0.03214114
0003f0 ae 1f 1b bd d3 18 92 3c 6d e5 9d bc 4d 3f b0 3c
       -0.03787201 0.017834103 -0.019274438 0.02151456

encoder.4.bias f4 [128]
000000 04 3f 22 bd ba cb af bc cd e7 90 bc 3c 9c 10 bc
       -0.039610878 -0.02145945 -0.017688656 -0.008826312
000010 3b e8 5a bc 1c 88 28 bd c7 f4 21 3c f0 3f 1c 3d
       -0.013361032 -0.04114543 0.00988502 0.038146913
000020 4d ed aa 3b 7b 50 22 3c 32 bf f6 bc df 6d e7 3c
       0.0052162767 0.009906883 -0.030120466 0.028250633
000030 25 b3 14 3d e6 4c 95 bc 8f 3e 94 bc 17 51 da bc
       0.036303658 -0.018225145 -0.018096237 -0.026649995
000040 54 8f 1d 3b 6d c2 28 3d 8c a6 fa 3c ec e5 28 bd
       0.002404173 0.041201044 0.030596994 -0.041234896
000050 8a e6 22 ba 43 70 5f 3c 33 bb ce 3b 5c 8d 02 3d
       -0.00062141626 0.013637605 0.006308937 0.031873092
000060 7f e3 24 bc 90 9f 62 bb 6d 00 10 bd 39 8b b6 3b
       -0.010064005 -0.003457997 -0.035156656 0.005570796
000070 31 a3 ec 3b dd 88 1c bd d9 68 1c 3d e3 bc d3 3b
       0.0072216024 -0.03821646 0.038185928 0.006461726
000080 3c 6f 02 bd 27 7d 4e 3c 2f 48 2a bc 7f bf 8c bb
       -0.031844363 0.012603081 -0.0103931865 -0.004295289
000090 5c 72 88 bc da bd 4d bc b1 3b 9f 3c e7 6b e2 3c
       -0.016656093 -0.012557471 0.019437643 0.027639342
0000a0 60 7f a7 b9 25 c2 fc 3b f6 f8 de 3c 87 55 1c 3d
       -0.00031947624 0.0077135735 0.027218323 0.038167503
0000b0 9e ce b6 3c 38 26 01 3d 2e 15 04 3d a8 e3 5a 3c
       0.02231532 0.03153059 0.03224676 0.013359942
0000c0 10 e8 02 bd d2 47 e8 bc e3 64 a0 bb bc 89 22 bd
       -0.031959593 -0.02835456 -0.004894839 -0.039682135
0000d0 b8 01 f5 3c 48 58 9a 3b 04 fa 9f 3a 4a 49 c4 bc
       0.029908046 0.004710231 0.0012205248 -0.023960728
0000e0 46 b4 0d bc fd 5d 96 bb 54 37 0a 3c 1f 0f e1 bc
       -0.008648938 -0.004588841 0.008436043 -0.02747303
0000f0 a1 b8 f5 bc 5c 26 1a bd d6 b8 c5 bc 4e ef 2c bc
       -0.029995264 -0.03763424 -0.024135988 -0.010555102
000100 f5 1d 9b 3c e8 8e 1a 3d 46 a6 31 3c d8 43 2a bd
       0.018935183 0.037733942 0.010842865 -0.041568607
000110 da 0c 15 bd 7b ca b0 3c 34 8a 11 bc d7 46 05 bd
       -0.03638921 0.021580925 -0.008883048 -0.03253826
000120 ec e0 ca 3c 6c 9b 90 39 da a5 b1 3c a2 1b 05 3d
       0.024765454 0.0002758162 0.02168553 0.032497056
000130 5b 30 80 bc 3d 32 9c bc 28 af 6f bc aa b8 ac bc
       -0.015648058 -0.019066924 -0.014629163 -0.021084148
000140 fa 4d b4 3b 66 be b0 3c 55 29 0f 3b 3f f9 8a bc
       0.0055024596 0.021575164 0.0021844704 -0.016964553
000150 8e 87 11 bd 8c 19 04 3a 1b 91 b3 bc 77 eb ec 3c
       -0.035529666 0.0005039207 -0.021919778 0.028920872
000160 04 06 23 3d de 27 25 bd 93 87 bd 39 c8 d8 62 3c
       0.03980066 -0.040321223 0.000361499 0.01384563
000170 03 79 65 3c a2 a4 cf bc 5d d2 1e 3d bd 4b e4 3c
       0.014005902 -0.025347058 0.038774837 0.027868146
000180 9c 5e 6a 3b 42 4b 12 bc 97 f7 4b 3c 7f 5c 00 3d
       0.0035761958 -0.008929076 0.012449167 0.03133821
000190 76 ac 02 bd 9d a6 17 bc ed 3c 19 bd c1 0c 0d bd
       -0.031902753 -0.009256032 -0.03741162 -0.03443599
0001a0 f8 f6 d4 3c 0b 4a 0f 3d 4c 83 f6 3c 44 29 ce bb
       0.02599667 0.034982722 0.030091904 -0.0062915403
0001b0 6b 67 b4 3c 99 e0 c7 3c 87 f4 26 bd aa e6 44 3c
       0.02202197 0.024399089 -0.040760543 0.012017885
0001c0 0a 05 a9 bc cf df 83 3c 7f a3 59 bc 56 9e 9e 3b
       -0.020632286 0.016097931 -0.013283609 0.0048406525
0001d0 1d d3 9e 3c 15 c1 d5 3a c5 0f 25 bd 91 fe 9e bc
       0.019387776 0.0016308153 -0.040298242 -0.019408496
0001e0 59 6e f4 bb db b6 33 bc 82 9d c1 3c 7c 5c 21 bd
       -0.0074594435 -0.010968889 0.023634676 -0.03939484
0001f0 f6 14 14 bd be 69 24 3d ba e8 fc bc bc 33 a8 bc
       -0.036152802 0.040139906 -0.030872691 -0.020532481

encoder.5.weight f4 [128]
000000 b3 df 7f 3f 3a 19 80 3f 8a 02 80 3f 04 c8 7f 3f
       0.9995071 1.0007699 1.0000775 0.99914575
000010 ea 13 80 3f f0 0d 80 3f f5 01 80 3f 94 cf 7f 3f
       1.0006077 1.0004253 1.0000597 0.99926114
000020 9a df 7f 3f c6 16 80 3f 67 cb 7f 3f d6 f6 7f 3f
       0.99950564 1.000695 0.9991974 0.99986017
000030 f5 09 80 3f 0a db 7f 3f d3 ca 7f 3f 6c e1 7f 3f
       1.0003039 0.999436 0.9991886 0.9995334
000040 36 ee 7f 3f 79 07 80 3f 43 c5 7f 3f ed 19 80 3f
       0.99972856 1.000228 0.9991037 1.0007912
000050 fe 0c 80 3f 14 20 80 3f 5f ec 7f 3f 16 1e 80 3f
       1.0003965 1.000979 0.9997005 1.0009181
000060 66 05 80 3f 2f dd 7f 3f 32 d0 7f 3f 41 03 80 3f
       1.0001647 0.99946874 0.99927056 1.0000993
000070 8c e0 7f 3f c5 ff 7f 3f 8a 02 80 3f 5f d2 7f 3f
       0.99952006 0.9999965 1.0000775 0.99930376
000080 46 17 80 3f bc 0a 80 3f a3 c9 7f 3f fb d8 7f 3f
       1.0007102 1.0003276 0.9991705 0.9994046
000090 a7 cb 7f 3f 50 f2 7f 3f 36 e1 7f 3f f2 12 80 3f
       0.99920124 0.99979115 0.9995302 1.0005782
0000a0 01 ce 7f 3f e2 c8 7f 3f 5d cf 7f 3f 44 0f 80 3f
       0.9992371 0.999159 0.99925786 1.0004659
0000b0 0b c1 7f 3f 3d 1d 80 3f 7b 03 80 3f 30 d2 7f 3f
       0.99903935 1.0008923 1.0001062 0.99930096
0000c0 2e 1c 80 3f c2 0b 80 3f 56 0d 80 3f 25 f8 7f 3f
       1.00086 1.0003588 1.000407 0.99988014
0000d0 29 00 80 3f 16 0f 80 3f 10 e0 7f 3f a6 cf 7f 3f
       1.0000049 1.0004604 0.9995127 0.9992622
0000e0 19 16 80 3f 67 de 7f 3f 9d e3 7f 3f d1 da 7f 3f
       1.0006744 0.99948734 0.99956685 0.9994326
0000f0 d0 06 80 3f 4a 1b 80 3f 24 c5 7f 3f ce 0f 80 3f
       1.0002079 1.0008328 0.9991019 1.0004823
000100 48 1e 80 3f 40 ce 7f 3f 49 08 80 3f ef 16 80 3f
       1.0009241 0.9992409 1.0002528 1.0006999
000110 a0 19 80 3f 1d e1 7f 3f 52 da 7f 3f d3 df 7f 3f
       1.000782 0.9995287 0.99942505 0.99950904
000120 f8 09 80 3f b8 c2 7f 3f f1 07 80 3f 91 07 80 3f
       1.0003042 0.9990649 1.0002424 1.0002309
000130 e6 1f 80 3f da 0c 80 3f 80 0b 80 3f f8 f8 7f 3f
       1.0009735 1.0003922 1.000351 0.9998927
000140 c0 03 80 3f 0c 01 80 3f 80 e1 7f 3f 31 09 80 3f
       1.0001144 1.000032 0.9995346 1.0002805
000150 05 e6 7f 3f 3d 09 80 3f 22 1b 80 3f c3 07 80 3f
       0.99960357 1.0002819 1.000828 1.0002369
000160 05 06 80 3f a2 0c 80 3f db 03 80 3f 3b c0 7f 3f
       1.0001837 1.0003855 1.0001177 0.99902695
000170 18 d8 7f 3f 57 dd 7f 3f 85 c3 7f 3f 66 fb 7f 3f
       0.9993911 0.9994711 0.99907714 0.9999298
000180 87 06 80 3f d6 04 80 3f df 16 80 3f c8 0a 80 3f
       1.0001992 1.0001476 1.000698 1.000329
000190 3b fa 7f 3f 3f e2 7f 3f d8 d3 7f 3f de 10 80 3f
       0.99991196 0.999546 0.9993262 1.0005147
0001a0 d3 1a 80 3f 8a bd 7f 3f 56 1c 80 3f 41 1d 80 3f
       1.0008186 0.9989859 1.0008647 1.0008928
0001b0 41 1d 80 3f 0c 04 80 3f f8 12 80 3f 2e c5 7f 3f
       1.0008928 1.0001235 1.0005789 0.9991025
0001c0 9f c5 7f 3f ab 14 80 3f b4 0f 80 3f 64 04 80 3f
       0.9991092 1.0006307 1.0004792 1.000134
0001d0 8b f9 7f 3f f1 11 80 3f 69 e9 7f 3f 78 f1 7f 3f
       0.9999015 1.0005475 0.9996553 0.9997783
0001e0 66 0e 80 3f 5c 07 80 3f 31 f8 7f 3f 4f fc 7f 3f
       1.0004394 1.0002246 0.99988085 0.9999437
0001f0 b0 06 80 3f df 04 80 3f 57 1d 80 3f 3d c8 7f 3f
       1.0002041 1.0001487 1.0008954 0.99914914

encoder.5.bias f4 [128]
000000 0d ac 03 ba c6 5e 50 3a 1c 2a 46 3a 07 ea ea b9
       -0.0005022891 0.00079486927 0.00075593754 -0.00044806322
000010 81 59 62 b8 fc bd 83 b9 db e4 53 b9 aa 40 77 ba
       -5.3965956e-05 -0.00025127816 -0.00020207783 -0.0009431938
000020 3f 03 03 ba 97 4b 14 39 32 7e ae 38 b3 8e 61 3a
       -0.0004997737 0.0001414254 8.320472e-05 0.00086043327
000030 ef 6a 43 39 44 42 d2 b9 e2 7a 48 ba 4d fe 42 b8
       0.00018636485 -0.00040103693 -0.00076477055 -4.649004e-05
000040 1d 83 d4 b9 59 d6 bc b9 ed 9f 38 ba 7d 3d 93 39
       -0.00040533478 -0.00036017856 -0.0007042874 0.00028083837
000050 d4 7a 81 39 fa ce 3f 3a 8e 86 2c 3a 12 b8 fa 39
       0.0002469631 0.00073169137 0.00065813295 0.0004782086
000060 07 1e 26 39 1e ea 84 b2 32 ab 4f ba d8 af 0c 3a
       0.0001584218 -1.5473287e-08 -0.00079219334 0.0005366779
000070 4e 2e 33 ba c8 59 56 ba 3a 41 be b9 78 56 c6 b9
       -0.0006835208 -0.00081768306 -0.00036288222 -0.00037829927
000080 d3 c8 6c ba 53 f0 77 39 4e 36 75 ba de 38 70 ba
       -0.00090326107 0.00023645283 -0.00093541003 -0.00091637473
000090 f6 3a 82 ba dd ce ef b8 3a 81 25 ba 47 31 5d 39
       -0.0009935785 -0.000114349394 -0.0006313507 0.0002109456
0000a0 e7 25 99 35 48 8d 49 ba aa 27 32 ba 37 70 ad b9
       1.1410419e-06 -0.0007688594 -0.00067960715 -0.00033080738
0000b0 d7 b7 51 ba e3 c1 0b 3a 9a 18 c3 39 75 60 31 ba
       -0.00080001116 0.00053313206 0.00037211628 -0.00067663874
0000c0 6a df 9d 39 96 88 c0 b9 b1 f9 d0 39 2e 7e b9 39
       0.0003011183 -0.00036722858 0.00039858886 0.0003537996
0000d0 ab 64 76 3a 12 f2 22 3a 4e 3c 42 b8 52 f5 8e b9
       0.0009399156 0.0006215881 -4.6309367e-05 -0.00027267128
0000e0 d6 54 dd 39 9f 1e 68 3a 78 d8 7d b9 48 a1 44 ba
       0.00042215612 0.00088546606 -0.00024208601 -0.00075008394
0000f0 ab 14 52 3a 67 dc a3 b9 32 61 28 ba 1a 18 21 b9
       0.0008013944 -0.00031253995 -0.00064231746 -0.00015363135
000100 d4 7c 79 39 91 67 07 ba e4 3c 46 3a 8a f4 d7 39
       0.00023792993 -0.0005165274 0.0007562174 0.0004119019
000110 39 ab 8b 38 c7 ef 62 39 a4 ed 15 ba 74 4a 88 b8
       6.659929e-05 0.00021642364 -0.000571931 -6.498853e-05
000120 00 34 4d ba 00 d5 1b b9 e6 0f 67 ba b9 b1 8b b8
       -0.0007827878 -0.000148613 -0.000881432 -6.66114e-05
000130 1f 86 44 ba 20 a9 83 3a 97 f9 5c 39 87 c7 20 39
       -0.0007496792 0.001004491 0.00021073814 0.00015333119
000140 a2 01 df b9 d6 c1 59 ba 2f 09 8d ba 69 09 23 39
       -0.0004253509 -0.0008306777 -0.0010760183 0.00015548397
000150 0f a8 91 39 ea 36 5d 3a 8d 1d c7 39 d8 18 f1 39
       0.0002778177 0.0008438664 0.00037978255 0.00045985612
000160 a3 19 91 39 44 fa aa 39 82 39 29 3a c6 58 1b ba
       0.00027675656 0.0003261139 0.0006455408 -0.0005926009
000170 35 a1 4b b9 66 6a 67 b8 b2 04 32 ba c6 2c e3 38
       -0.00019419643 -5.5173783e-05 -0.0006790861 0.00010832543
000180 4c 53 f0 38 71 f5 b7 b7 5f 08 e0 39 f3 96 07 3a
       0.00011459607 -2.1929593e-05 0.00042730846 0.00051723345
000190 3a 9a 12 ba 87 d2 43 b8 a8 75 a5 b9 aa f3 47 ba
       -0.00055924396 -4.668769e-05 -0.00031558913 -0.00076275563
0001a0 1c ff 51 3a 34 05 24 ba ca fa 37 37 93 e5 6c 37
       0.00080107315 -0.0006256879 1.0966041e-05 1.4120148e-05
0001b0 80 81 81 3a 89 24 08 b9 ed d2 4b 3a a2 0b 3a ba
       0.0009880513 -0.00012983581 0.0007775266 -0.00070970703
0001c0 97 ff 4e ba 23 a3 3b ba 33 27 52 3a 46 10 1c ba
       -0.0007896362 -0.0007157793 0.00080167054 -0.00059533527
0001d0 e3 a8 79 b9 01 c7 37 3a b0 b5 d0 b9 13 36 f1 b9
       -0.00023809406 0.000701055 -0.0003980822 -0.0004600739
0001e0 3f da 1d 3a 49 4c 9a 39 e5 e4 64 b9 e8 86 5d 36
       0.0006021596 0.00029430006 -0.00021829044 3.3010092e-06
0001f0 58 be d7 b9 c4 32 93 38 f8 d0 e5 39 66 16 30 39
       -0.00041149813 7.018962e-05 0.00043833978 0.00016793012

encoder.5.running_mean f4 [128]
000000 d6 49 aa be 7f 0a 3c be cb 47 d7 3e 48 b0 1d 3e
       -0.33259457 -0.18363379 0.4204696 0.15399277
000010 d7 0c 89 bd d1 fd bd 3e ae fd b2 be ae 5e d4 3e
       -0.06691902 0.3710771 -0.34959167 0.41478485
000020 42 dd 75 be 66 bc 35 3d 3c b2 aa be dc 4d 4b be
       -0.24010184 0.044369124 -0.33339107 -0.1985392
000030 6c 72 12 3e f6 b4 80 bd 39 21 44 be b4 fd 97 bd
       0.14301461 -0.062845156 -0.19153298 -0.07421437
000040 30 1a 59 3e 12 51 01 bd a9 38 e0 be 46 42 e2 3e
       0.21201396 -0.031571455 -0.43793228 0.44191188
000050 2a a4 a5 3e 9f 7c 80 3d 58 b2 d2 be 18 82 bc 3e
       0.3235181 0.062737696 -0.4115169 0.36818004
000060 98 01 15 3e 22 ca 11 bf b2 7c b7 3e d1 d6 5c 3d
       0.14551389 -0.56949055 0.35837322 0.053915802
000070 23 92 9e 3e 30 f7 45 bf 3e 44 6e bd ee b7 02 bf
       0.30970868 -0.77330303 -0.05817055 -0.51061904
000080 b6 5c f2 3e 0b 91 89 bd cc 75 84 3e 21 80 0c bf
       0.47336358 -0.06717118 0.25871122 -0.5488301
000090 fa 09 71 3c d3 ec 14 bf 36 47 fc 3e 33 3c b9 3e
       0.014711851 -0.58173865 0.4927308 0.3617874
0000a0 8a bd 8c be 1f cd 4c 3f ff 9f 2c 3e 3a 86 a2 3e
       -0.27488357 0.8000049 0.16857909 0.31743032
0000b0 b3 ce 6a bd de 41 5f 3d 0f ca 2e be 00 f0 cb bd
       -0.05732603 0.054506175 -0.17069267 -0.09957886
0000c0 05 2c d8 3e 4f 7e 49 bd 61 6e ff bc 19 40 f1 be
       0.42221084 -0.049192723 -0.031180562 -0.47119215
0000d0 15 d0 9c be d3 cb 44 3e 94 ef a7 be 2f 76 f1 3d
       -0.30627504 0.19218378 -0.3279997 0.1179012
0000e0 4f f9 49 be e6 33 af be a4 e3 ca 3d 56 c9 b3 3e
       -0.1972401 -0.34219283 0.099067 0.35114545
0000f0 57 19 94 3e bd 4f 9c 3e 13 85 d4 be 71 de 0c 3f
       0.28925583 0.30529585 -0.41507778 0.5502692
000100 b2 fe 3f 3e 29 7f 1b 3e 50 0b d2 3d 7e b0 52 3e
       0.18749502 0.15185227 0.10256064 0.20575139
000110 03 c3 bd 3e 32 c0 97 bc 38 68 84 3e 6e f8 55 be
       0.37062845 -0.018524263 0.25860763 -0.2089555
000120 80 d0 ff 3e ec 23 dc be 0c 82 2c 3e ca ab 77 3e
       0.4996376 -0.42996156 0.16846484 0.24186626
000130 c3 6e ab 3d 03 a3 03 be 46 17 2a be e0 27 29 3f
       0.083707355 -0.12855153 -0.1661044 0.6607647
000140 a8 0e 40 3f ba 98 a2 3e 35 71 39 3f 5a b6 3d be
       0.75022364 0.31757146 0.72438365 -0.18526593
000150 b8 6e ea be c4 a2 6e be 48 50 77 3e 43 d2 4e bd
       -0.45787597 -0.23304278 0.24151719 -0.05049349
000160 09 34 0a bd 5d b4 11 3e e6 fa 33 3c 9e 50 82 bd
       -0.03374103 0.1422896 0.010985112 -0.06363033
000170 dd 89 7a be 65 f9 20 3e 3d dd 23 be 86 cc 94 be
       -0.24466653 0.15720136 -0.16002364 -0.2906229
000180 33 52 c7 3e 01 ac c6 be 34 3a 08 be cc 28 51 be
       0.389299 -0.38803104 -0.13303453 -0.20425719
000190 7e 08 1d 3e 90 c3 9d 3e a3 15 7d 3e ee fc b1 3e
       0.15335271 0.30813265 0.24715285 0.34763283
0001a0 a3 31 b5 be 47 9f 17 bf 09 ca ff 3d 89 b0 08 be
       -0.35389432 -0.5922741 0.12489707 -0.13348593
0001b0 37 e6 28 3f 45 72 d8 bd 0a 1d 0f bf 60 1c 52 bd
       0.6597628 -0.1056867 -0.55903685 -0.05129659
0001c0 b2 9e 2e be 69 eb 70 3d 8a ff 13 bd 88 38 c1 3d
       -0.17052725 0.058818255 -0.036132373 0.094346106
0001d0 18 9c 47 bd 9e e0 64 3d 99 77 e8 3c 6d 24 08 3f
       -0.048732847 0.055878274 0.028377341 0.5318058
0001e0 ee ca e4 be 92 f5 23 3e 78 da bc 3d d5 64 c5 be
       -0.44686073 0.16011646 0.09221357 -0.3855349
0001f0 02 50 ea 3e d9 81 d7 3d e2 67 21 3f fb eb 0b bf
       0.45764166 0.10522813 0.6304914 -0.5465695

encoder.5.running_var f4 [128]
000000 d6 83 2b 3e dd f4 9d 3d 94 eb 44 3e ad 43 92 3e
       0.1674951 0.077127196 0.19230491 0.28567258
000010 e2 84 97 3e cb d5 d9 3d c9 7e c8 3d 2a ff 37 3e
       0.2959357 0.10636481 0.09789807 0.17968431
000020 3b ac 1d 3e 24 5a a4 3d 21 1b cf 3e 0d bb 57 3e
       0.15397732 0.080250055 0.40450385 0.21067448
000030 6b f1 cb 3d cd 28 c8 3d a9 f6 01 3e a0 61 3e 3e
       0.09958156 0.09773407 0.1269175 0.18591928
000040 7c 76 ab 3d 64 4f 29 3e 2e 43 12 3e bc 5e 3f 3e
       0.083722085 0.16534191 0.1428344 0.18688482
000050 46 94 0d 3e 7b 80 cd 3d 78 96 0f 3e 9f 8a 04 3e
       0.13826093 0.10034271 0.14022243 0.12943505
000060 8c d6 16 3e a3 1a 65 3e 12 2a d4 3d 98 93 0b 3e
       0.1473028 0.22373442 0.10359587 0.13630521
000070 48 d8 1e 3e 1d 79 e8 3e 39 f4 b6 3d a1 a5 34 3e
       0.15512192 0.45404902 0.089333005 0.17641307
000080 a1 a7 62 3e 22 6c 82 3e a2 26 75 3e 71 ec 06 3e
       0.22134258 0.25473124 0.23940518 0.13176133
000090 ee 41 b2 3d 38 d0 4a 3e 72 12 3d 3e c3 c1 7b 3e
       0.08703981 0.19805992 0.18464068 0.24585633
0000a0 cb 48 26 3e b3 79 b3 3e 39 e9 ea 3d 65 66 0a 3e
       0.16238706 0.35053787 0.11470265 0.13515623
0000b0 d2 8a a9 3d 18 ed a0 3d 16 cb a2 3d 2f 74 59 3e
       0.08278431 0.07857722 0.07948892 0.21235727
0000c0 31 5c 35 3e 05 bb 2d 3d 05 84 bb 3d ae c9 02 3e
       0.1771095 0.042414684 0.0915604 0.12772247
0000d0 8b 08 e9 3d 75 90 8e 3d 1d cb 3b 3e 20 ca 97 3d
       0.113785826 0.06961147 0.183392 0.07411599
0000e0 4f 5a d8 3d b8 62 e5 3d 9c c6 d8 3d eb 5d 5a 3e
       0.105641 0.1120047 0.10584757 0.2132489
0000f0 37 cb 27 3e 1b 05 df 3d a2 65 3d 3e 1c 26 1f 3e
       0.16386114 0.10889646 0.18495801 0.15541881
000100 d1 b7 f3 3d 1f 2d 59 3d 41 35 ab 3e 53 73 e1 3e
       0.119002946 0.053021546 0.33439067 0.44033298
000110 e1 fc 06 3e bf 3d 60 3e be 51 e4 3d f7 c0 03 3e
       0.13182403 0.21898554 0.111484036 0.12866579
000120 41 f9 1b 3e ad 31 35 3e 30 b3 e7 3d 3e 67 ff 3d
       0.15231802 0.17694731 0.11313474 0.12470864
000130 29 80 d1 3d da 30 8b 3e fe 76 24 3e ca 64 41 3e
       0.10229523 0.27185708 0.16061017 0.18886104
000140 81 a6 81 3e b1 b2 04 3e f3 40 47 3e c9 93 0e 3e
       0.25322345 0.1295879 0.1945837 0.13923563
000150 5e a9 fc 3d d3 0c 1d 3e 3f 51 9b 3d e3 9b cc 3d
       0.12336992 0.15336923 0.07583856 0.099906705
000160 87 1f 25 3e 64 75 a5 3d 83 71 44 3e 42 cc d8 3d
       0.16125308 0.08079031 0.19183926 0.10585834
000170 fe 48 cf 3d a2 87 cd 3e 6f bf 38 3e 16 bd 71 3e
       0.10121344 0.40142542 0.18041776 0.23607287
000180 0a 6f 05 3e bd ee 02 3e 96 57 bd 3d 4d d8 da 3d
       0.1303064 0.12786384 0.09245221 0.10685787
000190 14 4b 92 3d 68 e3 ca 3d 92 e2 b9 3d 37 82 88 3e
       0.07143226 0.099066556 0.09076418 0.26661846
0001a0 13 d7 bb 3e 01 f3 19 3e e9 89 8a 3d 9f 12 e9 3d
       0.36687526 0.15034105 0.067645855 0.11380505
0001b0 64 98 44 3e 92 bc 9f 3e 4b 6e 7a 3e 3e 9f c3 3d
       0.19198757 0.31198555 0.24456136 0.095518574
0001c0 43 0b 0c 3e 4b 62 4b 3e ea 83 dc 3d e3 9b 2c 3e
       0.13676171 0.19861715 0.10767348 0.16856341
0001d0 d9 d0 e3 3d 67 d2 31 3e a8 85 f3 3d 74 e8 42 3e
       0.11123819 0.17365418 0.11890727 0.19033986
0001e0 9b 2e 3d 3e 98 8c 28 3e b0 25 a3 3d 7a 76 b6 3d
       0.1847481 0.16459882 0.07966173 0.08909316
0001f0 28 93 c9 3d cb 65 cb 3d 5e 74 50 3e 7b 91 1b 3e
       0.09842521 0.09931525 0.2035689 0.15192215

decoder.0.weight f4 [64, 128, 3, 3]
000000 11 ee 7b bc c7 04 9a 3c b9 fb db 3c b0 cc 88 3c
       -0.015376584 0.018801106 0.02685343 0.016699165
000010 71 ed 92 bc 81 d1 06 3c 86 bb b8 bb 5e 1f 95 bc
       -0.017935487 0.008228661 -0.005637589 -0.018203434
000020 75 52 2f 3c a5 a2 cc 3c c5 33 f1 bc 03 6c c7 3c
       0.010700812 0.024979899 -0.029443631 0.024343496
000030 fb 56 d4 3c 3a 69 24 ba db 01 a3 3c ca 9c 87 3c
       0.025920382 -0.00062717835 0.019898346 0.016554255
000040 9a 29 e4 bc a0 22 86 bc 2e d0 6d bc 34 e7 f3 bc
       -0.027851868 -0.016373932 -0.014514966 -0.029773332
000050 4b d7 6e bc d8 ea f6 bc 21 88 60 3c ec 1c 82 bc
       -0.014577697 -0.03014128 0.013704331 -0.015882932
000060 34 6f 70 bc 29 f4 c8 3c 8e f1 bf bc 58 3a 5c 3a
       -0.01467495 0.024530487 -0.023430612 0.0008401028
000070 25 11 07 3c d2 a7 f1 bc bb d8 87 bc de cf 9a bb
       0.008243834 -0.029498968 -0.016582837 -0.0047244867
000080 48 3a f9 bb ac 4b 8f 3c 4b a5 ee bc 77 5d 11 3c
       -0.0076058246 0.017492138 -0.029131552 0.008872381
000090 72 d9 cf 3c cd 31 4d 3b e4 4a 78 bc 8a f3 b8 bc
       0.02537224 0.00313102 -0.015154574 -0.022577066
0000a0 f7 e5 c7 bc 6a 42 a7 3c ce 56 d1 3c b3 16 6c ba
       -0.024401648 0.02041741 0.025554087 -0.0009006068
0000b0 f3 03 7e 3b 83 c7 0c 38 b9 60 a1 bc c9 69 39 3c
       0.0038759678 3.356441e-05 -0.019699441 0.011316725
0000c0 8b 74 b1 3c 91 d8 3b 3a 43 ee a7 3b e1 d3 bc 3c
       0.021662017 0.0007165755 0.0051248386 0.02305025
0000d0 67 5e ae bc 29 58 92 3b 70 91 ab 3c 2d e4 9f bb
       -0.021285249 0.004466076 0.020943373 -0.0048794956
0000e0 8f d9 f5 b9 38 69 d0 bb 9d 4b aa 3c 5e 5e d8 3c
       -0.00046892135 -0.0063601993 0.020788008 0.026412185
0000f0 ba 77 fe 39 d2 89 b0 bc 9c 5e 93 bc 08 a4 97 3c
       0.00048535859 -0.021550093 -0.01798945 0.018510833
000100 8c 54 26 3c b4 32 78 ba 1c e5 b6 3c 21 74 4a 3c
       0.0101519935 -0.00094680046 0.022326045 0.012356789
000110 a7 db 2d bb 8c b1 cb bb 3a f9 f5 bc a0 79 ad 3c
       -0.0026528628 -0.0062162336 -0.030026067 0.02117616
000120 51 67 90 bc a1 60 dd bc 8a d2 e3 bc 8b ff 9d 3c
       -0.01762739 -0.027023615 -0.027810354 0.019286891
000130 26 48 bf bc 49 43 1b 3c fc a0 bf bc 24 fe 80 3a
       -0.023349833 0.009476491 -0.023392193 0.0009841365
000140 61 25 1c 3c 8d 65 b2 bc 00 da 40 bc 76 37 ab bc
       0.009530396 -0.021776939 -0.011770725 -0.02090047
000150 a9 c7 c0 3c 94 cf 88 39 7a 8e 3b 3c 1a 70 cb bc
       0.023532705 0.000260946 0.011447543 -0.024833728
000160 7b 15 54 3c f7 73 db bb e9 9e 96 3c cc 56 ec 3c
       0.0129445745 -0.0066971737 0.018386321 0.028849982
000170 c5 6b 9b 3c a7 f2 5c bc 7f d1 5e 3b 58 e8 30 3c
       0.018972287 -0.013485587 0.003399938 0.010797583
000180 38 6c 24 bc 54 48 90 ba f9 11 71 3c 70 0a 32 3c
       -0.010035567 -0.0011007884 0.014713758 0.010866746
000190 97 93 42 bb 24 61 ac 3b d7 a5 73 bc a8 7d a5 3c
       -0.0029690021 0.0052606035 -0.014871082 0.02020152
0001a0 c0 d8 d9 3c 0c 24 89 3c 94 ff 94 bc 6d c3 cf bc
       0.026592612 0.016740821 -0.018188275 -0.025361741
0001b0 a8 a9 46 bc c2 d2 b4 3c e9 6d c2 3c c6 b0 69 bb
       -0.01212541 0.022073153 0.02373405 -0.0035658344
0001c0 e0 43 b5 3c 42 a1 90 bc 7d 68 84 ba 6a c3 d3 3b
       0.022127092 -0.017655019 -0.0010101941 0.006462504
0001d0 77 5e c8 3c a7 41 61 bc ab 99 07 bc a0 59 1c 3b
       0.024459107 -0.013748563 -0.008276383 0.0023857132
0001e0 da 9f cd 3c c2 9b 29 3c a9 1f 0c bc 4b 4e 2a b7
       0.025100637 0.010352077 -0.00855247 -1.0151019e-05
0001f0 5b 4a 95 bc a6 8b bb 3b f8 3d 14 bc f2 81 39 bb
       -0.018223932 0.0057234345 -0.009047978 -0.0028306213
000200 50 32 b8 3c 43 72 c3 ba 92 a3 50 3b db eb 61 bc
       0.022484928 -0.0014911372 0.0031835777 -0.0137891425
000210 e8 a8 50 3c 2f ae 51 bc 60 40 a1 3c 0d a0 e2 3b
       0.012735583 -0.012797876 0.019684017 0.006916052
000220 5c 45 96 b9 cb 63 86 bc 9a ba d0 3c 83 f8 88 3c
       -0.00028661906 -0.016405007 0.025479604 0.016720062
000230 7e f2 90 bc 2f 7a 4f 3c 51 42 ad 3c 8c 43 ea bc
       -0.017693754 0.012663408 0.021149786 -0.028596662
000240 f9 bb 78 bc 55 a3 7e bc b8 22 5f 3b 7b c2 5d 3c
       -0.015181535 -0.015541871 0.0034047794 0.013535137
000250 8c 21 a2 bb d0 b0 32 3c bc ad 8d 3c 9a 31 8a bc
       -0.0049478468 0.010906413 0.017294757 -0.016869355
000260 bc 46 ec bc 22 0a 73 3c c0 c5 22 3c 70 73 b1 bc
       -0.028842323 0.014833959 0.009934843 -0.02166149
000270 9c ed 8e bb 33 f9 a9 bb 2c e8 7f bb 32 49 bd 3b
       -0.0043618213 -0.0051871776 -0.0039048297 0.005776548
000280 ff 55 d3 3b 5b 09 34 3b d6 f9 95 bc 42 eb 86 bc
       0.0064494605 0.0027471397 -0.018307608 -0.016469602
000290 e3 d6 58 bc 31 57 e0 3c 45 a2 25 3c 0e 62 89 bc
       -0.013234827 0.027385326 0.010109489 -0.016770389
0002a0 ab 4f d4 3c 5d cd c8 bb 99 2e d2 3b f0 a3 d4 3b
       0.025916895 -0.006127997 0.0064142463 0.0064892694
0002b0 02 2e 81 bc 0d c9 de 3c 64 b7 55 3c 3a b5 3d bc
       -0.015769009 0.027195478 0.013044212 -0.011578852
0002c0 3a e5 cc 3c 26 53 aa ba d1 8e d2 bc d8 6c 20 bc
       0.025011647 -0.0012994751 -0.025702866 -0.009791575
0002d0 f9 9b 48 bc 29 a6 af bc c5 30 04 bc cb 9c 80 3b
       -0.012244218 -0.021441536 -0.008068268 0.003924941
0002e0 fb 07 1d 3c 2c de 90 bc 0c a8 aa 3c 86 ba c7 3c
       0.009584422 -0.017684065 0.020832084 0.024380933
0002f0 6e 62 46 3c d3 d1 b3 3c 5a c1 bb 3c 3b 07 b1 bc
       0.012108428 0.021950638 0.022919346 -0.021609893
000300 95 de c7 bc 38 83 be bc 4c 23 97 3c 1b a1 39 3a
       -0.024398128 -0.02325593 0.018449448 0.00070811965
000310 99 c4 0d 3c 8f 78 e8 bb 15 de 20 37 03 b6 dd 3c
       0.00865283 -0.00709445 9.588451e-06 0.027064329
000320 59 e8 56 bc 9e 17 df 3c 15 33 6d 3c 90 c2 ab 3b
       -0.013116919 0.027232941 0.014477511 0.0052416995
000330 cc ae b1 3c 80 a3 87 3c d3 00 b6 bc 8d 94 02 bc
       0.021689795 0.016557455 -0.02221719 -0.007969988
000340 9f 63 71 bc 44 50 98 bc 91 31 1a bc ab d2 b0 3c
       -0.014733224 -0.018592961 -0.009411232 0.02158483
000350 4e 9b 23 bc ea a7 f0 3b 32 6e 72 bc c3 b6 48 bb
       -0.009985758 0.0073442357 -0.01479678 -0.0030626513
000360 81 75 2e bc ee 5d 98 3b c2 bd f1 bc 3a f9 57 3c
       -0.010648132 0.004649869 -0.029509429 0.013181979
000370 e2 96 d5 3c f0 0f 9c 3c 10 3f 3a 3b 27 b1 23 3c
       0.026072923 0.019050568 0.0028418936 0.009990967
000380 98 1c d2 3c 51 34 e1 3a 39 46 67 bb 69 e4 f6 3c
       0.0256484 0.0017181729 -0.0035289659 0.030138211
000390 25 27 d7 bb a9 06 d2 3c ab 78 94 bc 7a 1b 48 3c
       -0.0065659457 0.025637941 -0.018123945 0.012213582
0003a0 5e 50 9c 3c 36 30 ad 3c 06 0b d1 3c d0 81 9b bb
       0.01908129 0.021141153 0.025517952 -0.0047456995
0003b0 de c5 82 3c e3 49 f2 ba a5 5d 60 3c d0 08 a6 bc
       0.015963491 -0.0018485155 0.013694202 -0.020267874
0003c0 87 02 c1 3b 37 22 83 3c 0b f1 da bb 8e af 20 bb
       0.005890194 0.016007526 -0.0066815666 -0.0024518701
0003d0 8d 43 db bc 83 f4 c7 3c 9f f2 64 bc 44 2d d8 bc
       -0.02676561 0.024408584 -0.013973861 -0.026388772
0003e0 f2 89 88 3c 15 c2 af bc a8 05 d1 3c e7 e2 3a 3c
       0.01666734 -0.02145485 0.025515392 0.011406637
0003f0 a5 96 f9 bb 81 4f e0 bc df 34 4f 3c b7 8f a0 3b
       -0.007616835 -0.02738166 0.012646883 0.0048999446

decoder.0.bias f4 [64]
000000 6d 4d 89 3c 6b 56 e5 bb c3 96 f1 3b 56 49 e4 3c
       0.016760552 -0.006998827 0.0073727085 0.027867
000010 54 e1 94 bc db 79 3c 3c 4a ca b4 3c fb af ef bc
       -0.018173851 0.011503662 0.022069115 -0.029258719
000020 c9 11 ee 3c 96 84 18 bc aa e6 80 3b f0 7b 81 bc
       0.029061215 -0.009308955 0.0039337473 -0.015806168
000030 e2 62 a0 3c b7 a8 6d bc 24 21 e3 3c a9 ed 9c bc
       0.019578401 -0.014505557 0.027725764 -0.019156294
000040 08 f3 4c bc 2b e2 a0 bb fc 2b 94 3c ff 20 7d 3c
       -0.012509115 -0.004909774 0.01808738 0.015449761
000050 1e 79 7e 3b aa 0a 83 39 13 8a 4f bc 38 14 eb bc
       0.0038829516 0.00024994212 -0.012667197 -0.028696164
000060 3f e9 cc 3c e8 89 df 3a e0 5e ad 3c 72 2e 15 3c
       0.025013564 0.0017054649 0.021163404 0.009105312
000070 1a 0d 1f 3c 90 20 10 bc 0d 48 ad bc d0 53 78 bc
       0.0097077135 -0.008796826 -0.02115252 -0.015156701
000080 0c 38 86 bc 06 92 ba bb 3a 24 84 3c a7 fd cd bc
       -0.016384147 -0.005693677 0.016130555 -0.025145365
000090 de d1 da bc 28 fe f0 ba 05 eb 05 bc 46 e4 59 3c
       -0.0267114 -0.0018386291 -0.008173709 0.013299054
0000a0 c5 e2 12 3c 8a 21 28 3b e0 2a 36 bc f1 07 d0 bc
       0.008965199 0.0025654756 -0.011118621 -0.025394412
0000b0 ec e8 a3 3c 34 29 e5 bc 77 a2 04 bc c2 8a d6 bc
       0.020008527 -0.027973749 -0.008095375 -0.026189212
0000c0 58 92 93 3c ed 3f 1e 3c 5c 75 e4 3c 70 4e 47 bc
       0.018014118 0.009658796 0.027887993 -0.012164697
0000d0 ae 96 ba bc 31 81 a4 3b da c6 8b bb 80 8e a9 bb
       -0.022776928 0.0050202836 -0.0042656483 -0.005174458
0000e0 42 fe ba 3a 96 2f d7 3c eb 5c af 3c 5e 9f 94 3c
       0.0014266449 0.026267808 0.021406611 0.018142398
0000f0 d2 03 85 bc dc 25 09 bc 80 ea 89 3b af 09 b7 3c
       -0.016237173 -0.008370843 0.004208863 0.022343485
