checkpoints/2025-05-31-10-31-40/last_epoch.pth (torch, 676341 bytes, 9 tensors)

encoder.0.weight f4 [64, 3, 3, 3]
00000000: 0430 a43d 46a2 ba3d 228d 303e 1142 43bd
00000010: 7718 37be 2d2a 56bd 6343 86bd 41d5 be3d
00000020: ebd3 3e3e 7191 313e 562b 86bd f340 10be
00000030: 4670 42be ba92 8cbd 0a8d 8abc 3804 b4bd
00000040: 5905 d9bc e6fe c6bc c96c 0d3e 2985 083c
00000050: 6b0d 133e e78f e43c 7a92 053e 4497 463d
00000060: 0f26 9dbd 4f51 debc 35f8 b9bd 5c28 c6bc
00000070: 63de fdbc 5bd3 3ebd 726b 13bd c947 01bd
00000080: 973e c03d a001 94bd 353e d13d 3361 0cbe
00000090: e025 5e3d e77e 11be a1d6 77bd 3315 d0bd
000000a0: 57f2 403e b15e 96bc 2b95 87bc 70ec 3c3d
000000b0: 2eea 0fbe d55c 7dbd 254d 653c 754e 343e
000000c0: 427a 643d d5c9 87bd 2058 7b3d 2350 d7bd
000000d0: 3ab9 bfbd ff26 003e 84ed 9f3c b0f4 28be
000000e0: 7fb7 03be 2493 253e df70 103d 9e04 843c
000000f0: f3b3 02be 53e1 4fbd 3959 ef3c dc87 2cbe
00000100: 5711 ecbd 7e25 213e 0c93 b93c 44ff 2dbe
00000110: a40f ec3d a17a 0d3e f91d bbbd e6b5 66bd
00000120: 6427 3ebe f1cf 0bbe c722 23be 6dfd 3cbe
00000130: 3e1d 103e a619 d5bc 443d 44be bf0c 7d3d
00000140: 6f94 0d3e 2ab3 f13d 8533 a3bc 8e05 023e
00000150: affe 3f3d 5ed8 6dbb fa04 33be 22c5 713b
00000160: 15d2 94bd f82b b63d 9581 0c3e cb91 183e
00000170: b6ea e5bd 8520 c0bd 3fbe fe3c 77aa b8bc
00000180: dff6 35bd bdd1 cabd 60d3 403e 7915 453e
00000190: 850d 053e b398 0c3c 2ebf 7cbd ea9b f63c
000001a0: c39c dabd 4351 183d 48bf 8e3c cc3d a93d
000001b0: 9443 1bbe 15ee 913d 67eb debc 8636 3dbe
000001c0: d3eb 6dbd 5810 31be ade5 323e 4195 a5bd
000001d0: 7f80 3ebe 69ac f33d 4738 c3bd 3278 0cbe
000001e0: 6598 f23c bfeb 17be ddae 823d 5778 023e
000001f0: df20 90bd 2d69 293e 9451 2a3e daa9 d4bd
00000200: 8995 0abe 407b b43c d746 a4bd 6f0f 2bbe
00000210: 0697 d73d a3b5 5d3d acdd 073e 3bb8 45bc
00000220: d27d 2bbe 821d c9bd 4405 c6bd 0f6c d53a
00000230: ff6a 043e 7462 88bd 96fe 1c3d 0c23 ffbd
00000240: fbca 843d 7b3e 45bc d5ca f2bc 814b e03d
00000250: 1d2f 1f3e 6b7e e53b 1ece 293e d621 29be
00000260: d0c5 b6bc 9a13 35be e845 2e3e 3983 03bc
00000270: 9fbc 0a3e 477f 8abd 4f81 2fbd cb4a cbbd
00000280: 170a 143e 1b29 8ebb 37ba 5b3d 3928 e13c
00000290: 9611 1cbe 931a ac3d 89a6 86bd 4da1 303e
000002a0: 9c59 1fbc 5119 ec3d 1910 173e ec2d f3bd
000002b0: d082 ea3d 47e6 2ebe ec1a 1c3e 459a a73b
000002c0: 96d1 22be 549f b1bd 431d 06be 387e 36bd
000002d0: dbdc 22b9 5fbd 963c 957b d73b e184 14bc
000002e0: ecc4 dd3d cedc 073e 7a87 413e 2050 26be
000002f0: 2387 203e c808 57bd 6cd4 b5bd 3125 e13d
00000300: b406 7b3d 15ed 5b3d 25ff 703d cc14 0c3e
00000310: eb7b 33be 4319 513d e4dc 38be 529c 9ebd
00000320: 24bc 32be 162d 89bd 8edb be3d e6ae 7d3d
00000330: a7d5 3bbe ee87 24be 52ea 443e 82cd 793d
00000340: e9a7 25be 9ab2 ffbd d731 fbbd dadd e93d
00000350: ba14 aebb f883 423e d156 283e fcfe 99bd
00000360: e490 e63d 03b3 b6bd 8aed 223e db8b a9bd
00000370: 0329 293e f912 823d d292 513d b01c 09be
00000380: 51f6 0ebe 5e0d d4bd 3f4d 13be 1dac 5fbd
00000390: a309 00bd fdf1 37be b470 6ebd 7cde f0bd
000003a0: 53f4 183e e4de 353e c262 10be 67bc f13d
000003b0: b245 423e c5e9 063e 93b2 1b3e ea69 0cbd
000003c0: f08f 833d d857 c9bd 4be7 f93d b2e5 093e
000003d0: e05e 9f3d d8a1 163e 7e46 7a3c c65e 67bd
000003e0: 7646 e1bd d54e 2fbd 55ad 333e e5da c03d
000003f0: 9d85 c83c 576e 1d3e cf86 2dbe 6de8 293d
0.08016971 0.091129825 0.17241338 -0.047670428 -0.17880426 -0.052286316 -0.06555822 0.09318019
0.18635528 0.17340638 -0.065512344 -0.14087276 -0.18988141 -0.06863923 -0.016912956 -0.08789867
-0.026491808 -0.024291467 0.1381103 0.008332529 0.14360587 0.02790065 0.13044158 0.048484102
-0.07673275 -0.02713838 -0.09080545 -0.024189167 -0.030989831 -0.046588283 -0.03599114 -0.0315626
0.09386938 -0.072268724 0.10216943 -0.13708954 0.05423534 -0.14208566 -0.06050742 -0.101602934
0.18842445 -0.0183557 -0.016550621 0.046123922 -0.14054176 -0.06185611 0.0139954435 0.17608054
0.055780657 -0.06630293 0.06136334 -0.10513332 -0.09361501 0.12514876 0.019522436 -0.16499591
-0.12862967 0.16169411 0.035263892 0.016115483 -0.12763958 -0.050751995 0.02921735 -0.16848701
-0.11526745 0.15736958 0.022653125 -0.16991907 0.11526421 0.1381631 -0.09136576 -0.056325816
-0.18569714 -0.13653542 -0.15931235 -0.1845605 0.14073655 -0.026013207 -0.19163996 0.061779734
0.13826154 0.11801751 -0.019922027 0.12697431 0.046873745 -0.0036292295 -0.17482367 0.0036891182
-0.072666325 0.08895105 0.13721307 0.14899366 -0.11226408 -0.093812026 0.031096576 -0.022542221
-0.044424888 -0.09903286 0.18830633 0.19246472 0.12993439 0.008581328 -0.06170576 0.030103642
-0.10674431 0.037186872 0.017425194 0.0826374 -0.15162498 0.07125489 -0.027211858 -0.1847783
-0.058086228 -0.17291391 0.17470427 -0.080851085 -0.18603705 0.11898119 -0.095322184 -0.13717726
0.029613683 -0.14836024 0.06381009 0.12741219 -0.0703752 0.16544028 0.16632682 -0.10383959
-0.13533606 0.022031426 -0.08021324 -0.16705106 0.10526852 0.0541283 0.13268155 -0.01206785
-0.16747215 -0.09820081 -0.09668973 0.0016282814 0.12931441 -0.066594034 0.03832873 -0.124578565
0.06484028 -0.012038822 -0.029637733 0.10951901 0.15545316 0.0070035956 0.16582534 -0.16516814
-0.022311121 -0.17683259 0.17018855 -0.008026891 0.13548516 -0.067625575 -0.042847928 -0.09926375
0.14456974 -0.0043383962 0.053644385 0.027485 -0.15241084 0.08403506 -0.06574733 0.17249031
-0.009725954 0.11528266 0.14752235 -0.11873993 0.11450732 -0.17080031 0.15244645 0.005114826
-0.15900263 -0.086729676 -0.130971 -0.044553965 -0.00015531799 0.018400846 0.0065760114 -0.009064884
0.108285755 0.13267824 0.18899336 -0.16241503 0.1567655 -0.05249861 -0.08878407 0.10993422
0.06128569 0.053692896 0.058837075 0.13679808 -0.1752774 0.051049482 -0.18053013 -0.077446595
-0.17454582 -0.066980526 0.093192205 0.061934374 -0.1834322 -0.16067478 0.19230011 0.060987003
-0.16177334 -0.124852374 -0.122653656 0.11419268 -0.0053125294 0.18995655 0.16439368 -0.075193375
0.112581044 -0.089208625 0.15910926 -0.082786284 0.16519551 0.06351275 0.05116541 -0.1338985
-0.1396115 -0.10354112 -0.14384936 -0.0546075 -0.03125919 -0.17963405 -0.05821295 -0.117611855
0.14936952 0.17760807 -0.14100173 0.11803513 0.18971899 0.13175113 0.1520484 -0.034280695
0.06423938 -0.09831208 0.12202319 0.13466528 0.07781768 0.14710176 0.015275596 -0.056486867
-0.109997675 -0.04279979 0.1754659 0.09416751 0.024477774 0.15374123 -0.16945957 0.041481424

encoder.0.bias f4 [64]
00000000: 6bc1 1bbe 24a4 3abe 3f23 bbbd 4f8a 313e
00000010: a18e 903d 91d6 333e e627 1abe 2351 233d
00000020: 832d fcbd afa0 57bd 2f3d b23d cf99 64bd
00000030: 609f 6b3d 47ed fd3d a84b 753d e6cc 983d
00000040: 956b 0fbe 96f5 dfb9 45e5 3cbe ace5 ef3c
00000050: f00c 53bd 6c71 ab3d c666 ae3d 22fd 16be
00000060: d23d 213e b212 363e 467c db3d d2bf 1fbe
00000070: 668f acbd 2a8d 44bd 09ae 0a3e b460 9f3c
00000080: 97ea 3d3e 9bac 38be 4068 3c3b 6d41 92bb
00000090: 9297 3abe aa4d 41be 6bd0 3bbe 2626 10be
000000a0: 93ca a03c 78a7 953d f184 2c3d 46be aabd
000000b0: a764 973d 6a4a 08bd 2c4d 8cbd ebd1 0e3c
000000c0: ca2a 3d3e 7e5e 0cbe 1aeb 073e 87a2 8b3c
000000d0: de7d 173e 341a 3dbe 9e7b 1ebd 4407 0ebe
000000e0: 3d15 1abd 73c8 263e 0113 debc 404f e23d
000000f0: f176 283e 957e 2cbb 0665 ff3d d392 edbd
-0.15210502 -0.18226677 -0.09137582 0.17337917 0.07058454 0.1756232 -0.15054283 0.0398723
-0.12313368 -0.052643474 0.08703076 -0.055810746 0.05752504 0.12398773 0.059886605 0.07460956
-0.14005883 -0.0004271685 -0.18446834 0.02928432 -0.05152601 0.08371243 0.08515696 -0.14745
0.15746239 0.17780569 0.10717063 -0.15600517 -0.084257886 -0.047986187 0.13542952 0.019455291
0.1854652 -0.18034594 0.0028748661 -0.0044633658 -0.18221882 -0.18877283 -0.18341224 -0.14077052
0.019627845 0.07307333 0.04211897 -0.08337073 0.07392245 -0.03327409 -0.06850657 0.0087170405
0.18473354 -0.13707921 0.13273278 0.017045273 0.14794108 -0.18467027 -0.03869211 -0.13869959
-0.03761791 0.16287403 -0.027108671 0.11050272 0.16451623 -0.0026320566 0.124704406 -0.1160027

encoder.3.weight f4 [128, 64, 3, 3]
00000000: b722 a23c b1e8 fd3c 074b cfbc 11cd 4cbc
00000010: 61b7 103c 2467 fd3c 0655 163c ad03 213c
00000020: 50fb 0a3d ae75 45bc 3207 07bd 72ca 16bd
00000030: f7dd e13b 2020 05bc efa2 02bd e5fb 1d3c
00000040: efa3 19bd 8a6f 22bd d1ee 8cbc 90c3 50bb
00000050: 77b7 b13c 7c06 a8bc 9c9c 0e3d 08e6 893b
00000060: 2ce5 3d3a bfec a03a 6df2 1c3d 7155 f33c
00000070: 4263 a83c d048 bb3c 421d b23b 1b25 04bc
00000080: 35ed 93ba bcdb 2cba 630a 123d cce3 023d
00000090: 8e6c 6fbc c850 0fbc c802 143d 85bc f6bc
000000a0: 047a 813c e2ed 193d 27a0 023c c3f4 e9bc
000000b0: 8cf8 31ba 78e3 5dbc 1e84 a0bc 643c d53c
000000c0: 3aaf 11bd c0cc efbc 1fde a33c 1088 45bc
000000d0: c1b4 433c 7b78 ea3b 4d58 0cbd 970b 26bd
000000e0: 8c46 3d3c 3afc d13c 0f63 29bc 8719 f13c
000000f0: 0ed0 97bb 8e7e 33bb 15e7 00bd a0ce c93c
00000100: b21c e6bc 5741 1d3d b7da eeb7 b272 8a3c
00000110: 2ad2 de3c a335 463c e342 21bd 1832 16bc
00000120: 1cd9 b13c 849c 8c3c b91f b1bc d4e1 f6bc
00000130: b333 133b a23b 0c3d cea9 5c3c 1377 dd3c
00000140: 84d2 04bd 7935 5c3c c2f2 0c3c d21c 06bb
00000150: c442 0e3d 4ed3 abbc fa86 053d 3a56 c03c
00000160: 82ef e63c f331 273d a5e9 d1bc 3568 263d
00000170: c4ce c83c d582 3a3c 077d e5bc 5ed6 033d
00000180: ced8 06bd ae50 0fbc 93c9 a2bc 78ee a6bc
00000190: 1ef5 90ba 3965 133d 861c 0abd 4a57 5a39
000001a0: 2831 063d 4f8e 26bb 9c4b 163d 2fc6 f6bc
000001b0: 4e18 14bd 6732 b0bc e5b1 9cbc 9dd4 a53b
000001c0: 5128 24bd 2543 a1ba d6f8 70bc db74 cdbc
000001d0: 347b 47bc 0553 adbc aee3 e43c 23e3 ad3c
000001e0: 487e ef3c 3df1 113d 779e 03bd 5646 36bc
000001f0: c685 feba a32b 663c 536d 9e3c 7b3b fe3c
00000200: 4735 ffbc 26ff 31bc e608 a8bc 0780 1c3d
00000210: 7293 a63c 73e7 86bc 6e43 a93b 2a98 8ebc
00000220: c2f9 913c 3f7a 09bd 5071 2b3c 897f 40bb
00000230: aab9 ecbc 4fa2 0dbd 91d4 ce3c 3d1a df3b
00000240: 3aa9 f13c e5c0 d23c 2720 00bd f90a 9c3c
00000250: 5c51 1e3d 9410 103c aa36 093d 7b80 e63c
00000260: f567 8c3c 025c 133d 836f 12bd 5f61 e0bc
00000270: e142 adbc af3c 183d 2f7e 073d a7db 54bb
00000280: ff3d b6bc 2773 06bd 599f ae3b ba1a 06bd
00000290: d068 2b3c ef02 57bc c7bb 253d 7066 70bc
000002a0: 3e88 8e3c 2ca8 0ebd 0833 243d 8a89 8d3c
000002b0: 0fcb c5bc 9f6e df3c 4981 253d 68d2 24bc
000002c0: dda4 0d3d 0e6e 243b f3c6 af3c adc8 173d
000002d0: ff2b deba 3608 1dbc f1d8 523c 7cb2 7dbc
000002e0: 6734 6dbc d6dc fe3a 50d0 24bd 2b4a 153d
000002f0: 1fb3 b33c 2196 f13b 4d93 35bb 9499 023d
00000300: 5974 273a 4e39 95bc 3e11 c0bb f149 163d
00000310: 3252 5238 ba2b 5bbc a35c 013d bb97 123b
00000320: abb9 5b3c 60c0 03bd f193 733c 83a8 ddbc
00000330: 655c 903a 064a 633c 8c42 9ebc ca53 b93c
00000340: d857 e73c 63e1 66ba e8c4 cd3c 6024 03bd
00000350: bf09 b53c e779 763c c776 05bc 388c 0fbd
00000360: bc0c e23a daab 03bd 4272 12bc 3b94 27bd
00000370: 9677 11bb f161 32bc 72e4 7c3c d578 c23c
00000380: 5597 fe3c fea8 07bd 14b0 a53c edaf 4bbc
00000390: 0006 9ebb 7aa5 5a3c 6313 f7bc d690 b93a
000003a0: f4ee 743c f0fa 263c 8ad5 d73b 7205 66bc
000003b0: 0b1d 74bb 8a57 f3bc 2fe0 d43b 1d6f f13c
000003c0: 5870 65bc 8567 0dbd 81f8 16bd 552b 14bd
000003d0: edc3 973c 41c2 733c b76b 0bbd 7015 62bb
000003e0: cc00 17bc cda2 ffbc 7969 cf3c 3eaa eabc
000003f0: 1d6f 023d 18c0 8b3c 6360 883c b9be 003d
0.019791944 0.030994745 -0.02530433 -0.0125000635 0.008832783 0.03093297 0.009175545 0.0098275365
0.033931077 -0.012051983 -0.032965846 -0.03681416 0.0068929153 -0.008125335 -0.031893667 0.009642576
-0.037509855 -0.039657153 -0.01720372 -0.0031854846 0.021693928 -0.020510904 0.034817323 0.00420833
0.0007243927 0.0012277587 0.038317133 0.029703828 0.020555142 0.022861868 0.0054356167 -0.008065487
-0.0011285903 -0.0006594022 0.035654437 0.031955525 -0.014613284 -0.008747287 0.036135465 -0.03011919
0.015805252 0.03758038 0.007972754 -0.028559094 -0.00067890505 -0.013543002 -0.019594248 0.026029773
-0.0355675 -0.029272437 0.020003377 -0.012056366 0.011944951 0.0071554757 -0.034263898 -0.040538397
0.011552464 0.025632966 -0.010338559 0.029431118 -0.0046329563 -0.0027388665 -0.031470377 0.02463466
-0.028089855 0.03839239 -2.8473658e-05 0.016900394 0.027199823 0.012097749 -0.03937043 -0.009167217
0.021709971 0.017164476 -0.021621572 -0.03013698 0.0022461235 0.034236558 0.013468219 0.027034318
-0.032427326 0.013440483 0.0086028 -0.0020463956 0.03473164 -0.020974781 0.032599427 0.023478616
0.028190378 0.04081912 -0.025624106 0.040626723 0.024512656 0.011383732 -0.02801372 0.03218686
-0.032921605 -0.008747263 -0.019871509 -0.020377383 -0.0011059379 0.035985205 -0.03371861 0.00020822618
0.032761723 -0.0025414412 0.0366932 -0.030123798 -0.03615599 -0.021508409 -0.019127795 0.005060746
-0.04007751 -0.0012303336 -0.014707765 -0.025080135 -0.01217537 -0.02115775 0.027940597 0.021226471
0.02923502 0.035630453 -0.032133546 -0.011125168 -0.001941853 0.01404849 0.01933924 0.031034222
-0.031153334 -0.010864055 -0.020512056 0.038208034 0.02033398 -0.016467785 0.005165509 -0.017406542
0.01781929 -0.03356385 0.0104640275 -0.0029372892 -0.028897125 -0.034578618 0.025247844 0.006808548
0.029499639 0.025726745 -0.031280663 0.0190482 0.03865181 0.008793015 0.033499397 0.028137436
0.017139414 0.035976417 -0.035750877 -0.02739018 -0.021150054 0.037167247 0.033079322 -0.0032479556
-0.022246359 -0.03282466 0.0053290543 -0.032740332 0.010462001 -0.013123258 0.04046228 -0.0146728605
0.01739895 -0.03482835 0.04008773 0.017277498 -0.024144677 0.027274428 0.0404065 -0.01005993
0.034581054 0.0025090012 0.021457171 0.037056614 -0.0016950368 -0.009584477 0.012869106 -0.0154844485
-0.014477826 0.0019444476 -0.040237725 0.036447685 0.021935998 0.007372633 -0.0027706206 0.031884745
0.00063878816 -0.018215802 -0.0058614304 0.03669161 5.0144452e-05 -0.013377124 0.031582486 0.002236827
0.013410966 -0.032165885 0.014866815 -0.027057892 0.0011013864 0.013872629 -0.019318841 0.022622962
0.02824013 -0.0008807389 0.025118306 -0.03201711 0.022099374 0.015043712 -0.0081459945 -0.035045832
0.0017246227 -0.032146312 -0.008938374 -0.040912848 -0.0022196523 -0.010887609 0.015435325 0.023739258
0.03107802 -0.033120148 0.020225562 -0.012432081 -0.0048224926 0.013345117 -0.030160611 0.0014157544
0.014949549 0.010191664 0.006586735 -0.014039384 -0.0037248756 -0.029704828 0.0064964513 0.029471928
-0.014003836 -0.034522552 -0.036858086 -0.036174137 0.018526042 0.014877857 -0.03403827 -0.003449764
-0.009216499 -0.03120556 0.025318848 -0.02864563 0.031844247 0.01705937 0.016647523 0.031431887

encoder.3.bias f4 [128]
00000000: 3693 133d b7cc e23b 080f c53c 2bba 863b
00000010: 60ec 8e3c dde1 0b3d 48a4 673c 3fa5 4dbc
00000020: abe0 b73c 58eb 8cbb 6cab 98b9 2a6b a4bc
00000030: c067 1a3c cdca 083d 140f cc3c ecd6 d0bb
00000040: ff14 cd3c 29d0 0bbd ae67 e73c 405e b2bc
00000050: eff3 8bbc 797c d9bc 5a45 1ebd 0772 67bc
00000060: f75c ae3c 9521 27bc a7c4 f63a 2edb 8ebc
00000070: 34bd 5cbc 88dd 3f3b cee1 233c dda3 93bb
00000080: 3ac1 063d 25b7 823b d2bf f6bb 8c0f 113c
00000090: 94cb f4bc 712d cebc 03c6 273c 62a2 373c
000000a0: f089 41bc d1d7 eebc f1c4 283c d2f6 12bc
000000b0: 8540 e6bc 0d05 643c 770f 0dbd 3ab6 07bd
000000c0: 94ed b43c cea1 33bc fe67 e33c 8ef4 033c
000000d0: 7c53 7f3c 8aeb 363b 2f42 48bc 7879 23bc
000000e0: 126f e73c 7f5d 1fbc 1692 653b 43d5 efbb
000000f0: 7afa eabc 720f 013d 2e29 b1ba 84e7 843c
00000100: d8f3 f1bc 4d94 163d 096a 503c 91d0 28bd
00000110: 6555 c8bb 57ba ba3b 89b9 1dbb 6099 febc
00000120: f114 dfbc 0d10 52bb d6d2 12bd bf4b 573c
00000130: acb7 293d 5584 953b d8f4 153d 5144 1abd
00000140: 4377 973a 4099 56bb a584 11bd d92f 663b
00000150: a8c0 113c 178d b4bc 2258 103c 586d f3bc
00000160: 62b5 ff3c 6b79 90bc d2d8 c0bc 03ba b1bc
00000170: 00af b43c a217 d9bc 4ee2 f7bc ef99 fabc
00000180: 7353 a13b 47cc b9bb 5558 64bc 1c38 2b3b
00000190: 99ee fd3c 6235 8dbc f747 a1bc b699 183c
000001a0: d753 14bc cb07 023d 09e1 bc3c caea d83c
000001b0: a961 8c3c d6c1 d73c 076c c7bc 22b1 193d
000001c0: df79 143d 98be 43bc 23c8 253d 15b9 9e3c
000001d0: ba71 223d fb85 c9bc 835c 1bbd b97f 9ebc
000001e0: 463f 09bd 1687 773c b50f 28bc 71fd e83c
000001f0: 4231 f5bc 9510 e83b 5f14 18bd 6b6a 0fbd
0.036029063 0.0069213766 0.024055019 0.0041115484 0.017446697 0.034150947 0.014138289 -0.012551605
0.022445997 -0.004300516 -0.00029119418 -0.020070631 0.00942415 0.03339653 0.024909534 -0.006373277
0.025034426 -0.034134064 0.02824768 -0.021773458 -0.01708409 -0.026548611 -0.038640358 -0.014126307
0.021284563 -0.010200878 0.0018826918 -0.017438497 -0.013472844 0.002927633 0.0100025665 -0.004505618
0.03289912 0.0039891177 -0.007530191 0.008853804 -0.02988223 -0.025168153 0.010240081 0.011208149
-0.011812672 -0.029155644 0.010300861 -0.008969979 -0.028106937 0.01391722 -0.034438577 -0.03313277
0.022085942 -0.01096387 0.027759548 0.008053912 0.015583869 0.0027911388 -0.012222811 -0.009977691
0.028251205 -0.009726881 0.00350297 -0.007319124 -0.02868389 0.03150887 -0.0013516301 0.016223677
-0.02953522 0.036762524 0.012720593 -0.04121453 -0.0061136954 0.005698483 -0.0024066886 -0.031078994
-0.027231665 -0.0032053024 -0.0358456 0.013140618 0.04143493 0.0045628943 0.036610454 -0.037662808
0.0011555929 -0.0032745153 -0.03552689 0.0035123734 0.0088960305 -0.022039933 0.008810075 -0.029715225
0.03121442 -0.017636022 -0.023540888 -0.021695143 0.022056103 -0.026500527 -0.030259278 -0.03059098
0.004923278 -0.0056701037 -0.013937076 0.0026125973 0.030997561 -0.017237369 -0.019687636 0.009313991
-0.009053192 0.031745713 0.023056524 0.026479144 0.017136412 0.026337545 -0.024343504 0.037522443
0.036249038 -0.011947297 0.04047407 0.019375363 0.03965924 -0.02460002 -0.037930023 -0.019348012
-0.033507608 0.015107891 -0.010257651 0.028441163 -0.029930715 0.007082055 -0.037128802 -0.035013597

decoder.0.weight f4 [64, 128, 3, 3]
00000000: 7379 543c fd20 dbbb e4a5 bf3c 7e56 423b
00000010: 4389 113b db17 f2bb 6ff0 963c 2338 913c
00000020: a984 7f3c a0b0 f2bb f394 d13c c7b9 513c
00000030: 29cb 07bc 10f2 8ebb 21d1 823c 3e5b 9339
00000040: a2dd 69bc 41d9 6a3c 7963 d6bb 0024 de3c
00000050: 6467 e23c 3e21 a1bc 6989 873c fa18 02bc
00000060: 2e5e 88ba 6c9b b9bc 4cac 89ba dc1d a93b
00000070: 95de 52bc f5d3 5dbc 62e9 feb9 c151 42bc
00000080: 0347 46ba 7e11 cfbc 2c58 8a3b 1b7f c2bc
00000090: 0094 afbc 982b 883c b00c 1a3c f7e9 823b
000000a0: 2b98 b9bc ab1f e3bb 77c3 ddbc 86e6 83bc
000000b0: 0d9b 303c 1cea c43c a133 cc3b 3d78 8cbc
000000c0: 977d 6e3a a7f9 bbbc 9826 e0bb cfe6 633c
000000d0: 65de 6dbc 8b74 ae3c dfb5 c4bc 541a f23b
000000e0: 7f65 74bc 4dc6 adbc cfa2 803c bb6d 21bc
000000f0: f678 b8bc 423c ed3b 15cd d6bc ea5a c7bc
00000100: 5d27 f23c 9ad6 5bbc d17f 9f3b c0f0 b23c
00000110: 3d7d 713c a151 c43c 7c4f 973b 3a44 dabc
00000120: 4acd e13b a8d5 833c 0af1 e5bc 40e6 a93c
00000130: bea6 603c b6c5 1e3c ba4a c2bc e3c0 0d3b
00000140: 5c67 8ebc a881 7f3c 99cc d7bc bcee ac3c
00000150: 2c15 cc3c ab30 2ebc 07c0 3d3c c964 b3bc
00000160: ead2 c5bc bae6 b4bc dbb3 89bb c3ab 63ba
00000170: bcf3 cabc 79ed e83c 931f 0a3b 92c6 6abc
00000180: 7df1 60bc b7fe a13c 7c65 8b3c 478f 9d3c
00000190: 59be 79bb a684 55bc 26fe 9ebc d0e9 573b
000001a0: 74ef a63c 0d9b c7bc f417 583c 45be 09bb
000001b0: 1544 b3bc 3990 2abc a49f 35bb c02f b03b
000001c0: 4cd1 f63c 7bab b83c a52c bfbc d8c5 62bb
000001d0: d457 8c3c 84aa a93b f1e2 11bc d54e 7bbc
000001e0: d05f a73c bb8d 1a3c 15d4 b9bb bda1 aebc
000001f0: c7b2 83bc bed3 bfbc ac0c a3bc dcc9 d03c
00000200: c4a4 6b3b 9106 e03c 08e8 113b 2579 9b3b
00000210: d740 803c 9603 763c ff1f c5bc d8e1 a73c
00000220: f078 e83c 89e9 c7bc f3a6 51bc e66c 40bc
00000230: d91c cabc a0a0 50ba 84f2 8b3c 3122 bfbb
00000240: 3e5e 323c 2a1b 6bbb 0c1d d73c 7c19 b7bc
00000250: 6117 f73c d617 f33c 62dd 9ebc 2171 4abc
00000260: a959 d73c dc97 bb3c 074a e93b 700d 9ebc
00000270: bc08 78bc 3b84 bf3c 404f 33bc bb6e a63c
00000280: 08b3 0a3c a2ed e03c 558b 74bc d433 ff3a
00000290: b002 2dba 4bf4 e53c d8c3 a5bb f67e 9a3c
000002a0: ab43 25bb 5d13 e43b 3392 c2bc 4c71 3a3c
000002b0: 4111 aabb 1957 a739 33b8 ce3c 1c15 3cbc
000002c0: 882c f33c 6402 a3bc 658c c4ba f7dd a83c
000002d0: 33d7 4ebc c70d a13c c428 65bb ff79 963a
000002e0: 3d3f a13b d056 ef39 1f2a 52bc 70e1 9e3a
000002f0: afc2 d2bc 75df eabb b054 5e3a a144 1c3c
00000300: 5f48 d73c 2527 bd3c 1663 273c 4e0a 59bb
00000310: 98d4 9dbc e63a cc3c 7140 a7bb eae1 4ebc
00000320: 0665 2039 3397 6bbc d150 67bc b00f ad3c
00000330: bd94 98bc 5155 0bbc 90a6 b0bb 7ab7 dfbc
00000340: 9e55 91bc 9edf 8abc c2e9 e83c 71e7 e4bc
00000350: fa55 a33b 330e 0d3c 9823 b33c e694 863b
00000360: c51e c0bc b4db c53b 77df 833c e7bf 583c
00000370: 6f7c f5ba 37f4 e73c 5b62 0e3c 3962 d23c
00000380: 02c7 c43c b8dc e43c a826 33bc 430a a6bc
00000390: 4ea2 c43c 2177 6aba 7fff 893c 2741 f03c
000003a0: c12f d03b eee4 c73c a6d0 9c3c 79c8 f53c
000003b0: 1acf 923c 28b2 ba3b f2c2 973b 1038 0f3c
000003c0: ba4e eb3b 6bb1 87bc cf66 673b f796 d5bb
000003d0: 81f8 093c 1a05 85bc 6e97 f33c 0551 413c
000003e0: aff6 aa3b c342 bc3b b15a d83b f909 d03b
000003f0: 6495 e43c 32c3 a5bc 5da6 c53b ed3b a03c
0.012968409 -0.006687282 0.023394533 0.0029653604 0.0022207059 -0.0073880977 0.018425195 0.017726963
0.0155955935 -0.0074063092 0.02558372 0.01280064 -0.008288183 -0.004362352 0.015968861 0.00028106006
-0.014274033 0.014334024 -0.00654262 0.027116776 0.027637191 -0.019669171 0.016545014 -0.007940525
-0.0010404044 -0.022657119 -0.0010503619 0.00516103 -0.0128704505 -0.013539304 -0.0004862054 -0.011860312
-0.0007563682 -0.025276896 0.0042219367 -0.02374225 -0.021432877 0.01662235 0.009402439 0.003995176
-0.022655567 -0.0069312654 -0.027070744 -0.016101133 0.0107791545 0.024037413 0.0062317406 -0.017147178
0.0009097694 -0.022946192 -0.0068405382 0.0139100095 -0.014518355 0.021295806 -0.024012504 0.0073883925
-0.014916777 -0.021212721 0.015702633 -0.009852822 -0.022518616 0.0072398493 -0.026220838 -0.024335343
0.029559786 -0.013417864 0.004867532 0.021843314 0.014739332 0.023964705 0.0046176296 -0.026643861
0.0068909274 0.01609309 -0.028069038 0.020739675 0.013711629 0.009690693 -0.023717273 0.0021629862
-0.01738327 0.015594877 -0.026342677 0.021109931 0.02491244 -0.010631721 0.011581427 -0.021898644
-0.024148423 -0.022082675 -0.0042023486 -0.0008684957 -0.024774425 0.028433548 0.0021075949 -0.014329569
-0.01372945 0.019774778 0.017016165 0.019233359 -0.003810784 -0.013032114 -0.019408297 0.003294576
0.020377852 -0.024365926 0.013189305 -0.002101795 -0.02188305 -0.010410362 -0.0027713561 0.005376786
0.030129097 0.022542706 -0.023336718 -0.0034602787 0.017131723 0.0051777977 -0.008904205 -0.015338619
0.02043143 0.009433205 -0.005671034 -0.021317357 -0.016076459 -0.023416396 -0.019903503 0.025486879
0.0035956362 0.027346881 0.0022263546 0.004744666 0.015655918 0.015015503 -0.024063108 0.020493433
0.02837798 -0.02440335 -0.012796151 -0.011744713 -0.024671959 -0.00079585053 0.017083414 -0.0058329334
0.010886727 -0.0035874345 0.026258968 -0.02235102 0.030162515 0.029674452 -0.019392673 -0.012356074
0.02628787 0.02289956 0.0071194205 -0.019293517 -0.015138801 0.023378482 -0.010944188 0.020316472
0.008465536 0.027457062 -0.0149257975 0.0019470402 -0.0006599827 0.02807059 -0.005058747 0.018859368
-0.0025217335 0.006960316 -0.023751354 0.011379551 -0.005190045 0.00031917615 0.025234317 -0.011479642
0.02968432 -0.0198986 -0.0014995454 0.020613654 -0.01262455 0.01965989 -0.0034966925 0.001148045
0.0049208687 0.00045650313 -0.012827425 0.0012121629 -0.025727598 -0.0071677514 0.00084812474 0.009537847
0.026279626 0.023089955 0.010216495 -0.0033117714 -0.019266412 0.024930429 -0.0051041176 -0.012627104
0.00015296423 -0.01437931 -0.014118389 0.021125644 -0.018625611 -0.008504228 -0.0053909495 -0.027309168
-0.01774102 -0.016952332 0.028431777 -0.027942391 0.0049846144 0.008609342 0.021867558 0.0041071055
-0.023452172 0.0060381535 0.016097767 0.013229347 -0.0018729101 0.028314693 0.008690442 0.025681602
0.024020676 0.027937278 -0.010934509 -0.020268565 0.024003174 -0.0008944143 0.016845463 0.029327942
0.006353349 0.024401154 0.01914246 0.03000282 0.01792102 0.0056975074 0.0046313936 0.008741394
0.007181016 -0.016564092 0.0035309081 -0.0065182406 0.008421064 -0.016237784 0.029735293 0.011799102
0.0052173953 0.0057452633 0.006602608 0.006348845 0.027903266 -0.020234678 0.006031795 0.019559825

decoder.0.bias f4 [64]
00000000: 0e64 b13a 5d8e dc3b ef40 c53c 002e ae3b
00000010: f0b3 ec3c ab7a e0bc 7545 683c 537a a33b
00000020: 7ea4 f53c 470f d4b9 0139 69bc a15e 8b3b
00000030: 95f8 b43c 75c5 77bc c8b2 b93c 2392 afbc
00000040: 05fb 23bb a521 5fbb 6a2c 93bc 6e4e a1bc
00000050: d072 1aba bc3d ea3c adaf 813c d404 ca3b
00000060: 199b c8bb b777 7cbc a348 473c da26 15bc
00000070: 7e21 ca3b 2219 b43c f4ae 253c 6424 d7bb
00000080: a548 ec3c fec8 66bc 8ec5 b6bc ea43 a43c
00000090: 0b49 7cbc f5c1 48bc 78df 1c3c a471 c53b
000000a0: 398a f5ba da70 dbbc 559a af3c 6f1a b6bc
000000b0: c708 a43a 4264 d83b 2d4b d43c 31fc a03c
000000c0: 8735 933b f93a 3b3c 82e2 1b3c eb88 ff3b
000000d0: 7974 e4bc 89dd 563c 78dd aebc b567 ce3c
000000e0: d65e 503c a603 283c 4c23 ca3c 8cd5 0f3c
000000f0: 3791 fcbb 27ac c53c 6870 c3bb 5b31 babc
0.0013533847 0.006730838 0.024078814 0.005315542 0.028894395 -0.027402243 0.014176716 0.0049889474
0.029985663 -0.00040447174 -0.014234782 0.004253224 0.02209119 -0.015122761 0.022668257 -0.021431988
-0.0025021445 -0.0034047153 -0.017965514 -0.019690719 -0.0005891742 0.02859389 0.015830839 0.0061651263
-0.0061220047 -0.015409402 0.012163314 -0.009103501 0.0061685434 0.02198464 0.010112513 -0.0065656174
0.028843233 -0.014086006 -0.022310998 0.020051915 -0.015398274 -0.012253274 0.0095747635 0.00602551
-0.001873321 -0.02678721 0.021435896 -0.022229401 0.0012514823 0.0066037485 0.025914753 0.019651504
0.004492465 0.011427634 0.009514453 0.0077983043 -0.02788757 0.013114342 -0.021345839 0.025195936
0.012717923 0.010254776 0.024675034 0.008778941 -0.0077077406 0.02412994 -0.0059643276 -0.022728613

decoder.3.weight f4 [32, 64, 3, 3]
00000000: 6269 0b3d 720d 923c 991b ecbc 99d8 553c
00000010: 5df6 d0bb 0ff7 1fbd fe35 21bd b67a 0a3d
00000020: 48dc 1e3d b8dd e6bc f721 bbbc 0ae5 273d
00000030: a388 bb3b aeea cb3c 426d 8abc 23b5 d2bc
00000040: 76f3 db3b 1d16 a03a 9e27 c1bc 27d3 06bd
00000050: 5d32 3dbc 5ff1 a7bc 5224 a83c 7911 6dbc
00000060: 563c 213d 2716 e9bc 7a90 883b fde9 6e3c
00000070: fcdf e7bc 4c9d 1e3d 411a d53c 1fa9 b3ba
00000080: 0d39 083b 8500 eebc ee26 87bc fdc2 1b3d
00000090: 8be4 d73c e7fe 5dbc 439b 78bc 44ad 063c
000000a0: d739 21bd ac68 a9bc 2809 513c 778b 5ebc
000000b0: de2f 353a e958 c0bc b329 bd3c 598e 0abc
000000c0: b1b0 e8bc 3f4a 71bc c2fd 1d3d 7d3c 39bc
000000d0: 0ab1 87bc ea3a 1ebc 93c1 0c3d f4ff b2bc
000000e0: eaff 81ba 8310 a2bc 61b2 c53c 6c7a 283d
000000f0: 6a74 0f3d 4a9e 023d 5c58 a2bc f557 123d
00000100: 9350 9fbc a784 c0bc 41a2 b4bb 5929 1c3d
00000110: cf43 37bc e792 193d 59ec b1bb 3634 00bc
00000120: a5b6 ffbb 1cdc 02bb 470b c2bc 5fba 11bd
00000130: 2485 dfbc 703b 033d 53ca 123d 90f1 b53b
00000140: dc7b fcbc 33eb 5bbc 04e9 243d 1865 6a3b
00000150: 0c46 fbbc 5504 273c 12c9 0d3d 6be6 a23c
00000160: b134 ae3c d47a b13c 338b cabc 31d9 fe3c
00000170: 684e 20bd 4d91 7cbb 8544 183d b60b 553c
00000180: b1af 22bd 3ee4 11ba 1902 1d3a 6cf0 23bd
00000190: e079 5dbc eb88 bb3c 5614 743b a662 c83c
000001a0: 8a23 0fba 3d76 f63b 71c5 183b 28b9 173d
000001b0: 386a 4cbc 33e9 c9bc 3bbc fe3c 2ba7 45bc
000001c0: c6ee dc3c 3ac3 1f3a 06f3 173d 2d1e bb3b
000001d0: 3fc4 a33c 285f 103d 6ca4 cb3c 7faa 0d3d
000001e0: 82ad 03bd 25ec 02bd 1e91 ddbc 097e 723c
000001f0: 150f 0dbd d50a a7bc 0f0c dbbc a160 07ba
00000200: f898 9d3c 682a 0c3d c25a 213d 44dd 003d
00000210: 7668 243c cb0b a539 78ff 173d 6aba 0a3d
00000220: 16cb adba 0caf 003a 1206 90bc 2833 3abc
00000230: ef69 c13c e9f8 043b 7ee8 953b a0ca 853c
00000240: 59be 98bb 7420 77bc 855c d9bc 3588 f03b
00000250: 2481 90bb ff02 ff3c cf43 7cbc df84 70bc
00000260: 2807 87bc 6fde 21bd 1968 9ebc 0c53 97bc
00000270: 6d86 073d 77a2 bfbc 5678 063d 51b9 a7bc
00000280: a99a fb3a bfd2 5a3c a8ae 33bc ed58 003c
00000290: 6900 153c ff8e ec3b 8c89 cf3c 1a01 243d
000002a0: b478 243c 4996 0a3c 7d41 cbbc 7bf8 05bd
000002b0: b356 85bc c2a1 e33c 948d f839 18c7 3dbc
000002c0: 3578 8cbc a746 f8bc f1f9 0bbd 95f7 c43c
000002d0: 47ee 81bc abaa ba3c 7bd5 0b3d e5d2 20bc
000002e0: 2c8c e63c 14ca b4bc 3d3a 0dbc 7f5d 123d
000002f0: d58d c4b9 4a37 453c a6e8 9f3c a9a7 a4bc
00000300: 4bbe d43b 7321 15bd 7a5c 4ebc 3222 6f3c
00000310: 347b e2bb a5db 13bd 2a39 6f3c 7fa6 123d
00000320: 5a83 c13c 8375 8ebc ff53 4ebc 7aed d1bc
00000330: 7856 5ebc 1b88 dbbb 7738 0b3d dc8a 4bbc
00000340: f45a 213d 618b 1ebd 0609 1f3d eb82 be3c
00000350: d4bb c8bc 3092 b5bb 5974 adbc 3297 be3a
00000360: 031e e73c c523 dbbc 87f4 9fbc 367b 51bc
00000370: d986 d03c b58a f23b 918f f6b8 786f ce3c
00000380: 9d33 2ebc 9bbe 1cbd d8e6 563b b0d0 93bc
00000390: 57fa 0b3d 21a7 113d 6f7c 0f3c e14d aabc
000003a0: a659 153d 18b7 cb3c 278e 16bd 53d3 48bc
000003b0: 04e6 a939 6d90 143d 0912 1cbd ff37 e1bc
000003c0: 632c 16bc b25a 06bd 16ee f23c bc05 83bb
000003d0: 28fa c63b e109 9dbc 08cb cdbb 965c dfbc
000003e0: 6036 8bbc 2dd8 d4bc d75f ddbc 7771 1bbd
000003f0: 1a3b b9bb 4225 78bc da8f 0d3d abe2 913c
0.034036048 0.017828677 -0.028821753 0.013052129 -0.006377025 -0.039053973 -0.03935813 0.033808433
0.038784295 -0.028181896 -0.022843344 0.040989913 0.0057230755 0.024892177 -0.016897801 -0.025721138
0.0067123724 0.0012213622 -0.023578461 -0.032916214 -0.011547652 -0.020500837 0.020525131 -0.014469498
0.03936418 -0.028452946 0.0041676136 0.014582154 -0.028305046 0.03872423 0.026013495 -0.0013707018
0.0020785958 -0.029052982 -0.016498055 0.038027752 0.026354095 -0.013549543 -0.015173736 0.008220021
-0.0393618 -0.020679794 0.012758531 -0.013583056 0.0006911735 -0.023479896 0.023091173 -0.00845679
-0.028404566 -0.014727174 0.03857208 -0.011305925 -0.016563911 -0.009657601 0.034364294 -0.021850564
-0.0009918187 -0.019783264 0.02413291 0.041132376 0.03502313 0.031889237 -0.019817524 0.035728414
-0.0194476 -0.023500754 -0.0055125062 0.03812537 -0.0111856 0.037493613 -0.005429786 -0.007824948
-0.0078037553 -0.0019967621 -0.023687018 -0.035578128 -0.027285166 0.032039106 0.035837483 0.005552478
-0.03082078 -0.013422775 0.040261284 0.0035765823 -0.03067305 0.010193904 0.034615584 0.019885262
0.02126536 0.021665014 -0.024724578 0.031109424 -0.039137274 -0.0038538754 0.03717472 0.01300328
-0.039718334 -0.0005565322 0.0005989387 -0.040024206 -0.013517827 0.022892436 0.0037243566 0.024461102
-0.0005460313 0.0075214193 0.0023311044 0.037041813 -0.012476496 -0.02464733 0.031095615 -0.012063782
0.026969325 0.00060944597 0.037097 0.0057103843 0.019991038 0.035246998 0.024858676 0.034586426
-0.03214789 -0.031963486 -0.027046736 0.014800557 -0.03443821 -0.020390907 -0.026739148 -0.000516424
0.01923798 0.03422013 0.039393194 0.031461015 0.010034671 0.0003148004 0.03710887 0.033869185
-0.0013259377 0.00049088965 -0.01758102 -0.011364736 0.023610083 0.0020289964 0.0045748344 0.01633197
-0.004661363 -0.015083421 -0.026533375 0.007340456 -0.004409926 0.031129358 -0.015397026 -0.014680116
-0.016482905 -0.03951877 -0.019336747 -0.018472217 0.033087183 -0.023392899 0.032829605 -0.020474108
0.0019195873 0.01335591 -0.010966934 0.007833702 0.009094336 0.007219195 0.025334142 0.040040113
0.0100385435 0.008458682 -0.0248115 -0.032707673 -0.016276693 0.027787093 0.0004740773 -0.011583112
-0.017147163 -0.030307127 -0.03417391 0.024043838 -0.01586069 0.022786459 0.034139138 -0.009815906
0.028143011 -0.022069015 -0.008619842 0.035733696 -0.00037489706 0.012037108 0.019520115 -0.020099478
0.0064924113 -0.036408853 -0.01259529 0.014595555 -0.0069116596 -0.03609814 0.014601031 0.035803314
0.023622204 -0.017390018 -0.012593268 -0.025625933 -0.01357042 -0.0066995746 0.033989396 -0.012423243
0.03939338 -0.03870714 0.038826965 0.023255786 -0.024503626 -0.0055411085 -0.021173643 0.0014540909
0.028212553 -0.026750455 -0.01952578 -0.012785723 0.025454925 0.007401789 -0.000117569354 0.025199637
-0.010632423 -0.038267713 0.0032791402 -0.018043846 0.03417429 0.035559777 0.008757695 -0.020789089
0.03646245 0.02486758 -0.03675666 -0.012257415 0.00032405567 0.036270548 -0.038103137 -0.027492521
-0.009165856 -0.032801338 0.029654544 -0.0039984863 0.0060723014 -0.01916975 -0.0062803067 -0.027265828
-0.016993701 -0.025981987 -0.027023239 -0.037950005 -0.0056527974 -0.015145602 0.034561016 0.017808279

decoder.3.bias f4 [32]
00000000: 704d a3bc c044 123d 3cb8 e2bc ebb5 09bb
00000010: 6a2e 493c d2ba 073d 8808 9fbb 861b f4ba
00000020: 7251 04bd dd65 ccbb ce4c f53c a53c 9bbc
00000030: 7389 be3c 5087 25bd 589d f8bc cd84 07bd
00000040: 100e 29bd 9136 8c3c eab0 133c 54c8 0dbd
00000050: e554 29bd a55a 14bd 2972 ee3c fc57 2dbd
00000060: 8696 10bd 0b8a cd3c c3b7 ffbc 1e68 e0bc
00000070: 5c41 9fb9 78bb a8bc fe3a 1e3c debc 06bb
-0.019934386 0.035710096 -0.02767574 -0.0021012973 0.012279132 0.03313715 -0.004853312 -0.0018623925
-0.032304235 -0.006237729 0.02994385 -0.018949816 0.0232589 -0.040412247 -0.030348465 -0.033085633
-0.041273177 0.017115863 0.009014348 -0.034614876 -0.041340727 -0.036219258 0.02910717 -0.042320237
-0.0352998 0.025090238 -0.031215554 -0.027393397 -0.0003037554 -0.020597205 0.0096576195 -0.002055935

decoder.6.weight f4 [1, 32, 1, 1]
00000000: b0d5 ef3c d5d7 bebd eeca be3d 6f0f 87bc
00000010: 6c08 33be 388f a9bd 390f 543a 3ee8 0f3e
00000020: acc9 a8bd a775 933d 951c b2bd b964 26bd
00000030: 2f5d 11be 50c7 e13c 8be6 cc3d e925 01bd
00000040: d222 143d fda0 623d a447 14be 8c3b 17be
00000050: fbb9 0b3e ef64 333e 5b3a c93d 8e1b 043e
00000060: a3c7 483d 09d3 e13d 4736 afbd 2522 aa3d
00000070: e859 9e3c 9067 eb3d ddd1 8dbd 0673 cdbc
0.029276699 -0.093185104 0.093160495 -0.016486851 -0.17483681 -0.0827927 0.00080894266 0.14053437
-0.08241591 0.07200175 -0.08696858 -0.0406234 -0.14195703 0.02756086 0.1000491 -0.031530295
0.03616602 0.05532931 -0.14480454 -0.14768809 0.13645165 0.17518972 0.098255835 0.12901136
0.049018513 0.1102658 -0.085552745 0.08307294 0.01932998 0.11494362 -0.06924794 -0.025079262
