checkpoints/2025-05-30-16-27-39/last_epoch.pth (torch, 675371 bytes, 9 tensors)

encoder.0.weight f4 [64, 3, 3, 3]
-0.002971609 0.1373032 -0.11210923 0.1536859 0.03934015 0.021409862 0.04736795 0.1609495
0.105542086 0.1425774 -0.079454154 -0.006053686 -0.1614595 0.11815874 -0.06916962 0.11027365
-0.15147969 0.050034508 -0.1700063 -0.07550515 0.18801075 0.0783684 0.04946006 -0.039074194
-0.10351822 -0.18587904 0.12826307 -0.1926512 -0.034407172 -0.17179292 -0.15231568 0.05216583
-0.16019543 0.11772245 -0.052917004 0.17605452 0.17265841 0.17659324 -0.13354857 0.027445223
-0.10264431 -0.13849004 -0.09622077 0.03984538 0.18439966 -0.0017239903 -0.13112757 -0.054387074
-0.111895815 0.16000223 0.0031366947 0.07774932 -0.107216425 0.12977065 -0.07861931 -0.0521172
0.18442552 -0.14107738 -0.011496999 0.043112606 -0.09426416 0.013961051 0.1090728 -0.14244482
-0.048136067 -0.064574905 0.18269166 -0.1037807 -0.14897911 0.10910581 -0.029432314 0.14199683
0.14916027 0.08959127 0.12919863 0.11760444 -0.017659025 -0.16634567 0.0029344931 -0.06659313
0.13636446 0.02169642 0.027693791 0.18751906 -0.15656434 -0.06870302 0.17498118 0.047392875
0.061101284 0.13579585 0.06201575 -0.04239338 0.14359985 0.0041045137 -0.019222625 -0.17080447
-0.039942063 0.11988557 -0.033924296 0.034831896 -0.13189045 -0.06710739 -0.12424725 0.02975145
-0.055725276 -0.07081606 0.10881783 0.015498247 -0.090304255 -0.15363547 0.09359545 -0.17368123
-0.18640578 -0.13875793 -0.10776521 -0.13760552 -0.016134987 -0.13046698 -0.12058373 -0.16054146
-0.15063383 -0.09830436 -0.10756378 0.045051735 0.042355437 -0.04185858 -0.19142917 -0.17187083
-0.1453119 -0.029089086 0.11120087 0.018559014 -0.055205453 0.00529869 -0.16519201 -0.19017394
-0.17559057 -0.010902435 -0.059722997 -0.02041553 -0.033198398 -0.101313874 0.09967623 -0.0530961
-0.14293432 0.04212615 0.16914742 -0.035146926 0.093858674 -0.08068065 -0.13667381 -0.01540884
-0.12655582 -0.03339295 -0.1618575 -0.15248924 0.121145785 -0.18979144 0.0779575 0.15893728
0.011124767 0.1378154 0.03535126 -0.044843 -0.12377673 0.0022833657 0.10883658 -0.006990347
-0.10674139 0.10989981 0.1357128 -0.054091066 -0.02384186 0.06646626 -0.11602765 0.04334829
-0.048901923 -0.04483755 -0.047057997 -0.16313563 -0.0056607183 -0.19316994 -0.029935531 0.01916431
0.047562025 -0.1336997 -0.0008486937 0.17764314 -0.11504905 0.16126518 -0.10034005 0.07724339
0.10027686 0.16378479 -0.1209656 0.10975383 0.15442301 -0.04938375 0.17015807 -0.058972463
0.068833776 0.133685 -0.08222515 0.00058192114 0.07967862 0.10745636 0.059350997 0.043997653
-0.15628362 0.0036874395 0.18867712 -0.1605196 -0.09286612 -0.0039744265 -0.0044490434 -0.041883785
0.15928826 0.089568585 -0.18162675 0.14429496 0.0007390278 0.054992124 0.1397603 0.0019618918
0.030257288 -0.09559039 0.05340674 0.1363662 0.012748597 -0.19025284 0.09066336 0.053337317
-0.12676904 -0.11888178 0.12441982 -0.07108613 0.079498224 0.09542107 0.12424356 0.06211764
-0.07213992 -0.12168559 -0.16852885 -0.030119795 -0.033234965 0.1220051 -0.1468255 -0.13101071
-0.098737784 0.034963373 -0.06685563 0.17673364 0.055969976 0.06394807 -0.054527562 0.02419518
00000000: 53bf 42bb 3699 0c3e 8699 e5bd d65f 1d3e
00000010: 2323 213d bc63 af3c e504 423d f2cf 243e
00000020: 7326 d83d cfff 113e dcb8 a2bd 005e c6bb
00000030: a455 25be 36fd f13d cda8 8dbd 27d7 e13d
00000040: 7e1d 1bbe fcf0 4c3d 2216 2ebe 72a2 9abd
00000050: e485 403e 9d7f a03d a296 4a3d 430c 20bd
00000060: 5c01 d4bd 1357 3ebe 6557 033e 5b46 45be
00000070: 89ee 0cbd 7cea 2fbe a4f8 1bbe d6ab 553d
00000080: 450a 24be 7818 f13d 80bf 58bd a347 343e
00000090: 5ecd 303e dcd4 343e f5c0 08be ced4 e03c
000000a0: 2e37 d2bd 55d0 0dbe 650f c5bd e934 233d
000000b0: 44d3 3c3e 84f7 e1ba 4e46 06be fbc4 5ebd
000000c0: a229 e5bd a0d7 233e 0191 4d3b 093b 9f3d
000000d0: 4994 dbbd 99e2 043e 2903 a1bd d878 55bd
000000e0: 0bda 3c3e 9776 10be e95d 3cbc d896 303d
000000f0: 910d c1bd e4bc 643c 8f61 df3d 0edd 11be
00000100: 532a 45bd d93f 84bd 8613 3b3e fa8a d4bd
00000110: fb8d 18be de72 df3d 091c f1bc 9e67 113e
00000120: 78bd 183e a17b b73d a54c 043e 99da f03d
00000130: a9a9 90bc 8556 2abe a050 403b fb61 88bd
00000140: 20a3 0b3e b1bc b13c 17de e23c ff04 403e
00000150: 6752 20be 2bb4 8cbd 442e 333e 081f 423d
00000160: 5745 7a3d 110e 0b3e 3a04 7e3d aea4 2dbd
00000170: d70b 133e 287f 863b c478 9dbc 5ee7 2ebe
00000180: 4a9a 23bd 9186 f53d 34f4 0abd e4ab 0e3d
00000190: 4a0e 07be 996f 89bd 5875 febd 50b9 f33c
000001a0: 3040 64bd 0308 91bd e2db de3d 5cec 7d3c
000001b0: 70f1 b8bd 9e52 1dbe f9ae bf3d 7ed9 31be
000001c0: 28e1 3ebe 8f16 0ebe 02b4 dcbd 76e8 0cbe
000001d0: 852d 84bc 2399 05be 9af4 f6bd fb64 24be
000001e0: c13f 1abe cc53 c9bd 664a dcbd 2b88 383d
000001f0: e57c 2d3d e773 2bbd 0206 44be e8fe 2fbe
00000200: a5cc 14be 3c4c eebc 48bd e33d 1309 983c
00000210: 1d1f 62bd a2a0 ad3b 1828 29be f5bc 42be
00000220: 04ce 33be 20a0 32bc 1aa0 74bd 783e a7bc
00000230: 0bfb 07bd a67d cfbd 0d23 cc3d 4c7b 59bd
00000240: 605d 12be 788c 2c3d fb34 2d3e 39f6 0fbd
00000250: fa38 c03d e63b a5bd 38f4 0bbe 5c75 7cbc
00000260: d997 01be 0cc7 08bd f9bd 25be 2426 1cbe
00000270: 481b f83d b058 42be 2fa8 9f3d 74c0 223e
00000280: a844 363c 7b1f 0d3e 7ccc 103d 4bad 37bd
00000290: a77e fdbd 85a4 153b b6e5 de3d 480f e5bb
000002a0: 3b9b dabd 2713 e13d 4cf8 0a3e 988e 5dbd
000002b0: 0150 c3bc 761f 883d e89f edbd fa8d 313d
000002c0: 624d 48bd 94a7 37bd e3bf 40bd 070d 27be
000002d0: 8c7d b9bb 57ce 45be 5c3b f5bc 79fe 9c3c
000002e0: 66d0 423d 93e8 08be df7a 5eba 15e8 353e
000002f0: d69e ebbd b322 253e 167f cdbd c831 9e3d
00000300: f45d cd3d 33b7 273e d0bc f7bd 9ec6 e03d
00000310: 1121 1e3e 9d46 4abd eb3d 2e3e 1c8d 71bd
00000320: b9f8 8c3d b8e4 083e a965 a8bd 118c 183a
00000330: 8b2e a33d 1412 dc3d 081a 733d e236 343d
00000340: d008 20be f8a8 713b 9334 413e 405f 24be
00000350: 9830 bebd e83b 82bb 48c9 91bb 558e 2bbd
00000360: 761c 233e bc6f b73d 5dfc 39be 0fc2 133e
00000370: 51bb 413a 6c3f 613d 531d 0f3e 1593 003b
00000380: 22de f73c e5c4 c3bd 07c1 5a3d 95a3 0b3e
00000390: 7edf 503c a4d1 42be b6ad b93d 3b78 5a3d
000003a0: becf 01be 4a78 f3bd d2cf fe3d 9b95 91bd
000003b0: f7cf a23d 1f6c c33d 6873 fe3d 116f 7e3d
000003c0: 18be 93bd 4b36 f9bd d492 2cbe cabd f6bc
000003d0: 6321 08bd cfdd f93d 6d59 16be ac27 06be
000003e0: 0937 cabd c135 0f3d 9beb 88bd aaf9 343e
000003f0: c640 653d 35f7 823d 4b58 5fbd f834 c63c

encoder.0.bias f4 [64]
0.149783 -0.08943105 0.17480804 -0.1337776 -0.06491467 0.030835534 -0.0015509872 0.03680156
0.06362936 -0.039272644 -0.063194565 -0.066951565 -0.13251567 -0.040750213 -0.0756511 -0.03670788
-0.025197297 -0.026620165 0.13037163 0.13180652 -0.17851473 -0.09405613 0.1032773 0.13073465
-0.15080388 -0.17957804 0.08520819 0.106724195 -0.13887173 0.052568786 0.14544845 -0.09776346
0.16542682 0.00333367 -0.0051774527 0.08873572 0.061794527 0.16658328 -0.12833868 0.04949014
0.043502275 -0.060353197 0.14426017 0.09539883 0.12995248 -0.18374872 0.01099938 0.05425501
0.14748298 -0.024256198 0.107515454 0.100065626 0.05425843 -0.14625598 -0.1413635 -0.1869685
-0.04789536 0.08309062 -0.10014143 0.13786824 -0.13679497 0.16917042 -0.12342414 -0.052384805
00000000: b760 193e a027 b7bd e100 333e fffc 08be
00000010: fcf1 84bd cd9a fc3c 7f4a cbba 3cbd 163d
00000020: 1c50 823d 5adc 20bd 276c 81bd e71d 89bd
00000030: 30b2 07be b2e9 26bd f7ee 9abd 015b 16bd
00000040: 906a cebc 8812 dabc 2480 053e 4af8 063e
00000050: 91cc 36be 80a0 c0bd 0d83 d33d 4edf 053e
00000060: 556c 1abe 4ee3 37be a281 ae3d 3792 da3d
00000070: 6434 0ebe 5e52 573d 70f0 143e 3538 c8bd
00000080: a665 293e b479 5a3b 9fa7 a9bb 13bb b53d
00000090: 421c 7d3d cf94 2a3e 376b 03be 2cb6 4a3d
000000a0: 712f 323d ea34 77bd f0b8 133e 7660 c33d
000000b0: 4312 053e a028 3cbe be36 343c 803a 5e3d
000000c0: c705 173e efb4 c6bc 1031 dc3d 35ef cc3d
000000d0: 163e 5e3d 21c4 15be 98c1 10be ac74 3fbe
000000e0: ed2d 44bd 6a2b aa3d f316 cdbd 552d 0d3e
000000f0: fb13 0cbe 033b 2d3e ccc5 fcbd 7391 56bd

encoder.3.weight f4 [128, 64, 3, 3]
0.0386619 0.018474335 -0.022898616 -0.022939265 0.042309828 0.0042978497 0.02005853 0.02871331
-0.0005346629 0.0020471935 -0.010008541 0.019067334 -0.021797258 -0.029193413 -0.0032510513 -0.008539957
0.03955599 0.005828981 0.019594822 0.0036642766 0.03857297 -0.029110767 -0.0024983175 -0.034804083
0.009475623 0.033516057 0.036864016 -0.005868249 -0.009507182 0.02513697 0.011562317 0.0074449293
0.00096691446 0.034013584 0.039411947 -0.033629984 -0.021052023 0.029011063 0.021546423 0.0019207108
-0.009797782 -0.03996554 0.033672743 -0.01097869 0.0145059535 -0.03360052 -0.0032070777 -0.038307376
0.03932347 0.0069606593 0.022511434 -0.015394113 -0.0026849161 -0.006995304 0.007112964 -0.019869246
0.014335113 -0.030921267 0.022331154 0.036635928 0.0050703436 -0.005575155 -0.0054579577 -0.018314425
0.030950598 -0.032725982 0.010520998 -0.038799513 -0.010118776 0.002362258 0.0056112157 0.024681266
-0.029589895 -0.0039872928 0.017163537 0.030826699 -0.0056716953 0.024067728 0.021507625 -0.013370213
0.0370369 -0.026710117 0.013250827 -0.01466874 0.028315058 -0.014158627 -0.03690354 -0.025253056
0.042420153 0.0297219 -0.030597424 -0.007320955 -0.023011312 -0.0083338525 -0.037221674 0.007088906
-0.007698774 -0.0071504274 -0.012324986 0.012430244 0.024158103 0.017707936 0.022574171 -0.012385725
0.033516776 0.009800439 -0.0075112795 -0.00093471986 0.02434392 -0.029421763 -0.0015255262 -0.012822339
-0.0028705003 -0.015848603 -0.015007871 0.03728189 -0.031686865 -0.04013376 -0.031279277 0.04224751
0.0052561904 0.006522482 -0.02832495 -0.026545519 -0.033547297 0.039498545 -0.01690366 0.041485947
-0.024817847 0.0022598165 0.010322951 0.02240855 0.010205359 -0.018170895 0.0058948305 0.029216452
0.0011899563 -0.025472611 0.034454104 0.037604257 0.032858305 0.007693154 0.04229909 0.029078988
-0.022694645 -0.033314303 0.038183972 -0.006661258 -0.030857783 -0.0009142394 0.022015488 0.036196947
-0.036571987 -0.037298296 0.011785678 -0.040085074 0.017276295 -0.015741171 0.0041839895 0.022429157
0.007292763 -0.019474462 -0.032927312 0.015380985 0.042313464 -0.002568473 0.0069922507 -0.021654896
0.0030380643 0.03508344 -0.0117400065 0.026168954 0.02438438 -0.014955054 -0.009560954 0.0040749917
0.011181128 -0.024845013 0.021131968 0.032118388 -0.038851425 0.0035911223 0.034530114 -0.035453856
-0.011957864 0.03351942 -0.01590934 0.04226499 0.04100459 0.034997914 0.02754018 -0.034071866
-0.023623992 0.016063968 0.035476357 0.025944134 0.029007733 -0.023885954 0.0057067224 0.03604751
0.034715693 -0.023588648 -0.02497273 0.01408838 0.037017703 0.0016295229 -0.019017113 -0.017073153
0.033414148 0.0024881118 0.03758323 -0.014303646 -0.028462037 0.009724317 -0.03713651 0.039026838
0.008410457 0.0094810305 0.01648912 -0.005733805 0.018858079 -0.005035288 0.04241061 -0.037914775
0.012498195 -0.02106252 0.01640708 -0.014205033 -0.018606855 -0.03765173 -0.0010175535 0.004664056
-0.0070748716 0.024970245 0.030130323 0.006635813 -0.017608475 -0.038133062 -0.028095307 -0.010401112
0.004692834 -0.019581856 -0.03659383 0.04207232 -0.01986713 0.0018405649 -0.026407463 -0.028952686
0.031907447 0.02416938 -0.0390904 -0.02170817 0.037002243 -0.012957851 -0.01608833 -0.02346115
00000000: f15b 1e3d 7d57 973c e195 bbbc 20eb bbbc
00000010: 124d 2d3d fad4 8c3b c951 a43c 2d38 eb3c
00000020: 9f28 0cba 352a 063b ddfa 23bc 1933 9c3c
00000030: 2a90 b2bc 0627 efbc 970f 55bb 2deb 0bbc
00000040: 7605 223d 0901 bf3b 5285 a03c 5c24 703b
00000050: b1fe 1d3d b479 eebc d0ba 23bb ba8e 0ebd
00000060: a53f 1b3c 2248 093d b9fe 163d 714a c0bb
00000070: 03c4 1bbc 0cec cd3c df6f 3d3c 98f4 f33b
00000080: 8878 7d3a d451 0b3d 6c6e 213d 98bf 09bd
00000090: 4b75 acbc 9ca8 ed3c 2082 b03c 5cc0 fb3a
000000a0: e086 20bc e8b2 23bd 6eec 093d f7df 33bc
000000b0: 61aa 6d3c b3a0 09bd d62d 52bb 32e8 1cbd
000000c0: a611 213d 3e16 e43b e669 b83c 9737 7cbc
000000d0: 6bf5 2fbb dd38 e5bb de13 e93b d4c4 a2bc
000000e0: d2dd 6a3c 994e fdbc d3ef b63c 8e0f 163d
000000f0: 2025 a63b caaf b6bb abd8 b2bb 2208 96bc
00000100: 1c8c fd3c ae0b 06bd 4460 2c3c 3dec 1ebd
00000110: 39c9 25bc 1dd0 1a3b 4ade b73b 5e30 ca3c
00000120: 8266 f2bc d6a7 82bb 8c9a 8c3c 4688 fc3c
00000130: a1d9 b9bb af29 c53c c230 b03c bd0e 5bbc
00000140: 01b4 173d 2dcf dabc ff19 593c 2855 70bc
00000150: fbf4 e73c 96f9 67bc 2b28 17bd 7fdf cebc
00000160: c1c0 2d3d 587b f33c 73a7 fabc 9fe4 efbb
00000170: 3882 bcbc b68a 08bc c175 18bd 0e4a e83b
00000180: ff45 fcbb 224e eabb bdee 49bc 39a8 4b3c
00000190: 37e7 c53c 3c10 913c 78ed b83c 7fed 4abc
000001a0: e348 093d 0592 203c 2e21 f6bb fd07 75ba
000001b0: e76c c73c e905 f1bc 2af4 c7ba ca14 52bc
000001c0: 011f 3cbb eed4 81bc 93e3 75bc e5b4 183d
000001d0: 16ca 01bd 4c63 24bd b31e 00bd ba0b 2d3d
000001e0: 1f3c ac3b 8bba d53b ba09 e8bc fd75 d9bc
000001f0: e468 09bd 3ac9 213d 8b79 8abc 2bed 293d
00000200: cc4e cbbc 6e19 143b 9821 293c 2392 b73c
00000210: 6134 273c 21db 94bc 6c29 c13b 5757 ef3c
00000220: 4ff8 9b3a f0ab d0bc bf1f 0d3d ec06 1a3d
00000230: 6e96 063d da16 fc3b d041 2d3d 0f37 ee3c
00000240: 1fea b9bc 9474 08bd cc66 1c3d af46 dabb
00000250: 76c9 fcbc 91a9 6fba d359 b43c 4043 143d
00000260: 82cc 15bd 19c6 18bd b718 413c 3f30 24bd
00000270: 0487 8d3c a1f3 80bc d919 893b 5abd b73c
00000280: 21f8 ee3b e888 9fbc cade 06bd 8700 7c3c
00000290: e250 2d3d d453 28bb 401f e53b 9c65 b1bc
000002a0: 431a 473b a7b3 0f3d 2859 40bc 4660 d63c
000002b0: c0c1 c73c 0b06 75bc 8ca5 1cbc 8287 853b
000002c0: 0d31 373c c587 cbbc f31c ad3c 928e 033d
000002d0: ac22 1fbd 0959 6b3b 736f 0d3d 1038 11bd
000002e0: ebea 43bc a94b 093d 4e54 82bc 0e1e 2d3d
000002f0: 6ef4 273d f959 0f3d f29b e13c f18e 0bbd
00000300: 1a87 c1bc 9598 833c a84f 113d cb88 d43c
00000310: a0a1 ed3c 7aac c3bc 75ff ba3b 8ea6 133d
00000320: 0b32 0e3d fb3c c1bc 9c93 ccbc f3d2 663c
00000330: e09f 173d b795 d53a c7c9 9bbc ffdc 8bbc
00000340: 46dd 083d 970f 233b dff0 193d d759 6abc
00000350: 3829 e9bc be52 1f3c 741c 18bd 9bda 1f3d
00000360: 03cc 093c 5356 1b3c 3114 873c a4e2 bbbb
00000370: 427c 9a3c 0fff a4bb bfb6 2d3d 864c 1bbd
00000380: 3bc5 4c3c 4e8b acbc 2468 863c 3abc 68bc
00000390: 676d 98bc b338 1abd 6e5f 85ba f0d4 983b
000003a0: 53d4 e7bb 668e cc3c ded3 f63c 3c71 d93b
000003b0: a63f 90bc 6a31 1cbd 2128 e6bc 6d69 2abc
000003c0: 58c6 993b 216a a0bc 69e3 15bd 0654 2c3d
000003d0: 64c0 a2bc 1c3f f13a 7754 d8bc 2f2e edbc
000003e0: 62b1 023d ddfe c53c 411d 20bd 55d5 b1bc
000003f0: aa8f 173d 2b4d 54bc accb 83bc 9931 c0bc

encoder.3.bias f4 [128]
0.008882469 0.0004233363 -0.009051982 0.0018384698 0.033967923 -0.0008721872 0.026578836 0.037258778
0.031653117 -0.022668293 -0.031163428 0.0025477088 0.021310048 0.02505823 -0.0073375083 0.036391508
-0.02970271 -0.015231656 -0.024911981 0.017859742 0.024760818 0.009530139 -0.018159274 0.03058747
-0.025801308 0.016787145 0.008481434 0.016129931 -0.026566679 -0.040735766 -0.01770582 0.0013995563
0.025723688 -0.009984974 -0.007098375 -0.0011786221 0.0046200617 0.04170047 -0.02773045 0.03073032
0.031572144 0.03358895 0.033297278 -0.037688658 -0.013225112 -0.030774573 0.031271614 0.0247977
-0.020155981 -0.039643764 0.02942642 -0.035642195 0.025174689 -0.007923636 -0.0049923067 -0.0012459327
-0.027488105 -0.0058526164 -0.032013964 0.014934657 -0.018147323 0.007801914 0.013051096 0.031171232
0.017866082 0.02934358 0.03481968 -0.03767607 0.041789677 -0.038660266 -0.0021470832 0.01171634
0.013183949 -0.04118166 0.026613533 0.014098505 0.00314474 -0.017706549 -0.027922092 0.008187015
-0.004545005 0.0019786041 -0.0046579237 0.0271452 -0.040837485 0.017893193 -0.023808675 0.028176049
-0.0043792557 0.036035933 -0.038360287 0.027876701 0.017992137 0.031046744 0.019767107 -0.03627644
-0.01154356 -0.0048922207 0.012415372 0.030844176 0.016369756 0.035248846 0.0040202616 0.016038163
-0.014719315 -0.010723332 0.031193232 -0.025799876 0.029232701 -0.03530076 0.0033737645 0.0024895326
0.033725824 0.0015893708 -0.018312098 0.0032352512 -0.0006254036 0.00048096574 0.039428018 -0.03730551
0.04205617 0.03831277 0.010489232 -0.034185775 -0.0018372124 0.02564081 -0.025332328 -0.01868463
00000000: c687 113c 3df3 dd39 c44e 14bc cff8 f03a
00000010: f321 0b3d 7ea3 64ba dcbb d93c a99c 183d
00000020: b3a6 013d dbb2 b9bc 724a ffbc 76f7 263b
00000030: 6992 ae3c eb46 cd3c 7b6f f0bb 430f 153d
00000040: 1953 f3bc 328e 79bc 3614 ccbc 984e 923c
00000050: 33d7 ca3c 4d24 1c3c c2c2 94bc 9392 fa3c
00000060: 445d d3bc 3285 893c b6f5 0a3c eb22 843c
00000070: 5da2 d9bc 8cda 26bd cc0b 91bc 5171 b73a
00000080: 7cba d23c 0498 23bc 7c99 e8bb ff7b 9aba
00000090: e363 973b 1dce 2a3d f82a e3bc 27be fb3c
000000a0: cb51 013d 9194 093d ba62 083d 6c5f 1abd
000000b0: 24ae 58bc f51a fcbc aa16 003d 8c24 cb3c
000000c0: 281e a5bc 8061 22bd ad0f f13c 8dfd 11bd
000000d0: 263b ce3c 23d2 01bc 8196 a3bb 904e a3ba
000000e0: bc2e e1bc 4ec7 bfbb 1321 03bd 7eb0 743c
000000f0: b2a9 94bc 33a7 ff3b 44d4 553c d05a ff3c
00000100: e45b 923c f361 f03c 159f 0e3d 3952 1abd
00000110: a72b 2b3d 3a5a 1ebd 14b6 0cbb e4f5 3f3c
00000120: 7d01 583c 1aae 28bd a004 da3c 6afd 663c
00000130: fb17 4e3b 530d 91bc dfbc e4bc d422 063c
00000140: 44ee 94bb 78ab 013b 7fa1 98bb 9c5f de3c
00000150: 3545 27bd bf94 923c 690a c3bc 75d1 e63c
00000160: dc7f 8fbb 6a9a 133d ad1f 1dbd ae5d e43c
00000170: 3f64 933c be55 fe3c a1ee a13c 9b96 14bd
00000180: 3321 3dbc ec4e a0bb d869 4b3c edac fc3c
00000190: de19 863c 1861 103d 66bc 833b 7762 833c
000001a0: 4829 71bc eab0 2fbc f388 ff3c 435a d3bc
000001b0: 6b79 ef3c 8897 10bd 601a 5d3b 6d27 233b
000001c0: 1724 0a3d 6f52 d03a 4103 96bc 8206 543b
000001d0: 20f2 23ba 212a fc39 467f 213d aacd 18bd
000001e0: 1743 2c3d daed 1c3d 07db 2b3c 6206 0cbd
000001f0: 9ece f0ba ad0c d23c be85 cfbc 8210 99bc

decoder.0.weight f4 [64, 128, 3, 3]
0.021641104 0.026934048 0.012695579 0.012594298 -0.011883579 -0.0154875275 0.02411277 -0.018096803
-0.0016110368 -0.0028082137 -0.002245912 0.027477019 0.017557899 0.022806343 0.024934387 -0.024644267
-0.0106566455 -0.0052184155 -0.027865345 -0.0027012134 -0.002360535 -0.0121605 0.0152587835 -0.016794711
0.024346922 0.003711031 0.028679002 -0.011289632 0.0269097 -0.017468989 -0.018071374 0.021634812
-0.008472051 0.0054558 0.025724791 -0.023866106 -0.012532918 0.026558222 -0.0123630725 -0.0060428446
-0.015457642 -0.012481509 0.020570472 0.0067988043 -0.010773706 -0.0049825152 0.02627479 -0.014664188
0.00898731 0.0101490775 0.015775751 0.02493733 0.01909196 0.025973247 -0.027540471 -0.014672185
-0.028293118 0.02562577 0.010718275 -0.016409643 0.026459843 0.0023286901 0.012974191 0.013393807
-0.024677861 -0.024571426 -0.020988913 0.019283295 0.0088387355 -0.0010406893 0.01213156 -0.015232361
0.012799274 -0.014566269 -0.022555707 0.007618162 0.02156648 -0.013858784 0.028693132 -0.027831798
0.0027910783 0.009470708 -0.012901577 -0.01583534 -0.0108297635 0.0103914 0.02385135 0.0029015946
-0.0021612796 -0.01748464 -0.022728669 0.01187512 0.0005869357 -0.024210537 0.0027191853 0.029048163
-0.012347263 -0.0041330885 -0.004202516 -0.023282574 0.029089477 0.011510665 -0.020155443 0.010001461
0.02378064 -0.024218265 -0.021207625 0.014265438 -0.013908824 -0.012338443 -0.023153512 -0.011551772
0.014265003 -0.013023722 -0.0018566849 0.008318556 -0.0038708749 0.025678284 0.01872725 -0.018280547
-0.004064273 -0.029110048 -0.011101754 -0.010803764 0.007973973 -0.02379212 -0.005806776 0.025221964
0.00010017803 0.028924245 0.005517722 -0.02136856 -0.017519677 0.023152834 -0.008858152 0.0042597563
0.017957747 -0.015837684 -0.017846562 0.014549885 0.011222652 0.024170347 -0.022690684 -0.0010351652
0.026480936 -0.00089813524 0.007452057 -0.0018615018 0.027565839 -0.02955186 -0.0024003154 0.023036119
-0.0005423161 0.0033412096 -0.019416077 -0.0060638594 0.019999113 -0.019517135 -0.014991742 0.011945478
-0.0119895395 -0.02349651 -0.024761911 -0.0022353528 0.016239388 -0.022598611 -0.016834613 0.02058609
-0.017600916 0.016729185 -0.027641006 0.021916145 -0.014313098 -0.02804575 -0.021470273 -0.0048291297
0.026406825 -0.019228535 -0.011595106 -0.008788811 -0.025840634 -0.0008573874 0.0039356174 -0.0067312093
-0.0033673416 -0.0041231746 0.011333527 -0.024101013 0.02879988 0.011403813 0.014432666 0.027717149
0.017332776 -0.0013261238 -0.003465419 0.013782179 0.0037266312 -0.02644033 -0.010422543 -0.0024536098
-0.00521748 -0.01480401 -0.0051056347 -0.013435245 -0.017807258 -0.02513333 -0.00050006306 -0.020305563
-0.0057489644 -0.014765051 -0.026316036 -0.017077155 -0.008795204 -0.009037879 -0.023595136 -0.015448431
0.0006394612 0.013852068 0.026116973 -0.008671221 0.0007518125 0.013481242 0.00972593 0.019618379
-0.01349907 -0.011872991 -0.006822519 0.008810034 -0.009044181 -0.0052533746 -0.009995964 0.026294991
-0.019519325 0.00014956987 0.00924174 -0.021895299 -0.026272973 -0.02520638 -0.0009716165 -0.01670587
0.0009812939 -0.01713826 0.016629219 -0.01367054 0.0013039408 0.009283613 -0.00023868306 0.013974415
-0.0187796 -0.021571541 -0.014663554 0.017355548 0.021608394 -0.020851975 0.01719846 0.011468222
00000000: af48 b13c cba4 dc3c 1e01 503c 5158 4e3c
00000010: 58b3 42bc 66bf 7dbc 2588 c53c bf3f 94bc
00000020: 6d29 d3ba 020a 38bb 2730 13bb 7c17 e13c
00000030: 95d5 8f3c 5ed4 ba3c 3343 cc3c c6e2 c9bc
00000040: 3699 2ebc 3eff aabb dd45 e4bc d706 31bb
00000050: 35b3 1abb d53c 47bc faff 793c 1095 89bc
00000060: 3273 c73c c534 733b 3af0 ea3c 26f8 38bc
00000070: bb71 dc3c 201b 8fbc 6b0a 94bc 7d3b b13c
00000080: 5bce 0abc 91c6 b23b ccbc d23c da82 c3bc
00000090: de56 4dbc a190 d93c 7c8e 4abc 0e03 c6bb
000000a0: 0d42 7dbc 3e7f 4cbc 6883 a83c 81c8 de3b
000000b0: 3384 30bc 5e44 a3bb 3a3e d73c 1042 70bc
000000c0: 833f 133c 5148 263c 263c 813c 5f49 cc3c
000000d0: be66 9c3c d9c5 d43c 8e9c e1bc 9b63 70bc
000000e0: f8c6 e7bc 23ed d13c b49b 2f3c 846d 86bc
000000f0: 50c2 d83c f09c 183b b491 543c b371 5b3c
00000100: 3a29 cabc 044a c9bc f1f0 abbc 00f8 9d3c
00000110: 58d0 103c bd67 88ba 73c3 463c 2791 79bc
00000120: 0cb4 513c 5ca7 6ebc bfc6 b8bc c6a1 f93b
00000130: 30ac b03c f40f 63bc dc0d eb3c 83ff e3bc
00000140: 86ea 363b 072b 1b3c 2361 53bc 1db9 81bc
00000150: 526f 31bc b140 2a3c e863 c33c ae28 3e3b
00000160: 41a4 0dbb f33b 8fbc 7931 babc dd8f 423c
00000170: 97dc 193a 2d55 c6bc 5c34 323b 6af6 ed3c
00000180: 2d4c 4abc dc6e 87bb 42b5 89bb 19bb bebc
00000190: 0e4d ee3c 3a97 3c3c 071d a5bc 2bdd 233c
000001a0: 9ecf c23c 6265 c6bc 9dbb adbc 95b9 693c
000001b0: d6e1 63bc 2e27 4abc 6fac bdbc a543 3dbc
000001c0: c2b7 693c 7361 55bc 025c f3ba 8d4a 083c
000001d0: 81ae 7dbb 445b d23c e469 993c 16c1 95bc
000001e0: 982d 85bb 3278 eebc 22e4 35bc 4502 31bc
000001f0: 44a5 023c b1e7 c2bc c546 bebb 4b9e ce3c
00000200: ac16 d238 8af2 ec3c 02ce b43b 1e0d afbc
00000210: 6d85 8fbc 03ab bd3c c821 11bc 6d95 8b3b
00000220: 201c 933c 08be 81bc f432 92bc a462 6e3c
00000230: 37df 373c e400 c63c d0e1 b9bc 61ae 87ba
00000240: 8cee d83c d670 6bba 6330 f43b a3fd f3ba
00000250: c1d1 e13c be16 f2bc 9c4e 1dbb 3eb6 bc3c
00000260: 382a 0eba 32f8 5a3b 770e 9fbc 57b3 c6bb
00000270: 2ed5 a33c 66e2 9fbc ec9f 75bc f7b6 433c
00000280: c66f 44bc c17b c0bc 7ed9 cabc ff7e 12bb
00000290: 7708 853c b920 b9bc bee8 89bc 29a4 a83c
000002a0: cc2f 90bc a50b 893c 646f e2bc 7d89 b33c
000002b0: 7c81 6abc 33c0 e5bc 6de2 afbc ad3d 9ebb
000002c0: 2053 d83c 2985 9dbc 66f9 3dbc f2fe 0fbc
000002d0: bdaf d3bc 4bc2 60ba 5af6 803b 7a91 dcbb
000002e0: 9eae 5cbb b21b 87bb 42b0 393c 7d6f c5bc
000002f0: baed eb3c 0fd7 3a3c fd76 6c3c 130f e33c
00000300: 77fd 8d3c 55d1 adba 151c 63bb a6ce 613c
00000310: 7f3a 743b 6499 d8bc 50c3 2abc becc 20bb
00000320: 65f7 aabb 858c 72bc 2b4d a7bb 801f 5cbc
00000330: 87e0 91bc 6ae4 cdbc aa16 03ba da57 a6bc
00000340: cf61 bcbb 1de9 71bc ba94 d7bc 64e5 8bbc
00000350: c219 10bc 9d13 14bc 964a c1bc 6a1b 7dbc
00000360: 84a1 273a c9f3 623c 43f3 d53c bd11 0ebc
00000370: 4815 453a 6de0 5c3c 8259 1f3c b9b6 a03c
00000380: 342b 5dbc ef86 42bc 708f dfbb f657 103c
00000390: 0b2e 14bc 8024 acbb 1dc6 23bc 9868 d73c
000003a0: fee6 9fbc dbd5 1c39 ab6a 173c c55d b3bc
000003b0: 6b3a d7bc 9c7d cebc 14b4 7eba c0da 88bc
000003c0: c29e 803a 8965 8cbc 003a 883c 67fa 5fbc
000003d0: fee8 aa3a 4c1a 183c ff46 7ab9 f2f4 643c
000003e0: add7 99bc cdb6 b0bc 673f 70bc 392d 8e3c
000003f0: 1604 b13c c3d1 aabc c9e3 8c3c 36e5 3b3c

decoder.0.bias f4 [64]
-0.006185227 -0.028859718 -0.02726509 -0.022839531 -0.013389932 0.022610974 0.019678874 0.014039086
-0.014457224 -0.014761749 0.007890269 0.02762798 -0.008255625 -0.016281895 0.018626796 0.016849956
0.020570077 -0.024211109 0.012243257 0.015340734 -0.014662668 0.005245394 -0.02677693 0.0003921706
-0.027709149 0.002904294 -0.0093115475 0.011885545 -0.02946512 0.02412402 -0.005175573 -0.0059714695
-0.0035868129 0.0063039525 0.024643732 0.023049437 0.0095157735 -0.023251913 0.021311387 -0.010353256
0.030157825 -0.02714548 -0.020551061 0.01927936 0.016733116 0.012422262 -0.0021452848 -0.01827637
0.010150699 -0.0048517245 0.023319237 -0.010495701 -0.016628427 0.014674469 0.0152129475 -0.006230023
-0.022421727 -0.026833795 0.022207756 0.0088416375 0.015226179 -0.010344061 -0.010823061 -0.026127785
00000000: 72ad cabb 376b ecbc 0a5b dfbc f819 bbbc
00000010: 7261 5bbc a63a b93c 9735 a13c 3204 663c
00000020: fedd 6cbc 43db 71bc 3046 013c 1354 e23c
00000030: 9a42 07bc 9c61 85bc 3997 983c eb08 8a3c
00000040: 9482 a83c 6056 c6bc f197 483c b457 7b3c
00000050: b03b 70bc 8ee1 ab3b 4b5b dbbc 3f9c cd39
00000060: 4cfe e2bc f855 3e3b 768f 18bc 97bb 423c
00000070: d660 f1bc bd9f c53c da97 a9bb 51ac c3bb
00000080: bc10 6bbb 6391 ce3b a7e1 c93c 2cd2 bc3c
00000090: 0ce8 1b3c cc7a bebc 3895 ae3c b4a0 29bc
000000a0: 8b0d f73c 3360 debc b35a a8bc c0ef 9d3c
000000b0: e313 893c be86 4b3c e897 0cbb 53b8 95bc
000000c0: 1e4f 263c 37fb 9ebb fc07 bf3c 29f6 2bbc
000000d0: 5738 88bc 2f6d 703c ba3f 793c 3925 ccbb
000000e0: c5ad b7bc 8cd2 dbbc 0aed b53c 84dc 103c
000000f0: 3977 793c 237a 29bc 3553 31bc f009 d6bc

decoder.3.weight f4 [32, 64, 3, 3]
0.042411134 -0.012557961 -0.011955197 -0.0064873206 0.023796324 0.006535299 -0.030011883 0.0047986736
0.022518199 0.02362821 0.006227409 0.010875653 0.0062337867 0.039573595 0.03592373 -0.014384284
0.03952366 -0.03978143 0.008541574 -0.02195546 0.010506092 0.036041535 -0.033159748 -0.037512712
0.04023223 0.0034231658 -0.024592463 0.015021514 0.009703699 0.01220666 0.006673858 0.025232464
-0.0048180376 -0.029246712 0.027440295 0.017877392 0.011935747 -0.008019082 0.02415314 0.026231658
-0.004882111 0.014031175 -0.01980415 -0.03894839 -0.028605243 0.040706594 0.03856183 0.039074183
0.030168425 -0.023891723 0.03911415 -0.021167608 -0.022433398 -0.00995931 -0.012946007 -0.03441655
0.03240645 -0.035195682 -0.036176708 -0.020082856 0.04058077 -0.009517668 0.03722358 0.020458661
0.0062308516 0.0026879604 0.038559068 0.010134369 -0.005019449 -0.026436726 0.0043992302 0.027452681
-0.039540634 -0.02289238 0.02207966 -0.007435835 -0.018927125 0.02163893 -0.012819649 0.031165255
0.0051354985 0.0009287396 -0.014786501 -0.032692578 0.030004824 0.011150941 0.0018369233 -0.0041661374
-0.0298916 0.04132503 -0.012720692 -0.015485484 0.013281495 0.005984656 -0.036213975 0.014609875
-0.013603304 0.0014857459 0.013065243 0.03915525 0.038837753 -0.018780187 -0.003030574 -0.0049943435
0.018255705 0.007415254 0.024789738 0.020792132 -0.027493704 -0.033572357 0.011379249 0.018423248
0.00191785 0.01586748 -0.010716605 -0.0359975 -0.027934974 -0.006498729 -0.023801273 0.035007972
-0.0027144067 -0.04055275 -0.031155033 -0.003606523 -0.007691075 0.030698778 8.500913e-05 0.041285608
0.009436275 -0.00045421097 0.0075097308 0.0314565 0.013112365 -0.030183434 0.021557597 -0.013084692
0.00785194 0.009656583 0.022079065 0.016043877 -0.033969272 -0.021413164 -0.0018487212 0.015179558
-0.012991967 0.012073906 0.019159302 -0.0058383564 -0.018675148 0.0066315318 -0.018033829 0.021867942
-0.015281913 0.022944117 0.0072830804 -0.028562026 -0.03906683 -0.028658181 -0.04048398 -0.0202781
0.038655605 0.0033556067 -0.023812732 -0.039853994 -0.017706728 -0.0051525813 -0.031035936 -0.02321914
0.037620347 -0.03124795 -0.025399234 -0.033023402 -0.0009119277 -0.029478628 -0.027121171 0.002810965
0.040039588 -0.013597928 -0.028231531 0.032807037 0.030234803 0.037843008 -0.0011834119 -0.01953264
0.028209053 -0.033887997 0.042431906 -0.030076426 0.020901905 -0.016504698 0.030588781 0.024590751
-0.00018866491 0.011789147 -0.014657477 -0.010700107 -0.027510086 0.027885651 -0.0062787933 0.02045964
-0.019174214 0.010392712 0.028299022 0.008683829 -0.0031307093 0.02856938 0.009353647 -0.01295135
-0.019057594 -0.002676823 0.03677975 0.003495075 0.026527544 -0.025126513 -0.020800516 0.01566906
0.021558225 -0.04001924 -0.022926454 0.02923053 0.024816621 -0.037830546 0.01790542 -0.030258622
0.04274676 -0.038873535 -0.028566089 -0.020078648 -0.036830913 -0.00631997 -0.031832993 -0.04050001
0.0024494955 -0.040163115 -0.008997624 -0.031050386 0.02452363 0.03377844 0.04149764 0.002364042
-0.015789125 -0.034463115 0.0019417483 0.017854216 0.037132792 -0.01890091 -0.032878704 -0.024908327
0.037056863 0.016151248 0.01234171 0.0029099556 -0.025421454 -0.026756736 0.038595088 0.034557033
00000000: 4cb7 2d3d e8bf 4dbc bbdf 43bc 9793 d4bb
00000010: 82f0 c23c 1026 d63b 7bdb f5bc 313e 9d3b
00000020: 1678 b83c f38f c13c 4b0f cc3b cb2f 323c
00000030: cb44 cc3b ec17 223d c324 133d 0fac 6bbc
00000040: 90e3 213d daf1 22bd f5f1 0b3c f0db b3bc
00000050: be21 2c3c 4aa0 133d 84d2 07bd eea6 19bd
00000060: 8dca 243d 3157 603b 2276 c9bc cc1c 763c
00000070: 43fc 1e3c 71fe 473c 61b0 da3b 50b4 ce3c
00000080: a1e0 9dbb cd96 efbc 78ca e03c 9c73 923c
00000090: 278e 433c 7862 03bc cedc c53c c6e3 d63c
000000a0: 1efa 9fbb 03e3 653c 503c a2bc 5988 1fbd
000000b0: 8b55 eabc f5bb 263d 02f3 1d3d 400c 203d
000000c0: c623 f73c 93b8 c3bc 2936 203d b167 adbc
000000d0: 3fc6 b7bc 602c 23bc 7d1b 54bc 5ef8 0cbd
000000e0: a0bc 043d 5929 10bd 072e 14bd cd84 a4bc
000000f0: 0538 263d feef 1bbc c177 183d ec98 a73c
00000100: 2c2c cc3b 7e28 303b 1df0 1d3d a00a 263c
00000110: 317a a4bb d591 d8bc 6b27 903b 72e4 e03c
00000120: 5cf5 21bd cd88 bbbc 67e0 b43c 4ea8 f3bb
00000130: 0f0d 9bbc 2044 b13c 8109 52bc 474e ff3c
00000140: af47 a83b a976 733a 1543 72bc a7e8 05bd
00000150: adcc f53c 70b2 363c ebc4 f03a 1884 88bb
00000160: 3bdf f4bc 6f44 293d 736a 50bc d4b6 7dbc
00000170: a19a 593c ef1a c43b 1b55 14bd 425e 6f3c
00000180: 64e0 5ebc 5cbd c23a 9a0f 563c 4161 203d
00000190: 5614 1f3d e8d8 99bc 989c 46bb 97a7 a3bb
000001a0: fd8c 953c a9fb f23b d913 cb3c 4354 aa3c
000001b0: 7a3a e1bc 2b83 09bd 0870 3a3c 5aec 963c
000001c0: 5e60 fb3a 84fc 813c b394 2fbc 1d72 13bd
000001d0: e3d7 e4bc 4af3 d4bb e3fa c2bc 8564 0f3d
000001e0: 30e4 31bb a41a 26bd d738 ffbc 6a5b 6cbb
000001f0: 6a05 fcbb 017c fb3c ee46 b238 191b 293d
00000200: 9b9a 1a3c 2a23 eeb9 3014 f63b 88d8 003d
00000210: 3fd5 563c 4043 f7bc 8f99 b03c 2d61 56bc
00000220: 6ca5 003c a536 1e3c 28df b43c 736e 833c
00000230: 5d23 0bbd a96a afbc ca50 f2ba aeb3 783c
00000240: 42dc 54bc a2d1 453c f8f3 9c3c af4f bfbb
00000250: a0fc 98bc 524d d93b aebb 93bc 6624 b33c
00000260: fd60 7abc 4df5 bb3c e8a6 ee3b e9fa e9bc
00000270: 8a04 20bd 90c4 eabc 88d2 25bd 421e a6bc
00000280: 5755 1e3d bde9 5b3b eb12 c3bc f13d 23bd
00000290: b30d 91bc fcd6 a8bb 133f febc 1136 bebc
000002a0: cb17 1a3d b3fb ffbc 0e12 d0bc 8c43 07bd
000002b0: 6f0e 6fba 2a7d f1bc 382d debc 2b38 383b
000002c0: 8d00 243d d8c9 5ebc d045 e7bc ac60 063d
000002d0: faae f73c 4501 1b3d b71c 9bba ea02 a0bc
000002e0: ac16 e73c 24ce 0abd 14cd 2d3d d662 f6bc
000002f0: 793a ab3c dc34 87bc 5395 fa3c 8b72 c93c
00000300: 5ad4 45b9 4427 413c ea25 70bc 804f 2fbc
00000310: d55c e1bc 7370 e43c 56be cdbb fa9a a73c
00000320: 3e13 9dbc 3246 2a3c 5ad3 e73c 9e46 0e3c
00000330: 962c 4dbb 550a ea3c 0a40 193c e631 54bc
00000340: ac1e 9cbc a36d 2fbb 5da6 163d a10d 653b
00000350: 4b50 d93c 1ed6 cdbc d865 aabc 675c 803c
00000360: e09a b03c 37eb 23bd 42d0 bbbc dd74 ef3c
00000370: 3a4c cb3c 34f4 1abd 63ae 923c eee0 f7bc
00000380: 3a17 2f3d db39 1fbd 6e03 eabc fa7b a4bc
00000390: 03dc 16bd c017 cfbb 5063 02bd 57e3 25bd
000003a0: b787 203b 1482 24bd c56a 13bc 615d febc
000003b0: c8e5 c83c 435b 0a3d 6ef9 293d 0bee 1a3b
000003c0: 3258 81bc 3229 0dbd 4382 fe3a 0143 923c
000003d0: 8e18 183d 15d6 9abc d2ab 06bd 8c0c ccbc
000003e0: f0c8 173d 9f4f 843c e234 4a3c f4b4 3e3b
000003f0: a740 d0bc f130 dbbc e215 1e3d ad8b 0d3d

decoder.3.bias f4 [32]
-0.007146897 0.023678863 -0.03206024 -0.0010027857 0.017136453 -0.023667261 0.0055555347 0.030423427
0.03895476 -0.0062491964 -0.0022846234 -0.017840184 -0.03716966 0.037656303 0.021987138 -0.02230392
0.025090367 -0.0073264004 0.038117077 -0.020256026 0.0077322978 0.04097989 -0.0224788 0.024562031
-0.019443156 -0.00825386 0.042197 -0.008604584 -0.028631965 -0.029620098 -0.024231901 0.039761186
00000000: 8430 eabb 2dfa c13c 9951 03bd e86f 83ba
00000010: bf61 8c3c d8e1 c1bc 340b b63b 8d3a f93c
00000020: 078f 1f3d 0fc6 ccbb 9fb9 15bb 9425 92bc
00000030: 373f 18bd 7f3d 1a3d 5f1e b43c b6b6 b6bc
00000040: 508a cd3c 4d12 f0bb a720 1c3d f7ef a5bc
00000050: 375f fd3b 87da 273d 7625 b8bc 5036 c93c
00000060: 4147 9fbc 333b 07bc c3d6 2c3d 3efa 0cbc
00000070: 958d eabc d9a5 f2bc fb81 c6bc a0dc 223d

decoder.6.weight f4 [1, 32, 1, 1]
-0.023612717 -0.034288913 0.17299947 -0.15139666 0.033326104 0.04276376 0.0518811 0.031708203
0.13648833 0.094420046 -0.012054103 0.010569717 -0.12850995 -0.057787452 0.06111718 0.12821469
0.036149386 -0.17226686 -0.12029975 -0.17133214 -0.028665083 -0.036881268 0.13600193 -0.13811581
-0.17739479 -0.112134635 -0.14050071 -0.06558354 -0.069429785 0.13435633 -0.1577395 0.001221909
00000000: 756f c1bc 8872 0cbd c626 313e ba07 1bbe
00000010: f480 083d 0d29 2f3d 4781 543d 76e0 013d
00000020: 99c3 0b3e 4c5f c13d 937e 45bc 9b2c 2d3c
00000030: 1d98 03be 89b2 6cbd 0256 7a3d b64a 033e
00000040: 6111 143d b966 30be b75f f6bd b171 2fbe
00000050: 09d3 eabc d010 17bd 1744 0b3e 3b6e 0dbe
00000060: fba6 35be d8a6 e5bd 6bdf 0fbe aa50 86bd
00000070: 3431 8ebd b594 093e 7786 21be 7628 a03a
