checkpoints/2025-06-02-08-07-12/last_epoch.pth (torch, 686901 bytes, 25 tensors)

encoder.0.weight f4 [64, 3, 3, 3]
0.18063334 -0.12459835 -0.08040478 0.05995399 0.172087 0.022499476 -0.18899211 0.18736224
0.050492946 -0.110629134 -0.01669964 -0.176049 -0.09252591 0.1004978 0.18191813 -0.09716638
0.09778091 -0.07901874 -0.016838763 -0.10189739 0.14316916 0.042683028 -0.05137186 -0.074742734
-0.16418123 0.01663173 0.10301924 -0.089507096 -0.03685427 -0.16553657 -0.05755978 -0.10963291
0.12425135 -0.013622192 0.00079349376 0.12050764 -0.15803657 0.10802388 0.00087430957 0.011355187
-0.17511652 -0.05105459 -0.17026262 -0.16588669 -0.10749055 0.13642058 -0.08660388 -0.056722276
0.05479529 0.09050586 -0.013477907 0.14603809 0.099403985 0.1369334 0.10608627 0.15973179
0.18337676 -0.16101316 -0.091991685 -0.12559402 0.021833818 0.045638777 0.14618203 -0.12497962
-0.016790569 0.07600504 -0.19160144 -0.0002475909 0.12152083 0.067285694 -0.12103517 0.10748978
0.14602712 0.018626304 -0.15890677 0.1306448 0.1738888 -0.029314259 0.11931955 0.19131567
-0.025197847 0.08101852 -0.102072775 -0.15457276 0.06398938 -0.13289623 -0.061069317 0.008868148
0.06480364 -0.14320517 -0.050057955 -0.16203064 -0.18102404 0.054988135 -0.1510433 0.14813097
-0.021287633 -0.1841182 0.06656877 0.1665203 -0.18106788 -0.029023798 -0.06521332 -0.09759833
0.13326965 -0.120865025 0.039883163 0.15073343 -0.046728246 -0.18795724 0.10549183 0.049465645
0.0817115 -0.1285974 -0.024678133 -0.06267979 -0.13967656 0.13848118 -0.008911553 0.004115764
-0.0107685365 0.1205042 0.08890275 0.1283456 -0.087424845 0.109705985 -0.08376671 -0.18145862
0.14301236 -0.17976335 -0.09850332 -0.17809264 -0.122678 -0.128729 0.13337587 -0.09199485
-0.024812134 -0.10615671 -0.10253158 -0.11312758 -0.00892655 -0.13803223 0.08962111 0.13401394
-0.0071225297 -0.0659453 0.01812477 0.092228435 -0.094597824 0.009050215 -0.01532856 -0.12120713
0.11454717 -0.10563872 -0.17335343 0.056790497 0.014820346 -0.14472914 -0.10316715 -0.19084896
0.16863802 -0.19008647 -0.12552308 -0.18004183 -0.022894744 0.035067994 -0.109246224 -0.14220656
0.046503566 0.018314026 0.08196312 -0.0102991 -0.0438561 -0.13800052 0.098726325 0.15840341
-0.18273763 -0.04981808 0.1778071 0.026472535 0.020335147 -0.17376582 -0.02875879 0.06986427
-0.048579972 -0.18673576 0.042323876 0.09796847 0.035648093 -0.027102264 -0.14180991 0.1190982
0.11945674 0.16632079 0.104621075 0.075340636 0.123151615 -0.18099125 -0.028622461 0.17978156
-0.14282577 -0.0065147495 0.098274104 0.0381962 0.06528611 0.05343847 0.05362242 0.17496493
-0.17551477 -0.14781687 0.15469666 -0.1370284 -0.055578697 0.054648302 0.11088406 0.15795685
-0.15818453 0.0018791996 -0.07860835 0.13788529 -0.080336735 0.14884801 0.15140282 -0.17088434
0.095131986 -0.120390445 0.041669067 -0.15406315 -0.04837944 0.12208695 0.14415681 0.1542707
0.15632907 0.13504516 0.15029715 0.041527282 -0.069321916 0.06473409 -0.11659897 -0.045823995
0.013092781 -0.0342623 0.029127995 -0.036543332 -0.1918718 -0.02825945 -0.14153914 0.10163945
0.0506803 -0.0043717553 0.016914338 0.093086675 0.11530173 -0.0775089 -0.048171356 -0.07673327
00000000: f2f7 383e 6b2d ffbd 43ab a4bd 5192 753d
00000010: 9337 303e d250 b83c 2687 41be e3db 3f3e
00000020: b1d1 4e3d 8791 e2bd afcd 88bc 3046 34be
00000030: 397e bdbd cad1 cd3d bf48 3a3e 2bff c6bd
00000040: 5c41 c83d 94d4 a1bd 72f1 89bc 94af d0bd
00000050: f09a 123e 66d4 2e3d 4d6b 52bd b812 99bd
00000060: 201f 28be 443f 883c c0fb d23d 7f4f b7bd
00000070: 81f4 16bd 6b82 29be cec3 6bbd 3887 e0bd
00000080: 7e77 fe3d 9d2f 5fbc 7702 503a b6cc f63d
00000090: 57d4 21be a03b dd3d ec31 653a 1b0b 3a3c
000000a0: bf51 33be 9e1e 51bd 5359 2ebe 33de 29be
000000b0: 0124 dcbd d6b1 0b3e 605d b1bd 9e55 68bd
000000c0: 0771 603d 235b b93d 70d2 5cbc 028b 153e
000000d0: 5194 cb3d 4538 0c3e c243 d93d bb90 233e
000000e0: 1ec7 3b3e a2e0 24be 2366 bcbd b89b 00be
000000f0: d6dc b23c baef 3a3d beb0 153e 51f5 ffbd
00000100: 608c 89bc 88a8 9b3d 2b33 44be 17cf 81b9
00000110: eadf f83d 15cd 893d 4ae1 f7bd 9a23 dc3d
00000120: 2288 153e 3196 983c 75b8 22be c0c7 053e
00000130: e80f 323e 7524 f0bc cf5d f43d 41e8 433e
00000140: b76b cebc 0aed a53d 880b d1bd 5248 1ebe
00000150: dd0c 833d f315 08be d223 7abd b54b 113c
00000160: c5b7 843d 60a4 12be 9209 4dbd 5ceb 25be
00000170: 5e5e 39be 3d3b 613d 18ab 1abe a5af 173e
00000180: 6763 aebc 7b89 3cbe 3555 883d 4c84 2a3e
00000190: dc69 39be 51c3 edbc 908e 85bd a2e1 c7bd
000001a0: d777 083e 1588 f7bd 875c 233d dd59 1a3e
000001b0: 1e66 3fbd dd77 40be 1a0c d83d 7d9c 4a3d
000001c0: 5c58 a73d 09af 03be cc29 cabc 435e 80bd
000001d0: 5f07 0fbe 03ce 0d3e c301 12bc 88dd 863b
000001e0: 846e 30bc e8ca f63d a512 b63d 076d 033e
000001f0: cc0b b3bd 88ad e03d e18d abbd 4ad0 39be
00000200: d571 123e e213 38be 1cbc c9bd eb5d 36be
00000210: 9a3e fbbd 89d1 03be af93 083e cc67 bcbd
00000220: d142 cbbc b068 d9bd 14fc d1bd 6faf e7bd
00000230: aa40 12bc 5258 0dbe 468b b73d f33a 093e
00000240: 1c64 e9bb 540e 87bd 667a 943c 43e2 bc3d
00000250: 81bc c1bd 5a47 143c a424 7bbc 723b f8bd
00000260: b597 ea3d 1d59 d8bd 9083 31be 279d 683d
00000270: 09d1 723c e033 14be 4c49 d3bd e96d 43be
00000280: 72af 2c3e 07a6 42be 1f89 00be e35c 38be
00000290: c28d bbbc 75a3 0f3d 7cbc dfbd 999e 11be
000002a0: 867a 3e3d 4c07 963c 48dc a73d 8ebd 28bc
000002b0: 74a2 33bd 0250 0dbe 0731 ca3d 8134 223e
000002c0: 931f 3bbe 0b0e 4cbd 1013 363e eedc d83c
000002d0: e595 a63c abef 31be 8e97 ebbc 0015 8f3d
000002e0: cbfb 46bd a937 3fbe cd5b 2d3d b1a3 c83d
000002f0: bc03 123d 9105 debc 9e36 11be c2e9 f33d
00000300: bca5 f43d ff4f 2a3e 9343 d63d 314c 9a3d
00000310: ea36 fc3d c555 39be a779 eabc a818 383e
00000320: eb40 12be ae79 d5bb ef43 c93d 9e73 1c3d
00000330: b9b4 853d 4ce2 5a3d 2fa3 5b3d 022a 333e
00000340: 25ba 33be 4e5d 17be cd68 1e3e 2c51 0cbe
00000350: 7da6 63bd e6d6 5f3d 2f17 e33d 71bf 213e
00000360: 20fb 21be 7a4f f63a 6afd a0bd cd31 0d3e
00000370: 9687 a4bd 9d6b 183e 5709 1b3e 4efc 2ebe
00000380: 8fd4 c23d 448f f6bd 2fad 2a3d bbc2 1dbe
00000390: 8529 46bd b908 fa3d d89d 133e 23f9 1d3e
000003a0: ba14 203e 4749 0a3e 7fe7 193e 8318 2a3d
000003b0: a6f8 8dbd 4e93 843d 71cb eebd f1b1 3bbd
000003c0: 1b83 563c a056 0cbd d59d ee3c 76ae 15bd
000003d0: 0b7a 44be 5d80 e7bc a3ef 10be 5828 d03d
000003e0: 2596 4f3d f140 8fbb f08f 8a3c 3aa4 be3d
000003f0: 5023 ec3d fcbc 9ebd 544f 45bd 5526 9dbd

encoder.0.bias f4 [64]
0.026298357 0.07079018 0.043050144 0.119101845 0.08144156 -0.090101205 -0.106036566 -0.051377058
-0.060816873 -0.16528574 0.049004875 0.1332733 -0.0931642 0.094193876 0.01932181 -0.19085504
0.11716175 0.00046062644 0.10541408 -0.056712452 0.1530117 -0.01612796 -0.10398325 -0.060563132
0.10287791 -0.03457519 0.0011970615 0.16933316 0.010278416 0.08744377 0.072175525 0.05194606
0.0997972 0.17523395 0.11571818 -0.046953913 -0.1561372 -0.019811848 -0.16961375 0.042591155
-0.14026672 -0.1007825 0.034087542 0.09150926 0.14517607 0.009306991 -0.16065449 -0.15756452
0.12943281 0.017986419 0.017977295 -0.03480132 -0.060891815 -0.009148742 -0.17430578 -0.14459728
0.17140318 0.07419668 0.18136914 0.15068002 0.028291794 -0.17025639 0.063538946 -0.14946596
00000000: a76f d73c 71fa 903d 5955 303d abeb f33d
00000010: d5ca a63d fb86 b8bd b329 d9bd c070 52bd
00000020: 1d1b 79bd aa40 29be 56b9 483d cc78 083e
00000030: dfcc bebd b8e8 c03d c648 9e3c 816f 43be
00000040: 80f2 ef3d 3c80 f139 56e3 d73d 514b 68bd
00000050: 19af 1c3e c91e 84bc 2cf5 d4bd 0c11 78bd
00000060: a7b1 d23d b79e 0dbd b8e6 9c3a ac65 2d3e
00000070: cd66 283c b815 b33d c3d0 933d 64c5 543d
00000080: 7962 cc3d 8770 333e a7fd ec3d bf52 40bd
00000090: 6ee2 1fbe 754c a2bc 3aaf 2dbe 1074 2e3d
000000a0: 14a2 0fbe 0e67 cebd 619f 0b3d 3569 bb3d
000000b0: 09a9 143e 597c 183c 9c82 24be 9858 21be
000000c0: 098a 043e 4158 933c 1f45 933c d48b 0ebd
000000d0: b269 79bd 9be4 15bc 377d 32be 4f11 14be
000000e0: 5184 2f3e 6ef4 973d d5b8 393e dd4b 1a3e
000000f0: 31c4 e73c b157 2ebe b520 823d 9b0d 19be

encoder.1.weight f4 [64]
1.0008501 1.0002888 0.99984825 0.99941206 1.0002217 0.999433 1.0008261 0.99901366
1.000516 0.99919635 1.0004541 1.0004036 1.0002168 1.0007774 1.0001053 0.9991125
0.99999624 1.0000006 1.0001364 0.9992645 1.0003653 0.9993244 0.9999228 0.99911404
0.9998449 1.0008876 0.9991889 1.0002434 0.99997765 0.99955785 0.9995656 0.9996737
0.9996779 0.99924845 0.99937356 0.99984163 1.0000136 1.000799 1.0010587 0.9991452
0.9991072 0.99928963 1.0008426 0.9995759 0.99923706 1.0006152 1.0003477 0.9992266
1.0004376 1.00059 0.99976766 1.0008575 0.99954593 0.99993926 0.9998065 1.0008705
0.999843 1.000582 1.0005788 1.0004122 1.0001717 1.0008998 1.0003449 0.9993163
00000000: db1b 803f 7709 803f 0ef6 7f3f 78d9 7f3f
00000010: 4407 803f d7da 7f3f 121b 803f 5cbf 7f3f
00000020: e910 803f 55cb 7f3f e10e 803f 3a0d 803f
00000030: 1b07 803f 7919 803f 7303 803f d6c5 7f3f
00000040: c1ff 7f3f 0500 803f 7804 803f cccf 7f3f
00000050: f80b 803f b9d3 7f3f f1fa 7f3f f0c5 7f3f
00000060: d6f5 7f3f 161d 803f d8ca 7f3f fa07 803f
00000070: 89fe 7f3f 06e3 7f3f 88e3 7f3f 9eea 7f3f
00000080: e4ea 7f3f bfce 7f3f f2d6 7f3f 9ff5 7f3f
00000090: 7200 803f 2e1a 803f b122 803f fbc7 7f3f
000000a0: 7dc5 7f3f 72d1 7f3f 9c1b 803f 35e4 7f3f
000000b0: 00ce 7f3f 2914 803f 650b 803f 51cd 7f3f
000000c0: 570e 803f 5513 803f c6f0 7f3f 191c 803f
000000d0: 3ee2 7f3f 05fc 7f3f 52f3 7f3f 861c 803f
000000e0: b6f5 7f3f 1213 803f f712 803f 820d 803f
000000f0: a005 803f 7c1d 803f 4d0b 803f 31d3 7f3f

encoder.1.bias f4 [64]
0.0007898063 0.00078446796 -0.00090644986 0.00049886236 -0.0006752118 -0.00050857867 6.0157563e-05 -0.0010511833
-0.00031833356 -0.0006333485 0.00017480948 -0.0003943635 0.0007328896 0.00026238526 5.1427287e-05 -0.0008764061
-0.00079841964 0.00059709226 0.00039604524 0.000360691 0.0007947913 -0.00042727785 2.12896e-05 -0.0005965444
-0.00041764966 -0.0008857338 -0.00061786146 -0.0005839 0.00042961934 -3.049362e-05 5.4677876e-06 -0.0005039371
-0.00013451443 -0.00079969334 -0.0006385275 -0.00034899943 0.0006175513 0.0005978507 0.0009543816 -0.00080732885
-0.0008621791 -0.00039179096 0.0008255179 0.00063406077 -0.000750142 0.0005732955 0.00052246527 -0.0010713453
-0.00012597143 0.00071977766 0.000118151176 0.00088130706 0.00040312036 -0.00036515825 0.0003524849 0.0009324836
0.00055392797 -0.0006578687 -6.46538e-05 0.00015149375 -0.0002924218 0.0005100348 -0.00018402684 -0.00020804755
00000000: 010b 4f3a c1a4 4d3a d29e 6dba 16c6 023a
00000010: b200 31ba 2352 05ba b151 7c38 dcc7 89ba
00000020: 02e6 a6b9 4c07 26ba 104d 3739 93c2 ceb9
00000030: 631f 403a c190 8939 a1b3 5738 9ebe 65ba
00000040: 094d 51ba 2f86 1c3a 4ba4 cf39 201b bd39
00000050: 8b59 503a 4304 e0b9 1197 b237 6b61 1cba
00000060: fdf7 dab9 9730 68ba fbf7 21ba de10 19ba
00000070: 883e e139 8dcc ffb7 f077 b736 a51a 04ba
00000080: 710c 0db9 83a2 51ba db62 27ba e9f9 b6b9
00000090: 2be3 213a 15b9 1c3a 772f 7a3a eca2 53ba
000000a0: dc03 62ba 4b69 cdb9 9267 583a 1937 263a
000000b0: 2da5 44ba 3649 163a 0df6 083a 626c 8cba
000000c0: 3317 04b9 76af 3c3a eec7 f738 8407 673a
000000d0: e659 d339 b672 bfb9 b9cd b839 ea71 743a
000000e0: 7a35 113a d274 2cba bf96 87b8 4bda 1e39
000000f0: 3150 99b9 dbb3 053a 54f7 40b9 5727 5ab9

encoder.1.running_mean f4 [64]
-0.0017684828 0.20503947 -0.11809462 0.3355746 0.2024711 0.14615032 0.03390509 -0.2499692
-0.17321251 -0.07870031 0.10137307 0.12636499 -0.24993645 0.020998765 -0.21950394 -0.08429144
0.019540869 -0.0571218 0.23169135 -0.3387959 0.1063758 0.09488456 -0.062988706 0.076311745
0.17555699 -0.0318581 -0.1006202 -0.0011795013 0.2632878 -0.032967746 0.23576322 0.2859051
0.19306827 0.21356964 0.08165508 0.02087673 -0.038184386 -0.11077048 -0.26519257 -0.10096244
0.0027759378 0.009795481 0.13024622 0.1671871 0.029683562 0.23604695 -0.15485208 -0.15714899
0.11771981 0.03459484 -0.007986153 0.18623151 -0.123152815 -0.04224137 -0.10524096 0.104815476
0.26216376 -0.011600547 0.085881814 0.014909704 0.07045573 -0.28280243 -0.008844252 0.029501257
00000000: 70cc e7ba def5 513e 98db f1bd 6fd0 ab3e
00000010: 9654 4f3e 6ea8 153e 10e0 0a3d edf7 7fbe
00000020: 9f5e 31be a12d a1bd af9c cf3d d365 013e
00000030: 57ef 7fbe 9a05 ac3c a4c5 60be fea0 acbd
00000040: 2c14 a03c 8cf8 69bd 7f40 6d3e a876 adbe
00000050: 8edb d93d d652 c23d 3900 81bd 5549 9c3d
00000060: 36c5 333e a47d 02bd f711 cebd 7f99 9aba
00000070: a9cd 863e 3009 07bd ea6b 713e 2762 923e
00000080: b0b3 453e 00b2 5a3e c73a a73d ad05 ab3c
00000090: 3b67 1cbd a2db e2bd 52c7 87be 65c5 cebd
000000a0: 82ec 353b 3a7d 203c 445f 053e 1833 2b3e
000000b0: f12a f33c 4bb6 713e 8b91 1ebe aaeb 20be
000000c0: 1517 f13d 52b3 0d3d 5ad8 02bc 79b3 3e3e
000000d0: 8b37 fcbd 4905 2dbd 9388 d7bd 7fa9 d63d
000000e0: 543a 863e 3810 3ebc cee2 af3d d547 743c
000000f0: 184b 903d 7bcb 90be 7be7 10bc 9fac f13c

encoder.1.running_var f4 [64]
0.05489755 0.28384215 0.56511384 0.7622929 0.3702467 1.1652658 0.38115597 0.6650078
0.297466 0.15099353 0.14344126 0.12015528 0.750874 0.21680719 0.9609438 0.2860895
0.31124055 0.09018342 0.45863158 1.17721 0.050987598 0.24801223 0.06708894 0.28920695
0.34453067 0.053551562 0.20608392 0.40661514 1.4017645 0.19615698 0.75150055 0.9093081
0.19543903 0.16825825 0.057607245 0.17283897 0.2767174 0.18757509 0.15190092 0.324716
0.5598538 0.29550496 0.27051288 0.17627569 0.1790446 0.7605021 0.082571745 0.024209075
0.054931358 0.032112986 0.09650194 0.64015085 0.21765791 0.056430466 0.09141147 0.9001794
0.10038218 0.14821443 0.11550874 0.29472247 0.044233575 0.16508897 0.0733962 0.56406605
00000000: 41dc 603d c253 913e 4dab 103f a125 433f
00000010: fa90 bd3e 6e27 953f e026 c33e f43d 2a3f
00000020: 774d 983e 0c9e 1a3e 44e2 123e f913 f63d
00000030: 4739 403f b402 5e3e 6a00 763f 537a 923e
00000040: ec5a 9f3e 16b2 b83d c2d1 ea3e d1ae 963f
00000050: 5fd8 503d ebf6 7d3e ed65 893d ef12 943e
00000060: 5366 b03e e258 5b3d aa07 533e dc2f d03e
00000070: 056d b33f 60dd 483e 5762 403f 6ac8 683f
00000080: 2b21 483e e44b 2c3e 93f5 6b3d b3fc 303e
00000090: e7ad 8d3e af13 403e ea8b 1b3e 2d41 a63e
000000a0: 9452 0f3f 6d4c 973e aa80 8a3e 9d81 343e
000000b0: 7857 373e 44b0 423f 601b a93d 1c52 c63c
000000c0: b4ff 603d e888 033d cfa2 c53d ede0 233f
000000d0: b7e1 5e3e a223 673d f035 bb3d 2872 663f
000000e0: 2c95 cd3d 86c5 173e d98f ec3d dde5 963e
000000f0: 442e 353d 150d 293e bf50 963d a266 103f

encoder.4.weight f4 [128, 64, 3, 3]
0.03354424 -0.009609562 0.04050098 -0.0027574105 0.02997353 0.019872947 -0.033039548 0.008115144
-0.03292599 -0.03509913 0.006787035 -0.037534006 -0.037747342 -0.03822802 -0.029797127 -0.018630622
-0.038443584 -0.026550537 0.024976319 0.007037278 -0.011623787 4.9818103e-05 0.027956892 -0.030246742
0.0097644 0.0021659208 -0.022325244 0.022114411 0.03933703 0.012854507 -0.03914083 0.027845036
0.039070148 -0.018606441 -0.0060675987 0.013876863 0.024801135 0.030267436 0.032954384 -0.02909847
0.026561463 -0.03655013 0.011630385 -0.003984228 -0.0138169555 0.030338366 0.030945707 0.013711899
-0.0020389897 0.027080406 0.036643498 -0.036663987 -0.013599338 -0.013072304 0.037930407 0.022717446
0.033360623 0.0030517273 -0.035205927 -0.022144973 -0.0026663456 -0.0033551268 0.013034585 0.013786213
-0.034794897 0.010163432 -0.0031237234 -0.04011799 -0.0023365545 0.02682871 -0.005419432 -0.0061988365
-0.02865686 -0.015026656 -0.02899844 -0.0009888088 -0.03618239 0.037453037 -0.034700725 -0.013814628
-0.032696877 -0.03950935 -0.004503688 -0.015139335 -0.03971637 -0.034764756 -0.0055021285 -0.012121759
0.03582062 -0.015879475 0.026889702 0.007104327 0.0033872498 0.020865452 0.040041436 0.023911772
-0.0026949877 0.033192944 0.009839606 -0.025462113 0.01041259 -0.00048151534 -0.03126441 -0.027654283
0.022795748 0.020537151 -0.017988253 0.019010296 0.0020537733 0.02513092 -0.037121415 -0.005724376
-0.020526653 -0.027486572 -0.010202275 0.008679844 -0.008863102 0.032559607 -0.018523669 0.012446832
-0.010048827 0.01405249 -0.01212144 0.019460939 0.00633612 -0.029253874 0.00043360208 -0.015388686
0.012904599 0.020351764 0.027804334 0.037325177 0.013123763 -0.010195097 -0.008099902 -0.020653717
0.005842645 -0.021733718 -0.0071958825 0.019269155 0.00096352823 0.02447522 -0.01874565 0.028642174
0.016400425 -0.041400444 0.019971663 0.016148496 0.016070252 -0.033712234 0.018041883 0.034146573
0.03613162 -0.010345018 0.026244631 0.0072629116 -0.014713823 -0.0104075195 0.016961679 -0.01588331
-0.004820857 -0.020972008 -0.010614454 0.011140488 0.0013050842 0.027715972 0.02266427 0.032342687
-0.013549142 -0.0261638 -0.022051878 -0.03928444 0.037978448 -0.030109543 -0.012493755 0.01491594
0.018584859 -0.0211676 -0.014930417 0.03348769 -0.038888495 -0.029800901 0.01717105 -0.0102439495
-0.019534148 0.038575448 0.033073913 -0.030798433 -0.020725625 -0.028824592 -0.032648258 -0.008178174
-0.022994446 -0.03683426 -0.025913998 0.034686532 0.03203145 -0.0052325972 0.010360996 -0.01928387
-0.0046501765 0.008459754 0.029889094 0.013031482 -0.017870728 -0.027679572 -0.017145112 0.038035005
0.023216616 -0.03129034 0.010826949 -0.009731057 0.030023294 0.01116205 -0.032223385 0.02808722
0.024291674 0.038901616 0.038342994 0.0051787896 -0.019509794 0.03721404 0.031996746 -0.0007613768
-0.028686484 0.039284524 -0.023170255 0.030401107 -0.038413133 0.010902688 0.029379167 -0.015493553
0.03744407 0.035987284 0.028136991 0.016136898 -0.005580432 0.0073331483 0.0027566324 -0.008941029
-0.028121307 -0.015438697 0.0014993184 0.0031774552 -0.0346889 -0.034882 -0.0013876014 -0.029805636
0.00250799 -0.022097327 -0.027102847 -0.0065826722 -0.04147944 -0.027826313 0.033611704 0.019106578
00000000: af65 093d 6d71 1dbc 5be4 253d acb5 34bb
00000010: 0c8b f53c 97cc a23c 7a54 07bd 62f5 043c
00000020: 67dd 06bd 1bc4 0fbd c765 de3b 42bd 19bd
00000030: f59c 1abd fc94 1cbd 1b19 f4bc 3f9f 98bc
00000040: 0577 1dbd 8380 d9bc 239b cc3c f798 e63b
00000050: b271 3ebc c8f3 5038 da05 e53c 04c8 f7bc
00000060: ddfa 1f3c 1ff2 0d3b 6ee3 b6bc 4829 b53c
00000070: de1f 213d b69b 523c 2352 20bd 461b e43c
00000080: 0508 203d 896c 98bc b5d2 c6bb c85b 633c
00000090: c02b cb3c 6af3 f73c 2dfb 063d ea5f eebc
000000a0: 6d97 d93c 97b5 15bd 5f8d 3e3c 208e 82bb
000000b0: 8360 62bc 2a88 f83c da81 fd3c dfa7 603c
000000c0: 92a0 05bb bad7 dd3c 7e17 163d fa2c 16bd
000000d0: c2cf 5ebc 382d 56bc ea5c 1b3d f019 ba3c
000000e0: 26a5 083d 7dff 473b 1734 10bd 6069 b5bc
000000f0: dbbd 2ebb b0e1 5bbb 038f 553c 91df 613c
00000100: 1885 0ebd 8684 263c 62b7 4cbb c352 24bd
00000110: e120 19bb e2c7 db3c 7e95 b1bb 9c1f cbbb
00000120: cbc1 eabc 5d32 76bc 238e edbc eb9a 81ba
00000130: fc33 14bd 5b68 193d 5922 0ebd c056 62bc
00000140: 29ed 05bd 8ed4 21bd ac93 93bb f90a 78bc
00000150: a2ad 22bd 7d65 0ebd 334b b4bb 589a 46bc
00000160: a4b8 123d ac15 82bc cb47 dc3c 6acb e83b
00000170: 9ffc 5d3b 06ee aa3c 7d02 243d 9fe2 c33c
00000180: 649e 30bb 53f5 073d 4c36 213c ec95 d0bc
00000190: 9199 2a3c e573 fcb9 1c0f 00bd 3c8b e2bc
000001a0: 26be ba3c 873d a83c 1a5c 93bc 7bbb 9b3c
000001b0: 9998 063b 5cdf cd3c a00c 18bd 8c93 bbbb
000001c0: 8327 a8bc 852b e1bc 7127 27bc e835 0e3c
000001d0: 8b36 11bc 395d 053d f3be 97bc cced 4b3c
000001e0: d6a3 24bc 6a3c 663c 0199 46bc 8c6c 9f3c
000001f0: 3a9f cf3b d2a5 efbc 1655 e339 d420 7cbc
00000200: d06d 533c beb8 a63c eac5 e33c 49e2 183d
00000210: 0d05 573c 5609 27bc 74b5 04bc fc31 a9bc
00000220: a973 bf3b e90a b2bc 70cb ebbb 59da 9d3c
00000230: 4995 7c3a 4280 c83c 7a90 99bc fea2 ea3c
00000240: 2f5a 863c 8393 29bd 9d9b a33c da49 843c
00000250: c3a5 833c d715 0abd 92cc 933c 47dd 0b3d
00000260: c0fe 133d 267e 29bc fbfe d63c b8fd ed3b
00000270: 3f12 71bc 4d84 2abc 38f3 8a3c b71d 82bc
00000280: 48f8 9dbb 7dcd abbc 3fe8 2dbc 9886 363c
00000290: 5c0f ab3a 9b0c e33c 6baa b93c c479 043d
000002a0: 38fd 5dbc 7755 d6bc 24a6 b4bc b9e8 20bd
000002b0: 4a8f 1b3d 4aa8 f6bc 9bb2 4cbc fd61 743c
000002c0: 463f 983c ad67 adbc b59e 74bc 632a 093d
000002d0: 8b49 1fbd 0521 f4bc 4daa 8c3c 3dd6 27bc
000002e0: 1406 a0bc 4a01 1e3d 8378 073d ff4c fcbc
000002f0: c9c8 a9bc 8d21 ecbc 2eba 05bd bffd 05bc
00000300: d95e bcbc 85df 16bd 9849 d4bc 7713 0e3d
00000310: 6933 033d 3576 abbb 2bc1 293c 35f9 9dbc
00000320: 8260 98bb c89a 0a3c f9d9 f43c ff81 553c
00000330: a265 92bc 45c0 e2bc e873 8cbc 98ca 1b3d
00000340: c630 be3c 4d2a 00bd 8463 313c 036f 1fbc
00000350: 69f3 f53c 08e1 363c abfc 03bd 2b17 e63c
00000360: 55ff c63c 4d57 1f3d 8b0d 1d3d d6b2 a93b
00000370: 01d3 9fbc c06d 183d 050f 033d 2297 47ba
00000380: ebff eabc cfe8 203d 8ccf bdbc be0b f93c
00000390: 1757 1dbd 30a1 323c 94ac f03c acd8 7dbc
000003a0: f45e 193d 6767 133d 8c7f e63c 8731 843c
000003b0: 0edc b6bb e84a f03b 9ea8 343b 657d 12bc
000003c0: a85e e6bc 97f2 7cbc c784 c43a da3c 503b
000003d0: f315 0ebd 6ee0 0ebd 2de0 b5ba f32a f4bc
000003e0: 175d 243b 7405 b5bc ca06 debc 75b3 d7bb
000003f0: 58e6 29bd 02f4 e3bc 6dac 093d 6685 9c3c

encoder.4.bias f4 [128]
-0.0084162215 -0.010248101 -0.002746192 -0.026600804 0.033501837 -0.026672244 -0.035265073 -0.038722236
0.01709778 -0.023342848 0.022146732 0.03819675 0.0071346886 0.031144574 0.0045282687 -0.00070094306
0.04166503 0.021759005 0.026092343 -0.0082916785 -0.03722749 -0.010918017 -0.034310114 0.02894193
-0.011204596 0.01932502 0.038856246 0.037966486 -0.00984015 -0.014447626 0.018739078 -0.01700343
0.014186999 0.0008530991 0.025119904 0.013408072 0.023730222 0.015142416 -0.0038852291 0.04152332
0.01826121 0.014994177 -0.008732877 0.025664056 0.03948733 0.012052861 -0.012045574 -0.034123167
0.014489848 0.0029721735 -0.023436403 0.014105779 0.022478066 0.024367915 0.025165256 -0.006832098
0.0018792284 0.018784693 -0.018391302 -0.008398965 -0.02528653 -0.022278218 0.01713044 -0.026434092
-0.011007258 0.017531008 -0.030048262 -0.036742304 0.026332222 -0.021043664 0.017413866 -0.01688971
-0.03641542 -0.013439346 0.038138974 -0.00083379063 0.03149414 -0.0043856953 0.021016542 0.03173821
0.041373964 0.024858147 0.020382944 -0.018889723 0.021306815 0.040677648 0.02027136 0.008302864
0.030184831 -0.02462989 0.005540729 0.0025977194 -0.022663614 0.0011175622 0.039433822 0.009254601
-0.02624733 -0.018816208 -0.010512411 0.0033080096 -0.0020941135 -0.039033055 0.041124843 0.030324198
0.03611747 0.008599741 0.029370578 -0.029263096 0.011017743 0.03265578 -0.010884291 0.0077652857
-0.017711172 -0.02870997 0.01836623 0.030437283 0.032811005 -0.016149234 0.032067675 0.024334198
0.035857815 0.011617923 0.030518573 -0.0027963894 0.0076176845 0.0020290331 -0.021730686 -0.033499897
00000000: 31e4 09bc a7e7 27bc 75f9 33bb eee9 d9bc
00000010: 3939 093d c07f dabc 1c72 10bd 359b 1ebd
00000020: a510 8c3c 8039 bfbc 106d b53c 3274 1c3d
00000030: 1bca e93b e822 ff3c df61 943b 7ebf 37ba
00000040: f3a8 2a3d f13f b23c 9cbf d53c d2d9 07bc
00000050: da7b 18bd 7be1 32bc c388 0cbd a017 ed3c
00000060: 7b93 37bc 814f 9e3c ba27 1f3d bf82 1b3d
00000070: 9538 21bc bcb5 6cbc b282 993c c74a 8bbc
00000080: 9670 683c 83a2 5f3a 42c8 cd3c 88ad 5b3c
00000090: e265 c23c e517 783c 549f 7ebb 5b14 2a3d
000000a0: 8898 953c 23aa 753c 5714 0fbc 6d3d d23c
000000b0: 77bd 213d 5d79 453c cd5a 45bc bcc4 0bbd
000000c0: d466 6d3c ccc8 423b b3fd bfbc ed1b 673c
000000d0: ec23 b83c 399f c73c 5e27 ce3c cbdf dfbb
000000e0: 7150 f63a 5be2 993c 5ba9 96bc d09b 09bc
000000f0: b225 cfbc cf80 b6bc 2355 8c3c 4f8c d8bc
00000100: c957 34bc 309d 8f3c c627 f6bc 197f 16bd
00000110: acb6 d73c c363 acbc 86a7 8e3c 4a5c 8abc
00000120: 5628 15bd b430 5cbc 9d37 1c3d be92 5aba
00000130: 0000 013d e1b5 8fbb e22a ac3c edff 013d
00000140: bf77 293d 50a3 cb3c 22fa a63c 9fbe 9abc
00000150: a18b ae3c 9b9d 263d 2010 a63c bc08 083c
00000160: 2e46 f73c a0c4 c9bc 018f b53b 803e 2a3b
00000170: 0ba9 b9bc 2a7b 923a 5c85 213d 9ca0 173c
00000180: a404 d7bc 7324 9abc 3f3c 2cbc 31cb 583b
00000190: 653d 09bb 20e1 1fbd 8672 283d 746a f83c
000001a0: eaef 133d eee5 0c3c 919a f03c 29b9 efbc
000001b0: c383 343c 11c2 053d 0654 32bc f073 fe3b
000001c0: 0517 91bc 2c31 ebbc c774 963c 9c57 f93c
000001d0: d564 063d 664b 84bc 6559 033d 8358 c73c
000001e0: a5df 123d 1a59 3e3c 1602 fa3c a143 37bb
000001f0: c59d f93b 87f9 043b 8d04 b2bc 3037 09bd

encoder.5.weight f4 [128]
1.0007142 0.9999575 1.0001792 1.0000312 0.99964654 0.99910426 0.999965 0.99990845
0.99974996 1.0008906 0.99938285 1.0004421 0.9991008 1.0003469 0.9995843 1.0007281
1.0003052 1.0001863 0.99999326 1.000833 0.99916697 1.0006661 0.9991415 0.99920446
0.9996807 1.0004464 0.99948835 1.0000273 1.0009116 0.99902576 0.9996977 1.000137
0.99997276 1.0006037 0.99977344 0.99972296 1.0000724 1.0009897 1.0009557 1.0000658
0.9990895 0.9992066 1.0000696 0.9996363 1.000821 0.99911577 0.99937487 0.9990895
1.0006341 1.000366 1.0007168 0.99922013 0.9997038 1.0009481 0.9995697 1.0000818
1.0004363 0.99963266 0.99994135 1.0007873 1.000487 1.0000178 1.000615 0.99900144
1.0008203 0.99931246 1.000478 0.9994851 1.0009505 0.9994075 1.0003537 0.99969816
1.0007926 1.0000494 0.99970096 0.9994144 0.9994716 0.9997512 0.99988514 1.0006611
0.9995294 0.99917305 0.99982107 1.000352 0.99957055 0.9997135 0.9995219 0.999262
0.9991325 0.9998915 0.99940264 1.0009613 0.9999105 1.0008061 0.9995898 0.99986136
1.0006812 0.99949163 0.9996015 1.0005902 0.9997823 1.0004469 0.99944 1.0004386
1.0006796 0.9997395 1.000859 1.0001156 0.9999577 1.0008564 1.0008531 0.9998798
1.0002472 1.0007069 0.9991706 1.0003325 1.0006825 0.9999444 1.0000149 1.0002514
1.0002813 0.9991777 1.000592 1.0000029 1.0006255 1.0005298 1.000813 1.0001742
00000000: 6717 803f 37fd 7f3f df05 803f 0601 803f
00000010: d6e8 7f3f 4cc5 7f3f b5fd 7f3f 00fa 7f3f
00000020: 9def 7f3f 2f1d 803f 8ed7 7f3f 7d0e 803f
00000030: 12c5 7f3f 5e0b 803f c2e4 7f3f dc17 803f
00000040: 000a 803f 1b06 803f 8fff 7f3f 4c1b 803f
00000050: 68c9 7f3f d415 803f bdc7 7f3f ddcb 7f3f
00000060: 13eb 7f3f a10e 803f 78de 7f3f e500 803f
00000070: df1d 803f 27c0 7f3f 30ec 7f3f 7d04 803f
00000080: 37fe 7f3f c813 803f 27f1 7f3f d8ed 7f3f
00000090: 5f02 803f 6e20 803f 511f 803f 2802 803f
000000a0: 54c4 7f3f 01cc 7f3f 4802 803f 2ae8 7f3f
000000b0: e71a 803f 0dc6 7f3f 08d7 7f3f 54c4 7f3f
000000c0: c714 803f fe0b 803f 7d17 803f e4cc 7f3f
000000d0: 97ec 7f3f 111f 803f cde3 7f3f ae02 803f
000000e0: 4c0e 803f ede7 7f3f 28fc 7f3f cc19 803f
000000f0: f50f 803f 9500 803f 2714 803f 8fbe 7f3f
00000100: e11a 803f f1d2 7f3f aa0f 803f 41de 7f3f
00000110: 251f 803f 2bd9 7f3f 970b 803f 38ec 7f3f
00000120: f919 803f 9e01 803f 67ec 7f3f 9fd9 7f3f
00000130: 5fdd 7f3f b2ef 7f3f 79f8 7f3f aa15 803f
00000140: 29e1 7f3f cec9 7f3f 46f4 7f3f 890b 803f
00000150: dbe3 7f3f 39ed 7f3f abe0 7f3f a2cf 7f3f
00000160: 26c7 7f3f e4f8 7f3f dad8 7f3f 801f 803f
00000170: 22fa 7f3f 6a1a 803f 1ee5 7f3f eaf6 7f3f
00000180: 5216 803f afde 7f3f e2e5 7f3f 5713 803f
00000190: bcf1 7f3f a50e 803f 4ddb 7f3f 5f0e 803f
000001a0: 4516 803f eeee 7f3f 261c 803f ca03 803f
000001b0: 3afd 7f3f 101c 803f f41b 803f 1ff8 7f3f
000001c0: 1a08 803f 2a17 803f a5c9 7f3f e50a 803f
000001d0: 5d16 803f 5bfc 7f3f 7d00 803f 3d08 803f
000001e0: 3809 803f 1cca 7f3f 6613 803f 1800 803f
000001f0: 7f14 803f 5c11 803f a41a 803f b505 803f

encoder.5.bias f4 [128]
0.00069798605 0.0004799011 -0.0008430976 0.0004926254 -0.0004679993 -0.0009280131 8.512626e-06 7.265485e-05
6.088062e-05 0.0007905921 -0.0005392229 0.0007308084 -0.00074407726 0.0007642599 -0.0007329428 6.881402e-05
0.00031836648 -0.0005870091 0.0001290709 0.00022350583 -0.00068309606 5.088773e-05 -0.00086572557 -0.00058661104
-0.00022528092 0.00064122333 0.00052043074 -9.521228e-06 0.0005235197 -0.0002870778 -0.0006644788 0.0006224367
0.00016824773 -9.45991e-05 -4.247149e-05 -0.00040765185 0.00017332382 0.0009771972 -0.00030145407 0.00013081697
-0.0009106047 -0.00035053777 0.0008599166 -0.00017764019 -0.00068243465 -0.0006947049 -0.00059043296 -0.0008378065
0.00037105443 -0.00033222054 0.00039751423 -0.0007172103 -0.00039630543 6.304438e-05 -0.0003184732 -9.486128e-05
0.0009498917 -0.0008275975 0.0003764075 -0.0010487852 0.00037158135 0.0008296597 0.0002263829 -0.00041620337
0.00075105624 -0.00020965414 -0.00050953164 0.00010825721 0.00086254324 -0.0009785307 -0.0007636599 -0.0007266944
0.0009183983 -0.00031471084 -0.0009209562 0.0006439781 -0.0007068209 -0.00042297598 -0.00034659455 -2.0045887e-05
-0.0002891815 -0.000514921 -0.00093193917 -0.0002894938 -0.00047801796 -0.0005202375 -8.825034e-05 -0.00078024564
-0.00097577466 0.0003687956 -0.0005111723 0.000689806 -0.00017118236 0.00075100857 -0.00036958334 -0.0002654942
0.00049850316 -0.0007685316 -0.00055233174 -0.00036505423 -0.0007733834 0.0008409558 -0.00080568646 -0.00015890726
-0.00015091644 -0.00019541653 0.0008294411 0.0005161973 0.00016334966 0.0008567926 0.00025729157 -0.00057665136
0.00024126197 0.00065305614 -0.0004652359 0.0004730314 -0.0005136929 0.00036679805 -0.000243141 -0.00015958259
-8.711458e-06 0.0002699027 -0.00026026912 -0.0009718988 0.00090472936 0.0008890849 -6.962565e-05 0.00043790528
00000000: 0df9 363a 3c9b fb39 5203 5dba 8823 013a
00000010: ce5d f5b9 e845 73ba 73d1 0e37 475e 9838
00000020: 115a 7f38 bd3f 4f3a a35a 0dba b993 3f3a
00000030: 2e0e 43ba 9d58 483a f522 40ba 3f50 9038
00000040: 6dea a639 84e1 19ba 3557 0739 e45c 6a39
00000050: cd11 33ba 4970 5538 dcf1 62ba cdc6 19ba
00000060: 6339 6cb9 c517 283a 846d 083a 5dbd 1fb7
00000070: d03c 093a ee82 96b9 6b30 2eba 052b 233a
00000080: a86b 3039 8163 c6b8 6a23 32b8 1bba d5b9
00000090: 42be 3539 4c15 803a 7b0c 9eb9 ea2b 0939
000000a0: a6b5 6eba 62c8 b7b9 076c 613a ed44 3ab9
000000b0: 6ae5 32ba db1c 36ba 49c7 1aba 3ea0 5bba
000000c0: 158a c239 e32d aeb9 7569 d039 2b03 3cba
000000d0: 37c7 cfb9 b236 8438 c0f8 a6b9 43f0 c6b8
000000e0: 2702 793a 21f3 58ba 8f58 c539 6477 89ba
000000f0: ced0 c239 857d 593a 3261 6d39 df35 dab9
00000100: 88e2 443a 9bd6 5bb9 1792 05ba 2608 e338
00000110: 4c1c 623a 0b42 80ba 5930 48ba a37f 3eba
00000120: abc0 703a c6ff a4b9 536c 71ba a4d0 283a
00000130: f349 39ba e0c2 ddb9 22b7 b5b9 3728 a8b7
00000140: 499d 97b9 c3fb 06ba 614d 74ba 33c7 97b9
00000150: 7c9e fab9 8c60 08ba 0a13 b9b8 6689 4cba
00000160: 21cb 7fba e85a c139 3100 06ba 19d4 343a
00000170: 6a7f 33b9 55df 443a a3c4 c1b9 0732 8bb9
00000180: fbad 023a 4877 49ba 5bca 10ba c064 bfb9
00000190: e2bc 4aba 9773 5c3a b434 53ba 58a0 26b9
000001a0: 533f 1eb9 bae8 4cb9 da6e 593a 6a51 073a
000001b0: d748 2b39 619a 603a 17e5 8639 6b2a 17ba
000001c0: 44fb 7c39 db31 2b3a e8ea f3b9 3301 f839
000001d0: 59a9 06ba cd4e c039 aaf3 7eb9 a055 27b9
000001e0: 6d27 12b7 ba81 8d39 bb74 88b9 06c7 7eba
000001f0: 5c2b 6d3a 7a11 693a fc03 92b8 a796 e539

encoder.5.running_mean f4 [128]
-0.08146188 -0.15664046 -0.7027262 -0.26879942 0.11154332 0.3561584 -0.44402537 -0.09687304
-0.070021495 -0.328072 0.13012475 0.036755133 0.21925026 0.21512237 0.010405131 0.07803116
0.095056236 0.082585014 0.35443103 0.11837989 -0.5010195 0.25776213 -0.12101022 0.13362524
0.0680898 -0.070424356 -0.0371143 0.6798541 0.14100885 -0.47344035 -0.1286664 -0.28513253
0.062217247 0.38706094 0.2196521 -0.28269804 0.43519482 0.19489744 0.6763604 0.39720586
-0.23638082 0.35667697 0.18888433 -0.08539464 0.14255646 -0.0055272034 -0.36491495 -0.3825057
0.15999918 0.10815721 -0.4059891 0.12715751 -0.007311677 0.49724787 -0.39739165 0.021796936
-0.0071618734 0.41332197 -0.59702724 0.2925968 0.1947568 0.7769086 0.44678408 -0.20026676
0.50164455 -0.09595109 -0.06923907 0.08670533 0.14478327 -0.33396083 0.029823741 0.3404209
-0.64409626 0.7096608 0.15295012 0.20243059 0.31765696 -0.23906831 0.18628494 0.54831636
-0.7439003 -0.10417141 0.07429403 0.51563686 -0.11450296 0.20313941 -0.17595719 0.04431662
0.01892315 -0.21067137 -0.3733086 -0.028608048 0.17009701 -0.095587574 -0.4984993 0.26000217
0.08617009 0.18788442 -0.2696009 -0.060913306 -0.14338613 0.20136517 0.023108222 -0.23728319
0.2781676 -0.3936659 -0.23842451 0.07670039 0.012713386 -0.3042049 0.3120129 0.16361138
-0.045773968 0.14040783 -0.43455458 0.025059698 0.5541825 -0.40849316 0.03483056 0.0750323
-0.30515996 -0.3936749 0.66550153 0.18865363 0.16108014 0.20881222 0.15137126 -0.15920705
00000000: 7cd5 a6bd 5b66 20be dde5 33bf 14a0 89be
00000010: d370 e43d 655a b63e 4b57 e3be 5f65 c6bd
00000020: 6e67 8fbd 0ef9 a7be 6c3f 053e 8d8c 163d
00000030: 2483 603e 0a49 5c3e 487a 2a3c cdce 9f3d
00000040: d8ac c23d 5522 a93d fc77 b53e 2871 f23d
00000050: d042 00bf 66f9 833e 35d4 f7bd 0ed5 083e
00000060: aa72 8b3d a53a 90bd 2a05 18bd eb0a 2e3f
00000070: a064 103e c666 f2be 20c1 03be e4fc 91be
00000080: 83d7 7e3d da2c c63e 7bec 603e ccbd 90be
00000090: dbd1 de3e 3293 473e f525 2d3f 915e cb3e
000000a0: d00d 72be 5d9e b63e e56a 413e 63e3 aebd
000000b0: 52fa 113e 8b1d b5bb 22d6 babe cad7 c3be
000000c0: d3d6 233e 8781 dd3d cedd cfbe 9435 023e
000000d0: cb96 efbb 4697 fe3e eb76 cbbe 7d8f b23c
000000e0: 26ae eabb f09e d33e c7d6 18bf 3fcf 953e
000000f0: 546e 473e 7be3 463f e2c0 e43e bb12 4dbe
00000100: c76b 003f 0182 c4bd 37cd 8dbd 9092 b13d
00000110: 1142 143e eafc aabe eb50 f43c a64b ae3e
00000120: 7ee3 24bf 55ac 353f f59e 1c3e f749 4f3e
00000130: efa3 a23e 53ce 74be 7bc1 3e3e 765e 0c3f
00000140: 4070 3ebf d257 d5bd 7827 983d c700 043f
00000150: 8780 eabd c703 503e 1f2e 34be 5885 353d
00000160: b904 9b3c 3cba 57be 4e22 bfbe 6d5b eabc
00000170: e92d 2e3e 6bc3 c3bd 4d3b ffbe 011f 853e
00000180: f279 b03d c664 403e 2109 8abe 3b80 79bd
00000190: d0d3 12be ac32 4e3e 744d bd3c 5dfa 72be
000001a0: fc6b 8e3e 948e c9be 8e25 74be 1815 9d3d
000001b0: ce4b 503c bfc0 9bbe 28c0 9f3e be89 273e
000001c0: 7c7d 3bbd 12c7 0f3e f07d debe ff49 cd3c
000001d0: e8de 0d3f 0426 d1be 7daa 0e3d 89aa 993d
000001e0: ed3d 9cbe c28f c9be 4f5e 2a3f 6b2e 413e
000001f0: 31f2 243e dfd2 553e 1101 1b3e 2c07 23be

encoder.5.running_var f4 [128]
0.074752636 0.1540887 0.39293134 0.13283043 0.17172523 0.25983766 0.09130001 0.14763509
0.14224443 0.16983846 0.23317811 0.08053822 0.20425352 0.26675457 0.10334994 0.08778141
0.09086741 0.27944702 0.18147022 0.14639926 0.18937336 0.15543878 0.14219254 0.30765173
0.07508214 0.2170229 0.14948806 0.41917604 0.12285563 0.16417854 0.05907396 0.4260964
0.09560053 0.11198387 0.08183411 0.11662489 0.19742288 0.113895975 0.18033572 0.1979474
0.14501666 0.1327089 0.08830056 0.11161146 0.09800456 0.33397502 0.119088665 0.1225027
0.14016655 0.07308544 0.12011901 0.14443165 0.28973582 0.12031299 0.09613287 0.18715721
0.2766428 0.1346311 0.25611588 0.12386092 0.085064165 0.38649064 0.10281798 0.08648455
0.21248554 0.1318748 0.13498884 0.13445455 0.084954366 0.10794844 0.05598793 0.10514904
0.30418962 0.24501035 0.14612666 0.483125 0.26012835 0.08814638 0.109225966 0.14955524
0.30387062 0.10753378 0.07280343 0.13275395 0.18668722 0.14573929 0.16500476 0.1273711
0.049911443 0.04601784 0.23611405 0.1401437 0.111848645 0.038403317 0.15783527 0.12302504
0.08014666 0.061670028 0.081367634 0.056702804 0.07088832 0.20850158 0.18997467 0.12355182
0.16914451 0.12167736 0.09002294 0.107824996 0.19366917 0.2938268 0.11051054 0.15305059
0.17208833 0.18617757 0.27216968 0.058295004 0.20003521 0.16829109 0.23472138 0.14271733
0.09936306 0.12461462 0.18404901 0.11747469 0.18944143 0.17649424 0.13512266 0.24473724
00000000: e917 993d 6ec9 1d3e 4c2e c93e b304 083e
00000010: bdd8 2f3e 7109 853e 80fb ba3d a72d 173e
00000020: 86a8 113e 22ea 2d3e 3ec6 6e3e 39f1 a43d
00000030: d627 513e 0e94 883e 22a9 d33d bdc6 b33d
00000040: b118 ba3d ae13 8f3e 54d3 393e b0e9 153e
00000050: 17eb 413e 582b 1f3e ec9a 113e 8784 9d3e
00000060: aac4 993d 403b 5e3e 6613 193e 3e9e d63e
00000070: bc9b fb3d 6b1e 283e 89f7 713d 4f29 da3e
00000080: 36ca c33d cd57 e53d a498 a73d 08d9 ee3d
00000090: 3929 4a3e 4b42 e93d eda9 383e b9b2 4a3e
000000a0: 3f7f 143e d8e4 073e edd6 b43d 8d94 e43d
000000b0: 9db6 c83d c6fe aa3e c2e4 f33d b2e2 fa3d
000000c0: d287 0f3e d2ad 953d f500 f63d e4e5 133e
000000d0: 4158 943e a866 f63d 4fe1 c43d 24a6 3f3e
000000e0: 20a4 8d3e bcdc 093e 9f21 833e cbaa fd3d
000000f0: 1f36 ae3d 1ae2 c53e 3c92 d23d d01e b13d
00000100: cf95 593e 300a 073e 843a 0a3e 74ae 093e
00000110: 8efc ad3d 1214 dd3d 9a53 653d 6158 d73d
00000120: bebe 9b3e fee3 7a3e 3aa2 153e 295c f73e
00000130: 8b2f 853e 1786 b43d ddb1 df3d 0225 193e
00000140: ee94 9b3e ac3a dc3d f719 953d a7f0 073e
00000150: ef2a 3f3e ae3c 153e 02f7 283e 926d 023e
00000160: f16f 4c3d 347d 3c3d e2c7 713e d581 0f3e
00000170: e710 e53d cc4c 1d3d 929f 213e 8df4 fb3d
00000180: ef23 a43d b699 7c3d 13a4 a63d 3341 683d
00000190: e52d 913d 7081 553e b888 423e bd08 fd3d
000001a0: 3834 2d3e fb31 f93d f25d b83d 5ad3 dc3d
000001b0: 3651 463e 7770 963e 5a53 e23d 4bb9 1c3e
000001c0: ec37 303e 55a5 3e3e d359 8b3e bec6 6e3d
000001d0: 08d6 4c3e 8054 2c3e cd5a 703e 7e24 123e
000001e0: dc7e cb3d f335 ff3d 5877 3c3e 9296 f03d
000001f0: effc 413e e8ba 343e 985d 0a3e 669c 7a3e

decoder.0.weight f4 [64, 128, 3, 3]
-0.0076120556 0.022595681 0.0052999957 -0.020157203 0.017810142 -0.022167252 0.015074066 -0.024640638
-0.017414035 0.012571636 0.008885288 -0.022734737 -0.019489147 -0.0132667385 -0.004339335 -0.007327918
0.01624577 0.0056050173 0.016561836 -0.015139966 0.027464183 0.02912618 0.005348329 -0.007041083
-0.0097021 -0.00940417 -0.010033832 -0.027070588 0.029566046 -0.026734307 0.00287832 -0.0037588573
0.0010825865 0.011720054 -0.027162436 -0.020551747 0.024790518 0.015894465 -0.021008536 0.011496279
-0.019363342 -0.014066559 0.000900592 0.017485125 -0.025164312 -0.0040829736 -0.011366206 -0.018938333
0.025424898 0.0015071289 0.016673686 -0.00580237 -0.0044897 0.0075693177 0.020733124 0.021876836
-0.020714253 0.02384048 0.006625434 0.020446014 0.017934484 0.020350339 0.010504212 0.01491573
-0.017707923 0.011829532 -0.023361972 0.0116500035 -0.022368662 -0.00062655535 -0.013798125 -0.015278239
-0.006560834 -0.01827133 -0.015115569 0.0021692226 -0.018658914 0.0082350755 0.018617863 -0.020169666
-0.029309781 0.014726523 -0.0006777497 -0.0068646604 0.019589957 0.028697116 0.018117415 -0.015967155
0.013979688 0.0010680669 -0.00064333394 -0.028110387 0.016043518 -0.024761848 0.021274287 -0.026493696
-0.006773972 -0.0040352074 0.0034700364 -0.0008821212 -0.0031092719 -0.02216271 -0.02944458 0.0048597115
-0.017956393 0.0077194744 0.021549786 0.00046125357 -0.0022094052 0.012569694 -0.0026090278 -0.011530509
0.017442802 0.015487136 0.023679039 -0.0036944863 0.021395657 -0.005904333 0.025797434 0.0068558124
-0.0018095119 -0.02068821 0.019182974 0.0210296 -0.018873475 0.023247857 0.005207459 -0.009465527
-0.007940198 -0.018451521 -0.009621554 -0.028462812 -0.02026213 -0.021966642 0.0015920103 -0.013571365
0.0032839074 0.00020808328 0.005022702 0.024028398 -0.009796056 0.025602924 -0.023876276 -0.010451147
-0.0010864877 -0.013623595 0.0036339082 0.011989983 0.018047499 -0.007409812 0.025674345 -0.014778666
-0.018526228 0.0024197507 -0.027059563 -0.004467307 -0.0131398095 -0.029690113 0.02660248 -0.027776338
0.008192101 -0.009041814 0.0035975624 0.0035895102 -0.0010559126 -0.020695115 -0.01461928 -0.019298395
0.023918549 0.022651993 0.0062004277 -0.01968445 -0.01695896 -0.022921667 -0.029584918 0.00019266739
0.022629721 0.018632377 -0.022441536 -0.028960403 0.022470577 0.020099355 -0.01685103 -0.023127127
-0.0017183829 -0.015387307 0.0016763655 -0.009672604 -0.005588104 0.025832502 -0.0016749694 -0.01430278
-0.028621651 0.009082163 -0.00076237763 -0.007224625 0.021617668 0.020257154 0.02678945 -0.013254346
-0.016187916 -0.009017483 -0.006883838 -0.027153166 -0.0032361418 -0.0123166535 -0.014384986 -0.010590953
0.01771305 0.024901627 0.0102056675 -0.018096255 -0.013331776 0.0204187 0.021858148 0.014930071
-0.005369588 0.015537968 -0.021390893 0.01709499 -0.008573286 0.026098434 -0.010632274 0.0070034866
0.017804865 0.021151755 -0.0026327155 0.004599008 -0.0042546317 -0.01354197 -0.0071325433 0.0062053157
0.0067946715 -0.025751047 0.0030509208 0.0028871498 -0.017372284 0.019186292 -0.028389487 0.016219435
0.023856211 -0.0069993897 0.01782975 0.018805783 -0.007764363 -0.017983764 0.027442101 0.018613996
0.022273155 -0.0040644603 0.0069992268 -0.01141843 -0.003632 -0.02431782 -0.016545475 -0.012993236
00000000: 8d6e f9bb 941a b93c 96ab ad3b b820 a5bc
00000010: 93e6 913c 1998 b5bc 37f9 763c 2adb c9bc
00000020: e1a7 8ebc 43f9 4d3c 9993 113c 333e babc
00000030: b4a7 9fbc bc5c 59bc fb30 8ebb 081f f0bb
00000040: d915 853c 4baa b73b b0ac 873c 9f0d 78bc
00000050: 91fc e03c 079a ee3c 0941 af3b e3b8 e6bb
00000060: 8ff5 1ebc f313 1abc f164 24bc 23c3 ddbc
00000070: 7e34 f23c e801 dbbc 32a2 3c3b 2957 76bb
00000080: 93e5 8d3a 7805 403c c283 debc 235c a8bc
00000090: 7c15 cb3c 1c35 823c 181a acbc e45a 3c3c
000000a0: df9f 9ebc 6d77 66bc b515 6c3a f73c 8f3c
000000b0: 6325 cebc 77ca 85bb 5339 3abc 9024 9bbc
000000c0: e047 d03c db8a c53a 4197 883c cf21 bebb
000000d0: 551e 93bb 0a08 f83b 83d8 a93c 0d37 b33c
000000e0: f0b0 a9bc 1c4d c33c 2b1a d93b 667e a73c
000000f0: 57eb 923c c1b5 a63c dc19 2c3c 1b61 743c
00000100: 3510 91bc a7d0 413c 9b61 bfbc a8df 3e3c
00000110: 7c3e b7bc 6b3f 24ba 8811 62bc 9451 7abc
00000120: 44fc d6bb c2ad 95bc 4ba7 77bc 8429 0e3b
00000130: 94da 98bc 69ec 063c 7d84 983c db3a a5bc
00000140: 111b f0bc 8447 713c 03ab 31ba f2f0 e0bb
00000150: 1e7b a03c 3716 eb3c f96a 943c 8dcd 82bc
00000160: 100b 653c 61fe 8b3a 69a5 28ba c147 e6bc
00000170: b26d 833c 5cd9 cabc 6a47 ae3c 4f09 d9bc
00000180: 32f8 ddbb c639 84bb 8d69 633b 273e 67ba
00000190: edc4 4bbb 928e b5bc c335 f1bc 373e 9f3b
000001a0: 4919 93bc a5f3 fc3b 2d89 b03c 68d4 f139
000001b0: abcb 10bb 1ef1 4d3c 39fc 2abb 76ea 3cbc
000001c0: 35e4 8e3c c2bd 7d3c 8bfa c13c 321f 72bb
000001d0: f245 af3c 2379 c1bb 2455 d33c b9a6 e03b
000001e0: 252d edba 527a a9bc 9d25 9d3c 4546 ac3c
000001f0: 8c9c 9abc 4a72 be3c 55a3 aa3b 4c15 1bbc
00000200: 9b17 02bc a527 97bc b9a3 1dbc d82a e9bc
00000210: c4fc a5bc 63f3 b3bc 00ab d03a 6e5a 5ebc
00000220: d336 573b ee30 5a39 7a95 a43b 34d7 c43c
00000230: a37f 20bc 39bd d13c 2e98 c3bc 4a3b 2bbc
00000240: 7a68 8eba 8035 5fbc dd26 6e3b a271 443c
00000250: 59d8 933c 02ce f2bb 0153 d23c 3822 72bc
00000260: 51c4 97bc ae94 1e3b 04ac ddbc 7d62 92bb
00000270: 5b48 57bc ae38 f3bc 72ed d93c 348b e3bc
00000280: 2938 063c 1e24 14bc 15c5 6b3b fd3d 6b3b
00000290: 8c66 8aba cd88 a9bc b485 6fbc ab17 9ebc
000002a0: d5f0 c33c ac90 b93c f52c cb3b 4941 a1bc
000002b0: 84ed 8abc 38c6 bbbc 125c f2bc c206 4a39
000002c0: f761 b93c eda2 983c 50d7 b7bc 5e3e edbc
000002d0: 3714 b83c 67a7 a43c 2c0b 8abc 1a75 bdbc
000002e0: 5d3b e1ba 0b1b 7cbc 7eb9 db3a d779 1ebc
000002f0: 6a1c b7bb af9e d33c a68a dbba 3556 6abc
00000300: f477 eabc 5acd 143c 4cda 47ba 8cbc ecbb
00000310: 8917 b13c 55f2 a53c 8c75 db3c c228 59bc
00000320: 859c 84bc 11be 13bc d291 e1bb 5170 debc
00000330: 7315 54bb cacb 49bc 01af 6bbc ad85 2dbc
00000340: f51a 913c 7ffe cb3c ac35 273c 993e 94bc
00000350: 856d 5abc 1e45 a73c dc0f b33c 429d 743c
00000360: 5ef3 afbb f692 7e3c f43b afbc cb0a 8c3c
00000370: f876 0cbc 62cc d53c fd32 2ebc 817d e53b
00000380: 82db 913c 7246 ad3c a389 2cbb 46b3 963b
00000390: 706a 8bbb 24df 5dbc 1cb8 e9bb f655 cb3b
000003a0: d6a5 de3b dcf3 d2bc f5f1 473b 5636 3d3b
000003b0: 5250 8ebc 922c 9d3c 1291 e8bc 9fde 843c
000003c0: 1a6e c33c 235b e5bb b20f 923c 960e 9a3c
000003d0: 336c febb b052 93bc 42ce e03c 617c 983c
000003e0: 3176 b63c 2a2f 85bb c559 e53b 5e14 3bbc
000003f0: d906 6ebb 2a36 c7bc 608a 87bc 95e1 54bc

decoder.0.bias f4 [64]
0.02439452 0.026124708 0.023228722 -0.019349294 0.016605612 -0.018616054 -0.015106128 0.017838432
-0.008300048 0.008206503 0.026182923 -0.0062408294 0.01594616 0.019041173 -0.029114773 -0.026724964
-0.0012984466 -0.02393715 0.012633967 0.029372126 -0.013037435 -0.028470472 -0.0031113848 0.0038878086
-0.0060443394 -0.014284338 0.0245762 -0.021465922 0.0044048848 -0.014398886 -0.012089376 -0.008837245
-0.025416706 -0.004759635 -0.0025697236 0.016623218 0.0062964866 0.02280026 -0.023588283 -0.018438933
0.017158592 0.0011096784 0.007828989 -0.017623818 0.004265945 -0.018200638 0.0065481933 0.022462185
-0.0047036516 0.006112991 0.0111399125 -0.021846099 -0.00321822 -0.024960319 -0.027581677 0.017880224
0.006018299 -0.001948815 -0.009620536 -0.016038507 0.025121508 -0.013715321 -0.008688265 -0.010364271
00000000: 04d7 c73c 7c03 d63c 294a be3c 6982 9ebc
00000010: 7e08 883c b280 98bc b17f 77bc e721 923c
00000020: edfc 07bc 9174 063c 927d d63c df7f ccbb
00000030: 85a1 823c 3cfc 9b3c 1b82 eebc 50ee dabc
00000040: a330 aaba d817 c4bc b3fe 4e3c d09d f03c
00000050: f79a 55bc e83a e9bc 60e8 4bbb 9bca 7e3b
00000060: 980f c6bb db08 6abc 0754 c93c 4dd9 afbc
00000070: da56 903b 4ee9 6bbc 8512 46bc 18ca 10bc
00000080: b236 d0bc b6f6 9bbb cf68 28bb 6a2d 883c
00000090: c252 ce3b 9cc7 ba3c 373c c1bc 3f0d 97bc
000000a0: 2d90 8c3c a172 913a 2945 003c d35f 90bc
000000b0: 57c9 8b3b 8119 95bc 3a92 d63b 9e02 b83c
000000c0: 1721 9abb 7c4f c83b 2e84 363c 97f6 b2bc
000000d0: c6e8 52bb 9579 ccbc f8f2 e1bc 8c79 923c
000000e0: 2735 c53b 616f ffba 749f 1dbc 3063 83bc
000000f0: 9fcb cd3c 3ab6 60bc 3a59 0ebc e7ce 29bc

decoder.1.weight f4 [64]
1.0005928 1.0005634 0.999778 1.0007395 0.9990767 0.99929726 1.0009232 0.9996364
1.0003146 1.000692 1.0003525 1.0005943 0.9992961 1.0007398 0.9994936 1.0009528
0.99968415 0.9994446 0.9999065 0.999396 0.9992758 1.0009211 0.99942243 1.0001944
0.9997685 1.0005537 0.9999607 1.0002109 0.99956805 1.0006278 0.9998219 0.99920654
1.0007988 0.9993218 0.9993634 1.0004689 0.9991138 0.9993093 1.0001491 0.9991094
1.000349 0.99954474 0.9994491 1.0009848 1.0005724 0.9992095 0.9995928 0.999913
0.9990282 1.0007092 0.9991928 0.9993474 1.0006676 1.0009844 0.99895823 1.0005895
1.0000905 1.0001054 1.0001096 1.0000682 1.0010977 0.99959105 1.0001364 0.9996288
00000000: 6d13 803f 7612 803f 73f1 7f3f 3b18 803f
00000010: 7ec3 7f3f f2d1 7f3f 401e 803f 2ce8 7f3f
00000020: 4f0a 803f ad16 803f 8d0b 803f 7913 803f
00000030: dfd1 7f3f 3e18 803f d0de 7f3f 391f 803f
00000040: 4deb 7f3f 9adb 7f3f dff9 7f3f 6bd8 7f3f
00000050: 8ad0 7f3f 2f1e 803f 26da 7f3f 5f06 803f
00000060: d4f0 7f3f 2512 803f 6dfd 7f3f e906 803f
00000070: b1e3 7f3f 9214 803f 54f4 7f3f 00cc 7f3f
00000080: 2d1a 803f 8ed3 7f3f 48d6 7f3f 5d0f 803f
00000090: ecc5 7f3f bcd2 7f3f e304 803f a2c5 7f3f
000000a0: 700b 803f 2ae2 7f3f e5db 7f3f 4520 803f
000000b0: c212 803f 32cc 7f3f 50e5 7f3f 4cfa 7f3f
000000c0: 50c0 7f3f 3d17 803f 19cb 7f3f 3bd5 7f3f
000000d0: e015 803f 4220 803f babb 7f3f 5113 803f
000000e0: f702 803f 7403 803f 9703 803f 3c02 803f
000000f0: f823 803f 33e5 7f3f 7804 803f ace7 7f3f

decoder.1.bias f4 [64]
0.000797838 0.00058578065 -0.0005614007 0.00044887027 -0.0007484189 -0.00035111333 0.00058067415 -0.00031853045
0.00059804635 0.00072830333 0.0006670437 -0.00012398159 -0.0008534374 -0.00031767302 0.0002439602 0.0010327953
-0.0007847283 -0.0003200751 -0.00079456245 -0.0009285146 -0.00093559094 0.0002651722 -0.00097168447 -0.00041281246
0.00054463383 -2.455139e-05 0.00075575383 -0.0008234229 0.0005184552 0.00076091505 -0.00071718526 -0.000307791
-0.00010033154 -0.0009366085 -0.00019610387 4.0148025e-05 -0.0007843364 -8.205818e-05 -0.0007871257 -0.0005054695
0.00078576617 -0.0005052576 -7.21507e-05 0.00017574652 0.00078425807 -0.0006974537 0.0006586878 0.00038776896
-0.0009867441 0.0009287434 -0.00074388285 -0.0005924368 0.00081237097 0.00041627613 -0.00097481615 -0.00085131
0.000719491 0.000307898 0.00065683457 -0.0002525258 0.0007788836 -0.00016277737 -0.00033348944 -0.00021812874
00000000: 0026 513a 138f 193a f72a 13ba 5956 eb39
00000010: 8b31 44ba a215 b8b9 6238 183a 6f00 a7b9
00000020: 36c6 1c3a 9ceb 3e3a 8cdc 2e3a 0e01 02b9
00000030: 37b9 5fba 5a8d a6b9 91cf 7f39 dc5e 873a
00000040: 3ab6 4dba c1cf a7b9 2f4a 50ba 8f67 73ba
00000050: 7242 75ba cf06 8b39 a4b8 7eba c06e d8b9
00000060: c2c5 0e3a b5f3 cdb7 c81d 463a fada 57ba
00000070: f1e8 073a 2578 473a 7d01 3cba 025f a1b9
00000080: 1669 d2b8 bc86 75ba 3ba1 4db9 9d64 2838
00000090: ed9b 4dba a616 acb8 1d57 4eba 7c81 04ba
000000a0: e0fb 4d3a 4373 04ba 9d4f 97b8 9948 3839
000000b0: ab96 4d3a 53d5 36ba caab 2c3a 784d cb39
000000c0: a355 81ba ea76 733a 2201 43ba c34d 1bba
000000d0: 4bf5 543a a33f da39 ce8a 7fba 722a 5fba
000000e0: 399c 3c3a 5f6d a139 6c2f 2c3a 7065 84b9
000000f0: fe2d 4c3a 38af 2ab9 32d8 aeb9 7db9 64b9

decoder.1.running_mean f4 [64]
-0.2078002 0.32890543 -0.1791294 0.05480544 -0.5408346 -0.34963602 0.46712488 -0.4351959
0.26891562 -0.22083186 0.038937867 -0.0697525 0.34220737 0.28075948 -0.007087494 -0.31659612
0.34486863 -0.45166996 -0.64866304 0.27485892 0.08796211 0.5460534 0.7507655 0.3015342
-0.6951107 0.46215844 -0.7604392 0.48650143 -0.034245066 -0.017630097 0.4518044 -0.31212258
0.3494684 0.6091244 -0.18038923 0.09346253 -0.17305702 0.6111884 0.36223242 -0.20727082
-0.46615708 -0.321842 -0.099865116 0.35933685 -0.25770885 -0.11648603 -0.46041968 -0.1752124
0.11759511 -0.36861968 -0.08159374 0.21415828 -0.4529087 0.8025896 0.2236355 0.31737563
-0.5817916 -0.12485275 -0.23832555 0.47610122 -0.47607836 -0.1283292 -0.0427821 0.7846872
00000000: 93c9 54be 4b66 a83e b36d 37be ab7b 603d
00000010: 2374 0abf 7e03 b3be fe2a ef3e ffd1 debe
00000020: 4faf 893e bf21 62be 507d 1f3d 66da 8ebd
00000030: ce35 af3e b5bf 8f3e 353e e8bb e318 a2be
00000040: 9f92 b03e 4941 e7be c80e 26bf 4fba 8c3e
00000050: 7b25 b43d 28ca 0b3f 2b32 403f b162 9a3e
00000060: c6f2 31bf 08a0 ec3e 25ac 42bf b716 f93e
00000070: 8e44 0cbd fe6c 90bc e852 e73e 88ce 9fbe
00000080: 86ed b23e 94ef 1b3f f4b7 38be 4869 bf3d
00000090: dc35 31be d876 1c3f 8776 b93e cd3e 54be
000000a0: 24ac eebe 7ac8 a4be 1586 ccbd 00fb b73e
000000b0: 6af2 83be 3a90 eebd 21bc ebbe e16a 33be
000000c0: b4d5 f03d b8bb bcbe 9e1a a7bd 4f4c 5b3e
000000d0: a6e3 e7be 8376 4d3f b400 653e 0f7f a23e
000000e0: 4bf0 14bf ccb2 ffbd 9d0b 74be 8ac3 f33e
000000f0: 8bc0 f3be bb68 03be 493c 2fbd 43e1 483f
