checkpoints/2025-06-02-14-53-28/last_epoch.pth (torch, 686901 bytes, 25 tensors)

encoder.0.weight f4 [64, 3, 3, 3]
0	0xbe10884c	-0.14114493
1	0xbe06e56b	-0.13173454
2	0x3d3deedc	0.046370372
3	0xbddd995c	-0.108202666
4	0x3e12e6f9	0.14345922
5	0x3dfe9f3a	0.12432714
6	0xbe36bad1	-0.17844702
7	0xbcd836c2	-0.026393298
8	0x3d67a442	0.056553133
9	0xbc9f552d	-0.019449795
10	0x3e08a329	0.1334349
11	0x3e17ce01	0.14824678
12	0xbe106d23	-0.14104132
13	0xbd955eef	-0.07293498
14	0x3e24803d	0.16064544
15	0x3df83209	0.121189184
16	0x3ddffea2	0.10937239
17	0x3e29ec65	0.16594084
18	0x3ce43c59	0.027860807
19	0x3b790214	0.0037995623
20	0x3cccef0b	0.025016328
21	0x3e2afa69	0.16697086
22	0xbd847b94	-0.06468883
23	0x3da33e07	0.07970815
24	0x3e1acd55	0.1511739
25	0xbe34b1b1	-0.17645909
26	0x3c74a47f	0.014931797
27	0xbddf215c	-0.10895035
28	0x3cd5cb8e	0.026098039
29	0x3e297caf	0.1655147
30	0xbdc56aea	-0.09639533
31	0x3df6abcd	0.12044487
32	0x3de8e716	0.11372201
33	0x3e3c05f0	0.1836164
34	0x3e3ea471	0.18617417
35	0x3e2d93a9	0.16950859
36	0x3e10b62a	0.1413199
37	0xbd360485	-0.044437904
38	0x3d462c0f	0.04838186
39	0xbcba2dbf	-0.022726892
40	0xbd82f9b9	-0.06395287
41	0xbdc823d9	-0.097724624
42	0x3c085c23	0.008322748
43	0x3dedb8b5	0.11607496
44	0xbcbf8aac	-0.023381554
45	0xbe3aef76	-0.1825541
46	0xbbd799df	-0.006579622
47	0xbe3ca2fd	-0.1842155
48	0x3db1ce7e	0.086819634
49	0x3db61ded	0.08892427
50	0x3c26888d	0.010164392
51	0xbda9668d	-0.08271513
52	0x3dfcaf5c	0.12338135
53	0x3dbe3557	0.092875175
54	0x3ca3b9d3	0.019986069
55	0x3db2c34b	0.087286554
56	0xbdced00c	-0.100982755
57	0xbc3408b8	-0.010988407
58	0x3c2dc365	0.010605668
59	0xbe3d9d2c	-0.18516988
60	0xbe3d5442	-0.18489173
61	0x3d939338	0.07205814
62	0x3e15804c	0.14599723
63	0xbdbbbf01	-0.091672905
64	0x3de72d5a	0.11287947
65	0x3e069e88	0.13146412
66	0x3cc1d507	0.02366115
67	0xbc02c5bb	-0.007981713
68	0x3dff2530	0.12458265
69	0xbdc9f58c	-0.098612875
70	0x3e16ba2e	0.1471946
71	0xbcd87648	-0.026423588
72	0xbe26f0ac	-0.16302747
73	0x3dae8457	0.085213356
74	0x3e2702d6	0.16309676
75	0x3bd99f8d	0.0066413344
76	0xbdcd5951	-0.100268014
77	0xbca35876	-0.019939642
78	0x3e050517	0.12990223
79	0xbcfccb0e	-0.030858543
80	0xbe337dbb	-0.17528431
81	0x3dc96167	0.09833031
82	0x3d485476	0.048908673
83	0xbd465b05	-0.048426647
84	0xbe0f5cd2	-0.14000252
85	0x3bfc0ba7	0.0076918188
86	0x3d7087a6	0.058723114
87	0x3d176097	0.03695735
88	0xbdea52f5	-0.11441604
89	0x3e0fa572	0.14027956
90	0x3e2f43f7	0.1711577
91	0xbe3f15d9	-0.18660678
92	0x3d34bde1	0.044126395
93	0x3d6e18e6	0.058129214
94	0x3e159465	0.1460739
95	0x3e1ff008	0.15618908
96	0xbda28e07	-0.07937246
97	0xbda4c4b4	-0.08045331
98	0x3cf4e7df	0.029895721
99	0x3e091223	0.13385825
100	0x3d8c495e	0.06849931
101	0x3e3ff894	0.18747169
102	0xbccf5048	-0.025306836
103	0x3db61b2e	0.08891903
104	0x3b9a0144	0.004699858
105	0x3de51cd8	0.11187142
106	0xbc4667a4	-0.012109671
107	0xbe260e2c	-0.16216344
108	0x3c0bf3d0	0.008542016
109	0xbcc0ec6c	-0.023550235
110	0xbdd31480	-0.103066444
111	0xbe2b2f5d	-0.16717286
112	0x3c8143fc	0.015779488
113	0xbd66cbfc	-0.05634688
114	0xbd4bb786	-0.04973557
115	0xbe2847b6	-0.16433606
116	0x3d02e3f3	0.03195567
117	0x3e2d2924	0.16910225
118	0xbe059131	-0.13043667
119	0x3e1547c7	0.14578162
120	0xbe0f1478	-0.13972652
121	0xbd0d64c1	-0.034519915
122	0xbdec8e88	-0.11550623
123	0xba5b09e3	-0.000835566
124	0x3ddaff74	0.10693255
125	0xbe2b9681	-0.16756631
126	0x3d2e41c0	0.042543173
127	0xbd48d952	-0.049035378
128	0x3dd6acb6	0.10482161
129	0x3e30b51f	0.17256592
130	0xbdc84695	-0.097790875
131	0x3d4a3c4a	0.049373902
132	0x3e0d8391	0.1381972
133	0xbe12d5a8	-0.14339316
134	0xbe112b37	-0.14176641
135	0x3da72773	0.08161821
136	0x3def3d06	0.11681561
137	0x3dd2e02f	0.10296666
138	0x3db63c5c	0.088982314
139	0xbdf24e94	-0.11831394
140	0xbbf64036	-0.0075149788
141	0x3e1da7b2	0.15396002
142	0x3e22b4b7	0.1588925
143	0x3deeff39	0.116697736
144	0xbc806689	-0.015673893
145	0xbdb8384c	-0.08995113
146	0xbdc10a38	-0.09425777
147	0x3e367157	0.17816673
148	0x3e3e265c	0.1856932
149	0x3e10d8b1	0.14145161
150	0x3d8c8ed5	0.068631805
151	0xbdcb1ecb	-0.09917983
152	0x3e351a7a	0.17685881
153	0x3c8f1e1f	0.017470418
154	0xbde18f06	-0.11013608
155	0xbd983cb7	-0.074334554
156	0x3e232ff9	0.15936269
157	0xbcb792bb	-0.022408834
158	0xbdd4fe78	-0.104000986
159	0xbe3eb941	-0.18625356
160	0x3d4f34df	0.05058753
161	0xbdd6d214	-0.10489288
162	0xbe2570c5	-0.161563
163	0xbe157018	-0.14593542
164	0x3e41a968	0.1891228
165	0x3e3348cf	0.17508243
166	0xbe0b962a	-0.13631502
167	0xbe0320b5	-0.12805445
168	0xbe264708	-0.16238034
169	0xbe0c6dd4	-0.13713771
170	0x3d6b5ea9	0.05746332
171	0xbe434a13	-0.19071226
172	0x3d094de5	0.03352155
173	0x3e0a4f6b	0.13506858
174	0xbc5374ad	-0.012906236
175	0xbd87aaa9	-0.06624348
176	0x3df92a79	0.12166304
177	0x3dbbb8c1	0.091660984
178	0xbe04c318	-0.12965047
179	0x3e2f927d	0.17145725
180	0xbe01868b	-0.1264898
181	0x3e34e0ca	0.17663875
182	0xbe019c72	-0.12657335
183	0xbd559b29	-0.052149925
184	0x3da647a2	0.081191316
185	0xbd009095	-0.031387884
186	0xbde079d3	-0.10960736
187	0xbd1fdec3	-0.0390308
188	0x3e1ab910	0.15109658
189	0xbd509872	-0.050926633
190	0xbe421730	-0.18954158
191	0xbc89d839	-0.016826736
192	0x3e32b1a8	0.17450583
193	0xbe087e8d	-0.13329525
194	0x3e3dd225	0.18537195
195	0x3cb0c033	0.021576023
196	0xbd9a2165	-0.07525901
197	0x3d538439	0.05163977
198	0x3d5e8574	0.05432649
199	0x3c1e677d	0.009668228
200	0xbe0ff1c1	-0.14057066
201	0xbe2a6806	-0.16641244
202	0x3d3dbe57	0.0463241
203	0xbda76995	-0.08174435
204	0xbccfeacb	-0.025380513
205	0x3d0a90fc	0.033829674
206	0xbcb325d2	-0.02186862
207	0xbd8402e0	-0.06445861
208	0x3dbd85ea	0.09254058
209	0x3d21f5bb	0.039540987
210	0x3c8a638c	0.01689317
211	0x3de0596e	0.10954557
212	0xbe2a1464	-0.16609341
213	0x3d994358	0.07483548
214	0x3e196b7f	0.14982413
215	0xbe02bff7	-0.12768541
216	0x3d1f911e	0.038956754
217	0xbd9e0f33	-0.07717743
218	0xbe010cb9	-0.1260251
219	0x3d17ea60	0.03708875
220	0xbdd2f802	-0.1030121
221	0x3e18db1d	0.14927335
222	0x3caae6f1	0.020862075
223	0xbd181109	-0.03712562
224	0xbdb9c780	-0.09071255
225	0x3dd21736	0.102583334
226	0x3dddc079	0.10827727
227	0xbe405970	-0.18784118
228	0xbe2f4fb0	-0.17120242
229	0xbe3a08f1	-0.18167473
230	0x3d96156b	0.07328304
231	0xbdb97472	-0.09055413
232	0x3b5af9f3	0.0033413142
233	0xbe056735	-0.13027652
234	0xbc894ea4	-0.016761132
235	0xbe263842	-0.16232398
236	0xbd6f984a	-0.058494844
237	0xbe3c659a	-0.18398133
238	0xbda3bd65	-0.079951085
239	0xbe02bdee	-0.12767765
240	0xbe2b7f7e	-0.16747853
241	0xbe19fd04	-0.15037924
242	0x3e2fabe6	0.17155418
243	0xbcf18926	-0.029484343
244	0xbde70dc4	-0.112819225
245	0x3e1a72fa	0.15082923
246	0xbe173755	-0.14767201
247	0xbe2357d9	-0.1595148
248	0x3dd09b83	0.101859115
249	0xbe30c9cf	-0.17264484
250	0x3b90ae3e	0.0044153025
251	0xbd905cb7	-0.07048934
252	0xbd9f85e4	-0.077892095
253	0xbd154058	-0.036438316
254	0x3d793c3c	0.06084846
255	0xbdf1114d	-0.11770878

encoder.0.bias f4 [64]
0	0xbe361550	-0.17781568
1	0x3e26f877	0.1630572
2	0x3e43366b	0.19063728
3	0x3e2612cc	0.16218108
4	0xbe3eb755	-0.18624623
5	0x3df68a46	0.12038092
6	0xbe1c7733	-0.15279846
7	0x3dd49750	0.10380423
8	0xbdd66a0a	-0.10469444
9	0x3e1ab512	0.15108135
10	0x3e21859c	0.15773624
11	0xbda879f2	-0.08226384
12	0x3df2b0a7	0.118501
13	0x3e016160	0.12634802
14	0x3d8d53a9	0.069007225
15	0x3db1eb39	0.08687443
16	0x3e005c15	0.12535127
17	0x3e0f0d93	0.13970022
18	0xbe269495	-0.16267617
19	0xbd38acc7	-0.04508665
20	0xbe0eeffc	-0.13958734
21	0x3da53473	0.080666445
22	0x3e280d95	0.16411431
23	0x3da60871	0.08107079
24	0x3dd8affe	0.10580443
25	0xbd0b9980	-0.034081936
26	0x3c05891f	0.008150368
27	0x3dbed1be	0.09317349
28	0x3d28da43	0.041223776
29	0xbd09fab0	-0.03368634
30	0xbe3a0689	-0.18166555
31	0xbe238767	-0.1596962
32	0xbd9afe99	-0.07568092
33	0x3dbf60f0	0.09344661
34	0xbe0a1f12	-0.13488415
35	0x3d4e3eb7	0.05035278
36	0xbd137c46	-0.03600719
37	0x3ddc79b0	0.107653975
38	0x3dd06f66	0.101774976
39	0x3d632d41	0.05546308
40	0xbe378f3f	-0.17925738
41	0x3c84c65e	0.01620787
42	0xbd8e31cf	-0.06943094
43	0x3e1b2329	0.15150131
44	0x3d2c9799	0.042136762
45	0xbd1ccc05	-0.038280506
46	0xbc83caac	-0.016087852
47	0x3d8c8ae1	0.068624265
48	0x3ddbfe39	0.107418485
49	0xbe32d9d5	-0.17465909
50	0x3d7d4926	0.061837338
51	0xbdf6c364	-0.120489866
52	0x3e1d7b66	0.15379104
53	0x3d5bcfaf	0.05366486
54	0xbdad6d02	-0.08468057
55	0xbe20255b	-0.1563925
56	0xbdc15640	-0.09440279
57	0xbe440242	-0.19141486
58	0x3d10a06a	0.035309233
59	0x3d22600b	0.039642375
60	0xbb8e9e9f	-0.004352405
61	0xbd365801	-0.04451752
62	0xbd3db175	-0.046311814
63	0x3dfc54e9	0.12320883

encoder.1.weight f4 [64]
0	0x3f80029e	1.0000799
1	0x3f800ba2	1.000355
2	0x3f801d62	1.0008967
3	0x3f800621	1.000187
4	0x3f7fde8e	0.99948967
5	0x3f7fd7b1	0.99938494
6	0x3f801b16	1.0008266
7	0x3f8004b3	1.0001434
8	0x3f7ff48e	0.99982536
9	0x3f8012b0	1.0005703
10	0x3f801e2e	1.000921
11	0x3f8012a4	1.0005689
12	0x3f800405	1.0001227
13	0x3f80095c	1.0002856
14	0x3f800acd	1.0003296
15	0x3f80092a	1.0002797
16	0x3f8004dd	1.0001484
17	0x3f800657	1.0001935
18	0x3f7fd895	0.9993985
19	0x3f7fe98c	0.9996574
20	0x3f7fd894	0.99939847
21	0x3f7fd0c1	0.9992791
22	0x3f7fc000	0.99902344
23	0x3f8005bd	1.0001751
24	0x3f801047	1.0004967
25	0x3f800f92	1.0004752
26	0x3f80087c	1.0002589
27	0x3f7fe00b	0.9995124
28	0x3f7fcf80	0.99925995
29	0x3f7fc9c4	0.99917245
30	0x3f800e06	1.000428
31	0x3f7fd750	0.99937916
32	0x3f8014c2	1.0006335
33	0x3f7fec49	0.9996992
34	0x3f8020ab	1.000997
35	0x3f801ef8	1.0009451
36	0x3f7fe6bb	0.9996144
37	0x3f800ed9	1.0004531
38	0x3f7ffc09	0.9999395
39	0x3f7fbd04	0.9989779
40	0x3f7fe0ac	0.999522
41	0x3f8006cf	1.0002078
42	0x3f7fe0f9	0.99952656
43	0x3f7feb55	0.99968463
44	0x3f7ffd6a	0.99996054
45	0x3f7fe723	0.9996206
46	0x3f7ff3f9	0.9998165
47	0x3f801a37	1.0008
48	0x3f7fc20e	0.9990548
49	0x3f800c79	1.0003806
50	0x3f801a45	1.0008017
51	0x3f7fdd9f	0.9994754
52	0x3f800bc1	1.0003587
53	0x3f80132b	1.000585
54	0x3f801570	1.0006542
55	0x3f8018f9	1.0007621
56	0x3f7fe092	0.9995204
57	0x3f7fd3c3	0.999325
58	0x3f800103	1.0000309
59	0x3f7ff03d	0.9997595
60	0x3f7fd472	0.9993354
61	0x3f800082	1.0000155
62	0x3f7fccbf	0.9992179
63	0x3f800586	1.0001686

encoder.1.bias f4 [64]
0	0xb8cea202	-9.853022e-05
1	0xb92a2e29	-0.0001622966
2	0xb84e2504	-4.91487e-05
3	0x3a052af4	0.0005079948
4	0x38650c7b	5.4609478e-05
5	0xba29a8af	-0.0006471974
6	0x3a22ee98	0.0006215363
7	0x3a038980	0.00050177425
8	0xba0f7cf5	-0.0005473637
9	0x39b4817b	0.00034428746
10	0x3a2ba823	0.00065481866
11	0x39d98fe4	0.00041496672
12	0xb9e925c9	-0.00044469375
13	0x398b7db4	0.00026605802
14	0x3a0c8488	0.0005360325
15	0x3a0446b1	0.0005045934
16	0x3943836d	0.00018645609
17	0xb9ecb65e	-0.00045149302
18	0x38a9baf7	8.093373e-05
19	0xb9e76c28	-0.00044140336
20	0xba65b62e	-0.00087628036
21	0xb9dcc941	-0.00042111616
22	0xba814809	-0.0009863387
23	0x39a19ff2	0.00030827482
24	0x388f16fe	6.823054e-05
25	0xb8f141e1	-0.000115040464
26	0x3a1086a0	0.0005513225
27	0xb9b46b48	-0.00034412206
28	0xba64e4be	-0.0008731595
29	0xb96bc3e8	-0.00022484327
30	0x3999ef9a	0.0002936095
31	0xba3b35b1	-0.00071414845
32	0xb9dda47b	-0.00042274952
33	0x389d263f	7.493467e-05
34	0x3a180947	0.0005799722
35	0x3a591016	0.000828029
36	0x37cb35c0	2.4224515e-05
37	0x3a485488	0.00076419907
38	0x39061109	0.00012785582
39	0xba886549	-0.0010406162
40	0xb95df108	-0.00021165994
41	0x3a1c76ad	0.0005968612
42	0x38b1ff7f	8.4876076e-05
43	0x39732341	0.00023187419
44	0xb95c9bff	-0.00021038948
45	0xba445e5f	-0.0007490869
46	0xb9100845	-0.00013735991
47	0x3a2de8d7	0.0006634122
48	0xba3d59fd	-0.0007223187
49	0x3a81ee3d	0.000991292
50	0x39c52733	0.00037603974
51	0xb9ec0b40	-0.0004502181
52	0x3a4a1d16	0.00077100226
53	0x3a6f8be8	0.0009137974
54	0x3a3e98dc	0.00072707026
55	0xb9c6935b	-0.0003787529
56	0xba557461	-0.0008142647
57	0xb999ce39	-0.00029336082
58	0xb928187a	-0.00016030847
59	0xba506da2	-0.0007950907
60	0xba579b14	-0.00082247076
61	0x3a7a59df	0.0009550135
62	0xb83834d7	-4.391823e-05
63	0x38a821da	8.0171696e-05

encoder.1.running_mean f4 [64]
0	0xbe9b1c5f	-0.30295083
1	0xbdb04754	-0.08607355
2	0x3e3ae455	0.18251164
3	0xbc2f38d8	-0.010694705
4	0x3b8aaa35	0.004231716
5	0xbe0b14b5	-0.13582118
6	0xbcecefae	-0.028922882
7	0x3e229518	0.15877187
8	0x3e6f00c1	0.23340131
9	0x3e7d9f11	0.2476771
10	0x3ebd03bf	0.3691692
11	0xbd22fbf3	-0.03979106
12	0x3ebdee0b	0.37095675
13	0xbdb73033	-0.0894474
14	0x3eb49982	0.35273367
15	0x3eb919f4	0.36152613
16	0x3e3fea47	0.18741713
17	0x3d55feeb	0.05224506
18	0xbed71a09	-0.4201205
19	0x3e724d66	0.23662338
20	0xbdd116e2	-0.10209443
21	0xbcbe0717	-0.02319674
22	0x3e721f03	0.23644643
23	0xbc0728c4	-0.008249465
24	0xbe0ce847	-0.13760482
25	0x3dc51fce	0.09625207
26	0xbddbc9d7	-0.10731857
27	0x3e93692f	0.28791186
28	0x3e37d615	0.1795276
29	0xbd8a3160	-0.06747699
30	0xbd698aeb	-0.057017248
31	0xbe95f107	-0.29285452
32	0xbd8a3e82	-0.06750204
33	0x3f165a4d	0.5873154
34	0xbd2c7864	-0.042107
35	0x3e26f6a2	0.1630502
36	0xbe7336fb	-0.23751442
37	0xbe8add19	-0.2712181
38	0x3ed3e421	0.41384986
39	0x3e13277d	0.14370532
40	0xbec37ff1	-0.3818355
41	0x3df9594e	0.12175237
42	0xbc84f3f8	-0.016229615
43	0x3eb6bb19	0.3568962
44	0x3d5cb95e	0.053887717
45	0x3aff2045	0.0019464573
46	0x3c259e75	0.01010858
47	0x3e4e3bd5	0.20140012
48	0x3d262345	0.04056098
49	0xbe9867a4	-0.29766572
50	0xbe09a9b5	-0.13443644
51	0xbda691de	-0.08133291
52	0x3e908ac5	0.28230873
53	0x3e6f7fd2	0.23388603
54	0xbe219d60	-0.1578269
55	0xbe134184	-0.14380461
56	0xbee2f2c0	-0.4432583
57	0xbe87c007	-0.26513693
58	0xbe7a4615	-0.24440797
59	0xbe508ffc	-0.20367426
60	0x3e66c9e7	0.22537957
61	0xbe8f8422	-0.28030497
62	0x3e1c55e2	0.15267137
63	0x3e3fd484	0.18733412

encoder.1.running_var f4 [64]
0	0x3edc1214	0.42982543
1	0x3f280aa2	0.65641224
2	0x3d096162	0.033540137
3	0x3f09f4ec	0.53889346
4	0x3ecd3a8f	0.4008374
5	0x3f301ab8	0.6879077
6	0x3e5193ca	0.20466533
7	0x3d667dac	0.056272194
8	0x3ff9b611	1.9508687
9	0x3e402315	0.18763383
10	0x3f1aa029	0.60400635
11	0x3d66d793	0.05635793
12	0x3f581516	0.84407175
13	0x3f34e766	0.70665586
14	0x3f5c188f	0.85974973
15	0x3f834fe3	1.0258754
16	0x3d7915c0	0.060811758
17	0x3dbd7732	0.0925125
18	0x3faeef77	1.3666829
19	0x3f976db8	1.1830359
20	0x3dd5ccfd	0.10439489
21	0x3eae9b3a	0.34102803
22	0x3e19e9cb	0.15030591
23	0x3e242c55	0.16032536
24	0x3f864eb7	1.0492772
25	0x3e5b993d	0.21445175
26	0x3e41af6d	0.18914576
27	0x3f02f8f8	0.51161146
28	0x3e71ac4b	0.23600881
29	0x3dcb1fe8	0.09918195
30	0x3eb08fb5	0.3448464
31	0x3eb86b12	0.36019188
32	0x3d135acd	0.035975266
33	0x40486adf	3.131523
34	0x3e7c158d	0.24617596
35	0x3eaed4e6	0.34146804
36	0x3f29806a	0.6621157
37	0x4002909f	2.040077
38	0x3f828840	1.019783
39	0x3e0a23c1	0.13490202
40	0x3f0595ec	0.5218189
41	0x3efc0d85	0.49229065
42	0x3dc2b18d	0.095065214
43	0x3f143b7a	0.57903254
44	0x3d48eb27	0.049052384
45	0x3da0b96f	0.07847869
46	0x3d8d362f	0.068951
47	0x3e8e1368	0.2774918
48	0x3dcdfbc3	0.10057785
49	0x3e41009a	0.18847886
50	0x3edd933d	0.43276396
51	0x3de4a160	0.11163592
52	0x3e4f917c	0.20270342
53	0x3eaa0230	0.33204794
54	0x3d94d877	0.0726785
55	0x3d8eedda	0.0697896
56	0x3fb2e989	1.3977519
57	0x3db2d1f8	0.087314546
58	0x3fa6dbe1	1.3035852
59	0x3f3e8e4e	0.7443589
60	0x3f167cdd	0.58784276
61	0x3f2893b3	0.6585037
62	0x3f1c4593	0.6104366
63	0x3da04e00	0.07827377

encoder.4.weight f4 [128, 64, 3, 3]
0	0x3cb85ced	0.022505248
1	0x3b9b1470	0.004732661
2	0x3c7596fa	0.014989609
3	0x3cee902d	0.029121483
4	0xbd0e6bf1	-0.03477091
5	0x3c3fafd0	0.011699632
6	0x3c4e5ad3	0.012594896
7	0x3cfbc227	0.030732227
8	0xbc6a4d18	-0.014300607
9	0x3c4743c9	0.012162157
10	0x3bab4b55	0.005227486
11	0x3badc515	0.005303035
12	0x3c832371	0.01600811
13	0x3a647740	0.00087152794
14	0xbc690511	-0.014222399
15	0xbc152cfc	-0.009104963
16	0xbcf6e3f8	-0.030138
17	0xbc840362	-0.016114894
18	0xbbdbc351	-0.006706633
19	0x3cf74ad9	0.030187057
20	0x3b004a0f	0.0019575392
21	0x3cb53b51	0.02212301
22	0x3d127400	0.035755157
23	0x3c89dd75	0.016829232
24	0x3c825ce6	0.015913438
25	0x3cb31740	0.021861672
26	0x3cb42275	0.021989087
27	0x3d08da1d	0.033411134
28	0x3d0dfbde	0.034664027
29	0x3c84ce34	0.016211607
30	0xbd29709c	-0.04136716
31	0xbbc78c97	-0.0060897577
32	0x3c9c8ed4	0.019111075
33	0x3c3bb2c1	0.0114561925
34	0x3d192fe7	0.0373992
35	0xbd04d119	-0.032425974
36	0x3ce1a3ef	0.02754399
37	0xbc9397a9	-0.018016653
38	0x3d088ce7	0.0333375
39	0x3c88f0eb	0.016716441
40	0x3c1acbf2	0.009448038
41	0x3cb46a17	0.022023244
42	0xbc9e7829	-0.019344406
43	0x3cdf7844	0.027279027
44	0xbbca3101	-0.0061703925
45	0xbccdaa09	-0.025105493
46	0xbc8744ad	-0.01651224
47	0xbb481242	-0.003052846
48	0x3b88a75e	0.0041703423
49	0x3c0f808c	0.008758675
50	0xbd13548d	-0.035969306
51	0xbcd00757	-0.025394125
52	0x3c627f85	0.013824348
53	0xbbcda5a9	-0.0062758517
54	0x3baecb89	0.005334322
55	0xbaef9158	-0.0018277569
56	0x3bb58980	0.005540073
57	0x3cfcbcd7	0.030851765
58	0x3c37a0f1	0.011207805
59	0xb996bd3a	-0.00028751214
60	0x3c1bd760	0.009511799
61	0xbd0eecad	-0.03489368
62	0x3af2ac1e	0.001851443
63	0xbbeb1f38	-0.0071753524
64	0xbcfe49cf	-0.031041054
65	0x3d220063	0.03955115
66	0xbcc04947	-0.023472441
67	0xbc17c822	-0.009264024
68	0xbd111a02	-0.035425194
69	0xbcc6908f	-0.024238853
70	0x3d04a352	0.032382317
71	0xbd008195	-0.03137358
72	0x3d27a28a	0.040926494
73	0xbcd6faff	-0.026242731
74	0x3c574899	0.013139867
75	0xbc48c5e8	-0.012254216
76	0x3c3bf9c2	0.011473121
77	0xbbc01efe	-0.0058630696
78	0x3c61d991	0.013784782
79	0x3c97feb8	0.018554077
80	0x3d1299cb	0.0357912
81	0x3d18e5a7	0.03732839
82	0x3cd5a0c4	0.026077636
83	0xbcc467ef	-0.02397534
84	0xbcf29c79	-0.029615628
85	0x3cda124d	0.026620055
86	0x3ceed29b	0.029153159
87	0xbc9bd81b	-0.019023946
88	0xbbc078f0	-0.005873792
89	0xbd0726b4	-0.032995895
90	0x3d2628f4	0.0405664
91	0xbcfc35f2	-0.030787442
92	0xbd1afa04	-0.03783609
93	0xbb8d8cf5	-0.004319782
94	0x3cb4d3c4	0.022073634
95	0xba90a96c	-0.001103682
96	0xbd0dcb32	-0.03461761
97	0xbd05b722	-0.032645352
98	0xbb226c6b	-0.002478386
99	0xbccb0216	-0.024781268
100	0xbcc52bb0	-0.024068683
101	0x3cf867d9	0.030322956
102	0xba7913e5	-0.00095015607
103	0x3c30883c	0.010774668
104	0x3d229fe6	0.039703272
105	0xbb4583fb	-0.003013848
106	0xbd0568f3	-0.03257079
107	0x3c129334	0.008946229
108	0xbd121889	-0.03566793
109	0x3c2b7819	0.010465645
110	0xbd0e9623	-0.03481115
111	0x3ca5b04f	0.020225672
112	0xbc4f5622	-0.012654813
113	0xbd0d9cec	-0.03457348
114	0x3ccdb5e6	0.02511115
115	0xbadeeadf	-0.0017007253
116	0x3c7787f4	0.015108097
117	0x3cde224b	0.027115962
118	0xbcfcf468	-0.03087826
119	0x3c4aa9e3	0.012369606
120	0xbb23d9bf	-0.0025001613
121	0xbcc0101f	-0.023445187
122	0xbd21659a	-0.039403535
123	0x3ce649e9	0.028111415
124	0x3c77a55e	0.01511511
125	0x3d2785cd	0.040899087
126	0x3d0b3a27	0.033991005
127	0x3b48570f	0.003056947
128	0xbcbebea4	-0.023284264
129	0x3d017273	0.031603288
130	0xbd1a38bf	-0.037651774
131	0x3cbdc577	0.023165448
132	0x3c8f082f	0.017459957
133	0x3c7cdfec	0.0154342465
134	0xbd240f87	-0.04005387
135	0xbc09edbd	-0.008418498
136	0x3c9214fe	0.017832275
137	0xbd0ab6c6	-0.033865713
138	0x3d2431fb	0.040086728
139	0x3d2b7ebc	0.04186891
140	0x3d0683a4	0.032840386
141	0xbac448cd	-0.001497531
142	0xbd11407f	-0.0354619
143	0x3d1079ef	0.035272535
144	0xbc1c301f	-0.009532957
145	0xbb8382ce	-0.004013396
146	0xbd0a6e77	-0.033796754
147	0xbcdf58e2	-0.027264062
148	0xbcbd1530	-0.023081392
149	0xbc30668e	-0.010766638
150	0xbd282549	-0.041051183
151	0xbd25d578	-0.040486783
152	0x3ba58f41	0.0050524776
153	0xbce57727	-0.028010918
154	0x3d284cbb	0.0410888
155	0x3cc58920	0.024113238
156	0xbc6865b6	-0.014184406
157	0xbcff719c	-0.031182103
158	0x3ca65baf	0.02030739
159	0x3c943456	0.018091362
160	0x3d108234	0.03528042
161	0x3cb04728	0.021518305
162	0xbcc84b0a	-0.024449844
163	0x3c4eb957	0.012617431
164	0xbd13ef7a	-0.036117055
165	0xbc6702c7	-0.014099783
166	0xbcf7c323	-0.030244416
167	0xbcb5e17e	-0.02220225
168	0x3c3f8a51	0.011690692
169	0xbc7774cc	-0.01510353
170	0x3c3195b7	0.010838917
171	0x3cc56e1a	0.024100352
172	0xbd2104d7	-0.039311256
173	0x3c9554b8	0.018228874
174	0xbd0362d1	-0.03207666
175	0xbc7fd6e6	-0.015615201
176	0xbc990cab	-0.018682798
177	0x3bc64991	0.0060512503
178	0xbce91eb4	-0.028457023
179	0xbd240bf7	-0.040050473
180	0xbcd1c932	-0.025608633
181	0xbcfcd176	-0.030861598
182	0x3ca329ca	0.019917388
183	0xbd14acca	-0.036297597
184	0xbd17cfc1	-0.037063364
185	0x3ce2cc28	0.02768524
186	0x3c00f3c9	0.007870623
187	0xbb05a77b	-0.0020394016
188	0x3d0e8a41	0.034799818
189	0x3d239e72	0.039946027
190	0x3d05e9b5	0.032693584
191	0xbc0e6fcb	-0.008693646
192	0x3bdaf35c	0.0066818427
193	0x3c92a179	0.017899262
194	0xbd0fab7b	-0.035075646
195	0xb8a0764a	-7.6514276e-05
196	0x3c05f8d5	0.008177002
197	0x3cae46f2	0.021274064
198	0xbc95a97a	-0.01826929
199	0x3c64e5cf	0.013970806
200	0x3beaeed7	0.007169585
201	0x3cba74a5	0.022760699
202	0x3c1f097c	0.009706851
203	0x3cd97df3	0.026549315
204	0xbd095524	-0.033528462
205	0x3b8136e5	0.0039433115
206	0xbc7aa1e7	-0.01529739
207	0x3be6ce99	0.0070436713
208	0xbc979343	-0.018502837
209	0x3ce69b53	0.028150236
210	0xbd0fb2ea	-0.035082735
211	0xbb30c31f	-0.002697177
212	0x3a4b3a35	0.0007752509
213	0x3b8926cf	0.0041855345
214	0x3cf7db94	0.03025607
215	0xbbfbb9ff	-0.0076820846
216	0x3c210081	0.00982678
217	0x3d0c9ee9	0.034331236
218	0xbbb37027	-0.005476016
219	0xbc95bd33	-0.018278694
220	0x3ce6d08e	0.028175618
221	0xbbbc09d6	-0.005738477
222	0xbc84a3db	-0.016191414
223	0xbc7ad370	-0.0153092
224	0xbc1274c4	-0.008938972
225	0xbc7b0820	-0.015321761
226	0x3ca595a3	0.020212954
227	0xbd267293	-0.04063661
228	0xbc59b947	-0.0132888025
229	0xbcd2b9e0	-0.025723398
230	0xbcfa7907	-0.030575288
231	0xbc0275ba	-0.0079626385
232	0xbbfccc64	-0.007714795
233	0xbd19597b	-0.03743885
234	0x3cff6543	0.031176215
235	0x3c9976f6	0.018733483
236	0xbd13d4f2	-0.036091752
237	0x3c8c46dd	0.017123634
238	0xbcffd62e	-0.031230059
239	0x3c10d423	0.00883964
240	0x3b84c6ca	0.004052018
241	0x3cb08403	0.021547323
242	0x3cb08ec6	0.021552455
243	0xbd08a681	-0.033361915
244	0xbc3e90e2	-0.011631222
245	0xbce75bd0	-0.028242022
246	0x3d284c5b	0.041088443
247	0x3bada423	0.0052991076
248	0x3cda8c1e	0.026678141
249	0xbd1cc088	-0.03826955
250	0xbd0351b2	-0.032060333
251	0x3c1b1fd7	0.00946804
252	0x3cd386c9	0.025821107
253	0xbd1ba40f	-0.037998255
254	0xbc95d164	-0.018288322
255	0x3cfbe2d5	0.03074781

encoder.4.bias f4 [128]
0	0x3cccd092	0.025001798
1	0xbcb79b1c	-0.02241283
2	0xbd100193	-0.03515775
3	0xbcb261cd	-0.02177515
4	0x3c5dc7dc	0.01353642
5	0x3cc18aa5	0.023625681
6	0xbce08c16	-0.027410548
7	0xbca0e7ea	-0.019641835
8	0xbcd47ed9	-0.025939392
9	0xbc2ad3f0	-0.010426506
10	0xbd1201db	-0.0356463
11	0xbc96ad90	-0.018393308
12	0x3cc7fdc4	0.024412997
13	0xbbe6fd5d	-0.007049246
14	0x3ceecddd	0.029150898
15	0x3cda9db0	0.02668652
16	0x3c63a28a	0.013893733
17	0xbd0078cf	-0.031365212
18	0xbc531277	-0.01288282
19	0xbacd3e68	-0.0015658857
20	0xb9e73eca	-0.00044106535
21	0xbc2f71c0	-0.010708272
22	0xbce97965	-0.028500268
23	0x3ce275bb	0.027644029
24	0x3c45a426	0.012063062
25	0x3d0615ad	0.032735515
26	0xbd05da49	-0.032678876
27	0x39e259ce	0.0004317299
28	0x3a5acf2c	0.0008346911
29	0xbd017342	-0.03160406
30	0x3d0ad0c8	0.033890516
31	0xbbef8493	-0.0073095053
32	0xbd092390	-0.03348118
33	0xbc99b8e8	-0.018764928
34	0xbcc6b62f	-0.024256794
35	0xbd1a5a1d	-0.037683595
36	0xbb6b17ec	-0.0035872413
37	0xbb133cce	-0.0022466662
38	0xbd104098	-0.03521785
39	0x3d1e8cd8	0.038708538
40	0x3cdc73f7	0.026910765
41	0x3c1c0473	0.009522545
42	0xbc08c404	-0.008347515
43	0x3d1a91c2	0.03773666
44	0x3aa7dcef	0.0012806932
45	0x3c82e9d6	0.015980642
46	0x3c7559dd	0.014975038
47	0xbbd8e5f8	-0.0066192113
48	0x3bb4203c	0.0054970067
49	0xbd1335d4	-0.035940006
50	0xbced6814	-0.028980292
51	0x3b272f01	0.0025510194
52	0xbcf93421	-0.030420365
53	0x3bda876b	0.006668975
54	0xbd04e031	-0.032440368
55	0xbcbcdb3c	-0.023053758
56	0x3c4eac36	0.0126143005
57	0x3c0ab216	0.008465311
58	0xbc5f18dc	-0.013616767
59	0xbc98e531	-0.018663974
60	0x3bc1fbdc	0.0059199166
61	0x3b66e0a9	0.0035229123
62	0x3c98a2ad	0.018632257
63	0xbcfde5d5	-0.030993382
64	0x3d19e6d1	0.03757364
65	0x3c59cfd4	0.013294179
66	0x3cb098ca	0.02155723
67	0xbb133a40	-0.002246514
68	0xbc0c4a26	-0.0085626
69	0xbd1428ee	-0.036171846
70	0x3cfa442d	0.030550087
71	0xbd074d97	-0.03303298
72	0xbc28db66	-0.010306215
73	0x3d20f0cf	0.039292153
74	0x3ccc6af7	0.024953349
75	0x3d1f4cce	0.038891606
76	0xbc2ed8b2	-0.010671781
77	0xbd24c262	-0.04022444
78	0x3c9aca94	0.018895425
79	0x3cfffed8	0.031249449
80	0xbd0a1edf	-0.033720847
81	0x3c68c392	0.014206784
82	0x3d2a1ab6	0.04152938
83	0x3d274758	0.040839523
84	0xbd0a06c8	-0.033697873
85	0x3c0c83bf	0.008576333
86	0x3b414f0b	0.0029496576
87	0xbc99f1a4	-0.018791981
88	0x3d03f662	0.03221739
89	0xbc838ff9	-0.016059862
90	0x3cdf64d2	0.027269755
91	0xbccdc3bc	-0.025117747
92	0x3b9c2c2f	0.0047660093
93	0x3c8d122d	0.017220581
94	0x3cf17a8b	0.029477378
95	0xbce87dd7	-0.028380318
96	0x3b9ec355	0.0048450627
97	0x3ce58179	0.028015839
98	0x3ae3eddc	0.0017389613
99	0xbc136552	-0.008996325
100	0xbd1a97c5	-0.037742395
101	0x3c122ee7	0.008922315
102	0x3cc17745	0.023616442
103	0x3d0d24bc	0.03445886
104	0xbb55f4ad	-0.0032647059
105	0xbcdef078	-0.027214274
106	0xbc97b3cf	-0.018518357
107	0xbd122882	-0.035683163
108	0xbc74652e	-0.014916701
109	0x3c7b04ad	0.015320939
110	0xbd07415a	-0.03302131
111	0xbd2545ec	-0.040349886
112	0xbcd149c4	-0.02554787
113	0xbab25898	-0.0013606725
114	0xbd1b699c	-0.037942514
115	0xbc650d12	-0.013980167
116	0xb8d6adea	-0.00010236709
117	0x3d14fbd8	0.03637299
118	0xbcc89ec4	-0.024489768
119	0xbc498bb9	-0.012301379
120	0xb95c619c	-0.00021017197
121	0x3c3641b5	0.011124064
122	0x3c947b8b	0.018125316
123	0xbbbd79c8	-0.0057823397
124	0x3b86013d	0.004089503
125	0x3c1f0bc6	0.009707397
126	0x3d26aa58	0.040689796
127	0x3cdf4961	0.02725667

encoder.5.weight f4 [128]
0	0x3f8012a0	1.0005684
1	0x3f800c0f	1.000368
2	0x3f7fdc27	0.999453
3	0x3f800529	1.0001575
4	0x3f8003e8	1.0001192
5	0x3f7fda8b	0.99942845
6	0x3f7fbf99	0.9990173
7	0x3f7fd597	0.9993529
8	0x3f801caa	1.0008748
9	0x3f7ff770	0.99986935
10	0x3f7fb975	0.9989236
11	0x3f7ffcc7	0.9999508
12	0x3f800b6d	1.0003487
13	0x3f7fea39	0.9996677
14	0x3f7fe93e	0.99965274
15	0x3f7ff8a8	0.99988794
16	0x3f7fe964	0.999655
17	0x3f801ad4	1.0008187
18	0x3f80065e	1.0001943
19	0x3f8006b8	1.000205
20	0x3f7fc89e	0.9991549
21	0x3f801d4b	1.000894
22	0x3f7fd800	0.99938965
23	0x3f7ff769	0.9998689
24	0x3f7fd188	0.99929094
25	0x3f7ff8b4	0.99988866
26	0x3f7fcc1e	0.99920833
27	0x3f8008ce	1.0002687
28	0x3f7fcead	0.9992474
29	0x3f801597	1.0006589
30	0x3f8007ff	1.000244
31	0x3f800bc1	1.0003587
32	0x3f801d4c	1.0008941
33	0x3f8015d8	1.0006666
34	0x3f7fda54	0.9994252
35	0x3f7ff157	0.9997763
36	0x3f800d58	1.0004072
37	0x3f8004cc	1.0001464
38	0x3f7ffafb	0.9999234
39	0x3f7ff775	0.99986964
40	0x3f7ff0fb	0.9997708
41	0x3f801da1	1.0009042
42	0x3f7fd1fe	0.999298
43	0x3f7fffa2	0.9999944
44	0x3f7fd2d9	0.99931103
45	0x3f7fc541	0.9991036
46	0x3f800fb2	1.000479
47	0x3f7fe2ee	0.9995564
48	0x3f800ff4	1.0004869
49	0x3f8005bc	1.000175
50	0x3f8004f9	1.0001518
51	0x3f800a5d	1.0003163
52	0x3f800981	1.00029
53	0x3f80002d	1.0000054
54	0x3f80031a	1.0000947
55	0x3f7fe261	0.999548
56	0x3f80169c	1.00069
57	0x3f7fea1a	0.99966586
58	0x3f7fe1d2	0.9995395
59	0x3f801778	1.0007162
60	0x3f800b34	1.0003419
61	0x3f7feed1	0.9997378
62	0x3f800f4b	1.0004667
63	0x3f801c3a	1.0008614
64	0x3f801ac2	1.0008166
65	0x3f7ff90c	0.9998939
66	0x3f7fd0c6	0.9992794
67	0x3f8018bb	1.0007547
68	0x3f7ffd70	0.9999609
69	0x3f7ffddb	0.9999673
70	0x3f800a97	1.0003232
71	0x3f7fde68	0.9994874
72	0x3f7ff115	0.99977237
73	0x3f7ffbea	0.99993765
74	0x3f801ec2	1.0009387
75	0x3f7fd0c4	0.99927926
76	0x3f7fe58c	0.99959636
77	0x3f7fe448	0.99957705
78	0x3f7fdf7e	0.99950397
79	0x3f8018d7	1.000758
80	0x3f7fdfb3	0.9995071
81	0x3f7fcd0b	0.99922246
82	0x3f8002a0	1.0000801
83	0x3f800af3	1.0003341
84	0x3f800d20	1.0004005
85	0x3f7fea09	0.99966484
86	0x3f801326	1.0005844
87	0x3f800d70	1.0004101
88	0x3f7ff963	0.9998991
89	0x3f801399	1.0005981
90	0x3f7fc444	0.9990885
91	0x3f800c75	1.0003802
92	0x3f7fdc59	0.999456
93	0x3f7fe586	0.999596
94	0x3f7fd866	0.9993957
95	0x3f7fe412	0.9995738
96	0x3f8020bd	1.0009991
97	0x3f7feb1a	0.9996811
98	0x3f8015d2	1.0006659
99	0x3f7fbd75	0.99898463
100	0x3f7fea32	0.9996673
101	0x3f8017b7	1.0007237
102	0x3f7fcd1e	0.9992236
103	0x3f7fe9fe	0.9996642
104	0x3f801c01	1.0008546
105	0x3f7fe266	0.9995483
106	0x3f80010b	1.0000318
107	0x3f7fdba6	0.9994453
108	0x3f800fca	1.0004818
109	0x3f7ff8c4	0.9998896
110	0x3f800981	1.00029
111	0x3f80111f	1.0005225
112	0x3f7fd37b	0.9993207
113	0x3f801a10	1.0007954
114	0x3f800a09	1.0003062
115	0x3f7fcce8	0.9992204
116	0x3f8002a4	1.0000806
117	0x3f800ee6	1.0004547
118	0x3f7fd9a6	0.9994148
119	0x3f800f05	1.0004584
120	0x3f7fd20f	0.999299
121	0x3f7fdac1	0.99943167
122	0x3f7fc86b	0.9991519
123	0x3f7ffc07	0.9999394
124	0x3f7fce46	0.99924123
125	0x3f8022fd	1.0010678
126	0x3f7fd020	0.9992695
127	0x3f8006d8	1.0002089

encoder.5.bias f4 [128]
0	0x39f5cc20	0.00046882126
1	0x3a14d2a4	0.000567714
2	0xba627159	-0.0008638106
3	0x394a0b94	0.00019268534
4	0xb8ef923a	-0.00011423645
5	0xba3c1733	-0.0007175088
6	0xba39aaac	-0.0007082622
7	0xba201b59	-0.0006107591
8	0x39ae747e	0.0003327466
9	0x3a2e9472	0.00066596933
10	0xba7bce0e	-0.00096055947
11	0xb9ffa906	-0.00048763322
12	0x397e0de8	0.00024228508
13	0xb8e6d3d9	-0.00011006714
14	0xb9b678fa	-0.0003480388
15	0x39734a51	0.00023201971
16	0xba2356e2	-0.0006230903
17	0x39cecd21	0.00039444215
18	0x3a43a5cb	0.0007463365
19	0x38d2bb1b	0.000100484314
20	0xba53bdaf	-0.0008077276
21	0x3a0387d4	0.00050174934
22	0xba2f5463	-0.0006688295
23	0x39a1bf5c	0.00030850887
24	0xba01c8ff	-0.000495091
25	0xba2cc43e	-0.00065905217
26	0xb96e271a	-0.00022712015
27	0x3a256254	0.00063089025
28	0xba2c2ddc	-0.0006568113
29	0x38c93da4	9.595908e-05
30	0x39945345	0.000282908
31	0x393915bf	0.00017651076
32	0x3a0bf60f	0.0005339095
33	0x3a233787	0.0006226231
34	0xba815c3c	-0.0009869407
35	0xb981b229	-0.00024737537
36	0x39e32b8b	0.00043329256
37	0xb8980134	-7.248149e-05
38	0xb915331f	-0.00014228791
39	0x3a638c17	0.0008680238
40	0xb9b59928	-0.0003463712
41	0x3a7d53b2	0.00096636557
42	0xb97fa660	-0.00024380675
43	0x39e1a5f8	0.00043039
44	0xba69c52d	-0.0008917626
45	0xba63a8a4	-0.0008684492
46	0x3a4d0f2e	0.00078223913
47	0x388ea5c3	6.801963e-05
48	0x3a12b81a	0.0005596891
49	0x39286177	0.00016058037
50	0xb781d590	-1.5477446e-05
51	0xb946d34e	-0.00018961469
52	0xba01d079	-0.00049520243
53	0xb9cee8b5	-0.00039464762
54	0xb94460dd	-0.00018728101
55	0xba0ecc0d	-0.0005447276
56	0xb9d70fa4	-0.0004101965
57	0xb997f3ee	-0.00028982706
58	0xb9fe2b9e	-0.00048479153
59	0x3a5691ec	0.0008185196
60	0xb98fc6a5	-0.00027423087
61	0x3938e036	0.00017631133
62	0x39eaba94	0.0004477097
63	0xb97b6e6f	-0.00023978365
64	0x39bf5feb	0.00036501823
65	0x3967faaa	0.00022123256
66	0x37e4c848	2.7272981e-05
67	0x3a37f251	0.0007017004
68	0x393a2e49	0.00017755585
69	0x39a44034	0.00031328353
70	0x3a394788	0.0007067849
71	0xb9da67c5	-0.00041657515
72	0x3a511d80	0.0007977113
73	0x3957ba9a	0.00020573512
74	0x3a3e1d4d	0.0007252291
75	0xba644656	-0.00087079906
76	0xb9aa051c	-0.00032428734
77	0xb98646fb	-0.00025611356
78	0xb9417558	-0.00018449628
79	0x39bf6a50	0.00036509568
80	0xb8a25c46	-7.741949e-05
81	0x39ff71ad	0.00048722085
82	0xb9b942a1	-0.00035335592
83	0x3a2fddf1	0.0006708792
84	0xb97c71a2	-0.00024074924
85	0xb9280947	-0.00016025185
86	0x3a172816	0.0005766166
87	0xba77fb7c	-0.00094597763
88	0xb989f08b	-0.00026309895
89	0x3a802f75	0.0009779768
90	0xba71499e	-0.000920439
91	0x3966feee	0.00022029478
92	0x390c3d4e	0.00013374278
93	0xb8c1ef4a	-9.247528e-05
94	0xb98a8714	-0.00026422052
95	0xba3c803d	-0.000719074
96	0xba1a8ed0	-0.00058959145
97	0x3a79b78a	0.00095259456
98	0x3979c368	0.00023819285
99	0xb92b899c	-0.00016359094
100	0xb71c1808	-9.30392e-06
101	0x3a18cb11	0.0005828599
102	0xb9b98820	-0.0003538737
103	0x39804024	0.0002446185
104	0x3966574b	0.00021967028
105	0xba0420a1	-0.00050402625
106	0xb94e880f	-0.00019696377
107	0xb9550171	-0.000203138
108	0x3a664733	0.0008784413
109	0x39385155	0.00017577906
110	0xba483948	-0.000763793
111	0x3a59ee10	0.0008313367
112	0xb995d651	-0.00028579173
113	0x39f34fd0	0.00046408037
114	0x3a1313bd	0.0005610546
115	0xba417afe	-0.0007380693
116	0xb9fa9d34	-0.0004780084
117	0x3a158597	0.00057038054
118	0xba3df218	-0.00072458526
119	0x39b9f964	0.0003547176
120	0xba096583	-0.00052412617
121	0xba7c4c67	-0.0009624422
122	0xba6a5789	-0.00089394354
123	0xba5a1387	-0.000831895
124	0xba6d600f	-0.00090551464
125	0x3a77da8f	0.000945487
126	0xba80bee0	-0.000982251
127	0xb911169c	-0.000138367

encoder.5.running_mean f4 [128]
0	0x3e5ae4a7	0.21376286
1	0x3e7a1006	0.24420175
2	0xbe1a0e00	-0.15044403
3	0xbebb4863	-0.36578664
4	0x3f1a22ae	0.60209167
5	0x3ddb2cf9	0.10701937
6	0xbe48266a	-0.19545904
7	0xbd2beffb	-0.04197691
8	0x3e117e01	0.14208223
9	0xbe8e649a	-0.27811128
10	0x3c9d3661	0.019190969
11	0x3e5cf50b	0.21577851
12	0x3e47ce9b	0.19512407
13	0xbe541fa0	-0.20715189
14	0xbc4e3583	-0.012586
15	0xbde273f4	-0.110572726
16	0x3d817374	0.06320849
17	0xbf045362	-0.5168973
18	0x3f109d3c	0.5648992
19	0x3d7e250c	0.06204705
20	0x3eb27b3e	0.3485965
21	0x3e9cd442	0.3063069
22	0x3ec7c40a	0.39016753
23	0xbe53041b	-0.20607035
24	0x3deb9316	0.11502664
25	0x3bd3acec	0.006459823
26	0xbed49f28	-0.41527677
27	0x3df3ab5c	0.118979186
28	0xbea1b7e2	-0.31585604
29	0x3eb8e738	0.36113906
30	0xbdcafe72	-0.09911813
31	0x3f0bf0b4	0.5466416
32	0x3ebf7b49	0.37398747
33	0x3deb80d5	0.11499182
34	0xbda3b571	-0.079935916
35	0xbe273c1c	-0.16331524
36	0xbe2b0657	-0.16701637
37	0x3ec6fc71	0.38864473
38	0xbf09092e	-0.5352963
39	0x3d28fb10	0.041255057
40	0xbe5b8ea5	-0.21441133
41	0xbebd14d2	-0.36929947
42	0xbc637d2f	-0.013884827
43	0xbd8c0046	-0.0683599
44	0xbdfd9eee	-0.12383829
45	0x3f253107	0.64527935
46	0x3e9245df	0.28568932
47	0xbe24a82b	-0.16079776
48	0xbe6de60c	-0.23232287
49	0x3f3da5f2	0.7408134
50	0x3e86c483	0.26321802
51	0x3da29d00	0.079401016
52	0x3ec83241	0.3910084
53	0x3d95324f	0.07284986
54	0xbe019c2f	-0.12657236
55	0xbd940198	-0.072268665
56	0xbd6bfb87	-0.057612922
57	0x3e98875d	0.29790774
58	0xbf0dcfad	-0.55395013
59	0x3e359ba7	0.17735158
60	0xbd9608a5	-0.073258676
61	0xbdf51549	-0.119669504
62	0x3e14d197	0.14533077
63	0xbd0d00dc	-0.034424648
64	0x3aa166ee	0.0012314001
65	0x3d520372	0.051272817
66	0xbdbaff7f	-0.09130763
67	0xbe09a3a3	-0.13441329
68	0x3db094d0	0.08622134
69	0x3d9f2acd	0.077718355
70	0xbe15432f	-0.1457641
71	0xbba1a0dc	-0.004932506
72	0x3ebe5367	0.37173006
73	0xbeac3e0c	-0.33641088
74	0x3f46f2f3	0.7771446
75	0xbdf586f6	-0.119886324
76	0x3ead18d1	0.33807996
77	0x3d99dca7	0.07512789
78	0x3d900a67	0.07033234
79	0x3edc59ed	0.43037358
80	0xbdb79c49	-0.08965356
81	0x3e81ed89	0.25376537
82	0x3ef9f577	0.48820087
83	0xbd80fcd9	-0.06298227
84	0xbd838e2f	-0.06423604
85	0x3dc26fa0	0.09493947
86	0x3ef671c7	0.4813368
87	0x3e7e274f	0.24819683
88	0x3e80b1aa	0.25135547
89	0xbddca6a9	-0.107739754
90	0x3ee82e09	0.45347622
91	0x3d666bf6	0.056255303
92	0xbe8a2675	-0.26982465
93	0xbda72d93	-0.081629895
94	0xbe43ab49	-0.19108309
95	0xbe75f703	-0.24020009
96	0x3df41961	0.11918903
97	0xbd3ca390	-0.046054423
98	0x3eadf40a	0.3397525
99	0xbe462620	-0.19350481
100	0xbe71ddab	-0.23619716
101	0x3e710159	0.2353567
102	0x3f283e8e	0.6572045
103	0xbdb0e400	-0.086372375
104	0x3dbcd2f5	0.09219924
105	0x3d568b4e	0.052378945
106	0x3df0d365	0.1175907
107	0x3e2d0218	0.1689533
108	0x3ea37b5d	0.31930056
109	0xbe88525c	-0.26625335
110	0x3cd6f5a3	0.026240176
111	0xbb84b8aa	-0.004050334
112	0xbdb0b07b	-0.08627411
113	0x3c7994a8	0.015233196
114	0xbe429edf	-0.19005917
115	0x3ea85edb	0.3288487
116	0x3ee358aa	0.44403583
117	0x3e31c1a4	0.17359024
118	0xbe08bddf	-0.1335368
119	0x3efe7a35	0.49702612
120	0x3f10c813	0.5655529
121	0xbecebbc5	-0.40377632
122	0x3e0689d3	0.13138513
123	0x3e1d75bf	0.15376948
124	0xbf2c474b	-0.67296284
125	0x3ea2cae6	0.31795424
126	0xbe6835c6	-0.22676763
127	0x3e8120c9	0.25220326

encoder.5.running_var f4 [128]
0	0x3d856e5c	0.0651519
1	0x3e119165	0.1421562
2	0x3d7e456c	0.062077925
3	0x3e3a4766	0.18191299
4	0x3e0fc0b9	0.14038362
5	0x3da935d5	0.08262221
6	0x3d8e612b	0.06952127
7	0x3d99465a	0.074841216
8	0x3f37780b	0.71667546
9	0x3e86ae2c	0.26304758
10	0x3e03fb28	0.12888777
11	0x3df9174e	0.12162648
12	0x3df2ae4e	0.11849652
13	0x3dc91008	0.09817511
14	0x3e8837a8	0.26604962
15	0x3e40b723	0.18819861
16	0x3de8514e	0.11343633
17	0x3e6e84cc	0.23292845
18	0x3e087680	0.13326454
19	0x3d448176	0.047975026
20	0x3df2b25a	0.11850424
21	0x3dc89dbb	0.0979571
22	0x3e030d9e	0.12798163
23	0x3e572ab7	0.21012388
24	0x3e1b084b	0.15139882
25	0x3d7f5ad7	0.06234249
26	0x3dc31f73	0.09527483
27	0x3dbb81bd	0.09155605
28	0x3da23671	0.0792054
29	0x3e78a36e	0.24281093
30	0x3e2a67a3	0.16641097
31	0x3e572808	0.21011364
32	0x3e2db321	0.16962864
33	0x3e82971e	0.25505918
34	0x3deb27bf	0.1148219
35	0x3d9ed73b	0.07755896
36	0x3e88cda6	0.26719397
37	0x3ddcb86d	0.10777364
38	0x3de7b776	0.11314289
39	0x3ebc68a2	0.36798579
40	0x3df9618e	0.1217681
41	0x3d9b1f9f	0.075743906
42	0x3dbb4f74	0.09146014
43	0x3dd40088	0.10351664
44	0x3e0541ff	0.13013457
45	0x3ea30e4f	0.31846854
46	0x3e07b616	0.13253054
47	0x3e8a2a8c	0.26985586
48	0x3e15736c	0.14594811
49	0x3e94aef3	0.29039726
50	0x3dd80c3c	0.105492085
51	0x3dfddc80	0.12395573
52	0x3dc4bf66	0.09606819
53	0x3e68a6b5	0.22719844
54	0x3de967ec	0.11396775
55	0x3def81ff	0.11694717
56	0x3d135b98	0.035976022
57	0x3dafa688	0.08576685
58	0x3ebddc25	0.3708202
59	0x3e1963f2	0.14979532
60	0x3e123511	0.14278056
61	0x3eee2902	0.4651566
62	0x3e1f411a	0.15552178
63	0x3da89e7d	0.08233354
64	0x3e83a6a5	0.25713077
65	0x3e2accdc	0.1667971
66	0x3e02763f	0.1274042
67	0x3e421056	0.18951544
68	0x3dcf36dd	0.10117886
69	0x3e6db55e	0.23213717
70	0x3e1349f7	0.14383684
71	0x3e4c49fa	0.19950095
72	0x3dbd3a2e	0.092396125
73	0x3eb52f89	0.3538783
74	0x3eb9b5a8	0.36271405
75	0x3deb9ab3	0.11504116
76	0x3dc1c83c	0.0946202
77	0x3d540989	0.051766906
78	0x3e3a3c6f	0.18187116
79	0x3e4c9d8d	0.19981976
80	0x3e576ff2	0.21038797
81	0x3e118c4d	0.14213677
82	0x3e07227c	0.13196748
83	0x3dd3aed2	0.10336079
84	0x3dd37cc7	0.10326534
85	0x3d9d6a33	0.076862715
86	0x3eca2a62	0.3948546
87	0x3da870e1	0.08224655
88	0x3ddf1bb7	0.10893958
89	0x3e25877a	0.16164961
90	0x3e6b4dfd	0.22978969
91	0x3e09cd99	0.13457336
92	0x3e101e28	0.14074004
93	0x3da25414	0.07926193
94	0x3ddbf696	0.10740392
95	0x3e339318	0.1753658
96	0x3d9aff18	0.075681865
97	0x3e15fdb4	0.14647561
98	0x3d8ed585	0.06974319
99	0x3e80c2fa	0.25148755
100	0x3d72a67f	0.059240814
101	0x3d8a13c0	0.06742048
102	0x3e456d58	0.19279993
103	0x3da4efef	0.08053576
104	0x3d5fb1e7	0.05461302
105	0x3da6f723	0.08152606
106	0x3d6224c1	0.055210833
107	0x3e037747	0.1283847
108	0x3e3b61cc	0.18299025
109	0x3e10222d	0.14075537
110	0x3d9f61c4	0.07782319
111	0x3e00154f	0.12508129
112	0x3d4bf745	0.04979636
113	0x3e433146	0.19061765
114	0x3e1cdf7d	0.15319629
115	0x3e2bebe0	0.16789198
116	0x3db5fd26	0.08886175
117	0x3e73bc94	0.23802406
118	0x3ea69663	0.3253661
119	0x3e214a01	0.15750886
120	0x3e0fd49c	0.14045948
121	0x3de758cc	0.112962335
122	0x3eddc4e2	0.43314272
123	0x3d9359f0	0.071948886
124	0x3e28cf3f	0.16485308
125	0x3e010213	0.12598448
126	0x3dc6b9d8	0.09703416
127	0x3e09e429	0.13465942

decoder.0.weight f4 [64, 128, 3, 3]
0	0x3c35d2c1	0.011097611
1	0x3cd1e71b	0.025622895
2	0x3ce7d100	0.028297901
3	0x3c9d19a8	0.019177273
4	0x3c425ec6	0.011863416
5	0x3c86ec1d	0.01647001
6	0xbc94a402	-0.018144611
7	0x3ae93262	0.0017791505
8	0x3c90f54a	0.017695088
9	0xbced21f7	-0.02894686
10	0x3b8d65aa	0.004315098
11	0x3b105bd8	0.00220274
12	0x3c922ed5	0.017844597
13	0xbcc5f056	-0.024162453
14	0xbb9d79dd	-0.004805787
15	0xbcbbf658	-0.022944614
16	0xbc671e62	-0.014106365
17	0xbc42ba06	-0.011885172
18	0x39dc9013	0.00042069014
19	0xbce8be52	-0.028411064
20	0xbc9c5770	-0.019084662
21	0x3c92f87b	0.01794075
22	0x3ba633a9	0.0050720763
23	0x3c8af4b6	0.01696239
24	0x3c97c8fb	0.018528452
25	0xbce02e30	-0.027365774
26	0x3ca2bee8	0.019866422
27	0x3caa23c5	0.02076901
28	0x3ca929e5	0.02064986
29	0x3cbbadd6	0.02291004
30	0xba4bb41a	-0.00077706727
31	0x3a701691	0.0009158636
32	0xbba78687	-0.0051124725
33	0x3a50978b	0.0007957152
34	0xbca12dbb	-0.019675126
35	0xbce4a9e5	-0.027913043
36	0x3b0de20d	0.002164963
37	0xbcd02b7e	-0.025411364
38	0xbcc83a66	-0.024441909
39	0xbc6ff2cd	-0.014645291
40	0x3c95285b	0.01820772
41	0xbc1574c2	-0.0091220755
42	0xbc96ab88	-0.01839234
43	0x3cd704c0	0.026247382
44	0xbbee7ab1	-0.0072778095
45	0xbcd733b0	-0.026269764
46	0x3bd72a5e	0.00656633
47	0x3bde4673	0.0067833005
48	0x3c6ff45d	0.014645663
49	0xbc4615a1	-0.012090118
50	0x39b366b1	0.00034218052
51	0x3bbacc1b	0.005700601
52	0x3c79d5eb	0.015248756
53	0xbc74de5f	-0.0149455955
54	0x3ccd307f	0.025047539
55	0x3cae6346	0.021287572
56	0xbbaaa232	-0.0052073235
57	0x3bb7c78e	0.0056085056
58	0xbc4e69f1	-0.012598501
59	0x3cac236d	0.021012986
60	0x3cb403a2	0.021974389
61	0x3ca03402	0.01955605
62	0x3c909051	0.01764694
63	0xba3b4270	-0.0007143384
64	0xbc707169	-0.014675477
65	0x3cd8dcd5	0.026472488
66	0x3cb527dd	0.022113735
67	0x3cc7235a	0.02430885
68	0xbcb56166	-0.02214117
69	0x39bb91b0	0.00035775965
70	0xba9f1a07	-0.0012138494
71	0xbcd52476	-0.026018362
72	0x3c1f87a3	0.009736928
73	0xbbda05b1	-0.0066535105
74	0x3cee877c	0.029117338
75	0xbcd6a2da	-0.0262007
76	0x3c428cd4	0.011874396
77	0x3c4bb8d6	0.012434205
78	0xbc755427	-0.014973677
79	0xbca9d253	-0.020730173
80	0x3a4331b6	0.0007446067
81	0x3c41993b	0.011816318
82	0xbcd9f97e	-0.026608225
83	0xbcad9ed8	-0.021193907
84	0xbc947b5a	-0.018125225
85	0x3ca7cde6	0.020483922
86	0xbc9c3828	-0.019069746
87	0x3c4ba471	0.012429343
88	0x3cba8bed	0.0227718
89	0xbcc2503a	-0.023719896
90	0x3b25bc71	0.0025289322
91	0x3cc1687d	0.023609394
92	0x3cdbbb0d	0.026822591
93	0x3c45875e	0.0120562
94	0xbbd6b931	-0.0065528383
95	0x3aba8e18	0.0014233021
96	0xbcac9cc7	-0.021070851
97	0xbcc2f38e	-0.023797777
98	0x3b4737ca	0.0030398243
99	0x3bf261dc	0.0073969197
100	0x3c2acf29	0.010425367
101	0x3934b1a0	0.00017232308
102	0x3be91073	0.0071125566
103	0x3cb4bc07	0.022062315
104	0xbcd7f172	-0.026360247
105	0x3ca98c67	0.020696832
106	0xbca58bbe	-0.020208236
107	0x3c8f857a	0.017519701
108	0x3b898d3a	0.0041977437
109	0xbcea2b1f	-0.028585015
110	0xbcc7d26e	-0.024392333
111	0x3ca72144	0.020401604
112	0x3c179098	0.009250782
113	0xb81a8df4	-3.6848665e-05
114	0x3c26923d	0.010166702
115	0x3bf8ffde	0.007598861
116	0x3cacacbc	0.02107846
117	0xbb24dc9e	-0.0025155912
118	0x3cef49a5	0.029209921
119	0x3ca1f6d1	0.019771012
120	0x3c7eb311	0.015545622
121	0xbcda5ab9	-0.026654588
122	0x3cdfaa59	0.027302908
123	0xbbb84a85	-0.005624118
124	0x3c5752d0	0.013142303
125	0xbc8c29c5	-0.017109761
126	0xbc66284f	-0.014047696
127	0xbc837df5	-0.016051272
128	0x3c84b2a3	0.016198462
129	0x3b372cd1	0.0027950297
130	0xbbaa0eb5	-0.0051897415
131	0xbc308309	-0.010773429
132	0x3bde2e90	0.006780453
133	0x3ce87c53	0.028379595
134	0x3c120540	0.0089123845
135	0x3c9569a9	0.01823886
136	0xbb18a4c3	-0.0023291565
137	0x3b9f301f	0.0048580314
138	0xbcde10fb	-0.027107706
139	0xbcd2b2ad	-0.025719965
140	0xbc9086cb	-0.0176424
141	0xbad38ede	-0.00161406
142	0x3c59eb29	0.013300695
143	0xbc887f11	-0.016662152
144	0xba8cd66d	-0.0010745056
145	0xba589a11	-0.0008262704
146	0x3c66d769	0.014089444
147	0x3c2db8d1	0.010603146
148	0x3c5396d4	0.012914378
149	0x39b2f42a	0.00034132722
150	0x3ce379f7	0.027768118
151	0x3cada82b	0.021198353
152	0xbb7cf7e4	-0.0038599903
153	0x3c97d658	0.018534824
154	0x3c07e9d5	0.008295496
155	0x3ba635b7	0.0050723213
156	0x3cd86af4	0.026418187
157	0x3c13ae51	0.009013728
158	0xbcc86b9c	-0.024465375
159	0xbcc20999	-0.023686217
160	0x3cec6b09	0.028859632
161	0x3c8db90b	0.01730015
162	0x3ce4b460	0.02791804
163	0xbc7dac94	-0.01548304
164	0xbbcf0c6a	-0.0063186185
165	0xbb54d677	-0.0032476464
166	0x3ba16176	0.0049249483
167	0x3ca411a0	0.020027936
168	0xbc3b3187	-0.011425382
169	0x3bd98100	0.0066376925
170	0xbc0b5d84	-0.008506183
171	0xbc9a3b40	-0.01882708
172	0xbcd3f80a	-0.02587511
173	0xbce0d2ef	-0.027444331
174	0x3ca2e0ee	0.019882645
175	0xbcbff483	-0.023432022
176	0x3c58b59a	0.013226891
177	0x3cd8fad5	0.026486794
178	0xbc6bce2d	-0.014392418
179	0x3c8b685f	0.017017541
180	0x3c31ae60	0.010844797
181	0x3c4e2cb5	0.012583901
182	0xbb2daaac	-0.0026499433
183	0xbc247c73	-0.010039437
184	0x3bf4abd2	0.0074667716
185	0xbc2c2e70	-0.010509118
186	0x39c1218e	0.0003683683
187	0xba1a8746	-0.0005894791
188	0x3b429352	0.002968986
189	0x3ba1f400	0.004942417
190	0x3b2fbd44	0.0026815692
191	0xbcaff9ac	-0.021481358
192	0x3ca48dc2	0.020087127
193	0xbc0ae6a7	-0.008477843
194	0xbc665fcb	-0.014060925
195	0x3b1cc38c	0.0023920266
196	0x3cc2e420	0.02379042
197	0xbce8e60d	-0.02843001
198	0xbaea5aa7	-0.00178798
199	0x3cbb9b01	0.02290106
200	0xbcaf924e	-0.021432068
201	0xbc87fbaa	-0.016599495
202	0xbc53944f	-0.0129137775
203	0xbc03dd21	-0.008048327
204	0x3cef0fa6	0.029182266
205	0x3bf92926	0.007603782
206	0xbcc3a821	-0.023883881
207	0xbc67832d	-0.014130396
208	0xbceb16e3	-0.028697437
209	0xbcbccb0b	-0.023046037
210	0x3b40a86b	0.002939726
211	0xbc011514	-0.007878561
212	0x3cd2b46a	0.025720794
213	0x3c5140d8	0.012771808
214	0x3ce8c9be	0.02841651
215	0x3c72272a	0.014779845
216	0xbcd4d84a	-0.02598204
217	0x3b9feb07	0.0048803124
218	0x3c6af995	0.014341732
219	0xbc526e5a	-0.012843693
220	0x3cb81884	0.022472627
221	0x3bc49bd8	0.0060000233
222	0x3cb3043e	0.021852609
223	0xbcb90a95	-0.022588054
224	0x3be0c8e6	0.0068598865
225	0x3b636dcd	0.0034702898
226	0xbc061f91	-0.008186237
227	0x3c8d30d4	0.017235197
228	0xbc54a58e	-0.012978924
229	0xbceb3697	-0.028712554
230	0x3c86dc44	0.016462453
231	0xbb3d36e7	-0.0028871836
232	0xbc3cafc0	-0.011516511
233	0xbc7e7704	-0.015531305
234	0xbb6ad5df	-0.0035833044
235	0xba110226	-0.0005531631
236	0x3aa2e399	0.0012427449
237	0x3a34f142	0.00069024053
238	0xbc340764	-0.01098809
239	0x3c0bcafa	0.00853228
240	0x3c45a7c3	0.012063923
241	0xbce0f18d	-0.02745893
242	0xbc5603c4	-0.013062421
243	0x3c7de1c7	0.015495724
244	0xbc5ad7dc	-0.013357129
245	0x3cb178d3	0.021664059
246	0x3c5027d3	0.012704807
247	0x3c87ca72	0.016576026
248	0x3a5c9ea6	0.00084159744
249	0x3cafb04d	0.021446371
250	0xbc64ae94	-0.013957638
251	0xbcd8387a	-0.026394118
252	0xbcbfd000	-0.023414612
253	0xbc91b9b6	-0.01778875
254	0xbcc64222	-0.024201456
255	0xbba427f3	-0.005009645

decoder.0.bias f4 [64]
0	0xbcebf3cf	-0.02880278
1	0xbc1e6dd8	-0.0096697435
2	0x3cae4807	0.02127458
3	0xbc2b1586	-0.010442143
4	0xbba67d1c	-0.005080832
5	0xbc098474	-0.008393396
6	0x3c3db674	0.011579145
7	0x3cbae525	0.022814343
8	0xbc144df1	-0.009051786
9	0x3b856546	0.0040709106
10	0xbc2834a8	-0.0102664605
11	0x3c9f79f2	0.019467328
12	0xba8fad49	-0.0010961677
13	0x3bf6e7e3	0.0075349673
14	0x3cabd911	0.020977529
15	0xbc44cdb9	-0.012011939
16	0xbc25ad32	-0.010112094
17	0xbc297711	-0.010343329
18	0x3c5ef67a	0.013608569
19	0xbca2521a	-0.01981454
20	0xb9ea9307	-0.00044741502
21	0x3bce39ef	0.0062935273
22	0x3cc49b01	0.023999693
23	0xbca85b12	-0.020551238
24	0xbc97c777	-0.01852773
25	0xbc414dc7	-0.011798329
26	0xbb178757	-0.002312144
27	0x3c1f9441	0.009739936
28	0xbc9d5a62	-0.019208137
29	0xbc222267	-0.0098958975
30	0xbb081372	-0.0020763543
31	0xbcaaceb8	-0.020850524
32	0xbbc4872f	-0.0059975605
33	0x3ceab984	0.028652914
34	0x3c41865d	0.01181182
35	0x3cc2fc47	0.023801936
36	0xbba522a9	-0.005039532
37	0xbbb6a042	-0.0055733034
38	0xbc40f1ef	-0.011776431
39	0x3ca497e1	0.020091953
40	0x3bed1e35	0.007236267
41	0xbc0f1e8e	-0.008735312
42	0x3c8b1d18	0.016981646
43	0x3bb2d4e6	0.0054575084
44	0x3a459a5f	0.00075379567
45	0xbcd88e6a	-0.026435096
46	0x3ce08794	0.027408399
47	0xbc7d4951	-0.0154593745
48	0xbbf57729	-0.0074910116
49	0xbc8688c1	-0.016422631
50	0x3c7cf210	0.015438572
51	0x3cdb03dd	0.02673524
52	0x3cbe778c	0.023250364
53	0xbca7997a	-0.020458926
54	0x3ab83d0d	0.001405628
55	0x3c714636	0.014726212
56	0xbb5d0660	-0.0033725724
57	0x3be51e3b	0.006992129
58	0x3ca79195	0.020455161
59	0xbc800e6e	-0.01563188
60	0x3cf12c8d	0.029440189
61	0x3b25d904	0.0025306353
62	0xbcedf048	-0.02904524
63	0x3c5ec765	0.013597344

decoder.1.weight f4 [64]
0	0x3f800dfa	1.0004265
1	0x3f7fcb77	0.9991984
2	0x3f801ff8	1.0009756
3	0x3f7fe6c3	0.9996149
4	0x3f7fbeb8	0.9990039
5	0x3f7fcc9d	0.9992159
6	0x3f7fbe76	0.99899995
7	0x3f7fb86d	0.99890786
8	0x3f7fe10d	0.99952775
9	0x3f80076b	1.0002264
10	0x3f7feec4	0.999737
11	0x3f7fcc31	0.99920946
12	0x3f7fc622	0.999117
13	0x3f800d2a	1.0004017
14	0x3f7fd76e	0.99938095
15	0x3f7ff7f1	0.99987704
16	0x3f8000f2	1.0000288
17	0x3f800b57	1.0003461
18	0x3f7fc634	0.9991181
19	0x3f7fc19c	0.999048
20	0x3f7fd88f	0.9993982
21	0x3f8021c3	1.0010303
22	0x3f7fbe39	0.9989963
23	0x3f8019b9	1.000785
24	0x3f8018fb	1.0007623
25	0x3f7fbd17	0.99897903
26	0x3f8017d6	1.0007274
27	0x3f800cbc	1.0003886
28	0x3f7fdaf8	0.99943495
29	0x3f7fffaa	0.9999949
30	0x3f8018ae	1.0007532
31	0x3f7ffcee	0.99995315
32	0x3f7ffb8e	0.99993217
33	0x3f8017c8	1.0007257
34	0x3f8019fa	1.0007927
35	0x3f800bad	1.0003563
36	0x3f800895	1.0002619
37	0x3f801fc3	1.0009693
38	0x3f801050	1.0004978
39	0x3f7fd600	0.99935913
40	0x3f800320	1.0000954
41	0x3f801b1b	1.0008272
42	0x3f801af0	1.0008221
43	0x3f7fd4e3	0.99934214
44	0x3f7fff9e	0.99999416
45	0x3f7fd2ea	0.99931204
46	0x3f801400	1.0006104
47	0x3f7fbd0e	0.9989785
48	0x3f7fefb2	0.9997512
49	0x3f801ca5	1.0008742
50	0x3f7fdec4	0.9994929
51	0x3f802139	1.0010139
52	0x3f80198b	1.0007795
53	0x3f7ff204	0.9997866
54	0x3f801894	1.0007501
55	0x3f7ff72a	0.9998652
56	0x3f7ff351	0.99980646
57	0x3f7fc2af	0.9990644
58	0x3f801e5b	1.0009264
59	0x3f7ffc2b	0.9999415
60	0x3f7ffdce	0.9999665
61	0x3f8022cf	1.0010623
62	0x3f801678	1.0006857
63	0x3f7ff39c	0.99981093
