checkpoints/2025-05-30-17-25-15/last_epoch.pth (torch, 675371 bytes, 9 tensors)

encoder.0.weight f4 [64, 3, 3, 3]
000000 f7 0a 95 3c 68 63 f4 bb c5 a9 ea bd b5 7b 9a bd
       0.018193705 -0.007458139 -0.11458162 -0.075431265
000010 d3 02 38 3e 2a 77 0a be 8a 99 a8 3c 06 ba 47 bd
       0.17969827 -0.1352202 0.020581026 -0.04876139
000020 46 79 2d 3e 6e c3 13 3d 62 7e 2d 3e fb 46 00 be
       0.16940793 0.03607505 0.16942742 -0.12527077
000030 21 87 40 be 40 cd 8e bd d2 d2 03 3d a0 6f 40 3e
       -0.18801548 -0.06972742 0.032183476 0.18792582
000040 95 d7 f9 3d 57 df e3 3d 2c fb 1e 3d 87 30 ae bd
       0.12199322 0.11126583 0.038813755 -0.085053496
000050 cd 05 37 3e 23 22 ee 3d 86 c8 3b 3e 9b 39 2a be
       0.17873307 0.11627605 0.18338212 -0.16623537
000060 bf f3 10 bd 50 28 09 3e 5d 11 2b 3d fb 9f 7f bc
       -0.035388704 0.13394284 0.041764606 -0.015602107
000070 5e 79 eb bd 60 97 0a be 79 7c 01 3e 3e 94 40 3e
       -0.11497758 -0.13534307 0.12645139 0.1880655
000080 f7 be 52 bd db 21 37 be f4 f5 35 3e ea 61 12 be
       -0.05145165 -0.17884009 0.17769605 -0.14295164
000090 77 b7 1c bd 24 9b bd bb d2 56 2c 3e 9f 84 e4 3d
       -0.038260903 -0.0057863165 0.16829994 0.11158108
0000a0 3c 23 41 be 2b b0 1d be ea e4 96 3d c5 c4 cb 3c
       -0.18861097 -0.15399234 0.07367881 0.0248741
0000b0 46 21 02 be 99 57 39 3e d6 f7 28 be 28 77 3f be
       -0.12708005 0.18099822 -0.16500792 -0.18697798
0000c0 50 f3 ac bd a0 4a 11 3e bb b4 66 3c bf fd 17 be
       -0.08444846 0.14188623 0.014081175 -0.1484289
0000d0 08 e4 e6 bc fa c4 d0 bd 5a ba 21 be 65 ab 35 bc
       -0.028184906 -0.1019382 -0.15793744 -0.011088227
0000e0 f1 34 01 be 07 e9 ed 3c 28 38 49 bc a6 aa ec 3d
       -0.12617852 0.02904178 -0.012281455 0.11555986
0000f0 f5 dd 7d bd 8b df 6d 3d e9 de 22 3e a3 fc 30 3e
       -0.061979253 0.058074515 0.15905346 0.17283873
000100 12 ca 38 be 7d ad 3c be f7 bf 12 be 94 4f b8 bd
       -0.18045834 -0.18425556 -0.14331041 -0.08999553
000110 46 76 14 3e d4 2d 3a 3e b9 80 32 be 1b 3e 36 3e
       0.14498243 0.18181545 -0.17431916 0.17797129
000120 68 31 8a 3d 67 06 54 bc 61 04 75 bb 31 3e cd 3c
       0.06747705 -0.01294098 -0.0037386643 0.02505407
000130 3d 3f e0 3d bc 42 94 3d 9c 01 bd 3c ba 24 29 3e
       0.10949562 0.07239291 0.023072056 0.16517916
000140 a4 1f 0c 3e 36 1c 1e 3e 9c 16 1a 3e 3d cf 94 bb
       0.13683945 0.15440449 0.15047687 -0.0045413063
000150 49 0a c8 3c ff fc 30 be 5d 64 19 be ed b6 38 3e
       0.024418967 -0.1728401 -0.14979692 0.1803853
000160 ea 8a 2a be 71 39 09 be f3 cd 7f bd 40 dc 71 bd
       -0.16654554 -0.13400818 -0.062452268 -0.059047937
000170 4b 60 39 3e e7 32 ea bd ba fd ae 3d fd 1f c1 bd
       0.18103139 -0.1143549 0.08544488 -0.094299294
000180 90 c2 cd 3d 41 05 04 3e ea 08 26 be 78 16 1c 3e
       0.100468755 0.12892629 -0.16214338 0.15242946
000190 b7 e4 95 bd 3c d6 b9 3d ef b6 f8 3d fe 14 fe 3d
       -0.073190145 0.09074065 0.12144267 0.12406348
0001a0 fa 4c 05 3e 48 20 ee 3d 1a 7a 49 3d 6f 37 5c bd
       0.13017645 0.11627251 0.04918871 -0.053763803
0001b0 98 a4 be 3b 51 98 00 3c a2 32 29 be 61 4c 08 3e
       0.005817961 0.007848815 -0.16523221 0.13310386
0001c0 82 39 19 be c0 14 ec 3d 2b ac b0 3b e4 a6 72 bd
       -0.14963344 0.11527395 0.005391618 -0.05924119
0001d0 e0 ec a1 bb 98 41 d0 bd f2 8a c6 bd a7 5d 22 be
       -0.004941568 -0.10168761 -0.096944705 -0.15856038
0001e0 76 bc 0c 3e 1a a9 f0 bd 2a 67 b1 bd 0c 50 21 3e
       0.13743767 -0.117510036 -0.08662255 0.15753192
0001f0 93 6a 3d be 24 ee 09 bd 5d d4 54 bc a9 14 82 3d
       -0.18497686 -0.033674374 -0.0129900845 0.06351597
000200 a9 43 97 bc 92 2d a7 bd e5 a2 cc bd 80 38 6f 3d
       -0.01846488 -0.08162989 -0.09992007 0.058403492
000210 b5 c4 2d 3e a4 2d 02 3e 45 18 38 3e ef 70 27 3e
       0.16969569 0.12712723 0.17978008 0.16351674
000220 34 56 16 3e f2 64 9c bb d9 3a 65 3d 8b d7 24 be
       0.14681321 -0.004772776 0.055964325 -0.16097848
000230 c5 d1 8d bd 65 66 14 be 59 17 c2 3c ab 71 3e 3e
       -0.06924776 -0.14492185 0.023692774 0.18598048
000240 36 11 5a bd 79 94 2c 3d 53 b6 72 bd a4 00 1e be
       -0.05323907 0.042133782 -0.05925591 -0.15429932
000250 7a da c8 bd 92 92 02 3d ac bd 0b be a1 2f 24 3d
       -0.09807296 0.03187806 -0.13646573 0.040084485
000260 ae ae 27 3e 60 07 02 bd c3 e3 68 3d 34 db 95 bd
       0.16375229 -0.031745315 0.056857836 -0.073172
000270 c1 1c 49 3d 05 63 6b 3d d8 03 38 be 34 7f 2f 3e
       0.049099687 0.05746748 -0.17970216 0.17138368
000280 a6 4d 71 3d 58 ee 29 be ce 90 19 3e e3 66 d4 3c
       0.058911942 -0.16594827 0.14996645 0.025927966
000290 76 f1 28 3e e4 c8 24 3e be 3b 15 3d be 3b 02 3e
       0.1649836 0.16092259 0.036433928 0.12718102
0002a0 de 1e 42 3e fc 30 60 bd d3 cf 9a bd 60 2f f1 bd
       0.18957087 -0.054734215 -0.075591706 -0.11776614
0002b0 26 cb a3 bd 11 fa 24 3d cc 1a 27 be 5f b2 ca 3c
       -0.07997732 0.040277544 -0.16318816 0.024743257
0002c0 12 36 1b be d7 a3 91 3c 40 49 8d 3d 17 98 b3 3c
       -0.15157345 0.01777832 0.06898737 0.021923108
0002d0 92 f7 8a bd e2 80 b8 3d e3 11 23 3e e5 f6 aa bd
       -0.067855015 0.090089574 0.15924792 -0.08347873
0002e0 9c 01 de 3d 66 0d 26 3e ac b4 59 bd be 59 3c 3d
       0.10840151 0.16216049 -0.053150818 0.045984022
0002f0 5c 6d 02 3e 6b 3b 0b be 22 8d 21 3d 7f 33 20 be
       0.1273703 -0.13596885 0.039441235 -0.15644644
000300 51 1b 16 be ae 23 82 bd e3 5f b7 3d 98 0e 1c 3e
       -0.14658858 -0.063544616 0.08953836 0.15239942
000310 09 56 c2 3d ef 42 07 3d a5 73 17 3e 60 b8 e6 3b
       0.09489066 0.033022817 0.14790209 0.007041022
000320 09 75 3d 3e 4f 9c c0 bd 2c 56 0f be 64 9e 3a 3e
       0.18501677 -0.094048135 -0.13997716 0.18224484
000330 d6 3a bc 3d 5d 81 92 3d de 68 90 3c ba 8f 32 3e
       0.091909096 0.0715358 0.01762813 0.1743764
000340 31 54 2d be cb 47 2d 3e 00 76 2c 3e a0 c6 38 be
       -0.16926648 0.16921918 0.16841888 -0.1804452
000350 d9 94 9e 3d f1 3c 2a 3d 74 51 d4 bd 74 a1 16 3b
       0.07743234 0.041562025 -0.103670985 0.0022984417
000360 1e 0b 95 bd f1 48 b8 3d 60 58 42 be b1 08 40 3e
       -0.07277511 0.089982875 -0.18979025 0.18753316
000370 77 e5 25 3e cd fb 30 be a9 01 ce 3d b7 33 0c 3a
       0.16200815 -0.17283554 0.100589104 0.0005348282
000380 12 d6 8f 3c 68 80 7e 3c 1f b6 36 be 8e ee 10 bd
       0.017558131 0.015533544 -0.17842911 -0.035383753
000390 a4 a3 1b bd 57 69 de bd 7a a2 6f bd 26 20 16 bc
       -0.037997857 -0.10859936 -0.05850456 -0.009162938
0003a0 cf 4b 9f 3d cf d5 d8 bd c9 9c d2 bd 9a 61 16 be
       0.07778131 -0.10587656 -0.10283811 -0.1468567
0003b0 03 8a 27 3e 7a 45 09 3e 45 78 89 bc 13 a6 78 bd
       0.16361241 0.1340541 -0.016780982 -0.060705256
0003c0 92 d5 b7 bc 7e c6 1e be ac e0 17 be 58 58 fe bd
       -0.022440705 -0.15505406 -0.148318 -0.12419194
0003d0 1f 07 21 be a9 0d 04 be 09 3f 22 be e0 2a 32 bb
       -0.15725373 -0.12895836 -0.15844359 -0.00271862
0003e0 2e 2c 41 3d 6d b3 3f 3e 98 2c 03 be a4 eb 30 3e
       0.047161274 0.18720789 -0.1280998 0.1727739
0003f0 f3 f1 e7 3d cb 29 8e ba 3d d6 89 bd a3 a5 5a 3d
       0.11325445 -0.0010846196 -0.06730316 0.05338062

encoder.0.bias f4 [64]
000000 22 0d 33 3e 3c 36 86 3c 1f 03 2d be 93 e2 0d 3e
       0.17485479 0.016383283 -0.16895722 0.13855962
000010 a0 11 2f 3e 1e 33 3c 3e 2b 5a ac bb 19 27 d7 3d
       0.17096567 0.18378875 -0.0052597723 0.10505504
000020 3c 40 b9 3d 9e 6f 8e 3d 70 a9 fe 3c c0 8a af bd
       0.09045455 0.06954883 0.031086653 -0.08571386
000030 d4 af 18 be 57 1a 19 be 18 cd 04 3d bf 4c ef 3d
       -0.14910823 -0.14951454 0.032422155 0.1168456
000040 c3 ed 06 be 1d 82 4f bd f7 ca 0c 3e 25 4d ee bb
       -0.13176636 -0.050661195 0.137493 -0.00727238
000050 f5 5d e8 bd 74 e0 93 bd 3a 02 a6 bd 1f 85 af bb
       -0.11346046 -0.072205454 -0.081058934 -0.0053564454
000060 55 80 1f bd 41 d0 3e 3e 14 cf 05 3c 59 87 98 bb
       -0.038940746 0.1863413 0.008167047 -0.0046548066
000070 71 9f d8 3d ec 00 17 be 56 b8 05 3d 2c 9a 83 bd
       0.10577286 -0.14746445 0.0326465 -0.0642589
000080 55 84 b6 bd f2 73 3a be 0d 84 19 3e 5f 3e 32 be
       -0.08911959 -0.18208292 0.1499178 -0.17406605
000090 0e a0 da bd 5a 3f ac bd 24 1a 80 bd 64 f9 15 3e
       -0.10675059 -0.08410521 -0.06254986 0.14645916
0000a0 39 be d6 bd 38 c7 d6 3d a9 4f b2 3c 7f 28 30 be
       -0.10485501 0.10487217 0.0217665 -0.17202948
0000b0 ba 06 ed 3c 8c 76 f6 bc 79 9f 34 be e7 bf 1a be
       0.028933872 -0.030085824 -0.17638959 -0.15112267
0000c0 80 48 04 be 09 81 30 3e d8 94 3f be 03 37 06 3e
       -0.12918282 0.17236723 -0.18709123 0.13106923
0000d0 8e 24 0a 3e 14 d8 0d be 58 91 cc bd 7d 44 fb bb
       0.13490507 -0.13851959 -0.099886596 -0.0076680765
0000e0 57 f6 08 be ae de d4 3c aa f5 35 be 6d 34 fc bd
       -0.13375221 0.025985088 -0.17769495 -0.12314687
0000f0 2e f5 a4 bd 8c 4e 84 3c 6a b5 3d be b9 b2 cb bd
       -0.08054577 0.016150735 -0.18526235 -0.09946198

encoder.3.weight f4 [128, 64, 3, 3]
000000 23 2b e5 bc b0 10 90 3c 5e ed ed 3c 76 f5 18 bc
       -0.02797467 0.017586082 0.02904385 -0.009335866
000010 60 85 9a bc 55 53 17 3d 32 8f 68 3c 90 5e 17 bd
       -0.018862426 0.036944706 0.014194297 -0.036955416
000020 30 3b e8 ba a2 36 e9 bc 81 01 23 bd 63 b7 07 3b
       -0.0017717835 -0.028468434 -0.039796356 0.0020708672
000030 94 98 85 3b 9d da 1f 3d 00 67 cd bc 0b 23 82 ba
       0.0040770266 0.039026845 -0.025073528 -0.0009928657
000040 ef 13 11 bd c3 1f dd 3c 18 8d 1d 3d 34 12 10 3d
       -0.0354194 0.026992684 0.038464636 0.03517361
000050 7a b5 00 3d 4a 46 7e ba c2 fd 22 bc 21 5b 7b 3c
       0.03142307 -0.0009699805 -0.009948196 0.015341551
000060 e8 f2 18 bc f9 9e 30 bc 2b 9b 10 3c a4 2c cb 3c
       -0.009335257 -0.01078009 0.008826057 0.02480156
000070 3e 6b 0c bd 32 b2 11 3d 45 e6 01 bc 16 63 8e 3c
       -0.03428196 0.03557033 -0.007928436 0.017381232
000080 1c 69 b8 3c 53 53 3f bc 83 a9 33 3c f0 f5 1c 3d
       0.022511058 -0.011677581 0.010965708 0.03832048
000090 e7 b2 25 3d 62 4f 33 bc a0 9f 2a 3c fb f8 df bc
       0.040453818 -0.010944219 0.010414034 -0.027340403
0000a0 92 68 1a 3d 99 8a 0f 3d e3 29 22 bb 30 7e cb 3c
       0.037697382 0.035044286 -0.0024744205 0.024840444
0000b0 d3 af 17 bb b0 fe 0b 3c c8 b6 fd 3c a0 09 d4 3c
       -0.002314557 0.008544609 0.030970946 0.025883496
0000c0 3c ec a7 3c a4 35 4c bc f7 86 22 3c ca 89 98 3b
       0.020498388 -0.012463961 0.009919873 0.0046550976
0000d0 ef 22 92 3c e1 1d 81 3c 34 e9 a3 3c d1 35 5f 3c
       0.017838923 0.015761318 0.02000866 0.013623671
0000e0 85 d6 47 bc b9 33 de 3b 31 50 5e bc 1f b1 8d bc
       -0.012197142 0.006781068 -0.013568924 -0.017296372
0000f0 3e 17 80 3c 17 63 ad bc a0 f7 75 3c 7a fb 05 3d
       0.015636083 -0.021165414 0.015012652 0.03271053
000100 e9 bc 85 bc eb bb 86 bc f1 ee 88 3c d6 b7 18 3c
       -0.016325431 -0.016447028 0.016715499 0.009321174
000110 33 01 de 3c b1 58 06 3d e0 4c c2 38 3a 35 0e 3d
       0.027100181 0.032799426 9.26496e-05 0.03471873
000120 3a 06 1e 3a 89 b9 3b ba da 00 76 bc ea b5 70 bc
       0.00060281495 -0.0007161131 -0.0150148515 -0.014691809
000130 cd fe c0 bc fa 35 a9 bc 2f 04 d4 3c c3 ab 88 bc
       -0.023558998 -0.02065562 0.025880901 -0.016683465
000140 7b 40 1f bc dd 4e 90 bc 0d 29 22 bd 8e 93 df bc
       -0.009719963 -0.01761573 -0.03958993 -0.02729204
000150 a9 52 1f 3c 49 82 0e bd 32 c0 12 3d 22 d8 29 3d
       0.009724298 -0.03479222 0.035827823 0.041465886
000160 1b 35 fc 3c 57 e8 96 3c 4f 9a 01 bd b5 f3 49 bc
       0.030787041 0.018421335 -0.0316413 -0.012326171
000170 eb fd fc 3b 81 77 d4 3c e8 a2 af bc 80 cb 12 3d
       0.007720699 0.02593589 -0.021439984 0.035838604
000180 16 df f9 3c 06 05 26 bc a0 9d c3 3c ec c2 14 3d
       0.030501883 -0.010133034 0.023878872 0.036318704
000190 9f 1d 71 3c 70 8a 68 bc 86 54 1c bd 76 6f 07 bd
       0.014716535 -0.014193162 -0.038166545 -0.03306528
0001a0 70 d8 a2 ba c8 a5 fd bc 64 86 79 3c 55 a3 01 bd
       -0.0012424123 -0.03096284 0.015229795 -0.031649906
0001b0 f1 94 c8 bc 16 dc 98 bc 85 1d 9a 3c ff c9 82 3c
       -0.024485083 -0.018659633 0.018812904 0.01596546
0001c0 c0 0e 11 bd 46 fd be bc 10 48 d1 bc 99 40 54 bc
       -0.035414457 -0.02331413 -0.025547057 -0.012954854
0001d0 e8 06 b5 3c 59 35 77 3c 6f bf 4d 3c f4 72 e7 3c
       0.02209802 0.015088403 0.012557848 0.028253056
0001e0 23 0c 12 3d 82 1d 25 bd b7 3e 0e bd 93 60 b2 3c
       0.035656106 -0.040311344 -0.03472778 0.021774566
0001f0 c3 59 b7 3c 48 de 96 bb 4a c4 fb 3b 87 7d 71 3c
       0.022381669 -0.0046041347 0.0076833116 0.014739401
000200 c3 86 3d bc 2d cb 19 bd 12 65 c4 3c 1b a4 df bc
       -0.011567774 -0.03754728 0.023973975 -0.027299931
000210 72 2e a1 bb 10 eb 23 bb 4e f5 04 3d 22 29 00 3c
       -0.004918867 -0.0025011934 0.032460503 0.007822307
000220 ca 12 47 bc ca cf df bc b4 78 0d bc 76 2d 3f 3c
       -0.012150476 -0.027320761 -0.008634735 0.011668554
000230 0b 96 a3 3c 69 3b 07 bd b2 71 b9 bc ac d0 a0 bb
       0.019969007 -0.033015642 -0.022637222 -0.004907688
000240 f9 93 af bc 07 89 84 bc 71 e2 9f bc f1 f2 b6 bc
       -0.021432864 -0.016178621 -0.019517155 -0.02233264
000250 f5 45 01 bd 5b 8b 65 bc 4e d2 bc 3b b5 c8 1b 3d
       -0.031560857 -0.014010276 0.005762375 0.038033206
000260 f1 67 50 bc 52 36 03 bd a1 f0 55 bc 86 06 a0 bb
       -0.012720094 -0.032034226 -0.013057859 -0.00488359
000270 b9 2b 27 ba 82 70 88 bc ef 7d 87 bc a2 c7 80 3c
       -0.00063770596 -0.01665521 -0.016539542 0.015720192
000280 9f f1 60 bb 30 8f a8 bb 59 d6 69 3c 59 cb b9 3c
       -0.0034323705 -0.0051440224 0.014272296 0.022679972
000290 45 c9 70 bc 21 ed 4f 3c 7c aa fe 3c 00 f2 06 3c
       -0.014696424 0.012690813 0.031087153 0.008236408
0002a0 bc 2b 2a 3d 3f cd 5c bc a7 45 15 3d a8 08 8c bc
       0.041545615 -0.013476669 0.03644338 -0.017093971
0002b0 3e 91 8e 3b 29 89 c0 3c ad 3d 77 bc 1d 1e 1b bd
       0.0043508103 0.023502903 -0.015090388 -0.037870515
0002c0 bc 1a dd bc d2 fd bc bc 46 73 e6 bc 44 ec 03 3d
       -0.026990287 -0.02307025 -0.028131139 0.032207742
0002d0 ff 21 07 bd 9a c4 ac bc db b3 87 3c 53 b3 0e 3d
       -0.032991406 -0.02108984 0.016565254 0.034838986
0002e0 41 ce f9 3c b0 9c 05 3d 32 15 96 ba 7c 17 24 bd
       0.030493857 0.032620132 -0.0011450408 -0.04006146
0002f0 77 b1 3a 3c 99 45 77 3a b4 bc 1c 3d 57 04 ac bc
       0.01139485 0.0009432673 0.0382659 -0.020998163
000300 0a 06 8e 3c 01 d6 93 3c 15 1a e5 bc 83 01 98 bc
       0.017336864 0.018046381 -0.027966538 -0.018555408
000310 a8 f3 e5 3b 5e cf 8d 3b 8a a7 9f 3b 9b 00 fc bc
       0.0070175715 0.0043276986 0.004872267 -0.030762007
000320 92 6b c5 3c 9e 34 ca bc 86 3f e4 bc 60 93 b4 bc
       0.024099145 -0.024683293 -0.027862322 -0.02204293
000330 9f 8d cb 3b 46 3c 28 3d 0e 65 c0 bc 10 88 18 bc
       0.006211951 0.041073106 -0.023485687 -0.009309784
000340 3b e0 20 3c bd 5b 89 3c 45 80 84 3b 38 42 1f 3d
       0.009819086 0.016767377 0.004043611 0.03888151
000350 d5 48 8a 3c a5 18 09 3b aa 5f 8e 3b 04 8d 55 3c
       0.016880432 0.002091923 0.0043449 0.013034109
000360 d9 92 a2 3b 96 9f b0 3c cb 5e 0b 3c 26 05 2c 3d
       0.0049613533 0.021560472 0.008506487 0.041997097
000370 4c 2e 1a bd 5a 73 be 3c 7f 9b 00 bd 06 aa b1 ba
       -0.03764181 0.023248363 -0.031398293 -0.0013554699
000380 53 ba 22 3d 48 bd 11 3c d8 9a 25 bd 1a 79 81 bc
       0.039728474 0.008895226 -0.040430874 -0.015804816
000390 a9 02 4c bb 63 c0 c9 bc 81 05 14 3d 12 5b 25 3d
       -0.0031129515 -0.02462787 0.03613806 0.040370055
0003a0 73 59 8d 3b ab 21 0d 3b 08 98 52 bc 15 ec ed 3c
       0.0043136417 0.002153496 -0.01285363 0.029043237
0003b0 4c d6 19 bc 3d 4d db bb 37 21 87 bc 4f 49 f9 bc
       -0.009389471 -0.006692557 -0.01649533 -0.030430464
0003c0 8e 23 17 ba 9d bf 74 3b 6d 32 50 3c 53 2a 17 bd
       -0.0005765491 0.0037345656 0.012707335 -0.036905598
0003d0 4b 38 98 bc f8 86 cf bb cf e6 1d bc 9f a6 21 3d
       -0.01858153 -0.006333228 -0.009637549 0.039465543
0003e0 f9 24 a4 3c 7d 9d 9d 3b 80 80 a6 bc ea f4 bf 3c
       0.020037161 0.004810034 -0.020324945 0.023432214
0003f0 85 1d 0f bc 16 9b 1e bc ec 33 5b 3b 5a ea 5c 3c
       -0.008735065 -0.00968053 0.0033447696 0.013483608

encoder.3.bias f4 [128]
000000 25 bb 20 bd e7 0f 27 3d 52 9b 0a bc f5 9f 13 3d
       -0.039240975 0.04078665 -0.008459883 0.03604122
000010 0a 6e 02 bd 92 9d 9c 3c 3b 45 25 bd 26 12 ba 3c
       -0.031843223 0.019118104 -0.040349226 0.022713732
000020 4f fb 19 bd 20 cb 29 3d bb fd a1 3b 8e fb fa 3c
       -0.037593182 0.04145348 0.004943577 0.030637529
000030 7b 80 b5 bb e5 b6 12 3d 4a 65 24 3d d6 09 80 bc
       -0.0055389977 0.035818953 0.04013566 -0.01562969
000040 1f cd 86 3c 1a 42 be 3c 01 62 f7 3c d9 be f1 3c
       0.016455231 0.023224879 0.0301981 0.029509949
000050 c6 ea cb 3c aa ef 19 3d 74 9f 69 3c 41 34 af bb
       0.024892222 0.037582077 0.014259208 -0.0053468053
000060 3a 95 d5 bb 49 35 6a 3c 38 43 cd bc dd 1a 17 3d
       -0.0065180333 0.014294931 -0.025056466 0.036890853
000070 48 23 83 3c 02 a9 28 3d 90 08 d9 ba 9a 35 47 b9
       0.016008034 0.041176803 -0.0016558338 -0.00018998087
000080 40 13 76 bc d9 8d 02 bd 95 f4 f2 3b 75 b6 0b b9
       -0.015019238 -0.031873558 0.0074144104 -0.00013324044
000090 e7 4a 0e 3d 89 41 82 3c 36 5a 96 3b 13 73 0b 3d
       0.0347394 0.01590039 0.0045883907 0.03404529
0000a0 d0 85 d6 3c 18 a5 27 3d 3e 4e a0 3c 93 6a 32 bb
       0.026186854 0.04092893 0.019568559 -0.0027224168
0000b0 ec d8 f4 bb c8 81 08 3d 37 4f 09 bd a9 f9 21 3d
       -0.007472148 0.033326894 -0.03352281 0.039544735
0000c0 0e 40 7f 3b 18 5c 1d bd 71 18 d8 3b 3f 82 43 3b
       0.0038948092 -0.038417906 0.0065947105 0.0029832271
0000d0 d9 8b 9e 3c 57 1a 32 bc 34 ae ad 3c 6e e4 c0 3c
       0.019353794 -0.010870538 0.02120123 0.023546424
0000e0 5e 0f ad bc 31 3b 9c bc 3e 53 f2 bc d0 8d 25 bd
       -0.021125492 -0.019071193 -0.029580709 -0.040418446
0000f0 fa 80 a1 bc 13 ba a1 bc 0a e6 cd bb 1a c3 1b bd
       -0.019714821 -0.019742047 -0.0062835263 -0.03802786
000100 d2 45 4b bb e3 3d d6 3a 0f 1a 08 3c 72 b5 b6 3c
       -0.0031016958 0.0016345348 0.008306994 0.022303317
000110 bb ce b6 bb 1f 56 0f bc 37 27 1a 3d b1 f6 a4 3c
       -0.0055788434 -0.00874856 0.037635054 0.020137163
000120 b4 39 1c bd 26 bc 46 bc 47 e4 90 bb 9c 24 ab bc
       -0.038140967 -0.012129819 -0.004421744 -0.02089148
000130 c3 17 52 3b b9 ec 04 3a 21 70 97 bc 57 c1 ab bc
       0.003205762 0.0005070675 -0.018486084 -0.020966215
000140 18 51 85 bc f0 5d c8 bc b6 83 e1 3b c2 3c dd 3c
       -0.01627402 -0.024458855 0.0068821562 0.02700651
000150 07 77 a1 3c 08 7b 94 bb 95 4a 0e 3d 9c be 63 ba
       0.019710077 -0.004531268 0.034739096 -0.0008687766
000160 cd 53 4d 3c 53 c9 97 3c 95 03 a6 3c d7 d0 06 3d
       0.012532187 0.018528616 0.02026538 0.03291401
000170 83 ef 02 3d 49 52 5b 3c 62 3a 2c bd 4d 7d 02 bd
       0.031966697 0.0133863175 -0.042047866 -0.031857777
000180 0f f4 b0 bb b2 6a 0e bd 82 43 c5 bc 54 89 c7 3c
       -0.005400188 -0.03476972 -0.024080042 0.024357475
000190 37 76 3d bc f3 12 ea bb 45 05 21 3c 29 5a 51 3c
       -0.011563829 -0.007143372 0.0098279165 0.0127778435
0001a0 92 a2 13 bd bd 2b 7e bc 76 2b 14 bd f4 ae b3 bc
       -0.03604371 -0.015513358 -0.03617426 -0.02193401
0001b0 b8 2a 29 bc b8 3c 60 3c 66 fb d2 3c f2 88 b3 3c
       -0.010325126 0.0136863515 0.025754642 0.021915887
0001c0 6a 20 17 bc 22 3d f1 3c 51 16 f6 bb e4 ba 0e bd
       -0.009224037 0.029448096 -0.0075099845 -0.0348462
0001d0 d8 17 12 bd e4 43 12 bd c7 6d e7 bc 85 22 a4 3c
       -0.03566727 -0.035709277 -0.028250588 0.020035991
0001e0 3e c9 07 3d 3f 59 76 3c 99 cd 79 ba 0f 50 00 3c
       0.033150904 0.015035926 -0.00095292326 0.007831587
0001f0 58 72 f1 3c 0a 47 80 bb 55 cc ca 3c ee b4 27 bd
       0.029473469 -0.0039147185 0.024755636 -0.040944032

decoder.0.weight f4 [64, 128, 3, 3]
000000 86 2f 78 3c 81 78 8e bc 9f 32 e7 bb fe 6b 84 3c
       0.015148049 -0.017391445 -0.007055595 0.016164776
000010 59 84 13 bc fe 49 86 3b c7 46 8e bc 01 d0 a4 bc
       -0.009003722 0.004098176 -0.017367734 -0.020118715
000020 4b b6 a8 bb 3a a6 e3 bb 2b 1b f8 ba 20 be 7e bc
       -0.005148684 -0.006947306 -0.0018928995 -0.015548259
000030 0c 84 47 bb 4d 6f 19 3c 07 53 a4 3c 23 3c 3e 3c
       -0.0030443696 0.009364915 0.020059122 0.011611017
000040 38 d5 56 3c 97 1e 95 3b c4 8d 25 3b 5c fa ab 3b
       0.013112359 0.0045507657 0.00252615 0.005248351
000050 b9 43 54 bc b6 c3 43 3c ea 1f d3 bc aa ec c4 3c
       -0.012955599 0.011948517 -0.025772054 0.024038631
000060 75 d0 d5 3c 5b 70 f3 bc ec 43 75 bc 33 75 7a 37
       0.026100377 -0.029716661 -0.014969807 1.4928449e-05
000070 f8 9d 77 bc 80 e0 00 bc 6d 1b 13 bb c0 58 b9 3a
       -0.015113346 -0.007866025 -0.0022446767 0.001414083
000080 67 58 cc 3c 98 40 26 3c 58 f5 17 bc 6d dc e1 bb
       0.024944497 0.010147236 -0.009274803 -0.006892732
000090 4b 02 02 3c 3a 90 7f bc 9a 3f c3 bc 0c 97 c4 bc
       0.007935117 -0.015598351 -0.023834039 -0.023997806
0000a0 bc c4 24 3c d9 c0 7e 3c 9d bc 4b 3b 99 19 a2 bc
       0.010056671 0.015548908 0.0031087764 -0.019787597
0000b0 9e a7 a8 bb 4a bc 28 bc 27 15 a1 bc 78 68 b4 3b
       -0.0051469347 -0.010298798 -0.019663407 0.0055056177
0000c0 b9 7c cd bc 10 ae 97 3c ca cb e4 3c f8 04 dc bc
       -0.025083886 0.018515617 0.027929205 -0.026857838
0000d0 47 32 a9 bc 3a 7c 7b bb fb 03 8c bc d2 a0 c8 3c
       -0.020653857 -0.0038373605 -0.017091742 0.024490748
0000e0 a6 7f 4c 3a 3b c0 44 bc c8 fa 22 bb 9a 3d e3 3a
       0.00078010035 -0.012008722 -0.0024868716 0.0017337084
0000f0 af a2 cc 3c 0b 4a d7 bc 0c 26 c6 3c 60 86 cd bc
       0.024979917 -0.026280424 0.024188064 -0.025088489
000100 40 8e e7 3b 96 f0 c6 3c 44 a1 d8 bb d0 8e 69 bc
       0.007066518 0.024284642 -0.0066110212 -0.014255241
000110 d2 21 e4 3c 96 a0 ce 3c ec 6c 02 bc bf 39 77 3c
       0.027848158 0.025223058 -0.007960539 0.015089451
000120 21 80 94 bc fc f3 ad bb f8 31 21 3c 41 66 85 bc
       -0.018127503 -0.005308626 0.009838574 -0.01628411
000130 21 04 a8 3c b4 41 89 3c b9 b6 81 bc ad 60 d9 bb
       0.020509781 0.016754963 -0.0158342 -0.006633839
000140 0f 9c a4 bc 24 6b c4 bc 5b 6f a9 3c b4 99 d7 bc
       -0.020093946 -0.02397687 0.020682981 -0.026318409
000150 f9 71 57 3b 69 ba bb 3c 88 be b5 3c e7 30 e6 3c
       0.003287433 0.022916036 0.022185579 0.02809949
000160 94 18 61 3c 55 6e 66 bc 80 b9 86 bc a4 fe 8d bb
       0.01373877 -0.014064391 -0.016445875 -0.004333334
000170 17 cb be 3b 16 f8 8e 3c 99 e0 96 3c d1 8a 97 3c
       0.00582255 0.017452281 0.018417643 0.01849881
000180 ee ab 3f 3c 97 9f b5 bc ed f3 ab 3c 10 1c d5 bc
       0.011698706 -0.022170825 0.020990336 -0.026014358
000190 10 7b 1e 3b 6c 89 84 bc ad c5 d8 bc 25 0c 47 bc
       0.0024182238 -0.01617881 -0.026461447 -0.012148892
0001a0 4b 4e c7 bc ea 01 8e 3c 4e 57 5b 3c c2 07 a3 3c
       -0.024329325 0.017334897 0.013387514 0.01990116
0001b0 02 73 24 bc 33 d7 24 3b c8 db 74 bc d5 c4 20 bb
       -0.010037186 0.0025152683 -0.014944978 -0.0024531384
0001c0 f6 d1 9f 3c 05 62 a9 bc f3 ee 29 3b b0 ca 01 3a
       0.019509297 -0.020676622 0.0025929778 0.0004951162
0001d0 1c 46 c4 bc ab 8b 49 3c 1c b4 56 3c c0 f3 79 3b
       -0.023959212 0.012301366 0.013104465 0.003813967
0001e0 0b 80 c7 3c 84 bc 81 bc ac 08 6a 3c 64 cc 09 bc
       0.024353048 -0.015836962 0.014284294 -0.008410547
0001f0 69 d8 15 bc 2d 98 59 ba bf 8f a0 bc 01 20 aa bc
       -0.0091458345 -0.0008300569 -0.019599793 -0.020767214
000200 00 23 1f bc 70 b6 f0 bc d8 4a 9a bc 82 6c 90 bc
       -0.0097129345 -0.029383868 -0.018834516 -0.017629866
000210 8d 3b e3 ba 5f 43 e1 3c 6b cc f9 bb 2f 89 bb bc
       -0.0017336473 0.027497945 -0.0076232455 -0.022892563
000220 b4 ce dc 3b d5 c7 ee bc ae ce 1a bc b6 14 d0 3b
       0.006738508 -0.029148022 -0.00944869 0.006350125
000230 0a 78 9f 3c 7f a9 93 3c e4 0b a7 bc 31 79 a7 bc
       0.019466419 0.018025158 -0.020391412 -0.02044353
000240 b3 fa df 3b dd 7d ea bc ca e2 93 bc d9 37 c0 bc
       0.0068353056 -0.02862447 -0.018052477 -0.02346413
000250 18 6c b9 3c 11 f4 6f bc 7f cd a1 bc 53 eb 32 bc
       0.02263455 -0.014645592 -0.019751308 -0.0109203635
000260 e4 91 7e bc c5 02 c4 3c 22 ea ad 3c 48 de d5 bc
       -0.015537713 0.023927102 0.021229807 -0.026106969
000270 15 b0 d7 3c 25 0d 84 bb 24 e8 95 bc 30 91 29 3c
       0.02632908 -0.0040298873 -0.01829917 0.010349557
000280 09 c5 ae 3a 98 06 43 3b 51 45 8a bc 6b 6c 90 bc
       0.0013333868 0.002975857 -0.016878756 -0.017629823
000290 8b 69 b3 3c fa 0b 98 3b b4 4b c0 bb 1f 8f a5 bc
       0.021900913 0.0046400996 -0.0058683995 -0.020209847
0002a0 9f 71 c2 bb 8a 11 d1 bc a1 20 7d bc 4a 1b 23 bc
       -0.005933955 -0.025521059 -0.015449674 -0.009955237
0002b0 8b 24 09 3c 24 86 44 bb 4e 54 d8 bb da 24 7e 39
       0.008370529 -0.002998718 -0.006601847 0.00024237056
0002c0 6b 7f 40 3c 3c 05 ea bc b2 de e8 bc 2c 86 85 bb
       0.011749129 -0.02856695 -0.028426502 -0.0040748324
0002d0 99 b3 16 3c e6 0e b9 bc f3 33 3e 3c da 77 fd 3b
       0.009198093 -0.022590112 0.011609065 0.0077352347
0002e0 bd 30 cc bc 19 46 81 ba 1c 2d a3 bc b5 af 8d bb
       -0.024925584 -0.000986281 -0.01991897 -0.0043239244
0002f0 25 3d da bc 8f 5e 97 bb c4 52 74 3c b7 31 f0 bc
       -0.026640484 -0.0046194266 0.014912311 -0.02932058
000300 3d b7 54 3c 5f c9 7a bc a2 b7 dc 3c 40 08 2e 3c
       0.012983141 -0.0153068 0.026943032 0.010622084
000310 4c c7 23 3c f0 6e bc bc 4f fe 73 bc b8 c8 c0 3c
       0.009996247 -0.023002118 -0.014892175 0.02353321
000320 cb 42 e9 bc a8 12 d3 bc ae 30 e0 3c b7 40 74 bc
       -0.028474232 -0.025765732 0.027366962 -0.014908007
000330 49 a9 51 bc 6a 5d de ba c6 02 39 bc ee c6 05 3c
       -0.012796708 -0.0016965095 -0.011292165 0.008165104
000340 86 dc a2 3b d1 ca a0 bc 9b e5 7f bc 53 15 a0 bc
       0.004970136 -0.01962796 -0.015618707 -0.019541418
000350 04 b8 ba 3a c5 dd 0e bc 38 3f f0 bc ae db 6c bc
       0.0014245515 -0.008719866 -0.02932702 -0.014456673
000360 fe e0 c2 3c e7 4e 95 bc 08 fd dc bc 15 c5 9e 3c
       0.023788925 -0.0182261 -0.026976123 0.019381085
000370 74 8d c4 ba 14 cb 7d 3c 4e 71 da 3c c3 ef dd bc
       -0.001499577 0.015490312 0.026665356 -0.027091866
000380 4d 27 a3 3c ed 08 a8 39 84 a4 1e 3c 02 44 d1 3b
       0.019916201 0.00032050107 0.009682778 0.006386281
000390 9c d0 c7 3b b8 7f d0 ba 19 19 84 bc ca 34 c2 bc
       0.006097866 -0.0015907204 -0.016125249 -0.023706812
0003a0 88 32 05 3b 35 bb 9c 3c 1f df eb 3c 97 ab b0 3c
       0.0020324308 0.019132236 0.028792916 0.021566195
0003b0 fa ae e0 3c e9 8f 9c bc 4f d9 d5 3c 43 43 9c bc
       0.027427185 -0.01911159 0.026104597 -0.019075042
0003c0 49 c5 87 3c 12 e1 b8 bc 70 07 bc bc 74 55 b6 3c
       0.016573565 -0.02256826 -0.022952765 0.022257544
0003d0 4f 96 a9 bc 41 61 08 bc ff e6 2d bc bb 84 29 3c
       -0.020701556 -0.008323968 -0.010614156 0.010346587
0003e0 5c 0a ed bc 93 2d 9e 3b 30 a6 e4 bc 73 15 b9 3c
       -0.028935604 0.00482721 -0.027911276 0.022593236
0003f0 0c 3d fa 3b 76 70 59 bc cf 6e aa b9 e0 7d 04 3b
       0.007636672 -0.013271442 -0.00032507486 0.002021663

decoder.0.bias f4 [64]
000000 63 d8 bf 3c b3 15 d0 bb bf 84 65 3c 2f 07 81 3c
       0.02341861 -0.006350243 0.0140087 0.015750496
000010 1e 1d f5 3c 14 f6 2c 3c 73 5c 70 3c 42 e6 55 3c
       0.02992111 0.0105567165 0.014670479 0.013055386
000020 90 ac b6 3c 20 d1 e2 bc 80 3d 99 3c a6 dc ab bc
       0.022299081 -0.02768761 0.018706083 -0.020979237
000030 9c ce 95 bc fc 69 4a 3c 47 d6 bd bc 07 31 75 3c
       -0.018286996 0.01235437 -0.023173464 0.014965302
000040 74 23 b8 bc b4 8b 76 3c e4 2a a2 bc d5 4b a6 3c
       -0.022477843 0.015047956 -0.019795842 0.020299831
000050 ca a8 97 3c c0 b7 36 3c 87 0f b2 3c 62 d4 62 3c
       0.018513102 0.011152208 0.02173592 0.013844581
000060 78 39 92 bb 66 31 cd bc cc 7b cf 3c 6d 2b c3 3c
       -0.004462417 -0.02504797 0.025327586 0.023824418
000070 65 c8 d0 3c e4 0a be 3b aa aa e1 bb 02 56 91 bc
       0.02548618 0.005799638 -0.0068868 -0.017741207
000080 98 8e e6 3c b6 e2 9c 3c 67 c3 1f bc 24 43 a7 bc
       0.028144166 0.019151073 -0.009751177 -0.020417757
000090 32 1c a1 3c 5c ef 13 bc 76 d6 7a bc b2 ee 3c bc
       0.019666765 -0.009029236 -0.015309921 -0.011531519
0000a0 4b d4 e9 3b 54 49 0f 3c 9e da aa 3b 7f 15 2e 3c
       0.007135903 0.00874551 0.0052140495 0.010625242
0000b0 96 6c d7 3b 59 82 db bc 49 f2 75 bc a8 0a 06 bc
       0.0065742237 -0.026795553 -0.015011379 -0.008181252
0000c0 00 dc 84 bb 11 62 e9 bc 2c b0 54 bc e9 28 c7 bc
       -0.0040545464 -0.028489145 -0.012981456 -0.0243115
0000d0 d3 79 e2 bc 02 4f d9 3b a2 57 be 3c 59 d0 e8 3c
       -0.027645981 0.006631733 0.023235146 0.02841966
0000e0 ee 46 2d ba d2 24 99 bc 51 ca 4e 3c a4 72 64 3c
       -0.00066099956 -0.018694315 0.012621478 0.013943348
0000f0 db 6e 49 bc d7 a2 d5 3b e5 f3 e3 bb 52 20 0e 3c
       -0.012294496 0.006519656 -0.0069565647 0.008674698

decoder.3.weight f4 [32, 64, 3, 3]
000000 21 46 ca 3c c8 77 14 3b ff 93 25 bd d5 9d a3 bc
       0.024691643 0.0022654403 -0.040424343 -0.019972721
000010 bd c6 0e 3d 94 c4 a3 3c 15 4f e0 3c 6c 2f e4 3c
       0.0348575 0.019991197 0.02738146 0.027854644
000020 09 69 df bc 47 ab 06 3d ac 71 b4 ba 70 10 fb 3c
       -0.027271764 0.032878187 -0.0013766787 0.030647486
000030 b2 21 45 bc 3c 94 5e bc 13 d5 e5 bc a6 92 db 3c
       -0.012031959 -0.0135851465 -0.028055703 0.026803326
000040 69 e3 6b 3c c5 a7 9c bc ad cb d2 bc 1e 74 24 bd
       0.0143974805 -0.019122967 -0.025731886 -0.0401498
000050 31 60 b6 3c 0f 0a 24 bd bd 0c 1c 3c 3e 16 f9 3c
       0.022262665 -0.040048655 0.009524521 0.030406114
000060 32 1c a1 3c 93 f9 af 3b f6 eb 26 3d 0e 98 fd ba
       0.019666765 0.0053703277 0.040752374 -0.0019347684
000070 84 a4 c7 3c bf b6 ab bc b5 ba 61 bc 8e 0f 8b bb
       0.02437044 -0.020961164 -0.013777425 -0.0042437976
000080 a0 04 72 ba f3 5e 8d bc c6 b1 62 3c 38 0f 23 3c
       -0.00092322566 -0.01725719 0.01383633 0.009952359
000090 13 ef 8e 3b b1 6c 24 3d 35 91 a8 3a 28 72 a1 bc
       0.004361996 0.04014272 0.0012860658 -0.019707754
0000a0 1f d3 0c 3d 2c 97 2c bb 13 06 fc bc ec 93 00 3d
       0.03438103 -0.0026335223 -0.030764615 0.03139107
0000b0 e8 4c 3e 3b af 09 b3 3c 82 f7 1d bd 59 1c e5 bc
       0.002903754 0.021855203 -0.03856612 -0.027967619
0000c0 6c bf 13 bb ce 56 22 bd 24 35 02 bd 12 b5 3e 3b
       -0.0022544516 -0.039633565 -0.03178896 0.0029099626
0000d0 e6 3c 89 3c 5f b9 8d bc 01 a8 20 3c 4f 78 80 b9
       0.016752671 -0.017300306 0.00980568 -0.000245037
0000e0 8e 0d 18 bd 17 37 17 3d 06 a6 d6 bc db 00 03 3d
       -0.0371223 0.036917772 -0.026202213 0.031983238
0000f0 66 ed c2 3c fd bc 0b bd 49 47 2d bd aa d6 84 3c
       0.023794841 -0.03411578 -0.04230431 0.016215641
000100 ad 11 f4 bc 0c 66 e6 3c f2 8c 1d 3d c2 d9 cd bb
       -0.029793585 0.028124832 0.038464494 -0.0062820623
000110 09 50 d7 3b 0d 67 de bc 7a 15 15 bd 50 78 ad bb
       0.00657082 -0.027148748 -0.036397435 -0.0052938834
000120 a1 4f 07 bd 80 82 d1 bc ad 51 08 3d b9 45 a8 bc
       -0.033034924 -0.025574923 0.033281017 -0.020541059
000130 e0 ec f0 bb 49 72 54 3c ba 5e 2b bd 8a a1 91 3c
       -0.0073524565 0.012966701 -0.041838385 0.017777223
000140 08 6b 5b bc 59 53 81 bb 32 a7 1f 3d 2c 5a 6b bc
       -0.013392217 -0.0039467034 0.03897781 -0.01436476
000150 eb f9 b4 3c c6 b5 ad 3c 6e ba 72 bc ef 1d 09 3c
       0.022091826 0.02120484 -0.014814956 0.008368953
000160 69 6b d2 3c 1b 28 ee bc 9e c8 aa bb 25 10 1d 3c
       0.025685983 -0.029071858 -0.0052119037 0.009586369
000170 08 fe a8 bc db db 81 3b dc e8 2e 3c 76 60 07 bd
       -0.020628944 0.0039629764 0.010675635 -0.033050977
000180 ee f1 fa bb c0 6c 09 3c f3 79 b5 ba 12 c9 d7 3c
       -0.007658235 0.008387744 -0.0013845548 0.026340995
000190 ae a8 dc bc e0 15 a0 3c c0 4e 69 3c b5 10 27 3d
       -0.026935901 0.01954168 0.014239967 0.040787417
0001a0 2c 68 24 bd 8b 6e fb bc 94 25 79 3c 0e 0f ee 3c
       -0.04013841 -0.03069236 0.015206713 0.029059913
0001b0 a5 a4 f0 3c 27 73 f1 3b 16 21 84 3c a4 18 cb 3c
       0.029375384 0.0073684636 0.016129058 0.024792023
0001c0 be 32 26 bd 35 c4 02 3b 4a 96 21 3d 53 90 d4 bc
       -0.040575735 0.0019953374 0.039449967 -0.025947725
0001d0 8d d3 c5 3c 5a 17 b7 3c 10 ef e5 bc 97 89 5a bc
       0.024148727 0.022350002 -0.028068095 -0.013338468
0001e0 c3 af e6 3c 26 ff 2c bd f3 5d f8 bb 30 dc 0b bd
       0.028159982 -0.042235516 -0.007579559 -0.034145534
0001f0 19 9e c5 3a bc 39 c1 3c a9 9e c4 bb d1 f4 82 3c
       0.0015077024 0.0235871 -0.006000359 0.015985878
000200 11 0b aa 3c 4e de ab 3a 67 1e fe bc 07 96 c4 3a
       0.02075723 0.0013112517 -0.031020356 0.0014998325
000210 06 48 a4 bb da bf b7 bc dc 70 2c 3b bc 57 c3 bc
       -0.0050134687 -0.02243035 0.0026312387 -0.023845546
000220 ff 80 12 bc 98 2c 3e 3c 48 a0 3e 3c 1b 57 1b 3b
       -0.008941888 0.011607312 0.011634894 0.0023703042
000230 03 8b 74 3b a9 d8 bd bb 74 d1 e5 3b 5c 7e 96 3c
       0.0037314303 -0.00579365 0.007013494 0.0183708
000240 39 39 75 3c 0d 80 e9 bc 71 37 61 bb b0 15 15 3c
       0.014967256 -0.028503442 -0.003436532 0.009099409
000250 eb b0 29 3b 76 e7 ce bb 98 ea 8c bb 97 a4 22 3b
       0.0025892805 -0.0063142134 -0.0043004267 0.0024817341
000260 db 2b 73 3c 45 e2 bf bc 33 bb 2a bd 41 17 e1 bc
       0.014841999 -0.023423323 -0.041682433 -0.027476909
000270 48 b4 8a 3c 67 6f 15 bd 72 1a 75 3c d7 be 13 3d
       0.016931668 -0.036483195 0.014959918 0.03607067
000280 9f 08 a2 3b ff 49 53 3b 78 4d 1f 3d 98 c0 1f 3d
       0.0049448754 0.003224015 0.03889224 0.03900203
000290 de d9 27 bd 42 a8 94 3c 8b d0 e9 bb 4c 91 a3 bc
       -0.04097926 0.018146638 -0.007135456 -0.019966744
0002a0 ce 72 a1 bb 0a ec 22 bd 17 63 0f bb 33 ec 7d 3c
       -0.004927016 -0.039775886 -0.002187913 0.015498209
0002b0 a5 fb 32 3a f4 ec 45 bb 89 92 73 3a aa 27 e9 bc
       0.0006827659 -0.003020105 0.000929155 -0.028461296
0002c0 43 e8 15 3d b1 74 01 bd 40 f9 a5 3b e8 13 01 bd
       0.036598455 -0.031605426 0.0050651133 -0.031513125
0002d0 f8 dc 00 bd 6c 7c 0c 3b 3f 12 0b 3d 76 27 87 3c
       -0.031460732 0.0021436466 0.033952948 0.016498309
0002e0 61 fa c9 3b c9 04 e7 3b f1 4e 02 3d b3 a1 94 bc
       0.0061638807 0.007050131 0.031813566 -0.01814351
0002f0 ac f7 26 3d d8 af 52 3c 6e 72 e3 3c 0e 82 ce 3b
       0.040763542 0.012859307 0.027764525 0.006302125
000300 01 e3 a6 bc 42 40 12 bd b5 dc 37 3c 91 fc be bc
       -0.020371916 -0.035705812 0.011222054 -0.023313792
000310 66 29 0c 39 66 f5 0e bd 4b 9a 2a 3a a5 cb d0 3c
       0.00013366863 -0.034902 0.0006507977 0.02548773
000320 dc 63 ef bc 9b a4 92 bc 68 c1 92 3a bb 87 c0 3c
       -0.029222421 -0.017900756 0.0011196556 0.023502221
000330 9f 43 a9 bc 2f 73 db 3c 14 bc 69 bc 7c 72 10 bd
       -0.020662127 0.026788322 -0.014266033 -0.03526543
000340 73 f7 13 3d 59 70 15 bd 0a a8 1a 3d c2 61 c2 3b
       0.036124658 -0.036484096 0.03775791 0.005932064
000350 e4 f6 bc 3c 31 8d a7 bc 27 64 1c bd 0c c2 e9 3c
       0.023066945 -0.020453067 -0.03818145 0.028534912
000360 de df a7 bc 7f 83 20 3b 6f c0 96 ba 09 08 33 3c
       -0.02049249 0.002449244 -0.0011501441 0.010927209
000370 89 bc 10 3d a2 51 ea bc 47 ff e4 3b 03 2a 0e 3d
       0.03533605 -0.028603379 0.0069884392 0.034708034
000380 ae 51 70 3c 7c ca 15 3d 9e 0a f6 bc e3 06 0e 3c
       0.014667911 0.036570057 -0.03003436 0.008668634
000390 85 a2 90 3c 17 7f ae bc a1 a6 b2 bc e9 c5 c1 bc
       0.01765562 -0.021300836 -0.02180797 -0.023653941
0003a0 e3 a5 5f 3c 68 71 04 bd 84 0c b9 3c c0 5f fd 3c
       0.01365039 -0.032334715 0.022588976 0.030929446
0003b0 9f ac cb bc b3 ec ab 3c ce 27 ed 3b f4 b4 ad 3c
       -0.024862586 0.02098689 0.007237411 0.02120445
0003c0 ab 13 10 3d 42 dd a4 3b d1 00 c0 3a 73 2a 1b 3d
       0.035175007 0.005031259 0.0014648681 0.03788228
0003d0 5a 09 eb bc 64 00 9b bc ff 51 f7 3c df cf 92 ba
       -0.028690983 -0.018921085 0.030190466 -0.0011200866
0003e0 4a 89 60 bc 65 57 a4 bc f4 df 2a bd 71 84 ff 3c
       -0.013704607 -0.020061204 -0.041717485 0.031191083
0003f0 09 04 18 bc aa d9 56 3c a6 2b b4 bc a4 10 13 bc
       -0.009278306 0.013113419 -0.02199347 -0.008976135

decoder.3.bias f4 [32]
000000 1b eb de 3c b5 51 27 3c 38 ac 55 3c ae 27 a2 3c
       0.027211716 0.010212352 0.013041548 0.019794311
000010 62 c5 b3 bc 23 06 1c bd 1b 08 1f 3d 0c b1 14 bc
       -0.021944705 -0.03809179 0.03882609 -0.009075414
000020 ef c7 bb bc 07 65 21 3d 03 f0 77 bc d6 89 b6 3c
       -0.022922484 0.039402988 -0.015132907 0.022282522
000030 92 62 e8 3c 13 84 83 3c 4c c3 f3 bc 52 3b d4 ba
       0.028367314 0.016054189 -0.02975621 -0.0016191995
000040 60 64 6b 3a 08 6d b7 bb 6f e7 3b 3a 8f b3 ad 3c
       0.00089794956 -0.0055977143 0.000716797 0.021203784
000050 f9 32 f8 bc 93 52 a5 bc 3f e5 99 3c 73 52 93 bb
       -0.030297743 -0.020180976 0.01878607 -0.0044959127
000060 32 85 97 3c 74 85 17 3c bb fc 13 bd 63 07 b5 3c
       0.01849613 0.009248126 -0.036129694 0.022098249
000070 f4 49 eb bc 56 bd f7 3c a8 3c 53 3c a3 a5 bb bb
       -0.028721787 0.03024165 0.01289288 -0.0057265325

decoder.6.weight f4 [1, 32, 1, 1]
000000 78 07 94 3d c2 5f 2b bd 69 20 b1 3c 23 39 3d bd
       0.07227987 -0.04183937 0.0216219 -0.046197068
000010 21 04 1d 3e ba b1 7d 3d 84 1c 9f bd 94 e6 6e 3d
       0.15333606 0.06193707 -0.07769111 0.058325365
000020 73 27 c0 bd aa 80 19 3e 19 3f 86 3d b4 02 e6 bd
       -0.09382524 0.14990488 0.06555004 -0.11230984
000030 9d 0a de 3d 2a 2d 35 be 72 85 14 be dc 83 19 3d
       0.10841868 -0.1769301 -0.1450403 0.037479267
000040 e6 2b 00 3e 93 f4 dc 3c 2d 87 60 bd ee 33 30 be
       0.12516746 0.02697209 -0.054816414 -0.1720731
000050 4d 27 79 bd 9c 63 a6 bd 31 b3 00 3e 5e 5e 0e be
       -0.060828496 -0.08124468 0.12568356 -0.13903186
000060 21 1c c9 bd 9d 87 c2 3d ba 5b 1f 3e a6 be e5 3a
       -0.09819818 0.094985224 0.15562335 0.0017528131
000070 15 6e 96 3c 61 39 26 3e fe 17 e8 bd 5e 2b f7 3d
       0.018363038 0.16232826 -0.11332701 0.120688185
