checkpoints/2025-06-02-12-06-03/last_epoch.pth (torch, 686901 bytes, 25 tensors)

encoder.0.weight f4 [64, 3, 3, 3]
000000 fe 54 28 3e d2 00 71 bd c4 ba 93 bd 7c 82 f6 bd
       0.16438672 -0.058838673 -0.07213357 -0.12036607
000010 f3 ea 2a 3e ca e8 f9 3d bd f2 19 be d8 1d 08 bd
       0.16691189 0.12202604 -0.15034004 -0.033231586
000020 2c fd 62 bd b5 f3 7d bd 6e 8c 08 be 78 78 37 be
       -0.055417225 -0.061999995 -0.1333482 -0.17917049
000030 e9 d2 c1 3d 31 1d e4 3d 66 9d 02 be d5 45 94 3c
       0.09464056 0.1113838 -0.12755355 0.018099705
000040 e2 fa 8b 3d 49 37 05 be f2 d3 4a bd c0 fd 30 bb
       0.068349615 -0.13009371 -0.049518533 -0.0027006716
000050 65 68 21 3d f5 52 15 3e c4 66 f3 bd 68 68 20 be
       0.0394062 0.14582427 -0.11884835 -0.15664828
000060 32 42 c4 bc 55 eb be 3d 96 46 d5 bd 67 35 3f 3e
       -0.023957346 0.0932223 -0.10413854 0.18672715
000070 aa 05 8e bd a6 9f 40 3d f7 7b 44 3c 6e 27 2c 3e
       -0.06934674 0.047027253 0.011992446 0.16811916
000080 5d 20 75 3c fb e6 33 be 51 42 72 bd 00 d0 86 ba
       0.014961329 -0.17568581 -0.059145276 -0.0010285378
000090 d1 73 37 be 4a ca 35 be 81 30 26 be 61 be 06 3e
       -0.17915274 -0.17752948 -0.1622944 0.13158561
0000a0 8e 63 55 bd d9 73 e8 bd f3 40 ca bd 5a d7 7d bd
       -0.052096896 -0.11350221 -0.09875669 -0.061972953
0000b0 9e ed 82 bd 64 4f 11 3e b3 4f 34 bd a3 bc d2 bd
       -0.06392978 0.14190441 -0.04402132 -0.10289886
0000c0 7e c0 0b be f5 7f 05 be f7 4a 01 be 88 09 fa bd
       -0.13647649 -0.13037093 -0.12626253 -0.12208849
0000d0 b1 fa 71 3d 81 c6 b1 bd 47 29 1e be a8 64 41 3e
       0.05907697 -0.0868044 -0.15445434 0.18886054
0000e0 d9 a4 ed 3c be 92 0e be 9b 35 e7 3d 01 26 78 3d
       0.02900927 -0.13923165 0.11289521 0.06058312
0000f0 5a dc 44 3d 86 b5 32 3e d3 b9 40 3e 9f f5 9a 3d
       0.048061706 0.17452058 0.18820886 0.0756638
000100 74 a0 28 3e d3 59 e0 3d b9 6e 68 3c 60 83 b4 3d
       0.16467458 0.109546326 0.014186555 0.0881412
000110 cd e7 1e bc 4e d4 0e 3e c9 5f 10 bd a0 a6 12 bd
       -0.00969882 0.13948175 -0.035247598 -0.035803437
000120 7a 11 36 3d c5 34 00 3d 3a 02 df bd aa dd de bd
       0.04445026 0.031300325 -0.108890966 -0.10882123
000130 81 55 05 3e 0e 8a bf b9 55 2c 00 be 4e a3 12 be
       0.13020898 -0.00036533218 -0.12516911 -0.14320108
000140 52 5d 8b 3c ba 65 c4 bd 0f e9 3a 3d b9 11 e2 bd
       0.017012272 -0.09589715 0.04563242 -0.110385366
000150 65 8d df 3d 57 c7 cf bb d0 6b 3a 3a 30 b1 13 3d
       0.10915641 -0.006340902 0.0007111402 0.03605765
000160 66 d2 89 3d a8 19 85 3b 55 0a d3 3d 67 eb d3 bc
       0.067295834 0.0040618964 0.10304705 -0.025869085
000170 22 39 ed 3d 9a bb 43 bd e5 63 d6 bd f9 f4 93 bd
       0.11583163 -0.047786333 -0.10468272 -0.07224459
000180 28 51 d7 bd 69 ec 49 3c f8 78 27 bd a8 40 83 3d
       -0.10513526 0.012324431 -0.04088685 0.064088166
000190 f5 46 11 be 29 2c d6 3d c3 97 f7 bd 8c c2 49 bd
       -0.14187224 0.10457642 -0.12089493 -0.0492578
0001a0 81 86 7c 3d d6 2d 99 bd c7 7e 84 bd 45 70 2a 3e
       0.06165171 -0.07479446 -0.06469493 0.1664439
0001b0 75 ef fb bd f5 72 31 be fb 1f 94 bd 1a eb 18 3e
       -0.12301532 -0.17329009 -0.07232662 0.14933434
0001c0 d1 62 2d be 57 6b 16 3e cc ad 17 be 29 96 b2 3d
       -0.16932227 0.14689384 -0.14812392 0.08720047
0001d0 65 39 05 3e 2e 48 10 be b3 b1 a3 3d 09 da a4 bd
       0.13010176 -0.14090034 0.07992878 -0.080493994
0001e0 14 e1 8e 3d dd 19 49 3d 2a 4b 65 bd 8c b0 4b bd
       0.06976524 0.04909693 -0.055979885 -0.049728915
0001f0 6e ef 1d ba 05 c4 e3 3d 74 b7 2c 3e c4 90 b2 bd
       -0.00060247525 0.11121372 0.16866857 -0.08719018
000200 39 ef 2c be d0 8f 24 bc 51 a7 99 3d de 0a 83 bd
       -0.16888131 -0.010044053 0.07502616 -0.06398557
000210 62 1e ca 3d 3d 58 56 3c 5d cf 0b bd e4 00 3f be
       0.09869076 0.013082561 -0.034133304 -0.18652683
000220 f8 f0 ef bd 55 61 45 be 53 d6 34 3e 5d 9c 4b 3d
       -0.11715883 -0.1927541 0.17659883 0.049709667
000230 8f b1 30 be 2b ce 14 3c 90 b2 e0 bd 5f b4 18 3e
       -0.17255233 0.009082357 -0.10971558 0.14912556
000240 35 57 18 3e 89 66 ad 3d 99 79 88 3d 74 15 30 bd
       0.14877017 0.08466823 0.06663818 -0.04298921
000250 16 a5 8e 3d a1 0f f7 3d 86 55 41 bd fc ea 9d 3b
       0.069650814 0.12063528 -0.047200702 0.004819272
000260 25 03 cf bd 95 b9 a4 3d 7c 70 dd bd 64 58 30 3b
       -0.10108022 0.080432095 -0.1081247 0.0026908154
000270 1a 38 0e bc 6f dd 22 3c 43 e0 2f be fb 5d 38 3e
       -0.008680368 0.009940489 -0.17175393 0.180046
000280 cb ea 28 3d 1f a3 b7 bc db 14 41 3e a7 4b f8 bd
       0.04123954 -0.02241665 0.18855612 -0.121238045
000290 e4 6e 21 be 83 cc 84 bc 49 b7 d9 bd d1 42 08 3e
       -0.15764958 -0.0162108 -0.10630662 0.13306738
0002a0 26 aa 30 be 68 3d 91 bc e9 a1 08 3e f7 04 f4 3d
       -0.17252406 -0.017729476 0.13343014 0.119150095
0002b0 09 49 44 3d ea c7 18 be 33 a6 c1 bd 93 1f 59 bd
       0.047921214 -0.14920011 -0.09455528 -0.053008627
0002c0 89 22 b5 3c c8 5e 1e 3e 34 2a 34 3c ef eb af 3d
       0.022111194 0.15465844 0.01099639 0.08589923
0002d0 01 e8 e5 3c 5b bb 2d 3e 2a 73 3e 3e 08 d8 15 bd
       0.02806473 0.16966002 0.18598619 -0.036582977
0002e0 63 af 0c bd ec 87 b6 bd de 96 84 3d eb 0d 92 bd
       -0.03434695 -0.08912644 0.06474088 -0.07131561
0002f0 e6 08 16 3e 96 a4 03 3e e4 3c 14 3e 14 02 f6 3d
       0.14651832 0.12855753 0.14476353 0.12012115
000300 97 06 cd bd 29 57 a2 3d b7 29 78 3d d0 d8 c0 3d
       -0.100110225 0.07926781 0.060586657 0.09416354
000310 6b 23 4b bd 4e cd 10 3e 46 d2 5b bc 65 56 22 be
       -0.049594324 0.14140818 -0.013416832 -0.1585327
000320 f3 9f 32 bd 84 86 0f 3e a9 eb f2 3c 66 5a 89 3d
       -0.04360957 0.14016157 0.029653387 0.06706695
000330 9e 5b 8c bd 7b 9a ec bd 74 6e 15 be 88 56 cc bd
       -0.06853412 -0.11552902 -0.14592916 -0.09977442
000340 e1 a8 17 3e 8c 62 0c be 6b 14 9a bd 03 46 52 3d
       0.14810516 -0.13709468 -0.07523426 0.0513363
000350 fa 84 e2 bd c1 9c e9 3c 0d ef 35 3c d7 1c ca bd
       -0.110605195 0.028517129 0.011104357 -0.09868782
000360 55 5d dd bd b1 f7 1b be a9 91 c9 bc ac d8 1d 3e
       -0.10808817 -0.15231206 -0.024605589 0.15414685
000370 9c 6c c2 bd 88 f6 20 be f0 b0 94 bd 70 da 39 be
       -0.09493372 -0.15719044 -0.07260311 -0.18149734
000380 c0 b2 4a bd d4 b8 3e be c0 da 88 3d 75 97 33 bd
       -0.049486876 -0.18625194 0.06682348 -0.043845613
000390 8a 04 8b bb 60 5e ac 3d 4a 35 fe 3d 20 ea 04 3d
       -0.0042424845 0.08416438 0.12412508 0.03244984
0003a0 ec 3d 38 3e de fe c5 3d b9 1c e5 bd ec 13 3d bd
       0.17992371 0.09667753 -0.11187119 -0.046161577
0003b0 b3 c6 03 be ed 02 fd 3d 51 70 2a be fb 5e f6 bd
       -0.12868766 0.12354074 -0.16644408 -0.12029835
0003c0 03 74 81 3c 79 6a 3a be 0d f7 38 be e2 37 e2 3d
       0.015802389 -0.18204679 -0.18062992 0.11045815
0003d0 ad 8c 29 3e 78 0a de bd cb 4d 30 be 26 58 16 3e
       0.1655757 -0.108418405 -0.17217176 0.14682063
0003e0 10 3a 6e 3d 3e 00 1f bd 8f 2b 18 be 79 03 37 be
       0.05816084 -0.03881859 -0.14860366 -0.17872418
0003f0 4a 38 a5 bd 3f 92 7e bb 92 31 d4 3d 75 1a 96 3d
       -0.08067377 -0.0038844494 0.10361017 0.07329265

encoder.0.bias f4 [64]
000000 93 a7 3c be 6c c7 88 3d 2a 3c 38 be a4 23 16 be
       -0.184233 0.06678662 -0.17991701 -0.14662033
000010 aa 4e ca 3d 65 f6 38 be 9f d6 35 3e 83 df 29 3d
       0.09878285 -0.18062742 0.17757653 0.041472923
000020 f8 af 0f be 65 75 24 be d5 ef 59 3d 19 98 3a be
       -0.1403197 -0.16060407 0.053207237 -0.18222083
000030 a9 a5 60 bd 55 9e 2f be 56 83 21 be c2 c9 d6 3c
       -0.054845486 -0.17150243 -0.15772757 0.026219252
000040 91 19 eb bd f1 18 0e 3e 69 28 f6 3d 84 16 40 3e
       -0.11479486 0.13876702 0.120194264 0.18758589
000050 62 90 40 3e d9 91 15 be 91 b5 0b 3e da b8 19 3e
       0.18805078 -0.14606418 0.13643481 0.15011922
000060 65 13 d8 3d 4c 33 23 be 92 f1 08 3e 74 3a d4 bb
       0.10550574 -0.15937537 0.13373402 -0.0064766947
000070 6d 9c f3 3d 5f 7e 04 3d ff 22 ea 3c 45 96 08 bd
       0.1189507 0.03234708 0.02858114 -0.033346433
000080 8b b5 a5 bc 9a 95 4b bc 2d 60 51 3b 46 c2 33 be
       -0.020228168 -0.0124258045 0.0031948194 -0.17554578
000090 34 7b d3 bb e1 92 22 3e a8 ef c4 bd d9 15 68 3d
       -0.006453896 0.15876342 -0.09616023 0.05666146
0000a0 9e c8 99 ba 49 55 34 3d a7 21 35 3c bf d8 09 be
       -0.0011732762 0.044026647 0.011055387 -0.13461588
0000b0 8a c3 fb 3d af 14 14 bd a1 64 dd 3d 4f de 74 3b
       0.122931555 -0.036152538 0.10810209 0.0037363952
0000c0 e0 7d 2d 3e 28 22 be 3d 25 58 c0 3d 04 73 72 3d
       0.16942549 0.092838585 0.09391812 0.05919172
0000d0 48 9f 3e bd b6 cf ef bd 5c d6 33 bd dd e8 f5 bd
       -0.04653862 -0.117095396 -0.0439056 -0.12007306
0000e0 d0 c0 21 be 3a 22 35 3e 8f e7 11 be 79 70 11 be
       -0.15796208 0.17688838 -0.14248489 -0.14203061
0000f0 c9 3e 1a 3e f2 c6 12 3e 02 e1 0f be bd 6c 00 3e
       0.15063013 0.14333704 -0.14050677 0.1254148

encoder.1.weight f4 [64]
000000 1b c5 7f 3f b4 01 80 3f 74 07 80 3f a1 12 80 3f
       0.99910134 1.000052 1.0002275 1.0005685
000010 db c9 7f 3f 5a 02 80 3f 3f d6 7f 3f b7 17 80 3f
       0.9991738 1.0000718 0.9993629 1.0007237
000020 be 0b 80 3f b7 0a 80 3f 66 e7 7f 3f e9 bf 7f 3f
       1.0003583 1.000327 0.9996246 0.99902207
000030 79 cf 7f 3f d5 0a 80 3f e5 19 80 3f c8 d9 7f 3f
       0.99925953 1.0003306 1.0007902 0.9994168
000040 75 f1 7f 3f 81 f8 7f 3f e5 1c 80 3f 73 0f 80 3f
       0.9997781 0.9998856 1.0008818 1.0004715
000050 9b e3 7f 3f a1 d2 7f 3f 9f ee 7f 3f d9 e2 7f 3f
       0.99956673 0.9993077 0.9997348 0.9995552
000060 3f 05 80 3f 5b f4 7f 3f e2 08 80 3f 0b dc 7f 3f
       1.0001601 0.9998223 1.0002711 0.99945134
000070 ec 12 80 3f 92 c3 7f 3f 00 18 80 3f 2a d7 7f 3f
       1.0005774 0.9990779 1.0007324 0.9993769
000080 3c f9 7f 3f cf cf 7f 3f c4 f0 7f 3f b2 e1 7f 3f
       0.99989676 0.99926466 0.99976754 0.9995376
000090 c4 07 80 3f 14 d4 7f 3f f4 10 80 3f f1 15 80 3f
       1.000237 0.9993298 1.0005174 1.0006696
0000a0 a4 db 7f 3f 1f e4 7f 3f 4f 04 80 3f ca f8 7f 3f
       0.9994452 0.9995746 1.0001315 0.99988997
0000b0 1c 1a 80 3f cb 13 80 3f 10 1b 80 3f 39 e7 7f 3f
       1.0007968 1.000604 1.0008259 0.9996219
0000c0 bc c9 7f 3f 05 16 80 3f ca 17 80 3f fa c8 7f 3f
       0.999172 1.000672 1.000726 0.9991604
0000d0 30 08 80 3f bb 1b 80 3f 33 cb 7f 3f 43 1a 80 3f
       1.0002499 1.0008463 0.9991943 1.0008014
0000e0 3b 0d 80 3f 70 10 80 3f 63 f7 7f 3f 21 1f 80 3f
       1.0004038 1.0005016 0.9998686 1.00095
0000f0 0a e3 7f 3f f7 e5 7f 3f 22 14 80 3f 4b 0f 80 3f
       0.9995581 0.99960274 1.0006144 1.0004667

encoder.1.bias f4 [64]
000000 84 15 8a ba db 84 57 39 4c 7b 82 3a b2 f3 6e 3a
       -0.0010534977 0.0002055349 0.0009954958 0.0009115293
000010 0f bd 62 ba 24 42 39 3a 48 bd 8a b9 95 15 29 ba
       -0.0008649388 0.00070670457 -0.00026462437 -0.00064500544
000020 a0 9b 02 ba 80 b7 ba b9 bf 4e 6b b8 51 66 50 3a
       -0.00049822964 -0.00035613403 -5.6101704e-05 0.00079498166
000030 da 67 3c ba 5f ed 3e 3a 5b f4 80 3a 51 b2 7c ba
       -0.0007187106 0.0007283296 0.0009838449 -0.00096396083
000040 f2 ec 0c ba 2f 58 84 3a 66 ac 5b 3a c3 37 7e 38
       -0.0005375884 0.0010097082 0.00083798764 6.061025e-05
000050 60 cb 0d 3a ff 92 5b ba 50 30 1e ba 86 12 80 3a
       0.00054090284 -0.0008376091 -0.0006034421 0.0009771145
000060 37 44 2d ba 84 3f d6 b9 b9 ac 44 3a b3 d0 10 ba
       -0.0006609591 -0.00040864584 0.00075025443 -0.00055242627
000070 ec 9c 25 3a 0f 9c 2c ba 11 99 f6 39 27 b7 25 ba
       0.00063176337 -0.0006584534 0.0004703482 -0.00063215423
000080 71 b4 78 ba 3d d9 02 b9 4b 69 68 ba 65 f0 7f 39
       -0.0009487337 -0.00012478694 -0.00088657875 0.00024408249
000090 49 7c 23 b8 89 7e 4e 3a 27 ab 38 3a af b5 01 ba
       -3.8977978e-05 0.00078771316 0.00070445467 -0.00049480324
0000a0 02 16 0d ba f4 98 25 ba fa f8 80 3a f7 52 3e 3a
       -0.00053820026 -0.0006317042 0.0009839826 0.00072602875
0000b0 34 05 cf 38 61 82 23 3a 4e d1 6a 3a 90 2e 59 38
       9.871498e-05 0.00062373845 0.00089575804 5.1780196e-05
0000c0 84 f1 8f 39 17 e6 84 3a a6 38 d0 b9 4d 4d 6a ba
       0.0002745503 0.0010139373 -0.00039715058 -0.00089379103
0000d0 62 57 61 3a 6c ca b5 39 14 21 3e ba a9 78 7f 3a
       0.000859609 0.00034673826 -0.0007252854 0.0009745458
0000e0 93 d0 32 39 8d c2 80 3a 91 fc ac b9 8b b9 09 3a
       0.00017053103 0.0009823606 -0.00032994573 0.00052537833
0000f0 67 f1 08 ba 66 f6 52 b9 e8 5a 1a b9 00 05 dc 39
       -0.000522396 -0.00020118951 -0.0001472045 0.00041965395

encoder.1.running_mean f4 [64]
000000 6f d5 53 bd 6e d0 ad 3e e0 ca d2 be 38 c0 dd bd
       -0.051717218 0.33948082 -0.41170406 -0.108276784
000010 2c 52 22 3e 6b 35 07 be 2d ea dd 3d 6c f0 90 bc
       0.15851659 -0.13203971 0.10835681 -0.017692767
000020 38 bc 27 3e 45 07 80 be d3 52 30 bd 5a 9e 25 be
       0.16380394 -0.25005546 -0.043047737 -0.16173688
000030 26 a4 66 be 5a 66 95 be 9c 66 c1 be 1a e5 8c 3d
       -0.22523555 -0.2917965 -0.37773597 0.06879635
000040 48 87 2c 3d 8b 7d df 3e f2 82 50 3d 9f 51 0a 3e
       0.0421212 0.4365047 0.05090613 0.13507698
000050 f9 7a 01 3d 2c 38 d3 bd da f5 99 3d cd b2 dc 3d
       0.031611416 -0.10313448 0.075175956 0.10776291
000060 d0 09 15 3e 40 1a b1 be 97 20 89 3e 05 c0 a0 3e
       0.14554524 -0.3459034 0.26782677 0.313965
000070 a2 e6 f0 3c 9d 30 94 bd 5b 2e cf 3d 3c ee 8a 3e
       0.02940685 -0.07235835 0.101162635 0.27134883
000080 51 ba 23 bd f6 d6 52 bc d1 a9 50 ba df e4 93 be
       -0.039972607 -0.0128686335 -0.0007959875 -0.28885552
000090 91 ce 9b 3b 5c f8 57 3d 76 e5 04 be 2d 55 ed 3d
       0.0047548492 0.05272709 -0.12978157 0.115885116
0000a0 dc b0 2c 3e 1c 7d 98 bd 4d 8a 00 bd 27 b3 9c bd
       0.16864341 -0.07445738 -0.031381894 -0.07651358
0000b0 5d 30 fc bd 7a e9 e7 3d 77 6e 81 bd 7d 6c 1b be
       -0.12313912 0.11323829 -0.063198976 -0.15178104
0000c0 d9 41 7c 3e 3c 85 bc 3e 8c 9e 44 3d 64 4f 7b 3e
       0.24634494 0.368204 0.048002765 0.24542004
0000d0 59 1c 7d 3d c4 7b f0 bd 34 eb 5a bd b2 df 35 bd
       0.061794613 -0.117423564 -0.053446963 -0.044402786
0000e0 64 59 7b be 36 bf 97 3e a8 eb 42 be 19 57 f8 bd
       -0.24545819 0.2963807 -0.19035208 -0.121259876
0000f0 4e 8b fd 3d 63 d1 b6 3e c3 90 11 be c8 d5 72 3d
       0.12380086 0.35706624 -0.14215378 0.05928591

encoder.1.running_var f4 [64]
000000 95 ea 9b 3e 09 08 b2 3f 95 50 23 3f 9b 97 32 3d
       0.3045241 1.3908702 0.63794833 0.043601613
000010 f6 50 a8 3d d3 ae 74 3d 56 cc 23 3e d9 80 d6 3d
       0.08218567 0.059737038 0.15995917 0.104737945
000020 32 a9 9a 3f 45 51 71 3e 57 d2 17 3e f7 62 21 3e
       1.2082884 0.23566158 0.14826332 0.15760408
000030 19 a7 a4 3e 09 f1 85 3e bc bf 44 3f 7d 0a e2 3d
       0.32158735 0.26160458 0.76855063 0.11037157
000040 2c 98 9c 3e 83 5c 89 3f 81 f2 d9 3d a5 e3 a0 3e
       0.30584848 1.0731357 0.10641957 0.3142368
000050 5d 3f af 3e 2a 38 bd 3d 35 9c 2e 3e 04 08 80 3d
       0.3422803 0.09239228 0.17051776 0.06251529
000060 8a 8c 69 3d d8 c2 09 3f cb 36 ad 3e ff 87 b3 3f
       0.057018794 0.5381293 0.33830866 1.4025878
000070 e0 f6 46 3e 01 44 26 3e a2 20 e8 3d 31 fb 9e 3f
       0.19430113 0.16236879 0.11334349 1.2420408
000080 b0 87 ce 3c a7 c1 99 3c 3a 0c ad 3d 3b 7c 88 3e
       0.025211185 0.018769098 0.08449598 0.2665728
000090 b0 dc 2e 3d 37 c8 12 3e ea c3 4d 3d a9 5a f9 3d
       0.042690933 0.14334188 0.050235666 0.12175495
0000a0 6f 13 4e 3f 65 df 9e 3e 12 fb 7c 3d 95 7e e9 3d
       0.80498403 0.31029812 0.061762877 0.11401097
0000b0 83 01 77 3f 0e 72 89 3e bb b5 0b 3f 1a 87 a9 3e
       0.9648668 0.2684483 0.54574174 0.33110887
0000c0 f7 50 aa 3d 0f 90 56 3f 84 a7 c7 3d 1a e2 c8 3e
       0.08316224 0.83813566 0.09748748 0.39235002
0000d0 1a f4 2b 3e 0d f1 58 3d 5c c8 51 3e ef ec cc 3d
       0.16792336 0.05296426 0.20486587 0.10006129
0000e0 7c 0d 81 3e 43 ae 37 3e e4 2b 08 3e 8c 10 90 3d
       0.252056 0.1793757 0.13297993 0.07034406
0000f0 be 18 f8 3d da a1 7a 3f fa ca f5 3d 15 d9 4b 3e
       0.12114094 0.97903216 0.12001605 0.19907029

encoder.4.weight f4 [128, 64, 3, 3]
000000 ec c7 1e bd 80 cc d4 bc 99 8b 85 bc 76 49 20 3d
       -0.03876488 -0.02597642 -0.016301917 0.039132558
000010 f7 93 80 3b 37 f0 62 ba 41 e8 9e bb e2 74 53 3c
       0.003923889 -0.00086570106 -0.004849464 0.012906285
000020 65 67 e0 3c 3e e0 cd 3c c1 47 fb bb 46 00 61 bc
       0.027393052 0.025131341 -0.007668466 -0.013732975
000030 13 24 0b bd a9 2e 22 3b 66 cc 8e bc 07 b6 1d bd
       -0.03396995 0.002474705 -0.01743145 -0.038503673
000040 5d 0e 9d 3b bd 24 6b bc d9 a6 26 bc 82 34 39 ba
       0.004792972 -0.014352021 -0.0101716155 -0.0007065014
000050 d8 07 15 bd 04 e0 f4 3c c8 79 9a 3c bb 04 1e bd
       -0.036384434 0.029891975 0.018856898 -0.03857873
000060 61 db a9 bb b6 ef 10 3d b7 90 dd 3c 8d b3 11 bd
       -0.0051836227 0.035384856 0.027046544 -0.035571624
000070 82 27 0f 3c 4d f5 2d bb b5 0b 02 bc 30 e7 bd bc
       0.008737447 -0.0026543916 -0.0079373615 -0.023181528
000080 1c 34 af 3c 4b fd 14 3d df 04 92 bc 5b 2d 1e 3d
       0.021387152 0.03637437 -0.017824588 0.038617473
000090 c2 7c 15 bd 39 44 14 3c da 4f c8 bc 88 2f 9f 3c
       -0.03649593 0.009049469 -0.024452139 0.019431844
0000a0 e9 6e 0b 3d cb bf e2 bc 75 c7 7a 3b 95 6b 02 3d
       0.03404132 -0.027679345 0.0038265858 0.03184088
0000b0 36 e9 84 bc a0 d5 11 bd 6b 9e 0e bd 04 07 0c bb
       -0.016224485 -0.03560412 -0.034819048 -0.0021366486
0000c0 42 63 f9 3b 5f 59 18 bd cd a1 c2 ba e0 70 70 3c
       0.0076107094 -0.037194606 -0.0014849246 0.014675349
0000d0 3a 57 90 3c 03 25 83 bc da d6 1e bd 8e 69 aa bc
       0.017619718 -0.01600886 -0.038779117 -0.020802286
0000e0 b6 cf 00 bd cf d3 ff 3c 71 23 8c bb 28 47 9d bc
       -0.03144809 0.031228928 -0.004276686 -0.019198969
0000f0 27 07 1b bc 0c 26 a7 bc 5e 6d f9 3c f6 08 02 3d
       -0.0094621545 -0.020403884 0.030447658 0.031746827
000100 63 59 4e bc a3 f2 83 bc a6 73 67 3b e1 5f fc 3c
       -0.012594554 -0.01610691 0.0035316735 0.030807437
000110 db 88 fc bc 52 d6 a8 bc c2 60 28 3d bd 31 87 bc
       -0.030826977 -0.020610008 0.0411079 -0.01650321
000120 41 00 56 bc 5c 5b 9e 3c 88 82 d8 3c a0 7d dd bc
       -0.013061584 0.019330673 0.02642943 -0.027037442
000130 65 f6 e6 3c 36 cc b0 bc 79 c1 15 3c 57 88 0d bd
       0.028193662 -0.02158175 0.009140366 -0.034553852
000140 44 19 14 bd 00 c0 e4 bc 3e 97 22 3d 71 e6 d2 bc
       -0.036156908 -0.027923584 0.039695017 -0.025744649
000150 fc 1f 1f 3d 02 ba fb bc d4 ec 08 3c 2d 63 05 3d
       0.038848862 -0.030728344 0.0083572455 0.032565285
000160 01 17 86 bc 97 ab 0f 3c 63 e7 e5 bc 4d a5 c3 3c
       -0.016368391 0.008768938 -0.028064435 0.023882532
000170 c8 ba 9a bc 72 68 4a bc ee 53 db 3c 1e ee 08 3d
       -0.018887892 -0.012354003 0.02677342 0.03343021
000180 c7 44 c7 bc 56 2b 26 3d fc 3a 87 bc ac da a3 bc
       -0.024324788 0.040568672 -0.016507618 -0.020001732
000190 cb a6 8a 3c e5 3f 18 3c a3 bd 91 bb 6c 50 ec bc
       0.016925236 0.009292577 -0.0044476553 -0.028846942
0001a0 cd 3d 3e bc 96 34 a9 bc 21 82 df bc 56 b4 a3 3c
       -0.011611414 -0.020654958 -0.02728373 0.019983452
0001b0 be 1a 33 bc c6 58 17 bd 54 b5 16 bd f8 ce b3 3c
       -0.010931669 -0.036949895 -0.03679402 0.021949276
0001c0 e5 06 e5 bc ea 0f ec 3b 0b 16 5b 3b c4 00 fc 3b
       -0.02795739 0.0072040455 0.0033429887 0.007690521
0001d0 56 35 dc 3c 63 1c 06 bc 3b ee 4e 3c 77 ee b3 bc
       0.026880901 -0.008185479 0.012630041 -0.021964295
0001e0 a5 e4 d1 3b 37 57 d3 bc 4a d0 9c bc af 51 b6 3c
       0.0064054304 -0.025798423 -0.019142289 0.022255747
0001f0 f7 9a e7 3c 34 19 c9 3c 8a ff cf bc 5b ac 98 bc
       0.028272135 0.02454815 -0.025390405 -0.018636873
000200 f4 30 88 bc c1 e2 6b bc d8 a8 16 bc b1 1b 84 3c
       -0.016624905 -0.014397324 -0.009195529 0.016126486
000210 49 8e ed bc fe 35 e0 bc b0 71 1b bd 23 48 00 3d
       -0.02899851 -0.027369495 -0.037950218 0.031318795
000220 1a ab bc bc 2b 03 fa 3c 74 b1 ed bc 11 21 29 bd
       -0.023030806 0.030519089 -0.02901528 -0.0412913
000230 ba 7f 8f 3c 7f 51 d8 3c 36 5b ef 3b 12 bd ac 3b
       0.01751696 0.026406048 0.0073045744 0.0052715624
000240 70 3b 76 bc 36 6e 2d 3b cb f4 13 3d e9 cc e0 3b
       -0.015028819 0.0026463396 0.036122125 0.0068603647
000250 f8 36 cb 3b b8 66 a8 3c 09 a8 22 bd 87 56 07 bd
       0.006201621 0.020556793 -0.039711032 -0.033041503
000260 db 37 07 bd a6 e0 61 3b 97 92 8d bc 4e 34 c6 ba
       -0.033012252 0.0034466176 -0.017281814 -0.0015121789
000270 b4 5c 1d 3d ab e1 cd 3c ab 2a 0f 3c e8 4f 36 3c
       0.038418487 0.025132021 0.0087382 0.01112745
000280 5c 91 b1 bc 44 18 1a 3d f5 28 1a bd 04 30 94 3c
       -0.021675758 0.037620798 -0.037636716 0.018089302
000290 b0 dc 17 3d c1 2c 46 3c d9 3b ce 3b 0c bb 23 3d
       0.0370757 0.012095631 0.0062937555 0.039973304
0002a0 56 a0 fd bc 8a b9 c8 bc 92 49 03 bd ba ec 32 3c
       -0.030960243 -0.024502534 -0.032052584 0.010920698
0002b0 84 ca 43 3c 5d 4d 20 3d 90 3b a9 bc a8 1a ee 3c
       0.011950139 0.03913628 -0.020658284 0.029065445
0002c0 15 cd 03 3d d8 58 0f 3d 8f 5f 7d bc 05 cf 03 3c
       0.032178003 0.034996837 -0.0154646775 0.008044963
0002d0 2a 33 b8 3c 86 f4 08 bc 4e 33 0b bd 04 1d e5 3c
       0.022485334 -0.00835908 -0.033984475 0.027967937
0002e0 68 bd 8c 3c d2 51 aa bc eb c4 27 3d f6 8a e0 bc
       0.01718016 -0.020790968 0.04095928 -0.027410012
0002f0 5e c8 23 3d a6 eb aa ba 60 0a bf bb 7d 30 91 3b
       0.039986007 -0.0013040199 -0.005830094 0.004430829
000300 ab bc e8 3b 69 9d 98 3c 92 ca f0 bc 1a 9b 6d bc
       0.007102569 0.018629747 -0.029393468 -0.014502311
000310 37 de fb 3c c9 a6 ae ba 1e 69 45 3c 08 78 29 bc
       0.030745609 -0.0013324852 0.012048988 -0.010343559
000320 53 02 0d bd a9 37 f2 3c b8 7f c4 bc 1a e0 b8 3c
       -0.034426045 0.029567556 -0.023986682 0.022567797
000330 0d 7d 09 3d 55 0e a6 bc 36 70 9c bc 9b 72 f8 3b
       0.033566523 -0.020270506 -0.019096475 0.0075820214
000340 13 bb 1d 3d 36 87 f6 3c 2c 88 5a 3b 60 4e 08 ba
       0.038508486 0.03009377 0.0033345325 -0.0005199667
000350 66 36 85 3b a4 b2 d8 bb c4 78 84 bc 0a dc e5 3b
       0.0040653227 -0.0066130925 -0.016170867 0.007014756
000360 af 49 ce 3c f6 11 ce bb 83 7e 0b bd 78 76 04 3d
       0.02518162 -0.006288762 -0.034056198 0.032339543
000370 6b 66 a6 3c e1 bf 77 3c 29 74 b4 3c 08 cf a9 bc
       0.020312509 0.015121431 0.022028046 -0.020728603
000380 85 25 43 bc 3e 5f 25 bd 83 b8 a8 ba 24 3d 02 bd
       -0.011910801 -0.040374033 -0.0012872372 -0.03179659
000390 e2 3d 45 3c e3 b8 15 ba f1 19 22 3d 51 43 17 bd
       0.01203868 -0.0005711449 0.03957552 -0.036929432
0003a0 2a 17 d8 3c 02 87 d6 bb ae e9 fa 3c ed 44 4b bc
       0.026378233 -0.006546856 0.030629005 -0.01240657
0003b0 5e fc 04 3c b9 0c 8b 3c 20 df 28 bb cd f3 ba bc
       0.00811681 0.01697384 -0.0025767758 -0.022821331
0003c0 5f 46 15 3b 25 df 95 bc b3 6d 25 3d e2 98 f5 3c
       0.002277754 -0.01829488 0.04038782 0.029980127
0003d0 b2 7f ac bc e5 14 29 3c 04 97 0e 3d ac 97 23 bd
       -0.021056984 0.010319923 0.03481199 -0.039939567
0003e0 1b b8 2a bd 24 f7 24 bd 7e 8b 9d 3c da f1 b6 3c
       -0.041679483 -0.040274754 0.019231554 0.02233212
0003f0 b1 c4 12 bd 6e 9c 92 bb 10 27 0e bd 3c a2 7b bc
       -0.03583211 -0.0044742143 -0.03470522 -0.015358504

encoder.4.bias f4 [128]
000000 1d 12 07 bd a8 ff 02 3d c5 e7 0b 3b ec cc d2 3c
       -0.03297626 0.031982094 0.0021347862 0.02573248
000010 b4 ac c9 bc f9 c9 f6 3c 2c 04 5e bc c4 63 1b 3d
       -0.024618484 0.030125605 -0.013550799 0.03793694
000020 77 17 67 3c 61 a1 c7 3c 62 32 e7 3c eb 80 7a b9
       0.014104716 0.024368944 0.028222267 -0.00023889884
000030 6b ab 75 3c d2 ed 53 3c 89 17 d0 bc ab 96 e1 bc
       0.0149944825 0.012935119 -0.025401847 -0.027537664
000040 9b 38 1a 3c 30 57 ed 3c b9 f6 19 3d 09 89 92 3c
       0.00941291 0.028972238 0.03758881 0.01788761
000050 7b 86 0e 3d a1 71 8e bc 6c 43 4d bc 39 20 90 3b
       0.03479622 -0.017388167 -0.012528282 0.0043983725
000060 bf 81 bc 3c b3 da ce 3c 95 e9 14 bd b5 18 b9 3c
       0.023011087 0.025250768 -0.036355574 0.022594789
000070 93 a6 d6 3b 3b 71 d5 3b f8 11 16 bd 1c 82 0c bd
       0.006550619 0.0065137423 -0.03663823 -0.03430377
000080 1f ef 17 3c 23 6f 1a 3d c6 4a d4 3b 37 46 88 bc
       0.0092733195 0.037703644 0.0064786403 -0.016635044
000090 95 8a 0a 3d 26 3f 38 ba 5f 90 ee bc fa 5d ac bc
       0.03382357 -0.0007028453 -0.029121576 -0.021040905
0000a0 fa b2 80 3c 4d 51 db bc 6f f3 ca bc d5 f9 1a 3d
       0.015710343 -0.026772166 -0.024774281 0.037835915
0000b0 cf 3d fc 3c ae b8 86 3c c5 b7 1a 3d fa 55 9d 3c
       0.030791191 0.016445484 0.037772913 0.019206036
0000c0 9b d0 9a bc 92 b1 9d 3c 65 c8 28 3d f1 84 92 3b
       -0.018898299 0.019249711 0.041206736 0.0044714143
0000d0 18 07 ec 3c 8b 49 ea bc b2 c1 23 3b c8 d1 c2 3c
       0.028811976 -0.028599521 0.0024987278 0.023781672
0000e0 38 50 a7 3b b4 92 06 3b d7 fd 14 3d a2 cb 06 3d
       0.0051059984 0.002053422 0.036374893 0.032909043
0000f0 5e b8 a1 3b 44 f7 8e 3c 84 fd d0 3c d7 f3 f0 3a
       0.0049353084 0.01745189 0.02551151 0.0018383217
000100 e6 1f c9 bc ff a7 5a 3c 13 ed c0 bc e5 b7 af bc
       -0.024551343 0.013345717 -0.023550546 -0.021449992
000110 16 a7 09 3d b0 27 28 bd aa 15 02 bb d5 0c 5f bc
       0.03360661 -0.041053474 -0.0019849339 -0.013613899
000120 e6 d8 c4 bb 50 90 a9 bc 71 9a 06 bd 86 f4 1e 3d
       -0.0060073016 -0.020698696 -0.03286213 0.038807414
000130 15 ae fe bc 84 75 fc bc a4 fa e8 3c e2 19 73 bc
       -0.031088868 -0.030817755 0.028439827 -0.014837714
000140 2b 15 0f bd 2c d2 f5 bc 8d 2d 20 3d fd a4 8b bc
       -0.034932297 -0.030007444 0.03910594 -0.017046446
000150 04 11 3b bc 14 4f a5 3c be d8 00 bd 62 fc 88 bc
       -0.011417631 0.020179309 -0.0314567 -0.016721908
000160 ad 70 be bc da d6 9a 3b 0f af 1c 3c 77 35 3b bb
       -0.023247087 0.0047253193 0.009563222 -0.0028565803
000170 e9 8a 41 bb 59 88 08 3c d2 93 f9 bc 8c 19 27 3d
       -0.002953226 0.008333289 -0.030465994 0.040795848
000180 bb f5 fc bc 88 cc 24 3d 25 25 2b bc 31 b2 ba 3b
       -0.030878892 0.04023412 -0.010445868 0.0056975116
000190 78 4e 1c bd 95 5d 1c 3d 65 97 2a bc 3e 54 ce bb
       -0.03816077 0.038175184 -0.010412072 -0.0062966635
0001a0 17 ed 54 bc c7 45 24 bd ee e5 10 bb aa 73 2a 3d
       -0.01299598 -0.040105607 -0.0022109705 0.041614212
0001b0 83 6f 41 bc b2 89 9a 3c c3 cc e1 bc 65 06 5e 3a
       -0.011806372 0.018864486 -0.027563458 0.0008469581
0001c0 2b c4 0e bd 19 ea 29 bc d0 4b bb 3c 5c ae 1e 3d
       -0.03485505 -0.010370755 0.022863299 0.0387405
0001d0 67 6e 5f 3b 35 bc c4 bc 85 f3 cd bc 04 2e c6 3c
       0.0034092905 -0.024015525 -0.025140533 0.024191864
0001e0 46 ee ac 3c 89 4e bc bc 5f 7c ac bc 93 26 2a 3d
       0.021109711 -0.022986667 -0.021055399 0.041540693
0001f0 1e 6f 87 bb db ca 74 3b 4f b1 1f 3d 91 b2 21 3d
       -0.0041331192 0.0037352357 0.038987454 0.039476935

encoder.5.weight f4 [128]
000000 87 17 80 3f b3 16 80 3f 1d 10 80 3f 27 1a 80 3f
       1.000718 1.0006927 1.0004917 1.0007981
000010 94 e9 7f 3f 11 f9 7f 3f 86 1f 80 3f af 1a 80 3f
       0.99965787 0.9998942 1.000962 1.0008143
000020 38 0b 80 3f 61 ca 7f 3f 4d db 7f 3f 15 ff 7f 3f
       1.0003424 0.9991818 0.99944 0.999986
000030 aa e7 7f 3f c1 1d 80 3f 87 10 80 3f 9e f8 7f 3f
       0.99962866 1.000908 1.0005044 0.99988735
000040 99 f5 7f 3f 37 1e 80 3f 94 e9 7f 3f a5 1a 80 3f
       0.9998413 1.0009221 0.99965787 1.0008131
000050 4b e6 7f 3f f2 f9 7f 3f ba d6 7f 3f 73 f3 7f 3f
       0.99960774 0.9999076 0.9993702 0.9998085
000060 c8 ed 7f 3f d7 f6 7f 3f 29 ca 7f 3f 52 11 80 3f
       0.999722 0.9998602 0.99917847 1.0005286
000070 d5 13 80 3f f9 16 80 3f 21 e4 7f 3f c9 17 80 3f
       1.0006052 1.0007011 0.9995747 1.0007259
000080 ad be 7f 3f bc 03 80 3f 53 04 80 3f a4 cd 7f 3f
       0.99900323 1.000114 1.000132 0.9992316
000090 b4 ff 7f 3f e7 15 80 3f 49 10 80 3f c4 ce 7f 3f
       0.99999547 1.0006684 1.000497 0.99924874
0000a0 6f 11 80 3f fa 16 80 3f b8 d0 7f 3f f7 07 80 3f
       1.000532 1.0007012 0.99927855 1.0002431
0000b0 45 db 7f 3f 54 15 80 3f 9c 17 80 3f bc f6 7f 3f
       0.99943954 1.0006509 1.0007205 0.9998586
0000c0 9d c6 7f 3f 8a 07 80 3f 4b 19 80 3f f7 e0 7f 3f
       0.99912435 1.0002301 1.0007719 0.99952644
0000d0 9f fd 7f 3f e3 c8 7f 3f dc cb 7f 3f 1f 09 80 3f
       0.9999637 0.99915904 0.9992044 1.0002784
0000e0 8c e0 7f 3f a4 d6 7f 3f 86 14 80 3f 08 fa 7f 3f
       0.99952006 0.9993689 1.0006263 0.9999089
0000f0 d8 f0 7f 3f 3f d6 7f 3f 1c f2 7f 3f 02 d3 7f 3f
       0.99976873 0.9993629 0.99978805 0.9993135
000100 85 1c 80 3f 80 c7 7f 3f 60 d8 7f 3f a9 f9 7f 3f
       1.0008703 0.9991379 0.9993954 0.99990326
000110 f9 fe 7f 3f e3 09 80 3f ca 12 80 3f 2a cb 7f 3f
       0.9999843 1.0003017 1.0005734 0.9991938
000120 b3 d8 7f 3f fa 1b 80 3f 33 17 80 3f d5 15 80 3f
       0.9994003 1.0008538 1.000708 1.0006663
000130 b0 1c 80 3f 2f 12 80 3f 8b e9 7f 3f 7b fd 7f 3f
       1.0008755 1.0005549 0.99965733 0.99996156
000140 1e e2 7f 3f 30 c7 7f 3f 31 12 80 3f 6a 0d 80 3f
       0.999544 0.9991331 1.0005552 1.0004094
000150 46 da 7f 3f b7 cf 7f 3f 2d 05 80 3f 4f f2 7f 3f
       0.99942434 0.9992632 1.000158 0.9997911
000160 19 0a 80 3f ec 04 80 3f a6 df 7f 3f d3 22 80 3f
       1.0003082 1.0001502 0.99950635 1.0010628
000170 40 0b 80 3f 2b c4 7f 3f 1e 0f 80 3f 34 13 80 3f
       1.0003433 0.99908704 1.0004613 1.000586
000180 9f d1 7f 3f 07 cb 7f 3f 05 02 80 3f 88 16 80 3f
       0.9992923 0.9991917 1.0000616 1.0006876
000190 ad 16 80 3f 8b 1b 80 3f 32 df 7f 3f 5e 04 80 3f
       1.000692 1.0008405 0.99949944 1.0001333
0001a0 fd e6 7f 3f dd 06 80 3f c2 1b 80 3f 4e cd 7f 3f
       0.99961835 1.0002095 1.0008471 0.99922645
0001b0 26 d8 7f 3f 7f 07 80 3f 6b 06 80 3f f3 ca 7f 3f
       0.9993919 1.0002288 1.0001959 0.9991905
0001c0 9f d8 7f 3f 68 cc 7f 3f e6 fe 7f 3f 6d fc 7f 3f
       0.9993991 0.99921274 0.9999832 0.99994546
0001d0 da 19 80 3f 7f 0e 80 3f 2c d8 7f 3f 57 01 80 3f
       1.0007889 1.0004424 0.9993923 1.0000409
0001e0 e7 ce 7f 3f d0 ca 7f 3f 53 f7 7f 3f ae 06 80 3f
       0.9992508 0.9991884 0.9998676 1.0002038
0001f0 06 d4 7f 3f 0e 1f 80 3f 78 ef 7f 3f a2 fe 7f 3f
       0.999329 1.0009477 0.99974775 0.99997914

encoder.5.bias f4 [128]
000000 6e 85 f3 39 19 38 f1 39 55 7d c2 b9 be 27 30 3a
       0.00046447985 0.00046008898 -0.00037095943 0.0006719789
000010 26 a5 67 ba a7 44 84 b9 2a a4 6f 3a 39 c8 1e 3a
       -0.000883656 -0.00025228152 0.0009141589 0.0006057057
000020 5a 25 0e 3a 2e e1 5d ba 1c 15 6b ba d2 15 2b b8
       0.0005422436 -0.00084640353 -0.0008967684 -4.07899e-05
000030 16 41 56 b9 1c c0 50 3a 1c 7d 6e 3a 55 09 b9 b9
       -0.00020432877 0.0007963197 0.0009097622 -0.00035292903
000040 f0 0f db 39 6d 51 48 37 6f 4d c0 b9 e5 dc 34 3a
       0.0004178281 1.1939887e-05 -0.00036678786 0.0006899371
000050 01 7a d2 b7 6e 51 5a ba 40 db 6c ba 08 ab 37 ba
       -2.5090763e-05 -0.0008328174 -0.00090353563 -0.00070063816
000060 d3 da 81 39 94 a3 08 b8 de 25 a1 b8 88 c8 81 39
       0.00024767834 -3.257727e-05 -7.6841316e-05 0.00024754205
000070 77 a7 3e 3a e9 ee 52 3a dd ba 9a 39 d9 f3 32 3a
       0.0007272879 0.00080464646 0.00029512393 0.0006826497
000080 d0 cb e0 b9 78 5a 29 b8 00 1a 25 3a 03 4f 5b ba
       -0.00042876462 -4.0376995e-05 0.0006298125 -0.00083659607
000090 d6 37 c3 38 e4 2f a8 39 fc e4 86 b9 f3 7e 22 ba
       9.308725e-05 0.00032079138 -0.00025729078 -0.00061987265
0000a0 44 de d8 39 d9 9b 77 39 2d 35 4d ba cb cd 10 b8
       0.0004136433 0.00023613813 -0.0007828053 -3.4523935e-05
0000b0 e3 7d bd b9 de 58 2f ba 7b e2 d9 39 c2 47 a7 b9
       -0.00036142682 -0.00066889625 0.00041558206 -0.00031906186
0000c0 58 6f 5e ba 57 b1 af b8 e1 67 36 3a f9 51 8a 38
       -0.00084852194 -8.3776824e-05 0.0006958228 6.5956214e-05
0000d0 5a be fe b9 dd c2 14 ba 7c 35 5d ba cc 73 2f ba
       -0.00048588478 -0.0005674789 -0.0008438451 -0.00066929753
0000e0 77 da 2e 3a 1f 1b 27 ba 6c af ed 39 2d 16 7c ba
       0.0006670127 -0.0006374586 0.00045334862 -0.00096163416
0000f0 ae 94 41 37 b4 b4 61 3a d7 cc a1 b9 1e f5 3b ba
       1.1538314e-05 0.0008609996 -0.0003086093 -0.0007170009
000100 1b 7e 2d 3a 6b 3d df b9 ce 19 15 ba 0b cf cf b9
       0.00066182174 -0.00042579634 -0.0005687744 -0.00039636376
000110 c8 74 02 3a a8 02 66 3a 0b db 8b 39 77 30 58 ba
       0.0004976508 0.00087741995 0.00026675346 -0.0008246968
000120 2a 02 d3 39 55 54 12 3a 2a 3e 37 3a f0 c9 2c ba
       0.00040246669 0.00055820245 0.0006990159 -0.00065913703
000130 e5 cc 42 3a 07 02 f4 b8 14 21 a1 b8 b6 52 85 ba
       0.00074310444 -0.00011635204 -7.6832395e-05 -0.0010171745
000140 db b9 5a 3a e0 b0 de b9 2b 7d 1d 3a 8b 27 35 3a
       0.00083437347 -0.00042474922 0.0006007726 0.00069104944
000150 ca ca 26 39 d8 1a 41 ba 79 3a eb 39 43 11 2f b9
       0.00015906538 -0.0007366366 0.00044866258 -0.00016695731
000160 9f d6 4e 39 08 91 ab 39 a3 c1 39 ba ef cc 49 3a
       0.00019725644 0.00032723718 -0.0007086044 0.0007698079
000170 16 d8 d1 38 7c 47 1d 3a 9f 45 f5 39 93 6b 92 39
       0.00010006146 0.0005999727 0.00046781913 0.0002792744
000180 7e 01 2e 3a 60 df 5d ba 2a 5c 40 ba b8 66 81 ba
       0.00066377956 -0.00084637664 -0.0007337952 -0.0009872532
000190 04 8c 2a 3a e6 e4 43 3a 03 e4 98 b9 7d 18 40 3a
       0.00065058493 0.0007472768 -0.0002916158 0.0007327868
0001a0 76 3a 23 ba 50 2a 9f b9 b6 56 37 3a b2 b2 27 ba
       -0.0006226668 -0.00030358369 0.0006993817 -0.0006397172
0001b0 e2 79 08 ba fb 1b 5d 39 f9 87 0c 3a f5 52 b6 b9
       -0.000520615 0.00021086626 0.00053608377 -0.00034775553
0001c0 20 d1 6f ba 74 26 2d ba d5 3e 05 39 d3 c9 09 39
       -0.00091482885 -0.0006605156 0.00012707275 0.00013140524
0001d0 87 70 13 3a 46 5c 29 3a af d9 58 ba e8 48 f0 39
       0.0005624373 0.0006460588 -0.00082721835 0.00045830687
0001e0 d7 2a a0 38 c5 0f 07 3a dd 48 33 ba 5d f9 20 39
       7.637374e-05 0.0005152191 -0.00068391656 0.00015351684
0001f0 4c e7 4a b9 39 e0 70 3a 0e bb b4 b9 ee d1 3f ba
       -0.00019350386 0.0009188685 -0.00034471642 -0.0007317354

encoder.5.running_mean f4 [128]
000000 b2 80 9d be 7f 59 a4 3e 99 f8 1a 3c 2b bf 3a be
       -0.3076225 0.3209953 0.009458684 -0.18236987
000010 2c b7 30 3e c3 b8 4a 3e e8 36 b3 bd 5d 01 d6 bd
       0.17257375 0.19797044 -0.08750707 -0.10449479
000020 a6 30 0b 3f 5a ca c0 be 50 e4 ed 3d 9c 5b 93 be
       0.54371107 -0.37654382 0.11615813 -0.2878083
000030 6d 97 dd bd f3 a3 ce bd 3c 05 f2 bd 10 84 a3 be
       -0.10819898 -0.100898646 -0.11817405 -0.31936693
000040 43 92 13 bf 2c eb 2e 3e ee ae a7 3e 9a 39 bc 3e
       -0.5764505 0.17081898 0.32750648 0.36762697
000050 38 c4 05 3f 2d 92 73 3e 0c 25 06 3e 2a 65 83 3c
       0.5225253 0.2378623 0.1310007 0.01603945
000060 7f c2 8a be 8f 03 6b bc c0 42 4a be 13 b1 ab 3d
       -0.27101514 -0.01434411 -0.19752026 0.083833836
000070 98 93 64 be 77 9b b5 3d 67 25 4a be 01 4f 99 be
       -0.22321928 0.08867543 -0.1974083 -0.29943088
000080 7c 72 a5 be ff 60 2f be e8 39 a9 bd 0e 1c bc be
       -0.32313907 -0.17126845 -0.08262998 -0.36740154
000090 6f 85 a8 3e 8d 28 69 3e 2c bc 73 bd 92 7d cd 3e
       0.32914302 0.22769375 -0.059505627 0.40134865
0000a0 42 4d 9e 3d 91 f1 c4 be 49 66 7d 3c 07 a8 8e 3e
       0.077295795 -0.3846555 0.015466281 0.2786257
0000b0 e5 23 8c be 04 29 f5 3d 7b e1 1a be bb 23 86 be
       -0.27371135 0.11970714 -0.15125076 -0.26199135
0000c0 11 a0 b1 bd 1e cf 29 3e 5f b0 9b 3e 75 a8 3d be
       -0.08673108 0.16582915 0.30407998 -0.18521293
0000d0 fd ae e3 be db 49 2a be 52 1b 9f 3e 43 0f 03 3e
       -0.44469443 -0.16629736 0.3107553 0.1279879
0000e0 9c 8f 39 3e 97 c4 17 3f 02 ee 14 be 58 d9 0c 3d
       0.18121189 0.5928435 -0.14543918 0.034386963
0000f0 37 a3 01 3d f9 3c b4 be 83 1c 99 3d f8 3a 0d be
       0.031649794 -0.35202768 0.07476141 -0.13792026
000100 70 a9 0e be 6b a8 c7 3c ac 69 43 3e 3a f3 50 bd
       -0.13931823 0.0243723 0.1908328 -0.05101321
000110 90 53 35 bd 78 08 fc 3a 5f 78 63 3e 2b 28 46 3f
       -0.044269145 0.0019228598 0.22213887 0.7740504
000120 ff fe 67 3d b6 8e 63 3e 91 9a 0c be c5 10 ad be
       0.056639668 0.22222409 -0.13730837 -0.33801857
000130 24 61 77 3e 74 83 56 b8 aa 6e 02 bf 54 b0 5d 3e
       0.2415815 -5.1144e-05 -0.5095011 0.21649295
000140 91 f4 4d 3e ce fe 60 be 91 91 46 3f 9c 16 b2 3c
       0.20112826 -0.219722 0.77565867 0.021739297
000150 6d 0f f7 bd 45 9c c1 3d 78 c3 e8 3d 46 e8 e2 3e
       -0.12063489 0.09453634 0.11365408 0.44317836
000160 15 04 ff bd a2 d9 71 be 44 0b 88 be ea b3 27 be
       -0.124519505 -0.23618177 -0.26571095 -0.16377226
000170 92 fd c4 3c d2 d5 93 3e 64 65 f1 3c eb 66 c3 3e
       0.024046693 0.2887407 0.029467292 0.38164458
000180 4d 44 8e be b9 79 94 bd 99 97 e8 bb 1f 11 e9 be
       -0.27786484 -0.07249779 -0.00709815 -0.45520875
000190 17 e8 58 be 4d 22 34 3f 2d 74 6b be 67 41 4e be
       -0.21182285 0.7036484 -0.22993536 -0.20142137
0001a0 84 e0 7e 3e 2d 61 99 3e c8 19 58 be e7 44 8f be
       0.24890333 0.29956952 -0.21103585 -0.27982256
0001b0 ea c1 08 bd d7 0f 10 3f a0 2a 05 be 0f c0 94 3e
       -0.033388056 0.5627417 -0.13004541 0.2905278
0001c0 bc b5 a4 3d 5b 8f c0 be 3e d3 6d bd 75 e0 70 3e
       0.080424756 -0.37609372 -0.058062784 0.23523124
0001d0 bd 7c 47 bf af ae fc be f3 3c a9 3d 20 3a 6c 3e
       -0.7792471 -0.49352023 0.08263578 0.23069048
0001e0 74 e7 67 be dd 28 39 be 8c 9e 38 be d7 ab 72 bd
       -0.22646886 -0.18081994 -0.18029231 -0.05924591
0001f0 61 ce 35 be e3 67 7f be 0d 44 69 3d de ff b8 3e
       -0.17754509 -0.24941973 0.056949664 0.3613271

encoder.5.running_var f4 [128]
000000 f1 82 16 3e c4 1a dd 3d dd 50 51 3e 2f c0 b1 3d
       0.14698388 0.10796121 0.20441003 0.08679234
000010 6b 1d d0 3d 65 ef 09 3e 55 af 0d 3e 2c 2e 4d 3e
       0.10161861 0.13470228 0.13836415 0.20037144
000020 7c e9 2d 3e 33 46 00 3e c6 c1 73 3d 29 75 9d 3d
       0.16983598 0.12526779 0.05951097 0.07688362
000030 fb 47 81 3d 4f 35 d6 3d 32 cf 6c 3e 98 2e ab 3d
       0.06312557 0.104593866 0.23125914 0.083584964
000040 04 b1 b0 3e 86 fd b6 3d 4d 85 51 3e bc b2 71 3e
       0.34510052 0.089350745 0.20461006 0.23603338
000050 20 01 ff 3d 53 cb cf 3d eb cf a7 3d ba c1 ca 3d
       0.124513865 0.10146203 0.08193954 0.09900232
000060 87 f7 32 3e f7 8d 38 3e 64 a3 77 3e 72 93 d6 3d
       0.17477237 0.18022905 0.24183422 0.10477342
000070 45 34 f5 3d 5b 20 d7 3d 8d d7 2b 3e 2b d4 fa 3d
       0.1197286 0.10504218 0.16781445 0.12247499
000080 56 8e 6d 3e 54 f9 4f 3e e9 63 93 3e 4d 1d 22 3e
       0.23198828 0.20309955 0.28787163 0.1583149
000090 4c 12 cd 3e 62 c5 3b 3e fc ce 88 3d 9e 0e 05 3e
       0.40053022 0.18337014 0.06680104 0.12993857
0000a0 5a b2 16 3e 90 b2 93 3e 68 8e 18 3e d1 4d b3 3d
       0.14716473 0.2884717 0.14898074 0.08755077
0000b0 b7 1e f0 3d 72 aa fa 3d 0d 30 f8 3d 19 f6 9d 3e
       0.117246084 0.12239541 0.1211854 0.3085182
0000c0 9b c6 c2 3d 7b 57 8b 3d 31 90 f9 3d 74 25 92 3d
       0.09510537 0.06803795 0.121857055 0.0713605
0000d0 94 ae 1a 3e b2 82 12 3e 34 65 49 3e 60 10 a7 3d
       0.15105659 0.14307669 0.19667512 0.0815742
0000e0 b4 33 b1 3e cb 64 64 3e 25 d0 26 3e 01 02 89 3d
       0.3460976 0.22304074 0.16290338 0.06689835
0000f0 cc 8f 14 3e 96 de 5a 3e ee 66 24 3e f2 46 c5 3d
       0.14507979 0.21373972 0.1605489 0.09632672
000100 f6 18 29 3e 98 81 cf 3d 2d a0 f7 3d 05 ea 75 3e
       0.16513428 0.1013214 0.12091098 0.24015053
000110 24 dd 59 3e b9 ff d7 3d bf 9b 12 3e 28 8a 60 3e
       0.21275765 0.10546822 0.14317225 0.21927702
000120 67 96 10 3e 4b a9 fc 3d ac a3 9e 3e e9 4b 2c 3e
       0.14119874 0.123369776 0.30984247 0.16825832
000130 0f 34 fc 3d e7 54 67 3d 52 94 e8 3e e2 80 d8 3d
       0.12314617 0.056477454 0.4542566 0.105714574
000140 3e e7 4c 3e 5d b3 a3 3d 25 5e 03 3f db 13 c7 3d
       0.20010087 0.07993195 0.5131553 0.09720584
000150 f6 2e 92 3d 33 3d 9e 3d 4a 3f bd 3d 06 ba 21 3e
       0.07137863 0.077265166 0.09240587 0.15793619
000160 9a 67 29 3e 44 a3 b6 3d a2 39 02 3e 0e c2 a2 3d
       0.16543427 0.08917859 0.12717298 0.07947169
000170 4b f3 82 3e 56 84 0d 3e 06 22 f4 3d 5b f9 bf 3d
       0.25576243 0.13820013 0.11920552 0.09373733
000180 31 ad 1a 3e e0 12 ec 3d c0 56 8e 3d 23 12 3e 3e
       0.1510513 0.115270376 0.0695014 0.18561606
000190 95 44 36 3e fa ae 82 3e e5 a9 06 3e 66 91 02 3e
       0.177996 0.25524122 0.13150747 0.12750778
0001a0 a4 22 cf 3d 44 cf cc 3e 8d 6e 53 3e a2 09 33 3e
       0.10114029 0.4000188 0.2064764 0.17484143
0001b0 bd 14 11 3e 81 43 92 3e 57 a4 a0 3e 2a 55 ff 3d
       0.14168067 0.28567126 0.3137538 0.12467416
0001c0 a4 bd 06 3e 7f e3 39 3e 3f 49 08 3e 04 44 1f 3e
       0.1315828 0.18153189 0.13309191 0.1555329
0001d0 05 c8 a3 3e e8 53 93 3e 84 49 be 3d 19 20 a3 3d
       0.3198854 0.28774953 0.09291366 0.079651065
0001e0 da ee d5 3d ce a4 80 3e 50 0b c2 3d cb 55 b7 3d
       0.10445948 0.25125736 0.09474814 0.089519106
0001f0 80 8c e3 3d b8 ea 1a 3e 76 33 a0 3d bb a9 9c 3d
       0.111107826 0.151286 0.078223154 0.07649561

decoder.0.weight f4 [64, 128, 3, 3]
000000 46 da a0 bc f1 97 2a bc 42 11 81 bc ec 82 c2 3c
       -0.01963533 -0.010412202 -0.0157553 0.023744069
000010 34 91 d4 bb 6f ab d7 3c 62 84 83 3c 3d 48 aa bc
       -0.006487036 0.026326863 0.016054336 -0.020786399
000020 bd 8d cd 3c a0 df 14 bc 6b 59 e4 3c 85 6e 9d bc
       0.025092 -0.0090865195 0.027874669 -0.019217739
000030 86 b1 65 3b 9c 2b 02 bc ca 7e 56 3b 2d 43 c9 bc
       0.003504844 -0.007944968 0.003272938 -0.024568165
000040 4f 2a bc bb 41 df c5 3c 95 f9 cd bc d7 47 a9 bc
       -0.0057423483 0.024154307 -0.025143424 -0.020664139
000050 74 b6 b5 bc 14 03 bf bc f5 d2 a7 3c 65 e2 45 ba
       -0.022181727 -0.023316897 0.020486334 -0.0007548689
000060 fd 45 7e 3c be 7e 66 bc 26 22 60 3c d3 37 3a bc
       0.015519616 -0.014068304 0.013680017 -0.011365849
000070 ca ea e5 bc 87 b0 b8 3c 13 6f 41 bc dc 4d d6 3c
       -0.028066058 0.022545112 -0.011806267 0.026160173
000080 85 45 41 bc c0 a6 97 bb 9a 4a e6 3c 04 b7 7c 3c
       -0.01179636 -0.0046280324 0.028111745 0.015424494
000090 3d e4 af bb 49 fb 0f bc f2 97 98 bc 49 fc c2 3c
       -0.0053677843 -0.008787938 -0.01862714 0.02380194
0000a0 99 58 a6 3c 97 80 e7 3c cb 75 10 3c 6f b3 51 3c
       0.020305919 0.028259559 0.0088171465 0.012799128
0000b0 69 35 e8 bc 5c 9d 7e 3b d8 8e c9 3b a9 f0 74 3c
       -0.02834578 0.0038851118 0.0061510615 0.014949956
0000c0 6b 0d 4e bb d7 aa a6 3c 22 11 30 bc b5 f2 d2 bc
       -0.0031441103 0.020345135 -0.010746272 -0.025750497
0000d0 5a e7 95 3c 5b a2 b3 bb 75 ff 92 bc 27 86 a3 b9
       0.018298794 -0.0054820008 -0.017944077 -0.00031189734
0000e0 56 80 19 bb 6c 15 ae bc de 31 d7 3a 7d 8f cb 3c
       -0.0023422441 -0.02125045 0.001641806 0.024848694
0000f0 5c 18 f9 3a 60 41 85 bc f9 d1 63 3b 2a e3 af bc
       0.0019004452 -0.016266525 0.0034762605 -0.021470625
000100 9f 0f d8 bb bf b9 f5 bb a9 cf 8e 3c e1 65 fc 3a
       -0.006593659 -0.0074989493 0.017433004 0.0019256436
000110 a2 3e 47 3c 0d 0c 87 3c 1a ef bc 3b 55 0e a8 3c
       0.012160929 0.016485238 0.005765808 0.020514647
000120 56 f4 80 bc 44 80 bc 3c 84 6a 83 3c b6 26 80 bc
       -0.015741508 0.02301038 0.016042002 -0.015643459
000130 36 14 1e bc 81 eb 73 3c 49 6c db bb 63 da ed 3b
       -0.009648373 0.0148876915 -0.006696258 0.0072586997
000140 db c5 89 3c e4 18 26 bc fd 26 46 3b f3 97 b8 bc
       0.016817978 -0.01013777 0.0030235641 -0.022533393
000150 7d 11 bc bc ee 7d b2 bc bb e6 76 bc e4 25 87 3c
       -0.022957558 -0.021788564 -0.015069659 0.01649756
000160 15 c7 3c bc c2 83 e7 bc c5 64 ac 3b fd d8 51 bc
       -0.011522074 -0.02826107 0.005261036 -0.012808082
000170 24 e0 8e bc cb 6b a7 3c 50 ba 9b bc 1c f1 79 bc
       -0.017440863 0.020437142 -0.01900974 -0.015255239
000180 db d7 f9 3b 7a 2f 73 3c ae 1c b1 bc 3e fb cb 3c
       0.007624609 0.014842862 -0.02162012 0.024900075
000190 f1 10 86 3c 2e 7e b3 3c 29 61 a6 bc 9d 93 63 3c
       0.0163655 0.021910753 -0.020310001 0.013890174
0001a0 1c 3a ee 3c ec ad 7f 3b 68 75 49 3b 8b 64 ba 3c
       0.029080443 0.0039013578 0.0030740146 0.02275302
0001b0 41 cf 1c 3c 8f 65 82 3c 23 24 f6 bb 88 b9 1d 3c
       0.009570898 0.015917568 -0.007511632 0.009626754
0001c0 e1 c2 bc 3c db 4e 09 3c b7 df c2 3c d3 03 8d bc
       0.023042144 0.008380617 0.023788316 -0.017213738
0001d0 a0 79 17 3c 80 fa 07 bc d9 b8 e7 3c 0c 49 6d bc
       0.009245306 -0.00829947 0.028286384 -0.014482748
0001e0 31 79 45 3c f3 99 36 3c eb 67 d5 3c 86 80 9f 3b
       0.01205282 0.011145103 0.026050529 0.004867616
0001f0 4c 86 8a bb 9a 44 13 bc 02 a0 d9 3c de bf a4 3b
       -0.004227435 -0.008988524 0.026565555 0.005027755
000200 b2 36 a6 bc 17 0d 7b 3b 45 47 bd 3c 6d a3 88 3c
       -0.020289753 0.0038307363 0.023105273 0.01667949
000210 ab f8 1a bc 40 8c bd bc 49 a3 d0 bc 4f ea fc 3b
       -0.009458701 -0.023138165 -0.025468485 0.0077183614
000220 49 fb 0d ba f4 f4 a7 3b 97 7b 89 bc 0e 46 a6 3c
       -0.00054161676 0.0051256362 -0.016782565 0.020297077
000230 fa 66 26 bc 09 02 65 bb 4b b8 c2 bb 90 f2 ba bb
       -0.010156387 -0.003494384 -0.0059423796 -0.0057051852
000240 96 c6 b5 bc 63 a2 32 3c e6 6a da bc 12 1f e2 bb
       -0.02218942 0.010902974 -0.026662301 -0.0069006765
000250 fd 98 32 bc 28 c6 82 bb 9e ec ac 3a 35 3d b4 bb
       -0.010900733 -0.003990907 0.0013193076 -0.0055004605
000260 22 66 a0 bc 10 02 10 3c 6b 1e cc 3c 46 49 2d 3c
       -0.01957995 0.008789554 0.024916848 0.010576552
000270 70 f0 89 3b d4 b3 a7 3c f8 c7 90 3c bf 6a c9 3c
       0.0042095706 0.02047149 0.017673478 0.024587033
000280 32 8d d9 3c 6e d0 b8 3c 54 77 99 3c e1 4b b8 bb
       0.026556585 0.022560325 0.018733658 -0.00562428
000290 86 d8 ea bc 30 ef aa 39 f9 00 b6 3c 00 ef da 3b
       -0.0286677 0.00032603135 0.02221726 0.006681323
0002a0 56 c7 63 bc b7 70 8a bc d7 4d f2 bc 12 95 31 bc
       -0.013902506 -0.01689945 -0.029578133 -0.010838764
0002b0 a5 11 2a b9 d6 ff c3 3c 86 2a db bc 4f 47 dc 3a
       -0.00016219036 0.023925703 -0.026753675 0.001680592
0002c0 9d c8 d2 bb 0d 80 01 bb 1b 4a e8 bc d1 f4 bd 3a
       -0.0064326064 -0.0019760162 -0.028355649 0.0014492517
0002d0 f1 dd a5 3c 25 30 33 bc d6 fe 87 3b 38 f9 e7 bc
       0.020247431 -0.0109367715 0.004150252 -0.028317079
0002e0 ef c2 86 bc 68 b4 c7 ba 8f 99 86 3c 86 42 23 bc
       -0.016450373 -0.001523626 0.016430644 -0.009964591
0002f0 9f 4f bd 3c 45 67 d1 3c 32 73 e8 3c ef 82 c9 3c
       0.023109255 0.025561938 0.028375242 0.024598567
000300 4d 78 a4 3c be 8c 40 bc 3f 2b 8d bc 4a 28 27 b9
       0.020076895 -0.011752306 -0.017232535 -0.0001594137
000310 f8 59 9f bc 2d 3a 7d bc 39 f9 b7 bc 4c e6 35 bb
       -0.01945208 -0.015455765 -0.022457706 -0.0027755676
000320 92 ae c2 3c b9 25 56 bc 12 be e3 3c f3 62 ad 3b
       0.023764882 -0.013070517 0.027800594 0.0052913367
000330 6b 3a 80 bc 80 c4 27 3b 4c e7 72 3c 56 eb 9f 3c
       -0.015652856 0.00255993 0.014825653 0.019521397
000340 38 52 a9 3c 34 19 ee bc 25 cf 3d bb 33 75 f5 3b
       0.020669088 -0.029064752 -0.002896258 0.007490778
000350 0a 8b 82 3b 88 3e 09 bc 61 33 c9 bc 34 a7 c1 3c
       0.00398386 -0.008376725 -0.024560632 0.023639299
000360 c2 cb 7d 3c 23 62 b3 bc df bc 0f bc 7b 40 3a 3c
       0.015490474 -0.021897381 -0.008773058 0.011367912
000370 ac b5 70 bc e0 7c 30 bc 41 2e f5 3b 75 27 bc 3a
       -0.014691751 -0.01077196 0.0074823205 0.0014355021
000380 bc 6c 9d bc 41 7f 75 bb b8 87 a6 bc 2d c6 98 bc
       -0.019216888 -0.0037459882 -0.020328388 -0.018649185
000390 bc 5b a5 bb 2a ff a6 3b 2f f8 04 3c 46 45 e0 3c
       -0.005046336 0.005096336 0.008115812 0.027376782
0003a0 94 b9 a0 3c f9 86 02 bc d4 3d 80 bb 98 d1 6e bc
       0.01961974 -0.00796675 -0.0039136205 -0.014576338
0003b0 89 5b ca bc 4c 6d 85 bb 54 5d b5 bc ac f6 8a bc
       -0.02470185 -0.004071867 -0.022139229 -0.016963325
0003c0 d9 53 35 bc 0c 08 43 3c 62 31 ad 3c ad 3e c3 bc
       -0.011067354 0.011903774 0.021141712 -0.023833597
0003d0 84 cd 8e 3c aa e7 eb 3b 41 e7 e3 3c 44 6a ef 3c
       0.017431982 0.0071992474 0.027820231 0.029225476
0003e0 68 4b a8 3c 98 3f ca 3b 86 c9 d4 3c fd 73 dc bc
       0.020543769 0.0061721317 0.025975 -0.026910776
0003f0 23 e8 9d bb f7 ee a3 3c c1 11 07 bc a4 d9 d7 3c
       -0.0048189326 0.020011408 -0.008243979 0.026348896

decoder.0.bias f4 [64]
000000 cc 3a 9e 3c d0 cd b8 3c aa 84 c3 bc 19 c7 9f ba
       0.019315146 0.022559077 -0.02386697 -0.0012190073
000010 65 9a 7c bc 80 14 95 bc f8 d0 6a bc 35 f2 89 bc
       -0.01541767 -0.018198252 -0.014332049 -0.016839126
000020 d3 b7 db 3c de 92 37 3c 2c 39 1b bc ea 7d 59 bc
       0.026821053 0.011204449 -0.00947408 -0.013274649
000030 6a 8e 70 bc 5d c0 b2 3b 4d 66 9f bc e9 35 98 3c
       -0.014682392 0.0054550604 -0.01945796 0.018580394
000040 c4 8d f9 ba 9b df 89 bb d8 c5 90 bc 78 7e cd bc
       -0.0019039442 -0.004207564 -0.017672464 -0.025084719
000050 45 cd 9e 3c 36 5d ac bb ab 68 cf 3c 77 8c 42 bc
       0.01938499 -0.005260135 0.025318464 -0.01187431
000060 df 35 45 ba e4 68 00 bb 19 41 9d 3c 1e ed 92 bc
       -0.0007522981 -0.001959377 0.01919608 -0.017935332
000070 08 36 03 bc f6 3c c1 3c cd 64 8e 3c c0 5a 1d 3c
       -0.0080084875 0.023588639 0.01738205 0.009604156
000080 ff 9b 21 3b 3f 63 2b 3c 6a 65 20 3b 21 ed 85 bc
       0.0024659631 0.010460674 0.002447451 -0.016348423
000090 46 6c e6 bb be 48 37 3b 2f 97 df 3c ea 93 b5 3c
       -0.00703195 0.0027966942 0.02729377 0.022165257
0000a0 56 ff 88 3b 2d 6f 96 3c 19 b8 dd bc 76 56 d5 bc
       0.004180829 0.01836356 -0.027065324 -0.026042204
0000b0 a2 e9 73 3b 91 b6 d2 bb 0c 3c e2 bc a3 3d 91 3c
       0.0037218113 -0.006430455 -0.027616523 0.017729586
0000c0 ae 0c 90 3a 1d 02 be 3b 0d 03 e7 3b e6 e1 2c bc
       0.0010990107 0.0057985918 0.007049924 -0.010551905
0000d0 d7 16 91 3c 51 05 31 bc e7 11 d8 3c c7 82 1a bc
       0.017711086 -0.01080449 0.026375724 -0.009430594
0000e0 77 21 9e bc 73 01 c0 b9 90 bf b8 bc 24 20 a7 3b
       -0.019303067 -0.00036622174 -0.022552282 0.005100267
0000f0 9b 81 2a bc c9 d9 00 bc 05 72 cd 3c 11 c2 b5 bc
       -0.010406877 -0.007864424 0.025078783 -0.022187265
