checkpoints/2025-06-02-14-55-08/last_epoch.pth (torch, 686901 bytes, 25 tensors)

encoder.0.weight f4 [64, 3, 3, 3]
0	0x3e0e5931	0.13901211
1	0x3d56838f	0.052371558
2	0x3e434435	0.19068988
3	0xbd6a5eae	-0.0572192
4	0x3e192dc6	0.14958867
5	0x3dddc9c7	0.108295016
6	0x3cf84e58	0.030310795
7	0x3e38623c	0.18006223
8	0x3dc3693a	0.09541555
9	0x3dc03dea	0.09386809
10	0xbe169a5e	-0.14707324
11	0xbceb3e34	-0.028716184
12	0xbcb8fba4	-0.02258093
13	0xbdbf6407	-0.093452506
14	0x3df37463	0.118874334
15	0xbe1f1d97	-0.15538631
16	0xbe1f2973	-0.15543155
17	0xbe3bf981	-0.18356897
18	0x3e246f83	0.16058163
19	0x3d9d2adf	0.07674193
20	0xbe185794	-0.14877158
21	0xbe32980e	-0.17440817
22	0xbe38e5ab	-0.18056361
23	0x3d602bd5	0.0547293
24	0x3e0db71d	0.13839383
25	0xbdf0e6c6	-0.117627665
26	0xbcf9749a	-0.030451108
27	0xbd92f14d	-0.07174931
28	0x3cfe4565	0.03103895
29	0xbc628049	-0.013824531
30	0x3c2a6513	0.0104000745
31	0x3e2d10ab	0.1690089
32	0x3e38ea74	0.18058187
33	0x3d1ed132	0.038773723
34	0xbdc0d44c	-0.094154924
35	0xbd945272	-0.07242288
36	0xbd8ddc6f	-0.0692681
37	0x3e113e3e	0.141839
38	0xbd17eba6	-0.037089966
39	0x3e2aee8d	0.16692562
40	0xbce34e1e	-0.02774721
41	0x3e330aa2	0.17484525
42	0xbdba1be4	-0.09087351
43	0x3d9f70c8	0.07785183
44	0xbe2aafcb	-0.16668622
45	0x3ca3327c	0.019921534
46	0x3d125e92	0.03573472
47	0xbd9cd615	-0.076580204
48	0x3cd268db	0.025684765
49	0x3db6dd36	0.089289114
50	0xbd7bd3b0	-0.061481178
51	0xbe2975bf	-0.16548823
52	0xbe1a1f43	-0.15050988
53	0xbe2f371d	-0.17110868
54	0x3d5b6e0c	0.053571746
55	0xbcf80d56	-0.030279797
56	0xbe088b2e	-0.13334343
57	0xbd9570dc	-0.07296917
58	0x3d813ae8	0.063100636
59	0xbe300f20	-0.1719327
60	0x3d06946a	0.032856382
61	0xbc1624ec	-0.009164076
62	0x3e1253ae	0.14289734
63	0xbe3ae029	-0.18249573
64	0x3cdf3f66	0.02725191
65	0xbdad140d	-0.0845109
66	0xbdb8072f	-0.08985745
67	0x3db62d63	0.088953756
68	0x3d957bfc	0.07299039
69	0xbad26d2f	-0.0016054268
70	0xbe07bf8b	-0.13256662
71	0xbe102b73	-0.14079075
72	0xbd43200c	-0.047637984
73	0x3afaf542	0.0019146579
74	0x3da2647b	0.079293214
75	0x3dd649b7	0.10463279
76	0x3d15bdb1	0.036557857
77	0xbb53d415	-0.0032322456
78	0xbd9233a7	-0.07138758
79	0xbe21c797	-0.15798794
80	0xbe26f96e	-0.16306087
81	0x3ddb8b72	0.107199565
82	0xbe2b7377	-0.16743265
83	0xbc3177d8	-0.010831796
84	0x3d1cd751	0.03829128
85	0x3d779985	0.060449142
86	0x3d3de424	0.04636015
87	0xbe3dcf67	-0.18536149
88	0xbe2cfe72	-0.16893938
89	0xbd83f9f5	-0.0644416
90	0x3df830ff	0.1211872
91	0xbd4b1e52	-0.049589463
92	0x3ca61c0c	0.020277046
93	0x3d0139e4	0.03154935
94	0x3d1825b3	0.037145328
95	0xbd584346	-0.052798532
96	0x3cf210c8	0.029549018
97	0xbdb68b4d	-0.08913288
98	0xbc8aadaf	-0.016928522
99	0xbe163308	-0.14667904
100	0x3e1240f0	0.14282584
101	0xbdd9bc0b	-0.106315695
102	0xbde4eefd	-0.11178396
103	0x3e099775	0.13436683
104	0xbe329a11	-0.17441584
105	0x3e3023f9	0.17201222
106	0xbd22cca3	-0.039745938
107	0x3d5d02b7	0.053957667
108	0xbd27c973	-0.0409636
109	0xbd5d34e5	-0.054005522
110	0x3d66dd54	0.05636342
111	0xb99ee281	-0.00030304867
112	0x3e23d06c	0.15997475
113	0x3d7f65f5	0.062353093
114	0x3d6d0d79	0.057874177
115	0xbd976566	-0.07392387
116	0xbe02e96a	-0.12784353
117	0xbe3d2713	-0.18471937
118	0x3e169c60	0.1470809
119	0x3c3dce83	0.011584881
120	0xbe14c84b	-0.1452953
121	0x3e2dbd53	0.16966753
122	0x3dd0f72b	0.102033935
123	0x3e2aeb46	0.16691312
124	0xbe366b09	-0.17814268
125	0x3d9a5dd2	0.07537426
126	0xbd291e9d	-0.04128896
127	0x3cb9387d	0.022609944
128	0x3d4c52f1	0.049883787
129	0x3b02c973	0.00199565
130	0x3b91ebbc	0.0044531506
131	0x3d3b07d8	0.045661777
132	0xbd94b17b	-0.07260414
133	0x3de4ba3e	0.111683354
134	0xbd90b9d6	-0.070666954
135	0xbdda9c70	-0.10674369
136	0xbd0afc55	-0.03393205
137	0xbc8cd10b	-0.017189523
138	0xbe3041c1	-0.17212583
139	0x3e0f4f5a	0.13995114
140	0x3e217f72	0.15771273
141	0x3e17c2ca	0.148204
142	0xbe1279c0	-0.14304256
143	0xbe23112d	-0.15924521
144	0x3def6648	0.116894305
145	0x3e002514	0.12514144
146	0xbe2b2dd1	-0.16716696
147	0x3dc9b065	0.09848098
148	0x3e010bad	0.1260211
149	0xbc90344d	-0.017603064
150	0x3e21ced9	0.15801562
151	0xbb6dbefd	-0.0036277168
152	0xbda16c10	-0.078819394
153	0xbe2b234c	-0.16712683
154	0xbdd751d6	-0.10513656
155	0xbda2d7f5	-0.07951347
156	0xbd4564b6	-0.04819175
157	0xbdf80a31	-0.12111319
158	0x3e1c71a0	0.1527772
159	0xbe2a38f5	-0.1662329
160	0x3e2955f0	0.16536689
161	0x3da25f81	0.07928372
162	0x3ae7a426	0.0017672821
163	0xbdebdc89	-0.11516673
164	0x3dbdfa8d	0.092763044
165	0x3b9a6c56	0.0047126217
166	0x3d15ef95	0.036605436
167	0x3e06440e	0.13111898
168	0x3d170de3	0.036878478
169	0xbd3e9588	-0.046529323
170	0x3e2258e4	0.15854222
171	0xbe2346d6	-0.1594499
172	0x3dcbba57	0.09947651
173	0x3e27359f	0.16329049
174	0xbe316e4e	-0.17327234
175	0xbc168df7	-0.0091891205
176	0xbdcb622c	-0.09930834
177	0x3de7845e	0.11304544
178	0xbdd43f0f	-0.1036359
179	0xbe33b7bd	-0.1755056
180	0xbd5fa93a	-0.054604746
181	0x3e2048a2	0.15652707
182	0xbe01ca5e	-0.12674853
183	0xbe45b9b0	-0.19309115
184	0xbd6c8188	-0.057740718
185	0x3e2c14a8	0.16804755
186	0xbbd1de20	-0.006404653
187	0xbd484f7a	-0.04890392
188	0x3de0e2b4	0.1098074
189	0xbe39b004	-0.18133551
190	0xbde8edf5	-0.11373512
191	0x3d296611	0.041357104
192	0xbc096ce3	-0.008387777
193	0xbe3cb496	-0.18428263
194	0x3dd61528	0.10453254
195	0x3e0cb462	0.13740686
196	0xbcf76722	-0.030200545
197	0xbd82f7f9	-0.06394953
198	0x3dd3f366	0.10349159
199	0xbd764b55	-0.060130436
200	0x3e10bf49	0.1413547
201	0x3e341644	0.17586619
202	0xbe0348d7	-0.12820755
203	0x3e28b05f	0.1647353
204	0xbe2b98d8	-0.16757524
205	0xbd125231	-0.035722915
206	0x3bf4772b	0.007460495
207	0x3e2c2645	0.16811474
208	0xbd42449b	-0.04742871
209	0xbde4c3d2	-0.11170162
210	0x3d708f0f	0.05873018
211	0xbd89e21f	-0.06732582
212	0xbdc86df1	-0.09786595
213	0xbe31d9b3	-0.17368202
214	0x3e19c1ca	0.15015331
215	0x3dcdb885	0.1004496
216	0xbe261181	-0.16217615
217	0x3c746b01	0.01491809
218	0x3e158d45	0.14604671
219	0x3d88891b	0.06666776
220	0x3db74b4f	0.08949911
221	0x3e27c3c6	0.16383275
222	0xbdd45b29	-0.1036895
223	0x3e1f6742	0.15566733
224	0x3df1e5e3	0.118114255
225	0xbda2de17	-0.079525165
226	0x3e2d1622	0.16902974
227	0x3d2e7b7b	0.04259823
228	0x3d8228ba	0.06355424
229	0xbdce1003	-0.10061648
230	0xbdf16ba4	-0.11788109
231	0xbe4405f3	-0.19142894
232	0xbc558f0d	-0.013034594
233	0xbe08400c	-0.13305682
234	0xbe11f1e1	-0.14252426
235	0xbc1a1b5b	-0.009405936
236	0x3e37e6ae	0.17959091
237	0xbe2c5c23	-0.16832022
238	0xbe356009	-0.17712416
239	0xbd0eaa25	-0.03483023
240	0x3cbbed76	0.022940379
241	0x3e205e62	0.15661004
242	0x3e397fe2	0.1811519
243	0x3c0da254	0.008644659
244	0xbde36703	-0.11103632
245	0xbcc89440	-0.024484754
246	0x3c9acf96	0.018897813
247	0xbe211e55	-0.15734227
248	0x3e054046	0.130128
249	0xbdb90e00	-0.090358734
250	0xbdc21363	-0.09476354
251	0xbe3b6dde	-0.1830363
252	0xbe2bc141	-0.1677294
253	0x3e348d0d	0.17631932
254	0xbc803055	-0.015648047
255	0x3e321abf	0.17393015

encoder.0.bias f4 [64]
0	0xbdc27f7f	-0.09496974
1	0x3cee69da	0.029103208
2	0x3e1bc192	0.1521056
3	0x3e1083fc	0.14112848
4	0x3e138e8d	0.14409848
5	0xbdc42198	-0.0957672
6	0x3e09e319	0.13465537
7	0x3e2ecb59	0.17069758
8	0x3de695c9	0.11259038
9	0xbd76f034	-0.06028767
10	0x3c647987	0.01394499
11	0x3da6e360	0.08148837
12	0x3d8138fc	0.06309697
13	0xbdeef345	-0.11667494
14	0xbdf6fce2	-0.12059952
15	0x3e3d4b14	0.18485671
16	0xbbd76837	-0.0065737027
17	0xbe04f985	-0.12985809
18	0x3d3ff28a	0.046862163
19	0xbe095d27	-0.13414441
20	0xbe0e60c0	-0.13904095
21	0x3e20cae2	0.15702394
22	0x3e2d7583	0.16939358
23	0x3e2a9291	0.16657473
24	0x3cabd0c9	0.02097358
25	0x3cdbd7ff	0.026836393
26	0x3e107c13	0.1410983
27	0x3db81666	0.08988647
28	0x3cfdf04e	0.030998375
29	0xbe2e8ee9	-0.17046703
30	0xbcc00ca9	-0.023443537
31	0xbe20359a	-0.15645447
32	0x3e052dd4	0.13005763
33	0x3de8d07b	0.113678895
34	0xbe223059	-0.15838756
35	0x3e28f58b	0.16499917
36	0x3c755f95	0.014976402
37	0xbd8501e6	-0.06494503
38	0xbd59d0f1	-0.053177778
39	0xbc4c4de9	-0.012469747
40	0xbd8a5ce5	-0.067559995
41	0x3cf43833	0.029811954
42	0x3d1bf3fe	0.038074486
43	0xbd587613	-0.05284698
44	0xbd289ef8	-0.04116723
45	0xbe2b8676	-0.16750512
46	0xbd57d959	-0.052697513
47	0x3e239e42	0.1597834
48	0x3e30a213	0.17249326
49	0xbda30a29	-0.07960922
50	0xbe24685e	-0.16055438
51	0xbde638b4	-0.11241284
52	0xbc322769	-0.010873654
53	0x3d658ed1	0.056044403
54	0xbdb1ee1b	-0.08687993
55	0x3e3e0e9a	0.18560258
56	0x3e1ee897	0.15518413
57	0x3e3fb93b	0.18723004
58	0xbd857273	-0.0651597
59	0xbb932fee	-0.0044917976
60	0xbd0b00d8	-0.03393635
61	0x3dea5d65	0.11443595
62	0xbdffe107	-0.124940924
63	0x3dc36b9b	0.095420085

encoder.1.weight f4 [64]
0	0x3f7fe99b	0.9996583
1	0x3f7ffa8d	0.99991685
2	0x3f7fe89a	0.99964297
3	0x3f7ff279	0.9997936
4	0x3f7fda86	0.99942815
5	0x3f801c16	1.0008571
6	0x3f7fc073	0.9990303
7	0x3f802247	1.0010461
8	0x3f7fbfa2	0.99901783
9	0x3f7ff496	0.99982584
10	0x3f800f63	1.0004696
11	0x3f801a8c	1.0008101
12	0x3f7fcee0	0.9992504
13	0x3f80181d	1.0007359
14	0x3f800026	1.0000045
15	0x3f7fdb35	0.9994386
16	0x3f8018cc	1.0007567
17	0x3f7fdd57	0.9994711
18	0x3f7fe506	0.9995884
19	0x3f7fe0f7	0.99952644
20	0x3f7fda59	0.9994255
21	0x3f7fdff9	0.9995113
22	0x3f801605	1.000672
23	0x3f7fe2fb	0.9995572
24	0x3f801c5e	1.0008657
25	0x3f7ff830	0.9998808
26	0x3f80126c	1.0005622
27	0x3f7fffa8	0.99999475
28	0x3f7feb42	0.9996835
29	0x3f7ff1a0	0.99978065
30	0x3f7fd06a	0.9992739
31	0x3f800615	1.0001856
32	0x3f800cb7	1.000388
33	0x3f7fd11e	0.9992846
34	0x3f7fd9bd	0.9994162
35	0x3f801351	1.0005895
36	0x3f7ff133	0.99977416
37	0x3f8005a7	1.0001725
38	0x3f800297	1.000079
39	0x3f800c0f	1.000368
40	0x3f801772	1.0007155
41	0x3f7fe5b1	0.99959856
42	0x3f8010f8	1.0005178
43	0x3f7fe488	0.99958086
44	0x3f801ad5	1.0008188
45	0x3f7fccf0	0.99922085
46	0x3f8010d9	1.0005141
47	0x3f7ff183	0.9997789
48	0x3f7ff3ec	0.9998157
49	0x3f7fff43	0.99998873
50	0x3f801e2a	1.0009205
51	0x3f80159f	1.0006598
52	0x3f7fe12c	0.9995296
53	0x3f800615	1.0001856
54	0x3f800040	1.0000076
55	0x3f7fe22f	0.99954504
56	0x3f800f24	1.000462
57	0x3f800e3c	1.0004344
58	0x3f7fd2b7	0.999309
59	0x3f80056b	1.0001653
60	0x3f80054b	1.0001615
61	0x3f800f7c	1.0004725
62	0x3f7ff19b	0.99978036
63	0x3f7fe9db	0.9996621

encoder.1.bias f4 [64]
0	0xba8aca30	-0.0010588821
1	0x3a2a3f61	0.00064944295
2	0xb9a041f7	-0.00030566726
3	0x38050d5d	3.1722117e-05
4	0x392bade5	0.00016372612
5	0x3a546e14	0.0008103561
6	0xba056597	-0.00050886854
7	0x3824705c	3.920529e-05
8	0xba17697d	-0.0005775912
9	0xb80d96e1	-3.3757537e-05
10	0x39b9b234	0.0003541872
11	0x3a7a573e	0.0009549743
12	0xb9043d53	-0.00012611346
13	0x3a7081a9	0.00091745943
14	0x3a01a171	0.0004945016
15	0xb99482f7	-0.00028326336
16	0x3a563c5e	0.00081724476
17	0xb9f2dbc4	-0.00046321575
18	0xb99c3554	-0.0002979437
19	0xb9cd9676	-0.0003921275
20	0xba266eac	-0.0006348889
21	0xba5d9827	-0.00084531534
22	0x3a8615d6	0.0010229896
23	0x3a52e69a	0.00080452266
24	0x3a766e72	0.0009400613
25	0x38e7f9b4	0.00011061449
26	0x3991cafe	0.00027807796
27	0x3981de78	0.0002477055
28	0x39f15112	0.00046027504
29	0xb93ea3a2	-0.0001818077
30	0xba3e2528	-0.00072534615
31	0x39de5fdf	0.0004241457
32	0x3a2c5353	0.00065736956
33	0x39fb23f4	0.00047901238
34	0xb7df36d0	-2.6609196e-05
35	0x398f9828	0.0002738845
36	0xb903303a	-0.000125111
37	0x37449767	1.17177615e-05
38	0xb711fe90	-8.701943e-06
39	0x3a74a868	0.0009332956
40	0x38f243e5	0.000115521056
41	0xba3d3aaf	-0.00072185224
42	0x3a6a700f	0.00089430896
43	0x38c33dde	9.309848e-05
44	0x38a5d78b	7.907961e-05
45	0xba636445	-0.0008674304
46	0x3a17ccd4	0.00057907146
47	0xba08333a	-0.00051956216
48	0xba3ffcd4	-0.0007323746
49	0x3988b49e	0.00026074512
50	0xb8239f89	-3.9010807e-05
51	0x3a64b5ba	0.0008724589
52	0x39c11e67	0.0003683448
53	0xb9a29b57	-0.00031014785
54	0xb98170e2	-0.00024688902
55	0x39fc512f	0.00048125672
56	0x3a37be6e	0.0007009272
57	0x3a3f87f7	0.0007306332
58	0xb9b6c9a0	-0.00034863967
59	0x39a8056d	0.000320475
60	0xb9521d9f	-0.00020038195
61	0x3a60b0b9	0.00085712556
62	0xba26d6d7	-0.0006364411
63	0xb8e12604	-0.00010735917

encoder.1.running_mean f4 [64]
0	0xbe525731	-0.20541073
1	0x3cbea6d7	0.023272915
2	0x3eb12590	0.3459897
3	0x3e877374	0.2645527
4	0x3da0965c	0.07841179
5	0xbd724d27	-0.05915561
6	0x3e03fe97	0.12890087
7	0x3e6975ca	0.22798839
8	0x3d09e35d	0.033664096
9	0x3dfc900d	0.12332163
10	0x3dde4043	0.10852101
11	0xbd81c687	-0.06336694
12	0x3d80bc39	0.062859006
13	0xbe2691ed	-0.16266604
14	0xbdf14e5c	-0.11782524
15	0xbe71d78e	-0.23617384
16	0x3e137299	0.14399184
17	0xbe2d8b84	-0.16947752
18	0x3e4d5908	0.20053494
19	0xbd9411df	-0.07229971
20	0xbe91a446	-0.28445643
21	0x3e03fae5	0.12888677
22	0x3e58d1f9	0.21173848
23	0x3e98bc36	0.29831094
24	0x3e0bc0b8	0.13647735
25	0x3cf7f20a	0.03026678
26	0xba5fdb93	-0.0008539494
27	0xbcab8947	-0.020939482
28	0x3e24109e	0.16021964
29	0xbe459055	-0.1929334
30	0xbe422c3a	-0.18962184
31	0xbdba165f	-0.09086298
32	0x3e9aec73	0.3025852
33	0x3db35ca7	0.087579064
34	0xbe897b3b	-0.2685183
35	0x3e337e1e	0.17528579
36	0x3d987098	0.074433506
37	0xbcb0c316	-0.0215774
38	0xbe7729ee	-0.24137089
39	0x3e23f9bd	0.16013236
40	0xbd8227ab	-0.06355222
41	0xbe8e1c6c	-0.2775606
42	0x3dfd0e5b	0.12356254
43	0xbe4110a5	-0.18854006
44	0xbd49ce86	-0.04926922
45	0xbe8a9be8	-0.27072072
46	0x3c7e6d20	0.015528947
47	0x3c4f35b1	0.012647078
48	0x3ec67d12	0.38767296
49	0x3e4c75a2	0.19966748
50	0xbe085cad	-0.13316603
51	0xbc1bc984	-0.009508494
52	0xbd24803f	-0.040161368
53	0xbd548126	-0.051880978
54	0xbe2f9d35	-0.17149813
55	0x3db4a2df	0.08820128
56	0x3e61ce79	0.2205142
57	0x3e83c4bc	0.25736034
58	0xbe2c2144	-0.16809565
59	0xbe1ba120	-0.15198183
60	0xbcb433ab	-0.021997293
61	0xbd0e1301	-0.034686092
62	0xbdb0ad4e	-0.08626805
63	0xbc2f8f3b	-0.010715301

encoder.1.running_var f4 [64]
0	0x3e3fe414	0.18739349
1	0x3de30e1e	0.11086677
2	0x3f146bec	0.57977176
3	0x3e222015	0.15832551
4	0x3dc33e98	0.09533423
5	0x3d48296a	0.04886762
6	0x3d980680	0.07423115
7	0x3d2d895d	0.042367328
8	0x3e02cfe4	0.12774616
9	0x3eaede2a	0.34153873
10	0x3e11879e	0.1421189
11	0x3e7c4cfc	0.24638742
12	0x3d731d5e	0.05935418
13	0x3da81fad	0.08209167
14	0x3ce6fab8	0.028195724
15	0x401c93a5	2.4465115
16	0x3eaa82b6	0.3330285
17	0x3d72a548	0.059239656
18	0x3e9e4c64	0.30917656
19	0x3dd7b995	0.10533444
20	0x3e9a64f9	0.3015516
21	0x3e163410	0.14668298
22	0x3cc8b7a7	0.024501635
23	0x3eb0ff7d	0.34569922
24	0x3e5492c3	0.2075911
25	0x3ce1370f	0.027492074
26	0x3e671ab4	0.2256878
27	0x3e2840b0	0.16430926
28	0x3e41fe6d	0.18944712
29	0x3d12ec10	0.035869658
30	0x3ea49f83	0.32152948
31	0x3da81f6f	0.082091205
32	0x3e8455ba	0.25846654
33	0x3da48a6b	0.08034214
34	0x3e9b1d5c	0.30295837
35	0x3e2b65ab	0.16738002
36	0x3e414407	0.18873607
37	0x3ddd5e17	0.10808962
38	0x3ed209cc	0.410231
39	0x3ec43302	0.38320166
40	0x3dc6f440	0.09714556
41	0x3f7dc21f	0.9912433
42	0x3e3ffe1e	0.18749282
43	0x3ea82e76	0.32847947
44	0x3dc55ae4	0.09636477
45	0x3e9eabe3	0.30990514
46	0x3dbc4da1	0.09194494
47	0x3e422b55	0.18961842
48	0x3f4d6468	0.8023133
49	0x3f80d529	1.0065051
50	0x3d4f55fb	0.050619107
51	0x3ea18453	0.31546268
52	0x3d66faba	0.056391455
53	0x3e221682	0.15828899
54	0x3e38fbbf	0.18064784
55	0x3de83061	0.113373525
56	0x3d8cd66e	0.06876837
57	0x3d808cd5	0.062768616
58	0x3e39dafc	0.18149942
59	0x3e6a6d9f	0.2289338
60	0x3cdd6829	0.027027206
61	0x3eb0e1f5	0.34547392
62	0x3d0e053c	0.03467296
63	0x3e2473cd	0.160598

encoder.4.weight f4 [128, 64, 3, 3]
0	0x3ccc40be	0.024933215
1	0x3b3a4f5d	0.0028428652
2	0x3cc0ced3	0.023536121
3	0x3c3dd467	0.011586285
4	0xbcda2c93	-0.026632583
5	0x3cd59f7d	0.026077027
6	0xba102a8c	-0.0005499504
7	0x3c8e4727	0.017367912
8	0xbd2bb6c0	-0.04192233
9	0x3b853231	0.004064821
10	0xbc939f8d	-0.018020416
11	0xbd1cfef5	-0.038329083
12	0x3aa8959d	0.0012861971
13	0x3cedf757	0.029048605
14	0x3c169828	0.00919155
15	0x3d0de06f	0.034637865
16	0xbd10264c	-0.035192773
17	0xbc578d59	-0.0131562585
18	0xbc8e0e0a	-0.017340679
19	0x3c36c3e6	0.011155104
20	0x3ba0d2bd	0.0049079345
21	0x3c9f4525	0.01944215
22	0x3d290191	0.04126126
23	0x3cb9551f	0.022623597
24	0xbcef6d02	-0.029226784
25	0xbc9f42ca	-0.019441027
26	0xbcc2ad73	-0.023764348
27	0x3c470988	0.0121482685
28	0x3d1a4121	0.037659768
29	0x3d06db0b	0.03292374
30	0xbafe075b	-0.0019380854
31	0x3d1ab6ec	0.037772104
32	0xbc8c21ba	-0.017105926
33	0x3b7d5420	0.0038654879
34	0x3ca10a3d	0.019658202
35	0xbc0bbd52	-0.008529024
36	0x3ce041f1	0.027375193
37	0xbbdc38c3	-0.0067206337
38	0x3c4d903e	0.012546597
39	0xbd2ad217	-0.041704264
40	0xbcd1a103	-0.025589472
41	0x3d191cd3	0.037381005
42	0x3c84f240	0.016228795
43	0x3c88bee1	0.01669258
44	0xbcae3ec5	-0.021270165
45	0xbad80930	-0.001648223
46	0x3ccdc03e	0.025116082
47	0xbcf95f14	-0.030440845
48	0x3c06e53a	0.008233363
49	0x3bfe33ad	0.007757625
50	0xbca81365	-0.02051706
51	0x3d0440b2	0.03228826
52	0xbcb602bd	-0.022218103
53	0xbcc4308a	-0.023948926
54	0x3cff7ffe	0.031188961
55	0xbcbf0dc4	-0.023321994
56	0xbd15a2db	-0.036532264
57	0x3c5115aa	0.012761513
58	0x3d2449d7	0.04010948
59	0x3cf2c5ce	0.029635336
60	0x3bca8584	0.006180467
61	0x39c43174	0.0003742088
62	0xbc5950b5	-0.013263871
63	0x3ca1509d	0.01969176
64	0xbb9fedf8	-0.004880663
65	0x3a9fb3e3	0.0012184348
66	0x3d0723a5	0.032992978
67	0xbd19e9ae	-0.03757637
68	0x3ce37e8f	0.027770309
69	0xbb03c669	-0.0020107275
70	0xbc305c88	-0.010764249
71	0x3d0a35f0	0.033742845
72	0x3d1ce6db	0.0383061
73	0xbcda7b34	-0.026670076
74	0xbd1dca04	-0.038522735
75	0xbc497ecb	-0.012298296
76	0xbcee4794	-0.029086865
77	0x3c876b61	0.016530694
78	0x3cde2e69	0.02712174
79	0x3b37ae49	0.0028027466
80	0xbc05ebea	-0.008173922
81	0xbceefc8a	-0.029173154
82	0xbc28970d	-0.01028992
83	0x3ca80059	0.020507978
84	0x3c722ef9	0.014781707
85	0x3ca7f43b	0.0205022
86	0xbd0f6d6a	-0.035016455
87	0x3d2741c1	0.040834192
88	0x3d0fe18d	0.03512721
89	0xbc5d4fb3	-0.013507771
90	0x3b979ff0	0.0046272203
91	0xbbf02125	-0.00732817
92	0x3d0b5b20	0.03402245
93	0xbb8bdadc	-0.0042680334
94	0xbd09d812	-0.033653326
95	0x3ca0703c	0.019584768
96	0x3d1436dd	0.036185134
97	0xbd18cbb2	-0.037303634
98	0xbd1dc406	-0.03851702
99	0xbcaab5e5	-0.020838687
100	0xbd12b4cd	-0.035816956
101	0x3b9e1ebb	0.0048254407
102	0x3b4fc63a	0.0031703846
103	0x3cea5854	0.028606571
104	0xbc632b21	-0.013865263
105	0x3ac3a4e3	0.0014926459
106	0xbb5c5596	-0.003362035
107	0x3c93350e	0.017969634
108	0x3c291061	0.010318846
109	0x3c94f123	0.01818139
110	0xbc176a32	-0.0092416275
111	0xbc2d40e5	-0.010574554
112	0xbca9ddf9	-0.020735728
113	0x3c37cd53	0.011218387
114	0xbce3fcd3	-0.027830517
115	0xbc1b5b70	-0.00948225
116	0xbc263011	-0.010143296
117	0xbbc3dd9f	-0.005977347
118	0xbd1458e4	-0.036217585
119	0xbca4c4c4	-0.020113356
120	0x3cbc1952	0.022961292
121	0x3b82ce4d	0.003991878
122	0x39d3e452	0.00040415168
123	0xbc5e9290	-0.013584748
124	0x3ba62845	0.0050707185
125	0x3cceab20	0.025228083
126	0x3b4710de	0.0030375044
127	0xbc7c0698	-0.015382431
128	0xbcd771aa	-0.026299316
129	0x3cbfee02	0.02342892
130	0xbd2464e6	-0.040135287
131	0x3bff4d13	0.0077911704
132	0xbd20fd89	-0.03930429
133	0x3cb760ed	0.022385085
134	0x3cb4f4f2	0.022089455
135	0x3cf6a41a	0.030107547
136	0xbd071f75	-0.032988984
137	0xbd2491ff	-0.040178295
138	0xbce4c21a	-0.027924586
139	0x3bd01bf5	0.006350989
140	0x3d111cc7	0.035427835
141	0xbbf68cf2	-0.007524126
142	0x3cf824b9	0.030290948
143	0x3ca5db2c	0.02024611
144	0x3d1c56b3	0.03816862
145	0x3c8b0771	0.016971322
146	0x3c79b96f	0.015241965
147	0xbcf229a7	-0.029560877
148	0x3c6b1d69	0.014350274
149	0xbcc2d518	-0.023783252
150	0xbad3d02c	-0.0016160063
151	0x3ab7a0b1	0.0014009682
152	0xbb665b23	-0.0035149537
153	0x3cb74fed	0.022376979
154	0xbd1a532e	-0.037676983
155	0x3c035f5d	0.008018342
156	0x3ced5adb	0.028973987
157	0x3cafc27a	0.021455038
158	0x3d1f0415	0.038822252
159	0x3c2187c8	0.009859033
160	0xbd2a411f	-0.04156601
161	0xbcbcfb88	-0.023069158
162	0x3d269e7f	0.040678497
163	0xbc199d3e	-0.009375868
164	0xbc3a211b	-0.011360432
165	0xbd1fe0a7	-0.039032605
166	0xbc66f96a	-0.014097551
167	0xbcd87850	-0.026424557
168	0x3d20eae7	0.03928652
169	0xbc96cd9d	-0.01840859
170	0x3c9739a0	0.018460095
171	0x3b656599	0.0035003184
172	0xbd04ce17	-0.032423105
173	0xbc16ba81	-0.009199739
174	0x3d2da810	0.042396605
175	0xbbee8117	-0.0072785723
176	0x3cdadd88	0.026716962
177	0xbc0ac5f5	-0.008470048
178	0x3c8d1cff	0.01722574
179	0xbd12dec4	-0.035856977
180	0xbc974541	-0.01846564
181	0xbcac5a86	-0.021039259
182	0xbc269651	-0.010167674
183	0x3c35abe0	0.0110883415
184	0x3d24c749	0.040229116
185	0x3ccb7e65	0.024840543
186	0x3b3a93cc	0.0028469441
187	0xbba9eb10	-0.0051854923
188	0x3b007ce8	0.00196057
189	0xbccfc190	-0.025360852
190	0xbcc24b0d	-0.023717428
191	0xbc33bff0	-0.010971054
192	0x3aa4f7fa	0.001258611
193	0x3bf80bf6	0.007569785
194	0x3caac02e	0.020843592
195	0x3c9523ef	0.018205611
196	0x3b924a25	0.004464405
197	0xbc0cfc71	-0.008605109
198	0xbb982baf	-0.0046438794
199	0xbd20533a	-0.03914187
200	0x3c6d75ae	0.014493389
201	0xbc975ed0	-0.018477827
202	0x3cc6ae18	0.024252936
203	0x3b09f7fa	0.0021052347
204	0x3c07ba68	0.008284189
205	0xbb8ea394	-0.004352996
206	0xbb25d2c9	-0.002530264
207	0x3cf46965	0.029835412
208	0x3d1fd5c8	0.039022237
209	0xbd198029	-0.03747574
210	0x3c8b7c44	0.017027028
211	0x3d0cb5c5	0.034353036
212	0x3cd5c0df	0.026092945
213	0x3bff1091	0.0077839573
214	0xbd176739	-0.036963675
215	0xbceacae0	-0.028661191
216	0x3c7efe6e	0.01556359
217	0xbd0490e5	-0.032364745
218	0x3d05dbaa	0.03268019
219	0xbc2406f6	-0.010011425
220	0xbd163a86	-0.036676906
221	0xbb09559c	-0.0020955568
222	0x3c27fb53	0.010252791
223	0x3c1ce177	0.009575239
224	0x3ceadd53	0.028669989
225	0x3cd82e49	0.026389258
226	0xbc5a3a80	-0.013319612
227	0xbc9a6cfe	-0.0188508
228	0xbd04a230	-0.032381237
229	0x3c989eec	0.018630467
230	0xbd04faa4	-0.032465592
231	0xbc275920	-0.01021412
232	0xbcc1cc75	-0.023657063
233	0xbc385b23	-0.011252197
234	0x3d100ca6	0.035168312
235	0xbcb6c215	-0.022309342
236	0xbd26c2dd	-0.04071318
237	0x3c8cd7d0	0.017192751
238	0xbd267d8e	-0.040647082
239	0x3c278bac	0.010226171
240	0xbbede27d	-0.0072596655
241	0x3cc366be	0.023852702
242	0xbd0113e7	-0.03151312
243	0xbcc2544e	-0.02372184
244	0xbcccefea	-0.025016744
245	0xbc7a68a0	-0.015283734
246	0x3cff0fb7	0.031135423
247	0xbbdff0cf	-0.0068341265
248	0xbba89b4e	-0.005145467
249	0xbd280c1b	-0.04102717
250	0x3d18a285	0.037264366
251	0x3cf654de	0.030069765
252	0xbccfcc5c	-0.025366
253	0xbcd5f2d5	-0.026116768
254	0xbd1eecb1	-0.038799945
255	0x3d15249e	0.036411874

encoder.4.bias f4 [128]
0	0x3d02dda1	0.031949643
1	0xbcd7d2a0	-0.026345551
2	0x3cb8fc24	0.022581168
3	0xbab6310c	-0.0013900115
4	0x3cab8913	0.020939386
5	0x3b925b29	0.0044664335
6	0xbb201bbf	-0.00244306
7	0x3d113534	0.03545113
8	0x3ceba4d4	0.02876512
9	0x3b46a159	0.0030308573
10	0xbc53ab8d	-0.012919319
11	0xbd061f77	-0.03274485
12	0xbb12c9a5	-0.0022398022
13	0xbca07afe	-0.019589897
14	0xbcae85df	-0.02130407
15	0x3c916f0f	0.017753152
16	0x3c6adf5c	0.01433548
17	0x3cabcd19	0.020971822
18	0xbd1992a8	-0.037493378
19	0xbc7a7532	-0.015286731
20	0xbcafeda9	-0.02147563
21	0x3c10eb87	0.008845217
22	0xbcfba143	-0.030716544
23	0xbcb59eaf	-0.022170393
24	0x3c14ed60	0.009089798
25	0x3cecd04c	0.028907917
26	0x3b6541fc	0.0034981957
27	0xbc5f75f2	-0.01363896
28	0x3cd30fe7	0.025764419
29	0x3d133f36	0.035948955
30	0x3c5291d3	0.01285215
31	0x3ca6235d	0.020280534
32	0xbce76c8a	-0.028249998
33	0xbd239043	-0.0399325
34	0x3d092815	0.03348549
35	0x3cbb03c0	0.022828937
36	0x3cbb968f	0.02289894
37	0x3d107b93	0.0352741
38	0xbd00f0bd	-0.031479586
39	0x3cecd223	0.028908795
40	0x3c5b3fc6	0.013381904
41	0x3c9fdef5	0.019515494
42	0xba9da5d3	-0.0012027569
43	0xbba026da	-0.004887444
44	0x3cfb2da4	0.030661412
45	0x3b96f218	0.0046064965
46	0x3d22e882	0.039772518
47	0x3c544eb8	0.012958221
48	0x3d0e6a27	0.034769204
49	0x3cdd12c3	0.026986485
50	0xbcdbaad6	-0.02681486
51	0xbd0caf7d	-0.034347046
52	0xbc426c35	-0.011866619
53	0xbb46048b	-0.003021511
54	0x3c6fe704	0.014642481
55	0xbcc4d731	-0.024028393
56	0x3b39d50b	0.0028355743
57	0x3c8ddd4a	0.017317433
58	0x3cef0782	0.029178385
59	0xbc4c7d1f	-0.012481003
60	0x3d17fd2b	0.037106674
61	0x3c9b9ba4	0.018995114
62	0xbb31810f	-0.0027084982
63	0x3c9fea1c	0.019520812
64	0xbcdf99f3	-0.027295088
65	0xbd13112b	-0.035905045
66	0xbd226a75	-0.039652307
67	0xbcfca044	-0.03083814
68	0x3c8f5a3e	0.017499086
69	0xbc80ee5d	-0.01573866
70	0x3b91e018	0.004451763
71	0x3c9084f2	0.017641518
72	0x3d12464d	0.035711575
73	0xbca26967	-0.01982565
74	0xbbdf8f8b	-0.0068225316
75	0xbd053f06	-0.032530807
76	0x3cf2cdae	0.029639091
77	0xbceb1a28	-0.028698996
78	0x3c0a2b86	0.008433228
79	0x3d08171d	0.033225168
80	0xbb4054ef	-0.00293475
81	0xbc9abadd	-0.018887931
82	0xbc0c2500	-0.008553743
83	0xbcd8e1e8	-0.026474908
84	0x3d292d79	0.04130313
85	0x3c133c96	0.008986613
86	0xbc284914	-0.010271329
87	0x3ce5aaf2	0.028035615
88	0xbc2529c8	-0.010080762
89	0xbca38f99	-0.019965934
90	0xbd18cec3	-0.03730656
91	0x3d13e2c1	0.03610492
92	0x3c392bac	0.011301916
93	0x3c690e0b	0.0142245395
94	0x3c6dcff2	0.01451491
95	0xbd279a5c	-0.040918693
96	0x3ce57f16	0.0280147
97	0x3cac9f20	0.02107197
98	0xbd2004a2	-0.03906692
99	0x3cf7f777	0.030269368
100	0x3cb0ddca	0.021590132
101	0xbce594ef	-0.028025119
102	0x3bef5a23	0.0073044463
103	0x3d11e69c	0.035620317
104	0x3a639b78	0.00086825294
105	0x3ca8ee70	0.020621508
106	0xbaf2d14e	-0.0018525512
107	0x3a2ae638	0.00065192906
108	0x3d182c98	0.037151903
109	0x3cc524b3	0.024065351
110	0xbcb8e7df	-0.022571502
111	0xbbe1720b	-0.00688005
112	0x3cb11a1d	0.021618897
113	0xbb42a9e5	-0.0029703316
114	0x3b9ce10f	0.0047875713
115	0xbcc78d8e	-0.02435949
116	0x3c1a2ec5	0.009410565
117	0xbc2f53d8	-0.010701142
118	0xbbe637d3	-0.0070256977
119	0xbbebe9d4	-0.0071995053
120	0x3ba50863	0.0050364
121	0x3cb1cac5	0.021703133
122	0xbc7fe407	-0.015618331
123	0x3d19a05e	0.037506454
124	0xbbd45847	-0.00648025
125	0xbcb85008	-0.0224991
126	0xbd15b4e7	-0.036549475
127	0x3ca4a501	0.020098211

encoder.5.weight f4 [128]
0	0x3f800dbb	1.000419
1	0x3f801869	1.0007449
2	0x3f7fcf3b	0.99925584
3	0x3f801813	1.0007347
4	0x3f7ff4c3	0.9998285
5	0x3f7fe1c3	0.9995386
6	0x3f801808	1.0007334
7	0x3f8015a4	1.0006604
8	0x3f7fcb8e	0.99919975
9	0x3f80161e	1.000675
10	0x3f801bd5	1.0008494
11	0x3f7fe1f7	0.9995417
12	0x3f80064f	1.0001925
13	0x3f7fc5cf	0.99911207
14	0x3f7fd52c	0.9993465
15	0x3f7fdabe	0.9994315
16	0x3f7fbcc1	0.9989739
17	0x3f8013d3	1.000605
18	0x3f7fff92	0.99999344
19	0x3f8015cc	1.0006652
20	0x3f7fd84c	0.9993942
21	0x3f80107e	1.0005033
22	0x3f7feeed	0.99973947
23	0x3f7ff3c4	0.9998133
24	0x3f80034a	1.0001004
25	0x3f8017c6	1.0007255
26	0x3f7fc0b5	0.9990342
27	0x3f7fefa4	0.9997504
28	0x3f7fcef5	0.99925166
29	0x3f800494	1.0001397
30	0x3f8015d4	1.0006661
31	0x3f7fed16	0.9997114
32	0x3f7fd59b	0.9993531
33	0x3f7fe234	0.99954534
34	0x3f801d67	1.0008973
35	0x3f800305	1.0000921
36	0x3f7fdbfc	0.99945045
37	0x3f802201	1.0010377
38	0x3f7fe8b1	0.99964434
39	0x3f8014fe	1.0006406
40	0x3f80122d	1.0005547
41	0x3f8007c8	1.0002375
42	0x3f800cab	1.0003866
43	0x3f800a49	1.0003139
44	0x3f7ffcb7	0.9999499
45	0x3f800eb9	1.0004493
46	0x3f7fd05d	0.9992731
47	0x3f80202d	1.0009819
48	0x3f7ffe62	0.9999753
49	0x3f80223a	1.0010445
50	0x3f800765	1.0002257
51	0x3f7feab7	0.9996752
52	0x3f7fd2c5	0.99930984
53	0x3f8023b4	1.0010896
54	0x3f7fea24	0.99966645
55	0x3f800ef6	1.0004566
56	0x3f7fc274	0.99906087
57	0x3f7ff478	0.99982405
58	0x3f7ff584	0.99984
59	0x3f8020cd	1.001001
60	0x3f7ff10d	0.9997719
61	0x3f8002a2	1.0000803
62	0x3f7fcabb	0.9991872
63	0x3f8018b2	1.0007536
64	0x3f7fd7db	0.99938744
65	0x3f7fd412	0.9993297
66	0x3f801092	1.0005057
67	0x3f7fff80	0.9999924
68	0x3f7feed6	0.9997381
69	0x3f7ff903	0.99989337
70	0x3f7fcd51	0.9992266
71	0x3f80036c	1.0001044
72	0x3f801897	1.0007504
73	0x3f80055d	1.0001637
74	0x3f7fcf22	0.99925435
75	0x3f80151b	1.0006441
76	0x3f7fec76	0.99970186
77	0x3f80216b	1.0010198
78	0x3f800c64	1.0003781
79	0x3f7fd239	0.9993015
80	0x3f801c99	1.0008727
81	0x3f7ff98f	0.9999017
82	0x3f8003b0	1.0001125
83	0x3f801d50	1.0008945
84	0x3f800bc6	1.0003593
85	0x3f7fe913	0.9996502
86	0x3f7ff065	0.9997619
87	0x3f7fcf68	0.9992585
88	0x3f7fd599	0.999353
89	0x3f800add	1.0003315
90	0x3f801287	1.0005654
91	0x3f7fec6e	0.9997014
92	0x3f7fe383	0.9995653
93	0x3f80015a	1.0000412
94	0x3f7fed83	0.9997179
95	0x3f801fd1	1.000971
96	0x3f7fe010	0.9995127
97	0x3f8002b7	1.0000829
98	0x3f8010a8	1.0005083
99	0x3f80178c	1.0007186
100	0x3f8015c9	1.0006648
101	0x3f7ff9d8	0.99990606
102	0x3f7fe6dc	0.9996164
103	0x3f80128b	1.0005659
104	0x3f7fd84d	0.99939424
105	0x3f7fdae2	0.99943364
106	0x3f801eb6	1.0009372
107	0x3f7fc422	0.9990865
108	0x3f7ffa6c	0.9999149
109	0x3f802354	1.0010781
110	0x3f80013e	1.0000379
111	0x3f800334	1.0000978
112	0x3f7fd818	0.9993911
113	0x3f8004e2	1.000149
114	0x3f7fcb97	0.9992003
115	0x3f7fd153	0.9992878
116	0x3f7fce4e	0.9992417
117	0x3f801658	1.0006819
118	0x3f80175e	1.0007131
119	0x3f8006c3	1.0002064
120	0x3f7fcf8d	0.9992607
121	0x3f7fdc56	0.9994558
122	0x3f800cc5	1.0003897
123	0x3f80179f	1.0007209
124	0x3f7ffd89	0.9999624
125	0x3f801b91	1.0008413
126	0x3f7fce2c	0.9992397
127	0x3f800a60	1.0003166

encoder.5.bias f4 [128]
0	0x3a3d533b	0.000722218
1	0x3a654158	0.0008745394
2	0x399cc133	0.00029898583
3	0x3a7ac1e5	0.00095656357
4	0xb9e4b1fa	-0.00043620152
5	0xba52a622	-0.000803562
6	0x3a58f463	0.00082761626
7	0x3a2ab7bd	0.00065123645
8	0xba48426f	-0.0007639294
9	0xba6da8ac	-0.00090659666
10	0x3a150a16	0.0005685402
11	0xba1173bd	-0.00055485574
12	0xba66e5b0	-0.000880803
13	0xba80ea93	-0.0009835534
14	0xb94c02ac	-0.00019455951
15	0xba4a3d63	-0.0007714836
16	0xba82ef9d	-0.0009989623
17	0x3a161c7a	0.0005726289
18	0x393a4ffa	0.00017768136
19	0xb8c3a373	-9.3287694e-05
20	0xba49f705	-0.000770435
21	0x3a34baee	0.000689431
22	0xb9e526a4	-0.00043707073
23	0xb8668638	-5.4961274e-05
24	0x39c894ab	0.0003825774
25	0x3a4cdbeb	0.0007814753
26	0xba804276	-0.0009785432
27	0xb921f583	-0.00015445617
28	0x3a268371	0.0006351984
29	0x3a5869e1	0.0008255523
30	0x3a4bc22b	0.0007772769
31	0xb89ed43c	-7.573559e-05
32	0x3a25ed2d	0.00063295924
33	0xba6672e6	-0.0008790925
34	0x3a0b32b4	0.00053099846
35	0x399deffc	0.00030124176
36	0xba364e1c	-0.0006954388
37	0x393cff96	0.0001802429
38	0x39b82965	0.00035126056
39	0x3a0ab420	0.0005291123
40	0x3a45c89c	0.0007544847
41	0x3a2506ae	0.0006295246
42	0x39225b86	0.00015483619
43	0x394bcbaa	0.0001943546
44	0xb901e65d	-0.00012388216
45	0x3a1fc95b	0.0006095373
46	0x38efc15c	0.00011432424
47	0x3a2f9680	0.00066981465
48	0xba1a6a9c	-0.000589052
49	0x3a81aa68	0.0009892704
50	0x3892020a	6.962202e-05
51	0xb998e3ec	-0.00029161514
52	0xba078196	-0.0005169151
53	0x3a89f4b0	0.0010525193
54	0xb9ec4190	-0.00045062276
55	0x3a3c3e93	0.0007180955
56	0xba80d660	-0.0009829514
57	0x3a8b1aee	0.0010612884
58	0xb86f05b6	-5.698736e-05
59	0x3a7e98e9	0.00097121164
60	0xb9dd1e74	-0.00042175094
61	0xba3fb0ea	-0.0007312434
62	0xb9fd0ed0	-0.00048266957
63	0x3a67c712	0.00088416145
64	0xb90927cc	-0.00013080164
65	0xb99290f9	-0.00027955303
66	0x39c6badc	0.00037904724
67	0xba01c7c3	-0.0004950726
68	0xba4e74ec	-0.0007875699
69	0xb93eab4a	-0.00018183622
70	0xba1d143c	-0.000599209
71	0x3a2342b8	0.00062278984
72	0x3a8ea9c2	0.0010884332
73	0xb9a2cd83	-0.00031052166
74	0x38bcec70	9.0085785e-05
75	0x39ec8fb5	0.00045120498
76	0x3980092d	0.000244209
77	0xb93549b6	-0.00017288965
78	0x39a7d05c	0.00032007962
79	0x3900cfbc	0.00012284418
80	0x38f044ef	0.00011456932
81	0xba8aca04	-0.001058877
82	0x3988dfc1	0.0002610665
83	0xb9130824	-0.00014022045
84	0x368616b8	3.996156e-06
85	0xb9811aa3	-0.00024624643
86	0x3a2f6e6b	0.0006692174
87	0xb798cf69	-1.8216395e-05
88	0xb997e5f3	-0.0002897229
89	0x39b0178c	0.0003358688
90	0x3a0d6263	0.0005393384
91	0xba2e8292	-0.000665703
92	0xba2a1456	-0.00064880156
93	0x3a1595c3	0.0005706215
94	0x39fa7e8d	0.00047778003
95	0x3a610e68	0.00085852155
96	0xba00a76e	-0.00049077615
97	0xb9392d18	-0.00017659774
98	0x390bbb18	0.00013325771
99	0x38813fef	6.163108e-05
100	0x3a53a51f	0.0008073616
101	0xba58b2f7	-0.0008266414
102	0xba378d68	-0.0007001967
103	0x3915abe0	0.00014273776
104	0xba6cb1c9	-0.00090291776
105	0xba10393b	-0.0005501692
106	0x3a416dee	0.00073787465
107	0xba759096	-0.0009367553
108	0x3690eec5	4.319331e-06
109	0x39af12a5	0.00033392492
110	0x389616f9	7.156836e-05
111	0x38508ec7	4.9724036e-05
112	0xb9e6b56f	-0.00044004197
113	0xb99767b9	-0.00028878244
114	0xb7cd3bd2	-2.446576e-05
115	0xba4a226f	-0.00077108195
116	0xba77d4b5	-0.0009453998
117	0x39fb0c5e	0.00047883665
118	0x3a2c63bf	0.00065761426
119	0x3a55d321	0.0008156766
120	0xba40c303	-0.0007353278
121	0x394a93e2	0.00019319312
122	0x39a17dc8	0.00030802027
123	0x3a5ec27b	0.0008497608
124	0x367c9f18	3.764353e-06
125	0x3a582f86	0.00082468276
126	0xba401a84	-0.000732817
127	0x3a338a65	0.00068489305

encoder.5.running_mean f4 [128]
0	0x3e83905d	0.25696078
1	0xbeb3fb32	-0.35152584
2	0x3e8c292b	0.2737516
3	0x3ebfcd63	0.37461385
4	0x3ecc66c3	0.3992215
5	0x3d887010	0.06661999
6	0x3e95c3ad	0.2925085
7	0xbea999e7	-0.3312523
8	0x3e61883e	0.22024629
9	0x3e323e1d	0.17406507
10	0x3e40e083	0.18835644
11	0xbe0da1cb	-0.1383125
12	0xbe510da4	-0.2041536
13	0x3ecde13e	0.4021091
14	0x3f10aa19	0.5650955
15	0x3db64fda	0.08901949
16	0xbd43b0ca	-0.04777602
17	0x3e548429	0.2075354
18	0xbe71e3ee	-0.23622105
19	0x3ec91d88	0.39280343
20	0x3ecb5805	0.3971559
21	0xbcf0be5a	-0.029387642
22	0x3e95d9b4	0.29267657
23	0xbf1c34cf	-0.6101808
24	0x3e0db236	0.13837513
25	0x3ec88969	0.39167336
26	0xbf010606	-0.50399816
27	0x3c80716c	0.015679084
28	0xbe894718	-0.26812053
29	0x3e2cb003	0.16864018
30	0x3d17c430	0.037052333
31	0xbea121d4	-0.3147112
32	0xbe6bd5be	-0.23030755
33	0x3da874cc	0.08225402
34	0xbe0b266a	-0.13588873
35	0x3f08438c	0.5322807
36	0xbe822fe2	-0.25427157
37	0x3e22362b	0.15840976
38	0xbe0d2977	-0.13785349
39	0x3cc59328	0.024118021
40	0xbdc61c61	-0.096733816
41	0xbe3318f1	-0.17489983
42	0xbcc7a350	-0.024369866
43	0xbeb975b6	-0.3622262
44	0xbdfeb775	-0.124373354
45	0x3d9bed6d	0.07613645
46	0x3dae08d1	0.08497775
47	0xbdc01597	-0.09379118
48	0xbe2e1fd0	-0.17004323
49	0xbeb96819	-0.36212233
50	0xbe92b2f5	-0.28652158
51	0xbe871ca5	-0.26389042
52	0xbd884499	-0.06653709
53	0xbef8540d	-0.48501626
54	0x3e175b54	0.14780933
55	0xbeda95fe	-0.4269256
56	0x3e7f27b8	0.24917495
57	0xbeea5826	-0.45770377
58	0x3ea949c9	0.33064106
59	0xbea28d21	-0.31748298
60	0xbebf12c4	-0.37319005
61	0xbeda19db	-0.4259785
62	0xbebebe10	-0.3725438
63	0x3d00888c	0.03138022
64	0xbdfc6638	-0.12324184
65	0x3f1eb31c	0.6199205
66	0x3efa1e0d	0.48851052
67	0x3eae5d67	0.34055635
68	0x3dbae4ff	0.09125709
69	0x3e676e7d	0.22600742
70	0xbec14a22	-0.3775187
71	0x3d5074c5	0.05089261
72	0xbdc65560	-0.09684253
73	0xbe361782	-0.17782405
74	0xbe08ec42	-0.13371375
75	0x3d67edb4	0.056623176
76	0xbf091722	-0.5355092
77	0xbea88745	-0.32915702
78	0x3ee1e52d	0.4412016
79	0x3e9e07fb	0.30865464
80	0xbe9b1306	-0.3028795
81	0x3d000d19	0.03126249
82	0x3f15fda5	0.58590156
83	0x3f41f8a4	0.7577002
84	0x3e9ae061	0.30249313
85	0xbe835e8d	-0.25658074
86	0x3ea51b94	0.32247603
87	0x3e8f0aea	0.27938014
88	0xbd671a62	-0.056421645
89	0x3f032e8a	0.5124289
90	0x3e1c3a69	0.15256657
91	0xbe8cdc5d	-0.27511874
92	0xbd5ef322	-0.05443109
93	0xbe24eab6	-0.1610516
94	0xbf00ef90	-0.50365543
95	0xbe9d0d32	-0.3067413
96	0xbd1ce339	-0.038302634
97	0x3e8f78ef	0.28021953
98	0xbe6bee3b	-0.23040096
99	0xbecd2711	-0.40068868
100	0xbeef6321	-0.46755317
101	0xbe884d82	-0.26621634
102	0x3edc36b8	0.43010497
103	0xbedfbe46	-0.43699855
104	0xbd03b17e	-0.03215169
105	0x3e2a816d	0.16650935
106	0xbd920b62	-0.07131077
107	0x3d7930f9	0.06083772
108	0xbe0abe89	-0.13549246
109	0x3e22cee6	0.15899238
110	0x3e1a98d6	0.15097365
111	0xbe400ea5	-0.18755586
112	0xbe6a276b	-0.228666
113	0x3eefaee9	0.46813133
114	0xbee3e8b0	-0.44513464
115	0x3e9ec57e	0.3101005
116	0x3f3e6282	0.7436906
117	0x3e3a04a8	0.18165839
118	0xbd0f16a5	-0.034933705
119	0xbdcc7445	-0.09983114
120	0x3d2dd26a	0.042436995
121	0xbcf013e0	-0.029306352
122	0x3eef60f1	0.46753648
123	0x3e73d7a7	0.23812734
124	0x3e56b970	0.20969176
125	0x3ee30717	0.44341347
126	0x3d969f5d	0.07354615
127	0xbf560d2e	-0.8361386

encoder.5.running_var f4 [128]
0	0x3e34e9d1	0.17667319
1	0x3e27807e	0.1635761
2	0x3e5b8cde	0.21440455
3	0x3e658787	0.22414981
4	0x3ee94fb2	0.45568615
5	0x3da17408	0.07883459
6	0x3e502243	0.2032557
7	0x3e9ba452	0.30398804
8	0x3e065c79	0.13121213
9	0x3e1a293d	0.15054794
10	0x3e9740c6	0.29541606
11	0x3e5b113f	0.21393298
12	0x3dc05871	0.09391869
13	0x3dd6ce5f	0.10488581
14	0x3e5108fe	0.20413586
15	0x3e165c7f	0.14683722
16	0x3df0cffb	0.11758419
17	0x3ea1ca47	0.31599638
18	0x3da61a48	0.081104815
19	0x3e35c2c3	0.17750077
20	0x3e2ae112	0.1668742
21	0x3de69529	0.11258919
22	0x3da0daf9	0.07854266
23	0x3e87682a	0.26446658
24	0x3dc1606f	0.094422214
25	0x3e2e897c	0.17044634
26	0x3eaefc29	0.34176758
27	0x3e641d99	0.22276916
28	0x3e2e5833	0.17025833
29	0x3e3dd8fa	0.18539801
30	0x3eb16d24	0.3465358
31	0x3df3bc98	0.11901206
32	0x3dce8dcc	0.10085639
33	0x3de41174	0.111361414
34	0x3e429027	0.19000302
35	0x3e884c02	0.2662049
36	0x3e093b25	0.13401468
37	0x3ddc9a21	0.10771585
38	0x3e5cb321	0.21552707
39	0x3de48316	0.11157815
40	0x3ef47e72	0.4775272
41	0x3e38ddc1	0.18053342
42	0x3dc152f2	0.09439649
43	0x3e2f588a	0.17123619
44	0x3e36d197	0.1785339
45	0x3e10512b	0.14093463
46	0x3d9d3fc6	0.076781794
47	0x3e2069dc	0.15665382
48	0x3e023d0d	0.12718602
49	0x3e075594	0.13216239
50	0x3df0eef1	0.117643245
51	0x3ddea719	0.10871715
52	0x3eb4b8f2	0.35297352
53	0x3e633e22	0.2219167
54	0x3de9856d	0.11402402
55	0x3df1ce08	0.118068755
56	0x3dd46abb	0.1037192
57	0x3e6ea7e9	0.2330624
58	0x3e96977e	0.29412454
59	0x3e4a74d3	0.19771127
60	0x3ec4edcb	0.38462672
61	0x3e5c98ed	0.21542712
62	0x3e48d051	0.19610716
63	0x3eb9eb34	0.36312258
64	0x3e008a0b	0.12552659
65	0x3ea61cff	0.32443997
66	0x3e85b380	0.2611351
67	0x3ea58e0a	0.3233493
68	0x3e2de121	0.16980411
69	0x3da99c79	0.08281798
70	0x3e44c023	0.1921392
71	0x3e37a836	0.17935261
72	0x3e466e87	0.193781
73	0x3dd04229	0.10168869
74	0x3da0a51a	0.078439906
75	0x3e0a4c8a	0.1350576
76	0x3e52e74e	0.20596048
77	0x3e0afa21	0.13571979
78	0x3e0d83d4	0.1381982
79	0x3e2d6318	0.16932333
80	0x3e18778f	0.14889358
81	0x3e2a7861	0.16647483
82	0x3e8dd6c0	0.27702904
83	0x3eda4032	0.42627102
84	0x3eb28f34	0.3487488
85	0x3e73b6c9	0.23800196
86	0x3e7303a4	0.23731858
87	0x3e019ce4	0.12657505
88	0x3d942a23	0.072345994
89	0x3e8c12a7	0.2735798
90	0x3dcf9260	0.10135341
91	0x3d89959e	0.0671799
92	0x3e85fce8	0.26169515
93	0x3dce15a6	0.10062723
94	0x3e08c052	0.13354614
95	0x3e9e6470	0.30936003
96	0x3e954a09	0.29158047
97	0x3e444911	0.19168498
98	0x3e0dc6ae	0.13845322
99	0x3e76bbcd	0.24095078
100	0x3e27ef3a	0.16399851
101	0x3dfbffff	0.12304687
102	0x3e06e96d	0.13174982
103	0x3ebdfb6f	0.3710589
104	0x3dc4fbc0	0.0961833
105	0x3e101a6d	0.1407258
106	0x3e1522b0	0.14564013
107	0x3ea2e54a	0.3181556
108	0x3d734130	0.05938834
109	0x3e123187	0.14276706
110	0x3e3e2572	0.18568972
111	0x3e0c5b7b	0.13706772
112	0x3e94e363	0.29079732
113	0x3e3a61fb	0.18201439
114	0x3e2b3ad5	0.16721661
115	0x3eba3149	0.36365727
116	0x3e81a24a	0.2531913
117	0x3db2d5ac	0.08732161
118	0x3db63dc6	0.08898501
119	0x3dfdc950	0.12391913
120	0x3d7b23e5	0.06131353
121	0x3e13fbc8	0.14451516
122	0x3e1375f0	0.14400458
123	0x3e08e921	0.13370182
124	0x3ea2bf03	0.31786355
125	0x3eac093d	0.33600798
126	0x3d88106e	0.06643759
127	0x3e9a9ee1	0.3019934

decoder.0.weight f4 [64, 128, 3, 3]
0	0xbc7fdd39	-0.015616708
1	0xbb7d4bd2	-0.0038649929
2	0xbc266fd7	-0.010158501
3	0x3cae6a50	0.021290928
4	0xbc673cb2	-0.014113592
5	0x3b20440a	0.0024454617
6	0xbc48fb77	-0.012266985
7	0xbc81a088	-0.015823618
8	0xbc5fa09d	-0.013649133
9	0x3c4d0af1	0.012514816
10	0x3b12abb7	0.0022380182
11	0x3cbbe492	0.02293614
12	0x3ac0d4a9	0.0014711815
13	0x3c44fd80	0.01202333
14	0x3c99dbe0	0.018781602
15	0xbba4bf58	-0.0050276928
16	0xbcddf2d1	-0.027093323
17	0xbc66ff53	-0.01409896
18	0x3cbb6fb5	0.022880415
19	0xbb649164	-0.0034876699
20	0x3cb472f1	0.022027465
21	0xbb32d61c	-0.0027288264
22	0xbce8a7af	-0.02840027
23	0xbc7dbb60	-0.015486568
24	0xbceff301	-0.029290678
25	0xbce97107	-0.028496278
26	0x3cedfa89	0.029050129
27	0x3cc7719c	0.024346165
28	0xbcb7b7e7	-0.022426559
29	0xbbc3a713	-0.0059708445
30	0xbbceecbf	-0.0063148434
31	0xbce6e609	-0.028185861
32	0x3ce18db4	0.02753339
33	0x3caffda7	0.021483256
34	0xbc8b3df8	-0.016997322
35	0xbc54b8e5	-0.012983535
36	0x3c027724	0.007962976
37	0x3ca7b52f	0.020472137
38	0xbcb484b2	-0.02203593
39	0xbc1f17b1	-0.009710238
40	0x3cd02aa1	0.025410952
41	0x3cc4e46f	0.024034707
42	0x3ba15399	0.0049232957
43	0xbb6029e5	-0.0034204659
44	0xba5f10d7	-0.0008509284
45	0x3c0bea99	0.008539819
46	0xbc966397	-0.018358035
47	0xbcdc90b9	-0.026924478
48	0x3c9ef7c0	0.019405246
49	0x3cd93a10	0.026516944
50	0xbbf0be93	-0.007346937
51	0x3cdb605f	0.026779352
52	0xbcc3bdf1	-0.023894282
53	0xbb227717	-0.0024790221
54	0xbc43b794	-0.011945624
55	0xbc88638c	-0.01664903
56	0x3c3a9787	0.011388666
57	0x3cc8a53b	0.02449285
58	0xbce9d2db	-0.028542927
59	0xbba08d0d	-0.004899627
60	0xbc85528b	-0.016274711
61	0xbca8c5dc	-0.02060216
62	0xbb83d7c0	-0.004023522
63	0x3c504b61	0.012713284
64	0xbcecbedb	-0.0288996
65	0x3ce7db46	0.0283028
66	0x3ca2ef21	0.019889416
67	0xbc7a7753	-0.015287238
68	0x3c95d515	0.018290082
69	0x3c915d28	0.017744616
70	0x3b815489	0.003946845
71	0x3ac6e20b	0.0015173567
72	0x3c516cf9	0.012782329
73	0x3cc4c860	0.024021327
74	0xbc59ff5e	-0.013305513
75	0x3c82f6b3	0.015986776
76	0xbb378645	-0.0028003615
77	0x3cb3f47a	0.021967161
78	0xbc8c4557	-0.017122908
79	0x3b087e8d	0.0020827383
80	0xbcf55bd3	-0.029951012
81	0x3bff565b	0.007792277
82	0xbbaeeb88	-0.005338136
83	0xbbdbecc8	-0.006711576
84	0xbb9d73bd	-0.004805057
85	0x3b71df8a	0.0036906921
86	0xbcb6383a	-0.022243608
87	0x3b118946	0.0022207065
88	0xbc8d33f7	-0.017236693
89	0x3c080d1c	0.008303907
90	0xbbc0e5b1	-0.0058867563
91	0x3b9769ea	0.0046207802
92	0x3b23b33e	0.0024978663
93	0x3c1d85ff	0.009614467
94	0x3c3278bd	0.010893044
95	0xba2e88d3	-0.00066579616
96	0x3c969a92	0.018384252
97	0xbc98e402	-0.01866341
98	0x3b745aba	0.0037285523
99	0xbc6d4907	-0.014482743
100	0xbce09564	-0.027414985
101	0xbc51243f	-0.012764989
102	0xbc8d8333	-0.017274475
103	0xbca3169c	-0.019908242
104	0x3b4614e3	0.0030224852
105	0x3c44f800	0.012022018
106	0x3c5cf24b	0.0134855015
107	0xbce5c729	-0.028049069
108	0xbcd62d8c	-0.026144765
109	0xbba974bb	-0.005171386
110	0x3c65e124	0.0140307285
111	0x3c92a0bc	0.01789891
112	0xbc5b550c	-0.013386976
113	0xbc20ca32	-0.009813832
114	0x3c46fd6a	0.01214538
115	0x3bd96276	0.006634052
116	0xbc5a14ec	-0.013310652
117	0xbc3770b4	-0.011196304
118	0xbb9da008	-0.004810337
119	0xbc291507	-0.010319955
120	0x39b08a90	0.00033672573
121	0x3c1d6b79	0.009608143
122	0xbb8f83e1	-0.004379735
123	0x3b598e1c	0.0033196276
124	0xbc0824ee	-0.008309586
125	0xbcc68910	-0.024235278
126	0xbcea40c5	-0.028595338
127	0x3a9b11dc	0.0011830884
128	0xbcbb9afe	-0.022901054
129	0xbc90a8ee	-0.017658677
130	0xbbb9ff7e	-0.005676209
131	0xbbe059f6	-0.0068466617
132	0x3c5851ad	0.013203067
133	0x3c1177e9	0.008878686
134	0xbc9619eb	-0.018322906
135	0x3b7c84d8	0.003853133
136	0x3c226ef3	0.009914148
137	0xbbc59312	-0.006029495
138	0x3c5ca0af	0.013466044
139	0xbc8aa40d	-0.016923929
140	0x3c1de503	0.00963712
141	0xbada141e	-0.0016638075
142	0x3b7b5280	0.0038348734
143	0xbadc846f	-0.0016824136
144	0xbcc112fc	-0.023568623
145	0xbcc6be39	-0.024260627
146	0xbc058dc5	-0.008151476
147	0xbc6bca6e	-0.014391525
148	0xbcde5a92	-0.027142797
149	0xbcabdc3c	-0.02097904
150	0xbcda9896	-0.026684087
151	0x3b0b98e6	0.0021300851
152	0x3ca14076	0.019684058
153	0xbccddf10	-0.025130779
154	0x3cb679e9	0.022274928
155	0x3c3c88f5	0.0115072625
156	0xbab72b49	-0.0013974692
157	0xbbe60eda	-0.0070208134
158	0xbb7d2dc6	-0.003863202
159	0xbc119656	-0.008885941
160	0x3c05fafd	0.008177516
161	0xbc8320ff	-0.016006945
162	0xbc9beb71	-0.019033166
163	0x3c772998	0.0150856
164	0x3bcce4e1	0.0062528704
165	0xbcef38f2	-0.029201958
166	0x3ce3f7e8	0.027828172
167	0xbc440e89	-0.011966356
168	0xbcf0ea2e	-0.02940854
169	0x3bd5c042	0.006523163
170	0x3c41233a	0.011788184
171	0x3c97b04f	0.018516688
172	0xbcdf2086	-0.027237188
173	0x3c3fb373	0.011700499
174	0x3b3d9771	0.0028929377
175	0xbba2b2d6	-0.0049651666
176	0x3bc48969	0.005997826
177	0xbc83acd1	-0.016073616
178	0x3bc932c4	0.006140085
179	0xbcbb97a8	-0.022899464
180	0x3baad807	0.0052137407
181	0xbbf2634d	-0.0073970915
182	0xbc9417b1	-0.018077703
183	0xbc80ee4a	-0.015738625
184	0x3c5c674e	0.013452364
185	0x3c17af32	0.009258078
186	0xbba114aa	-0.0049157934
187	0x3c95b8f5	0.018276671
188	0x3cceb110	0.025230914
189	0x3bb7200c	0.005588537
190	0xbcf3ad55	-0.029745737
191	0x3c3ee1fb	0.011650558
192	0xbcf72d21	-0.030172886
193	0x3c78c336	0.015183261
194	0x3c302c16	0.010752698
195	0x3bd9fa93	0.006652185
196	0x3afe2aa6	0.0019391372
197	0xbb294c47	-0.0025832818
198	0x3cf21305	0.029550085
199	0x3c92c1e7	0.017914725
200	0x3c9909d7	0.01868145
201	0xbc8a041c	-0.016847663
202	0xbc0e8b1a	-0.008700157
203	0x3c69a3bf	0.0142602315
204	0x3b5cde1c	0.0033701723
205	0x3c4a8c2b	0.01236252
206	0xbceff49d	-0.029291445
207	0x3c9370d7	0.017998142
208	0x3cbf4bad	0.023351515
209	0x3cedb091	0.029014857
210	0xbb39b9df	-0.0028339548
211	0xbc3be1ae	-0.01146738
212	0x3bbc5763	0.005747722
213	0x3cd351dd	0.025795871
214	0x3c55d2bf	0.013050734
215	0xbcc47d51	-0.023985537
216	0xbb31502d	-0.0027055845
217	0x3cc31eab	0.023818335
218	0xbcedd53a	-0.029032338
219	0x3bfa8b7c	0.0076460224
220	0x3bb4308b	0.005498951
221	0x3c34afd0	0.011028245
222	0x3aaccc63	0.0013183471
223	0x3c2e26d3	0.010629374
224	0xbc896e45	-0.016776213
225	0xba230264	-0.0006218313
226	0x3c480617	0.012208483
227	0xbce5f864	-0.028072543
228	0x3ca0df5a	0.019637752
229	0xbc005ffa	-0.007835383
230	0x3bc26af7	0.0059331614
231	0x3c57d10e	0.013172401
232	0xbbb5c611	-0.005547293
233	0xbc344843	-0.011003557
234	0x3cbdc233	0.02316389
235	0x3bea2f85	0.007146778
236	0x3cd99e3e	0.026564714
237	0xbbd3e217	-0.006466161
238	0x3cdc20e1	0.026871147
239	0xbc864c9f	-0.016393958
240	0xbb92a4ee	-0.0044752276
241	0x3a8098f9	0.0009811214
242	0xbc86ef09	-0.016471403
243	0x3c640c8b	0.013919006
244	0x3ce58a8c	0.028020166
245	0x3c8aada3	0.0169285
246	0x3c7e7c58	0.015532576
247	0xbc39e00f	-0.011344924
248	0x3c25e137	0.010124496
249	0x3c7d91f1	0.01547669
250	0x3bcdca5d	0.006280227
251	0xbca8e9dc	-0.020619325
252	0xbc2fd58d	-0.010732067
253	0xbcd593b8	-0.026071414
254	0xbcee8e2c	-0.029120527
255	0x3c8d228e	0.017228391

decoder.0.bias f4 [64]
0	0x3c26478c	0.010148894
1	0x3c65bf3c	0.014022645
2	0x3c56dc77	0.013114086
3	0x3ca7695c	0.020435981
4	0xbca8f752	-0.020625744
5	0x3cbff00e	0.023429897
6	0xbcbf098c	-0.023319982
7	0xbc8fe73c	-0.017566316
8	0xbcb0ff86	-0.021606218
9	0xbc6296a9	-0.0138298655
10	0x3c01b711	0.007917182
11	0x3b2ef4fb	0.0026696313
12	0xbcc38f8c	-0.02387216
13	0x3bec7059	0.0072155413
14	0xbc52fedb	-0.012878145
15	0x3b915df1	0.0044362475
16	0x3cba7304	0.022759922
17	0xbc08ff2b	-0.008361618
18	0x3c51b6f3	0.012799966
19	0xbc95d3f8	-0.018289551
20	0xbcdc16b9	-0.026866304
21	0x3b07619f	0.0020657552
22	0xbcea751b	-0.028620293
23	0x3c5a7a5a	0.013334835
24	0xbcd98c63	-0.0265562
25	0xbbd6810a	-0.0065461444
26	0xbcde5260	-0.027138889
27	0xbcdf90d5	-0.027290741
28	0xbc4241b5	-0.011856486
29	0xbcad1568	-0.021128371
30	0xbc1be86f	-0.009515866
31	0x3cf086d3	0.029361164
32	0xbcc60f69	-0.02417727
33	0xbc15b22d	-0.009136719
34	0x3c877a00	0.016537666
35	0xbc4e4dfa	-0.012591833
36	0x3b25346e	0.0025208252
37	0xbc302fe0	-0.010753602
38	0x3c83c535	0.016085247
39	0x3cbeaa28	0.023274496
40	0x3cd36eea	0.025809724
41	0xbc266398	-0.010155581
42	0xbc5c5090	-0.013446942
43	0x3c69fbc7	0.01428122
44	0xbb8c2150	-0.004276432
45	0xbc533617	-0.012891314
46	0x3ce7ea19	0.028309869
47	0x3ce489fb	0.027897825
48	0xbc88f20e	-0.016716983
49	0x3ba9cc0e	0.005181796
50	0xbbcef8de	-0.0063162884
51	0x3cab10f2	0.020882104
52	0xbb07d0c8	-0.0020723809
53	0x3a863901	0.0010240377
54	0xbbfa6d61	-0.0076424335
55	0xbc13d0f7	-0.009021989
56	0xb9f0b03d	-0.00045907675
57	0x3c8fe887	0.017566932
58	0xbcc3c3a0	-0.023896992
59	0xbc875439	-0.016519653
60	0xba8306dc	-0.0009996551
61	0x3ca03771	0.019557687
62	0x3ceaf1c8	0.028679743
63	0x3c8a9287	0.016915573

decoder.1.weight f4 [64]
0	0x3f7fba79	0.9989391
1	0x3f8012f2	1.0005782
2	0x3f800f06	1.0004585
3	0x3f80054d	1.0001618
4	0x3f7ff006	0.9997562
5	0x3f800454	1.0001321
6	0x3f801a4f	1.0008029
7	0x3f7fcba5	0.9992011
8	0x3f7fd257	0.9993033
9	0x3f7ff611	0.9998484
10	0x3f801aeb	1.0008215
11	0x3f801727	1.0007066
12	0x3f7fc8bc	0.9991567
13	0x3f7fced1	0.9992495
14	0x3f800d91	1.000414
15	0x3f7fe83b	0.9996373
16	0x3f7fe1f0	0.9995413
17	0x3f7fc9a0	0.9991703
18	0x3f7fe0ec	0.9995258
19	0x3f7fed38	0.9997134
20	0x3f800bc0	1.0003586
21	0x3f80179b	1.0007204
22	0x3f7fe64f	0.999608
23	0x3f800f7b	1.0004724
24	0x3f7fda24	0.9994223
25	0x3f8006f9	1.0002128
26	0x3f801f4a	1.0009549
27	0x3f8010f6	1.0005176
28	0x3f801321	1.0005838
29	0x3f7fe80b	0.99963444
30	0x3f7fc143	0.9990427
31	0x3f7fbf26	0.99901044
32	0x3f7fc678	0.99912214
33	0x3f7fd58c	0.9993522
34	0x3f802057	1.0009869
35	0x3f7fef85	0.9997485
36	0x3f801bb6	1.0008457
37	0x3f7ff81d	0.99987966
38	0x3f800675	1.000197
39	0x3f7fec30	0.9996977
40	0x3f7fda50	0.99942493
41	0x3f8022c7	1.0010613
42	0x3f7fbb28	0.9989495
43	0x3f7fec65	0.99970084
44	0x3f8020aa	1.0009968
45	0x3f7fe71f	0.9996204
46	0x3f801efa	1.0009453
47	0x3f7ff74f	0.9998674
48	0x3f7fd9c5	0.99941665
49	0x3f7fd6d2	0.99937165
50	0x3f7fc914	0.99916196
51	0x3f7fdd19	0.99946743
52	0x3f800be8	1.0003633
53	0x3f801e97	1.0009335
54	0x3f801f76	1.0009601
55	0x3f801e52	1.0009253
56	0x3f7ff956	0.9998983
57	0x3f800054	1.00001
58	0x3f801bbc	1.0008464
59	0x3f7fe348	0.9995618
60	0x3f80195f	1.0007743
61	0x3f800863	1.000256
62	0x3f800c0d	1.0003678
63	0x3f8004d1	1.000147
