checkpoints/2025-06-02-15-38-23/last_epoch.pth (torch, 686901 bytes, 25 tensors)

encoder.0.weight f4 [64, 3, 3, 3]
0	0xbe08b07c	-0.13348573
1	0x3d558652	0.05213005
2	0xbe1ad97e	-0.15122029
3	0x3d33571c	0.043784246
4	0x3d9559f3	0.07292547
5	0x3d065202	0.032793052
6	0xbe2823c2	-0.1641989
7	0xbda912a8	-0.082555115
8	0x3d7b0518	0.061284155
9	0x3e13c064	0.1442886
10	0x3d967ef5	0.07348434
11	0xbd47aae9	-0.048746977
12	0xbdc10edf	-0.094266646
13	0xbdc5661c	-0.096386164
14	0xbd0e974b	-0.034812253
15	0xbdc9b8e1	-0.09849716
16	0x3d8d7f14	0.06909004
17	0xbd22f7e9	-0.039787207
18	0xbd70f193	-0.058824133
19	0xbd9baefe	-0.076017365
20	0xbe2d3cec	-0.16917771
21	0x3dc46f75	0.09591571
22	0x3d18a614	0.03726776
23	0x3e32291d	0.17398496
24	0x3d98657c	0.074412316
25	0x3e226273	0.15857868
26	0x3d28b570	0.041188657
27	0x3e2813b2	0.16413763
28	0xbb1c5e33	-0.0023859858
29	0xbc95aecf	-0.018271832
30	0xbcd27d78	-0.025694594
31	0xbdf4398d	-0.119250394
32	0x3d4d42ab	0.050112408
33	0xbde5fbd7	-0.11229675
34	0xbd833c86	-0.06408028
35	0x3e0d9ddc	0.1382975
36	0x3cefb278	0.029259905
37	0x3e1936c5	0.14962299
38	0xbdbc2e7b	-0.09188553
39	0x3cecfc5e	0.028928932
40	0x3dcec7d9	0.10096712
41	0xbe157c54	-0.14598209
42	0xbdfaa92f	-0.122393005
43	0xbc55173a	-0.013006026
44	0xbd8d44a0	-0.06897855
45	0xbd783f95	-0.06060751
46	0xbe2ef257	-0.17084633
47	0xbcbdf958	-0.023190185
48	0x3dc4e36b	0.09613689
49	0xbd4629a5	-0.04837956
50	0x3e27cf65	0.16387708
51	0x3e0aab7d	0.1354198
52	0x3e41c29b	0.18921892
53	0x3e076efa	0.13225928
54	0x3dcb82aa	0.099370316
55	0xbcfb2177	-0.030655606
56	0xbe032895	-0.1280845
57	0x3c73bcea	0.014876584
58	0x3dbae2e1	0.09125305
59	0xbd9fce2b	-0.07802995
60	0xbe1f9f1d	-0.1558804
61	0xbc994d2c	-0.018713556
62	0xbd8bedde	-0.06832479
63	0x3e01b593	0.12666921
64	0xbd391585	-0.04518654
65	0x3e12de2d	0.14342566
66	0xbe02fc8b	-0.1279165
67	0x3db68385	0.08911804
68	0xbe00e919	-0.1258892
69	0x3e3146f6	0.17312226
70	0x3ccc588a	0.024944562
71	0xbde2da9f	-0.11076855
72	0xbe318a6a	-0.17337957
73	0xbd7b310f	-0.061326083
74	0x3ae8119d	0.0017705444
75	0x3d006fc6	0.031356595
76	0xbdd01b86	-0.101615
77	0xbc3ca7c5	-0.011514609
78	0xbe3fdedd	-0.1873736
79	0x3a9432a9	0.0011306602
80	0xbe392635	-0.18080981
81	0xbe1344ff	-0.14381789
82	0x3d739bda	0.059474804
83	0x3d9623f3	0.073310755
84	0xbda057c0	-0.07829237
85	0xbe0878fa	-0.13327399
86	0x3e0149dc	0.12625831
87	0x3dcb1321	0.09915758
88	0xbd2e6ee0	-0.042586207
89	0x3db9401e	0.090454325
90	0x3e3bc06c	0.18335122
91	0xbe11ec02	-0.14250186
92	0xbde49e9c	-0.11163065
93	0xbe1e3c09	-0.15452589
94	0xbddcc14b	-0.10779055
95	0xbd93ba81	-0.07213307
96	0x3dda4a65	0.10658721
97	0x3c0acccc	0.008471679
98	0x3dfaac54	0.122399
99	0x3b74a4ba	0.003732963
100	0xbdfb455e	-0.1226909
101	0x3e10982f	0.14120553
102	0x3b020ec6	0.0019845231
103	0xbdb6cff4	-0.08926383
104	0x3e24f8c9	0.16110529
105	0x3dd3bb96	0.103385136
106	0xbdd68bfe	-0.1047592
107	0xbd8a8342	-0.06763317
108	0xbe1fb37e	-0.15595815
109	0xbdfbfdcc	-0.12304267
110	0xbdc2e287	-0.09515863
111	0xbd46340c	-0.04838948
112	0xbe1ca528	-0.15297377
113	0xbd10b1d2	-0.035325833
114	0x3dc4660a	0.09589775
115	0xbd99d130	-0.075106025
116	0x3e343259	0.17597331
117	0x3d59068e	0.052984767
118	0x3d7764d0	0.060398877
119	0x3ce49ed9	0.027907776
120	0x3e22e343	0.15907006
121	0xbe15282d	-0.14566107
122	0x3deb93a5	0.1150277
123	0x3dd3cdd1	0.10341991
124	0xbe1b435a	-0.15162411
125	0x3d8a9a34	0.06767693
126	0x3d4b8488	0.04968694
127	0x3d8cc1f3	0.068729304
128	0xbd7ceed9	-0.06175122
129	0xbc97e2c0	-0.01854074
130	0xbde6e1e8	-0.11273557
131	0xbe3066b4	-0.17226678
132	0x3e188502	0.14894488
133	0xbd487fd0	-0.048950016
134	0x3dbdc36e	0.09265791
135	0xba93b18c	-0.0011268123
136	0x3d669123	0.056290757
137	0xbda35d4c	-0.07976779
138	0xbe32cbc9	-0.1746055
139	0xbd10f902	-0.035393722
140	0x3d6f6e8b	0.05845503
141	0xbe101906	-0.14072046
142	0x3db6ed4f	0.08931982
143	0x3e4347cf	0.19070362
144	0x3d3d89b5	0.046273906
145	0x3dbf010a	0.0932637
146	0x3df6032f	0.12012326
147	0xbde2d5b8	-0.1107592
148	0x3c85399a	0.016262818
149	0x3e318f5f	0.17339848
150	0xbdd2acc4	-0.10286859
151	0x3d78aa9f	0.060709592
152	0xbdae85d2	-0.08521618
153	0x3d099bb7	0.033595767
154	0xbdc37c0d	-0.09545145
155	0x3e2aff6d	0.16699
156	0x3cbeb14d	0.023277903
157	0xbe1db895	-0.15402444
158	0x3dd1396f	0.10216033
159	0xbdafc98c	-0.08583364
160	0xbd0fa65c	-0.035070762
161	0xbd952141	-0.07281733
162	0xbdaed38a	-0.085364416
163	0xbe110050	-0.14160275
164	0x3e43de63	0.19127803
165	0x3d90946b	0.070595585
166	0x3cf28382	0.029603723
167	0xbc877b5e	-0.016538318
168	0x3e1e69c6	0.15470037
169	0x3c78452a	0.015153209
170	0x3c92a46c	0.017900668
171	0xbd3ea319	-0.04654226
172	0xbdf000fd	-0.117189385
173	0x3e2b8ea6	0.16753635
174	0xbdeda243	-0.116032146
175	0xbd9c6ab9	-0.07637543
176	0x3ddd6f27	0.10812216
177	0x3ddb7c26	0.10717039
178	0x3e457694	0.19283515
179	0x3ce76e57	0.028250856
180	0xbce5bd4e	-0.02804437
181	0x3d92b236	0.07162897
182	0xbc887405	-0.016656885
183	0x3d9e15dc	0.07719013
184	0xbdc576ce	-0.09641801
185	0xbe032e76	-0.12810692
186	0x3c8d556e	0.01725265
187	0xbe1fb255	-0.15595372
188	0xbc30ca6a	-0.010790447
189	0xbdc12c96	-0.09432332
190	0xbd928de0	-0.07155967
191	0x3d993292	0.07480349
192	0x3cec5cd0	0.02885285
193	0x3da7ee29	0.08199722
194	0xbd5dc6fd	-0.05414485
195	0x3e0f72f4	0.14008695
196	0x3e1482ee	0.1450307
197	0xbddce8e1	-0.107866056
198	0xbdb7dfbf	-0.08978223
199	0xbd0a87fa	-0.033821084
200	0xbdf29b11	-0.11845983
201	0x3d478312	0.048708983
202	0xbd07dd57	-0.03317007
203	0xbc42a195	-0.0118793445
204	0x3c97e409	0.018541353
205	0xbe2bc0d2	-0.16772774
206	0xbd190a94	-0.037363604
207	0xbe08ca3b	-0.13358395
208	0xbc20e06a	-0.0098191295
209	0xbc8836df	-0.016627727
210	0x3e257075	0.1615618
211	0x3e175002	0.14776614
212	0x3e057210	0.13031793
213	0x3dea4095	0.11438099
214	0xbda2c63a	-0.07947965
215	0xbd5165d2	-0.051122494
216	0xbd741f97	-0.05960044
217	0x3cb593eb	0.02216526
218	0xbcc67b92	-0.024228845
219	0x3c7edf9d	0.015556243
220	0xbc5410b6	-0.012943437
221	0xbd8c4389	-0.06848819
222	0xbd24e3e3	-0.040256392
223	0xbe14944b	-0.14509694
224	0xbe20a266	-0.1568695
225	0xbd8a0011	-0.06738294
226	0xbd81b995	-0.06334225
227	0xbd8b4e46	-0.06802039
228	0x3cec7fb7	0.028869493
229	0xbe1dff33	-0.15429382
230	0x3d5bfae8	0.05370608
231	0xbe3e9b14	-0.18613845
232	0xbe17a864	-0.1481033
233	0xbe0358e7	-0.12826882
234	0x3e0cf8a0	0.13766718
235	0xbc6c007e	-0.014404414
236	0xbcb27d8e	-0.021788385
237	0x3e3c89e8	0.18411982
238	0x3db6de28	0.08929092
239	0x3e2ba275	0.16761191
240	0x3df42dcc	0.119227976
241	0xbde080ab	-0.109620415
242	0x3d87d00e	0.0663148
243	0xbcb77788	-0.022395864
244	0x3d7a7a47	0.06115177
245	0xbe3aef23	-0.18255286
246	0x3e14627a	0.14490691
247	0x3cfd3fa1	0.03091413
248	0x3e44efc1	0.19232084
249	0xbe2498ff	-0.16073988
250	0xbdc2fa0a	-0.095203474
251	0x3bf5de00	0.007503271
252	0xbde76212	-0.11298002
253	0xbd70ee10	-0.058820784
254	0xbd90a836	-0.07063334
255	0xbe20888c	-0.15677088

encoder.0.bias f4 [64]
0	0x3e0fa971	0.1402948
1	0x3db9a578	0.09064764
2	0xbe06c7df	-0.13162182
3	0xbd87ab89	-0.066245146
4	0xbe3cec4e	-0.18449518
5	0x3dc8d0e6	0.09805469
6	0x3ad9a78b	0.0016605718
7	0xbe423f1d	-0.18969388
8	0x3d0a75e8	0.03380385
9	0xbdd03528	-0.10166389
10	0xbc236340	-0.0099723935
11	0x3e086fa4	0.13323838
12	0x3e39bfdb	0.18139593
13	0xbdff1d06	-0.12456708
14	0xbc5af969	-0.013365128
15	0x3a1a6c39	0.000589076
16	0x3d827736	0.06370394
17	0xbbdcbb2a	-0.006736179
18	0xbb8db571	-0.004324608
19	0xbd99fe9d	-0.07519267
20	0xbdd90069	-0.10595781
21	0x3d18f65e	0.03734433
22	0x3cba307c	0.022728197
23	0x3cc371b7	0.023857934
24	0xbdbd2987	-0.09236436
25	0x3e039e73	0.12853412
26	0xbdf83d05	-0.121210136
27	0xbe137b70	-0.14402556
28	0xbdf11c37	-0.1177296
29	0xbe36f251	-0.17865874
30	0xbd972f21	-0.07382036
31	0x3d6f7d98	0.058469385
32	0xbd988f89	-0.07449252
33	0xbce7a777	-0.028278096
34	0x3e241b52	0.16026047
35	0xbe3ac433	-0.18238907
36	0x3e1e2b5b	0.15446226
37	0xbcc111f8	-0.023568138
38	0xbddc64d1	-0.10761417
39	0xbd8929c1	-0.06697417
40	0x3d4f63b4	0.050632194
41	0x3dff638e	0.124701604
42	0xbdd89a22	-0.105762735
43	0x3e2def69	0.16985859
44	0x3e0f94e6	0.14021644
45	0x3e2dcf7a	0.16973677
46	0xbe299047	-0.16558944
47	0xbce2040d	-0.027589822
48	0x3e3ca367	0.18421708
49	0xbd99df06	-0.075132415
50	0x3e3c92fe	0.18415448
51	0xbdf38db0	-0.11892259
52	0x3e066944	0.13126093
53	0x3e28440e	0.16432211
54	0x3d3c044d	0.04590254
55	0xbd5cc651	-0.053900067
56	0x3e08f34a	0.13374057
57	0x3d254382	0.040347584
58	0xbdbe92b1	-0.09305323
59	0xbccf6192	-0.02531508
60	0x3d9d80f2	0.0769061
61	0xbdd96097	-0.10614126
62	0xbd472f97	-0.04862937
63	0x3e39057a	0.18068495

encoder.1.weight f4 [64]
0	0x3f800a5b	1.000316
1	0x3f800d0c	1.0003982
2	0x3f80102a	1.0004933
3	0x3f801a92	1.0008109
4	0x3f7fc666	0.99912107
5	0x3f7fefa7	0.99975055
6	0x3f801e5c	1.0009265
7	0x3f7fbb1e	0.99894893
8	0x3f7fe02b	0.9995143
9	0x3f7fd265	0.9993041
10	0x3f800c0f	1.000368
11	0x3f8004c6	1.0001457
12	0x3f7febe1	0.999693
13	0x3f801818	1.0007353
14	0x3f7fd3a5	0.9993232
15	0x3f80042e	1.0001276
16	0x3f7fcd29	0.99922425
17	0x3f7ff74f	0.9998674
18	0x3f8019b9	1.000785
19	0x3f7fc7ce	0.9991425
20	0x3f80167f	1.0006865
21	0x3f7fe474	0.99957967
22	0x3f8010a3	1.0005077
23	0x3f7feff4	0.99975514
24	0x3f801ee2	1.0009425
25	0x3f7fdf16	0.9994978
26	0x3f8014f6	1.0006397
27	0x3f7fe6a0	0.9996128
28	0x3f7ff00e	0.9997567
29	0x3f8006f4	1.0002122
30	0x3f80198b	1.0007795
31	0x3f7fdd82	0.9994737
32	0x3f7ff92a	0.9998957
33	0x3f8012e4	1.0005765
34	0x3f7ffec6	0.9999813
35	0x3f7fc87f	0.9991531
36	0x3f801dd6	1.0009105
37	0x3f7fde10	0.99948215
38	0x3f7fe531	0.99959093
39	0x3f800f90	1.0004749
40	0x3f7fe2a0	0.9995518
41	0x3f7ff9ed	0.9999073
42	0x3f800411	1.0001241
43	0x3f7fd283	0.9993059
44	0x3f7fc679	0.9991222
45	0x3f7fe459	0.99957806
46	0x3f800f0b	1.0004591
47	0x3f801647	1.0006799
48	0x3f801a70	1.0008068
49	0x3f80037f	1.0001067
50	0x3f7ff9eb	0.9999072
51	0x3f7ff8e9	0.9998918
52	0x3f7fc2f7	0.9990687
53	0x3f7fedd9	0.999723
54	0x3f8002c0	1.0000839
55	0x3f801afc	1.0008235
56	0x3f7ff3f8	0.9998164
57	0x3f8017e8	1.0007296
58	0x3f80165d	1.0006825
59	0x3f800589	1.0001689
60	0x3f7fcdb5	0.9992326
61	0x3f8010ae	1.000509
62	0x3f7fe5b0	0.9995985
63	0x3f80180a	1.0007336

encoder.1.bias f4 [64]
0	0xb97836a8	-0.00023671484
1	0xb93a7dd4	-0.00017785217
2	0x3a514c82	0.0007984118
3	0x3a17c268	0.00057891617
4	0xba714a74	-0.0009204515
5	0xba17472e	-0.00057707995
6	0x36f82578	7.395338e-06
7	0xba8bda50	-0.0010669921
8	0xb9810132	-0.00024605688
9	0xba2d3e0b	-0.00066086714
10	0xb7bdac2d	-2.2610731e-05
11	0xb9fd3b7d	-0.00048300243
12	0x378309d2	1.562099e-05
13	0x3a27b84a	0.00063980056
14	0xba061289	-0.0005114456
15	0xb8c4af31	-9.37864e-05
16	0xba85ebe2	-0.0010217393
17	0xb6a06d52	-4.781098e-06
18	0xba2a918a	-0.00065066724
19	0xb8cf5670	-9.8866294e-05
20	0x39a92f6e	0.0003226953
21	0xb9fe9200	-0.00048555434
22	0xb8905859	-6.882911e-05
23	0xb991382b	-0.00027698404
24	0xba1e0b19	-0.00060288754
25	0xb90abfe6	-0.00013232193
26	0x39c0ed9a	0.0003679812
27	0xb921e2a6	-0.0001543859
28	0xba447db8	-0.000749554
29	0x3a36747b	0.0006960106
30	0x39447907	0.00018737103
31	0xba3ba9f2	-0.0007158808
32	0x3a24d6a5	0.0006288088
33	0x3a124d5e	0.00055809866
34	0xba015fa0	-0.00049352087
35	0xb992bf65	-0.0002798989
36	0xba60e1f9	-0.00085785944
37	0xb8cb4acf	-9.6937285e-05
38	0xba0e6a72	-0.00054327317
39	0x3a791b6e	0.00095026835
40	0xb98353d1	-0.00025048715
41	0x3a3f2714	0.0007291895
42	0x3a0a088f	0.00052655576
43	0xb9e77caf	-0.0004415265
44	0xb9e0f8df	-0.00042910033
45	0x3a858b2d	0.0010188572
46	0x3a0a5f8b	0.0005278519
47	0x3a1497b3	0.0005668357
48	0x3a5f87d0	0.00085270125
49	0xba3985a5	-0.00070771045
50	0xba695f7a	-0.0008902472
51	0xba07935c	-0.00051717996
52	0x37937d73	1.7582182e-05
53	0xb962122f	-0.00021559813
54	0xb8658aaf	-5.4727014e-05
55	0xb90dbffd	-0.00013518329
56	0x3966abe9	0.00021998551
57	0x39d0ca7a	0.00039823708
58	0x38f36eb6	0.000116077645
59	0x39d61107	0.00040829947
60	0xb9e8d4a0	-0.00044408906
61	0x39bf20a2	0.00036454672
62	0xb9d4e70a	-0.00040607929
63	0x396bbf4e	0.00022482613

encoder.1.running_mean f4 [64]
0	0x3e591abe	0.21201608
1	0x3d4da3df	0.050205108
2	0x3d188b84	0.037242427
3	0xbd416b8a	-0.047221698
4	0xbdc8df5a	-0.09808226
5	0x3daa6b87	0.083212905
6	0xbdb43c73	-0.08800592
7	0xbe4010d6	-0.18756422
8	0x3e82e967	0.25568697
9	0x3d7c4fd9	0.061599586
10	0xbead0408	-0.33792138
11	0x3bca80ee	0.0061799204
12	0xbc6f8545	-0.014619176
13	0x3c9cd7d8	0.019145891
14	0x3d6f2a5c	0.058390006
15	0x3d4073c8	0.046985418
16	0x3c78c626	0.015183961
17	0xbe50caa4	-0.20389801
18	0xbd4a7fae	-0.04943817
19	0xbe7b2f72	-0.24529818
20	0xbec73a40	-0.3891163
21	0xbe4b6b24	-0.1986509
22	0x3e3f2946	0.18668088
23	0xbe325a48	-0.17417252
24	0xbd718323	-0.058962952
25	0x3eb3da0f	0.35127303
26	0x3c909e86	0.017653715
27	0x3e84a163	0.25904378
28	0xbe8ba4e3	-0.27274236
29	0xbe0b7f64	-0.13622814
30	0xbda03c15	-0.0782396
31	0x3d78d407	0.06074908
32	0xbc5ef7f0	-0.013608918
33	0xbe6d4aa4	-0.23173004
34	0x3de224a4	0.11042145
35	0xbd9e4e48	-0.07729775
36	0x3e16494d	0.146764
37	0x3dfe5867	0.12419205
38	0xbe8ee49f	-0.279088
39	0xbe94eb91	-0.29085973
40	0x3cc60c19	0.02417569
41	0xbd762382	-0.060092457
42	0xbdfb3541	-0.12266017
43	0x3e319789	0.17342962
44	0x3e6da60f	0.23207878
45	0x3c9f8fe0	0.019477785
46	0xbe96d088	-0.29455972
47	0xbe8b7ed8	-0.27245212
48	0xbd329dab	-0.043607395
49	0xbd913c47	-0.07091575
50	0x3e323a71	0.17405106
51	0xbdfaf204	-0.12253192
52	0x3e2c5eb9	0.16833009
53	0x3e906091	0.28198674
54	0x3da0d160	0.07852435
55	0xbd02931f	-0.031878587
56	0xbe7daf36	-0.24773869
57	0xbd2677a0	-0.040641427
58	0xbe193683	-0.14962201
59	0x3dc1c602	0.09461595
60	0x3e6bddc3	0.23033814
61	0xbdc48fdd	-0.09597752
62	0xbe095c16	-0.13414034
63	0xbd8ad41b	-0.06778737

encoder.1.running_var f4 [64]
0	0x3d8a2fff	0.06747436
1	0x3ded6eb3	0.1159338
2	0x3f2d996d	0.67812234
3	0x3d5413b7	0.051776614
4	0x3ddc97c6	0.10771136
5	0x3daeb210	0.085300565
6	0x3dcfdf66	0.10150032
7	0x3d70399b	0.058648687
8	0x3f0cefe3	0.5505354
9	0x3f093539	0.53596836
10	0x3fd97d62	1.6991389
11	0x3ee4bf18	0.44677043
12	0x3f0641d1	0.5244418
13	0x3eff8553	0.49906406
14	0x3ea65778	0.32488608
15	0x3d76686f	0.06015819
16	0x3d9a79f3	0.07542791
17	0x3f2559ed	0.6459034
18	0x3dcba73e	0.09944008
19	0x3f8893d1	1.067011
20	0x3f951b0e	1.1648881
21	0x3f6995b7	0.9124407
22	0x3ed357ed	0.4127802
23	0x3f6d9770	0.928092
24	0x3d0232a5	0.03178658
25	0x3f5d081b	0.8634049
26	0x3f218cbb	0.6310536
27	0x40103083	2.252961
28	0x3ef8698d	0.4851803
29	0x3e0282c2	0.12745193
30	0x3cb2efa7	0.02184279
31	0x3d5971a4	0.05308689
32	0x3db084d2	0.086190835
33	0x3f4f041b	0.8086564
34	0x3dfe5c0a	0.12419899
35	0x3e10771d	0.14107938
36	0x3d360e91	0.044447485
37	0x3e8eef61	0.27917007
38	0x3f40ba82	0.7528459
39	0x3f673393	0.9031307
40	0x3d716b68	0.05894032
41	0x3f23b384	0.63945794
42	0x3e63cbc1	0.22245695
43	0x3e14a818	0.14517248
44	0x3e906dc7	0.28208753
45	0x3ec157f1	0.37762406
46	0x3e5f13a3	0.21784835
47	0x3f9c7f24	1.22263
48	0x3f41d770	0.75719357
49	0x3dae506c	0.08511433
50	0x3dfdbecc	0.12389907
51	0x3d10ad24	0.03532137
52	0x3d40355e	0.046925895
53	0x3e4925e5	0.19643362
54	0x3dbcf9bf	0.09227323
55	0x3d40dffc	0.04708861
56	0x404ede66	3.2323241
57	0x3df7e6ea	0.1210459
58	0x3e2b0525	0.16701181
59	0x3e25a561	0.16176368
60	0x3f140182	0.578148
61	0x3d1c1ea9	0.038115177
62	0x3e0ec4f6	0.13942322
63	0x3f38f4f5	0.72248775

encoder.4.weight f4 [128, 64, 3, 3]
0	0xbd1ebd7f	-0.038754936
1	0xbc115c1d	-0.008872059
2	0xbcd8b0d0	-0.026451498
3	0x3cf5fd11	0.030027898
4	0xbd06779c	-0.032828912
5	0xbc040ea5	-0.008060132
6	0xbd18236d	-0.03714316
7	0xbce1fdc1	-0.02758682
8	0x3d1d8c83	0.03846408
9	0xbc945c33	-0.01811037
10	0x3b900f97	0.0043963897
11	0xbd0b5a81	-0.034021858
12	0xbd216ead	-0.03941219
13	0x3b8e0c88	0.00433499
14	0xbcb4129f	-0.021981535
15	0x3ccbca94	0.02487687
16	0xbd08e610	-0.03342253
17	0xbcfb10f9	-0.030647742
18	0xbd21beb8	-0.039488524
19	0x3caa48c3	0.020786649
20	0x3d1cefeb	0.03831474
21	0x3c130b21	0.008974821
22	0xbc78873d	-0.015168962
23	0xbce710bb	-0.02820622
24	0xbc16afeb	-0.009197216
25	0xbcbfa40f	-0.023393659
26	0x3cba7b74	0.022763945
27	0xbc57cd5b	-0.013171519
28	0x3cd2454c	0.025667809
29	0xbd0b440f	-0.034000453
30	0x3cdff26a	0.027337272
31	0xbccea075	-0.025222996
32	0xbcaa0231	-0.020752998
33	0xbab4f1d1	-0.0013804977
34	0xbd28210c	-0.04104714
35	0x3aa5ad18	0.0012640087
36	0x3b28f42c	0.0025780303
37	0xbba50890	-0.005036421
38	0x3c8767b8	0.01652895
39	0x3ce5d2b6	0.028054576
40	0xbcd344be	-0.025789615
41	0xbd254fff	-0.040359493
42	0xbc25b6bc	-0.010114368
43	0xba6e145f	-0.0009082015
44	0xbc580830	-0.013185546
45	0x3d1b8bbe	0.037975065
46	0xbbb3cb03	-0.0054868474
47	0xbccdef96	-0.025138658
48	0xbd1a0fa0	-0.037612557
49	0xbcd98780	-0.02655387
50	0xbc9a969c	-0.018870644
51	0xbca76dc4	-0.020438083
52	0x3d209726	0.039206646
53	0x3d2ae4a9	0.041721974
54	0xbcb4a23b	-0.022050014
55	0xbb6fbad9	-0.0036579876
56	0xbd0962b0	-0.03354138
57	0xbcb273f2	-0.021783803
58	0x3c5fe354	0.013665039
59	0x3cbd6350	0.023118645
60	0x3d1f1945	0.03884246
61	0xbc1b219a	-0.00946846
62	0xbc38b845	-0.011274402
63	0xbd1a3f2a	-0.037657894
64	0xbca28284	-0.019837625
65	0xbd0596ad	-0.0326144
66	0x3ccc3131	0.0249258
67	0xbc54a9da	-0.012979949
68	0x3a709497	0.0009177415
69	0xbd0fe3d7	-0.035129394
70	0xbc530ef0	-0.012881979
71	0x3c200471	0.009766684
72	0x3c148288	0.009064324
73	0xbc83306d	-0.016014302
74	0x3cbadc01	0.022809984
75	0x3ce99658	0.028514072
76	0xbcad8877	-0.021183236
77	0xbbae0469	-0.0053105843
78	0xbc2630c2	-0.010143461
79	0xbc021270	-0.007938966
80	0xbaa24ed2	-0.001238311
81	0x3cd6fdab	0.026244005
82	0xbaffcd11	-0.0019516071
83	0x3d105c29	0.03524414
84	0x3c82d8b2	0.015972469
85	0x3d204880	0.03913164
86	0x3c9b2fa1	0.01894361
87	0xbcda3b9a	-0.026639748
88	0x3c271ea9	0.010200181
89	0xbb363bb2	-0.0027806577
90	0x3b1bca3d	0.0023771666
91	0xbbdefec9	-0.006805275
92	0xbc512d32	-0.012767123
93	0x3b2ed75e	0.0026678662
94	0xbcb2686b	-0.021778306
95	0xbc94ad1e	-0.018148955
96	0xba9abe1a	-0.0011805922
97	0x3d014295	0.03155764
98	0x3d0cc493	0.034367155
99	0x3d01f2f4	0.03172584
100	0x3d0cba9f	0.034357663
101	0xbd18471e	-0.037177198
102	0x3d24f532	0.0402729
103	0x3cfa1865	0.03052921
104	0x3d199a62	0.037500747
105	0xbd112dc7	-0.035444047
106	0x3ced9ff4	0.029006936
107	0xbb3bd082	-0.0028658216
108	0x3c01a472	0.007912742
109	0xbcf5abd2	-0.029989157
110	0xbc2a9ceb	-0.010413389
111	0x3c05622b	0.008141081
112	0x3c7313af	0.014836236
113	0x3cd9ce54	0.026587643
114	0x3d18daf8	0.0373182
115	0xbc9665b0	-0.018359035
116	0x3d0f95cc	0.035054967
117	0xbc1cfe5c	-0.009582128
118	0x3d02d437	0.031940665
119	0x3ceda30a	0.029008407
120	0xbd25ab1c	-0.040446386
121	0xbc9b1b00	-0.018933773
122	0xbacd9abd	-0.0015686374
123	0x3cc8a529	0.024492817
124	0x3cb73406	0.022363674
125	0x3d0a802d	0.033813644
126	0xbcb2003e	-0.021728631
127	0x3cf77f71	0.030212136
128	0xbc082a21	-0.008310826
129	0xbcf041ed	-0.02932831
130	0xbc78debb	-0.015189822
131	0x3aff0cd7	0.0019458783
132	0xbcc2c212	-0.02377418
133	0x3c32ed08	0.0109207705
134	0x3ca892a6	0.02057774
135	0x3d0f29ec	0.03495209
136	0x3c7147eb	0.014726619
137	0xbc6bd6c1	-0.014394463
138	0x3ce8fb4a	0.028440136
139	0xbc667aee	-0.014067395
140	0x3cb3d3c0	0.021951556
141	0x3c003867	0.007825947
142	0x3d115279	0.035479043
143	0x3cbcd517	0.023050828
144	0x3d022ec0	0.031782866
145	0x3ce601d2	0.02807704
146	0xbc9ff52d	-0.019526089
147	0x3a364693	0.00069532654
148	0x3b9408ae	0.0045176363
149	0xbc2c56bb	-0.010518725
150	0xbd191ef2	-0.037383027
151	0x3c3fb11b	0.01169994
152	0xbb9b9f1a	-0.004749191
153	0xbb767cd2	-0.003761102
154	0xbc13c83a	-0.009019906
155	0x3d1fb191	0.0389877
156	0xbcb48ffb	-0.022041311
157	0xbbeba7ea	-0.007191648
158	0x3ba6bc5d	0.0050883726
159	0xbc68b4ac	-0.014203232
160	0xbce3f9d1	-0.027829083
161	0xbd23c029	-0.03997818
162	0xbd072b10	-0.033000052
163	0x3b5d0fbc	0.0033731302
164	0x3c092500	0.008370638
165	0xbc112552	-0.0088589955
166	0xbd28e22c	-0.04123132
167	0x3c853fad	0.016265715
168	0x3cd0ade0	0.025473535
169	0xbd2aead3	-0.041727852
170	0x3c7da609	0.01548148
171	0xbcb7cf3c	-0.022437684
172	0xbcfbffb6	-0.03076158
173	0x3d217996	0.039422594
174	0xbc98800c	-0.018615745
175	0x3d00f007	0.031478908
176	0xbca264be	-0.019823428
177	0xbd26dd0c	-0.04073815
178	0xbd1c51c2	-0.038163908
179	0xbca84744	-0.020541795
180	0xbca0bcbe	-0.01962125
181	0x3cd16cf1	0.025564643
182	0x3b170338	0.002304269
183	0xbcd35898	-0.02579908
184	0x3c86211b	0.016373208
185	0x3a94e14d	0.0011358649
186	0x3d255d18	0.040371984
187	0xba8734d0	-0.0010315422
188	0x3b8729e1	0.0041248654
189	0x3ba1a527	0.004933018
190	0xbc2101b5	-0.009827067
191	0x3ce9553f	0.028483031
192	0xbd0035c6	-0.031301282
193	0x3bc23e16	0.0059278114
194	0xbc0c02e4	-0.008545611
195	0xbb432722	-0.0029777964
196	0xbcf212f5	-0.029550055
197	0x3b416e6d	0.0029515282
198	0x3c1c456b	0.009538035
199	0xbcdafaf4	-0.026730992
200	0x3cd1bb67	0.025602056
201	0xbc810d38	-0.015753374
202	0xbd0ffdad	-0.035154033
203	0x3bf670a8	0.007520754
204	0xbc8f56ad	-0.017497385
205	0xbca204e4	-0.019777723
206	0xbc8db730	-0.017299265
207	0xbd0e833f	-0.034793135
208	0x3d0ce91b	0.034401994
209	0xbd0dcd44	-0.034619585
210	0x3cfb8703	0.030704027
211	0x3cea5d0b	0.02860882
212	0x3b592eef	0.0033139547
213	0x3d11ff42	0.035643823
214	0xbce09e56	-0.02741925
215	0xbd065ef1	-0.032805387
216	0x3c43bf48	0.0119474605
217	0xbd166d85	-0.03672554
218	0x3abeed82	0.0014566632
219	0x3c495278	0.0122877285
220	0xbc6bf9fe	-0.0144028645
221	0x3a6ddae1	0.0009073448
222	0xbc9ae4db	-0.018907955
223	0xbc3036a3	-0.010755214
224	0xbc249c93	-0.010047096
225	0xbd027d43	-0.03185774
226	0x3d194222	0.037416585
227	0x3ae83f38	0.0017719036
228	0x3d19bc04	0.03753282
229	0xbc6508fe	-0.013979195
230	0x3c936963	0.017994588
231	0xbca5eb3f	-0.020253776
232	0x3c5afaf6	0.013365498
233	0xbc476cac	-0.0121719055
234	0x3c4411b0	0.011967108
235	0xbcd07423	-0.025446003
236	0x3acf2b7a	0.0015805804
237	0xba501d6c	-0.00079389545
238	0x3cf2f7dd	0.029659206
239	0xbc807b03	-0.015683657
240	0x3cdb7216	0.026787799
241	0xbcc8692b	-0.02446421
242	0xb8ace0f0	-8.243497e-05
243	0xbbf3bdfa	-0.0074384185
244	0x3cd03181	0.02541423
245	0xbc7f0da5	-0.015567218
246	0x3aab6104	0.0013075178
247	0x3d1e9e36	0.0387251
248	0xbcd62c4c	-0.02614417
249	0x3d13d714	0.036093786
250	0xbc5f07c9	-0.013612696
251	0xbcb4098b	-0.021977207
252	0x3cd3d885	0.02586008
253	0xbd07547e	-0.033039562
254	0xba7fc31d	-0.0009756552
255	0x3ce57f90	0.028014928

encoder.4.bias f4 [128]
0	0x3bf6b07f	0.007528364
1	0xbd08dcac	-0.033413574
2	0x399fcf6c	0.00030481385
3	0x3d0b19a3	0.033959996
4	0x3d00ab29	0.03141323
5	0x3c05e936	0.008173278
6	0x3d11eda5	0.035627026
7	0xbcad4be0	-0.021154344
8	0xbbc5b61e	-0.006033673
9	0xbc845369	-0.016153054
10	0xbc09c379	-0.008408421
11	0x3cf14100	0.02944994
12	0x39be6e88	0.00036321976
13	0x3b5eb13d	0.0033980154
14	0x3c825bbb	0.015912881
15	0x3d08ac35	0.033367354
16	0xbcb884f1	-0.022524329
17	0x3cd782a5	0.026307413
18	0x3d170057	0.03686556
19	0xba36bf96	-0.00069712976
20	0xb9c0f7d3	-0.00036805737
21	0x3b3fe7d2	0.0029282463
22	0xbcbf853d	-0.023378963
23	0x3cb0d73b	0.021587005
24	0x3bcfd4a6	0.0063424883
25	0xbcdfce2f	-0.027319996
26	0x3c0d89e8	0.008638836
27	0x3ccc2482	0.024919752
28	0xbc3b61df	-0.0114369085
29	0xbca7791c	-0.020443492
30	0x3c35b880	0.0110913515
31	0xbc95c0f4	-0.018280484
32	0x3c652bd6	0.013987502
33	0xbccc64e6	-0.024950456
34	0xbc116f47	-0.008876628
35	0xbcae5786	-0.021281969
36	0x3cbcaf21	0.023032727
37	0xbc95611c	-0.018234782
38	0xbcd9f947	-0.026608123
39	0xbc005d4c	-0.007834744
40	0x3cb457bc	0.022014491
41	0xbcd950a2	-0.026527707
42	0xbceb8f46	-0.028754842
43	0x3cd4fad3	0.025998509
44	0x3d13b794	0.036063746
45	0x3b9ab26d	0.004720977
46	0x3c441d03	0.011969808
47	0x3cc478c3	0.023983365
48	0x3d1466e1	0.036230925
49	0xbc88afce	-0.016685393
50	0x3cd1dafd	0.025617117
51	0x3becd2ad	0.007227263
52	0xbcf69af4	-0.030103184
53	0x3bf0cc13	0.0073485463
54	0xbcb9cdcc	-0.02268114
55	0x3c847630	0.016169637
56	0xbd2284f6	-0.039677583
57	0x3cddd9ce	0.027081396
58	0x3cd28a47	0.025700701
59	0x3c82ba91	0.015958102
60	0x3d0ac2d0	0.033877194
61	0x3c2bfc81	0.010497213
62	0x3beb96e8	0.0071896203
63	0x3c00e261	0.007866473
64	0xbcc3c44d	-0.023897314
65	0xbc43f481	-0.01196015
66	0x3d14e282	0.036348827
67	0x3c7d676d	0.015466553
68	0xbcc9ee03	-0.024649626
69	0x3c982ffc	0.018577568
70	0x3c3bba48	0.011457987
71	0xbd1ad58d	-0.037801314
72	0xbcd9a5a4	-0.026568241
73	0xbc3ff464	-0.011715982
74	0x3a305785	0.00067269086
75	0x3cdd0812	0.026981387
76	0xbb069d07	-0.0020540373
77	0x3cb1302e	0.02162942
78	0xbbe46377	-0.006969865
79	0xbcc10b81	-0.023565056
80	0xbc577189	-0.0131496275
81	0xbcd1add4	-0.025595583
82	0xbca4fa49	-0.020138877
83	0xbc82a7c1	-0.015949132
84	0x3cd3c21f	0.0258494
85	0xbc40a0f4	-0.011757124
86	0xbc3ee584	-0.0116514005
87	0xbc9abb94	-0.018888272
88	0xba37587c	-0.0006994081
89	0x3ccc44e1	0.024935188
90	0xbb4358d5	-0.0029807587
91	0xb91cfe71	-0.00014972106
92	0x3ce7498b	0.02823331
93	0xbb3122f2	-0.0027028886
94	0xbcfd7de4	-0.030943818
95	0xbc83274c	-0.01600995
96	0x3d185c05	0.03719713
97	0x3c59c361	0.013291211
98	0xbd2775f2	-0.040883966
99	0xbd0d19f6	-0.034448586
100	0xbce0a66f	-0.027423112
101	0xbd26c6e8	-0.040717036
102	0x3d2447d9	0.04010758
103	0x3a2352ba	0.0006230284
104	0xbc908163	-0.017639821
105	0x3c8fa7ca	0.017536063
106	0x3d1676bb	0.036734324
107	0xbbb2b5cf	-0.005453802
108	0xbd016588	-0.03159097
109	0xbcd88d97	-0.026434703
110	0xbcec8f9c	-0.028877072
111	0xbcb279f7	-0.021786673
112	0x3caab0de	0.02083629
113	0xbce254d7	-0.027628345
114	0xbcd4e592	-0.025988374
115	0x3c250b19	0.010073447
116	0x3d29e90e	0.041482024
117	0x3cd6a104	0.026199825
118	0xbd1257bd	-0.035728205
119	0x3c97adef	0.018515555
120	0xbd1c33fd	-0.038135517
121	0xbc863666	-0.016383361
122	0x39965e4d	0.0002868049
123	0x3b9f3200	0.0048582554
124	0x3ce8506a	0.028358657
125	0xbc83d9fa	-0.01609515
126	0xbd182fc5	-0.03715493
127	0x3c6af93d	0.01434165

encoder.5.weight f4 [128]
0	0x3f7fd85a	0.999395
1	0x3f7fc1ea	0.99905264
2	0x3f8019c7	1.0007867
3	0x3f7fd54e	0.9993485
4	0x3f7feb77	0.99968666
5	0x3f8020f3	1.0010055
6	0x3f7fc2d9	0.9990669
7	0x3f7fd24a	0.9993025
8	0x3f8009ed	1.0003029
9	0x3f7ff6ea	0.99986136
10	0x3f7fde63	0.9994871
11	0x3f800355	1.0001017
12	0x3f7ff17b	0.99977845
13	0x3f7fc5c5	0.9991115
14	0x3f7fe588	0.9995961
15	0x3f7ff785	0.9998706
16	0x3f8019d0	1.0007877
17	0x3f800e58	1.0004377
18	0x3f8014bf	1.0006331
19	0x3f7fecf3	0.9997093
20	0x3f800ea8	1.0004473
21	0x3f800417	1.0001248
22	0x3f7fc436	0.9990877
23	0x3f7fe813	0.9996349
24	0x3f800a79	1.0003196
25	0x3f7ffe7a	0.99997675
26	0x3f7fdb70	0.9994421
27	0x3f801721	1.0007058
28	0x3f8013a7	1.0005997
29	0x3f7ff041	0.99975973
30	0x3f80133a	1.0005867
31	0x3f7fe47c	0.99958014
32	0x3f8006b3	1.0002044
33	0x3f800387	1.0001076
34	0x3f800879	1.0002586
35	0x3f800bc7	1.0003594
36	0x3f7fd1e7	0.9992966
37	0x3f7fd2aa	0.9993082
38	0x3f8007b6	1.0002353
39	0x3f7fd547	0.9993481
40	0x3f801e77	1.0009297
41	0x3f801294	1.000567
42	0x3f7feca2	0.9997045
43	0x3f800f0f	1.0004596
44	0x3f7fcb5b	0.9991967
45	0x3f7fd3ca	0.9993254
46	0x3f8007fc	1.0002437
47	0x3f7fe20e	0.9995431
48	0x3f7fcd34	0.9992249
49	0x3f7fbf7f	0.99901575
50	0x3f7fc87f	0.9991531
51	0x3f801c90	1.0008717
52	0x3f7ff7b3	0.99987334
53	0x3f7ff0a1	0.99976546
54	0x3f7fd078	0.99927473
55	0x3f800b3d	1.000343
56	0x3f80154b	1.0006498
57	0x3f8012db	1.0005754
58	0x3f7fd039	0.999271
59	0x3f8021fe	1.0010374
60	0x3f7fc17b	0.999046
61	0x3f802069	1.0009891
62	0x3f801861	1.000744
63	0x3f7fda35	0.9994233
64	0x3f7fbfca	0.9990202
65	0x3f7fd976	0.99941194
66	0x3f7fc4ae	0.99909484
67	0x3f7fd4e7	0.9993424
68	0x3f7fec19	0.9996963
69	0x3f80057e	1.0001676
70	0x3f802119	1.0010101
71	0x3f80130a	1.000581
72	0x3f801552	1.0006506
73	0x3f801969	1.0007755
74	0x3f7fbcea	0.99897635
75	0x3f7fcac9	0.999188
76	0x3f801f6b	1.0009588
77	0x3f800235	1.0000674
78	0x3f80128d	1.0005661
79	0x3f7fbced	0.9989765
80	0x3f7fdbc0	0.99944687
81	0x3f8006b3	1.0002044
82	0x3f800cea	1.0003941
83	0x3f8022c8	1.0010614
84	0x3f7ffbd5	0.9999364
85	0x3f7ff53d	0.9998358
86	0x3f80035c	1.0001025
87	0x3f8006ec	1.0002112
88	0x3f801091	1.0005056
89	0x3f80017b	1.0000452
90	0x3f8015d5	1.0006663
91	0x3f801ca0	1.0008736
92	0x3f7ff234	0.9997895
93	0x3f7fe519	0.9995895
94	0x3f7fe4d6	0.9995855
95	0x3f800681	1.0001985
96	0x3f7fbd09	0.9989782
97	0x3f7fe0c4	0.9995234
98	0x3f7ff41a	0.99981844
99	0x3f7fde7d	0.99948865
100	0x3f800c2a	1.0003712
101	0x3f800aac	1.0003257
102	0x3f7fd050	0.99927235
103	0x3f7fe499	0.9995819
104	0x3f7fff99	0.99999386
105	0x3f801503	1.0006412
106	0x3f8005c8	1.0001764
107	0x3f801101	1.0005189
108	0x3f801273	1.000563
109	0x3f8000f5	1.0000292
110	0x3f7ffbac	0.99993396
111	0x3f7feb75	0.99968654
112	0x3f800041	1.0000077
113	0x3f7fdc51	0.9994555
114	0x3f80047b	1.0001367
115	0x3f800862	1.0002558
116	0x3f80008b	1.0000166
117	0x3f800ff6	1.0004871
118	0x3f80224a	1.0010464
119	0x3f7fceeb	0.99925107
120	0x3f8013d5	1.0006052
121	0x3f80011f	1.0000342
122	0x3f7fdffb	0.9995114
123	0x3f7fecb8	0.9997058
124	0x3f800efc	1.0004573
125	0x3f7fdfbf	0.99950784
126	0x3f7fc2de	0.9990672
127	0x3f7fca3a	0.9991795

encoder.5.bias f4 [128]
0	0xb9a4802d	-0.00031376016
1	0xba685633	-0.00088629423
2	0xb9958903	-0.00028521576
3	0xba158da6	-0.0005705006
4	0xb992fc26	-0.00028035155
5	0x3a29998d	0.0006469719
6	0xb878017b	-5.9129186e-05
7	0xb9af89bd	-0.00033481224
8	0x39af443a	0.00033429434
9	0x39c4cd1e	0.00037536857
10	0xba0feea8	-0.00054905796
11	0x398a7899	0.00026411263
12	0x3a3acb73	0.0007125653
13	0xba228753	-0.00061999745
14	0xba55c4b4	-0.0008154616
15	0x39da2bd2	0.0004161285
16	0x3a20fdde	0.0006141345
17	0x39d669ea	0.00040896173
18	0x399472ef	0.00028314392
19	0xba61332a	-0.0008590693
20	0x3a1ccd63	0.0005981533
21	0xb829fad9	-4.052636e-05
22	0xb9f72c78	-0.00047144643
23	0xba279951	-0.00063933904
24	0x39cd8930	0.0003920286
25	0xb9752790	-0.00023379759
26	0xba559259	-0.00081471127
27	0x3a0b6972	0.0005318142
28	0xb74b1fe2	-1.2107166e-05
29	0x389a9ec1	7.3728625e-05
30	0xba852ed6	-0.0010161053
31	0xb9d52d99	-0.000406605
32	0x3a03666c	0.00050125155
33	0x3a66ea14	0.0008808684
34	0xb9f0c6d6	-0.00045924512
35	0xb919c1fe	-0.00014663485
36	0xb9fb9bd4	-0.00047990552
37	0xb9629ec0	-0.00021612179
38	0x39ab6363	0.0003268971
39	0xb9ffc8d8	-0.0004878703
40	0x3a1fc5a9	0.00060948223
41	0xb883cf4d	-6.2851796e-05
42	0xba3516b7	-0.0006907987
43	0x39f0b9a6	0.00045914686
44	0xb994b1cc	-0.0002836123
45	0xba0a634e	-0.000527908
46	0xba7248a9	-0.00092423946
47	0xba3c0b87	-0.00071733486
48	0xba4f7461	-0.0007913765
49	0xba8c94ab	-0.0010725459
50	0xb9f2cf56	-0.00046312314
51	0xba61d5a5	-0.00086149044
52	0xb9053aa0	-0.00012705708
53	0xba0438c1	-0.00050438574
54	0xba404544	-0.000733454
55	0x39e9e97b	0.0004461518
56	0x3a15cd87	0.0005714525
57	0x3a3b425b	0.00071433716
58	0xba2c23df	-0.00065666245
59	0x3a731d63	0.00092740933
60	0xba53b673	-0.0008076198
61	0xb9fdf720	-0.00048440043
62	0x39bc2179	0.00035883093
63	0xb9c58137	-0.0003767104
64	0xba870cb6	-0.0010303471
65	0xba524f5a	-0.00080226886
66	0xba384631	-0.00070295023
67	0xba19ac07	-0.0005862121
68	0xb9a9be3e	-0.00032375933
69	0x37b278b0	2.1275453e-05
70	0x3a557090	0.00081420783
71	0xba4b1a94	-0.0007747796
72	0x3999e4d1	0.00029352916
73	0x39862fc5	0.00025594063
74	0xba8a91ac	-0.0010571978
75	0xba324273	-0.0006800063
76	0x3a7d0d27	0.0009653144
77	0xb9be420f	-0.00036288842
78	0x3a37ee1c	0.0007016377
79	0xba8c72c6	-0.0010715357
80	0xba8f0532	-0.0010911583
81	0x3a6535a9	0.0008743653
82	0x3999d1d3	0.00029338765
83	0x3988d81d	0.00026100958
84	0x39643528	0.00021763577
85	0x39d05e4f	0.00039743117
86	0x38157223	3.5630666e-05
87	0xb917b5e3	-0.0001446824
88	0xba3b00e2	-0.00071336154
89	0x384b8b3c	4.8528644e-05
90	0x3a28975f	0.00064312475
91	0x3a38ccdb	0.0007049569
92	0xba3e1906	-0.00072516536
93	0x3a1997fb	0.00058591337
94	0xb8905bcf	-6.883556e-05
95	0xb9837005	-0.00025069728
96	0x39b23716	0.00033991848
97	0xba79f2ad	-0.00095347577
98	0xba05e0fa	-0.00051070715
99	0x391d4f40	0.0001500221
100	0xba138837	-0.00056279026
101	0xb9aa42e1	-0.00032474755
102	0xba4e5b64	-0.00078718946
103	0xb9e8e761	-0.0004442288
104	0xb986b275	-0.00025691433
105	0x3a7ca68e	0.00096378557
106	0x3a865143	0.0010247607
107	0xb97b2d5e	-0.00023954126
108	0x39cf0a15	0.00039489628
109	0x3980991f	0.00024528147
110	0xb9c0cdfa	-0.00036774558
111	0xb9661623	-0.00021942756
112	0x3a11df38	0.0005564573
113	0x39964ac4	0.00028665934
114	0xb80cc64a	-3.3563272e-05
115	0xb9faba0c	-0.00047822332
116	0xb9ff48a7	-0.0004869152
117	0x3967e108	0.00022113707
118	0x39904daf	0.000275237
119	0xba0b7be7	-0.0005320892
120	0xb9e26834	-0.00043183716
121	0x3a4965ae	0.0007682693
122	0xb9bbafe1	-0.0003579846
123	0x39eefb19	0.0004558198
124	0x3a4203a5	0.0007401056
125	0xb9c1dd8b	-0.0003697689
126	0xba7bef64	-0.0009610562
127	0xba2eac3f	-0.000666324

encoder.5.running_mean f4 [128]
0	0xbe9f93bf	-0.3116741
1	0xbf06040c	-0.52349925
2	0x3eda65e2	0.42655855
3	0xbe8385be	-0.25687975
4	0xbee5ccfe	-0.4488296
5	0x3e8f7626	0.28019828
6	0xbd775e90	-0.060392916
7	0xbbcb89ef	-0.0062115113
8	0xbe55e6d3	-0.20888834
9	0x3da62dce	0.08114205
10	0xbdcc9e11	-0.09991086
11	0xbd09c224	-0.033632413
12	0xbe18ac31	-0.14909436
13	0x3e46db51	0.194196
14	0x3ed4e103	0.4157792
15	0xbf280157	-0.65627044
16	0x3f10b220	0.565218
17	0x3e8c22a6	0.27370185
18	0x3c7a458a	0.0152753685
19	0x3eb1b026	0.34704703
20	0x3e595f6d	0.21227808
21	0x3db6d23b	0.08926817
22	0xbe13eb92	-0.14445332
23	0x3e0afbe4	0.13572651
24	0x3ecba30b	0.3977283
25	0xbbb2300a	-0.0054378556
26	0x3eca74c8	0.39542222
27	0x3c106259	0.00881251
28	0xbf518464	-0.8184264
29	0x3e80967a	0.25114805
30	0x3e1eaff2	0.15496805
31	0xbec9f9ba	-0.3944834
32	0x3e8e11a9	0.2774785
33	0xbec970ba	-0.39343816
34	0x3df4391c	0.11924955
35	0x3d87e3a6	0.06635217
36	0x3d8baeba	0.06820436
37	0x3e2cd3f7	0.16877733
38	0xbe0db380	-0.13838005
39	0x3e8b3a1c	0.2719277
40	0x3eb3467f	0.35014722
41	0x3f050181	0.5195542
42	0x3e215fca	0.15759197
43	0xbe5f43b8	-0.21803176
44	0x3df7afc4	0.120940715
45	0xbc1ffcba	-0.009764845
46	0x3e4a3d8e	0.19750044
47	0x3e7ffa80	0.24997902
48	0x3d88e5d6	0.06684463
49	0x3d97fe42	0.07421543
50	0x3ef3e067	0.47632143
51	0x3e1e235e	0.15443179
52	0xbd4560f6	-0.048188172
53	0x3e0e9b61	0.1392646
54	0x3d30bc2c	0.043148205
55	0x3dc49e04	0.096004516
56	0xbd25d04f	-0.04048186
57	0x3eac2984	0.33625424
58	0x3e368126	0.17822704
59	0x3e0a4067	0.1350113
60	0x3ea689ea	0.32527095
61	0x3e31fdfc	0.17382044
62	0x3eb0c760	0.3452711
63	0xbdb2b2d6	-0.087255165
64	0xbeaa8589	-0.33305004
65	0x3ee46f63	0.4461623
66	0xbf8235e9	-1.0172702
67	0xbd83d07a	-0.06436248
68	0x3f393b11	0.72355753
69	0xbe488c56	-0.19584784
70	0x3f030499	0.5117889
71	0x3ef5a0bd	0.47974196
72	0x3e433797	0.19064175
73	0x3e72f87e	0.23727605
74	0xbe5f3986	-0.21799287
75	0xbee1b1ec	-0.44081056
76	0x3e147853	0.14499025
77	0xbe11ee64	-0.14251095
78	0x3ec0fb9d	0.37691966
79	0xbe74206b	-0.23840491
80	0x3d15014c	0.03637819
81	0x3d579e59	0.052641246
82	0xbe2ece99	-0.17070998
83	0x3e27c140	0.16382313
84	0xbf4efdbd	-0.80855924
85	0x3edfce59	0.43712118
86	0xbc56eb85	-0.013117676
87	0x3e8cdc6f	0.27511927
88	0x3cddecf3	0.027090525
89	0xbe43564a	-0.19075885
90	0x3d37a9fb	0.04483984
91	0x3e2af404	0.16694647
92	0x3e1d4d5f	0.15361546
93	0xbec100bb	-0.3769587
94	0x3ecea5e7	0.40360948
95	0x3ef09e15	0.46995607
96	0xbeea645a	-0.45779687
97	0x3f12ef2f	0.57396215
98	0x3d53c674	0.05170293
99	0xbe93225a	-0.28737146
100	0xbdd073a6	-0.10178308
101	0x3e3fa4aa	0.18715158
102	0x3ea076e9	0.3134072
103	0xbe839d17	-0.25705788
104	0x3ec9e47c	0.39432132
105	0x3e95e298	0.2927444
106	0x3f2ed512	0.6829387
107	0x3dd73863	0.10508802
108	0x3e9253cc	0.28579557
109	0xbe067ea5	-0.13134249
110	0x3e38dfe9	0.18054165
111	0x3e5c51cb	0.21515577
112	0xbe45b0d7	-0.1930574
113	0xbf0ed8e2	-0.55799687
114	0xbf2f34eb	-0.6844012
115	0x3eb00efa	0.34386426
116	0x3e6df9a2	0.23239759
117	0x3d047b97	0.032344427
118	0x3eb6793d	0.35639372
119	0xbe5b1562	-0.21394876
120	0x3df550eb	0.119783245
121	0xbf2d7320	-0.6775379
122	0x3d601c80	0.05471468
123	0x3ef95276	0.48695725
124	0xbc783df7	-0.015151492
125	0x3e925da0	0.28587055
126	0x3bd13986	0.006385031
127	0x3c091983	0.008367899

encoder.5.running_var f4 [128]
0	0x3db941d9	0.090457626
1	0x3e855796	0.26043385
2	0x3e801d8f	0.2502255
3	0x3e1017d2	0.14071587
4	0x3f62116c	0.88307834
5	0x3dd330e2	0.10312058
6	0x3e78ddaf	0.24303316
7	0x3e9e7b78	0.30953574
8	0x3e874236	0.26417702
9	0x3e259660	0.16170645
10	0x3e463f09	0.19359984
11	0x3db11422	0.08646418
12	0x3e0d2e53	0.13787203
13	0x3e342cba	0.17595187
14	0x3e14a459	0.14515819
15	0x3e6bd9ba	0.23032275
16	0x3e7e212b	0.2481734
17	0x3e2859e0	0.16440535
18	0x3e032c36	0.12809834
19	0x3dd57e15	0.10424439
20	0x3e113784	0.14181334
21	0x3d9deb59	0.07710905
22	0x3e290e19	0.16509284
23	0x3ded082c	0.11573824
24	0x3e1f3782	0.15548518
25	0x3de093e9	0.109657116
26	0x3d99e149	0.07513673
27	0x3e0bbd7f	0.13646506
28	0x3eb3c1de	0.35108846
29	0x3e450608	0.19240582
30	0x3dbe5ef4	0.092954546
31	0x3eac1e0d	0.33616677
32	0x3e07b0de	0.13251063
33	0x3e4b8fba	0.19879046
34	0x3dc0b730	0.0940994
35	0x3dc665f8	0.09687418
36	0x3dea4f91	0.11440957
37	0x3e4bbffb	0.19897453
38	0x3d8fa736	0.07014315
39	0x3f053326	0.5203117
40	0x3dcc8041	0.099854
41	0x3e19bfad	0.15014525
42	0x3dd02b28	0.101644814
43	0x3e31548c	0.17317408
44	0x3df37529	0.11887581
45	0x3e69c63b	0.22829525
46	0x3e6092c1	0.21930982
47	0x3dd85000	0.10562134
48	0x3dc3374e	0.09532033
49	0x3de0eb96	0.109824345
50	0x3de120a7	0.10992556
51	0x3dc2480d	0.09486399
52	0x3e0adf09	0.13561644
53	0x3def8fe7	0.11697369
54	0x3e2f8f23	0.17144446
55	0x3e8d7a83	0.27632532
56	0x3e0259b6	0.12729535
57	0x3f06a1b9	0.5259052
58	0x3e7493c7	0.23884498
59	0x3e264928	0.16238844
60	0x3e0dd86b	0.13852088
61	0x3ddf0a7f	0.10890674
62	0x3dfc4f2e	0.1231979
63	0x3e4f989b	0.20273058
64	0x3e2cff4c	0.16894263
65	0x3e40cb2d	0.18827505
66	0x3f0cd956	0.5501913
67	0x3ea8cd24	0.3296901
68	0x3e9f4d12	0.31113487
69	0x3db686ac	0.08912405
70	0x3e3a7215	0.18207581
71	0x3e7ecd56	0.24883017
72	0x3e031345	0.1280032
73	0x3db217fe	0.086959824
74	0x3daa096c	0.08302578
75	0x3e4ab0a6	0.19793949
76	0x3e0e0be4	0.13871723
77	0x3df688ee	0.12037836
78	0x3e4957a6	0.19662341
79	0x3df23dd6	0.118282005
80	0x3da4b7c3	0.08042862
81	0x3e60ff53	0.21972398
82	0x3e36a055	0.178346
83	0x3e3391a9	0.17536034
84	0x3f018bf9	0.50604206
85	0x3dd8ecf7	0.105920725
86	0x3e9d8a60	0.30769634
87	0x3e280228	0.16407073
88	0x3da76aca	0.08174665
89	0x3dd66f22	0.10470416
90	0x3d99038c	0.0747138
91	0x3db01e63	0.08599546
92	0x3da12da3	0.07870033
93	0x3e157f22	0.14599279
94	0x3e011613	0.12606077
95	0x3e08514e	0.13312265
96	0x3e3ecabf	0.18632029
97	0x3e095095	0.13409646
98	0x3e47ecc4	0.19523913
99	0x3dd04259	0.10168905
100	0x3dbc14f6	0.091836855
101	0x3d9610af	0.07327401
102	0x3e079a9f	0.13242577
103	0x3d9287c7	0.07154804
104	0x3e182037	0.14856039
105	0x3e829211	0.25502065
106	0x3e6b19cc	0.2295906
107	0x3e34395b	0.17600004
108	0x3e746a50	0.2386868
109	0x3dade133	0.08490219
110	0x3df55636	0.11979334
111	0x3ec7f343	0.3905278
112	0x3e0d4597	0.13796078
113	0x3e587ebe	0.21142098
114	0x3e7a3b34	0.24436647
115	0x3e0218be	0.12704751
116	0x3e3d6fd1	0.18499686
117	0x3dc37cec	0.09545311
118	0x3db38f72	0.087675944
119	0x3deafe63	0.11474302
120	0x3e31b598	0.17354429
121	0x3e5eeeba	0.21770754
122	0x3e55f88b	0.20895593
123	0x3e3b72b8	0.1830548
124	0x3e21ff6a	0.15820089
125	0x3e6d689d	0.23184438
126	0x3d972e7b	0.07381912
127	0x3e0e00ba	0.13867465

decoder.0.weight f4 [64, 128, 3, 3]
0	0x3cbf965d	0.023387128
1	0x3c90925e	0.017647918
2	0x3c720d5d	0.014773694
3	0x3c8cb09b	0.017174056
4	0xbc1d7302	-0.0096099395
5	0x3cdd14d1	0.026987465
6	0x3cb1ce6f	0.02170488
7	0xbc6a59b5	-0.014303614
8	0xbb9f9ee8	-0.004871238
9	0x3c8fc4f6	0.017549973
10	0xbb9366a1	-0.0044983183
11	0xbcba02a7	-0.022706343
12	0x3985cb37	0.00025519144
13	0xbc16e454	-0.009209711
14	0x3cb92ce1	0.022604408
15	0x3c75b6a6	0.01499716
16	0xbb80076f	-0.003907136
17	0x3b1ee68d	0.0024246306
18	0x3cbaf2f1	0.022820922
19	0xb99dab33	-0.00030072927
20	0xbc2e3a2e	-0.010633988
21	0x3a033a30	0.0005005924
22	0xbc99a9fe	-0.018757816
23	0xbcb8935e	-0.022531208
24	0x3ccd6929	0.025074558
25	0x3ac1a3b2	0.0014773516
26	0xbc0d4baa	-0.008623997
27	0x3bcf8632	0.006333136
28	0x3ca2b6cf	0.01986256
29	0x3ce7954d	0.028269434
30	0x3cad1ca2	0.021131817
31	0xbce95eb6	-0.028487545
32	0xba823695	-0.000993448
33	0x3aeb4eb5	0.0017952534
34	0xba77b9b7	-0.0009449976
35	0xbb9484cd	-0.0045324326
36	0x3c549869	0.012975791
37	0x3cc66929	0.024220066
38	0xbc56490e	-0.013078941
39	0x3c017d02	0.007903339
40	0xbc93c044	-0.018036015
41	0x3c976b48	0.018483773
42	0xb8a921dc	-8.064855e-05
43	0x3cd35a73	0.025799965
44	0x3c744434	0.014908839
45	0x3c53d40c	0.012928974
46	0x3caeeda1	0.021353545
47	0xbc2d162a	-0.010564366
48	0xbcaad8d0	-0.020855337
49	0x3c822675	0.015887478
50	0xbc554a58	-0.013018213
51	0xbc7a7b3e	-0.015288172
52	0x3c74e066	0.014946079
53	0x3c23bdc2	0.009993972
54	0xbc7b2418	-0.01532843
55	0xbc70d267	-0.014698601
56	0xbce396ed	-0.027781928
57	0xbb506505	-0.0031798494
58	0x3c052a7b	0.008127804
59	0xbc6da3ba	-0.0145043675
60	0x3bc74fee	0.0060825264
61	0x3bb46ba1	0.0055059944
62	0xbca464cb	-0.020067593
63	0xbce9002b	-0.028442463
64	0xbcb6b8fe	-0.022305008
65	0xbc2a9e19	-0.01041367
66	0xbcce6ad9	-0.025197433
67	0x3cd3a778	0.025836691
68	0xbceda4ac	-0.029009186
69	0x3c89a023	0.016799992
70	0x3c824b84	0.01590515
71	0xbbc16c6f	-0.005902819
72	0xbcbee28b	-0.023301383
73	0xbc6cd989	-0.014456161
74	0xbce4357b	-0.027857533
75	0x3c8a97f9	0.01691817
76	0xbc89fbfc	-0.016843788
77	0x3aac894b	0.0013163475
78	0xbc972217	-0.018448872
79	0x3bf3490e	0.0074244803
80	0x3c1a1884	0.009405259
81	0xbccd18d0	-0.025036246
82	0x3c6b05bd	0.01434463
83	0x3af94dfb	0.0019020432
84	0xbc5ff33f	-0.013668834
85	0x3c8e9f12	0.017409835
86	0xbc98450c	-0.018587612
87	0xbc10ffb9	-0.0088500315
88	0xbcc03786	-0.023463976
89	0x3cacfb4c	0.021115921
90	0x3cd6e0a0	0.026230156
91	0xbbc21a68	-0.005923558
92	0x3ca75311	0.020425351
93	0x3b031ad8	0.0020005014
94	0x3c955786	0.018230211
95	0x3b53ec18	0.0032336768
96	0xbcc210cf	-0.023689656
97	0xbc66d0cf	-0.01408787
98	0xbcad747a	-0.021173704
99	0x3cccf23d	0.025017852
100	0xbce0b2fe	-0.0274291
101	0xbcedba2e	-0.029019441
102	0xbc490794	-0.012269873
103	0x3bb76fe6	0.005598056
104	0xbc111b82	-0.008856656
105	0xbc9eef96	-0.019401353
106	0x3cade568	0.021227553
107	0x3ca86a0f	0.020558385
108	0x3c9da413	0.019243276
109	0x3cb8e6a3	0.022570914
110	0x3c2bf4a8	0.010495342
111	0xbcd59e79	-0.026076542
112	0x3a4455c6	0.0007489588
113	0x3ca2bd06	0.019865524
114	0x3cdecd52	0.027197514
115	0x3c11794b	0.008879016
116	0xbbea0150	-0.0071412697
117	0x3c659de6	0.014014697
118	0x3cc61631	0.024180504
119	0xbb76a439	-0.0037634505
120	0x3c9fc0b1	0.019501062
121	0x3c874766	0.016513538
122	0xbb6952ba	-0.0035602287
123	0x3c8cf661	0.017207326
124	0x3c3eeb99	0.011652851
125	0x3b3efa03	0.0029140718
126	0x3a784603	0.0009470882
127	0xbcdeef98	-0.027213857
128	0xbbbe6a92	-0.005811044
129	0x3c93933c	0.018014543
130	0x3cbb1681	0.02283788
131	0xbcac25fa	-0.021014202
132	0xbc8b4ca6	-0.017004322
133	0xbc827204	-0.015923508
134	0x3ba04545	0.00489107
135	0x3c67da1d	0.014151123
136	0xba9c8060	-0.0011940114
137	0x3b5fcc33	0.0034148812
138	0x3c2ea912	0.010660427
139	0x3bc38eb5	0.0059679397
140	0x3ceb07e5	0.028690288
141	0xbcdb2d31	-0.026754947
142	0xb9cb5d1a	-0.00038788543
143	0xbc68860f	-0.014192118
144	0xbc625f33	-0.013816643
145	0xbc82ce0e	-0.015967395
146	0xbc900dc4	-0.017584689
147	0xbc22093b	-0.009889896
148	0xbcaa8364	-0.020814605
149	0x3b969dc8	0.0045964457
150	0xbc389f4d	-0.011268449
151	0x3cc7848a	0.024355192
152	0x3cb531ef	0.022118537
153	0xbc8ce402	-0.017198566
154	0xbcad0da9	-0.021124678
155	0xbc89e5a7	-0.01683314
156	0x3c734684	0.014848355
157	0x3c9b3c59	0.018949674
158	0x3c80109a	0.015632916
159	0xbcda55c6	-0.026652228
160	0x3cc5d0ec	0.024147473
161	0x3c950a9d	0.018193537
162	0xbc064ea5	-0.008197461
163	0x3c51a5e6	0.012795901
164	0x3ca7e1a7	0.020493342
165	0x3cd0557a	0.025431383
166	0xbbed03ba	-0.0072331103
167	0xbc00e2f7	-0.007866613
168	0xbca31e37	-0.019911868
169	0xbcd475a2	-0.025934998
170	0x3c5fb77d	0.013654587
171	0x3c91a0be	0.017776843
172	0x3cc27ec7	0.023742093
173	0xbc898fee	-0.016792264
174	0x3c6f62c9	0.014610955
175	0xbced4311	-0.028962644
176	0x3ce0fd09	0.027464407
177	0xbbb99e74	-0.005664641
178	0xbcb378e3	-0.02190823
179	0x3cac21d0	0.021012217
180	0xbb133727	-0.0022463293
181	0xbc8de195	-0.01731948
182	0xbcc97d66	-0.024595927
183	0x3a17e39b	0.0005794109
184	0xbcd19edc	-0.025588445
185	0xbb8b17bc	-0.0042447727
186	0x3c79c151	0.015243844
187	0x3cd73de9	0.026274638
188	0x3bfc67f5	0.0077028223
189	0x3b1882cc	0.002327132
190	0xbcf0c396	-0.029390138
191	0xbc5ccb29	-0.0134761715
192	0x3c6a848c	0.014313828
193	0xbc393ac2	-0.011305513
194	0xbc9e37a0	-0.019313633
195	0x3cd7f0cf	0.026359944
196	0xba805685	-0.000979141
197	0x3cbf0b20	0.023320735
198	0xbcd809b3	-0.026371812
199	0x3b9ee226	0.0048487363
200	0x3c8fe706	0.017566215
201	0xbb4e821b	-0.0031510654
202	0x3cc7edd7	0.024405403
203	0x3c052530	0.008126542
204	0xbcb91158	-0.022591278
205	0x3cb1758d	0.021662498
206	0xba7d271b	-0.0009657011
207	0x3bb78ca1	0.005601481
208	0x3c37ae02	0.01121092
209	0xbb02d383	-0.0019962497
210	0x3c775dac	0.015098017
211	0xbcc8d14f	-0.024513869
212	0x3b7bae60	0.0038403496
213	0x3beb33d1	0.007177808
214	0x3b39bbcc	0.0028340695
215	0xbc26a28a	-0.010170588
216	0xbcaf2494	-0.021379746
217	0xbc32763f	-0.01089245
218	0xbc3f6a13	-0.011683005
219	0xbcd9840f	-0.026552228
220	0x3cb818b8	0.022472724
221	0x3b5a4469	0.0033304936
222	0xbcc989c1	-0.024601819
223	0xbcc8afbe	-0.024497863
224	0x3b59eab8	0.0033251476
225	0x3c2479fc	0.010038849
226	0xbcc64551	-0.024202975
227	0x3c8ab9ac	0.016934238
228	0xbc75ee56	-0.015010437
229	0x3b0c5686	0.0021413877
230	0x3b4e4e4f	0.003147978
231	0xbcb1d4f3	-0.021707987
232	0x3ca03f41	0.019561412
233	0xbcb3bce4	-0.021940656
234	0xbc5504e3	-0.013001653
235	0x3c96dcd6	0.01841585
236	0xba330209	-0.00068286114
237	0xbca5ac0d	-0.020223642
238	0xbccc5661	-0.024943532
239	0x3c037351	0.008023099
240	0xbcdd6445	-0.027025351
241	0xbca91fc5	-0.020645032
242	0xbcd7950e	-0.026316192
243	0x3c77a4c7	0.01511497
244	0x3be5f103	0.007017256
245	0xbc1701b1	-0.009216712
246	0x3c057477	0.008145443
247	0x3c19d0fc	0.009388205
248	0x3b7616d6	0.0037550232
249	0x3c8d86bd	0.017276162
250	0xbceb8b4c	-0.028752945
251	0xbcd0c190	-0.025482923
252	0x3cf61500	0.03003931
253	0x3c84ef39	0.016227352
254	0x3c62be3e	0.013839303
255	0x3c05dafa	0.008169884

decoder.0.bias f4 [64]
0	0xbbac1400	-0.0052514076
1	0x3bbc4121	0.0057450687
2	0xbc118190	-0.008880988
3	0x3cc0cefe	0.023536202
4	0x3cb8dd62	0.022566501
5	0x3c97aff9	0.018516527
6	0xbb0d7437	-0.0021584162
7	0x3cb44262	0.02200431
8	0xbbaac5e0	-0.005211577
9	0xbb8661c1	-0.0041010086
10	0x3cb68c57	0.022283716
11	0x3ca1cbe1	0.019750537
12	0xbb4bca87	-0.0031096058
13	0xbb23252f	-0.002489399
14	0xbce3ce30	-0.027808279
15	0x3cdf1a8a	0.027234334
16	0x3af31c70	0.0018547904
17	0xbba1e977	-0.0049411613
18	0x3c50eb7a	0.0127514545
19	0x3c272c56	0.010203442
20	0x3cb0ba5b	0.021573236
21	0x3c3dcdad	0.011584681
22	0x3c6e78a7	0.014555133
23	0x3c6af066	0.014339542
24	0x3ccea593	0.025225436
25	0x3c03f986	0.0080550965
26	0xbcae1cd9	-0.02125399
27	0xbba9e4f6	-0.005184765
28	0xbcb56209	-0.022141473
29	0xbad84c7e	-0.0016502289
30	0xbcc5d5c4	-0.024149783
31	0xbaa83931	-0.0012834427
32	0x3ca71987	0.020397915
33	0xbcd8fffa	-0.026489247
34	0xbc9f71a6	-0.019463371
35	0x3cdf15a0	0.027231991
36	0x3c16edff	0.009212016
37	0x3cb19d79	0.021681534
38	0xbcbedc78	-0.023298487
39	0xbc56a825	-0.013101612
40	0x3c6dd46e	0.014515979
41	0xb9542b85	-0.00020234108
42	0x3c3e94c7	0.011632151
43	0xbc0e4acb	-0.008684824
44	0x3cea4ccc	0.028601073
45	0x3c94b5ba	0.01815306
46	0x3ca29d1c	0.019850306
47	0xbc91befb	-0.017791262
48	0x3b144044	0.0022621313
49	0x3c4a9672	0.0123649705
50	0xbc1ab28e	-0.009441985
51	0x3b98920d	0.0046560825
52	0x3cb37267	0.021905137
53	0xbbd8e319	-0.006618869
54	0xbb8bb6eb	-0.004263749
55	0xba9fd185	-0.0012193179
56	0xbce8f955	-0.028439203
57	0x3cb166cf	0.021655468
58	0xbc79a246	-0.015236443
59	0xbcdded26	-0.02709062
60	0x3c32cb9a	0.0109128
61	0xbc3fdc3d	-0.011710224
62	0x3c9a05a2	0.018801514
63	0x3c9ddefe	0.01927137

decoder.1.weight f4 [64]
0	0x3f8013ac	1.0006003
1	0x3f7fd68d	0.99936754
2	0x3f801f5f	1.0009574
3	0x3f800014	1.0000024
4	0x3f801142	1.0005267
5	0x3f7fbd9d	0.998987
6	0x3f7fe933	0.9996521
7	0x3f7fdf91	0.9995051
8	0x3f7fc252	0.99905884
9	0x3f7fc963	0.99916667
10	0x3f801998	1.000781
11	0x3f80231c	1.0010715
12	0x3f7fc2c4	0.99906564
13	0x3f801b74	1.0008378
14	0x3f7fee90	0.9997339
15	0x3f8009bf	1.0002974
16	0x3f801916	1.0007656
17	0x3f801e5e	1.0009267
18	0x3f800252	1.0000708
19	0x3f800fcc	1.0004821
20	0x3f800992	1.0002921
21	0x3f7fc238	0.9990573
22	0x3f801884	1.0007482
23	0x3f8022e2	1.0010645
24	0x3f7fe7a9	0.9996286
25	0x3f7ff06b	0.99976224
26	0x3f7ff6f2	0.99986184
27	0x3f8000dd	1.0000263
28	0x3f7febd0	0.99969196
29	0x3f7fef5e	0.9997462
30	0x3f7fbfe9	0.99902207
31	0x3f7fc3f0	0.9990835
32	0x3f80237f	1.0010833
33	0x3f7fedfc	0.9997251
34	0x3f801a64	1.0008054
35	0x3f800797	1.0002316
36	0x3f7fbc26	0.99896467
37	0x3f800074	1.0000138
38	0x3f7fc56a	0.99910605
39	0x3f7ff542	0.9998361
40	0x3f8021dc	1.0010333
41	0x3f801860	1.0007439
42	0x3f800f9a	1.0004761
43	0x3f80180b	1.0007337
44	0x3f8006b9	1.0002052
45	0x3f7fd0b1	0.9992781
46	0x3f8014b7	1.0006322
47	0x3f7fee5b	0.99973077
48	0x3f80170c	1.0007033
49	0x3f7fe8aa	0.9996439
50	0x3f800348	1.0001001
51	0x3f7fd6f9	0.999374
52	0x3f801e1e	1.0009191
53	0x3f7fb9d5	0.9989293
54	0x3f7ff7b2	0.9998733
55	0x3f8009b7	1.0002965
56	0x3f800a4d	1.0003144
57	0x3f8001cb	1.0000547
58	0x3f7fe61d	0.999605
59	0x3f7fdfb4	0.9995072
60	0x3f7fe589	0.9995962
61	0x3f7fff7d	0.9999922
62	0x3f7fc5f0	0.99911404
63	0x3f7fb9a1	0.9989262
