checkpoints/2025-06-02-15-39-35/last_epoch.pth (torch, 686901 bytes, 25 tensors)

encoder.0.weight f4 [64, 3, 3, 3]
0	0xbe37fb14	-0.17966872
1	0xba1175d5	-0.00055488694
2	0x3e352bca	0.17692485
3	0x3e2a0134	0.16602021
4	0x3d90c434	0.07068673
5	0xbe000260	-0.12500906
6	0x3d45e0c4	0.048310056
7	0xbd028392	-0.031863756
8	0xbd0a2196	-0.033723436
9	0xbdf6afd6	-0.12045257
10	0x3e12b696	0.14327464
11	0xbda7fe60	-0.08202815
12	0x3dd79846	0.10527091
13	0x3ceb08e2	0.02869076
14	0x3dcbfd54	0.09960428
15	0x3e024d5f	0.12724827
16	0xbd72eb87	-0.059306648
17	0x3d7e3dc9	0.06207064
18	0xbc3f62e8	-0.011681296
19	0xbd743213	-0.059618067
20	0x3d308f70	0.043105543
21	0x3d0635b4	0.03276606
22	0xbe1bdb1b	-0.15220301
23	0xbdd14fd9	-0.10220308
24	0x3d5ab05b	0.053390842
25	0x3e30c061	0.17260887
26	0xbe1b95bf	-0.15193842
27	0xbe30a4b1	-0.17250325
28	0xbd259666	-0.040426634
29	0x3e016cfb	0.12639229
30	0x3db2f258	0.0873763
31	0x3c72a15e	0.014808981
32	0x3dc9db7b	0.09856316
33	0xbdf2154a	-0.11820467
34	0x3dc2ed59	0.09517927
35	0xbc0b2341	-0.008492292
36	0xbc628923	-0.013826641
37	0x3e3c5059	0.18390025
38	0x3e309545	0.17244442
39	0x3cd686c5	0.02618731
40	0xbe322f6d	-0.17400904
41	0xbc6d29c2	-0.014475288
42	0xbe0df82c	-0.13864201
43	0xbe1bbcb4	-0.15208703
44	0x3e34b609	0.17647566
45	0xbdf82eb3	-0.12118282
46	0x3d16eda6	0.036847733
47	0x3e07d51c	0.13264889
48	0xbd91145d	-0.07083962
49	0x3c818a3c	0.015812986
50	0xbda3b1ed	-0.07992921
51	0xbe3a9038	-0.18219078
52	0xbd32f95c	-0.04369484
53	0x3e0cab68	0.13737261
54	0xbd8e5d5c	-0.06951401
55	0xbde08128	-0.109621346
56	0xbe1ff025	-0.15618952
57	0x3c8eaa6e	0.017415252
58	0xbe3dc1c7	-0.18530951
59	0xbe28998d	-0.16464825
60	0xbd1f4ef6	-0.038893662
61	0xbd81b2c2	-0.063329235
62	0x3dc6167e	0.09672259
63	0xbdc69877	-0.09697049
64	0x3dd28baa	0.10280545
65	0xbd945136	-0.07242052
66	0x3ccbe071	0.024887295
67	0xbe1e0026	-0.15429744
68	0xbd819161	-0.06326557
69	0x3cd5afb3	0.026084756
70	0xbdb334e5	-0.08750323
71	0x3e0e9562	0.13924173
72	0x3e3ac7c2	0.18240264
73	0x3ddf0948	0.10890442
74	0xbe26b822	-0.16281179
75	0x3b47e4d1	0.0030501375
76	0xbe176dd0	-0.14787984
77	0x3dc427a3	0.095778726
78	0xbd9428dd	-0.072343566
79	0xbdf6d049	-0.12051446
80	0x3e0c1a48	0.136819
81	0xbdcefa07	-0.10106283
82	0x3d0b51bb	0.03401349
83	0x3d80840d	0.06275187
84	0xbe42b5a5	-0.19014604
85	0x3c59937a	0.01327979
86	0xbe1e9b43	-0.15488915
87	0x3d9ba6e6	0.07600193
88	0xbcfb7817	-0.030696912
89	0xbe34785a	-0.17624035
90	0x3e3314e8	0.17488444
91	0xbe15f94e	-0.14645883
92	0xbe0422a7	-0.12903844
93	0xbdfab00b	-0.12240609
94	0xbd933395	-0.07187573
95	0x3e1601cb	0.14649121
96	0x3d9dc7e6	0.07704143
97	0xbcc07341	-0.023492457
98	0x3e41b519	0.1891674
99	0x3d7744f6	0.0603685
100	0xbdde8e66	-0.10867004
101	0x3e145e5b	0.14489119
102	0x3b328909	0.0027242324
103	0x3e26c991	0.16287829
104	0x3bf313de	0.00741814
105	0x3da9df31	0.082945235
106	0x3d8f06cd	0.06983719
107	0xbd3f75db	-0.046743255
108	0x3dc4a23f	0.096012585
109	0x3e074ca8	0.13212836
110	0xbe00acfd	-0.1256599
111	0x3c8d72be	0.017266627
112	0xbd95cc87	-0.07314401
113	0x3dbe3534	0.092874914
114	0xbd8cba17	-0.06871431
115	0xbd5ffb6a	-0.054683127
116	0x3e0d7a56	0.13816199
117	0x3d3d5fc2	0.0462339
118	0xbe2aa599	-0.16664733
119	0xbdb7f6a5	-0.089825906
120	0xbe33984f	-0.1753857
121	0xbd613e2f	-0.054990944
122	0x3da346a4	0.07972458
123	0x3e14aedd	0.1451983
124	0xbb981078	-0.004640635
125	0xbe1de49a	-0.15419236
126	0xbe2fcdb4	-0.17168313
127	0x3e0abe5f	0.13549183
128	0xbd18f750	-0.03734523
129	0xbdf4219b	-0.11920472
130	0xbc413808	-0.011793144
131	0x3dadacf6	0.08480255
132	0xbde8ef56	-0.11373775
133	0x3d411c3a	0.04714606
134	0xbdf564f7	-0.11982148
135	0x3d14070f	0.036139544
136	0xbe2b5374	-0.16731054
137	0xbc2ec557	-0.010667167
138	0x3df9529d	0.1217396
139	0x3dc07d80	0.09398937
140	0xbdfd29eb	-0.12361511
141	0xbd00943f	-0.03139138
142	0xbe1f478d	-0.15554638
143	0x3d87a21b	0.06622716
144	0x3e26b14b	0.1627857
145	0xbe2c5155	-0.168279
146	0xbe32dd23	-0.1746717
147	0xbd998783	-0.0749655
148	0x3d9a049e	0.07520412
149	0x3d76208f	0.060089644
150	0xbda13cb7	-0.078729086
151	0x3cc82e54	0.024436153
152	0xbe43820d	-0.19092579
153	0xbe3f8596	-0.18703303
154	0x3e2c44ca	0.16823116
155	0xbc3e4509	-0.011613139
156	0xbe2ddfbf	-0.16979884
157	0x3e03e39d	0.12879796
158	0x3e05c593	0.1306365
159	0x3e00a9f0	0.12564826
160	0xbdce4e10	-0.10073483
161	0x3ded71f4	0.115940005
162	0xbd790433	-0.06079502
163	0xbd2eecaf	-0.042706188
164	0x3dea8857	0.11451786
165	0xbe1fc8da	-0.15603963
166	0xbe3e6a0d	-0.18595143
167	0xbe0956a1	-0.13411953
168	0xbdabbfb4	-0.08386174
169	0x3e072faf	0.13201784
170	0xbe2d07fd	-0.16897579
171	0xbe3bb226	-0.18329677
172	0x3d09c129	0.033631478
173	0xbe18e108	-0.14929593
174	0x3d8ad317	0.067785434
175	0x3df0e37d	0.1176214
176	0x3dce83f9	0.100837655
177	0xbdc0b03f	-0.09408616
178	0xbd3c3d6e	-0.04595702
179	0xbe081b7b	-0.13291733
180	0x3d9de1e1	0.077090986
181	0x3d064a9c	0.032785997
182	0xbe0f1cec	-0.13975877
183	0x3c216ed0	0.00985308
184	0x3e39a2b8	0.18128479
185	0x3d656f8e	0.05601459
186	0x3d1276c4	0.035757795
187	0x3d1fd164	0.03901805
188	0xbd2aed12	-0.041729994
189	0xbd27fe3c	-0.04101394
190	0x3dd6bf0e	0.104856595
191	0x3bf28a76	0.0074017597
192	0xbd86305f	-0.06552195
193	0xbc18a462	-0.009316536
194	0x3e0cf4be	0.13765237
195	0xbdff6229	-0.124698944
196	0xbe0a8a1e	-0.1352925
197	0xbe1bbf15	-0.15209611
198	0x3d26458b	0.040593665
199	0x3e2b8df6	0.16753373
200	0x3c3c3f4d	0.011489701
201	0x3da08ed9	0.07839746
202	0xbdff3dfd	-0.12462995
203	0x3cc3278a	0.023822565
204	0x3d1a982d	0.037742782
205	0x3dddadce	0.10824166
206	0x3d1e323f	0.038622137
207	0x3daa70e9	0.08322317
208	0xbc811d6f	-0.015761105
209	0x3e3ebc06	0.18626413
210	0x3d720e9c	0.059095964
211	0x3e12ea95	0.14347298
212	0xbc312904	-0.010813002
213	0xbcf0fcb9	-0.029417383
214	0xbe3dd740	-0.18539143
215	0xbde90e14	-0.11379638
216	0x3d65a41d	0.056064714
217	0xbd77474b	-0.060370725
218	0x3e09e55d	0.13466401
219	0x3e30024d	0.17188378
220	0xbd687ec4	-0.056761518
221	0xbe35063e	-0.17678162
222	0xbda58274	-0.080815226
223	0xbd55a88c	-0.052162692
224	0xbe35cd0b	-0.17753999
225	0x3c74332e	0.01490478
226	0xbe41ac6d	-0.18913431
227	0xbc99a426	-0.01875503
228	0x3c01d727	0.0079248315
229	0xbc09e154	-0.008415539
230	0xbca2c8c5	-0.019871125
231	0xbd8a7762	-0.06761052
232	0x3decebe4	0.1156843
233	0xbd9ea222	-0.07745768
234	0xbe06f3e6	-0.13178977
235	0xbdeb98b2	-0.11503734
236	0xbd4af7f6	-0.04955288
237	0xbdf4a152	-0.11944832
238	0xbe220f39	-0.1582612
239	0x3e0507d6	0.1299127
240	0x3de08227	0.109623246
241	0xba434e26	-0.00074503047
242	0x3e3ab47c	0.18232912
243	0x3a4422bb	0.0007481982
244	0xbcacd1a7	-0.021096064
245	0xbdf3268b	-0.11872586
246	0xbd290795	-0.041266996
247	0xbd00a515	-0.031407434
248	0x3d83b508	0.06431013
249	0x3db3cd4e	0.08779393
250	0xbcb97403	-0.022638327
251	0xbe40f81a	-0.18844643
252	0x3c8347d0	0.016025454
253	0x3d24efd9	0.0402678
254	0xbe2c6789	-0.1683637
255	0x3e3cb9fd	0.18430324

encoder.0.bias f4 [64]
0	0xbdafd761	-0.08586002
1	0x3de1daf7	0.11028092
2	0xbde6d148	-0.11270386
3	0xbdee7ffe	-0.11645506
4	0xbe06a839	-0.1315011
5	0x3e274723	0.1633573
6	0xbd954ae1	-0.07289673
7	0xbc8760db	-0.016525676
8	0x3d576800	0.052589417
9	0x3e077adf	0.13230465
10	0xbe0b574b	-0.13607518
11	0xbe051fe1	-0.13000442
12	0x3e065aa5	0.13120516
13	0xbcbe4f9c	-0.02323132
14	0x3b972d93	0.004613587
15	0xbd6d53ee	-0.05794137
16	0x3caaf796	0.020870011
17	0xbe3e3463	-0.18574671
18	0xbe21042f	-0.15724252
19	0xbdfb4cee	-0.122705325
20	0x3e418445	0.18898113
21	0xbce9da89	-0.028546588
22	0xbe1d6264	-0.15369564
23	0x3c983d4a	0.018583912
24	0xbd2a9680	-0.041647434
25	0xbdccaa84	-0.09993461
26	0xbd882100	-0.06646919
27	0xbdd35302	-0.10318567
28	0xbd2d8c42	-0.04237009
29	0xbdbf7118	-0.09347743
30	0x3d690833	0.056892585
31	0x3dc1695a	0.09443922
32	0x3c622dd3	0.013804871
33	0x3e02ec4f	0.12785457
34	0x3c515fdd	0.012779203
35	0x3c0f8e9e	0.00876203
36	0x3e269205	0.1626664
37	0x3d15d1ff	0.03657722
38	0x3db93bc3	0.09044602
39	0x3d75b7bb	0.059989672
40	0xbd3db550	-0.04631549
41	0x3e15ee8b	0.14641778
42	0x3da20ee9	0.07913
43	0xbd95e8ae	-0.07319771
44	0x3d9ac982	0.07557966
45	0xbc1af582	-0.009457948
46	0x3e382ed4	0.17986614
47	0x3d84f99e	0.06492923
48	0xbddffd6d	-0.10937009
49	0xbe42ab05	-0.19010551
50	0x3d88f501	0.06687356
51	0xbda43d65	-0.080195226
52	0xbe248b6f	-0.16068815
53	0x3e29f9f5	0.16599257
54	0xbe0c53e9	-0.13703884
55	0x3d503626	0.05083289
56	0x3e018662	0.12648919
57	0x3dbefc34	0.09325448
58	0xbdfad15b	-0.12246963
59	0x3d0069a7	0.031350758
60	0xbdd51add	-0.104055144
61	0x3db92552	0.090403214
62	0x3de402ee	0.11133371
63	0x3c86a172	0.016434405

encoder.1.weight f4 [64]
0	0x3f7fbf79	0.9990154
1	0x3f7fd3ac	0.9993236
2	0x3f7fed52	0.999715
3	0x3f7ff25c	0.99979186
4	0x3f80177c	1.0007167
5	0x3f8010c6	1.0005119
6	0x3f8015ac	1.0006614
7	0x3f7fe57e	0.9995955
8	0x3f8015d0	1.0006657
9	0x3f7fe1e4	0.99954057
10	0x3f7fff29	0.9999872
11	0x3f7fbae4	0.9989455
12	0x3f800d86	1.0004127
13	0x3f8003ea	1.0001194
14	0x3f7fc44b	0.99908894
15	0x3f801280	1.0005646
16	0x3f7ff55e	0.99983776
17	0x3f7feb10	0.9996805
18	0x3f80154a	1.0006497
19	0x3f7fbc98	0.99897146
20	0x3f7fc8c2	0.9991571
21	0x3f801c7a	1.000869
22	0x3f7fdb0a	0.999436
23	0x3f802141	1.0010148
24	0x3f800c84	1.000382
25	0x3f8007ce	1.0002382
26	0x3f7fbee8	0.99900675
27	0x3f801bc4	1.0008473
28	0x3f7fd4d9	0.99934155
29	0x3f7ffccd	0.9999512
30	0x3f801256	1.0005596
31	0x3f8013e7	1.0006074
32	0x3f8019ab	1.0007833
33	0x3f7fe305	0.9995578
34	0x3f80120a	1.0005505
35	0x3f801e53	1.0009254
36	0x3f801309	1.0005809
37	0x3f7fcaba	0.9991871
38	0x3f7fe07e	0.9995192
39	0x3f7fe9de	0.9996623
40	0x3f8017f4	1.000731
41	0x3f8009bf	1.0002974
42	0x3f7fdfce	0.99950874
43	0x3f800a00	1.0003052
44	0x3f801303	1.0005802
45	0x3f80095f	1.000286
46	0x3f7fec3c	0.9996984
47	0x3f800393	1.0001091
48	0x3f80160e	1.000673
49	0x3f800164	1.0000424
50	0x3f801487	1.0006264
51	0x3f801b2f	1.0008296
52	0x3f8000b6	1.0000217
53	0x3f7fbdf9	0.9989925
54	0x3f7fe9bd	0.9996603
55	0x3f7fe594	0.99959683
56	0x3f7fc72d	0.99913293
57	0x3f800527	1.0001572
58	0x3f800633	1.0001892
59	0x3f801409	1.0006114
60	0x3f8009db	1.0003008
61	0x3f7ff631	0.99985033
62	0x3f7ffb2f	0.9999265
63	0x3f7fe9bc	0.99966025

encoder.1.bias f4 [64]
0	0x39e097c9	0.00042837698
1	0xba1d4628	-0.0005999529
2	0x38792a47	5.94056e-05
3	0xba476519	-0.0007606312
4	0x3a6d1458	0.0009043864
5	0x3a1b1fbb	0.0005917509
6	0x39d88e19	0.00041304601
7	0xba2ed300	-0.00066690147
8	0x3a4e5bec	0.0007871974
9	0x3a7025cf	0.00091609074
10	0xb9d0d478	-0.00039831153
11	0xba616850	-0.00085986126
12	0x3a7c6e01	0.0009629429
13	0xb987be60	-0.00025891047
14	0xb9b849b0	-0.00035150116
15	0xba71e68e	-0.0009227776
16	0xba0aab2a	-0.00052897877
17	0xba2062b5	-0.0006118224
18	0x3a8746c4	0.0010320772
19	0xb9e9eb20	-0.00044616405
20	0xba81011e	-0.0009842252
21	0xb9de368b	-0.00042383777
22	0x3a3a9fe4	0.00071191625
23	0x3a18852d	0.00058181846
24	0x3a64f09a	0.0008733362
25	0x3a18d669	0.00058302894
26	0xba7dd23d	-0.0009682512
27	0x3a8346a8	0.0010015564
28	0xba71975e	-0.0009215976
29	0xb9979e6e	-0.00028919004
30	0x3a17d415	0.00057917956
31	0x3a255779	0.0006307285
32	0x3a842505	0.0010081833
33	0xba1ea6bb	-0.00060520665
34	0xba6cf8dd	-0.0009039769
35	0x38d8e6f9	0.000103427046
36	0x39f02d65	0.0004581019
37	0x3a376f6f	0.0006997501
38	0xb9cd307d	-0.00039136774
39	0xb952e1f2	-0.00020111332
40	0x3a77eb84	0.0009457397
41	0x3a71f0e7	0.00092293177
42	0x39cb7c96	0.00038812
43	0x3a49a8c4	0.00076926895
44	0x39a2f3eb	0.0003108078
45	0x39be286c	0.0003626974
46	0xba02bcb7	-0.0004987227
47	0xb95183cb	-0.0001998089
48	0x3a540157	0.0008087358
49	0xb93d4ab4	-0.00018052274
50	0x3a82b6a8	0.0009972649
51	0x3a40c6d5	0.0007353847
52	0x3995ca3f	0.0002857018
53	0xba8085e9	-0.0009805533
54	0x395f9006	0.0002132059
55	0x39d3090d	0.000402518
56	0xb9f8c76d	-0.0004745083
57	0x39b6b875	0.00034851176
58	0xb9054ba5	-0.00012712048
59	0xba1e5a7a	-0.0006040704
60	0x3a3b5376	0.00071459205
61	0xb9a8d229	-0.0003220004
62	0xb9bfddfd	-0.00036595753
63	0x39f150d6	0.0004602733

encoder.1.running_mean f4 [64]
0	0xbe23556e	-0.15950558
1	0x3dd27e5c	0.102780074
2	0x3e23e688	0.1600591
3	0xbd777376	-0.060412847
4	0xbcb860a8	-0.022507027
5	0x3e8b7117	0.27234718
6	0x3e14bb82	0.14524654
7	0xbd3b3104	-0.04570104
8	0x3e6bd473	0.23030262
9	0x3e71f245	0.23627575
10	0xbd9f6442	-0.077827945
11	0xbe6ac875	-0.22928031
12	0x3e1351ee	0.14386722
13	0x3e2e2f13	0.17010145
14	0x3d13059c	0.03589402
15	0xbe27a229	-0.16370453
16	0xbd45690e	-0.04819589
17	0x3c149017	0.009067557
18	0xbd55ed55	-0.05222829
19	0xbe3829d7	-0.1798471
20	0x3ea1a827	0.31573603
21	0x3df165e1	0.1178701
22	0xbef8625c	-0.48512542
23	0xbda21007	-0.07913213
24	0xbdd1e2e8	-0.10248357
25	0xbe7e409f	-0.24829338
26	0xbe0b6580	-0.13612938
27	0xbeb430cb	-0.35193476
28	0xbe0501ef	-0.12989019
29	0xbe8b8365	-0.27248684
30	0x3dc4c3a0	0.09607625
31	0x3daaf604	0.08347705
32	0xbdfc0edc	-0.12307522
33	0xbe150e21	-0.14556171
34	0x3c689b12	0.014197128
35	0xbec2603b	-0.37964043
36	0x3e692bf4	0.22770673
37	0x3d6d95a6	0.058004044
38	0x3e2b329f	0.16718529
39	0x3c4af376	0.012387147
40	0x3e68cdc4	0.22734743
41	0xbeaa39ae	-0.3324713
42	0x3de0510b	0.10952958
43	0xbdd226ed	-0.10261331
44	0xbd96a960	-0.073565245
45	0x3e86a227	0.26295587
46	0x3e15edd8	0.14641511
47	0xbd259956	-0.040429436
48	0xbd14fd85	-0.036374588
49	0xbe5947d5	-0.21218808
50	0x3e97c150	0.29639673
51	0xbcece636	-0.028918367
52	0xbdb98c01	-0.09059907
53	0x3de42d49	0.1114145
54	0xbd3d338a	-0.04619173
55	0x3dfb94c3	0.122842334
56	0x3e324eed	0.1741292
57	0x3e92832a	0.28615695
58	0xbeb03764	-0.3441726
59	0x3c63d5ec	0.013905983
60	0x3e129aad	0.14316817
61	0xbe3f2f50	-0.18670392
62	0x3dd58b68	0.1042698
63	0xbe1d1182	-0.1533871

encoder.1.running_var f4 [64]
0	0x3daaf0e1	0.08346725
1	0x3dec1054	0.11526552
2	0x3f3f25ae	0.7466687
3	0x3d9b4656	0.07581775
4	0x3e942e28	0.28941464
5	0x3e09c30c	0.1345331
6	0x3edadc8e	0.42746395
7	0x3e0b3850	0.135957
8	0x3ed01d6a	0.4064744
9	0x3dfa35a0	0.122172594
10	0x3db77568	0.0895794
11	0x3e244e93	0.16045599
12	0x3c9161d5	0.017746845
13	0x3ee60938	0.44928908
14	0x3db45ef2	0.08807172
15	0x3e045db4	0.1292637
16	0x3dc16a5d	0.09444115
17	0x3f2efeb4	0.68357396
18	0x3eb2698c	0.3484615
19	0x3d856ee4	0.06515291
20	0x3ec8d82e	0.39227432
21	0x3e9d0c9d	0.30673686
22	0x3f916028	1.135747
23	0x3e48dc3d	0.19615264
24	0x3d5d60d4	0.05404742
25	0x3e49d478	0.19709957
26	0x3e1f1d50	0.15538526
27	0x3f4460f8	0.7671046
28	0x3e260066	0.1621109
29	0x3ef28e99	0.47374418
30	0x3e0483bc	0.12940878
31	0x3e065288	0.1311742
32	0x3e423ffd	0.18969722
33	0x3f2fddbf	0.6869773
34	0x3d301a8c	0.042994067
35	0x3fe8ffa2	1.8203013
36	0x3e1735c9	0.14766611
37	0x3dac13a9	0.084021874
38	0x3dcbc72c	0.099500984
39	0x3e0fcb29	0.14042343
40	0x3f90fa2d	1.1326348
41	0x4039dd61	2.904137
42	0x3d8ce1e3	0.06879022
43	0x3cba28a1	0.022724451
44	0x3e55074d	0.20803566
45	0x3f821034	1.0161195
46	0x3d9f3544	0.077738315
47	0x3e0b4ec4	0.13604265
48	0x3df17102	0.11789133
49	0x3d017660	0.03160703
50	0x3f34bb0a	0.705979
51	0x3dd8521f	0.10562538
52	0x3da4ae9a	0.08041115
53	0x3dd75866	0.105149075
54	0x3e5f8e3a	0.21831599
55	0x3e912dcf	0.28355262
56	0x3d738cd6	0.059460483
57	0x3f037bd8	0.51360846
58	0x3f5ab097	0.85425705
59	0x3c8613b2	0.016366813
60	0x3f1b877f	0.60753626
61	0x3f425676	0.7591318
62	0x3d9f0a48	0.07765633
63	0x3ed69957	0.41913864

encoder.4.weight f4 [128, 64, 3, 3]
0	0xbcd28629	-0.025698738
1	0x3d2053d5	0.03914245
2	0xbcac3a7d	-0.021023983
3	0xbca1eb54	-0.019765534
4	0x3bcfa063	0.0063362583
5	0x3d10d9de	0.035364024
6	0xbc53c9ef	-0.012926563
7	0xbd18f1e7	-0.03734007
8	0x3986cd2c	0.00025711337
9	0x3aaa172e	0.0012976879
10	0x3c634406	0.0138711985
11	0x3d0802b6	0.03320571
12	0x3c7bb1f6	0.015362253
13	0xbcd53b7f	-0.026029347
14	0xbc00503a	-0.0078316275
15	0x3ceef6e7	0.029170467
16	0xbca52fe0	-0.02016443
17	0x3cebad1e	0.028769072
18	0xbb22c813	-0.0024838492
19	0xbd0f4f69	-0.03498784
20	0xbc80943c	-0.015695684
21	0x3ca1e08c	0.019760393
22	0xba490b16	-0.00076691934
23	0xbc1d2c55	-0.009593089
24	0x3afddda6	0.0019368425
25	0x3cf11d27	0.029432846
26	0xbcf1d8af	-0.029522268
27	0xbba71be2	-0.0050997594
28	0x3a08be08	0.0005216305
29	0xbce0e225	-0.027451584
30	0x3cbe3b37	0.023221595
31	0xbc8923f3	-0.016740775
32	0x3cf83e1d	0.030303055
33	0xbd028bb7	-0.031871524
34	0xbd1ee9f1	-0.038797323
35	0x3cab1208	0.020882621
36	0x3ce602ff	0.0280776
37	0x3cfd648d	0.030931735
38	0xbc222173	-0.00989567
39	0x3c830a17	0.015996022
40	0x3b1fb17c	0.0024367264
41	0xbcc4dcc2	-0.024031047
42	0xbd179c5f	-0.03701436
43	0x3d026afe	0.031840317
44	0x3cecce63	0.028907007
45	0x3c6a1b39	0.014288717
46	0x3cadc50d	0.021212125
47	0x3c06057e	0.00818002
48	0x3d201865	0.039085764
49	0x3bc4c73b	0.0060051954
50	0xbb751c6f	-0.003740098
51	0xbb9877c6	-0.00465295
52	0xbce53e13	-0.0279837
53	0x3ac107c7	0.0014727049
54	0xbc8f8c40	-0.017522931
55	0xbadc1861	-0.0016791933
56	0xbd123189	-0.03569177
57	0xbc3a3e4c	-0.011367392
58	0x3b83baec	0.0040200856
59	0xbcf30b93	-0.029668605
60	0x3d177bfc	0.036983475
61	0x3d05ea8a	0.032694377
62	0x3d21f707	0.039542224
63	0x3d23da85	0.04000332
64	0x3cf89822	0.03034598
65	0xbcf06d9d	-0.029349143
66	0x3cea4b6c	0.028600417
67	0x3c1acf81	0.009448887
68	0x3caaefaf	0.020866243
69	0x3ca07b63	0.019590085
70	0x3c02c157	0.007980666
71	0xbcf832a5	-0.030297587
72	0xbd2aa469	-0.0416607
73	0x3c54e086	0.012992984
74	0x3ce6167c	0.028086893
75	0xbcb45619	-0.02201371
76	0x3c707fce	0.0146789085
77	0xbd0429ad	-0.032266308
78	0x3c4e650f	0.012597336
79	0x3bde2846	0.0067797033
80	0x3c0b5ff9	0.008506768
81	0xbcb087bc	-0.021549098
82	0xbc912d98	-0.017721936
83	0xbb17d682	-0.0023168628
84	0xbd056759	-0.032569263
85	0x3cf64708	0.030063167
86	0x3c4f2a7f	0.012644409
87	0x3cf51430	0.029916853
88	0x3cfd8a26	0.030949663
89	0x3a912262	0.0011072869
90	0xbcc7ae2d	-0.024375046
91	0xbcd4e549	-0.025988238
92	0x3cec1071	0.028816434
93	0x3d0fb614	0.035085753
94	0xbd244036	-0.0401003
95	0xbc4604ad	-0.012086076
96	0x3d0198f6	0.031640016
97	0x3c1b1a0f	0.009466662
98	0xbbbc595b	-0.0057479567
99	0xbd0efd75	-0.034909684
100	0x3d150f22	0.036391385
101	0xbce7a6b8	-0.02827774
102	0xbd018a3b	-0.031625967
103	0x3cc23ee9	0.023711639
104	0xbb615506	-0.0034382953
105	0x39a8066a	0.00032048236
106	0xbaf83638	-0.0018937057
107	0xbc8d2fcd	-0.017234707
108	0x3cd3bf00	0.025847912
109	0xbc1213eb	-0.008915882
110	0x3c0378d8	0.008024417
111	0x3c53ffef	0.012939437
112	0xbbb5f383	-0.0055527105
113	0xbc0a6d25	-0.008448874
114	0xbc9b0103	-0.01892138
115	0xbc6d40aa	-0.014480749
116	0xbc9b8c38	-0.01898776
117	0xbd23c352	-0.039981194
118	0x3d01f9b3	0.031732272
119	0xbd1c665c	-0.038183555
120	0x3d20eef8	0.0392904
121	0xbbb0f5d1	-0.0054003973
122	0x3cdb43c2	0.026765708
123	0x3be00e27	0.0068376246
124	0x3d26de1f	0.040739175
125	0xbabf96e0	-0.0014617108
126	0x3be7b96c	0.0070716646
127	0x3c30fd6e	0.01080261
128	0x3caa3b2b	0.020780167
129	0xbd21b1f8	-0.039476365
130	0x3c8f1149	0.017464297
131	0xbca00623	-0.019534176
132	0x3cac5ae3	0.021039432
133	0x3cfd2961	0.03090352
134	0xbd19b770	-0.037528455
135	0xbca850be	-0.020546313
136	0xbd0f244a	-0.034946717
137	0xbd1cee2c	-0.038313076
138	0xbc7f6f76	-0.015590539
139	0x39ee2b3a	0.00045427104
140	0x3b290c4b	0.002579468
141	0xbcd42085	-0.025894413
142	0x3c11ba0a	0.008894453
143	0xba962088	-0.0011453787
144	0x3cd25885	0.025676975
145	0xbc5d5e84	-0.013511304
146	0x3d0ce43a	0.03439734
147	0xbceb8b89	-0.028753059
148	0x3cd53358	0.02602546
149	0x3cb65131	0.022255512
150	0xbb0dac1b	-0.0021617475
151	0xbc8a6cf1	-0.01689765
152	0x3cd8202c	0.026382528
153	0x3ce256c9	0.027629273
154	0xbc02f79a	-0.007993603
155	0xbd09b42a	-0.033619083
156	0x3b87a20d	0.004139191
157	0xbc6453ad	-0.0139359655
158	0x3b6356c0	0.0034689158
159	0x3cbba564	0.022906013
160	0x3bc0915b	0.0058767027
161	0xbcd2a7fd	-0.025714869
162	0xbcbdc885	-0.023166904
163	0x3c94ae56	0.018149536
164	0x3b75fd2a	0.003753493
165	0xbc8ad1a2	-0.016945664
166	0xbc1df161	-0.009640069
167	0xbd2642f3	-0.04059119
168	0xbc82f8b5	-0.015987733
169	0xba2ef1b7	-0.00066735916
170	0xbcc4ff9f	-0.02404767
171	0xbcebcb2f	-0.028783409
172	0xbd05f367	-0.03270283
173	0x3cd00ca0	0.025396645
174	0xbcc30cf1	-0.023809882
175	0xbb897879	-0.0041952697
176	0x3d008610	0.031377852
177	0xbd071389	-0.032977615
178	0x3bda4bbc	0.0066618603
179	0x3d0c73e5	0.034290213
180	0x3a6ef27a	0.00091151113
181	0x3cfbc19e	0.030731972
182	0xbcfb5f18	-0.030684993
183	0xbd15a35c	-0.036532745
184	0xbcbc3b99	-0.022977637
185	0x3d140bc7	0.036144044
186	0x3a883868	0.0010392787
187	0xbcc7caf0	-0.02438876
188	0xbbace8b1	-0.0052767624
189	0x3ccaab17	0.024739785
190	0x3d22bb94	0.03972967
191	0xba64e8ea	-0.00087322167
192	0x3c6e3ad1	0.01454039
193	0xbcf5ec03	-0.030019766
194	0xbd01350d	-0.031544734
195	0x3c59b67d	0.0132881375
196	0xbd21ed38	-0.03953287
197	0x3b24f09d	0.002516783
198	0x3bd2a7a5	0.006428676
199	0x3d172e10	0.036909163
200	0xbc0fa8a7	-0.008768237
201	0xbc981eaa	-0.01856931
202	0x3d1ee0ac	0.038788483
203	0xbd162e3e	-0.036665194
204	0x3c734445	0.01484782
205	0xbca52497	-0.020159049
206	0x3c957ecd	0.01824894
207	0x3c400907	0.011720902
208	0xbc5ea92b	-0.0135901375
209	0x3d20eaff	0.03928661
210	0x3cf8367c	0.030299418
211	0x3d01ea64	0.031717673
212	0xbd20efd2	-0.03929121
213	0x3c79e91d	0.015253332
214	0x3cb046d5	0.02151815
215	0x3c783d6d	0.015151364
216	0x3ca9ac34	0.020711996
217	0xbcca1878	-0.02466987
218	0xbcba64e0	-0.02275318
219	0xbcb29cb8	-0.021803245
220	0xbc9703d9	-0.018434452
221	0xbc0ef83c	-0.008726176
222	0xbcc95b4b	-0.024579665
223	0xbbfe9d16	-0.007770191
224	0xbc561cbc	-0.013068374
225	0x3c433ebe	0.011916814
226	0xbcf04f2c	-0.029334627
227	0x3b8a52a0	0.0042212754
228	0x3cdddf0c	0.027083896
229	0xbd0b4f6e	-0.034011297
230	0xbc968cc1	-0.018377664
231	0x3bda84e0	0.006668672
232	0x3cc72239	0.02430831
233	0xbc3f2820	-0.011667281
234	0xbbb1489f	-0.0054102684
235	0xbc023335	-0.007946779
236	0x3c536366	0.012902116
237	0xbcd3647d	-0.025804752
238	0x3d1a31dc	0.037645206
239	0xbce25586	-0.027628671
240	0x3cd6d888	0.026226297
241	0x3a22fae9	0.0006217198
242	0xbc72bc9c	-0.014815476
243	0x3bc67a3e	0.006057053
244	0x3c9de769	0.019275384
245	0xbd0bb220	-0.03410542
246	0x3cf4a4c6	0.029863726
247	0xbc0dbd7e	-0.0086511355
248	0xbcbade11	-0.022810968
249	0xbc8f1018	-0.017463729
250	0xbcbe5ebc	-0.023238532
251	0xbc895596	-0.016764443
252	0x3c6df750	0.014524296
253	0x3cf2544c	0.029581212
254	0x3d26abf7	0.040691342
255	0xbac139fb	-0.0014742011

encoder.4.bias f4 [128]
0	0x3adad325	0.0016695006
1	0xbcdc590d	-0.026897931
2	0x3cd5933f	0.026071189
3	0xbd11dd88	-0.03561166
4	0x3d284698	0.04108295
5	0xbbf77410	-0.0075516775
6	0x3d1f6e9e	0.038923852
7	0x3ba73e74	0.0051038805
8	0xbcb5507b	-0.022133103
9	0x3ccaa915	0.024738828
10	0xbb85a7a5	-0.0040788227
11	0xbca1065b	-0.01965635
12	0xbd1bbb02	-0.03802014
13	0x3a64a758	0.0008722446
14	0x3c99d6f8	0.018779263
15	0xbca28e7f	-0.019843338
16	0x3d07fcfc	0.03320025
17	0xbbac0b88	-0.005250398
18	0xbb96a608	-0.004597429
19	0x3d0e6c8f	0.0347715
20	0x3cf2b917	0.029629273
21	0xbd19d87c	-0.03755997
22	0x3cb97aeb	0.02264162
23	0x3a8cb054	0.0010733702
24	0x3cf7fc98	0.030271813
25	0xbd207fee	-0.039184503
26	0xbc34bdf2	-0.011031615
27	0xbd17f07f	-0.03709459
28	0xbc8c2621	-0.017108025
29	0xbc427653	-0.011869031
30	0x3cc82108	0.024429813
31	0x3d01f124	0.03172411
32	0xbbe39b59	-0.006946009
33	0x3cb4bd56	0.022062939
34	0x3d13f12d	0.036118675
35	0x3c86f6a4	0.01647503
36	0x3cc378cb	0.02386131
37	0x3c4c792f	0.012480064
38	0xbc347006	-0.011013037
39	0xbc1176d2	-0.008878427
40	0xbcb0af75	-0.02156804
41	0x3c50f0e5	0.012752746
42	0xbc352fba	-0.011058742
43	0x3aa9cea9	0.0012955266
44	0x3ca963d5	0.020677486
45	0xba7099c1	-0.00091781846
46	0x3c62ef18	0.01385095
47	0xbd22d782	-0.039756306
48	0x3d1b5fac	0.037933037
49	0x3cdfa201	0.02729893
50	0xbc83b71f	-0.01607853
51	0x3c952201	0.01820469
52	0xbca217ec	-0.019786797
53	0xbb5232d3	-0.003207375
54	0xbcdb98ed	-0.02680632
55	0xbc5ed67f	-0.013600945
56	0xbafcc10b	-0.0019283606
57	0x3d1a4087	0.037659194
58	0xbd1c79c5	-0.038202066
59	0x3bd652d1	0.006540634
60	0xbbfa9e30	-0.007648252
61	0xbc3c64a2	-0.011498602
62	0xbd098738	-0.03357622
63	0xbc79f598	-0.015256308
64	0x3c343e0c	0.011001121
65	0x3c82a967	0.015949918
66	0x3c7a53ac	0.015278738
67	0x3d053952	0.032525368
68	0xbd0ab834	-0.033867076
69	0xbb49e8cc	-0.0030808924
70	0xbc739361	-0.014866681
71	0xbb1b8666	-0.002373123
72	0x3cadda56	0.021222275
73	0xbc8555d4	-0.016276278
74	0xbd14902d	-0.03627031
75	0x3c166cd6	0.009181222
76	0x3c4afcf2	0.012389408
77	0x3cc87272	0.024468634
78	0x3c272963	0.010202738
79	0x3d07357b	0.033009987
80	0x3d1d0ea0	0.038344026
81	0xbd0f22b4	-0.034945205
82	0xbc83eac6	-0.01610316
83	0xbd19ddf2	-0.03756518
84	0xbd1826ba	-0.037146308
85	0x3c2d07cc	0.010560941
86	0xbc3b726c	-0.0114408545
87	0xbcba3914	-0.022732295
88	0xbc0c5fd5	-0.00856777
89	0x3b1cfd9b	0.0023954872
90	0xbc071458	-0.008244596
91	0x3cd2cb24	0.02573163
92	0xbba698d9	-0.005084139
93	0x3c0d1f0d	0.00861336
94	0x3bc77195	0.006086538
95	0x3ce87204	0.02837468
96	0x3cde65e5	0.027148196
97	0xbd17aee5	-0.037032027
98	0x3d0a1434	0.033710673
99	0xbcc212ee	-0.023690667
100	0xbd081e3a	-0.03323195
101	0x3c33eb53	0.010981399
102	0xbc774295	-0.015091558
103	0xbcb6d6dd	-0.022319252
104	0xbd064724	-0.03278269
105	0x3cf976cb	0.030452153
106	0xbc965761	-0.018352212
107	0xbd26f319	-0.04075918
108	0x38ebf691	0.000112516
109	0x3cd2ed7d	0.025748009
110	0xbcd0c206	-0.025483143
111	0x3c4b2f2f	0.012401386
112	0xbcfeedba	-0.031119216
113	0xbbe6ae8e	-0.0070398515
114	0x3ab64c08	0.0013908157
115	0x3c1c8bba	0.009554798
116	0xbd0d4e06	-0.034498237
117	0x3c7696dd	0.015050617
118	0xbc8c255a	-0.017107654
119	0x3c649972	0.0139526
120	0xbd1fe231	-0.039034072
121	0x3cb2cfd4	0.021827616
122	0xbc7bc5f6	-0.015367022
123	0xbd257efa	-0.040404297
124	0x3d11df3c	0.035613284
125	0x3cacb397	0.021081729
126	0xbca30705	-0.019900808
127	0x3cc8df3d	0.02452051

encoder.5.weight f4 [128]
0	0x3f80118b	1.0005354
1	0x3f800cc4	1.0003896
2	0x3f80093d	1.0002819
3	0x3f7fd0df	0.99928087
4	0x3f800b7b	1.0003504
5	0x3f800dd2	1.0004218
6	0x3f802171	1.0010206
7	0x3f8017ab	1.0007223
8	0x3f7fc1c7	0.99905056
9	0x3f7fe8a3	0.9996435
10	0x3f800ae2	1.0003321
11	0x3f800b3d	1.000343
12	0x3f801635	1.0006777
13	0x3f7feb88	0.9996877
14	0x3f800687	1.0001992
15	0x3f80034c	1.0001006
16	0x3f7ffa39	0.99991184
17	0x3f7fcfec	0.9992664
18	0x3f800fea	1.0004857
19	0x3f7feb30	0.9996824
20	0x3f801181	1.0005342
21	0x3f7fe454	0.99957776
22	0x3f800ef9	1.0004569
23	0x3f801484	1.0006261
24	0x3f7fd09b	0.9992768
25	0x3f801d09	1.0008861
26	0x3f7ff5f7	0.9998469
27	0x3f7fc76a	0.99913657
28	0x3f801d96	1.0009029
29	0x3f7fda1e	0.99942195
30	0x3f7fbc10	0.99896336
31	0x3f800998	1.0002928
32	0x3f801400	1.0006104
33	0x3f7fc9d1	0.9991732
34	0x3f801113	1.0005211
35	0x3f8014d0	1.0006351
36	0x3f7fcd5d	0.99922734
37	0x3f7fe9b0	0.99965954
38	0x3f800ffb	1.0004877
39	0x3f800370	1.0001049
40	0x3f7fd798	0.99938345
41	0x3f7fd797	0.9993834
42	0x3f7fe849	0.99963814
43	0x3f801939	1.0007697
44	0x3f7fdd26	0.9994682
45	0x3f8018d7	1.000758
46	0x3f7fd2e2	0.99931157
47	0x3f7fe5a7	0.99959797
48	0x3f8006b3	1.0002044
49	0x3f7fecba	0.9997059
50	0x3f7fe7f1	0.9996329
51	0x3f801732	1.0007079
52	0x3f7fcf31	0.99925524
53	0x3f7fd17b	0.99929017
54	0x3f801c3c	1.0008616
55	0x3f80156c	1.0006537
56	0x3f801766	1.0007141
57	0x3f7fbfae	0.99901855
58	0x3f7fbed8	0.9990058
59	0x3f7fe3c6	0.9995693
60	0x3f7fc909	0.9991613
61	0x3f801431	1.0006162
62	0x3f7fbf2e	0.9990109
63	0x3f7fcfcf	0.99926466
64	0x3f8017df	1.0007285
65	0x3f7fe912	0.9996501
66	0x3f7fd861	0.99939543
67	0x3f8003b7	1.0001134
68	0x3f801395	1.0005976
69	0x3f800a02	1.0003054
70	0x3f801a13	1.0007957
71	0x3f801ba9	1.0008441
72	0x3f8010a0	1.0005074
73	0x3f7ff3cd	0.99981385
74	0x3f7fe460	0.9995785
75	0x3f801e35	1.0009218
76	0x3f7fcab3	0.9991867
77	0x3f801bcc	1.0008483
78	0x3f7fe4e6	0.99958646
79	0x3f7fc89a	0.9991547
80	0x3f7fd730	0.99937725
81	0x3f7fce8a	0.9992453
82	0x3f7fea33	0.99966735
83	0x3f801e4c	1.0009246
84	0x3f7fedaa	0.9997202
85	0x3f801849	1.0007411
86	0x3f800aa3	1.0003246
87	0x3f800f82	1.0004733
88	0x3f7ff016	0.9997572
89	0x3f7ffbbc	0.9999349
90	0x3f7fc397	0.9990782
91	0x3f8017a3	1.0007213
92	0x3f8010f5	1.0005175
93	0x3f801443	1.0006183
94	0x3f7ff9a6	0.9999031
95	0x3f7ff81f	0.9998798
96	0x3f801810	1.0007343
97	0x3f7fceb9	0.9992481
98	0x3f800fd5	1.0004832
99	0x3f801c2c	1.0008597
100	0x3f801ab6	1.0008152
101	0x3f8014d6	1.0006359
102	0x3f80025c	1.000072
103	0x3f8004f3	1.000151
104	0x3f801179	1.0005332
105	0x3f8008b6	1.0002658
106	0x3f7fe0c7	0.9995236
107	0x3f7ff49f	0.9998264
108	0x3f7fee4d	0.99972993
109	0x3f801275	1.0005633
110	0x3f7fc75d	0.9991358
111	0x3f801961	1.0007745
112	0x3f7fc4f9	0.9990993
113	0x3f801776	1.000716
114	0x3f801809	1.0007335
115	0x3f801858	1.0007429
116	0x3f8007bc	1.000236
117	0x3f801793	1.0007194
118	0x3f800c17	1.000369
119	0x3f7ff6f5	0.999862
120	0x3f7fdc6f	0.9994573
121	0x3f7ffb4e	0.99992836
122	0x3f8015e2	1.0006678
123	0x3f7fd289	0.99930626
124	0x3f7fcd5e	0.9992274
125	0x3f7ffba5	0.99993354
126	0x3f800b3f	1.0003432
127	0x3f7fe1e9	0.99954087

encoder.5.bias f4 [128]
0	0x3a53af67	0.0008075148
1	0x3a451501	0.00075180834
2	0xb831624a	-4.2291627e-05
3	0xba8344e6	-0.001001504
4	0xb7cda08c	-2.4512665e-05
5	0x3a0c365e	0.00053486775
6	0x3a87aaf4	0.0010350631
7	0x39d68176	0.00040913717
8	0xba0f34ae	-0.0005462867
9	0x3a72a206	0.0009255711
10	0xba6f5018	-0.00091290614
11	0x3900c3e9	0.00012280013
12	0x3a58a5b1	0.0008264436
13	0xb9de3004	-0.00042378914
14	0x3a2e4221	0.0006647427
15	0xba582355	-0.0008245011
16	0xb9e15398	-0.00042977626
17	0xba26440e	-0.00063425384
18	0x39fee0a2	0.0004861402
19	0x375b65ac	1.30770895e-05
20	0x3a10ed28	0.0005528503
21	0xb9f25863	-0.0004622369
22	0xb99b2abf	-0.00029595752
23	0x3a396537	0.0007072272
24	0xba0c1bab	-0.0005344699
25	0x39cb720a	0.00038804143
26	0xba1d0a23	-0.0005990585
27	0xba60676f	-0.00085603347
28	0x3a3c52fd	0.0007183997
29	0xba5e708d	-0.00084853993
30	0xba7609bb	-0.0009385605
31	0xba835a9e	-0.0010021513
32	0x3a028826	0.0004979394
33	0xb898772d	-7.270123e-05
34	0x3a6a5d64	0.0008940308
35	0x3a556fb2	0.0008141949
36	0xba5481dd	-0.00081065093
37	0x3a39806a	0.0007076325
38	0x3a544c04	0.00080984854
39	0x37ed6d5c	2.8303526e-05
40	0x399344fd	0.00028089425
41	0xb998a05f	-0.00029111185
42	0xb8b42714	-8.590348e-05
43	0x3a45799f	0.00075330766
44	0x3a62d882	0.0008653478
45	0x3a342bcb	0.0006872981
46	0xba75d6eb	-0.00093780336
47	0x38e2cad2	0.00010814298
48	0x3a5e3d24	0.00084777386
49	0xba8102da	-0.0009842769
50	0xba0ccce7	-0.0005371109
51	0x3a11d5f9	0.00055631954
52	0xb9d80d21	-0.00041208512
53	0xba8672e5	-0.001025763
54	0x3a77fa77	0.00094596244
55	0x3a1cf92f	0.0005988059
56	0xba53e96e	-0.0008083795
57	0xba6c5a13	-0.00090161077
58	0xba5761b2	-0.0008216157
59	0xb91df0b5	-0.00015062357
60	0xba7a353d	-0.0009544676
61	0x3a3a5057	0.00071073085
62	0xba768dfc	-0.00094053126
63	0xba4aa055	-0.000772958
64	0x3a0cc5b6	0.00053700374
65	0x3a2b0fee	0.0006525506
66	0xba15c963	-0.0005713908
67	0xb935b668	-0.00017329457
68	0x3a083cb4	0.0005197034
69	0x3a849342	0.0010114687
70	0x3a465afb	0.0007566658
71	0x3a2fbf66	0.0006704241
72	0xba4947e7	-0.0007678256
73	0x39817134	0.0002468914
74	0xb98a9b43	-0.0002643709
75	0x3a0b540a	0.0005314952
76	0xba829aab	-0.0009964308
77	0x39e4ccab	0.00043640038
78	0x38cf4ac2	9.884454e-05
79	0xba426662	-0.0007415769
80	0x398986b2	0.00026231032
81	0x3991047c	0.00027659896
82	0xba81aa63	-0.0009892698
83	0x3a86a079	0.0010271213
84	0xba073f97	-0.0005159317
85	0x3a58ab75	0.0008265295
86	0x3a7b2272	0.0009580023
87	0x3a708798	0.00091754785
88	0x3894d81f	7.0974456e-05
89	0xb9b01c69	-0.00033590503
90	0xba86a937	-0.0010273819
91	0x396bd028	0.0002248889
92	0x39818ec6	0.00024711172
93	0x3a6e1b6b	0.0009083065
94	0x3a21e7d6	0.0006176209
95	0xba296a5b	-0.00064626866
96	0x39c05659	0.00036685428
97	0xba4ad9b5	-0.00077381294
98	0x39b8ed8a	0.00035272195
99	0x3a603731	0.0008553146
100	0xb806d001	-3.214181e-05
101	0x3a7786a6	0.00094423664
102	0xba23e433	-0.0006251961
103	0xba40dd8c	-0.0007357232
104	0x3a04d5f3	0.00050672813
105	0x3a266e8d	0.0006348871
106	0xb9bfe0b0	-0.00036597764
107	0x3953f795	0.0002021476
108	0x3a2dd18f	0.0006630653
109	0x3a754004	0.00093555474
110	0xb891041d	-6.914905e-05
111	0x3a45a32e	0.0007539269
112	0xba6fcfa9	-0.000914807
113	0x39fbec3d	0.00048050462
114	0x37713614	1.437731e-05
115	0x38d31b48	0.000100663456
116	0x3a275301	0.0006382913
117	0x39f62380	0.00046947226
118	0xba822fb0	-0.0009932425
119	0x3a29c982	0.00064768654
120	0xba0502d2	-0.00050739676
121	0x38fdba76	0.00012098711
122	0xb9d1f518	-0.00040046195
123	0xba5db068	-0.00084567675
124	0xba190714	-0.00058375415
125	0x392eacc5	0.00016658295
126	0x3a41406b	0.0007371965
127	0x388fa639	6.849733e-05

encoder.5.running_mean f4 [128]
0	0xbee9f524	-0.4569484
1	0x3e53723f	0.2064905
2	0x3ef03920	0.46918583
3	0x3e0d071b	0.13772242
4	0xbe0f4046	-0.13989362
5	0xbd85a13e	-0.06524895
6	0xbf14a92b	-0.5807063
7	0x3eb4f6d6	0.3534457
8	0xbe85f469	-0.26163033
9	0x3ea13b97	0.31490776
10	0xbc9ecad8	-0.019383833
11	0x3e376caa	0.17912546
12	0xbe8ded74	-0.27720225
13	0xbecdd789	-0.40203503
14	0xbeb6e6a3	-0.35722837
15	0x3f0bf191	0.54665476
16	0xbd922359	-0.07135648
17	0xbeea82a8	-0.45802808
18	0x3e56f6ef	0.20992635
19	0xbe16cdf1	-0.14726998
20	0x3d87baa4	0.06627396
21	0xbe9228f3	-0.28546867
22	0xbed90dd7	-0.4239337
23	0xbf119eb0	-0.5688276
24	0x3d8bc57f	0.06824779
25	0xbee42c32	-0.44564968
26	0x3e87066a	0.2637208
27	0xbe71163b	-0.23543637
28	0x3e943e70	0.28953886
29	0x3f784494	0.9697964
30	0xbebe6490	-0.37186098
31	0xbd8b92a0	-0.06815076
32	0xbee5537c	-0.44790256
33	0xbec66f3e	-0.38756746
34	0x3ed7d2da	0.42153054
35	0xbdf93c6c	-0.12169728
36	0x3d2dd00e	0.042434745
37	0xbe5e7169	-0.2172295
38	0xbdb64927	-0.089006715
39	0xbe3a8e95	-0.18218453
40	0x3e23d49f	0.15999077
41	0x3f0d7a40	0.55264664
42	0xbf3e7ebc	-0.7441213
43	0x3e11c2ba	0.14234439
44	0xbdf2aa52	-0.11848892
45	0x3e595284	0.21222883
46	0xbe51ab3d	-0.20475478
47	0x3e890419	0.2676094
48	0xbed7be5e	-0.42137426
49	0x3cb7bf18	0.022429988
50	0xbe0e6e84	-0.13909346
51	0x3f2f8356	0.6855978
52	0xbef790ab	-0.4835256
53	0x3e8d21a4	0.27564728
54	0xbdd0e577	-0.10200017
55	0x3d8cbbde	0.0687177
56	0x3e8ce140	0.27515602
57	0xbee428f6	-0.445625
58	0x3d0cec9c	0.034405336
59	0x3e76c39a	0.24098054
60	0x3f0c36c3	0.5477106
61	0xbc4454a3	-0.01198307
62	0x3ec47583	0.38370904
63	0x3d9431a8	0.07236034
64	0x3e6c9ca7	0.23106633
65	0x3eabb2f8	0.3353498
66	0x3c94eddc	0.018179826
67	0x3e92f033	0.28698882
68	0x3e00ebba	0.12589923
69	0xbe24932f	-0.16071771
70	0x3d866d46	0.06563811
71	0x3e8cbacb	0.27486262
72	0xbd1f5931	-0.03890342
73	0xbec43423	-0.38321027
74	0xbf0d68cb	-0.55238026
75	0xbe89295c	-0.26789367
76	0x3e9c9e1e	0.30589384
77	0x3f170ac3	0.59000796
78	0xbe25eb2b	-0.1620299
79	0x3db1d987	0.08684068
80	0x3e8e776c	0.27825487
81	0xbe2fdd00	-0.17174149
82	0x3e33b701	0.17550279
83	0xbe475cb7	-0.19468962
84	0xbe57b94e	-0.21066782
85	0xbde15d84	-0.11004165
86	0xbe49c08a	-0.19702354
87	0xbef9a498	-0.48758388
88	0xbf34db58	-0.7064719
89	0x3d99de9e	0.07513164
90	0xbd85d2f4	-0.06534377
91	0xbe92c467	-0.28665468
92	0x3e363277	0.17792688
93	0xbe80f7f6	-0.2518918
94	0xbdf80b62	-0.12111546
95	0xbe93d540	-0.28873634
96	0xbf059d21	-0.52192885
97	0x3d2632a9	0.040575657
98	0x3e6647f8	0.22488391
99	0x3e8303b5	0.25588766
100	0xbe633c1e	-0.22190902
101	0xbe71a051	-0.23596312
102	0xbec45253	-0.38344058
103	0x3da5c15c	0.08093521
104	0x3e91af8d	0.28454247
105	0xbe8c0c8e	-0.27353328
106	0xbd1ca2f3	-0.038241338
107	0xbe1f3668	-0.15548098
108	0x3d5b191a	0.053490736
109	0x3ccbd83e	0.024883386
110	0xbec12dc0	-0.37730217
111	0xbf1c60be	-0.61085117
112	0xbe7d44f8	-0.2473334
113	0xbe6c4703	-0.23073964
114	0x3e3d753c	0.18501753
115	0x3ee6811b	0.45020375
116	0xbdf4e1a4	-0.119571
117	0xbf3c53f3	-0.73565596
118	0x3cb8c9fe	0.022557255
119	0xbde2462a	-0.11048539
120	0x3e23cc39	0.15995874
121	0x3e4442d6	0.19166121
122	0x3e829558	0.25504565
123	0xbd3f83b6	-0.04675647
124	0xbd7e827e	-0.062136166
125	0x3e8843fe	0.26614374
126	0xbe2a8658	-0.1665281
127	0xbb9ed948	-0.0048476793

encoder.5.running_var f4 [128]
0	0x3e547722	0.2074857
1	0x3dac06e3	0.08399751
2	0x3e04912f	0.12946008
3	0x3dccf8b6	0.10008375
4	0x3ded416d	0.115847446
5	0x3e091dee	0.13390324
6	0x3e282bf2	0.16423014
7	0x3e097380	0.13422966
8	0x3d96d880	0.07365513
9	0x3e23e32c	0.16004628
10	0x3d97ac60	0.07405925
11	0x3dcd939c	0.1003792
12	0x3e1b94e5	0.15193518
13	0x3e69e4b6	0.22841153
14	0x3e493503	0.19649129
15	0x3e55e4cb	0.20888059
16	0x3ded808e	0.115967855
17	0x3e0b1bc1	0.13584806
18	0x3e2e615e	0.1702933
19	0x3de19044	0.110138446
20	0x3da5a973	0.080889605
21	0x3e30a4d6	0.1725038
22	0x3dd104c3	0.10205986
23	0x3e2c0e5f	0.16802357
24	0x3dee457b	0.11634346
25	0x3da411fc	0.08011243
26	0x3e94e549	0.2908118
27	0x3db2019d	0.08691714
28	0x3e1cc39d	0.15308996
29	0x3e9b0639	0.30278185
30	0x3ddf664a	0.10908182
31	0x3e0dca9f	0.13846825
32	0x3ee10fdd	0.43957415
33	0x3df0f333	0.117651366
34	0x3e8e7d78	0.278301
35	0x3e5e4e61	0.21709587
36	0x3e3a4b74	0.18192846
37	0x3f342953	0.70375556
38	0x3e0c42c3	0.13697343
39	0x3d7a2cf3	0.061078023
40	0x3dcd6d6e	0.10030638
41	0x3e4c6914	0.19961959
42	0x3e532172	0.20618227
43	0x3ea9f597	0.33195183
44	0x3db38203	0.08765032
45	0x3dbcb7f4	0.09214774
46	0x3e0761fd	0.13220973
47	0x3ea0a4db	0.31375775
48	0x3ed0584e	0.4069237
49	0x3e3e64f8	0.18593204
50	0x3dc3a696	0.09553258
51	0x3e4fd901	0.20297624
52	0x3e7fc56b	0.24977653
53	0x3e198939	0.14993753
54	0x3dfe5c5f	0.12419962
55	0x3e028a4d	0.1274807
56	0x3ddb3447	0.107033305
57	0x3eaa47cc	0.33257902
58	0x3db89b31	0.090139754
59	0x3dffe080	0.12493992
60	0x3e06f05f	0.13177632
61	0x3ea81b10	0.32833147
62	0x3df1cdb7	0.11806815
63	0x3d9914b6	0.074746534
64	0x3e138003	0.14404301
65	0x3df75cea	0.12078269
66	0x3e192f9f	0.14959572
67	0x3e1ade2c	0.15123814
68	0x3e3e4814	0.18582183
69	0x3e5669d7	0.20938812
70	0x3e21e1d6	0.15808806
71	0x3e41a978	0.18912303
72	0x3e39cf9b	0.18145601
73	0x3e20ae61	0.1569152
74	0x3e5c51ba	0.21515551
75	0x3e56c3fb	0.20973198
76	0x3db5ea56	0.08882587
77	0x3f024072	0.50879586
78	0x3e3c1f0a	0.18371215
79	0x3e0a38c2	0.13498214
80	0x3e207705	0.15670402
81	0x3def029c	0.116704196
82	0x3e036c1f	0.12834214
83	0x3e5a4cca	0.21318355
84	0x3e4399ba	0.19101611
85	0x3e074500	0.13209915
86	0x3e233dfb	0.15941612
87	0x3e1c1eea	0.15246168
88	0x3ef74db9	0.48301485
89	0x3dcfc2a2	0.10144545
90	0x3e268bfb	0.16264336
91	0x3e22acbb	0.15886204
92	0x3eaf9f47	0.34301206
93	0x3e11f667	0.14254151
94	0x3dda711e	0.10666107
95	0x3e727833	0.23678665
96	0x3e75c240	0.23999882
97	0x3e652cb2	0.22380331
98	0x3d9bb097	0.07602041
99	0x3e32bfd1	0.17455985
100	0x3dc47317	0.09592264
101	0x3e329bba	0.17442217
102	0x3e33e894	0.1756919
103	0x3dc8978d	0.09794531
104	0x3dd869ab	0.105670296
105	0x3e67680c	0.22598284
106	0x3dcead1c	0.10091612
107	0x3e582ef0	0.21111655
108	0x3e265229	0.16242279
109	0x3e06fbe4	0.13182026
110	0x3e47c4b4	0.1950863
111	0x3e2e3207	0.17011271
112	0x3e8238d3	0.25433978
113	0x3e55c0b2	0.20874289
114	0x3e30ff9a	0.17285004
115	0x3e70a444	0.23500162
116	0x3e3bf882	0.18356517
117	0x3e81722c	0.2528242
118	0x3de15f6a	0.11004527
119	0x3e12d8a4	0.14340454
120	0x3e7c7c28	0.24656737
121	0x3dfd25b0	0.12360704
122	0x3dba66a9	0.09101612
123	0x3e0a5110	0.13507485
124	0x3e0f6808	0.14004529
125	0x3ddbe268	0.10736543
126	0x3db179eb	0.08665832
127	0x3e4420ef	0.19153188

decoder.0.weight f4 [64, 128, 3, 3]
0	0x3c764f5b	0.015033568
1	0xbbe6da72	-0.0070450837
2	0x3cc21725	0.023692677
3	0xbc9ef1fd	-0.019402498
4	0x3c84cc10	0.016210586
5	0x3c9a71b1	0.01885304
6	0xbce0fc08	-0.027463928
7	0x3b47924f	0.0030452197
8	0xbc5f0975	-0.013613095
9	0x3caac1a2	0.020844284
10	0xbc76b73f	-0.015058338
11	0x3c33a5b8	0.010964803
12	0xbc1bc454	-0.0095072575
13	0xbcdf3671	-0.02724764
14	0x3ca9d0f3	0.020729518
15	0x3b5b906d	0.0033502833
16	0x3c8bb49f	0.0170539
17	0x3ce1d0f4	0.027565457
18	0x3cf20114	0.02954153
19	0xba9fe119	-0.0012197822
20	0x3cd5bac2	0.02609003
21	0xbce5d946	-0.028057706
22	0xbcb7962b	-0.022410473
23	0x3c8fccbc	0.01755368
24	0xbc8b0280	-0.016968966
25	0xbc9d78cd	-0.019222641
26	0xbcbb690d	-0.02287724
27	0xbbc6eb0f	-0.0060705016
28	0x3bc634fb	0.006048796
29	0xbcd117a8	-0.025523975
30	0x3c7f603c	0.015586909
31	0xbc12477f	-0.008928179
32	0xbc1819c6	-0.009283489
33	0xba8a8340	-0.001056768
34	0x3c669e5d	0.014075843
35	0xbcaa0816	-0.020755809
36	0xbc5a1a06	-0.0133118685
37	0xbc1d712b	-0.009609501
38	0x3bb26715	0.0054444172
39	0x3c7a10c5	0.015262787
40	0xbc9a8821	-0.01886374
41	0x3b60e9d7	0.0034319067
42	0x3c3973d0	0.011319116
43	0xbcbd8d7b	-0.023138752
44	0xbca91145	-0.020638118
45	0xbcaab3ba	-0.020837653
46	0x3cb59c04	0.02216912
47	0x3b53b0e2	0.0032301475
48	0x39967f2d	0.00028704983
49	0x3c6e534b	0.014546226
50	0xbc923f4b	-0.017852446
51	0x3caa4336	0.020784002
52	0xbc33baab	-0.010969798
53	0xbc30c1cf	-0.010788395
54	0xbc6046da	-0.013688767
55	0x3ce53853	0.027980959
56	0xbcd4821d	-0.02594095
57	0x3c02f0dd	0.007991997
58	0xbce53345	-0.027978549
59	0xbcb162f0	-0.021653622
60	0x3cdffdb7	0.02734266
61	0xbb5de29a	-0.003385699
62	0xbb84b2b2	-0.0040496225
63	0x3bc508fc	0.006013034
64	0x3c548abc	0.01297253
65	0x3cc4bf11	0.024016889
66	0xbc930cfc	-0.017950527
67	0xbcd97afc	-0.026547901
68	0x3a1ee5d7	0.00060614705
69	0xbc89c55c	-0.016817741
70	0x3cb40c5c	0.02197855
71	0x3b0b98bc	0.0021300754
72	0xbc9bbf00	-0.019011974
73	0xbc09a80a	-0.00840188
74	0xbc8d84a5	-0.017275164
75	0xbc96553d	-0.018351192
76	0x3a5c0e24	0.0008394441
77	0x3cc003c6	0.0234393
78	0x3b5b6be0	0.0033481047
79	0xbc731554	-0.014836628
80	0x3c9fd18e	0.019509103
81	0xbcbb0b57	-0.022832556
82	0x3c8a6fad	0.016898954
83	0xbbc32610	-0.005955465
84	0x3bd6defa	0.0065573426
85	0xbbe390e4	-0.0069447625
86	0xbcae3619	-0.02126603
87	0x39d4124a	0.00040449417
88	0xbc0da7a6	-0.0086459275
89	0xbc320472	-0.010865318
90	0xbcb6a9f9	-0.022297846
91	0x3cebd126	0.028786253
92	0x3c47418a	0.012161622
93	0x3cec6cd8	0.028860494
94	0xbc148a9f	-0.009066253
95	0xba2ebebd	-0.00066659955
96	0xb9c37837	-0.00037282865
97	0xbcc4bafe	-0.024014946
98	0xbccd719c	-0.025078587
99	0xbcbae8f8	-0.022816166
100	0xbcc79736	-0.024364095
101	0x3b6c2372	0.003603187
102	0x3c83152b	0.016001305
103	0x3cbec9e7	0.023289634
104	0x3b444aa3	0.0029951714
105	0xbb1398ec	-0.0022521568
106	0x3bc38c6a	0.0059676664
107	0xbc91c599	-0.017794417
108	0xbbf5635e	-0.007488652
109	0x3b52286a	0.0032067546
110	0xbcd6beb9	-0.02621399
111	0xbc394a27	-0.011309183
112	0x3cddfa9c	0.027097039
113	0xbc6fb911	-0.014631526
114	0xbcc621b5	-0.024185995
115	0x3c632b61	0.013865323
116	0x3c583793	0.013196844
117	0xbc3db672	-0.011579143
118	0x3c811338	0.015756235
119	0x3c63fef3	0.013915765
120	0xbc81a0dd	-0.015823776
121	0xbccfcc84	-0.025366075
122	0x3ca079d0	0.019589335
123	0x3cb25c1a	0.021772433
124	0xbceca48e	-0.02888706
125	0x39adba90	0.0003313613
126	0xbafe409a	-0.0019397915
127	0xbc267800	-0.010160446
128	0xbc1fc196	-0.009750744
129	0xbca104d4	-0.019655623
130	0xbc81e656	-0.015856903
131	0xbb93568a	-0.0044964002
132	0xbc91b0f2	-0.01778457
133	0xbcaef4ec	-0.021357022
134	0x3a988560	0.0011636429
135	0x3c7abbab	0.015303533
136	0xbc4bf3ca	-0.012448261
137	0x3cbd5a7e	0.02311444
138	0x3b5a5097	0.0033312195
139	0xbcdffc00	-0.027341843
140	0x3c97d39c	0.01853352
141	0xbc65d2e0	-0.014027327
142	0x3c68340e	0.014172567
143	0xbc7d3752	-0.015455084
144	0x3c9d0882	0.019169096
145	0xbb04f98c	-0.0020290343
146	0xbcd9def0	-0.026595563
147	0xbcdbb12c	-0.02681788
148	0xbc5bb990	-0.013410941
149	0xbcd08ec5	-0.025458703
150	0xbc1d206d	-0.00959025
151	0x3ce2a073	0.027664399
152	0xbca939a8	-0.020657375
153	0x3cca2134	0.024674036
154	0x3cc3dad1	0.02390805
155	0xbc4dc160	-0.012558311
156	0xbc98ca96	-0.018651288
157	0xbb849926	-0.004046577
158	0x3cc38133	0.023865318
159	0x3c9dd132	0.019264791
160	0x3c586159	0.013206803
161	0xbc4ed35b	-0.012623633
162	0x3c0ab7b4	0.00846665
163	0xbce90186	-0.02844311
164	0x3c003145	0.007824247
165	0xbcbf61f3	-0.023362136
166	0x3bb5b349	0.005545054
167	0xbca5dbac	-0.02024635
168	0x3c7a5848	0.015279837
169	0x3c7b3b4c	0.015333962
170	0x3cd2384b	0.025661608
171	0x3c68f286	0.014217978
172	0x3ce09666	0.027415466
173	0x3cb7b1aa	0.022423584
174	0x3c8a81e6	0.016907644
175	0x3cdaab80	0.026693106
176	0xbcb6b0f1	-0.02230117
177	0x3b0d4505	0.0021556031
178	0xbc88c0e9	-0.01669355
179	0x3c6f2520	0.014596254
180	0xbb015407	-0.0019733922
181	0x3c72065f	0.014772027
182	0x3c8c822d	0.017151916
183	0x3bc63cf7	0.006049748
184	0x3bfdc71f	0.0077446843
185	0x3c8f9f71	0.017532082
186	0x3cf0b89b	0.029384902
187	0x3caa4839	0.020786392
188	0x3c1adeb2	0.009452509
189	0x3c499fe3	0.012306186
190	0xbce3742a	-0.027765352
191	0x3c427cd4	0.011870582
192	0xbacb2cce	-0.0015501024
193	0x3c8d36d6	0.017238062
194	0x3b921c4b	0.004458939
195	0xba9b277e	-0.0011837331
196	0xbca5a1a5	-0.02021868
197	0x3b7213be	0.0036938037
198	0x3c19e237	0.009392313
199	0x3ba3610d	0.0049859346
200	0x3ba9987a	0.0051756473
201	0x3c9edc59	0.01939218
202	0x3ce4ae26	0.027915072
203	0xbb422ba5	-0.0029628065
204	0x3c83e6fc	0.016101353
205	0xbcc7e431	-0.024400802
206	0xbc59c286	-0.013291007
207	0x3bf7d442	0.007563145
208	0xbc941991	-0.018078597
209	0xbc095139	-0.008381181
210	0xbcbf0414	-0.023317374
211	0xbb0db72a	-0.0021624067
212	0xbcab1b61	-0.020887079
213	0x3cb61709	0.02222778
214	0xbafec47d	-0.001943722
215	0xbc9e150a	-0.019297142
216	0x3cef48d4	0.029209532
217	0x3c9cdb74	0.019147612
218	0x3c25d925	0.010122572
219	0x3c5f150f	0.013615861
220	0xbbae1c87	-0.0053134593
221	0xbbf49d27	-0.007465023
222	0x3b6c5cf1	0.003606614
223	0x3ab058c9	0.0013454194
224	0xbb912871	-0.00442987
225	0xbc94a0db	-0.018143108
226	0x3c977574	0.018488623
227	0xbc259d9c	-0.010108378
228	0xbc9ff70f	-0.019526986
229	0x3c280549	0.010255166
230	0xbc23a7aa	-0.009988705
231	0x3c97a992	0.018513475
232	0x3cb4b181	0.022057297
233	0x3caa6270	0.020798892
234	0x3b026a16	0.0019899658
235	0xbca35f70	-0.01994297
236	0x3cb00d9f	0.02149087
237	0xbcb70bcb	-0.02234449
238	0xbb9824dc	-0.004643066
239	0xbc948b0c	-0.018132709
240	0xbcebb4ad	-0.028772676
241	0xbcb7d0c8	-0.022438422
242	0x3a071a36	0.0005153747
243	0x3c5412a8	0.012943901
244	0xbc9a7bf0	-0.018857926
245	0xbc9f76be	-0.0194658
246	0xba8329e0	-0.0010006987
247	0x3ca0c931	0.019627186
248	0x3c478977	0.01217877
249	0x3cc7a650	0.024371296
250	0xbcd5c305	-0.02609397
251	0x3c8af9f4	0.01696489
252	0xbc943b4d	-0.018094683
253	0xbbd75c3e	-0.0065722754
254	0xbc9c3227	-0.019066883
255	0xbb866aab	-0.0041020713

decoder.0.bias f4 [64]
0	0x3bedf21b	0.0072615272
1	0x3c4d8888	0.012544759
2	0xbc43d674	-0.011952985
3	0x3c0dd821	0.008657486
4	0x3cda8ab7	0.026677473
5	0xbca17bff	-0.019712446
6	0xbc82d941	-0.015972735
7	0xbc874559	-0.01651256
8	0xbb4f36ba	-0.0031618313
9	0x3b86cb70	0.004113607
10	0xbc474935	-0.01216345
11	0xbb1dda2e	-0.0024086344
12	0x3c43c26e	0.011948211
13	0x3c98f7ff	0.018672941
14	0xbcc8f99c	-0.024533086
15	0x3b510cff	0.0031898615
16	0xbcaa17a8	-0.020763233
17	0x3af166a2	0.0018417428
18	0xbc1a5d41	-0.0094216475
19	0x3b7c54cf	0.0038502698
20	0x3c24a753	0.010049659
21	0x3cf011cf	0.029305367
22	0xbced5d71	-0.02897522
23	0x3c1c7e33	0.009551573
24	0x3cdfb359	0.0273072
25	0x3c007fba	0.007842952
26	0xbc29d4ae	-0.010365648
27	0xba05f3af	-0.0005109859
28	0xbce7e27c	-0.028306238
29	0x3c8bd295	0.017068187
30	0xbcd3c8b3	-0.025852537
31	0x3cc57d00	0.024107456
32	0x3cc45999	0.023968505
33	0xbb22ae6c	-0.0024823202
34	0xbc4fcc52	-0.012682991
35	0xbca3b235	-0.019982437
36	0x3c45bc59	0.012068831
37	0xbc022362	-0.007943006
38	0x3b4824b2	0.003053945
39	0xbc6e1d38	-0.0145333335
40	0x3ccac21a	0.024750758
41	0xbc0c1525	-0.008549963
42	0x3c9770c9	0.018486397
43	0x3c62708b	0.013820778
44	0xbc0a1ef4	-0.008430231
45	0xbcbff4c6	-0.023432147
46	0xbceaf2af	-0.028680174
47	0x3c23cb6b	0.009997229
48	0xbce25428	-0.02762802
49	0xbcb49456	-0.022043388
50	0xbca7aa42	-0.020466927
51	0x3c3a1fb8	0.011360101
52	0x3c7234cd	0.0147830965
53	0xbcea24c1	-0.028581979
54	0x3c275465	0.010212992
55	0xbb2e49de	-0.0026594321
56	0x3c80ceed	0.01572367
57	0x3b9fdb24	0.0048784185
58	0xbc9d3cc0	-0.019194007
59	0xbcd29051	-0.025703581
60	0xbbaad270	-0.0052130744
61	0xbb4de8f1	-0.0031419361
62	0x3c9edb96	0.019391816
63	0x3ca5dfde	0.02024835

decoder.1.weight f4 [64]
0	0x3f80145d	1.0006214
1	0x3f7fc57a	0.999107
2	0x3f8018ab	1.0007528
3	0x3f7fcb79	0.9991985
4	0x3f7fe3e9	0.9995714
5	0x3f7fcd48	0.9992261
6	0x3f7fca77	0.9991831
7	0x3f7fdc1c	0.99945235
8	0x3f800244	1.0000691
9	0x3f7fd490	0.9993372
10	0x3f7fd028	0.99926996
11	0x3f80115f	1.0005301
12	0x3f7fe3cc	0.99956965
13	0x3f800c39	1.000373
14	0x3f801a91	1.0008107
15	0x3f800c35	1.0003725
16	0x3f7fc7d6	0.999143
17	0x3f7feb39	0.99968296
18	0x3f800498	1.0001402
19	0x3f801d81	1.0009004
20	0x3f80146a	1.000623
21	0x3f7fefa8	0.9997506
22	0x3f800d76	1.0004108
23	0x3f801ca2	1.0008738
24	0x3f7fcef7	0.9992518
25	0x3f7fd8c3	0.9994013
26	0x3f7fd441	0.9993325
27	0x3f7fc52a	0.99910223
28	0x3f7fdab0	0.99943066
29	0x3f7fbe05	0.9989932
30	0x3f7fe1ef	0.9995412
31	0x3f8015af	1.0006617
32	0x3f801c3a	1.0008614
33	0x3f7fe8e0	0.99964714
34	0x3f800ebf	1.00045
35	0x3f7fe3ec	0.99957156
36	0x3f801d27	1.0008897
37	0x3f7fb9f1	0.998931
38	0x3f8017e9	1.0007297
39	0x3f802091	1.0009938
40	0x3f7fcdb2	0.9992324
41	0x3f80216a	1.0010197
42	0x3f7fcf56	0.99925745
43	0x3f7fc09d	0.9990328
44	0x3f7fcade	0.99918926
45	0x3f800956	1.0002849
46	0x3f800609	1.0001842
47	0x3f801de6	1.0009124
48	0x3f800740	1.0002213
49	0x3f8016fa	1.0007012
50	0x3f800e1c	1.0004306
51	0x3f801b83	1.0008396
52	0x3f7fcbe7	0.99920505
53	0x3f80072e	1.0002191
54	0x3f7fe9d1	0.9996615
55	0x3f801587	1.000657
56	0x3f7fd331	0.9993163
57	0x3f801d92	1.0009024
58	0x3f7fbbbe	0.99895847
59	0x3f7fe075	0.9995187
60	0x3f7fd821	0.9993916
61	0x3f80208d	1.0009934
62	0x3f7fe13d	0.9995306
63	0x3f80189d	1.0007511
